timeSerise/logs/lightning_logs/version_9/checkpoints/epoch=199-step=3000.ckpt (torch, 46491 bytes, 27 tensors)

lstm.weight_ih_l0 f4 [40, 29]
0.35284877 0.11494322 0.19214326 -0.2821549 -0.16307154 0.17272167 -0.0848708 -0.1976386
-0.29763055 0.23357506 0.009093159 0.030644529 0.104003966 -0.1803788 0.051532757 0.24432793
-0.2509826 0.17360537 0.15348831 -0.0054760664 0.1782773 -0.23156226 -0.01305204 0.074603714
-0.1164474 -0.34673795 -0.323083 -0.07597306 -0.011721713 -0.113570176 0.28513655 0.12743624
0.1434765 -0.05184154 0.30702585 0.030777218 -0.12422478 -0.28734872 0.06735161 0.17027366
-0.22676946 0.25942153 0.11638171 -0.24711882 -0.17750214 -0.026902182 -0.26223332 -0.11737387
-0.06353552 0.06165545 -0.24022023 -0.095142946 0.06927018 -0.1073475 0.16213156 -0.22666429
0.036039907 -0.1543116 0.17045915 -0.22533506 0.08451311 0.05344299 0.2523152 0.20738924
-0.0754211 -0.2592834 0.05064247 0.2909597 -0.265358 -0.2409975 0.019298231 -0.048320763
-0.25805655 0.03676182 0.15792277 0.009576539 0.012818398 0.19480404 -0.12137356 0.06992075
0.12071951 -0.25849804 -0.15000798 -0.060075358 -0.17848338 -0.16783789 0.04228376 0.18103069
0.07179453 -0.18957186 -0.10019424 0.05752336 0.28761533 0.24755205 -0.098533444 0.2199619
0.1415925 0.13339698 -0.00062990846 -0.059187386 0.104960606 0.14431559 0.25595307 0.10891841
-0.24720919 0.044454608 0.0027424358 0.13859315 0.016934836 -0.19362576 0.18139097 -0.25100574
0.016731102 0.26344803 -0.33055872 0.1241113 -0.05109934 -0.26652712 0.21931541 0.18766242
0.13295457 0.1728548 0.29194573 -0.3504592 0.11178778 -0.008948307 0.15771633 -0.10791358
0.08657491 -0.06284361 0.29901132 -0.2205824 -0.18472937 -0.20129848 -0.122258656 0.24848133
-0.034285568 -0.17844085 -0.15707119 -0.24237445 0.16288812 -0.31151912 0.07729255 0.14371747
-0.23475571 0.18128218 -0.003537291 -0.094488785 0.24358319 0.30290502 0.2992693 -0.16584182
-0.24747595 0.220642 -0.15402094 0.26512966 0.020091457 0.09401806 -0.043110855 0.05399728
0.09857343 0.016407967 0.15144262 0.1972341 0.12356654 -0.19851018 0.09531281 -0.2963237
-0.18997115 0.20952906 0.3135104 0.03194667 -0.07575408 0.07863598 -0.08785876 -0.0959354
0.09862206 0.27552858 0.2698841 0.21423289 0.1673591 0.21006005 0.0072159814 -0.27345005
0.23174149 0.22830722 -0.043777104 -0.2799608 0.3203243 -0.2565748 -0.051533215 0.24985757
0.18790592 0.1822563 -0.08560801 -0.19720839 -0.38279763 -0.24443415 -0.27806982 -0.25011897
0.2718109 0.19554004 -0.047718395 -0.15678129 0.04004102 0.23106845 0.20049064 0.16907033
-0.18054874 0.15166238 -0.19952977 -0.17621715 0.19422044 0.24078706 -0.22455658 0.18619819
0.21582419 -0.24548103 0.11653094 -0.2948584 0.03931476 0.14260828 0.008264551 -0.20133662
0.02364486 0.31276456 0.018374657 -0.08961817 0.1220456 0.1384444 -0.18424882 -0.2567146
-0.018597927 -0.013687545 0.0231271 0.24933797 0.029402992 0.2572925 0.06053954 -0.10477875
-0.26873398 0.2678317 0.0067415093 -0.04762103 0.054618355 0.023011385 0.35843208 0.0442509
0.19924065 0.19822738 0.3052472 -0.13298804 -0.17949371 0.045033347 0.34723917 -0.24685805
00000000: 98a8 b43e 5a67 eb3d 34c1 443e 9b76 90be
00000010: 3afc 26be f3dd 303e bed0 adbd c661 4abe
00000020: 0863 98be 4d2e 6f3e 79fb 143c 3c0a fb3c
00000030: 0800 d53d 38b5 38be 0314 533d 1a31 7a3e
00000040: cb80 80be 9bc5 313e 0a2c 1d3e 9370 b3bb
00000050: 538e 363e a81e 6dbe 39d8 55bc d5c9 983d
00000060: f97b eebd a387 b1be 236b a5be c497 9bbd
00000070: 6d0c 40bc 7b97 e8bd 6bfd 913e a57e 023e
00000080: 81eb 123e cb57 54bd 7e32 9d3e 8120 fc3c
00000090: 9069 febd 5f1f 93be a4ef 893d 385c 2e3e
000000a0: 4136 68be e6d2 843e 8959 ee3d b70c 7dbe
000000b0: 1fc3 35be f761 dcbc 7243 86be b661 f0bd
000000c0: e91e 82bd 6d8a 7c3d 4bfc 75be 4eda c2bd
000000d0: 86dd 8d3d 02d9 dbbd d105 263e af1a 68be
000000e0: 959e 133d dc03 1ebe d88c 2e3e 3cbe 66be
000000f0: 3615 ad3d 09e7 5a3d 752f 813e d85d 543e
00000100: 6176 9abd cbc0 84be 7b6e 4f3d abf8 943e
00000110: 01dd 87be 0cc8 76be 5317 9e3c feeb 45bd
00000120: fd1f 84be 9093 163d 82b6 213e eae6 1c3c
00000130: 4204 523c b67a 473e b392 f8bd 9c32 8f3d
00000140: ca3b f73d db59 84be b19b 19be 9411 76bd
00000150: 59c4 36be b2dd 2bbe bc31 2d3d 1c60 393e
00000160: 0309 933d 201f 42be a332 cdbd 9d9d 6b3d
00000170: 5142 933e 497e 7d3e e7cb c9bd b13d 613e
00000180: a0fd 103e 3899 083e 7120 25ba 796e 72bd
00000190: 96f5 d63d 77c7 133e 480c 833e 9e10 df3d
000001a0: 6824 7dbe 0916 363d 70ba 333b 5deb 0d3e
000001b0: edba 8a3c d545 46be 8ebe 393e d383 80be
000001c0: aa0f 893c a9e2 863e fe3e a9be 112e fe3d
000001d0: 8b4d 51bd 3e76 88be 3894 603e 942a 403e
000001e0: 3e25 083e d900 313e e979 953e 636f b3be
000001f0: fef0 e43d eb9b 12bc 6480 213e cc01 ddbd
00000200: 304e b13d 27b4 80bd 0318 993e 5ae0 61be
00000210: b229 3dbe 3021 4ebe bf62 fabd e471 7e3e
00000220: 066f 0cbd 33b9 36be 45d7 20be 0231 78be
00000230: 25cc 263e 6f7f 9fbe 8e4b 9e3d ac2a 133e
00000240: cd63 70be 09a2 393e e5d1 67bb 5683 c1bd
00000250: df6d 793e 5e16 9b3e d339 993e 70d2 29be
00000260: 566a 7dbe faef 613e aab7 1dbe 13bf 873e
00000270: d796 a43c 8a8c c03d 0295 30bd 402c 5d3d
00000280: dee0 c93d 006a 863c c613 1b3e bcf7 493e
00000290: 7410 fd3d 4146 4bbe 5d33 c33d bdb7 97be
000002a0: cc87 42be c98e 563e 6f84 a03e 83da 023d
000002b0: f524 9bbd e70b a13d 4bef b3bd c779 c4bd
000002c0: 5dfa c93d 1512 8d3e 402e 8a3e de5f 5b3e
000002d0: 2f60 2b3e fb19 573e 0a74 ec3b a501 8cbe
000002e0: a44d 6d3e 5ec9 693e 9f4f 33bd 0657 8fbe
000002f0: 8c01 a43e c65d 83be 7e14 53bd aada 7f3e
00000300: 696a 403e 65a1 3a3e 4153 afbd fff0 49be
00000310: 0dfe c3be f24c 7abe 2b5f 8ebe 980f 80be
00000320: cc2a 8b3e a63b 483e 5d74 43bd 468b 20be
00000330: 0d02 243d 359d 6c3e 6b4d 4d3e c620 2d3e
00000340: c5e1 38be 624d 1b3e 8851 4cbe 4572 34be
00000350: b9e1 463e e290 763e 29f2 65be bdaa 3e3e
00000360: 0401 5d3e 615f 7bbe c6a7 ee3d aef7 96be
00000370: 8408 213d e807 123e 0a68 073c 302b 4ebe
00000380: deb2 c13c ad22 a03e 7386 963c bb89 b7bd
00000390: 0bf3 f93d 5ec4 0d3e b9ab 3cbe 1970 83be
000003a0: ae5a 98bc ba41 60bc 0b75 bd3c 7452 7f3e
000003b0: 8bde f03c d8bb 833e 4ff8 773d 3e96 d6bd
000003c0: 8097 89be 3d21 893e e1e7 dc3b 450e 43bd
000003d0: 7fb7 5f3d 5f82 bc3c 6984 b73e 6f40 353d
000003e0: be05 4c3e 1efc 4a3e 5c49 9c3e 042e 08be
000003f0: 33cd 37be e374 383d 55c9 b13e 5bc8 7cbe

lstm.weight_hh_l0 f4 [40, 10]
0.053671062 0.23766108 0.03182764 0.13469222 0.22285166 -0.21617965 0.19686699 0.12495225
-0.25381917 0.060185086 0.08002597 0.28206083 0.04020988 0.0680728 0.16569674 0.2505754
-0.09449869 0.13565549 0.31455606 0.25227565 -0.07267343 -0.049083203 0.11404653 0.073996514
-0.08546973 -0.130746 0.27846944 -0.083713576 0.20314819 -0.18677044 0.08211591 0.24380897
-0.062451188 0.2489967 0.0985772 0.24620438 -0.03179222 0.0075081247 -0.1932614 0.104920045
-0.044970352 0.019163458 -0.14874399 0.29204246 0.2916272 -0.12793526 -0.021700652 0.032098576
-0.2261343 -0.33612195 0.20168121 0.25614315 -0.24622439 0.27632654 -0.18567872 -0.13163312
-0.16255867 0.1139432 0.32735348 -0.04636361 0.05204534 -0.20296122 0.07706703 -0.04140035
-0.005659579 0.1622508 -0.24752928 -0.08501515 -0.08145356 -0.016794976 0.198069 0.014633283
-0.20130959 -0.2549242 -0.25088647 -0.16240408 -0.30870003 -0.13755837 -0.2049037 0.1719362
0.36799368 0.108127356 -0.33946016 0.14230694 0.045364287 -0.103879765 0.0822663 -0.36868966
0.16997738 0.20858943 0.093638286 -0.17783582 0.24216197 0.0061572962 0.108546235 0.31561878
-0.010428282 0.2481515 0.1722126 -0.07830299 0.014360099 -0.027094927 -0.011140527 0.18741407
0.1580883 0.28692645 -0.05465209 -0.1553327 0.05938426 0.1619372 0.18005665 0.13713059
-0.33860818 -0.21419442 -0.08695921 0.26290458 0.07389027 -0.09124005 -0.1273626 -0.068036556
0.1418115 -0.21254252 -0.020601597 0.13950638 -0.25053975 -0.28356928 0.16446176 -0.27446514
-0.13711159 -0.015651032 -0.05534734 -0.19017772 -0.14368019 0.32170045 0.18131787 0.17194858
0.24632195 -0.09348859 -0.05187075 -0.09326194 0.16894269 -0.01228719 -0.11470709 -0.22752535
-0.325668 -0.26346937 0.10449108 0.2563297 0.14672066 -0.35652697 -0.21170488 0.28878686
-0.123428226 -0.23049074 -0.33465046 0.36723733 -0.17548929 -0.14763168 -0.08803496 -0.13462289
0.09318583 -0.28845534 0.017604688 -0.29630315 0.062331427 -0.17638494 0.2802108 -0.017535847
0.17871402 -0.26684213 0.32825047 -0.12847915 -0.13467716 -0.21630973 -0.30824885 0.21847364
0.052526776 0.19831952 -0.11607157 0.2686136 -0.118744306 0.03892354 -0.053184204 0.2983379
-0.28433222 -0.05849531 0.09433598 0.20244607 0.31516322 0.04441098 0.20896003 -0.10794142
0.18499222 0.14173052 0.21314321 -0.0496267 -0.14991678 0.02396898 -0.20167062 0.30432555
-0.048048668 0.147094 0.20117044 -0.09739358 -0.30255127 0.21691668 -0.050731737 0.2213315
0.32384354 -0.12350417 -0.23595491 -0.24665332 -0.1380358 0.008205227 -0.1704758 0.31116405
-0.26951647 -0.12573168 -0.2246907 0.19834824 -0.07703354 -0.03948313 0.13920076 -0.012751597
-0.078404896 -0.11856197 0.11414976 -0.12283334 -0.31766304 -0.22283031 -0.062292233 0.26140335
-0.27199915 -0.13071546 0.07090037 0.017865479 0.12584506 -0.18047932 -0.049601678 0.23330301
0.07294181 -0.06202074 0.30903277 -0.06463501 0.28439742 0.07406009 -0.16793491 0.23281698
-0.21771225 -0.035938367 0.18150628 -0.00080425414 0.020746386 -0.09001379 -0.29583845 0.034044243
00000000: 30d6 5b3d 6d5d 733e b35d 023d c2ec 093e
00000010: 3a33 643e 335e 5dbe 8097 493e f7e6 ff3d
00000020: 96f4 81be a384 763d a8e4 a33d 476a 903e
00000030: 1db3 243d c169 8b3d 68ac 293e 6b4b 803e
00000040: 8788 c1bd 46e9 0a3e 7e0d a13e 462a 813e
00000050: cfd5 94bd 780b 49bd 3a91 e93d 7c8b 973d
00000060: c10a afbd 48e2 05be 8c93 8e3e 0672 abbd
00000070: 1406 503e c040 3fbe 632c a83d 0fa9 793e
00000080: d1cc 7fbd fef8 7e3e d8e2 c93d 001d 7c3e
00000090: 8f38 02bd b706 f63b 51e6 45be 52e0 d63d
000000a0: d532 38bd affc 9c3c 5850 18be 9786 953e
000000b0: 2950 953e 7601 03be 91c5 b1bc cc79 033d
000000c0: c08f 67be 2d18 acbe 8585 4e3e 3225 833e
000000d0: 3f22 7cbe ac7a 8d3e 9022 3ebe d5ca 06be
000000e0: c875 26be 0d5b e93d e09a a73e c5e7 3dbd
000000f0: 7f2d 553d 11d5 4fbe 52d5 9d3d 6a93 29bd
00000100: fd73 b9bb 1325 263e 5178 7dbe 6c1c aebd
00000110: 20d1 a6bd 9e95 89bc 9ad2 4a3e 70c0 6f3c
00000120: 1a24 4ebe 6d85 82be 3174 80be 414d 26be
00000130: ee0d 9ebe 1adc 0cbe 47d2 51be 0b10 303e
00000140: ab69 bc3e e071 dd3d b9cd adbe e9b8 113e
00000150: e7cf 393d eabe d4bd 3c7b a83d e4c4 bcbe
00000160: 8d0e 2e3e 7898 553e 6ec5 bf3d 981a 36be
00000170: 4ff9 773e 25c3 c93b 7d4d de3d c998 a13e
00000180: 63db 2abc 6d1b 7e3e 8058 303e 515d a0bd
00000190: 9f46 6b3c 2ef6 ddbc c286 36bc 79e9 3f3e
000001a0: e6e1 213e 06e8 923e dfda 5fbd 890f 1fbe
000001b0: e93c 733d ded2 253e c560 383e f66b 0c3e
000001c0: 0d5e adbe c855 5bbe ac17 b2bd 6e9b 863e
000001d0: c853 973d 10dc babd 576b 02be c056 8bbd
000001e0: 0937 113e bfa4 59be aec4 a8bc c3da 0e3e
000001f0: bf46 80be fe2f 91be aa68 283e b286 8cbe
00000200: fb66 0cbe 9836 80bc e4b3 62bd f3bd 42be
00000210: e620 13be ecb5 a43e 64ab 393e 4a13 303e
00000220: d23b 7c3e f276 bfbd 6c76 54bd 1e00 bfbd
00000230: 50ff 2c3e 3650 49bc 8deb eabd 68fc 68be
00000240: f5bd a6be 75e5 86be 6bff d53d a53d 833e
00000250: f13d 163e b48a b6be 2ac9 58be dfdb 933e
00000260: f0c7 fcbd c405 6cbe 4e57 abbe 8806 bc3e
00000270: 77b3 33be c22c 17be ac4b b4bd 95da 09be
00000280: 36d8 be3d 6bb0 93be b537 903c 0cb5 97be
00000290: 3d4f 7f3d 419e 34be ca77 8f3e 56a7 8fbc
000002a0: cf00 373e 889f 88be 7210 a83e 0a90 03be
000002b0: cfe8 09be 4c80 5dbe cbd2 9dbe 8eb7 5f3e
000002c0: 5126 573d 4614 4b3e eeb6 edbd b987 893e
000002d0: 3730 f3bd 4a6e 1f3d aed7 59bd bfbf 983e
000002e0: fe93 91be c798 6fbd 3933 c13d 064e 4f3e
000002f0: 135d a13e 4ae8 353d 9ef9 553e 6410 ddbd
00000300: 9a6e 3d3e ce21 113e 3742 5a3e 5e45 4bbd
00000310: c983 19be 985a c43c be82 4ebe 8fd0 9b3e
00000320: aece 44bd cf9f 163e a0ff 4d3e 4976 c7bd
00000330: 00e8 9abe 681f 5e3e 15cc 4fbd baa4 623e
00000340: d2ce a53e c1ef fcbd 2a9e 71be b092 7cbe
00000350: 4259 0dbe 376f 063c 3591 2ebe e550 9f3e
00000360: 10fe 89be cebf 00be 5215 66be cd1b 4b3e
00000370: c3c3 9dbd 10b9 21bd a58a 0e3e 13ec 50bc
00000380: bf92 a0bd 9ed0 f2bd 59c7 e93d 0c90 fbbd
00000390: bba4 a2be a12d 64be 2426 7fbd a9d6 853e
000003a0: 7943 8bbe 46da 05be 3734 913d a05a 923c
000003b0: 87dd 003e 92cf 38be 212b 4bbd fce6 6e3e
000003c0: 8462 953d 7609 7ebd 8b39 9e3e 5c5f 84bd
000003d0: 8a9c 913e d1ac 973d 21f7 2bbe 9367 6e3e
000003e0: f6ef 5ebe 1c34 13bd c8dc 393e 95d4 52ba
000003f0: 53f4 a93c 2659 b8bd 2378 97be fa71 0b3d

lstm.bias_ih_l0 f4 [40]
-0.1327194 -0.28092346 0.23513488 0.057664994 0.2733176 -0.1593197 0.15599118 0.32137257
0.19057077 0.18051073 0.23859589 0.20163694 0.015875662 -0.054440185 0.10367784 -0.09992384
0.1723526 0.16372994 0.13603508 0.21740481 0.1193751 0.1980921 -0.11129567 0.2530452
-0.19171044 0.24549122 -0.109704696 -0.0040858886 0.16238455 0.012141022 -0.09303563 -0.22502397
0.11034776 -0.24251613 0.24535444 0.17834643 0.02437573 0.18913539 0.34947726 -0.15404926
00000000: 98e7 07be 33d5 8fbe 33c7 703e 2132 6c3d
00000010: 49f0 8b3e b424 23be 27bc 1f3e f28a a43e
00000020: fc24 433e ced7 383e 7b52 743e ea79 4e3e
00000030: ad0d 823c acfc 5ebd 0c55 d43d dfa4 ccbd
00000040: 337d 303e d2a8 273e c84c 0b3e 5e9f 5e3e
00000050: ef7a f43d a8d8 4a3e fcee e3bd 248f 813e
00000060: be4f 44be 0d62 7b3e dbac e0bd ebe2 85bb
00000070: 2348 263e 23eb 463c 7789 bebd af6c 66be
00000080: 02fe e13d 2656 78be 323e 7b3e 72a0 363e
00000090: 9caf c73c b5ac 413e afee b23e 17bf 1dbe

lstm.bias_hh_l0 f4 [40]
0.198713 -0.21055155 -0.28632602 -0.05061433 -0.023598205 0.21361537 -0.25742215 0.20410714
-0.15566275 0.007815224 -0.13902146 0.20798667 -0.084041305 -0.049638677 0.053801954 0.30078223
-0.062299024 0.2285848 -0.11320683 0.27237722 0.09969844 0.24486807 -0.21471223 0.21674266
0.06805774 -0.14113536 0.08858251 -0.06543179 0.21194702 0.02408772 0.20432678 0.124275036
-0.08937024 0.013099857 -0.055242233 -0.06341562 -0.14076413 -0.2643806 -0.056720156 -0.21868566
00000000: 6c7b 4b3e d39a 57be 5399 92be f950 4fbd
00000010: 0651 c1bc fdbd 5a3e d6cc 83be 7601 513e
00000020: 0e66 1fbe 6d0b 003c a45b 0ebe 75fa 543e
00000030: d91d acbd ed51 4bbd 705f 5c3d 2100 9a3e
00000040: 432d 7fbd 2212 6a3e fcd8 e7bd 0775 8b3e
00000050: b22e cc3d b2be 7a3e 86dd 5bbe caf1 5d3e
00000060: db61 8b3d ca85 10be bf6a b53d 1a01 86bd
00000070: a408 593e 9c53 c53c 0a3b 513e e983 fe3d
00000080: bf07 b7bd c8a0 563c ae45 62bd 0ce0 81bd
00000090: 7924 10be e55c 87be 6553 68bd 22ef 5fbe

lstm.weight_ih_l1 f4 [40, 10]
-0.12638359 -0.040990476 -0.2718718 -0.006188767 -0.05533885 0.1031389 -0.18064289 -0.09466981
0.021923717 -0.11946688 0.2900696 -0.014722207 -0.18046302 -0.12888218 0.11680633 0.28073406
-0.19014683 -0.22659226 0.3089054 -0.30874258 0.101549245 -0.21493061 -0.070296064 -0.07054202
-0.09826594 0.0908285 -0.20694949 0.059130967 0.19203559 -0.2647873 0.1312834 0.19962354
0.27033615 0.032382302 -0.25572687 -0.017374538 0.1715051 -0.27291247 -0.13639879 -0.22876717
0.12182686 0.060170833 -0.26967573 -0.082446314 -0.20313069 -0.061018705 -0.288021 0.18742076
0.08534191 -0.31814623 0.2751032 0.20675643 0.19182515 -0.04242192 -0.2302275 0.23019832
-0.18575673 -0.16066672 -0.12922406 0.16890481 0.23369241 0.29843396 0.09787802 -0.12449858
-0.036793936 0.015326156 -0.23968169 0.19023699 -0.14721479 -0.36819914 0.2135273 0.099932194
-0.101840064 -0.2899693 0.010070142 -0.105518065 0.20620456 -0.26053828 0.24732837 0.0023251025
0.3975774 0.03304154 0.17520507 0.0868135 -0.2972356 -0.19783273 0.11714189 -0.38464054
-0.19016996 -0.047642026 0.20079342 -0.12565047 -0.2993458 0.028484862 0.20764124 -0.051731437
-0.24247894 -0.02436944 0.16347833 0.13931103 0.29823926 0.0732248 -0.1726147 0.06775024
-0.29052812 -0.28181252 -0.09985835 -0.1888383 -0.24289921 -0.2602221 -0.17024064 0.05297458
-0.27070063 -0.032502536 -0.04024458 0.15114439 0.26590362 -0.24493544 0.05339338 0.009361918
-0.19206353 0.09138193 0.09137492 0.16122586 -0.29840872 -0.30223182 0.04449967 0.09325061
0.052232187 0.06729377 -0.3008109 0.052375764 0.1016567 0.15482582 0.30392355 -0.09547678
0.2825385 0.16714475 -0.2321125 0.23411682 0.19573529 0.089710265 -0.30753413 -0.22544968
0.15727878 -0.2694797 0.13323241 -0.10407846 -0.16148107 -0.121446505 -0.1308778 -0.0051102755
0.15405776 -0.26879358 0.049664747 0.22742747 0.34655008 -0.06869062 0.035012282 0.16876724
0.2213876 -0.21824637 -0.12382914 -0.1025398 0.2893642 -0.09307936 -0.07338842 0.07975594
0.15409957 0.11271144 0.1737102 -0.23070884 0.03244402 0.24017596 0.03950906 0.10344637
-0.18230352 -0.109179325 0.11896407 -0.043223105 0.25113273 0.12029382 0.018795284 0.14166595
-0.17363995 0.16454886 0.07504267 0.17578506 -0.20853125 0.12965517 -0.12541133 -0.064783156
-0.29715553 0.03211264 0.20193572 0.25930896 -0.19679284 -0.09253587 0.03124227 -0.07002609
0.048393678 -0.30456153 0.27604344 0.29969284 0.043905467 -0.1892667 -0.1419618 0.13410656
-0.10279949 0.28232098 -0.21135601 -0.21978168 -0.18377322 0.25744992 0.043402467 -0.2904788
0.28486463 0.12392155 0.23044771 -0.089837246 -0.21609433 0.3052692 -0.07370874 -0.16808188
0.20134829 0.046886712 0.24248238 -0.09770889 -0.101770766 -0.23143539 0.036303267 0.320926
0.28936225 -0.1337758 -0.2032175 -0.06508932 -0.09500573 0.12483971 0.12744382 -0.20507038
-0.14660433 -0.1527512 -0.29499972 -0.010895164 -0.09592559 -0.07953359 0.19714917 0.3331795
-0.04884366 -0.09364455 -0.32063326 -0.20753278 0.31060028 -0.113979235 -0.026645113 0.018508304
00000000: b36a 01be a1e5 27bd c832 8bbe 24cb cabb
00000010: fdaa 62bd 7d3a d33d 73fa 38be 3fe2 c1bd
00000020: 5e99 b33c 0dab f4bd 0184 943e 6935 71bc
00000030: 4ccb 38be b1f9 03be 2838 ef3d 60bc 8f3e
00000040: dab5 42be cd07 68be d928 9e3e 8213 9ebe
00000050: 0df9 cf3d c516 5cbe 62f7 8fbd 5678 90bd
00000060: a73f c9bd 4b04 ba3d 91ea 53be 5033 723d
00000070: faa4 443e 3392 87be 286f 063e 1d6a 4c3e
00000080: 8069 8a3e 4ea3 043d a2ee 82be 0c55 8ebc
00000090: 089f 2f3e 2fbb 8bbe 20ac 0bbe f141 6abe
000000a0: 5c80 f93d b175 763d f012 8abe 9dd9 a8bd
000000b0: 7e01 50be c0ee 79bd 7d77 93be 3aeb 3f3e
000000c0: bdc7 ae3d 10e4 a2be 54da 8c3e f5b7 533e
000000d0: d06d 443e 9bc2 2dbd c2c0 6bbe 1cb9 6b3e
000000e0: 0337 3ebe d185 24be 5053 04be 62f5 2c3e
000000f0: 104d 6f3e 56cc 983e 4574 c83d 1df9 febd
00000100: 3db5 16bd 8f1a 7b3c 1e6f 75be 7ccd 423e
00000110: 79bf 16be 9984 bcbe e7a6 5a3e 40a9 cc3d
00000120: 8691 d0bd db76 94be 3dfd 243c db19 d8bd
00000130: 4a27 533e 4665 85be a643 7d3e bf60 183b
00000140: 448f cb3e 9156 073d f568 333e 47cb b13d
00000150: 442f 98be aa94 4abe 16e8 ef3d 9bef c4be
00000160: eabb 42be 4924 43bd ca9c 4d3e 84aa 00be
00000170: da43 99be 1659 e93c e89f 543e 58e4 53bd
00000180: 664c 78be 6ba2 c7bc dd66 273e 8da7 0e3e
00000190: d1b2 983e e2f6 953d e8c1 30be a3c0 8a3d
000001a0: 1ac0 94be bb49 90be 8982 ccbd d45e 41be
000001b0: 92ba 78be d53b 85be 9053 2ebe e0fb 583d
000001c0: 4699 8abe 6121 05bd 80d7 24bd 98c5 1a3e
000001d0: 8524 883e 5bd0 7abe 04b3 5a3d bb62 193c
000001e0: 4dac 44be 7326 bb3d c622 bb3d 6418 253e
000001f0: 07c9 98be 21be 9abe 4945 363d 2dfa be3d
00000200: 6bf1 553d 51d1 893d e303 9abe f887 563d
00000210: 6331 d03d a98a 1e3e de9b 9b3e 5489 c3bd
00000220: e3a8 903e fe27 2b3e e6ae 6dbe 52bc 6f3e
00000230: d56e 483e 04ba b73d 1d75 9dbe 48dc 66be
00000240: b00d 213e 3ef9 89be 146e 083e 1627 d5bd
00000250: 4b5b 25be f2b8 f8bd d404 06be 1974 a7bb
00000260: 51c1 1d3e 509f 89be 436d 4b3d bfe2 683e
00000270: 036f b13e abad 8cbd 0a69 0f3d 52d1 2c3e
00000280: 6eb3 623e fa7b 5fbe 229a fdbd 6300 d2bd
00000290: 8b27 943e 64a0 bebd ab4c 96bd 1557 a33d
000002a0: 47cc 1d3e 41d5 e63d 16e1 313e f03e 6cbe
000002b0: 05e4 043d b0f0 753e 41d4 213d b1db d33d
000002c0: c6ad 3abe 6999 dfbd 6fa3 f33d b60a 31bd
000002d0: 7894 803e 9b5c f63d 91f8 993c e110 113e
000002e0: acce 31be 7f7f 283e f9af 993d 0001 343e
000002f0: 3789 55be 53c4 043e d46b 00be 08ad 84bd
00000300: c524 98be 8b88 033d 3dc8 4e3e 25c4 843e
00000310: 1084 49be 7283 bdbd caef ff3c d769 8fbd
00000320: 7338 463d 7def 9bbe 9155 8d3e 5771 993e
00000330: 38d6 333d 21cf 41be 6f5e 11be 3b53 093e
00000340: 8a88 d2bd 608c 903e b66d 58be 730e 61be
00000350: 0c2f 3cbe 7ad0 833e c9c6 313d a3b9 94be
00000360: c7d9 913e 95ca fd3d 7cfa 6b3e 97fc b7bd
00000370: d547 5dbe 3f4c 9c3e 9cf4 96bd a81d 2cbe
00000380: 3f2e 4e3e 480c 403d 4d4d 783e 991b c8bd
00000390: 316d d0bd 66fd 6cbe bcb2 143d 6a50 a43e
000003a0: 4a27 943e 86fc 08be 4018 50be 8d4d 85bd
000003b0: 5d92 c2bd f6ab ff3d a280 023e f8fd 51be
000003c0: 721f 16be d06a 1cbe 340a 97be a181 32bc
000003d0: a374 c4bd 82e2 a2bd 79e1 493e 8196 aa3e
000003e0: 4a10 48bd b7c8 bfbd 0b2a a4be 7983 54be
000003f0: 0007 9f3e f26d e9bd da46 dabc ba9e 973c

lstm.weight_hh_l1 f4 [40, 10]
-0.23263843 -0.21321772 0.23885092 -0.19888082 -0.10778136 -0.22329666 0.23804268 -0.25247917
-0.007758332 0.19518042 -0.009980315 0.25921062 0.28104886 -0.017203543 -0.27082285 -0.09229415
-0.12482102 -0.2098296 0.102719925 -0.06560437 0.15122627 -0.06818613 -0.25118345 0.08330991
0.20575495 0.13024622 0.00601347 -0.17486113 -0.17886221 0.31623006 -0.11496923 -0.19185713
-0.06795662 0.05979388 0.030081758 0.0957931 -0.15758073 -0.32686552 0.3188715 0.2318786
-0.06535389 0.15097381 -0.18299101 0.17004173 0.08914054 -0.27751818 0.051457237 -0.03463441
-0.09022692 -0.09274275 -0.23188859 -0.16983609 -0.17903481 -0.0009828673 0.15084562 0.288816
0.04898913 -0.29572907 -0.35964403 -0.049602516 -0.26385063 -0.11000505 0.02214119 0.28322417
0.24731782 -0.26616105 -0.114744686 0.31196073 0.19741805 0.21046184 -0.11178094 0.1461293
0.19267492 -0.06786427 0.2825917 0.12361436 -0.065630905 0.15256356 0.09198186 -0.2542614
-0.30216327 -0.2232727 0.19532695 -0.12262222 0.071869045 -0.3918301 -0.030581681 0.15207466
-0.08706175 0.17777869 -0.33991915 -0.2413658 0.22602707 -0.011232935 -0.21596912 0.21885125
0.028198162 -0.050746445 0.10065453 0.025548972 -0.06279344 0.28455353 -0.20402528 -0.11560348
0.2973582 -0.1683838 -0.10118076 0.30442178 0.18059383 0.18636934 0.03172285 0.063371606
-0.27037966 -0.14897677 -0.010960492 0.13088144 -0.040311582 0.23864445 -0.2683508 0.09139708
0.0013863088 -0.24012327 0.25145227 0.057875622 -0.2868305 -0.25961262 0.099973276 -0.1644765
-0.06361672 0.19361532 -0.07998992 0.050515343 -0.081043325 0.22603785 -0.009211583 -0.020584602
-0.2862612 -0.21415935 0.07381806 0.20452783 -0.26734746 -0.064989924 -0.24605878 -0.13868243
-0.2498235 0.052269347 -0.21528293 -0.14702275 0.1825327 -0.2836443 0.044536635 0.25245908
-0.19213828 -0.0789484 -0.12827697 0.1757454 -0.32273167 0.21927623 -0.37493688 0.2480613
-0.28434503 0.18122557 -0.036884714 -0.00397403 -0.035230834 -0.18864955 -0.05405351 -0.1675567
0.014553477 -0.09164696 -0.1609287 0.2363158 -0.026720854 0.207854 0.09683616 0.20643374
-0.15678456 -0.12350282 0.11059671 -0.04317413 -0.18732518 -0.36474887 -0.17102568 -0.028941788
-0.11083728 0.054218378 -0.2098317 -0.029948074 -0.115548596 0.07600856 -0.08192764 0.19553843
-0.14493889 -0.104341395 -0.1879172 0.050259896 -0.31234282 0.089867145 0.25149217 -0.17537038
0.29720804 0.25995028 -0.06121063 -0.029061997 -0.2550274 0.19351442 -0.09794522 0.24158049
-0.26973504 -0.1539428 -0.05209616 -0.23538785 -0.16632184 -0.07291957 0.16663855 0.07018338
-0.08897824 -0.28787288 0.08310271 0.09893827 0.20809275 -0.25987473 0.2734125 0.30372626
0.08980921 -0.049443655 -0.16180518 -0.115250394 -0.09957237 -0.021310981 -0.05606565 -0.19125745
0.2896643 -0.23794071 0.29388478 0.00060003257 -0.19980541 -0.005782039 -0.26628128 -0.13181911
-0.29792184 -0.08607591 -0.30300596 -0.2493968 -0.30562767 -0.25239348 -0.2129178 -0.3038703
-0.26228175 0.15789986 -0.0084643755 -0.2224374 0.046302356 0.3087274 0.26930293 0.07438567
00000000: c538 6ebe bf55 5abe 5695 743e 6aa7 4bbe
00000010: 79bc dcbd e1a7 64be 76c1 733e f344 81be
00000020: 9b39 febb 60dd 473e 7a84 23bc 41b7 843e
00000030: a3e5 8f3e 72ee 8cbc 4ba9 8abe b704 bdbd
00000040: 2aa2 ffbd 92dd 56be d35e d23d 955b 86bd
00000050: 0fdb 1a3e 2ba5 8bbd 1e9b 80be 639e aa3d
00000060: 6db1 523e 445f 053e a40c c53b cc0e 33be
00000070: a827 37be e8e8 a13e fd74 ebbd 3276 44be
00000080: d72c 8bbd 6dea 743d 056e f63c 2c2f c43d
00000090: d85c 21be eb5a a7be 2043 a33e 9571 6d3e
000000a0: 43d8 85bd e198 1a3e ff61 3bbe 6b1f 2e3e
000000b0: 518f b63d dd16 8ebe d3c4 523d d0dc 0dbd
000000c0: e4c8 b8bd e9ef bdbd 3474 6dbe 83e9 2dbe
000000d0: e754 37be 8ed3 80ba 4677 1a3e b1df 933e
000000e0: d3a8 483d cd69 97be 4323 b8be 022c 4bbd
000000f0: 6e17 87be 544a e1bd 7161 b53c c202 913e
00000100: e240 7d3e 4346 88be 43ff eabd 51b9 9f3e
00000110: f527 4a3e 4f83 573e 68ed e4bd eba2 153e
00000120: 934c 453e 6cfc 8abd dcaf 903e 8729 fd3d
00000130: 7f69 86bd 9f39 1c3e fc60 bc3d 8d2e 82be
00000140: 25b5 9abe 99a1 64be ca03 483e 5c21 fbbd
00000150: 1430 933d f49d c8be 6f86 fabc 76b9 1b3e
00000160: 6e4d b2bd 9e0b 363e e209 aebe 9928 77be
00000170: a473 673e 580a 38bc 0227 5dbe 8b1a 603e
00000180: d5ff e63c 81db 4fbd f623 ce3d 144c d13c
00000190: d999 80bd 00b1 913e 01ec 50be 84c1 ecbd
000001a0: 563f 983e ce6c 2cbe dc37 cfbd 2cdd 9b3e
000001b0: 97ed 383e 9bd7 3e3e d2ef 013d f9c8 813d
000001c0: 346f 8abe 5e8d 18be a393 33bc c905 063e
000001d0: c21d 25bd 365f 743e 4765 89be 642e bb3d
000001e0: ceb4 b53a e0e2 75be 5abe 803e fd0e 6d3d
000001f0: 73db 92be f2eb 84be cabe cc3d 876c 28be
00000200: 7c49 82bd 1843 463e c1d1 a3bd 2de9 4e3d
00000210: 0bfa a5bd 7776 673e 2eec 16bc 0aa1 a8bc
00000220: d490 92be 974c 5bbe ec2d 973d be6f 513e
00000230: c4e1 88be 7019 85bd d5f6 7bbe c402 0ebe
00000240: bbd1 7fbe 6218 563d 2173 5cbe 228d 16be
00000250: dae9 3a3e d339 91be 0c6c 363d 5142 813e
00000260: e6bf 44be b3af a1bd 0a5b 03be 9af6 333e
00000270: 163d a5be f389 603e baf7 bfbe c803 7e3e
00000280: ac95 91be 3293 393e 6d14 17bd 9438 82bb
00000290: 354e 10bd 592d 41be 3767 5dbd fc93 2bbe
000002a0: b571 6e3c 67b1 bbbd 7eca 24be c5fc 713e
000002b0: b1e5 dabc aed7 543e 0952 c63d 5e63 533e
000002c0: 228c 20be 0cef fcbd 8780 e23d 5bd7 30bd
000002d0: 2cd2 3fbe 5dc0 babe 5b21 2fbe 5417 edbc
000002e0: a8fe e2bd 1714 5e3d 1fde 56be aa55 f5bc
000002f0: bea4 ecbd 60aa 9b3d aec9 a7bd 3a3b 483e
00000300: dc6a 14be f1b0 d5bd 5e6d 40be 52dd 4d3d
00000310: 66eb 9fbe 440c b83d 95c3 803e 4b94 33be
00000320: a72b 983e 3418 853e ffb7 7abd 6d13 eebc
00000330: f492 82be a528 463e 8197 c8bd e060 773e
00000340: b61a 8abe 2ea3 1dbe c862 55bd 8309 71be
00000350: 4650 2abe db56 95bd 4ca3 2a3e 4ebc 8f3d
00000360: 393a b6bd 1364 93be c131 aa3d 26a0 ca3d
00000370: 4416 553e 4d0e 85be b9fc 8b3e 0282 9b3e
00000380: e4ed b73d 6e85 4abd 42b0 25be 6608 ecbd
00000390: 99ec cbbd 5e94 aebc 18a5 65bd fed8 43be
000003a0: e14e 943e bba6 73be 1178 963e 814b 1d3a
000003b0: ca99 4cbe 4277 bdbb 0556 88be 97fb 06be
000003c0: 3689 98be 9148 b0bd 9923 9bbe e061 7fbe
000003d0: 3b7b 9cbe b839 81be 2007 5abe e394 9bbe
000003e0: cb49 86be 80b0 213e 2aae 0abc a1c6 63be
000003f0: 8aa7 3d3d 8511 9e3e 13e2 893e 8457 983d

lstm.bias_ih_l1 f4 [40]
0.0066394573 0.002288457 -0.17315574 -0.12519227 0.21762434 0.12278241 0.14332789 0.31355458
0.13681485 0.10339076 -0.20100945 0.19179578 0.10014265 0.30799246 -0.16496742 -0.29871494
-0.17895341 0.07082222 0.2418761 -0.06586181 -0.03396604 0.12688126 0.313685 0.11980259
-0.041790113 -0.028864924 -0.06626302 -0.0037933472 -0.24241447 0.24693581 -0.24936868 -0.30336496
-0.04267414 -0.19364217 0.11150925 0.027818482 0.18265025 -0.23077221 -0.199641 0.27284855
00000000: ce8f d93b f0f9 153b bd4f 31be 6732 00be
00000010: ead8 5e3e 5875 fb3d 8cc4 123e 3a8a a03e
00000020: 3119 0c3e 89be d33d 6cd5 4dbe 1d66 443e
00000030: 9717 cd3d 30b1 9d3e 38ed 28be 2af1 98be
00000040: 903f 37be 3d0b 913d 5eae 773e 8fe2 86bd
00000050: f91f 0bbd 29ed 013e 529b a03e 0f5b f53d
00000060: 1c2c 2bbd 2276 ecbc e8b4 87bd ce99 78bb
00000070: 803b 78be bedc 7c3e 815a 7fbe a752 9bbe
00000080: 14cb 2ebd 224a 46be f65e e43d 96e3 e33c
00000090: ab08 3b3e 8d4f 6cbe b16e 4cbe ceb2 8b3e

lstm.bias_hh_l1 f4 [40]
0.080141805 -0.041713975 -0.050055657 0.24432193 0.14677313 -0.26393247 -0.13027407 0.21054111
-0.022077179 0.3178545 0.21715868 -0.14705782 0.19988903 0.07433055 -0.26546317 0.28562325
-0.16720667 -0.07548585 0.012293559 -0.2826891 -0.1757508 -0.2127033 -0.18171208 0.31021684
-0.15834567 -0.032484706 -0.09161192 0.06961882 0.07893515 0.022503704 0.29083666 -0.18410185
-0.2536336 0.22575796 0.048377752 0.14080201 -0.071523696 -0.068392426 -0.22864081 0.29318103
00000000: 6321 a43d 46dc 2abd 2907 4dbd 872f 7a3e
00000010: b24b 163e 2822 87be 9166 05be 1798 573e
00000020: 33db b4bc d3bd a23e d85e 5e3e 5396 16be
00000030: b6af 4c3e 9e3a 983d caea 87be 363d 923e
00000040: 3a38 2bbe 5398 9abd ec6a 493c a0bc 90be
00000050: 05f8 33be e5ce 59be bb12 3abe bed4 9e3e
00000060: 5e25 22be af0e 05bd 089f bbbd 5094 8e3d
00000070: c0a8 a13d b059 b83c 8be8 943e 3285 3cbe
00000080: 43dc 81be 182d 673e c027 463d 672e 103e
00000090: 047b 92bd 5411 8cbd d120 6abe d31b 963e

fc.weight f4 [1, 200]
-0.030594967 -0.0018923797 0.024439124 -0.016212061 -0.044129193 -0.045069672 0.04605148 -0.026766581
-0.0009887938 -0.014739543 -0.0124027915 -0.003708302 0.041315455 -0.0032237717 -0.020625528 0.026640534
0.0014189426 0.035703275 -0.048394166 0.07014853 0.04119446 0.038810454 -0.045756917 -0.015571182
0.03202682 0.020179303 0.021770244 0.024150368 -0.06989926 -0.014564966 -0.026384259 0.06777243
0.014404647 0.04939545 0.014351745 -0.020885913 0.0047199978 -0.04952202 0.047630876 0.008317244
0.011703572 -0.03490792 -0.054122094 0.04630982 0.041197818 -0.05707767 -0.0020648676 -0.008252594
-0.03479519 -0.012387561 0.011757261 -0.016995756 0.013929311 0.058516234 0.05033239 -0.025521401
0.015788287 -0.033247355 -0.029889751 -0.04713348 -0.07251589 0.060124774 -0.05231594 0.05311949
0.021895994 -0.025590153 -0.03202649 0.008382779 0.002014304 0.06511292 -0.009471101 0.03082185
-0.048855323 -0.031618953 -0.05313531 0.067384355 -0.055566818 0.033469632 0.016864255 0.07699933
-0.0069178515 -0.06889825 0.071124285 0.005782081 0.028633986 0.03612206 -0.044296276 -0.035297815
-0.02543033 0.016746385 -0.06686806 -0.04773938 0.07257616 -0.027464297 -0.061047647 0.027955452
0.050187696 -0.041531596 -0.08490585 0.00556251 0.0017286184 -0.0013844168 0.06944701 0.028592756
-0.04278041 0.008102279 0.019904861 -0.05222204 -0.022865666 0.072508894 -0.04205707 0.0010567596
-0.03157782 0.047404572 0.03665363 0.054269675 -0.048005674 0.06783037 -0.07598348 0.0141821485
-0.013532718 -0.0012997945 -0.035575498 -0.04694418 0.06461032 -0.013906742 -0.039052438 0.022449216
-0.08636096 0.085665114 -0.037745558 0.028174998 0.04428711 -0.056066755 -0.04949232 -0.04507158
0.01395786 0.0030252112 -0.11088195 -0.024757009 -0.034713373 0.0602807 -0.03851614 -0.05340266
0.033586692 -0.061030984 -0.058485027 0.004015227 -0.04501917 -0.036330983 -0.0064129103 -0.026200889
-0.031735245 0.06034914 -0.022793163 -0.081660695 -0.08450737 -0.039844338 0.020538777 -0.0381042
-0.058253326 -0.04225272 -0.045604095 0.004600217 -0.07299393 -0.029380208 -0.026315952 0.06873249
0.0029728082 -0.004625654 -0.051294476 -0.044689238 0.02200044 -0.00049856916 -0.057586808 0.042523716
-0.014926039 0.034967758 -0.050456244 -0.0030944983 -0.021122469 -0.045611702 -0.008926623 -0.039832912
-0.0126861455 0.03909819 -0.019034373 0.05236925 -0.05545322 0.07915315 -0.019997802 -0.050422903
-0.039806418 0.04868219 -0.019190885 -0.04313083 -0.039805345 0.08964881 -0.08964808 0.09484439
00000000: 4ca2 fabc ba09 f8ba 8f34 c83c 28cf 84bc
00000010: d0c0 34bd fa9a 38bd 7aa0 3c3d 9745 dbbc
00000020: 6a9a 81ba 207e 71bc 1435 4bbc fc06 73bb
00000030: 653a 293d ea45 53bb def6 a8bc 403d da3c
00000040: d0fb b93a 993d 123d f638 46bd 08aa 8f3d
00000050: 86bb 283d b6f7 1e3d 9b6b 3bbd 451e 7fbc
00000060: 8e2e 033d 114f a53c 8357 b23c fed6 c53c
00000070: 5827 8fbd e5a1 6ebc cd23 d8bc 46cc 8a3d
00000080: 7801 6c3c e252 4a3d 9523 6b3c ef18 abbc
00000090: 36aa 9a3b 9ad7 4abd 9818 433d 0d45 083c
000000a0: 57c0 3f3c 9bfb 0ebd 21af 5dbd 5eaf 3d3d
000000b0: 0bbf 283d 46ca 69bd bb52 07bb e335 07bc
000000c0: 6785 0ebd 32f5 4abc 87a1 403c af3a 8bbc
000000d0: c437 643c b8ae 6f3d 5629 4e3d 4212 d1bc
000000e0: 7056 813c 612e 08bd 5adb f4bc 090f 41bd
000000f0: 3683 94bd 6545 763d 3d49 56bd d393 593d
00000100: 3a5f b33c 71a2 d1bc 352e 03bd ec57 093c
00000110: 6a02 043b ec59 853d ad2c 1bbc 1b7e fc3c
00000120: 851c 48bd e082 01bd 69a4 59bd cf00 8a3d
00000130: 089a 63bd 7417 093d e826 8a3c d3b1 9d3d
00000140: 25af e2bb 871a 8dbd 9ca9 913d 9c77 bd3b
00000150: d291 ea3c baf4 133d 0370 35bd 7194 10bd
00000160: 4453 d0bc b72f 893c 1ff2 88bd 5e8a 43bd
00000170: cfa2 943d cefc e0bc 190d 7abd d502 e53c
00000180: 9d91 4d3d 091d 2abd 1ee3 adbd b745 b63b
00000190: cf92 e23a 5275 b5ba 3c3a 8e3d 5b3b ea3c
000001a0: 833a 2fbd 6cbf 043c 850f a33c c7e6 55bd
000001b0: c750 bbbc 8b7f 943d 0944 2cbd f882 8a3a
000001c0: bf57 01bd 4c2b 423d 1e22 163d e149 5e3d
000001d0: 99a1 44bd a6ea 8a3d 3a9d 9bbd 3e5c 683c
000001e0: 55b8 5dbc de5d aaba 9db7 11bd 8a48 40bd
000001f0: 6a52 843d 1bd9 63bc 73f5 1fbd 6be7 b73c
00000200: 04de b0bd 3171 af3d 169b 1abd 41cf e63c
00000210: 6766 353d 41a6 65bd 75b8 4abd fa9c 38bd
00000220: 82af 643c 9f42 463b 1316 e3bd 36cf cabc
00000230: 9c2f 0ebd e5e8 763d 1ac3 1dbd bfbc 5abd
00000240: 3392 093d a0fb 79bd ff8d 6fbd 2a92 833b
00000250: 0566 38bd cccf 14bd 6423 d2bb 3fa3 d6bc
00000260: d1fc 01bd a930 773d bab8 babc b93d a7bd
00000270: 3312 adbd d133 23bd f040 a83c 2613 1cbd
00000280: 0a9b 6ebd 3011 2dbd 5ccb 3abd 6bbd 963b
00000290: d77d 95bd c3ae f0bc 8d94 d7bc 9fc3 8c3d
000002a0: 72d3 423b cc92 97bb 281a 52bd 100c 37bd
000002b0: 443a b43c 69b2 02ba 25e0 6bbd 592d 2e3d
000002c0: 588c 74bc 5a3a 0f3d 35ab 4ebd 11cd 4abb
000002d0: 0709 adbc 56d3 3abd f840 12bc d627 23bd
000002e0: 8dd9 4fbc 6c25 203d f9ed 9bbc 2481 563d
000002f0: ea22 63bd 0c1b a23d 6ed2 a3bc 3f88 4ebd
00000300: 0e0c 23bd fa66 473d 3436 9dbc f4a9 30bd
00000310: ee0a 23bd cc99 b73d 6a99 b7bd c73d c23d

exp_avg f4 [40, 29]
6.510812e-05 0.00031872452 7.264191e-06 0.00017077762 0.0001552112 0.00026583567 7.258839e-05 -2.3050909e-05
1.0615784e-05 0.00018302834 0.00017237602 -2.7125825e-05 -2.2897552e-06 -2.334552e-05 0.0003439952 2.842528e-05
-2.308595e-05 3.7469596e-05 -2.3014209e-05 8.474514e-06 1.5707337e-05 5.7385055e-06 -1.5969135e-05 6.1959136e-06
2.2881266e-06 1.3231854e-06 6.975012e-05 -1.0018994e-08 0.00021803487 -4.9197606e-05 -0.00016963747 -6.034801e-06
-7.0892405e-05 -0.00010477973 -0.00012744262 -3.0385892e-05 -7.715437e-06 -1.0128296e-05 -9.668742e-05 -7.933443e-05
-1.990748e-05 2.0257112e-05 4.4179724e-06 -0.00013892734 -3.7769445e-05 -3.393353e-06 -3.6923968e-05 2.4681485e-05
-2.3146022e-05 -2.6904134e-05 -6.8700238e-06 -7.3479773e-06 -1.1718793e-05 3.738162e-06 6.9452653e-06 -2.4723264e-05
-3.4374323e-05 -3.902866e-05 4.8308186e-05 0.00022798165 4.820239e-06 9.83334e-05 0.00013446856 9.945815e-05
0.00011024218 8.070686e-06 1.5030933e-05 0.000109466724 0.0001345689 3.2779757e-05 -4.40135e-05 -6.0588113e-06
0.00016936555 6.6004344e-05 3.4908203e-06 3.06661e-05 -1.5366401e-06 -1.333541e-06 4.277119e-05 1.2184323e-05
1.8901905e-05 -1.3130272e-06 5.6527288e-06 -1.0503318e-05 1.8889446e-05 -2.9272167e-05 0.00014769501 -3.9270235e-05
-0.00016593597 -9.096675e-06 -9.090253e-05 -8.413016e-05 -0.0001165957 -5.5172422e-05 -9.79946e-06 6.5349004e-06
-0.00010544388 -0.000100258796 -3.1476116e-06 3.3817563e-05 -1.8176148e-06 -0.00015312413 -4.3057495e-05 2.296655e-05
-3.185087e-05 5.7348493e-06 1.5002354e-06 -4.2191405e-05 -1.2148986e-05 -3.149727e-05 -1.3736224e-05 1.8028377e-05
2.8212806e-05 -1.9862507e-06 -9.116311e-06 -8.5981716e-05 1.9139225e-07 7.165113e-05 -1.1924305e-07 4.3700813e-05
2.7831047e-05 6.1509263e-06 4.7306014e-05 2.0434655e-07 1.7870561e-05 2.036749e-05 6.259106e-05 -7.728034e-06
-3.698662e-06 -1.4187897e-06 6.0992545e-05 3.0686535e-06 8.889434e-06 -1.2616665e-05 9.628927e-06 -1.4347481e-05
2.4727327e-05 1.4238164e-05 1.1344217e-05 -6.674973e-06 4.7057883e-06 1.8438634e-07 -1.0247936e-05 -3.7437778e-05
8.80279e-05 -1.1117221e-05 -4.153448e-05 -2.1742126e-06 -1.7296106e-05 -2.6412608e-05 -3.0187695e-05 -4.8375055e-06
-5.8317582e-06 -2.8517534e-06 -1.686202e-05 -2.1070056e-05 -8.4448175e-06 2.668172e-06 -2.7497167e-06 -3.087209e-05
-5.2506734e-06 -4.8362353e-06 -8.558564e-06 9.071645e-06 -1.0048052e-05 -6.50946e-06 -3.2899516e-06 -5.66154e-06
-1.9376585e-06 9.958342e-07 3.734873e-06 -1.2061624e-06 -1.4302709e-05 -5.9969716e-06 -1.7056003e-05 -3.5641762e-05
2.2376555e-06 -8.992706e-07 -3.2504846e-05 -3.186265e-05 -2.3204057e-05 2.9632753e-05 -7.970125e-06 -1.6574986e-05
-1.3467936e-05 -2.071719e-05 1.7356002e-05 2.5346783e-06 -3.369686e-05 -8.556473e-06 6.3145385e-06 3.5391636e-06
1.183031e-05 -1.5642016e-05 9.4586985e-06 8.498758e-06 1.1980903e-05 -4.452623e-06 -2.591749e-06 5.707331e-06
-9.526951e-06 -2.511864e-05 -2.708728e-05 4.88656e-06 3.2558353e-05 6.6457864e-07 1.1970715e-05 2.12522e-05
4.102417e-05 4.095443e-06 -2.5575332e-06 -9.339187e-06 2.5218173e-05 1.7665461e-05 -5.428699e-07 -9.117839e-06
-3.486068e-06 4.8788497e-05 5.0446547e-06 -1.7124179e-05 4.4895014e-06 -8.548002e-07 -5.662054e-06 3.4493582e-06
2.5357244e-06 -7.7057484e-07 -1.6460492e-06 -1.042938e-06 1.7081456e-06 6.141584e-06 -8.849561e-06 3.3724606e-05
-1.0823788e-05 -4.6352656e-05 1.7034913e-07 -9.374725e-06 -3.6807596e-05 -3.000045e-05 -1.8066647e-05 -5.688706e-06
7.573509e-06 -3.15284e-05 -8.68461e-06 4.385759e-06 -1.0355051e-05 -8.260155e-06 -3.518433e-05 -8.614319e-06
5.8765013e-06 -5.984076e-06 -5.62821e-06 -3.1734503e-06 5.206805e-06 -6.6483185e-06 6.560105e-06 1.4752696e-05
00000000: a88a 8838 7b1a a739 edbe f336 c512 3339
00000010: 30c0 2239 dc5f 8b39 983a 9838 735d c1b7
00000020: 721a 3237 4ceb 3f39 d6bf 3439 448c e3b7
00000030: b2a9 19b6 1fd6 c3b7 415a b439 d372 ee37
00000040: b3a8 c1b7 ac28 1d38 a30e c1b7 c32d 0e37
00000050: 40c3 8337 638d c036 75f5 85b7 7ee6 cf36
00000060: b78d 1936 4e98 b135 cf46 9238 0020 2cb2
00000070: 4aa0 6439 8759 4eb8 b6e0 31b9 8c7e cab6
00000080: 12ac 94b8 30bd dbb8 1ea2 05b9 35e5 feb7
00000090: 8d71 01b7 b3ec 29b7 aac4 cab8 5960 a6b8
000000a0: fdfe a6b7 d1ed a937 183e 9436 06ad 11b9
000000b0: a26a 1eb8 5cb9 63b6 cfde 1ab8 160b cf37
000000c0: b429 c2b7 30b0 e1b7 0e85 e6b6 a58e f6b6
000000d0: d59b 44b7 22dd 7a36 600b e936 ce64 cfb7
000000e0: 262d 10b8 b4b2 23b8 859e 4a38 5c0e 6f39
000000f0: 8abd a136 5838 ce38 2100 0d39 3094 d038
00000100: d231 e738 5567 0737 5e2d 7c37 8091 e538
00000110: 101b 0d39 ff7c 0938 239b 38b8 cb4c cbb6
00000120: b897 3139 d06b 8a38 d643 6a36 799f 0038
00000130: 8d3e ceb5 1ffc b2b5 3765 3338 456b 4c37
00000140: 888f 9e37 453b b0b5 92ac bd36 6837 30b7
00000150: c774 9e37 808d f5b7 94de 1a39 18b6 24b8
00000160: 19ff 2db9 ec9d 18b7 eda2 beb8 096f b0b8
00000170: d784 f4b8 f068 67b8 5c68 24b7 5e46 db36
00000180: c121 ddb8 0842 d2b8 8e3b 53b6 55d7 0d38
00000190: c5f4 f3b5 f28f 20b9 a298 34b8 4aa8 c037
000001a0: 9c97 05b8 fb6d c036 b25b c935 adf6 30b8
000001b0: 7fd3 4bb7 f01b 04b8 a274 66b7 a53b 9737
000001c0: 8aaa ec37 874b 05b6 42f2 18b7 1551 b4b8
000001d0: 8081 4d34 6843 9638 4809 00b4 644b 3738
000001e0: b876 e937 0e64 ce36 726a 4638 5a6a 5b34
000001f0: bde8 9537 dada aa37 5243 8338 a7a7 01b7
00000200: 8836 78b6 3e6d beb5 3fd2 7f38 11ef 4d36
00000210: d423 1537 2aac 53b7 ed8b 2137 f6b5 70b7
00000220: 886d cf37 73e0 6e37 0a53 3e37 95f9 dfb6
00000230: 6ae6 9d36 bbfb 4534 8dee 2bb7 8206 1db8
00000240: 9e9b b838 1a84 3ab7 4f35 2eb8 b0e8 11b6
00000250: 1b17 91b7 a590 ddb7 953b fdb7 db51 a2b6
00000260: 6cae c3b6 c060 3fb6 ea72 8db7 9abf b0b7
00000270: 37ae 0db7 d90e 3336 c687 38b6 a77c 01b8
00000280: f12e b0b6 f246 a2b6 c196 0fb7 6b32 1837
00000290: 0e94 28b7 d66b dab6 f0c8 5cb6 42f8 bdb6
000002a0: b808 02b6 9aa8 8535 a1a4 7a36 6de3 a1b5
000002b0: abf5 6fb7 9839 c9b6 7d13 8fb7 0d7e 15b8
000002c0: a12a 1636 6865 71b5 d055 08b8 43a4 05b8
000002d0: 55a6 c2b7 da93 f837 6db7 05b7 830a 8bb7
000002e0: 58f4 61b7 d4c9 adb7 bb97 9137 7119 2a36
000002f0: ba55 0db8 c68d 0fb7 79e1 d336 5e82 6d36
00000300: cb7a 4637 f936 83b7 cdb0 1e37 e395 0e37
00000310: 9601 4937 be67 95b6 e9ed 2db6 9a81 bf36
00000320: f1d5 1fb7 deb5 d2b7 7e39 e3b7 3bf7 a336
00000330: 448f 0838 7f65 3235 d4d5 4837 c146 b237
00000340: 5e11 2c38 966b 8936 16a2 2bb6 81af 1cb7
00000350: 9d8b d337 4a30 9437 bcb9 11b5 d2f8 18b7
00000360: 31f2 69b6 40a2 4c38 4145 a936 e5a5 8fb7
00000370: 86a4 9636 6c75 65b5 acfc bdb6 867b 6736
00000380: 6a2b 2a36 80d9 4eb5 d2ed dcb5 14fb 8bb5
00000390: 7043 e535 ce13 ce36 9378 14b7 8573 0d38
000003a0: d197 35b7 c96a 42b8 36e9 3634 2348 1db7
000003b0: db61 1ab8 7aa9 fbb7 d48d 97b7 9de1 beb6
000003c0: f21f fe36 5d3d 04b8 1eb4 11b7 6229 9336
000003d0: 9bba 2db7 1895 0ab7 e392 13b8 3886 10b7
000003e0: c32e c536 d2ca c8b6 f5d9 bcb6 76f7 54b6
000003f0: 1db6 ae36 9f14 dfb6 df1e dc36 5982 7737

exp_avg_sq f4 [40, 29]
1.0510773e-06 4.8011916e-06 8.932936e-10 6.9919383e-07 2.1665107e-06 1.8418873e-06 9.257374e-07 2.7673968e-08
5.235776e-09 1.6457016e-06 5.9030896e-07 9.871188e-08 1.0071494e-08 2.4022586e-07 1.2080391e-06 5.8434165e-07
4.7909207e-08 2.0255747e-07 2.036391e-08 1.01000715e-07 1.3177056e-07 4.063757e-09 1.1134879e-08 3.984097e-09
3.2925396e-10 5.4390176e-10 4.0117652e-07 8.9967364e-07 1.2338091e-06 1.3322976e-07 7.693935e-07 6.117223e-10
1.6573735e-07 2.984845e-07 2.92418e-07 9.595627e-08 5.1659008e-08 1.6243908e-08 2.4594303e-07 8.517754e-08
3.2199885e-08 2.6256123e-08 3.893494e-08 1.5952662e-07 9.9686936e-08 7.44195e-08 6.281861e-08 1.2223618e-08
4.4298186e-08 3.2451585e-08 7.185157e-09 3.6480994e-08 6.3023062e-09 2.6556362e-09 1.1026748e-09 7.4966536e-08
1.09239316e-07 1.3132443e-07 2.8312758e-07 1.7594463e-06 3.5481917e-10 2.822498e-07 7.96235e-07 4.103025e-07
3.1743323e-07 1.7093794e-07 2.9619141e-08 4.0591522e-07 2.1554867e-07 1.4670182e-07 4.4425736e-08 5.558842e-08
3.0225473e-07 2.257434e-07 2.4705582e-07 8.8455096e-08 9.529086e-09 1.0589453e-07 9.624218e-08 6.052689e-08
1.39753e-07 1.4131919e-09 1.4675298e-09 6.8420003e-09 1.5745134e-07 2.0560515e-07 3.864852e-07 1.3930598e-07
1.1160472e-06 1.1564093e-09 2.7489486e-07 3.9227427e-07 2.7924256e-07 7.121232e-08 2.2014892e-07 8.249858e-08
2.396546e-07 6.0705105e-08 1.9294386e-07 7.702286e-08 3.1063514e-08 1.8609197e-07 6.006252e-08 4.0434676e-07
5.7087576e-08 6.6850268e-09 4.9180606e-08 5.3736688e-08 6.309821e-08 2.0353404e-07 1.35111575e-08 1.7456115e-08
1.4053504e-08 1.0357215e-07 5.0936457e-08 2.0842268e-07 5.7264025e-08 3.8650555e-07 1.4735834e-11 6.0882634e-08
1.7898705e-07 6.261352e-08 6.2854895e-08 5.261527e-08 1.7325943e-08 5.503873e-08 5.7447767e-08 4.2804057e-08
1.3532425e-08 5.829803e-09 6.521356e-08 5.5402246e-08 8.4311196e-08 1.3894621e-08 1.4342415e-09 1.5641074e-08
2.8873648e-08 3.540016e-08 4.8741917e-08 2.4884157e-09 8.550184e-10 8.560893e-10 3.2890934e-08 3.4538868e-08
9.028044e-08 6.2507617e-09 4.402546e-08 4.4999747e-11 1.1017886e-08 1.4777829e-08 1.5554841e-08 5.0566205e-09
5.7874185e-09 1.732839e-09 1.1968606e-08 4.438616e-09 4.9441824e-09 1.8597193e-09 2.2399098e-09 8.153451e-09
4.9689985e-09 8.474373e-09 2.4365547e-09 8.3898904e-10 4.4527195e-09 1.943526e-09 4.4885398e-10 4.204603e-09
2.5026714e-10 6.6568984e-10 4.460631e-10 6.8183383e-09 6.653806e-09 5.6113376e-09 9.226004e-09 6.6665066e-08
1.1054245e-10 4.106234e-08 3.64728e-08 3.1186563e-08 7.687372e-09 1.2944453e-08 8.895684e-09 1.64298e-08
1.1639399e-08 6.915636e-09 1.1096471e-08 9.724956e-09 6.7366934e-09 7.6877456e-09 1.8431587e-08 6.0261423e-09
1.6570447e-09 8.2309475e-09 1.3110772e-09 7.550321e-09 6.345616e-09 2.6341385e-09 4.0777903e-10 3.4919012e-10
2.048492e-09 7.549884e-09 1.3899857e-08 1.7098163e-08 9.966053e-08 1.0543972e-11 1.5263092e-08 4.6935384e-08
3.5087634e-08 1.479201e-08 6.887034e-09 6.5586775e-10 2.2388189e-08 1.169597e-08 1.1406565e-08 7.2878015e-10
2.1684095e-09 2.041947e-08 1.4700751e-08 8.847772e-09 4.9960414e-09 5.1755833e-10 8.256121e-10 3.8087946e-09
8.6560104e-10 1.6238272e-09 2.6538471e-10 3.4146114e-10 1.2035774e-10 1.890292e-08 1.6004718e-08 1.9376474e-08
3.9731334e-09 4.0434877e-08 1.9951592e-12 1.45901335e-08 1.1178201e-08 3.4542145e-09 9.962059e-09 2.5238889e-09
1.3706496e-08 5.929541e-09 5.7768537e-09 2.9211302e-09 1.3255577e-08 1.0864565e-09 5.9939924e-09 8.3029885e-09
2.0293704e-08 3.3993053e-10 1.8071339e-10 1.1171499e-09 1.767781e-09 1.1101452e-09 6.403244e-09 7.857374e-09
00000000: be12 8d35 ec19 a136 f38b 7530 3cb0 3b35
00000010: 5f64 1136 c436 f735 3180 7835 b3b7 ed32
00000020: 5fe6 b331 e0e1 dc35 b975 1e35 6efb d333
00000030: e606 2d32 64f8 8034 e823 a235 a7db 1c35
00000040: bbc4 4d33 937e 5934 b6ec ae32 bbe5 d833
00000050: d17c 0d34 2fa1 8b31 b74b 3f32 7de4 8831
00000060: 6002 b52f af81 1530 4861 d734 1a81 7135
00000070: 5c99 a535 eb0d 0f34 5288 4e35 2126 2830
00000080: 89f5 3134 663f a034 a0fd 9c34 8410 ce33
00000090: aedf 5d33 bb88 8b32 270a 8434 d9ea b633
000000a0: 264c 0a33 d389 e132 6b39 2733 584a 2b34
000000b0: 7913 d633 8ed0 9f33 e5e6 8633 0a00 5232
000000c0: 5f42 3e33 e560 0b33 4fe1 f631 47af 1c33
000000d0: ac8b d831 727e 3631 ec8c 9730 4afd a033
000000e0: f396 ea33 2f02 0d34 c200 9834 1d26 ec35
000000f0: 5c10 c32f 1e88 9734 dabc 5535 8c47 dc34
00000100: b16b aa34 108b 3734 2e6d fe32 90ec d934
00000110: 9171 6734 1785 1d34 9dce 3e33 1dc0 6e33
00000120: 9345 a234 e063 7234 18a3 8434 b4f4 bd33
00000130: 5db5 2332 2268 e333 b3ad ce33 02fb 8133
00000140: 030f 1634 453a c230 1db2 c930 df16 eb31
00000150: e50f 2934 50c4 5c34 1f7e cf34 2394 1534
00000160: 17cb 9535 89ef 9e30 4395 9334 c499 d234
00000170: ceea 9534 63ed 9833 1362 6c34 132a b133
00000180: e1a9 8034 fc5c 8233 012c 4f34 c467 a533
00000190: b26a 0533 92d0 4734 b8fb 8033 ff14 d934
000001a0: 7430 7533 1eb2 e531 a63a 5333 1dcc 6633
000001b0: 9c80 8733 038b 5a34 b31e 6832 67f2 9532
000001c0: f76f 7132 646b de33 3ac5 5a33 caca 5f34
000001d0: 76f2 7533 eb80 cf34 269e 812d 95be 8233
000001e0: 962f 4034 2676 8633 d8fa 8633 1afb 6133
000001f0: 27d4 9432 b963 6c33 7dbc 7633 8fd7 3733
00000200: 3c7c 6832 7d4f c831 890b 8c33 6af3 6d33
00000210: 920e b533 30b5 6e32 e31e c530 165b 8632
00000220: d305 f832 e30a 1833 4e58 5133 ac00 2b31
00000230: 9206 6b30 ee51 6b30 f743 0d33 e357 1433
00000240: 32e0 c133 48c6 d631 8116 3d33 36e9 452e
00000250: 2d49 3d32 94e1 7d32 759d 8532 81be ad31
00000260: acda c631 da28 ee30 7c9e 4d32 7b82 9831
00000270: 7de1 a931 0e99 ff30 e9ec 1931 4213 0c32
00000280: c6bb aa31 b096 1132 5370 2731 9b9e 6630
00000290: 89fe 9831 df8e 0531 95c2 f62f 1478 9031
000002a0: f895 892f c2fb 3630 cd39 f52f bd46 ea31
000002b0: 7f9f e431 d9cd c031 6580 1e32 8229 8f33
000002c0: de15 f32e 855c 3033 45a6 1c33 fdf1 0533
000002d0: 6b11 0432 4e62 5e32 a2d3 1832 8321 8d32
000002e0: 9ef6 4732 949e ed31 cca2 3e32 cf12 2732
000002f0: 9578 e731 1013 0432 7d53 9e32 820e cf31
00000300: 14be e330 1768 0d32 6e31 b430 aab6 0132
00000310: a108 da31 4104 3531 cc2d e02f 24f8 bf2f
00000320: 74c5 0c31 beb4 0132 38cc 6e32 42df 9232
00000330: f504 d633 d47d 392d e51b 8332 0096 4933
00000340: 43b3 1633 f31f 7e32 fea2 ec31 9748 3430
00000350: 2650 c032 6cef 4832 9af6 4332 5853 4830
00000360: 1003 1531 e466 af32 968e 7c32 ea00 1832
00000370: a5a9 ab31 ee43 0e30 49f1 6230 83de 8231
00000380: 42ef 6d30 572d df30 94e5 912f 62b8 bb2f
00000390: b155 042f f65f a232 bf7a 8932 5171 a632
000003a0: 0d84 8831 9eaa 2d33 9865 0c2c 16a8 7a32
000003b0: 3f0a 4032 2f5f 6d31 9925 2b32 b970 2d31
000003c0: cf79 6b32 cbbc cb31 be7d c631 11bd 4831
000003d0: a5ba 6332 4a52 9530 b7f3 cd31 eea4 0e32
000003e0: 5452 ae32 f8e0 ba2f 4cb2 462f 388a 9930
000003f0: 44f6 f230 c393 9830 8803 dc31 19fd 0632
