timeSerise/logs/lightning_logs/version_4/checkpoints/epoch=199-step=10200.ckpt (torch, 49627 bytes, 27 tensors)

lstm.weight_ih_l0 f4 [40, 29]
00000000: 3fda 5e3e 755c 0abe 69a9 35be 2c11 403d
00000010: 5865 0abd 1a51 a63d 1b0c c83c 03db 783c
00000020: dace e7bd dea1 d5bd fc8d d33e a8c9 aebd
00000030: 3b37 83be 5aec 6bbe 9773 a6bb 94d4 e53c
00000040: 75b6 26bd 5cc7 303e cc50 1c3e 8b52 59bd
00000050: 4536 503e bf35 6f3e 8bfb 42be 5797 ac3e
00000060: 7da6 2bbe 4f81 f1bd 81a9 033d 2bc4 d93d
00000070: 6d72 a8bd 064f 2bbd ed8d 823e 73ef 613d
00000080: f4b5 8d3d 2c0c cfbd 7cf7 54bd 6b28 653d
00000090: 1340 4c3e 660d 303e 3015 d63e 94cd 08bd
000000a0: 093d 8d3e 4b6b 923e 107d 873e e01f 09bc
000000b0: 9f47 c33d 56b6 b33d 9cc7 a83e 121b 183d
000000c0: 251e 57bd cb2a 293e 656b 213d 8f8d c1bd
000000d0: df4a 443e dc84 d63d d3a3 1dbe b845 04be
000000e0: f037 893c 874c 0b3c e030 2c3e fbc4 ad3c
000000f0: 8bb3 333d b353 8e3e 89e4 4bbe 13ec 33be
00000100: 0abf 063e d787 843e 99ed a1be fe95 6fbe
00000110: a172 3c3e 90a4 93bd 269d 193d 1cf4 89be
00000120: ea5e d6bd 3bcb 283e bd51 b1bd 6272 173e
00000130: 5cc0 ae3d d8fa 143e 2c17 9e3e 6b85 053c
00000140: 6c3c a4bd 29f7 d93d 3df7 3cbe ca51 2cbe
00000150: e0ea bdbc 299b 4ebe 4bf2 8f3e cb4d 943d
00000160: 70c2 0dbe 367a dc3d 05e0 f13d 3dc6 3cbe
00000170: ceef b33d 02ec 733e b391 9fbe e001 1ebe
00000180: f1a1 493e a9ba 233d 1561 573d 1922 96be
00000190: 4bf3 92bc da33 b1bc eccf b73d c28f 7bbe
000001a0: 41ec 8a3e 21f5 f23c efec c03d 4c11 19be
000001b0: 8a7f a13e 2c18 29be 29a8 92be bdf6 053d
000001c0: ec6d 413e 2fdb 1bbd 795d 0f3e 5743 263c
000001d0: 2d1e 47be aea8 ab3e 7432 e73e 543a 623e
000001e0: 032c 99be eddd 8abe d973 233e db51 233e
000001f0: e826 64be 92d5 49bd dde4 0ebe 4bac 5fbe
00000200: c662 4fbe 8c25 793d 7de6 c9bd 4861 85bc
00000210: 990d a4bd 3ab6 c63d 6621 003e d79d 8ebd
00000220: 3c5c 153d a799 833e a55a 93be d814 ce3d
00000230: 81a0 683e d6ea 0c3e ec67 b33c 57e4 bebe
00000240: d048 293b 4d07 7dbe c4f5 c8bd 0fa9 66be
00000250: aa99 57be 85b2 cdbd edd6 11be 3138 523d
00000260: 462a 8b3e 511d 903e afb7 683e 0155 3a3e
00000270: ba55 42be d583 7abe 0fd9 5f3e 8b51 d43d
00000280: e101 5b3e c91a 683d 1b62 1ebe 121a b13d
00000290: e173 8f3e dab2 853e afaf df3d 1928 97bd
000002a0: 4cfa 903e abf7 673e bf04 9dbd 7d22 23be
000002b0: 4cf5 043e c42e efbd f9d5 983e ef2c 3dbe
000002c0: 5442 8c3e 255f 89be 797d fabd 5b03 0c3e
000002d0: 6b49 3ebe 6e9d ab3d 8279 293d 8fdb c2bd
000002e0: 33b3 813e b7ff d6bd 1369 813d ae76 883e
000002f0: 6626 dabd 2503 c0bd 90ba 803d cdfd eabb
00000300: 42c3 a63d 3e44 b3bc ba12 843e 5498 dc3d
00000310: 10f5 88be 27f2 4dbe 9e77 653e ab91 013c
00000320: 3562 993d f7b9 e4bd 2ad5 82bd 7ad3 5bbd
00000330: 9300 0dbe 015f 9e3e 281f 6e3d 7874 723d
00000340: a933 27be 2916 a3bd 8b2d ab3d 4adc ad3e
00000350: f918 263e 3248 2cbe cb13 a43e 539f 84be
00000360: 7f7e c23e 2d69 8ebe 3a1f 32be 30b5 783e
00000370: 82e3 a93e 3b79 31bb 0383 7e3e 7ae8 b33d
00000380: 2eb8 48be f466 cf3d 0f1f ec3e 0327 883c
00000390: 57e4 9c3e 9e84 81bd 1c1e 0fbf 3076 3e3e
000003a0: 9025 09be 16ce 963e 7870 c13e b955 12bd
000003b0: 2aad 8f3e 72c0 9fbe 5710 44bd 0b6b b93e
000003c0: c76a a63e 04d0 35be 7eff 85bd e06e d8bb
000003d0: aba6 bf3e de68 003f efc2 49be 8183 b9be
000003e0: ff29 0a3e f7c1 3b3e b584 0c3e 00e4 27bd
000003f0: 3667 b1bc edd4 89be 8fa3 893e 1c8f c63d
0.21762942 -0.13511832 -0.17740406 0.046891376 -0.033788055 0.08120938 0.024419835 0.015188935
-0.11318751 -0.10431264 0.41319263 -0.085345566 -0.25628075 -0.2303938 -0.0050796974 0.028055467
-0.04070135 0.1726355 0.15265197 -0.053057235 0.20333202 0.23360346 -0.19041269 0.33709213
-0.16762729 -0.11792242 0.032144073 0.10633119 -0.0822495 -0.04182341 0.25498906 0.055159997
0.069194704 -0.101097435 -0.051993832 0.05594675 0.19946317 0.17192611 0.4181304 -0.03339918
0.2758563 0.28597483 0.26462603 -0.008369416 0.09535145 0.08775012 0.3296479 0.03713519
-0.052518982 0.1652023 0.03940906 -0.09450828 0.19169186 0.1047456 -0.15394525 -0.1291722
0.016750306 0.008502132 0.1681552 0.021212092 0.043872397 0.27798232 -0.19911398 -0.17570524
0.13158813 0.25884888 -0.31626585 -0.23397061 0.18403102 -0.07209122 0.037503384 -0.26944053
-0.10467322 0.16483776 -0.086581685 0.14789727 0.085327834 0.14548814 0.30877054 0.008149485
-0.08019337 0.10642845 -0.18453689 -0.16828075 -0.023183286 -0.20176376 0.28114542 0.072414
-0.13843703 0.107654974 0.118103065 -0.18434997 0.087859735 0.23820499 -0.31165847 -0.15430403
0.19690682 0.039972935 0.05258282 -0.2932289 -0.017938277 -0.02163117 0.08975205 -0.24566558
0.27133372 0.029657902 0.094201915 -0.14948004 0.31542617 -0.16513127 -0.2864392 0.03270601
0.18889588 -0.038050827 0.140005 0.010147891 -0.19445105 0.3352713 0.4515568 0.22092563
-0.2991639 -0.2712244 0.15962161 0.15949194 -0.22280467 -0.049275942 -0.13954492 -0.21843068
-0.20252523 0.060826823 -0.09858415 -0.016281739 -0.08010406 0.09702726 0.1251274 -0.06963699
0.036464915 0.25703165 -0.28780094 0.100625694 0.22717477 0.13761458 0.02190014 -0.37283584
0.0025830753 -0.24709816 -0.09812501 -0.22525428 -0.21054712 -0.100438155 -0.14242144 0.05132312
0.2718069 0.28147367 0.2272632 0.18196489 -0.18978015 -0.24464352 0.21860145 0.103671156
0.21387435 0.05666617 -0.15467112 0.08647551 0.28018096 0.26113015 0.10922181 -0.07380695
0.2831596 0.22653072 -0.07666921 -0.15931125 0.12984198 -0.11678842 0.29850748 -0.18474172
0.27394354 -0.26830402 -0.12230963 0.13673155 -0.18582694 0.08379637 0.041375645 -0.09514534
0.2533203 -0.104979925 0.063188694 0.26653045 -0.10651855 -0.093756 0.06285584 -0.0071713687
0.08142711 -0.021883126 0.25795537 0.10771242 -0.26749468 -0.20111905 0.22408912 0.007908265
0.07489435 -0.111682825 -0.06388314 -0.053668477 -0.1376975 0.30931857 0.05813518 0.059193105
-0.163283 -0.07963211 0.08358296 0.3395713 0.16220464 -0.16824415 0.3204635 -0.25902805
0.37987134 -0.27814618 -0.17394724 0.24287868 0.33181387 -0.0027080316 0.24854665 0.08784576
-0.19601509 0.101270586 0.46117446 0.016620165 0.3064296 -0.06324123 -0.5590532 0.18599772
-0.13393235 0.29454106 0.3778112 -0.035726283 0.280618 -0.31201512 -0.047867145 0.3621448
0.3250334 -0.17755133 -0.06542872 -0.006605014 0.37431845 0.50160015 -0.19703268 -0.36233142
0.13492583 0.1833571 0.13722499 -0.040988922 -0.02165566 -0.26920262 0.26882598 0.09695265

lstm.weight_hh_l0 f4 [40, 10]
00000000: 252a 81be 55cc 81be f8ed 263d e2f1 64be
00000010: 2da6 1ebe 8d6a 24be a177 6f3e 2656 f33c
00000020: 4627 613e 3871 d33b 09db 0d3c e56b 883e
00000030: bcbb 983d 3137 ae3e d134 5dbe 8954 5cbe
00000040: 58f7 a7bc 7122 e13e 6d1e 983e 3b47 803e
00000050: 6246 90be 1884 0fbc 0e36 22be 21a2 2cbc
00000060: 0f81 29be 1e2d 1b3e 4073 3dbe 5c20 aa3d
00000070: 0a04 c93d db67 a73d dade 8bbe 4e37 60be
00000080: a04b 563e 2009 723e 64f8 433e 8a91 66bc
00000090: c8ff 64be 6c2c 5f3e e1d4 683e a3a8 bbbd
000000a0: a05d 803e a0e9 6abe dfcc 80be df25 85be
000000b0: b58e f9bd 6738 da3d 5028 3f3e f0e6 d93c
000000c0: b6eb 973e a027 3a3e 4c58 3d3e 155f 67be
000000d0: 20e5 83be ba79 3ebe 9257 71bd 032b 03be
000000e0: ec1f 11bc abca eebd 6a48 19be 995c a13e
000000f0: e58d 8dbe 150e 283e 9664 2dbe 1fc3 66be
00000100: cc41 40be b4c9 02be 010a 2ebe a8d1 3f3e
00000110: f382 563e ba7d 84be 1ed7 1a3e 173a 0ebe
00000120: 1b81 263e 4242 bd3e e67a 6ebd eb3c e93d
00000130: 6d75 003e f878 77bc 6125 95be ff81 283e
00000140: b6db 60be 4025 b3be 1041 933e fc38 8d3e
00000150: 0db0 443d 82b7 63be 1ffc 6dbe 8ca3 3f3e
00000160: 511f a33e b421 973d da39 093e 8edc cf3d
00000170: a61a 843e 2856 783d 81f0 533e 7174 1e3e
00000180: 704d 47bd e059 34bd 2822 95be c947 07be
00000190: e854 91be 63bb 63be 11f3 1fbe b538 ac3d
000001a0: c4c0 a03e d2db 12bc a9c7 f3bd 5a53 983d
000001b0: 62eb aebb 4f14 5e3e 3550 ce3c 8f76 93be
000001c0: da87 00be 90b6 3bbe c970 503d 4097 92be
000001d0: 5d30 d83d b243 8abe 2739 8abe e337 dabd
000001e0: 1917 e43d 3ef1 7a3d 164a e93d b3b2 533d
000001f0: 6d50 7dbd 855a 103d 1319 13bd a743 81be
00000200: 1df4 f83d 4572 be3c f82c 15be 0c82 28be
00000210: b219 83be d711 81bb 1ae8 a03e d9b7 38bd
00000220: 2330 40bd 29b8 523e 20a8 8ebe cf5f db3d
00000230: 8fab ac3e c78f 753e 2927 673e a9bf 633e
00000240: 12b6 78be 77c2 3e3e c831 7bbe 26a8 be3d
00000250: b750 493e a5a0 46bd 11ea 86be 0a16 793d
00000260: 7e75 a03e 3d5b 7ebe 017a b1ba 0d46 923e
00000270: 18dd 3d3e 7aef 8c3e 3264 5dbd fde3 38be
00000280: c210 f2bc f587 463e 7b7f 66be 304b 84bd
00000290: 058e 12be 9be3 06be 41d7 583c bd99 fbbd
000002a0: 5841 05be 88e4 9ebe a76c 973d 2cf2 203e
000002b0: 4ea1 9a3d 9274 6cbe 223c 213e 418b c33c
000002c0: adf9 ab3e c4a7 163e d30c 4dbd d183 d23c
000002d0: 6708 b53e 0bd8 e43c 09b5 9d3c b5bd 613e
000002e0: 1667 85be e861 67be 571b 2d3e b73d a23c
000002f0: 3c0b bdbe ad96 8fbe 374d 3c3e cb0e 293e
00000300: 5749 4b3c 4d49 973e 118b aa3d efd9 96bd
00000310: ae78 87be dc25 3bbd 5e60 9f3d ba8c 0b3d
00000320: 0587 8b3e e3f5 9bbd 09fe 863e 6cc8 19be
00000330: a1bf ae3d f63a 55be a29d ffbd e6f7 3cbc
00000340: da7a 8dbe 25ce 733e 70bc d9bd 3653 c0bd
00000350: 9a7d 4dbe 5426 8b3e e088 5a3d 2d3a ccbd
00000360: fda0 12be 5756 94be 6d8c 803e 8aeb d63c
00000370: b4fc 9cbd 12ec 0cbd 5356 5dbe 4e1c a03d
00000380: 730b 8c3e da3e 53be 5892 afbc e63a 6abe
00000390: a843 db3c 7847 1d3e 57a7 4e3d ca55 0cbe
000003a0: c57b 5b3e fc38 523e 17a5 4cbe 7f97 903e
000003b0: 1fb3 df3d e1e5 09be ed9d 773e 9df8 cc3d
000003c0: 827e 223e 23e6 913d 3ffe d43d 213f 8a3e
000003d0: 5a33 b23d 97d2 c53d 112b 30bd 3cc3 cc3b
000003e0: adad 51be c0a6 833e 35ec 19bd 5cda abbd
000003f0: 3b3a 283e 1e96 4a3e 29df f5bd a070 713e
-0.25227466 -0.25351205 0.04075429 -0.22357896 -0.15493079 -0.16056271 0.23385479 0.029704165
0.21987638 0.0064527057 0.008658179 0.26644817 0.074576825 0.34026483 -0.21602179 -0.21516623
-0.020503685 0.4397159 0.29710713 0.25054345 -0.28178698 -0.008759521 -0.15840933 -0.010536701
-0.16553138 0.1515393 -0.18500996 0.08306953 0.098152235 0.08174106 -0.2731846 -0.21896097
0.20927286 0.23636293 0.19137722 -0.014072785 -0.22363198 0.2179429 0.22737457 -0.09163024
0.2507143 -0.22940683 -0.25156304 -0.26005456 -0.12185422 0.10655289 0.18667722 0.026599377
0.2967202 0.18179178 0.18490714 -0.22594865 -0.25760746 -0.18601122 -0.058921404 -0.12809376
-0.008857708 -0.116597496 -0.1496903 0.3151596 -0.2764732 0.16411622 -0.16932902 -0.2253537
-0.187751 -0.12772256 -0.16996004 0.18732321 0.2094839 -0.25877172 0.15121123 -0.13889347
0.16260187 0.36964613 -0.058222674 0.11388572 0.12544794 -0.015104525 -0.2913008 0.1645584
-0.21958813 -0.34989357 0.28760576 0.27582538 0.048019458 -0.22237971 -0.23240708 0.18714732
0.3185983 0.07379475 0.13400975 0.10149489 0.2580158 0.06062904 0.20697214 0.15474106
-0.048657835 -0.044031024 -0.29127622 -0.13210978 -0.2838509 -0.22239451 -0.15620066 0.084092535
0.31397069 -0.008963542 -0.119033165 0.07437773 -0.0053381184 0.21687435 0.02518473 -0.2880139
-0.12551823 -0.18331361 0.05088881 -0.2863102 0.105560996 -0.27004772 -0.2699673 -0.10655191
0.11137218 0.061265223 0.11391084 0.051684093 -0.061844278 0.035242576 -0.035912585 -0.25246927
0.12155936 0.023247847 -0.14567935 -0.16455859 -0.2560554 -0.0039388943 0.3142708 -0.045097206
-0.046920907 0.20578064 -0.27862644 0.107116334 0.3372464 0.23980628 0.22573532 0.22241081
-0.24288204 0.1862887 -0.24530709 0.093094155 0.19659697 -0.048493046 -0.26350453 0.060812034
0.3133964 -0.24839492 -0.0013540388 0.2856907 0.18541372 0.27526456 -0.05405063 -0.1805572
-0.029549006 0.19387801 -0.22509567 -0.064596534 -0.14311989 -0.13172762 0.013234914 -0.122851826
-0.13013208 -0.3103373 0.07393771 0.15717381 0.07550298 -0.23091343 0.15745595 0.023870112
0.33588925 0.14712435 -0.05006106 0.02569762 0.35357973 0.027935049 0.019251363 0.22045024
-0.2605521 -0.22595942 0.1690496 0.019804819 -0.36922634 -0.28044644 0.1838883 0.1650955
0.012407622 0.29548112 0.08327306 -0.07365786 -0.2645926 -0.045690402 0.077820525 0.034069754
0.2725145 -0.076152585 0.26365688 -0.15017861 0.08532644 -0.20823273 -0.12481238 -0.011533713
-0.2763279 0.23809107 -0.10631645 -0.09390871 -0.20067444 0.2717768 0.05335319 -0.09972034
-0.14319225 -0.28972122 0.25107136 0.02623536 -0.07665387 -0.03440482 -0.21614961 0.07817899
0.27352485 -0.20629445 -0.021432087 -0.2287403 0.02676566 0.15359294 0.050452556 -0.13704601
0.21433933 0.2052955 -0.19984852 0.28240582 0.109228365 -0.13466598 0.24181338 0.10008357
0.15868571 0.07123973 0.10400056 0.2700129 0.08701201 0.096593075 -0.04300982 0.0062488597
-0.20476408 0.25713158 -0.03757878 -0.08391258 0.16428463 0.19783828 -0.12005455 0.2357812

lstm.bias_ih_l0 f4 [40]
00000000: 5d3b cf3c a8a4 913d c46d 903e a9ad 0b3e
00000010: ef79 b1bd 0c31 313e 8ea6 7c3d df79 4d3d
00000020: 965b 4e3e 741b 14be bbf8 243e 7793 703e
00000030: 7aba 6bbd 257a 563e 6ed5 893d fdfc b6bd
00000040: 0d74 663e df73 92be 44a8 b2be c1eb 5bbe
00000050: dd3d 9abe 1e77 f2bd 4aef d1bc 969f 92be
00000060: 20a3 1bbd 5dd8 8e3e 6308 923e b430 a2be
00000070: 4c8d ff3b b8c2 9e3d a82c babc d140 893e
00000080: 8f37 ce3e f248 dbbb f867 843d ca10 43bd
00000090: 07eb 8d3e 7f06 413d 862d 61bc 1bb3 a63d
0.025296861 0.07111484 0.28208745 0.13640465 -0.08665835 0.17303866 0.061682276 0.050165053
0.20152125 -0.14463598 0.16110508 0.23493753 -0.057550885 0.20945032 0.067301616 -0.089349724
0.22505207 -0.28604028 -0.34894 -0.21476652 -0.30125323 -0.11839126 -0.025626797 -0.2863738
-0.037997365 0.27899447 0.28522024 -0.31677783 0.0077988263 0.077519834 -0.022726372 0.26807263
0.40276763 -0.0066920454 0.06465143 -0.047623433 0.27718374 0.047125336 -0.013743764 0.081396304

lstm.bias_hh_l0 f4 [40]
00000000: 95d4 9fbd e790 c63e 2b20 323e 9d7a 48be
00000010: ebed c2bd c327 21be 73e2 cc3d 4038 d0bc
00000020: 8c75 1cbd 4833 bf3d d06e 863e c31e bd3e
00000030: 4666 833d e15b b83b 3afc db3d 4247 a23c
00000040: a215 a03e c556 59be 1fac 6bbe 4e3e 9b3e
00000050: 6b43 b3bd 7105 cbbd c938 83be f2d8 4abd
00000060: b229 74be 707d 073e 00b1 21be eb01 893e
00000070: 7c40 c7bd aef5 85be cac4 b53d b173 aa3e
00000080: bbd2 d1bd daf5 72be a894 b7bd 0edf 83be
00000090: 96a9 133e 16e1 c23d 5399 b53e f6ec 873e
-0.07804219 0.38782427 0.17395084 -0.19578023 -0.095180355 -0.15737824 0.10004129 -0.025417447
-0.03819804 0.09335953 0.26256418 0.36937532 0.064159915 0.005626187 0.10741468 0.019809369
0.31266505 -0.21224506 -0.23014878 0.30320972 -0.08753093 -0.09913147 -0.2562926 -0.0495233
-0.2384403 0.13231444 -0.15790176 0.26759276 -0.09729096 -0.26164 0.08875425 0.3329139
-0.10245272 -0.23726597 -0.08963901 -0.25756115 0.1442016 0.09515588 0.3546854 0.26547974

lstm.weight_ih_l1 f4 [40, 10]
00000000: 4787 02be 6d3b 11be 9399 06be d5e6 8abe
00000010: be2d d2bd 02fc 9fbe 5926 d23d b57c 7e3e
00000020: 5a34 c43d 27bd 61bd 4821 9f3e b3a7 0b3e
00000030: eb1b ab3d 0c98 393e 20bc 963e aae3 7cbe
00000040: 3df6 44be d648 90be bb3f 85be dc8f 013d
00000050: 88d8 5a3e 6ea6 a23e c367 b8be 6eec 6cbd
00000060: 4977 fa3d 6d43 69be 2997 513e 4c7c eabd
00000070: 7f31 2fbe 9f74 58be d7ca 943e 85db 88be
00000080: e3a3 223f d0ce 833e 8a8b 7e3e 091a b1bc
00000090: da55 3d3e aa06 0abf 6aa5 6ebe 505a 9abc
000000a0: a916 9e3e 8eda 543d c6be 593d 888f a63e
000000b0: 2fcb 3bbe b85e 613e 8baa 5b3e f877 dcbe
000000c0: 980b 29be daf0 9bbd 7643 393e 8c78 84bd
000000d0: 785c 85be 93fc 87be 1d34 843e d215 81bd
000000e0: 28ab 1abe 456e 35be 7ce7 9abe f9df 1d3e
000000f0: 2e3e 1abe 27de 183e 9790 f1bd 903c 63be
00000100: b317 843e dfbd 2cbe 0ce8 69bd 8160 0dbe
00000110: c4f5 3f3e e0de adbd 9f37 02be 97a5 64be
00000120: 1f68 223e d068 283e cea3 b43d 17ba 5c3e
00000130: 70f4 353c fca5 c8be e7d0 cdbe f7a9 853d
00000140: 9c1c 2e3d 5426 d13e 8871 96bd 7251 883e
00000150: ceb3 a3be b541 b2be 77b0 47be 12fb d23e
00000160: 00fb 85bd 80a4 c23b 395c 183c 8247 383d
00000170: 449b 903e 2614 873d 88a9 623d 58c3 7c3e
00000180: 07b4 dfbd 7b68 f33d f2d6 413e c3e0 673e
00000190: 6ef4 8ebc cec7 953e db41 a5be 2f11 adbd
000001a0: eae5 50bd b596 5f3e 1627 053e 88d8 d13a
000001b0: 64d1 943e 0a5a a63d 6563 103d b560 febc
000001c0: 2fb0 2c3e 8f6a 54be 9967 533a 82cf 1ebe
000001d0: f6ef 91be 9d9f 99be b7a5 b03c ec2a 1fbd
000001e0: 9518 773e 5d31 513e 2a43 e2bd ed88 61be
000001f0: fac0 ee3d 8b95 633e 1c43 853e 7e28 92be
00000200: 994f f23c 53c9 903d ad25 553b 6fb9 69be
00000210: 8253 ba3d 90ee a3be 3947 503d ab1c 333d
00000220: 4fcc 39bd 2349 0abf fa8d 94bc f867 463e
00000230: 68c6 823e 3cf3 93be f381 a13d ed2b a2bb
00000240: e616 9e3e 57d4 d13d f91c a9bb 5168 cebd
00000250: 42c5 76bc 5a9e aebd 5bbd 1bbd 705d 55be
00000260: 6901 653e e0b1 b13d f6b6 8c3e a422 8a3b
00000270: 238d 9e3e 6d58 f8bd 176b 15be b4b0 10bc
00000280: 1e58 553e 6b50 123e 8dd8 603d 179c d63d
00000290: a915 2ebe 6361 0abe 75a8 243e c16b afbe
000002a0: ebf2 bbbd ca4a 56be 18fc 8538 5f14 003e
000002b0: ea0d 713e 3d02 40be 1e6f 833e 0f33 81be
000002c0: a735 c33d 9fd2 083b 0cc1 b3bb ee3a f33d
000002d0: 4cb3 06be 5009 bd3e 2d5c a9be 40bc 9bbd
000002e0: 5a1c aabe b222 a5bd 5ee7 16be 8a0a dd3c
000002f0: e0b4 a33e bc71 b0be f35d 4cbe ba8b 4bbe
00000300: 42d0 8dbd 319e b5bc 46a0 7a3c 2d03 f0bd
00000310: 1a8b 9cbe bb54 29be 4259 3c3e 5cc2 223d
00000320: 86a9 123e 2321 d3be eba4 563d ec97 99be
00000330: 4b44 253e d933 87be a057 973d 5b1c 86be
00000340: ad05 4c3e 9847 983d ba85 38be 45b3 dfbd
00000350: deaf 483e 466e 9abe 2f6f d13d 4138 8a3c
00000360: e52f 5e3e 53fc 163e 9104 513e f30b 9dbe
00000370: 979d 813e 7c65 d8be 5b87 9a3e 1007 eebd
00000380: 80af 733e 7a51 e63d 3ed3 38bd acb4 efbe
00000390: d0ae e63c 82b6 253e b350 8abe 2f8a 413d
000003a0: aa08 fbbd 90f7 cfbc 8b4e 6cbe 51b7 973e
000003b0: 0f52 efbe 139e 4cbe 4f0c 8e3e af3c 733e
000003c0: 47b1 5a3e 9c9f 86be 7809 48bd c6d1 86bd
000003d0: af9c 17be b000 36be 066a 9c3e f567 b5bd
000003e0: 1bd5 90be 6803 f3bc 2b11 593d 5f45 09be
000003f0: 3b3c 973e 9e04 6c3e 1de8 103c d8c3 5f3d
-0.12746917 -0.14182825 -0.13144521 -0.27129236 -0.10262631 -0.31246954 0.102612205 0.2485226
0.09580298 -0.05511203 0.3108008 0.13638191 0.08354934 0.18124408 0.29440403 -0.24696222
-0.19234557 -0.2818057 -0.26025185 0.031631336 0.21371663 0.317676 -0.36016664 -0.057842664
0.12229783 -0.22779627 0.2046782 -0.11449489 -0.17108725 -0.21138237 0.29061005 -0.2672998
0.6353132 0.25743723 0.24857917 -0.02161886 0.18489781 -0.5391642 -0.23305288 -0.018841892
0.30876663 0.051966242 0.05316045 0.3253138 -0.18339227 0.22008789 0.21451776 -0.4306028
-0.16508329 -0.07614298 0.1809214 -0.06468305 -0.2604711 -0.26559886 0.2582101 -0.0630299
-0.15104353 -0.17717846 -0.30254734 0.1541747 -0.15062782 0.14928494 -0.117951564 -0.22191072
0.2579933 -0.16869305 -0.057106063 -0.13806345 0.18746096 -0.08489776 -0.1271653 -0.22328793
0.15860032 0.16446233 0.08820306 0.21555363 0.011105642 -0.39189136 -0.40198442 0.06526559
0.042507753 0.40849555 -0.07345873 0.26624638 -0.31973118 -0.34815755 -0.1950091 0.41207176
-0.06542015 0.00594002 0.009299331 0.04499007 0.28243458 0.0659564 0.05533746 0.24683893
-0.10923009 0.118851624 0.18929651 0.22644334 -0.017450538 0.29254 -0.32276806 -0.08450543
-0.051000513 0.21834834 0.13003191 0.0016009966 0.29066002 0.08122642 0.03525104 -0.031051973
0.16864084 -0.20743774 0.00080644485 -0.15508845 -0.28503388 -0.30004588 0.021563394 -0.038859293
0.24130471 0.20428987 -0.11047967 -0.2202489 0.11657901 0.22225015 0.26027763 -0.28546518
0.02957897 0.070696495 0.0032523677 -0.22824644 0.09097959 -0.32017946 0.050849173 0.04372851
-0.04536086 -0.5401785 -0.018134106 0.19375598 0.25541997 -0.2889651 0.07886114 -0.004949084
0.30876845 0.10245579 -0.0051609245 -0.100784905 -0.015061678 -0.08526297 -0.03802238 -0.20836425
0.22363819 0.08676505 0.27483338 0.0042155553 0.30967054 -0.12126241 -0.14591633 -0.008831192
0.20834395 0.1428849 0.05489402 0.104789905 -0.1700045 -0.13513713 0.16079886 -0.34261897
-0.09177192 -0.20926967 6.38889e-05 0.12507771 0.23540464 -0.18750854 0.25670713 -0.25234267
0.09531718 0.0020877493 -0.0054856595 0.11876474 -0.13154334 0.36921167 -0.33078137 -0.07604265
-0.33224756 -0.08063258 -0.14736697 0.026982564 0.31973934 -0.34461772 -0.19957714 -0.1987752
-0.06924488 -0.022170158 0.015297001 -0.11719356 -0.30574876 -0.16536228 0.18393424 0.039736137
0.1432248 -0.4123622 0.05240337 -0.2999872 0.16139333 -0.26406744 0.0738976 -0.26193509
0.1992404 0.074355304 -0.18019763 -0.10922865 0.19598338 -0.30162257 0.10226285 0.016872527
0.21697958 0.14744692 0.20411898 -0.3067318 0.25315544 -0.42264926 0.30181393 -0.11622441
0.23797417 0.11246009 -0.04512333 -0.4681753 0.028159529 0.16182902 -0.27014694 0.047250923
-0.12257512 -0.025386602 -0.23076837 0.29632047 -0.46742293 -0.19982176 0.27743766 0.23753618
0.21356688 -0.26293647 -0.048837155 -0.0658298 -0.14805864 -0.177737 0.3054964 -0.08857719
-0.28287587 -0.02966471 0.05299489 -0.13405369 0.2953814 0.23048636 0.008844403 0.05463013

lstm.weight_hh_l1 f4 [40, 10]
00000000: 979f 9f3e b2a8 6e3d 4260 3d3d 5c2b 513e
00000010: 60e0 20be fdff 24be a1f0 8f3e 189e 4abe
00000020: 3f93 8f3e a05b 38be 198f 4b3e 569f 023e
00000030: 59f2 5c3e 6b40 b9bd 89c5 8dbe cb90 6b3e
00000040: 4b20 1cbe 4b47 0dbe 6fcd 8e3d ac1c 943d
00000050: 50e8 95be af3f 45be dee9 ac3e 9c41 69be
00000060: 84df f43d 3747 9f3e e6ea 433e 7e89 4fbd
00000070: 20fb 72be d9fd 3d3d db02 58bc 000f 0dbe
00000080: 84d4 7c3e 28b5 8c3d 13c2 943e 0a95 0a3e
00000090: 1d85 fbbd 6061 93be 5bd9 41be c0de acbd
000000a0: ef1c 55bd aeac 48bc 35e6 793e 348d ecbc
000000b0: a6e0 86bd ff2a 653c f4a6 cc3d 7ce6 5ebe
000000c0: 6438 b2bc a88f 583c 83b2 543e 7512 a4be
000000d0: e7be 3ebe 06de 4c3e c93f 50be 3896 113e
000000e0: 611c 6a3d edd6 14bd fa03 80be 937d d5bd
000000f0: 8380 ce3d 0aa6 e83d 900f 963e 5abc e0bd
00000100: f5f5 2abe 96de e0bc be78 81be 4820 81be
00000110: d4f0 323d 98e8 c4bd a4d7 b53d 3cdf a4be
00000120: 8cee 8a3e 378d 1fbe a2b4 03be ddee 93bd
00000130: 6f7c d1bc 84f8 79be 6150 1ebe 5c71 8bbd
00000140: 15e9 213d 7a0a 06be cfeb 333d 7ce8 1ebe
00000150: ad99 6ebe 8d37 693e 7fc5 4b3e 6a7f 153e
00000160: 12e5 39be 0cef febd d533 803e c1ed 89be
00000170: 4af0 ff3d 0111 c13d 8a92 07bd 08d5 bebd
00000180: dd88 8e3e 03c7 4dbc f06a 923e 42a2 943e
00000190: 0486 613c 17dc 293e 9ecf 99bd e772 3ebe
000001a0: 5be0 94be 57eb 7e3d a012 743e fc76 843e
000001b0: 48ef 163e 1d76 00be c36e a23e 72d7 87be
000001c0: 8017 e43d 53b8 c0bb f3fe 36be 4f74 553d
000001d0: 611a 41be 89b4 5b3e 6fb1 3c3e 6927 37be
000001e0: dc0f 97be 3cd4 6c3e 487c 573d b61e 1d3d
000001f0: 54f7 d9bd d2a3 da3d be6a 8a3e 8fc9 943e
00000200: ce59 f8bd f3e8 753d da17 ad3c 2ca9 de3d
00000210: 58c3 a23e c04b 5cbd b9c7 0fbe cdad 8abe
00000220: b87d 7abe e603 933e f6d8 b9bb 27c8 9ebe
00000230: 1e32 0abe e21b 5e3e 2946 a23d 8691 63be
00000240: f6b6 a13d 1544 513e 2477 14bd 849e f93d
00000250: f509 6dbe 378a f03d f483 903e 68a7 a0bd
00000260: 80b7 f5bd b0d6 433e de5c 3abe baaa 653d
00000270: 665a 853d 81bf 5c3d 0803 8e3d d764 18be
00000280: 99c4 5dbb dbd7 173d 89c1 403e 2eef 58bd
00000290: b350 03bd 4ea0 ccbc 3368 cfbd 6182 d33d
000002a0: 7b0e 3b3e dbd8 3ebe 51f4 4c3d 8c3c 20bd
000002b0: 555e 00bc c721 e13d 6459 5b3e dec8 723e
000002c0: 1f52 423e 432a 63bd af50 5a3e 9791 19be
000002d0: a16d 053e 7fd0 df3d 822f 8bbe c381 f03d
000002e0: 87da 34bd dbdf 9fbe 022a 5b3e 8a6e 5b3e
000002f0: 5c07 8c3e 5fa5 9e3e 970a 093d 4dcf 833e
00000300: 2b64 413e a630 753e 9c5b 2d3e 3acf 873e
00000310: 5b45 d5bd 8fc7 053e d274 573e 8209 ee3c
00000320: b68b 753e e857 8cbe 00d3 dd3d 56f9 e8bd
00000330: 53ce 83be 4905 16be caea d0bd 48fe 843d
00000340: bf9b 29be 517c 313e 9bc5 0bbd 40ac ad3d
00000350: ccda 17be 3d61 29bd 22f4 78be b580 b83c
00000360: f5fd 1f3e bba4 84bd 951e efbd 973b 9fbd
00000370: 767b f43d c44e 2bbe 41c7 9cbd 7271 683c
00000380: a16b d53d fa8b bc3d 4049 8abe 4e82 ee3d
00000390: 8419 113d 47f6 973e 4316 d73c a111 85be
000003a0: 9f57 ed3c 55c9 843e 1507 90be 6325 253e
000003b0: bb09 6c3e eed3 c5bd 1f66 733e 0606 283d
000003c0: 0e3b 9e3c 383f 0f3c e945 d6bd 38a2 2bbe
000003d0: cc69 7c3e 2b67 ca3b 30dd 8e3e feae 0c3e
000003e0: f521 4bbc e952 b63d 025d cc3c 8322 3d3e
000003f0: fefc b03c 5be4 473e c1cb 5ebe 0760 5c3d
0.31176445 0.05826635 0.046234377 0.20426697 -0.15710592 -0.16113277 0.28113273 -0.1978687
0.28042027 -0.18003702 0.19878806 0.12756094 0.21576823 -0.0904549 -0.2768977 0.23004453
-0.15246694 -0.13796727 0.06972777 0.07232031 -0.29278803 -0.19262575 0.33772177 -0.22778934
0.11956695 0.3110902 0.19132575 -0.050668232 -0.23728609 0.046384666 -0.013184275 -0.13775253
0.24690443 0.0687049 0.29054317 0.13533416 -0.12281249 -0.2878523 -0.18930571 -0.08440924
-0.052029546 -0.012248201 0.24404223 -0.028875925 -0.06585817 0.013987302 0.09992781 -0.2176761
-0.021755405 0.013217844 0.20771222 -0.32045332 -0.18627511 0.2000657 -0.20336832 0.1421746
0.05715597 -0.03633778 -0.25003034 -0.10424342 0.100831054 0.113597944 0.29308748 -0.10973425
-0.16695388 -0.027449887 -0.2528743 -0.2521994 0.043686703 -0.09614676 0.08879021 -0.32201564
0.27135122 -0.15581213 -0.12861875 -0.07223294 -0.02557203 -0.24411207 -0.1546035 -0.06808731
0.039528925 -0.13089934 0.043926056 -0.15518373 -0.2330081 0.22775097 0.19899558 0.14599386
-0.1815379 -0.12447938 0.25039545 -0.26939204 0.124970034 0.09427071 -0.033098735 -0.09317976
0.27838793 -0.012559655 0.28597212 0.29030043 0.013764862 0.16587864 -0.07510303 -0.1859852
-0.2907742 0.062236156 0.2383523 0.25872028 0.14739716 -0.12545057 0.3172513 -0.2653156
0.11137295 -0.005881348 -0.17870693 0.052112874 -0.18857719 0.21455587 0.1842706 -0.17886128
-0.29504287 0.23127836 0.05260876 0.038359366 -0.10642877 0.106757775 0.27034563 0.29060027
-0.12126504 0.06003661 0.021129537 0.10872111 0.3178966 -0.05378318 -0.14041032 -0.27085724
-0.2446202 0.28713912 -0.0056716157 -0.3101208 -0.1349568 0.21690324 0.07923538 -0.22223482
0.07896225 0.20436127 -0.036246434 0.121884376 -0.2314833 0.117451124 0.28225672 -0.0784443
-0.119978905 0.19124866 -0.18199489 0.05607102 0.06511383 0.05389357 0.06934172 -0.14882217
-0.0033839105 0.03707109 0.18823828 -0.052962475 -0.032059383 -0.024978783 -0.10127296 0.10327602
0.18267243 -0.18637411 0.050037686 -0.039120242 -0.0078349905 0.10992771 0.21420819 0.23709437
0.18976639 -0.055460226 0.21319841 -0.14996944 0.13030101 0.10928439 -0.27184683 0.117435
-0.044153716 -0.31225476 0.21402743 0.21428886 0.27349365 0.30985543 0.033457365 0.25744095
0.18885867 0.23944339 0.16929477 0.2652529 -0.10413619 0.13064407 0.21040657 0.029057268
0.23979077 -0.27410817 0.10831261 -0.11375682 -0.2574335 -0.14650454 -0.102010325 0.06493813
-0.16563319 0.17332579 -0.034123998 0.0848012 -0.14829558 -0.0413525 -0.2431188 0.02252231
0.1562422 -0.06476732 -0.11675755 -0.07775038 0.11937611 -0.16729265 -0.07655192 0.014187204
0.10420919 0.09206386 -0.2700901 0.116459474 0.035424724 0.29680082 0.026255732 -0.25990012
0.028972445 0.25934854 -0.28130403 0.16127543 0.23050587 -0.09659563 0.23769425 0.04102137
0.019315269 0.0087431 -0.10462553 -0.167611 0.24649733 0.0061768494 0.27903128 0.13738629
-0.012398233 0.089025326 0.024946693 0.18470196 0.021605011 0.19520704 -0.21757413 0.053802516

lstm.bias_ih_l1 f4 [40]
00000000: 24f9 7abe 652a 283e 0cc8 dfbc 12fe df3d
00000010: c934 8bbe ddee 08be 421b 3ebd 7191 f2bd
00000020: 9b80 9d3d bd24 23be 44e9 543e f042 77be
00000030: 674c b6bc 2da5 c73d 2667 1ebe 5583 0c3e
00000040: 3300 67bd 804c 91bd 6962 283c 40e1 863e
00000050: 7664 5b3e 46fb d53d 0a59 2b3c 60f5 16be
00000060: 7b28 423e 563f 9c3e 61c9 693e 7f1b 5f3e
00000070: 54e8 0b3e 8865 723c 7765 bc3d b903 a33e
00000080: 658d 2fbe c115 1fbd feb1 43be d8fd 57bc
00000090: 314d 75be 0891 8fbe 0635 05be 86ef 823e
-0.24509102 0.16422422 -0.02731707 0.10937132 -0.2718871 -0.13372369 -0.046412714 -0.11844147
0.07690545 -0.15931983 0.20792109 -0.24146628 -0.022253228 0.09748302 -0.15469036 0.13721974
-0.056396674 -0.07094669 0.010277369 0.26343727 0.21425042 0.10448317 0.01045824 -0.1474204
0.18960755 0.3051707 0.22830726 0.21787833 0.13662845 0.014794715 0.091990404 0.31838778
-0.17143781 -0.038839106 -0.19110867 -0.01318308 -0.23955227 -0.28040338 -0.13008508 0.25573367

lstm.bias_hh_l1 f4 [40]
00000000: 8a11 30bc 9b0d db3c d35e ab3e 9f74 673e
00000010: 525d 25be f71c 24be 14b9 7f3e c871 9ebe
00000020: 79bf fb3d a386 823e 0a0e b3bb 060f 503e
00000030: 4535 933c 4ed5 64be a223 33be 4931 7ebe
00000040: 5545 523d 5ca9 c9bd fd1d 1dbd d764 093e
00000050: 9406 66be f8e5 e8bd 2ea7 f73c 4f3e e1bd
00000060: 3f54 c23d b867 13be 0201 b8ba 03ed bd3d
00000070: 55e9 1f3e 0748 4c3e af1f 68be 47f8 5ebc
00000080: aaaa 04bc 0195 b73d f876 84be 2dd1 493e
00000090: 9b5f c8ba 0670 82bd 14c0 0a3e 2a65 d83d
-0.010746369 0.026739886 0.33470783 0.22603081 -0.1614888 -0.16026674 0.24972945 -0.30946183
0.1229238 0.25493345 -0.00546432 0.20318231 0.017969737 -0.22346994 -0.17494062 -0.24823488
0.05133565 -0.09846756 -0.038358677 0.13417374 -0.22463447 -0.11371988 0.030231085 -0.109982125
0.09488725 -0.14395034 -0.0014038386 0.09273722 0.15616353 0.19949351 -0.22668336 -0.013608999
-0.00809733 0.08963967 -0.25872016 0.197087 -0.0015287282 -0.06369023 0.13549834 0.105661705

fc.weight f4 [1, 450]
00000000: 6d8b 79bd d25f 473c e96a 33bd e799 103d
00000010: 3de6 d63c cf64 16bd 4592 4f3d c848 fa3b
00000020: e064 1f3d 85a7 2a3d 29e6 a7bb 053a a13b
00000030: 168c d73c 10eb 20ba 1ae5 6b3c 3de2 84bc
00000040: 119e 2a3d fcb4 313c 002b edbc 9793 073d
00000050: 16a7 a73c 9cdf 5d3c cb08 05bc cabe 8b3c
00000060: 257a 45bc f7ea dd3a c581 583d 7760 023d
00000070: 6f4d a4bc 4811 b93c 5229 a93c 1605 213b
00000080: 0152 6bbc 898b 1bbd 33aa 013d 57a0 3e3c
00000090: 9547 823c 544c 8dbc 4d12 45bb f421 44bc
000000a0: 07c7 dd3c 823b 1a3d c87b 66bc da8b 3dbc
000000b0: 5662 63bc f98c c83b 9c38 9d3b cb5e df3c
000000c0: aeeb efbc 6c30 bbbc 980d 56bc 1d84 e4bc
000000d0: 2f5e 49bc c5b7 3fbc 77f4 3a3d 1a24 ea3c
000000e0: da5d 19bb ab6a 043d 5959 183d e974 ae3b
000000f0: 75a1 b3bc 6840 6bbd b486 8c3c c55e 773c
00000100: 0006 1f3d 6326 493c 6b82 ac3c adf5 4b3d
00000110: 15f7 bfbb c429 db3c 7173 9fbc a4f7 4a3c
00000120: b7e1 51ba 0ee5 9b3c 74d2 363d ae10 e9bc
00000130: c155 6dbc 9b00 b43c 519f bebc dcc6 2c3d
00000140: b1ba e83b 7c15 81bc 34b2 e13a 77eb 913b
00000150: 8d64 e0bc a333 8fba 1889 ffbc 5982 973c
00000160: 9327 d2bb bf30 f73c 0052 0fbd c698 9abc
00000170: b43f 263d 352a a63c a4f5 c9bc 7f76 73bc
00000180: 9d50 eebc f474 123d 740e f63b 0055 12bd
00000190: 4312 9c3b 1e1f 05bd e389 eb3b e4f8 43bc
000001a0: 3be1 a1bc bc18 323d 9754 0d3d 4555 89bc
000001b0: c109 e3ba 97b0 e6bc a3e5 1ebd 576d fa3b
000001c0: 14b8 02bd 4ba3 e9bc a67c 0fbd 49e7 fa3c
000001d0: 26e6 133d 6c87 d43b 3d02 6abc b71c 1d3d
000001e0: 23b5 25bd d279 87bb b725 13bd bbd8 253d
000001f0: e234 a53c f3c6 6e3c fe3e c23c c4e3 193d
00000200: ae13 c03b 89ed 6f3c db7a 25bd b44a 8d3b
00000210: 5ade 793c 7912 eeba c817 da38 8374 113d
00000220: 9ba3 d9bc ddaa 22bc 331e fb3b 92c1 07bd
00000230: 135e 0a3c 7578 c0bc 8f05 023d 4ef5 f9ba
00000240: b9c9 6c3c d382 8cbc 98ee 4ebc e020 0dbd
00000250: 9035 93bc d0d8 4f3d 4bd4 e4bc 1f92 2f3c
00000260: 543c 633c cc17 b3bc 2309 0cbc 2a12 91bc
00000270: 6577 923c d5d6 98bc 3f99 b83c 4835 a0bc
00000280: 799f 513c e538 b4bc 1aa7 31bc 0580 113d
00000290: 025d 5c3d 057e b7bc 830b b83b 8a72 19bd
000002a0: e187 243d 40f3 35bc c444 753b 1a64 0ebd
000002b0: 7063 bc3c 5a9a 8b3c de91 22bc 13d0 8fbc
000002c0: 159a eb3b 9931 25bc c8af 013d c489 4b3b
000002d0: d1e1 36bd d6d5 9d3b 8a59 3d3d 97cc ba3c
000002e0: ace6 2cbc e3d1 443d a4a2 103d c230 fb3a
000002f0: 1f3b 05bd 0fc0 ba3c e7a6 08bc 54ca 0bbd
00000300: efab f43b b598 1f3d 91ac 6bbb 8ee8 a9bc
00000310: 9994 babb 73c7 713c d5c2 a53b e37f 033d
00000320: b216 d4bc f2c2 4fbd 9f91 42bc c20b c0bc
00000330: 0cfa cfbb bce5 9ebc 88f6 6b3c 88c1 8e3c
00000340: ead3 8bbc 6d98 9e3c a5b0 a2bc b919 89bc
00000350: ae4a 243c f486 10bd 569f f2bb 0866 23bd
00000360: 4fc8 3f3c ee57 923c 067d 63bb edd2 253d
00000370: fc81 903b 50bb 99bc c581 febc 8fea a4bc
00000380: 30a4 17bd 727a 9cbc d1c9 8abc c0e0 6f3c
00000390: 5567 a03b fe2d 2b3d fd09 f4bb 175c 2a3d
000003a0: 270f a6bc 2b04 43bc 7885 37bc f350 19bd
000003b0: ed79 c63b 816e 0f3d 45e9 8dba 7660 9eba
000003c0: 26f1 a53c 5798 1fbd 75f1 173d 3490 ab3c
000003d0: e0d4 1c3d 2660 cebc 71fa 5b3d 9ffc b33c
000003e0: 97d5 03bd b285 0d3d 1a13 02bc c15f 93bc
000003f0: 6538 d7bc fe78 123d e7ab 1e3c c7db 9b3c
-0.060923982 0.012168841 -0.04380313 0.035303023 0.026232833 -0.036717232 0.050676603 0.0076380707
0.03891456 0.041663665 -0.005123873 0.0049202465 0.026311915 -0.00061385427 0.014397884 -0.01622116
0.04165465 0.010846373 -0.028951168 0.033099737 0.020465415 0.013542082 -0.008119772 0.017058749
-0.012053047 0.0016930987 0.052858133 0.031830277 -0.020056454 0.022591248 0.020649586 0.0024569682
-0.014362813 -0.037974868 0.031656455 0.011634908 0.015903274 -0.01724831 -0.0030070723 -0.011970986
0.027072443 0.037654407 -0.014067598 -0.011568988 -0.013878426 0.006120321 0.004798008 0.02726688
-0.029287186 -0.022850238 -0.013064764 -0.027895028 -0.0122905215 -0.011701529 0.045643296 0.028581668
-0.0023401887 0.03232829 0.037194584 0.0053239954 -0.021927575 -0.05743447 0.017154075 0.015098278
0.03882408 0.0122772185 0.021058282 0.04979484 -0.005858312 0.026753314 -0.019464226 0.012388144
-0.00080063514 0.01903012 0.044634297 -0.028450336 -0.014485777 0.021972945 -0.023269327 0.042181835
0.0071023335 -0.015757315 0.0017219246 0.0044531184 -0.027391696 -0.0010925423 -0.031193301 0.018494772
-0.006413409 0.030174611 -0.03499031 -0.018871676 0.040588096 0.020283798 -0.024653263 -0.014859795
-0.029091174 0.035756066 0.007509047 -0.035725594 0.004762919 -0.03250038 0.0071880682 -0.011961196
-0.019760719 0.04348062 0.0345045 -0.016764292 -0.0017321632 -0.028160376 -0.038793217 0.007642429
-0.03191383 -0.028520247 -0.035030983 0.030627863 0.03610816 0.00648587 -0.01428276 0.038357463
-0.04045595 -0.004134395 -0.03592464 0.040489893 0.020166818 0.0145738 0.023711678 0.03757073
0.005861721 0.014644035 -0.040400367 0.004311884 0.015250767 -0.0018163464 0.0001039948 0.035511505
-0.026567271 -0.009928432 0.007663512 -0.033143587 0.008445281 -0.023494938 0.031743582 -0.0019070299
0.014452391 -0.017152226 -0.012630127 -0.03445518 -0.017969877 0.050743878 -0.02793326 0.01071599
0.013869364 -0.021861933 -0.0085471 -0.017708857 0.017879197 -0.018657127 0.022534011 -0.019556656
0.012794369 -0.021999786 -0.010843063 0.03552248 0.053799637 -0.022398958 0.0056166067 -0.03746275
0.040168647 -0.011105359 0.003742502 -0.034763433 0.022996634 0.017041374 -0.009922473 -0.017555272
0.007189999 -0.010082626 0.03166178 0.0031057457 -0.04464895 0.004816751 0.04622797 0.022802634
-0.010553043 0.048051726 0.035311356 0.0019164311 -0.032527085 0.022796659 -0.008340574 -0.034128502
0.007466785 0.038963992 -0.0035961012 -0.020740774 -0.0056939838 0.014757025 0.005058626 0.032104384
-0.025889728 -0.050723024 -0.011875539 -0.023443107 -0.0063469466 -0.019396655 0.014402039 0.017426267
-0.017068822 0.019359792 -0.019859621 -0.016735898 0.010027571 -0.03528495 -0.007404248 -0.039892226
0.011705472 0.017864194 -0.003471197 0.040484358 0.0044100266 -0.018766075 -0.031067738 -0.020131378
-0.037021816 -0.019101355 -0.016941937 0.014640987 0.0048951306 0.04179191 -0.0074474798 0.04159173
-0.020270897 -0.011902849 -0.011201255 -0.037430715 0.006057015 0.035017494 -0.0010826966 -0.0012083191
0.02025659 -0.038963642 0.037095506 0.020942785 0.03828895 -0.025192332 0.053705636 0.021971045
-0.032186117 0.03455133 -0.0079391245 -0.017989995 -0.026272008 0.03575992 0.009684539 0.019025696

exp_avg f4 [40, 29]
00000000: 5a9a 16b6 c4a2 6db3 52b0 0b2d e403 01b3
00000010: 442c d9b2 7211 162f b0df f8b1 948c 4fb3
00000020: 00ec f02e dade 9a30 649b 67b1 c702 3eb3
00000030: fcd1 17b2 c785 882f 27bd 6030 04fe 73b1
00000040: 28ee 62b3 1590 2f2e 2d9e 31af 6677 2e2f
00000050: 3944 d3b0 66ae 85b1 96d7 5db3 455b 79ae
00000060: 876c 1131 91bf 44af 6ffc 64af 12fd c8ae
00000070: 5789 1a2f 182c db38 c8a6 0536 e00e bbb4
00000080: df19 f336 7ef7 bbb6 01af 8335 2472 feb5
00000090: f857 06b6 29ff 9836 8ef3 58b6 8824 9f35
000000a0: 9c7b 4936 26a9 3835 c787 05b4 2ce0 d935
000000b0: 4aa7 02b7 9b12 0537 b4bb 17b5 647b 8e35
000000c0: 3243 df35 870c 7236 b815 03b6 dc4b 2334
000000d0: 6046 be33 b466 bd32 e68f aab5 e4d5 acb5
000000e0: 77f6 a9b4 f16a ed34 f67d 36b5 d44f 8ab2
000000f0: 57a2 2eab 4a2b 93b1 bd0c 4bb2 6092 6cae
00000100: 99a7 2cb1 3d29 92b2 421a 6f31 2956 63ae
00000110: a0f6 76b0 700c 82b2 00fc 5aad 3c6c 6d2d
00000120: dc9e b1ae 2ed4 c9b0 ff3f 7ab2 c24f 8ca9
00000130: b6be bcad 89c3 962e c09f a9b0 c002 1630
00000140: ca50 95b2 abb1 ccae eda6 f030 ea9d 0830
00000150: 4064 30af dbf0 6aae bf79 a9ad 8846 9138
00000160: aefa ca35 1096 eab2 0840 a635 1841 8434
00000170: 00a0 2a34 8243 e434 689a 46b4 b7be 9135
00000180: 00b6 edb3 c0ce 59b3 36f0 9235 d313 1435
00000190: 803f adb2 d552 8434 9abc 90b5 9dd6 1c36
000001a0: 6f58 c1b3 b32a 4834 1410 8a33 080b 6335
000001b0: 6043 acb3 6e53 1334 2a2e 6e33 901b 3633
000001c0: 3c44 f5b3 822a df34 9eeb 6ab2 511e 1a33
000001d0: 5c7d 34b8 5485 87b5 bd5b 57b0 0c16 58b5
000001e0: 88a9 5cb4 22d9 a6b3 7e52 3bb5 b03a 2db5
000001f0: cc4f dc34 10f2 83b3 68d3 4bb5 0471 40b5
00000200: 4282 0d35 33ba 60b3 b29a 8eb3 bc86 8fb4
00000210: 189e 27b5 b620 2ab2 df81 6e33 579e 8ab3
00000220: 1eeb 3e33 67ed d9b5 c85a 1935 c856 1a32
00000230: a756 57b3 5fc8 4fb2 0c49 5133 ab50 c832
00000240: 7ed7 26b1 a088 a731 40c0 a72e 4733 cb27
00000250: 045c 19b0 7c54 2e30 03a6 182e f19a 8630
00000260: e099 962e 6c4d 8ab0 4442 912d 2c80 7ab0
00000270: b8c6 6930 b49f 042f 9b8a eaac 34dd 182f
00000280: 5a47 10b0 90dd 0030 6f8d f2ab 2d82 f12b
00000290: 62f5 aead 1933 60af ac14 07b0 25d3 3130
000002a0: 58e5 17ad f99e 12af ddf5 982f a64e 49ad
000002b0: 96cd b22d e650 17ab 10ba e4ac f44e e52a
000002c0: 0000 0000 735a 412c 96b0 24ac eb21 85a7
000002d0: ce65 0bab 7ca1 08ac 5f67 482c cb5d 5e28
000002e0: dbc9 f1ab 863f 3c2c 4f3c 1eab 3b5d 4f25
000002f0: f6b0 19a4 38f1 d2ab d81f 062c 1fb8 e5a5
00000300: 7c5f 4126 0f66 11a7 2ee0 b0aa 2c12 9aab
00000310: 95a6 96aa 0cf2 d9a8 cc4e 9daa 8400 2b2c
00000320: 0caf 37a9 7dfc e625 fd23 00a6 e21e 63bc
00000330: b64b 96b9 8c07 f836 4238 38b9 a03d d9b8
00000340: 7e4e 73b8 9045 b6b8 a075 e9b8 082f c1b7
00000350: 8314 a2b8 6f4d 3bb9 58e9 54b8 56d7 e537
00000360: 413f 93b8 40a6 ecb4 8d39 e6b8 d448 cfb8
00000370: b3dd 9d37 4bfe 7338 cc11 17b9 a49b 97b8
00000380: 1cc8 8ab9 a441 db38 c73c 96b5 958d 87b5
00000390: fe41 9c35 2fd7 fcb3 4f36 4537 d9bd 2037
000003a0: 0050 2337 0066 aa35 db3a 1633 988d d1b6
000003b0: e053 fd36 e0ce 0eb6 a2ad 13b7 d8ff 1537
000003c0: 5012 5d36 90cb 1bb6 8268 85b7 40e6 e336
000003d0: d4b3 5537 0f5f dbb5 6e2f 74b5 2dad ebb6
000003e0: 9868 3637 14cc 6233 5654 9a35 f9fc 2eb6
000003f0: 3658 79b6 4169 beb7 664a fa37 15c9 8cb4
-2.2441586e-06 -5.5328897e-08 7.940386e-12 -3.003869e-08 -2.5282255e-08 1.3648618e-10 -7.2431803e-09 -4.83238e-08
1.09558584e-10 1.1268313e-09 -3.3703254e-09 -4.424035e-08 -8.837102e-09 2.483331e-10 8.1759527e-10 -3.5505545e-09
-5.2836327e-08 3.9918364e-11 -1.6154252e-10 1.5867627e-10 -1.5371661e-09 -3.8906363e-09 -5.1651647e-08 -5.669711e-11
2.1161968e-09 -1.7894154e-10 -2.0826162e-10 -9.139901e-11 1.4055011e-10 0.00010450947 1.9915624e-06 -3.4842287e-07
7.244976e-06 -5.601846e-06 9.811193e-07 -1.8957694e-06 -2.001876e-06 4.5596576e-06 -3.2328276e-06 1.1857055e-06
3.0023284e-06 6.8791485e-07 -1.2435986e-07 1.6233002e-06 -7.787554e-06 7.93175e-06 -5.652503e-07 1.0615736e-06
1.6634351e-06 3.6068102e-06 -1.9533163e-06 1.5208155e-07 8.8603656e-08 2.20492e-08 -1.2707867e-06 -1.2877249e-06
-3.165803e-07 4.42225e-07 -6.798358e-07 -1.6101616e-08 -6.204251e-13 -4.2831845e-09 -1.18190515e-08 -5.3790195e-11
-2.5124562e-09 -1.701539e-08 3.4794003e-09 -5.169035e-11 -8.9844754e-10 -1.5139648e-08 -1.24478206e-11 1.3495923e-11
-8.077247e-11 -1.468498e-09 -1.4566466e-08 -6.231085e-14 -2.1457818e-11 6.855944e-11 -1.2341772e-09 5.457359e-10
-1.7382622e-08 -9.308406e-11 1.7509741e-09 4.970092e-10 -1.6042723e-10 -5.3419363e-11 -1.9267142e-11 6.927276e-05
1.512313e-06 -2.7309426e-08 1.2386599e-06 2.4634278e-07 1.5890691e-07 4.2517428e-07 -1.849636e-07 1.0858847e-06
-1.1069278e-07 -5.0712288e-08 1.0947758e-06 5.5163144e-07 -2.0168727e-08 2.4647184e-07 -1.0783726e-06 2.3370733e-06
-9.003349e-08 1.8641985e-07 6.4290504e-08 8.458014e-07 -8.0216296e-08 1.3720793e-07 5.545568e-08 4.2400245e-08
-1.1421113e-07 4.1567915e-07 -1.3674166e-08 3.588349e-08 -4.3032094e-05 -1.0097087e-06 -7.834691e-10 -8.0498353e-07
-2.0550772e-07 -7.7694736e-08 -6.978297e-07 -6.4532924e-07 4.1036253e-07 -6.144194e-08 -7.593103e-07 -7.1690033e-07
5.2716143e-07 -5.232341e-08 -6.640529e-08 -2.6733858e-07 -6.2442405e-07 -9.90274e-09 5.553181e-08 -6.4549276e-08
4.445166e-08 -1.6236853e-06 5.7129046e-07 8.9837116e-09 -5.01374e-08 -1.2094545e-08 4.872804e-08 2.3319748e-08
-2.4278672e-09 4.875872e-09 7.628431e-11 5.6399414e-15 -5.579184e-10 6.342089e-10 3.4708247e-11 9.79382e-10
6.848544e-11 -1.0062826e-09 1.651402e-11 -9.1131613e-10 8.50473e-10 1.2062068e-10 -6.6660683e-12 1.3902907e-10
-5.248829e-10 4.688099e-10 -1.723439e-12 1.7160211e-12 -1.9890482e-11 -2.0390835e-10 -4.914209e-10 6.469228e-10
-8.634281e-12 -1.3335101e-10 2.7823335e-10 -1.1442991e-11 2.0327556e-11 -5.3758246e-13 -6.500807e-12 4.0733356e-13
0.0 2.747716e-12 -2.3403827e-12 -3.695169e-15 -4.9524e-13 -1.9416404e-12 2.8479092e-12 1.2343814e-14
-1.7180106e-12 2.675167e-12 -5.621657e-13 1.7985976e-16 -3.3326478e-17 -1.4988349e-12 1.9060222e-12 -3.9849933e-16
6.708973e-16 -2.0178118e-15 -3.1419436e-13 -1.0947402e-12 -2.6760942e-13 -2.419681e-14 -2.794348e-13 2.4300848e-12
-4.078599e-14 4.0069733e-16 -4.4457694e-16 -0.0138623435 -0.00028666639 7.3918545e-06 -0.00017568565 -0.00010358845
-5.8008816e-05 -8.691393e-05 -0.00011132215 -2.3029294e-05 -7.7285826e-05 -0.00017862556 -5.0762057e-05 2.7399201e-05
-7.021288e-05 -4.4079388e-07 -0.00010977974 -9.8840945e-05 1.8819095e-05 5.8172544e-05 -0.00014407112 -7.2292314e-05
-0.00026470504 0.0001045496 -1.1193559e-06 -1.009949e-06 1.1642112e-06 -1.1773806e-07 1.175476e-05 9.5809455e-06
9.734184e-06 1.2695673e-06 3.4978125e-08 -6.245169e-06 7.549752e-06 -2.1280066e-06 -8.80231e-06 8.94066e-06
3.2942226e-06 -2.3215289e-06 -1.59035e-05 6.791932e-06 1.2737659e-05 -1.6344437e-06 -9.09661e-07 -7.023706e-06
1.0872398e-05 5.2805333e-08 1.1498439e-06 -2.607527e-06 -3.7155237e-06 -2.2698778e-05 2.9836967e-05 -2.6223339e-07

exp_avg_sq f4 [40, 29]
00000000: 674f e02e 7489 8f29 b43e 141f da1a f128
00000010: 19d7 4e28 c548 6323 15d2 d526 a0fd 7d28
00000020: 4f83 eb28 7358 5e25 5dcb 9426 9833 cd28
00000030: c2cf b628 22eb fe21 f860 6b24 5318 9926
00000040: 82ca 8a29 2b9d db1f 998e 1a23 0d4a dc25
00000050: 7d4c b125 5526 6527 dc4c 2029 bbea 3f27
00000060: 5d98 f727 85e4 5b28 b88d c924 8f67 2823
00000070: d1cf 5f22 4648 7a37 0950 ae31 412f 812c
00000080: 0fd1 bb30 ba7d e830 2c82 a42f b8ad 8630
00000090: 840f b230 cec9 cc2f 2dfc 3d30 c417 2b30
000000a0: c6af 5130 c0fa b22f 6006 c22e 5a56 762f
000000b0: 2adc 9730 cf36 cd30 7ea3 3a2f 38e8 9f2f
000000c0: 27e8 3430 b99c 322f 7931 4d30 f850 142f
000000d0: 45a1 412e 079e 052f 96a3 0630 cece cf30
000000e0: a4c0 6a2e 00ea e22e 0caa 072c 03cb c326
000000f0: e233 d51a 0ad8 1326 3e17 f825 9fa1 a121
00000100: 6ad7 1c24 6f63 9425 b42a 8126 ff3b 9021
00000110: b5b3 0525 8a75 1326 eaec 5926 54c8 a81e
00000120: 8074 4f21 859c 9e23 16f8 c926 ab4d c11d
00000130: b679 8f1f ba0f a022 c097 f722 4969 4b25
00000140: 33c0 3226 5706 d324 f9bc 5026 5607 ab25
00000150: af8f 9022 7d5e a421 3fb8 5e1e 25dd 3934
00000160: aab7 b52e d44f bc27 0897 222d 5a95 692e
00000170: 1e72 b52a 6b63 b72c 56f1 252e c6d0 712d
00000180: 1257 132b 6a77 702c c483 8c2d 06a0 102e
00000190: d1da 8329 895d 072a 2ba3 032d 766a 742e
000001a0: 788e a129 0923 092a 4b9f c02a 0d5c 0f2b
000001b0: 4924 ee2c 94ae 8c2d dcd7 282c 5240 972c
000001c0: 50f4 412c 1701 1d2e dae8 6128 bc3b 1429
000001d0: 4b17 d034 9693 6e2f 797e b826 cb9c d42e
000001e0: 28a0 082e af03 962b bbb9 1e2e 212d 402e
000001f0: 5e95 522e 2be6 992c 1e54 fb2d 14e9 4b2e
00000200: c6e3 2e2e 159a a129 0a28 ed2b 66d9 002e
00000210: 8dd4 0e2f ff47 7929 0686 602a 951b 2f2d
00000220: bd00 292d 1fd6 bf2d 60a0 0d2e 6b3e cd2c
00000230: 0f9e a12d 588c 922d 5bb7 da2d 1190 892b
00000240: d3ae 4d28 6cde 202b 7344 de25 ad50 3e1a
00000250: 3515 2725 c3f6 dd24 696f 6c20 f25b 0424
00000260: c70a c724 77e5 5425 f140 1721 7343 ad24
00000270: dc0a 8a24 9e0f 3925 ab6a 611d e92d 1521
00000280: 29d5 c423 6030 ab25 e8fc 321d b143 351e
00000290: e1b9 b622 5a8f ef22 9b9c b524 a670 6723
000002a0: 7c9c 4f24 fd69 3125 46b5 c023 ebfc 2f24
000002b0: e81e 4721 4fa4 891d 9237 9e21 bf73 961c
000002c0: 0000 0000 086a 641c 42e0 371b d80d ee13
000002d0: ef73 9f1a 7ea9 fb1a 134e 7b1c 2d99 5a13
000002e0: 22da 371a 13a5 5f1c 8d76 5b1b dc41 a20c
000002f0: 3fb6 0c13 bbcd 3918 6a17 941c 98b8 8d0f
00000300: db38 2a0f 066e 9914 be7a f416 61d9 c419
00000310: d9ea eb1a 512e b318 8280 901a 1871 641c
00000320: 9396 7b18 a6ca 2612 a4f0 6a0f 6137 a03c
00000330: cac6 be36 3558 f732 c44d 0736 8520 e035
00000340: 3125 e835 95c0 6b35 c118 8c35 637a 7734
00000350: 587d ce35 0aa0 5535 53ee 8535 c94a ec33
00000360: d3b6 2035 3dea 3d34 76eb 8335 8014 bd35
00000370: 9e90 c934 d354 8e34 c878 9d35 5dac 9a34
00000380: 0cf6 e534 52d8 d234 3a23 0032 3232 f931
00000390: 0043 b134 6046 1535 8298 1534 6572 9334
000003a0: efd4 9f39 24de 3334 ef72 a92b ac72 1f33
000003b0: 0185 6633 a643 862f be18 3a31 655e 2b33
000003c0: 041c 8333 c88f ef2f b6fc 9031 cb70 d332
000003d0: a01c 9d33 4336 922e aa12 352f 49c8 1031
000003e0: 0fd4 1e34 a887 d02d 6324 922e 717d ee30
000003f0: 6063 1f30 d79a d631 ecf9 2433 f034 3e32
1.02004453e-10 6.37432e-14 3.1392086e-20 2.676802e-14 1.1481939e-14 1.2321104e-17 1.4836787e-15 1.4099317e-14
2.6147187e-14 1.9285398e-16 1.0324685e-15 2.2781947e-14 2.029616e-14 1.7273949e-18 5.1039638e-17 1.0623101e-15
6.1635606e-14 9.301012e-20 8.378553e-18 3.8214095e-16 3.0756436e-16 3.1800914e-15 3.55938e-14 2.6633822e-15
6.8721464e-15 1.2206494e-14 8.7409936e-17 9.129228e-18 3.0332153e-18 1.4917989e-05 5.0731654e-09 3.6716468e-12
1.3665459e-09 1.6915955e-09 2.992392e-10 9.799157e-10 1.2955614e-09 3.7250775e-10 6.9116163e-10 6.224321e-10
7.6283546e-10 3.255618e-10 8.823231e-11 2.2404248e-10 1.104927e-09 1.4931291e-09 1.6974686e-10 2.9086933e-10
6.5813527e-10 1.6244685e-10 7.464887e-10 1.3489287e-10 4.4026355e-11 1.2152422e-10 4.8981386e-10 1.512001e-09
5.337654e-11 1.0318857e-10 1.9279049e-12 1.358587e-15 8.8178556e-23 5.129366e-16 4.3036892e-16 1.0952565e-18
3.400957e-17 2.5741286e-16 8.962748e-16 9.7737e-19 1.1596798e-16 5.1160165e-16 7.5608077e-16 1.7870546e-20
7.0288514e-19 1.7196683e-17 1.4014421e-15 5.116698e-21 6.076421e-20 4.338474e-18 6.7110156e-18 1.7643115e-16
6.2016634e-16 9.1517403e-17 7.24206e-16 2.9668742e-16 3.918341e-18 1.1138083e-18 1.1790683e-20 1.730992e-07
8.263552e-11 5.226703e-15 9.2421695e-12 5.3110717e-11 3.2231243e-13 5.2122104e-12 3.7731006e-11 1.3745621e-11
5.2345725e-13 3.417234e-12 1.5974673e-11 3.288394e-11 5.855527e-14 1.202286e-13 7.4827184e-12 5.5573733e-11
7.174551e-14 1.21802e-13 3.4216583e-13 5.093155e-13 6.7683953e-12 1.5993686e-11 2.3994062e-12 4.298819e-12
2.756257e-12 3.5698635e-11 1.2540501e-14 3.2914413e-14 3.8759967e-07 2.1698407e-10 1.2801845e-15 9.668496e-11
3.1065067e-11 1.0659163e-12 3.6090003e-11 4.3695828e-11 4.7881137e-11 4.3740753e-12 2.8572752e-11 4.636387e-11
3.9765323e-11 7.176565e-14 1.6850976e-12 2.929692e-11 1.2990338e-10 5.5351553e-14 1.9941695e-13 9.953723e-12
9.606702e-12 2.1809275e-11 3.220213e-11 5.8333802e-12 1.8373773e-11 1.6660603e-11 2.4865157e-11 9.774422e-13
1.1417695e-14 5.715209e-13 3.8557244e-16 3.935625e-23 1.4492126e-16 9.62615e-17 2.002684e-19 2.8700818e-17
8.632075e-17 1.8465815e-16 5.124674e-19 7.5141054e-17 5.9866356e-17 1.6051483e-16 2.9833648e-21 5.0543925e-19
2.134064e-17 2.9696552e-16 2.3688853e-21 9.5960585e-21 4.9528006e-18 6.493286e-18 7.876154e-17 1.2546389e-17
4.5018517e-17 1.5388213e-16 2.0893454e-17 3.8161306e-17 6.7464727e-19 3.643349e-21 1.0721206e-18 9.956087e-22
0.0 7.5575914e-22 1.5209867e-22 6.0093298e-27 6.594816e-23 1.04084996e-22 8.314984e-22 2.759099e-27
3.801972e-23 7.3997864e-22 1.8153561e-22 2.499969e-31 1.7760339e-27 2.4014557e-24 9.799871e-22 1.3974776e-29
8.392597e-30 1.5492449e-26 3.9497787e-25 2.0353724e-23 9.757314e-23 4.6317183e-24 5.976462e-23 7.558504e-22
3.251701e-24 5.2630148e-28 1.15834364e-29 0.019557657 5.6855833e-06 2.8794696e-08 2.0161833e-06 1.6698765e-06
1.7296171e-06 8.7824566e-07 1.0438017e-06 2.3048192e-07 1.5384676e-06 7.958157e-07 9.978634e-07 1.100321e-07
5.987069e-07 1.7687212e-07 9.828789e-07 1.4087564e-06 3.754439e-07 2.651128e-07 1.1732564e-06 2.8810146e-07
4.2833597e-07 3.9272942e-07 7.45859e-09 7.2525603e-09 3.3017568e-07 5.5609235e-07 1.3932188e-07 2.7464117e-07
0.0003048549 1.6751488e-07 1.2040073e-12 3.7124366e-08 5.3672014e-08 2.4422525e-10 2.7080627e-09 3.989989e-08
6.105259e-08 4.357601e-10 4.2196815e-09 2.4614925e-08 7.316089e-08 6.64895e-11 1.6468485e-10 2.1068607e-09
1.4792043e-07 2.3707106e-11 6.645775e-11 1.7352432e-09 5.7985083e-10 6.245823e-09 3.8411528e-08 1.1071492e-08
