timeSerise/lightning_logs/version_2/checkpoints/epoch=99-step=34200.ckpt (torch, 96027 bytes, 27 tensors)

lstm.weight_ih_l0 f4 [40, 17]
00000000: ad29 813d 5f41 d93d e42a 233e 08d1 a43e
00000010: b436 b93e 4e1a 353d 5d99 d8be 8c76 86bd
00000020: 169d 14be a899 72be 4ad3 233e c724 953b
00000030: ec54 d0ba f184 8ebe 483c ddbd ac15 cdbd
00000040: a63e 973e dd70 47bd aec4 1dbe 9902 d3bd
00000050: 859f eb3d 593b ccbc e9df e33c b019 833e
00000060: 2bb5 b33c 4b15 80be eb2a 563e 633d 47be
00000070: e158 573e d0ff 79bd 6fcf 233e 5f82 273e
00000080: 9220 6ebe e596 aebd 1788 80bc de9f 16be
00000090: d122 9e3c d13b f6bd e751 d73d 0529 413e
000000a0: 3862 1a3e 7a48 8e3e 09ed 22bd 2030 ecbc
000000b0: 5a3a c4be bd0c e23d 4199 1fbd 0ec1 69bd
000000c0: 9898 85be d294 8b3e 58fb 953d d54f 393e
000000d0: caeb a73e 6603 24be d756 b53d 2525 cd3d
000000e0: c7e1 b2bd 493c 16be 4ece 923e 7021 e63d
000000f0: 554b e53d 18f0 5bbe 50be 0b3e 15fd 843e
00000100: a7d4 04be 6637 a63e 8e99 f83e 0b05 b2bd
00000110: 775e 953e a402 a33e 8bfc 803e f8ea 97bd
00000120: 89f4 713d bd67 453e c69d cdbd 4325 a9be
00000130: 3bd9 17be d09c 6c3e c3a4 90bd e545 913d
00000140: 3285 ff3c eb57 9ebe c57f 09be 6189 d13c
00000150: ca76 ba3e 1d3f 96bd 4d8b 7d3c 9ffe 1f3c
00000160: a175 aabd abae 453d 7f11 853e 3135 89be
00000170: b157 233e d20b 5cbe b83f 263d b6e4 073e
00000180: 473d 7ebc db3a 6cbe 495d 513e e8f2 cabc
00000190: c6bb 28be e1fc 293e e1f7 98bd 3f26 cc3e
000001a0: dd2a e9be a482 dc3d 3b12 96bd 26b9 9ebd
000001b0: c3df 5abe d518 c43d 7a01 913e 7101 5c3e
000001c0: ad61 01bd 5202 223e 3149 fb3d 780b 37be
000001d0: 3e6f 763e 3fd6 d5bc 745f 23bc 0a31 553e
000001e0: 4e1b a13e 6024 bd3d 423e aa3d 1e40 7c3e
000001f0: 5fa2 1bbe baad 803e 3e3a 0dbe e367 61bd
00000200: 0198 683d a785 83be 5130 e63c 9e39 d43e
00000210: bb51 a13d 5c09 183d 149e 26be 2e93 a53e
00000220: 4f37 563e c556 09be 7910 973e a4ca 103e
00000230: 0ceb ee3c b914 e13e 3ec6 a43d 16ec 2b3e
00000240: 9c4c f13d a101 ca3e 029f ec3e 4f6d 0bbe
00000250: d854 4e3e f892 a0be 42f5 a5bd 1349 e2bc
00000260: aaed cb3e 2d84 093e 2348 913e 5ef8 7f3d
00000270: a526 60be 3d6e 96bc 0fc8 d53e 4331 bd3e
00000280: 488e e1bc 20f2 983e 0519 563e 51c7 3c3e
00000290: 0cd5 3f3e fcd8 5c3e d27e 6fbd 2ed1 493e
000002a0: 76fc 3f3e ba92 b33e ca5b aa3e 30d1 523e
000002b0: e702 ac3e 7767 40be e070 cfbd 912c 913e
000002c0: ce3e 34be f5a1 abbd a5fe 5abd 2e71 53bd
000002d0: 046b 933d 4650 703c 3577 5fbe 80f9 c0bc
000002e0: a9bb 4c3d b123 0dbe 502d 3dbe 2dde f2be
000002f0: 7a52 acbd 40ca a0be 00a6 95bd 9631 8a3e
00000300: 674d 87be 254d a73a 1632 cb3c 7f4f 33be
00000310: 9609 3cbe 836d a5be a892 4a3e 43ba 843e
00000320: 72da 0fbe 13fc 9cbc df16 7e3d e9cb a83e
00000330: d93f 30be a819 07be 567a 953e 8ebf eb3d
00000340: 129a 303d 14df 763e 8805 5c3d b063 323d
00000350: 2fb6 513e 12fc 8ebe bbda a0be 373d 9a3e
00000360: d77a f73e b534 a23e d590 523e c931 673e
00000370: 4426 933e 2f67 a4be ee15 18be ee35 b83e
00000380: 5b15 db3d 4e91 03bd e2cc 52bd 3f2a ba3e
00000390: f40c 90bd 8194 b03d 4f33 ad3c 13cb 4abe
000003a0: b577 4fbe b253 1ebe 06ef 6cbe 8638 543d
000003b0: f483 ab3e 8683 7abe 4411 ab3e 4724 9a3e
000003c0: 081c e13d 6252 833e f632 5abd 00db 28be
000003d0: c32d 1bbe e0e2 eabd efe0 203e 225e b63e
000003e0: ffe5 c13c 1870 08bd 24d3 a1be 7e0f 913d
000003f0: 2efc 833e 3ede 99bd 0050 15be 9699 7cbe
0.06306777 0.10608172 0.1593433 0.32190728 0.36174548 0.04421454 -0.42304507 -0.0656558
-0.14513049 -0.23691428 0.15998569 0.0045515033 -0.0015894449 -0.278358 -0.10802513 -0.10013899
0.29539984 -0.04869162 -0.15407059 -0.1030323 0.11505035 -0.024930643 0.02781673 0.25605536
0.021936974 -0.25016245 0.2091481 -0.19457011 0.21029998 -0.061034977 0.15997098 0.16358326
-0.23254612 -0.085248746 -0.015689893 -0.14709422 0.019303711 -0.12023128 0.105136685 0.18863304
0.1507653 0.2778967 -0.039776836 -0.028831542 -0.3832577 0.11037586 -0.038964514 -0.057068877
-0.26092982 0.27261978 0.07323331 0.1809686 0.3279708 -0.16016921 0.08854454 0.100168504
-0.0873447 -0.14671434 0.28673023 0.112368464 0.11196009 -0.21478307 0.13646817 0.25974336
-0.12971745 0.3246414 0.48554653 -0.08692368 0.29173633 0.31837952 0.25192675 -0.074178636
0.059071098 0.19277854 -0.100398585 -0.3303624 -0.1482896 0.23106694 -0.07062676 0.070934094
0.031191442 -0.3092645 -0.13427646 0.025578203 0.36418754 -0.07336257 0.015475106 0.009765296
-0.08323217 0.04826228 0.2598991 -0.26798394 0.1595142 -0.21488884 0.04058811 0.1327084
-0.015517539 -0.23069327 0.20445742 -0.02477403 -0.1647788 0.16600372 -0.07469154 0.3987293
-0.45540515 0.10767105 -0.07327696 -0.07750158 -0.21374421 0.09575049 0.2832144 0.21484925
-0.03158729 0.15821198 0.122698195 -0.17875469 0.24065873 -0.026103137 -0.009971488 0.20819488
0.31466144 0.092354536 0.08312656 0.24633834 -0.15198658 0.25132543 -0.13791749 -0.055030715
0.056785587 -0.25687906 0.028099211 0.41450208 0.07876917 0.0371183 -0.1627124 0.32338852
0.20919536 -0.13412006 0.29504755 0.14139801 0.029164813 0.43961123 0.08045624 0.16789278
0.1178219 0.39454368 0.46215063 -0.13615917 0.20149553 -0.31362128 -0.0810342 -0.027622735
0.3982976 0.13429327 0.28375348 0.06249272 -0.21889742 -0.018363113 0.41754195 0.36951646
-0.027533665 0.29872227 0.20907982 0.18435408 0.18733615 0.21567148 -0.058470555 0.19708702
0.1874865 0.3507288 0.33273154 0.20587611 0.33595964 -0.18789469 -0.10128951 0.28354314
-0.17602083 -0.083805 -0.053465504 -0.05162161 0.07198146 0.014667576 -0.21822818 -0.02355647
0.049983654 -0.13783146 -0.18474317 -0.47435132 -0.08414169 -0.31404305 -0.073070526 0.26990956
-0.2642624 0.001276408 0.024804156 -0.17510794 -0.18363032 -0.32310113 0.19782507 0.25923356
-0.14048174 -0.019163167 0.06203353 0.3296807 -0.17211856 -0.13193381 0.29194897 0.115111455
0.043115683 0.24108535 0.053716213 0.0435521 0.20479654 -0.2792669 -0.31416878 0.30124828
0.48335907 0.31680837 0.20563062 0.22577585 0.28740132 -0.32109973 -0.14852116 0.35978645
0.106974326 -0.032120995 -0.051464923 0.36360356 -0.070337206 0.08622075 0.02114263 -0.19804029
-0.20260508 -0.15461615 -0.23138055 0.051811717 0.3349911 -0.24464235 0.3341161 0.30105802
0.10991675 0.2564879 -0.053271256 -0.16489792 -0.15154175 -0.11469054 0.15710805 0.35618693
0.023669241 -0.033310026 -0.316064 0.07083033 0.25778335 -0.075130925 -0.14581299 -0.24667963

lstm.weight_hh_l0 f4 [40, 10]
00000000: d88d 923e 9e14 d3bd 16a8 c43e 343c 583d
00000010: 5221 273e dedb 963e 9f38 ddbe 2c13 b03e
00000020: 4b02 153d 2e52 233e 091c 3b3e e8da 4b3d
00000030: a733 4dbe 5717 463d 415f a2be 4f9a 53bd
00000040: 2e17 8f3d cde4 cf3b 8135 a53c 6b41 b3be
00000050: 52ef a5bd a494 00ba 6626 0cba 1cbb 6d3e
00000060: d22b 84be 833c 60be 0b41 ae3d 4b14 b43e
00000070: e19c 3ebe 9559 8bbe 89b6 e4bd 5d36 a83e
00000080: dc55 78bd 294a b1bd d50b d03c 8152 a9bd
00000090: 6cae 4ebe 967c 543e 803b 313e 2660 913e
000000a0: 7aba 4f3d 4fe1 adbc 1c9b 9bbd d834 80be
000000b0: 2e00 b33e e1cd 203e a0cb 1d3e 222c c7bd
000000c0: 5155 c2be bcf4 03be 294b 9a3d dc35 abbc
000000d0: 85dd 973e af23 27be 1d05 0a3e e54f f53d
000000e0: b8cc 233e 7f15 2ebe 331d 17bd 5462 58be
000000f0: d095 74be dbab 823e bce0 ac3e 53b4 e3bd
00000100: ee55 a6bd 5a76 413d 0cdb 2e3e a5f6 fcbd
00000110: 3b72 d93e 6426 eabd d20a 28be 95d6 55be
00000120: 4f66 01bc 4d2d 77bd 7c78 2dbc fef8 abbc
00000130: 437a d53d a2c1 4d3e cf9f 3e3e 6c77 83be
00000140: 11f8 a4bd bf01 383e 4151 6f3e 76eb d1bc
00000150: 7f5c 8d3e 1121 cd3e 36b6 8d3e 19ef ae3d
00000160: 1af2 d2be ea49 adbd 3a11 b7be 30fd d0bd
00000170: a2e3 123d 3a4c 9bbe 5951 a73e 8723 db3d
00000180: 717f 70be 70fa a23e 4bda 7e3e 86ae 25be
00000190: d806 5c3c 43b8 92be 98af c5bd 4aff 893e
000001a0: bb7b aabd 7cf9 a93e 40f5 b2be d669 08be
000001b0: 3f41 84be e2d7 88be d957 6b3e 57db 6f3e
000001c0: 7b3c 6dbe 03af 323e af41 96be 5ba7 53be
000001d0: 1604 d43d f233 8cbe 0741 93bd bfed 843d
000001e0: e1a6 3ebc 2470 bb3e ba9b 6f3e aa35 86bd
000001f0: 0bab 64bd c643 32be 3a87 76be 8878 a5bc
00000200: e2c7 a6be ccf2 80be ee22 1dbe f128 203d
00000210: c657 a53e 703c bcbd 2e8b d53c 0c40 4ebe
00000220: 8bf8 9b3e a37a 903e c8f2 07bd 1733 35be
00000230: d29c 45be 8202 4fbe 4ca2 353e 7f74 253e
00000240: b90b dabd 2929 213d e0ce d73d b43c b73e
00000250: 7c7c 0cbe c392 623d f183 873e ba4f 17bd
00000260: 7492 b1bd ffc3 7cbe 963c 89be a65c bf3a
00000270: db30 abbb f9cd 413d ba6a 33bc c354 81be
00000280: 3b1b 913e 8731 6a3e 4f7f 3d3e b2bb 80be
00000290: 54e4 0bbe 2aa0 3fbd 1cf2 92be ae11 a63e
000002a0: b8ca 31be 12d8 9f3d 7990 98bd ff53 e3bc
000002b0: 46e0 c23d 8964 903e 19d9 cabe 6a00 683d
000002c0: 7368 233e 61ec 9d3e 7764 103e 60f6 953e
000002d0: 041e 853e dc71 1d3e 9b85 303d 04d6 e7bd
000002e0: 6690 523d 0820 a83d f1e4 b5bd 930d 52bd
000002f0: 3a3f 523e 90cf 103e d768 923e 674d 12be
00000300: 38c3 7c3b e1d5 b83d 67cb 84be 3b62 913c
00000310: 9534 8cbe 17a8 cc3e b79e a63e 0e54 cabc
00000320: 1101 403e e621 89be 4a6c 783d a38f 17be
00000330: 862b babe e6c0 403e cf6b 4fbe 7963 8a3d
00000340: ca0b 82be 1b60 9d3e 039f 7e3e ac0c 253d
00000350: 3069 2e3d 663a 883e 6f8b d13d 4bb0 d53d
00000360: 0f40 7cbe 27e4 353e 0784 b33e 79f1 64be
00000370: f00a 9e3d 2a63 cc3e dfac a23e c53e 39be
00000380: 075d 323e 55d0 9e3e 78fc a83d 96f9 6f3e
00000390: eab9 41be ed9c 59be 3b36 413c 2a52 17be
000003a0: 8c26 583d d7f5 8c3b fae8 d33b c177 48be
000003b0: 5afb bfbd 68ac b03c 2155 543e 422c 973e
000003c0: e799 c3bd 551e c0bc 298b 7a3e f463 953e
000003d0: 5648 40be 5ca8 97be 6d37 c9bd 2f9e 72be
000003e0: 984c c13e 5649 a03e a33c dfbd e1d6 863e
000003f0: 4d08 99be 147c efbd 5155 6c3b accd 943e
0.28623843 -0.10306667 0.3840949 0.05279179 0.16321304 0.2946462 -0.4320726 0.34389627
0.03637914 0.15949318 0.18272413 0.049769312 -0.20039235 0.048362102 -0.31713298 -0.051660832
0.06986843 0.006344414 0.020167114 -0.35010847 -0.08102287 -0.00049049617 -0.0005346298 0.23215908
-0.25814682 -0.21898083 0.085085 0.35171732 -0.18614532 -0.27216783 -0.11167628 0.32853976
-0.060628757 -0.08656723 0.025396267 -0.082676895 -0.20183724 0.20750651 0.17307854 0.28393668
0.050714947 -0.0212256 -0.07597944 -0.25040317 0.34961075 0.15703537 0.15409708 -0.097252145
-0.37955716 -0.12886328 0.07533867 -0.020899706 0.29661193 -0.16322206 0.13478513 0.11978129
0.15996063 -0.17000388 -0.03689308 -0.21131259 -0.23885274 0.2552174 0.3376521 -0.111183785
-0.081218585 0.04723201 0.17075747 -0.12351731 0.42469963 -0.11433104 -0.16410378 -0.20882638
-0.007897927 -0.060345937 -0.010587808 -0.020992752 0.1042371 0.20093396 0.1861565 -0.2567705
-0.080551274 0.17969416 0.2337084 -0.025624972 0.2760963 0.4006429 0.27678078 0.08541698
-0.41200334 -0.084613636 -0.3575533 -0.10204542 0.03586162 -0.30331594 0.3267925 0.10700136
-0.23486115 0.31831694 0.2488796 -0.16179857 0.013429366 -0.28656206 -0.096526325 0.26952583
-0.08324381 0.33198154 -0.34952736 -0.13321623 -0.2583103 -0.26727206 0.2298273 0.23423515
-0.23167603 0.17449574 -0.29346988 -0.2066931 0.10352342 -0.2738338 -0.07190137 0.06490659
-0.011636467 0.36608994 0.23399249 -0.06553204 -0.05582718 -0.17408666 -0.24075022 -0.020199075
-0.32574373 -0.2518524 -0.15345356 0.039101545 0.32293528 -0.09191215 0.026067343 -0.2014162
0.3046306 0.28218564 -0.03319052 -0.1769527 -0.19298103 -0.202158 0.17737693 0.16157721
-0.10646767 0.039345894 0.10537505 0.357885 -0.13719362 0.055315744 0.2646785 -0.036941268
-0.08670512 -0.24684142 -0.26804036 0.0014599755 -0.00522433 0.04731557 -0.010950739 -0.2525998
0.28341088 0.22870456 0.18505596 -0.251432 -0.13661319 -0.046783604 -0.2870034 0.32435364
-0.17362487 0.07804884 -0.07449431 -0.027750013 0.09515433 0.28201702 -0.39618757 0.05664102
0.15957813 0.30844405 0.14100824 0.29289532 0.25999463 0.15375465 0.043096166 -0.11320117
0.05140724 0.082092345 -0.08881558 -0.051282477 0.20531932 0.14141679 0.2859561 -0.14287339
0.0038568508 0.09025169 -0.25936434 0.017747035 -0.27383867 0.39971992 0.32542965 -0.024698284
0.18750407 -0.26783675 0.060650147 -0.14800887 -0.3636133 0.18823585 -0.2025597 0.06757254
-0.2539962 0.30737385 0.24865346 0.040295288 0.042580783 0.26607054 0.10231673 0.10434016
-0.24633811 0.17762814 0.35061666 -0.2235774 0.0771693 0.39919406 0.31772515 -0.18090351
0.174183 0.3101832 0.082512796 0.23435053 -0.18918577 -0.21251269 0.011792715 -0.14777437
0.052771136 0.0043017673 0.006466982 -0.19576932 -0.093741134 0.021566585 0.20735599 0.29525954
-0.09550839 -0.023451963 0.24467148 0.2917782 -0.18777594 -0.29620636 -0.09825025 -0.23693155
0.3775375 0.3130595 -0.109002374 0.26335815 -0.29889145 -0.11693588 0.0036061595 0.29063165

lstm.bias_ih_l0 f4 [40]
00000000: 3391 65be 6b8b a63e db08 b03c 08dd 1cbd
00000010: 2ca4 923e 4018 b5bd 2cb8 1c3e 338b 873e
00000020: 54e6 963e 68f1 13be af7f cf3d 6db9 283d
00000030: 5d78 7cbe 7511 ed3d 543d 733e 3f8c 3d3e
00000040: 9352 c33d 8a25 103e 1204 4fbc 9ff1 653e
00000050: 3368 a1be 020b 643e 22f0 ee3d 58e1 093d
00000060: 77e2 703d 47ab 893e fc1e d1bc 4413 313d
00000070: a02b 543e 3d55 2dbe 77ce d6bd 39ff a9bd
00000080: a368 703e 53a9 5dbe a8ce 3b3e 3488 29be
00000090: 02a1 88be e5ed 823e 00f4 49bc a5ee b03e
-0.2241867 0.32528242 0.021488598 -0.03829673 0.28640878 -0.08842516 0.15304631 0.26473388
0.294726 -0.14447558 0.101317756 0.04119246 -0.2465529 0.11575595 0.23753864 0.18510531
0.09537234 0.1407682 -0.012635248 0.22455452 -0.3152481 0.22269824 0.116668954 0.03366217
0.058809724 0.26888487 -0.02552747 0.043231264 0.20719767 -0.16927047 -0.10488599 -0.08300633
0.23477416 -0.21646623 0.18340552 -0.16555864 -0.2668534 0.25572124 -0.012326241 0.3455707

lstm.bias_hh_l0 f4 [40]
00000000: 6516 abbd c730 09be d7a5 19be b287 48bd
00000010: 9406 b13d 1da7 a43e 29bb 2d3d f6ae 4bbe
00000020: 6fe0 733d d484 373e 8d89 3cbe b4fc 16be
00000030: 4fc3 7a3e 12f8 923e f0a1 6e3e 1042 7a3d
00000040: fb53 823e 48a7 333c 913c 28be 6cd5 ad3d
00000050: 4e88 273e 7bbe 133d db17 743e ac71 82bd
00000060: d3c1 77be 1074 08bd f570 7abe 0066 513e
00000070: f0f7 6ebe 9909 823d cb19 143d 4d5b d9bd
00000080: 738a 1fbc f8ab c63d cddf 943e 5c43 1e3e
00000090: 18d0 533d 59c2 38be a292 0abe d052 253e
-0.08353881 -0.13397513 -0.15004669 -0.048957534 0.08643833 0.32158747 0.042414818 -0.19890961
0.05954021 0.17921764 -0.18411846 -0.14744836 0.24488567 0.28704888 0.23303962 0.06109816
0.25454697 0.010965176 -0.16429354 0.084879726 0.1636059 0.03607033 0.23837225 -0.063693374
-0.24195032 -0.03331381 -0.24457152 0.20449066 -0.23336768 0.06349487 0.03615741 -0.10613117
-0.009737599 0.09700769 0.29076996 0.15455383 0.051712126 -0.18042888 -0.13532498 0.16144872

lstm.weight_ih_l1 f4 [40, 10]
00000000: 0497 b2be 57f3 8fbe e321 09be 07b2 b33e
00000010: 82ef 963a 4272 e0bc 1acd ab3b a829 8cbe
00000020: 2164 3a3e 8ff9 bebe 7e34 9fbe 696b 26be
00000030: 50fa 3bbd 1b87 b4bd f532 023e a459 43bd
00000040: 8ad0 333e 5dbb 9b3e 6385 63be 9a90 303e
00000050: 5a3f 833c a77e 423e cd30 64be 69ae 79be
00000060: a3ff 343e d9d0 733e 73fa 513e f260 753e
00000070: a543 783e 2b31 a9be 720b 34be 25d6 92be
00000080: de2a d93d 9886 21be 0e0a 933e 4429 873e
00000090: 4760 b13e 5cdc 3bbc c533 a03e 6287 4bbd
000000a0: 18f0 b6be 59a4 f43d efe9 443e 3876 4abd
000000b0: d90a 83be 5706 623e ada8 72be e240 443e
000000c0: e102 04be c832 c3be 43c7 85bd b0e3 5fbe
000000d0: e793 46bd 50c8 42be 3d11 aa3e 717c f93e
000000e0: 39c8 5e3e f2e9 f7be 4fa0 97be 361c f2be
000000f0: faee 5dbd 81bc 7d3e 0703 7f3e 1cea e43c
00000100: ef01 a6be 6943 193e f99d 1d3e dcd1 7fbe
00000110: d841 e93d 031d 2f3e e405 2d3e de42 55be
00000120: a0dd 4fbe 97c1 a63c 60e3 7b3e fbde 423e
00000130: 9650 553e bdd4 8c3d 2d91 4a3d cb49 b63d
00000140: aa77 60be 7562 e93e ed88 1d3c 285c cabe
00000150: ada9 6bbe 5337 ce3e e7bb 4fbe c496 b63e
00000160: 335e e83d 936c 19be 6ec7 f3bc 9ef5 ddbc
00000170: cbf0 ebbc b59d 463e ee52 94be ed02 9abe
00000180: 91a1 213c adaf 863c cae0 b6bd e214 b2bd
00000190: 071d 0abe 77f6 a8be d94e 66be 03cf febd
000001a0: ac8f 60be f1de 623e 7519 e7be ebc0 a03e
000001b0: ce8f 12bd 72c1 00be 69ec 8b3e d95f c73b
000001c0: 5d7f 69bd da40 7e3e ad06 6ebd 24ce 0b3e
000001d0: 243a 95be d997 fb3d a649 0cbe 1cbe fc3c
000001e0: 2306 89bd 970a 82be 7518 01be fdee 9c3e
000001f0: bc89 663e b4b3 8b3e 978a 863e 0158 d5bd
00000200: 3a4b 1fbe 3d44 c1be a706 80be 3bac 5fbe
00000210: 768e bdbe 137f 08be 9f09 1cbe 6a04 47be
00000220: 1875 833d f2b2 c2bd 3c28 a73d e18c 96bd
00000230: 2524 233e b524 c23d ecbe fbbd 0c8d 003d
00000240: 7a96 8a3c 97bc fd3d f262 813e 1dab b03e
00000250: 5a85 a4be 9fb2 b6be a129 363e e230 c4be
00000260: a599 d3bd 6cef 7e3e 24e4 593d 5c70 043e
00000270: 8c63 173e 3f4b 9fbe 21fe 9abd 5fc2 8fbe
00000280: 2f1e b83e 8e73 36bc 12d3 863d f148 7e3e
00000290: 62b4 2ebe 6a8a 3fbe 4674 373e e1a7 71bd
000002a0: 0384 a2bd bc27 82be 4fd2 603e ee0e bfbe
000002b0: ff70 aebe b4df cd3e b0a4 ac3d 6693 353e
000002c0: a25c 843e f7ce 133e e8bb 783e 05e8 423d
000002d0: ce2c 9abe 6fff 1c3e 7b76 d7bd 2eb1 3d3e
000002e0: 501d 0fbd 00cf 423e bfa8 5cbd 2939 3c3e
000002f0: b65a da3e 9000 3cbc 3bf8 92be 6a42 88be
00000300: ff87 a3bd a765 4c3d c6f4 87bd 7f64 16be
00000310: 9b1c 073e 35b9 6d3e f650 d4bc b98d 83be
00000320: 7079 c2bd 96d2 94be cfc0 be3d 9b6a 1dbe
00000330: a447 71be cbf7 4e3d 3d0b a53d 3ea1 6cbe
00000340: e913 bcbc 0d08 a53e 60e2 ea3d 0340 773e
00000350: ed48 5b3e 3392 74bd 1d42 a4be ab25 173e
00000360: a2c7 20bd f203 243d 5ad9 773e 317d 76be
00000370: 2542 9d3e 7152 90be ee23 48bd 88c9 45bc
00000380: 3e6e 193e 5090 4d3d 687f 4b3d ebbf 93be
00000390: aff3 063e d97e 6ebd d10b 603c 1a27 203d
000003a0: 903c 9abe bcf1 413e 9a25 f2bd 6824 1d3e
000003b0: 38ce 8bbe 63fd 60be 7340 8e3d 8c51 a53e
000003c0: fd50 873e ad50 c83d 258f 7ebe d951 adbd
000003d0: 3719 b2be 7768 65be 56c3 7d3e 637f 943e
000003e0: 2be5 de3d 3e5f 193e 2171 903d 9745 84bd
000003f0: 6a79 863e 9878 8cbe d605 9b3e a701 603e
-0.3488084 -0.2811534 -0.13391833 0.35096762 0.0011515471 -0.027398232 0.005242956 -0.2737553
0.18202259 -0.37299773 -0.31094736 -0.16251911 -0.045893013 -0.08814832 0.12714751 -0.04769291
0.1756002 0.30416384 -0.22218852 0.17242661 0.01602142 0.18993627 -0.22284241 -0.24382938
0.17675643 0.23810138 0.20505695 0.23962763 0.24244554 -0.33045325 -0.17582491 -0.28679004
0.106038794 -0.15774 0.2871861 0.2639867 0.34643766 -0.011466112 0.31289497 -0.049689658
-0.35730052 0.11945409 0.19229864 -0.04942915 -0.25594214 0.22072731 -0.23697157 0.19165376
-0.12891723 -0.3812468 -0.06532147 -0.218642 -0.048480894 -0.19021726 0.33216277 0.48727754
0.21756066 -0.48420674 -0.29614493 -0.47287148 -0.054182984 0.2477894 0.24903499 0.027943663
-0.3242335 0.14967121 0.15392293 -0.24982399 0.11389512 0.17100911 0.16896778 -0.20826289
-0.20299387 0.020355983 0.24598455 0.19030373 0.20831522 0.06876514 0.049454857 0.08900794
-0.21920648 0.4558293 0.009615165 -0.39523435 -0.23013945 0.40276584 -0.20286523 0.356619
0.11346092 -0.14982824 -0.029758181 -0.027094658 -0.028801342 0.19396098 -0.2896952 -0.30080357
0.009865181 0.01644119 -0.08929594 -0.08695389 -0.13487636 -0.33000538 -0.22491015 -0.12441828
-0.21929806 0.22155358 -0.4513661 0.31397185 -0.035781674 -0.12573794 0.27328804 0.006084424
-0.05700623 0.24829426 -0.058111835 0.13652855 -0.2914592 0.12284822 -0.1369997 0.03085237
-0.066906236 -0.25398704 -0.12606986 0.30651084 0.22513479 0.2728554 0.2627761 -0.10417176
-0.1555604 -0.37747374 -0.25005075 -0.21843044 -0.37022752 -0.13329725 -0.15238045 -0.19435278
0.06418818 -0.09506787 0.08161971 -0.07351089 0.15931757 0.094796576 -0.12292275 0.031384513
0.016917456 0.12389486 0.25270802 0.3450555 -0.3213299 -0.35683152 0.17789318 -0.38318545
-0.1033204 0.2489602 0.053196087 0.12933487 0.14784068 -0.31112096 -0.075680025 -0.2807798
0.35960528 -0.011135949 0.06583227 0.24832512 -0.17060998 -0.18705145 0.17915449 -0.058997992
-0.079353355 -0.2542094 0.21955226 -0.37316078 -0.34070584 0.40209734 0.08429849 0.1773201
0.25851923 0.1443442 0.2429043 0.047584552 -0.30112308 0.15331815 -0.10520645 0.1852462
-0.034940064 0.19024277 -0.053871866 0.1838118 0.42647332 -0.0114747435 -0.2870501 -0.2661317
-0.079849236 0.04990163 -0.06638484 -0.14686774 0.13194506 0.23215182 -0.025917511 -0.25694063
-0.094958186 -0.29066914 0.09314119 -0.15372698 -0.23562485 0.050529283 0.08058784 -0.23108384
-0.022958713 0.32232705 0.11468959 0.24145512 0.21414538 -0.05970974 -0.3208169 0.14760463
-0.039252885 0.040042825 0.24204007 -0.24071194 0.30714527 -0.28187898 -0.04886239 -0.012071975
0.1498346 0.050186455 0.04968205 -0.2885736 0.13178895 -0.05822644 0.013674692 0.03909979
-0.3012433 0.1893987 -0.11823578 0.15345919 -0.2730577 -0.2197166 0.069458865 0.32288778
0.26428977 0.09781013 -0.24859293 -0.08462877 -0.34784862 -0.22403131 0.24781546 0.29003438
0.10883554 0.14977738 0.070528276 -0.06458586 0.26264507 -0.27435756 0.3027789 0.2187563

lstm.weight_hh_l1 f4 [40, 10]
00000000: 6236 f93d 0421 013e 525b 9e3e 101b db3d
00000010: 97d6 aa3d b334 5bbe 3cdd 6bbe e696 e53c
00000020: b5b2 7e3e b809 2c3b 82d8 05be bb5c 98bc
00000030: 51bd 0cbe 7cd5 02bd dbc8 89be fc01 753e
00000040: a4e5 15be f158 e0be f6d7 97bc f768 4dbe
00000050: ec02 013e 8e34 e03d 368a a1be 5a40 3cbe
00000060: f6ba 7fbe 2000 713e 2134 0d3e b68c 003e
00000070: 2a0e d43d f3db 22bc 7dda 5e3e c4e7 79be
00000080: 80a5 943d 15c8 753e 1842 013e 03e0 463d
00000090: 72e9 89bd bced 4c3e f3c7 8e3e b802 bebb
000000a0: 9fab 553c 1b0d 813e 6e96 bd3d 4cac 9bbe
000000b0: d541 61bc f1cd 6d3e 5741 713e fb18 db3d
000000c0: a8d8 023e 7c84 bb3e f28b 223e fd7b e5bd
000000d0: 49e0 fd3e 9381 e4be 9c6a 4cbd c839 cbbd
000000e0: 428e c53e e9dc de3d 7f20 ac3e 30ea 293a
000000f0: 87cc 4dbe c791 5d3e 0340 4b3e 1761 cc3d
00000100: 2a9e 903e 06ff d4bc 5aaa d9bd 51c6 c73d
00000110: 3cf0 db3c 2155 a4bd 11c1 be3d dcce 62bc
00000120: 1cf2 22be d67c 55be 8121 29be c6fd a53b
00000130: ea09 32be be9f e1bd 1a62 a43d 0a0a c43d
00000140: 9a26 9dbe a890 0b3e 9175 76bd 9476 453e
00000150: ce4c c8bd 5ea2 f23e ec4b b2bd f8ab 263c
00000160: 08c9 013e 7eae 68be b38b 8cbe 8fad 0fbe
00000170: a2e4 83be 6c06 7c3e 494b 62bd 6f5b 943d
00000180: 4475 6cbd a20a 8e3e 7689 15be 507b 603e
00000190: 847c c63d 00f8 8cbe 00fd 61be cfc2 67be
000001a0: fc10 9abd 0f8a f7bd e2c0 a93d d88f 3d3e
000001b0: 5838 213a 8367 80be d537 0bbe 3a7a 0f3e
000001c0: 945a c33d c22a 5d3e 84a3 86be f187 a13d
000001d0: f57b 85bd a713 86be 7878 973e 1eef c8bd
000001e0: c9c3 e7bc fc66 36be d200 ffbd c94d c1bd
000001f0: 6e53 c63d acf4 62be ea46 043e cfe2 5d3d
00000200: 442c 573e 0018 913c f08d 243d 69a4 e3bd
00000210: 2bea 8bbe 1466 403b fa46 8d3e d0e2 93be
00000220: 9c21 653d 3cd7 15bd 3635 81be efb5 123e
00000230: 33bd 5fbe d332 80be 02e0 b4be 39cc a63c
00000240: 4836 91bd 1a7a 83be ffdf 4d3e 934b 893e
00000250: d744 52be 66ef 0d3e 5799 723c 8af4 c93d
00000260: 241a 8ebd a698 86be e844 9bbe 0357 323e
00000270: 0cb5 a7be ab9a e4bd ad19 243c bbfc b6bc
00000280: f524 a2be 869e b1be 6c70 f13d d05a 853e
00000290: a156 1e3e 2495 f1bd 5ae8 2abe 8520 953d
000002a0: ea77 b3be 7050 203d 92f6 3e3e 9d07 c03d
000002b0: 2427 a03d 588b df3d 3861 c53e 9a50 36be
000002c0: 2dcc 77be 7fe3 4dbe 6d42 67be 885a 6cbe
000002d0: f515 883d 1c57 dbbd 31b0 63bd 1d20 1bbe
000002e0: 457c c73b bfec e03e 72c2 9a3e 4de9 9e3e
000002f0: 8c53 3b3e 08b9 f2bd 86f5 9abe bf8e 2c3d
00000300: 07ff 4bbe caef acbb 0863 723e 2074 2cbe
00000310: 20f0 373e c0d0 d03d 17c7 833e 7d75 3abd
00000320: e39d b1be 6869 47be e450 ad3d ad20 d5bd
00000330: 9ee3 00bd 4db5 88be f9cb 613e b251 98bc
00000340: 3c54 c83a 193f e23c cf8b 6c3e 8d42 6abc
00000350: 6d04 983e 1f0d 98bc e126 653e feb1 143e
00000360: d3b3 23be b186 303e d134 3c3d 931a 2ebc
00000370: 5048 4d3c af28 febd f2a6 58bd 7a89 9fbd
00000380: 61e2 9f3c 7420 91be d64b c5be 6e3f 9abd
00000390: 2a4d 8f3d ea22 c93d 8a76 67be 41e6 953e
000003a0: 2d98 ecbc 6a59 cebc 90ad cabd d780 75ba
000003b0: d8ce 12bb f036 183e ff02 54bd 987f 7e3e
000003c0: 0e91 2dbe a29d 933e fa5d 7d3e e667 efbd
000003d0: b9b9 98be 00f9 4ebe 36cf 5dbe 8a92 cfbd
000003e0: 53ac 14be 85c6 723e be56 99bd 38e9 253d
000003f0: 2b0b 36bc a299 583e a74c 62bd dba3 0f3e
0.12168576 0.1261025 0.30929047 0.10698521 0.08341711 -0.21406822 -0.23033613 0.028026056
0.24872859 0.002625091 -0.13070872 -0.018598905 -0.13744093 -0.031941876 -0.26911053 0.23926538
-0.14638382 -0.43817857 -0.018535595 -0.20059572 0.12598771 0.10947524 -0.3155076 -0.18383923
-0.24973664 0.23535204 0.13789417 0.12553677 0.10354264 -0.009940135 0.21763034 -0.24404818
0.07258129 0.24002106 0.12622869 0.048553478 -0.06733979 0.20012563 0.27886924 -0.005798664
0.013041406 0.2520531 0.09257208 -0.3040489 -0.013748606 0.23223092 0.23560081 0.10698124
0.1277796 0.36624515 0.15873697 -0.112052895 0.49585178 -0.44630107 -0.049906358 -0.0992313
0.38585097 0.10881979 0.33618543 0.0006481735 -0.20097552 0.21637641 0.19848637 0.09979456
0.2824567 -0.02600051 -0.10628195 0.09754623 0.026847951 -0.080240496 0.09314168 -0.013843264
-0.1591267 -0.20848402 -0.16516687 0.0050656525 -0.17386594 -0.110167965 0.08026524 0.09572227
-0.30693513 0.136294 -0.060170714 0.19283515 -0.09780274 0.473895 -0.08705887 0.0101728365
0.12674344 -0.22722813 -0.27450332 -0.14031051 -0.2576037 0.24611825 -0.05524758 0.07244002
-0.05772902 0.27742487 -0.14603218 0.2192204 0.09691718 -0.2753296 -0.22069168 -0.22632907
-0.07522771 -0.120868795 0.082887426 0.18511903 0.00061500585 -0.25078973 -0.13595517 0.1401147
0.09538761 0.21598342 -0.26296628 0.07887257 -0.065177836 -0.2618687 0.29584098 -0.09811233
-0.0282916 -0.17812723 -0.12451328 -0.094386645 0.09683882 -0.22163647 0.12917677 0.05417138
0.2101298 0.01771164 0.040174425 -0.11115343 -0.27327093 0.0029357718 0.27593213 -0.28883982
0.055940256 -0.036582217 -0.2523591 0.14327215 -0.21849518 -0.25038776 -0.35327154 0.020361053
-0.070904315 -0.25679094 0.20104979 0.2681547 -0.20534073 0.13860855 0.014807067 0.09861095
-0.0693858 -0.26288337 -0.3032601 0.17416005 -0.32755315 -0.11162313 0.010015887 -0.022337308
-0.3166882 -0.34691256 0.11789021 0.26045847 0.15462734 -0.117960244 -0.16690198 0.07281593
-0.35052425 0.03913921 0.18648747 0.09376452 0.078199655 0.109152496 0.38550735 -0.17804185
-0.2419898 -0.20106314 -0.22583933 -0.2308141 0.06644813 -0.10709974 -0.05558795 -0.15148969
0.006087812 0.43930623 0.30226475 0.3103737 0.1829359 -0.11851698 -0.30265445 0.04212832
-0.19921504 -0.0052776085 0.2367059 -0.16841173 0.17962694 0.10196066 0.2573783 -0.0455222
-0.3469077 -0.19473803 0.08462694 -0.10406623 -0.031467073 -0.26700822 0.22050466 -0.018593643
0.0015283893 0.027617978 0.23100208 -0.0142980935 0.29690877 -0.018560944 0.22378112 0.14521024
-0.15986566 0.1723888 0.045948807 -0.010626453 0.012529448 -0.124101035 -0.052893586 -0.077898934
0.019517126 -0.28345072 -0.3853442 -0.075316295 0.0699714 0.098211125 -0.22603813 0.29277232
-0.028881157 -0.02518912 -0.09896386 -0.0009365207 -0.002240112 0.14864707 -0.05176067 0.2485336
-0.16949865 0.28831202 0.2474288 -0.11689739 -0.29829195 -0.20212173 -0.21661076 -0.10135372
-0.14518861 0.23708542 -0.07487248 0.040505618 -0.011111061 0.21152356 -0.055248883 0.1402735

lstm.bias_ih_l1 f4 [40]
00000000: b938 383e 7cf1 b03d 966a 933e 35ef 613d
00000010: b273 993c 1bd1 23be 70b8 d43d a504 093d
00000020: 26c6 8b3d 2f51 cebd e054 b8bc 1036 7bbe
00000030: 0fb5 2a3e 3367 653d 331d f53d b510 70be
00000040: 57ae bfbd 85f1 cfbd 8901 3cbe 3ee6 383d
00000050: 4e68 763e 09c8 5e3e e4c9 ffbd 722b 49bd
00000060: ea89 01be 6b1f 94bd b7b9 ab3d 4a66 103d
00000070: 036a 89be b1fe b8bc 7aff de3d 5e06 dfbc
00000080: b0a7 5cbd ee53 083e 7655 87be 0b29 383e
00000090: bee5 83be ac72 f5bd 839c e4bd 05cf febd
0.17990388 0.086398095 0.28792256 0.055159766 0.018731926 -0.15997736 0.10386741 0.033451695
0.06824903 -0.10074078 -0.022501409 -0.24532342 0.16670631 0.05600662 0.1196846 -0.23443873
-0.093594246 -0.10153488 -0.1835996 0.04514145 0.24063227 0.21755995 -0.124896795 -0.0491137
-0.12650266 -0.07232555 0.08385032 0.0352538 -0.26838693 -0.022582384 0.10888572 -0.027224716
-0.053870857 0.13313267 -0.2643239 0.17984407 -0.25761217 -0.119847625 -0.11162665 -0.124418296

lstm.bias_hh_l1 f4 [40]
00000000: 2b5c adbd 20a0 7c3e f713 2ebe 445a 953e
00000010: 42a3 24be 348b 883e 294a 343e 5d90 073e
00000020: dac7 1fbe 1dfc e3bc 866c 86be 8451 a13d
00000030: 0003 fd3c e34c 6dbd b25e 95bd 7ffa 90be
00000040: b518 293e acb1 b9bc 0536 64be 7bc2 76be
00000050: 764f 98be 4186 92bd 2c52 1d3e 642b 063e
00000060: df5c 8c3e 7dd6 1bbe e9d7 ca3d 7f80 183e
00000070: c13c aa3d 8219 1b3e 5631 513d 93c6 bd3d
00000080: 13b2 933e aeac 213d 247a 923e 618b 7f3e
00000090: 0661 303e 98f6 02bd d1a3 c3bd e265 18be
-0.08464845 0.24670458 -0.16999803 0.2917043 -0.16077903 0.26668704 0.17606415 0.13238664
-0.15603581 -0.027830178 -0.26254672 0.07876876 0.03088522 -0.057934653 -0.07293452 -0.28316113
0.16513331 -0.022667728 -0.22286232 -0.24097626 -0.29748124 -0.07154513 0.15363377 0.1310249
0.27414605 -0.1521854 0.09904463 0.14892767 0.08312369 0.15146449 0.05107244 0.09266391
0.28846797 0.03947132 0.2860881 0.24955513 0.17224512 -0.03197345 -0.0955273 -0.14882615

fc.weight f4 [1, 4800]
00000000: e038 21bc 2152 ce3c f774 50bd 4d68 a73d
00000010: 6754 b13d af3f 12bc c72e 893c 91cf 5d3c
00000020: 89a4 50bc d735 023d a751 863c b5ba d13c
00000030: 20bb 2fbd b7e0 9c3d b3a4 5d3d 6c0b 39ba
00000040: e321 c33c 15e3 1b3b d4f8 d0bc abca 143d
00000050: 41fe 833c d027 f23b 5f9c babc 7fd2 3a3d
00000060: 1c35 663c 81e9 2f3b 71bd d33c eef4 293c
00000070: 67f7 febc ab8d 0d3d 0696 ac3c bacf 263c
00000080: a32c 8cbc 04d4 fd3b b37f 6e3b 0e20 d2bc
00000090: 2b08 133c 754f a63b 260f 8ebc dfa4 333c
000000a0: 6196 b73c 8c23 1e37 71b3 653b 34eb 303a
000000b0: ac39 81bb 0268 edba fdd1 633b e262 35bc
000000c0: ddfe cebc b49b c63c dbdf 603c 4488 863c
000000d0: 4cb3 aa3c 7fcd 2cbc 3ea2 bbbb aefa ff3c
000000e0: 3d99 a93c 6087 edbc 10f8 3dbb ef6e 063a
000000f0: f82b 973c cafd cb3c 7b86 b83c 1c64 4cbc
00000100: 8832 a33b de79 753c 41ed a43c 7c7c abbc
00000110: 8338 30bb b607 4dba 04a8 b33c a3e1 1d3d
00000120: f51e d73b fe05 68bc df1a 803a 12a0 2d3c
00000130: d7ef 663c fdb5 1cbd 74c6 f8bb 7a81 c33c
00000140: 5a6c 8c3c 5686 df3b d285 883a fcaf 93bc
00000150: dc0b 243b 4d43 b8bc 214c e93c ecf2 09bd
00000160: e447 07bc b66c 963c afd4 debb d881 263b
00000170: e5e2 283b 2ac1 8dbb f11c c2bb ef55 f1bb
00000180: f904 313c 5e08 51bb 2012 89bb e0c9 d738
00000190: 8b84 81bc e259 683c 9228 b33c 2f19 3bbd
000001a0: 453d 7bbc 3d81 2a3c 52a7 e73b 7652 8bbc
000001b0: ac90 29bc bc3b af3c 29fc c5bb 43ec 123d
000001c0: a4dd c43c f822 b6bc 67cf 1dbc 08a7 84bb
000001d0: 2c41 443c 8c57 a6bc e721 d1bc a3c5 483b
000001e0: 7185 063d 54b6 063d 561c cf39 a0b0 a43c
000001f0: f9a2 a3bc 075d 18bd cb1e de3a f93f 28bd
00000200: a767 afbb ddb9 733c aa21 1d3d 8fc6 5a3c
00000210: 61bf e2ba ae20 d73b 7963 07bc 14e6 94bc
00000220: 10ce 36bb a8b2 a9bc 01d2 59bc 3a89 563c
00000230: 1f0c 993c e2bc 15bc 75ad 173d 33e3 f9bc
00000240: 57d5 d03a d111 4d3c 793f 843c 2efb 19bd
00000250: fea9 febc 99d5 d93b 7a18 083c e89f 8a3c
00000260: cdb9 2c3d 9507 03bd 04e9 8dbb a32c 573c
00000270: c6b0 b73b 0e97 29bc 6b3c f8bb 4894 973c
00000280: f481 b9bc c2f6 683c 588f 7e3c ff73 0abd
00000290: c855 61bc 6dc3 3b3c b25a 59bb e199 173c
000002a0: 7219 eebb d229 8e3c 095a 633c 2734 bfb9
000002b0: 86c8 ae3c 9921 3bb9 7089 a1bc a0e6 42bc
000002c0: fe5c 523b d012 b63b e637 9bbb b323 163d
000002d0: 35d9 673c 04a2 beba d73b bf3c 861f b13c
000002e0: a518 a1bc c825 32bd 1c80 0e3c 2cd7 57bc
000002f0: 18c4 8e3c 031a 823c 6e77 a13a 5452 a43c
00000300: 1154 f73b e359 bf3c 0be7 31bc f51e f4bb
00000310: 06be b83c f375 5a3b 196f 0bbc 7c1a 8e3c
00000320: 5607 5ebb f139 0c3b 6f4f de3b ae41 2fbc
00000330: f66e 4b39 d71f 393b d1ae c03c 7ce4 1c3c
00000340: 8483 77bc 0c1a a53c da56 b2bc f184 d139
00000350: dff7 5ebb 5790 1ebc 75e9 84bc 6780 49bc
00000360: 3b23 943c de7f ffb9 f072 8bbc bc4d bc3c
00000370: b31c fdbb 124e aebb 6550 09bb 748f c9bb
00000380: d038 1abc 1124 c7bc 24d0 6739 0218 30bc
00000390: bfc4 ddbb 8cc6 773c c7ac f8ba 4503 343b
000003a0: 714d fb3a 6565 ccba 998c ad3b 4417 c13c
000003b0: 00e4 723c 4f48 58bc 6b29 783c 8fc6 e23b
000003c0: 2f12 fbbb 37d1 443c 9f8c 6cbc 9c1f d53b
000003d0: 5a73 e23c b96f 4c3c 4a5f 433c ae78 c43c
000003e0: 677a eb3b 4344 cf3b e94f 98bc 3a03 0f3c
000003f0: e4bb 4dbd 8824 8a3b 7f15 953c ccda 9a3b
-0.00984022 0.025185646 -0.050892796 0.08174191 0.086586766 -0.008926316 0.016745938 0.013538257
-0.012734541 0.031789627 0.016396357 0.025601724 -0.042903066 0.076600485 0.054112148 -0.0007058892
0.02381987 0.0023786474 -0.025509275 0.03632609 0.016112449 0.00739 -0.022779642 0.0456109
0.014050748 0.002684206 0.025847169 0.010373337 -0.03112383 0.034558933 0.02106763 0.010181362
-0.017111128 0.0077462215 0.0036392033 -0.02565005 0.008974115 0.00507539 -0.017341208 0.010964601
0.022410573 9.42581e-06 0.0035049582 0.0006748915 -0.0039436426 -0.0018112662 0.0034762614 -0.011070939
-0.025268013 0.024244167 0.013725246 0.016422398 0.020837449 -0.010547041 -0.005726128 0.031247463
0.020702953 -0.028995216 -0.0028986968 0.0005128225 0.018453583 0.02490129 0.022525063 -0.01247504
0.004980389 0.014982669 0.020132663 -0.020933382 -0.0026889152 -0.00078212784 0.021930702 0.038545262
0.0065649697 -0.014161585 0.0009773633 0.010597246 0.014095268 -0.038259495 -0.007592017 0.02386545
0.01714151 0.006821434 0.0010415858 -0.018028252 0.0025031483 -0.022493029 0.028478684 -0.033678934
-0.008256886 0.018362384 -0.006800256 0.0025406983 0.0025770005 -0.0043260055 -0.0059238602 -0.0073649804
0.010804408 -0.0031895856 -0.004183069 0.00010289601 -0.015810272 0.014181586 0.021869931 -0.045678314
-0.015334432 0.010406789 0.0070695067 -0.017007094 -0.010349434 0.021390788 -0.0060420227 0.035869848
0.024031468 -0.022233471 -0.009631968 -0.004048232 0.011978429 -0.020305417 -0.025528861 0.0030635379
0.032842103 0.032888725 0.0003950323 0.020103753 -0.019975172 -0.037198093 0.0016946433 -0.041076634
-0.0053529325 0.014875856 0.038362183 0.013353004 -0.0017299467 0.006565175 -0.008263462 -0.018176116
-0.002789382 -0.020715073 -0.013294698 0.013094241 0.018682538 -0.009139271 0.037030656 -0.030503845
0.0015932721 0.012516455 0.016143547 -0.03759306 -0.031086918 0.0066477773 0.008306617 0.016921952
0.04216938 -0.031989653 -0.004330756 0.013133201 0.00560579 -0.010350956 -0.0075755618 0.018503323
-0.022644974 0.014218988 0.0155371055 -0.03380203 -0.013753362 0.011460167 -0.003316563 0.009252996
-0.007266217 0.017353926 0.0138764465 -0.00036469215 0.021335851 -0.00017846226 -0.019718856 -0.011895806
0.0032098885 0.005556442 -0.004736888 0.03665514 0.014150907 -0.0014544134 0.023343964 0.021621477
-0.019665072 -0.043493062 0.008697536 -0.01317386 0.01742749 0.015881544 0.0012318918 0.020058788
0.0075478633 0.023358291 -0.010858308 -0.0074499794 0.022551548 0.0033334463 -0.008510374 0.017346613
-0.0033878884 0.002139684 0.0067843716 -0.010696812 0.00019400925 0.0028247738 0.023520859 0.009575959
-0.015107039 0.020154022 -0.02176993 0.00039962635 -0.0034022254 -0.009677968 -0.016224602 -0.01229868
0.018083205 -0.0004873266 -0.01702258 0.022986285 -0.0077243685 -0.0053193653 -0.002095246 -0.006151134
-0.009412959 -0.02430919 0.00022107415 -0.010747911 -0.0067678387 0.015123021 -0.001897239 0.002746777
0.001917286 -0.0015594183 0.0052963016 0.023570664 0.014824867 -0.013200833 0.015146594 0.0069206427
-0.0076620798 0.012012771 -0.014437824 0.0065040123 0.027642895 0.012477809 0.011924574 0.023983326
0.0071862224 0.006325276 -0.018592792 0.008728797 -0.050228015 0.0042157806 0.018198727 0.0047257897

exp_avg f4 [40, 17]
00000000: bc2f 8139 1fa6 be39 fe40 2637 865a 0939
00000010: 46bc 8238 75e2 4b37 7f39 3039 4b42 eb38
00000020: a513 f538 2e5d 7638 7b34 0cb8 71eb 0a36
00000030: 5506 5038 ca9b 8d38 802c e739 d632 57b8
00000040: ccdf 86b7 012a 4938 2043 9f38 8b00 bab8
00000050: 6aed aab8 a091 dc37 c96f 0536 3ec0 2938
00000060: eb54 9ab8 2fd8 2238 2705 5237 7c9d 8fb7
00000070: f513 6a37 590e 1737 c8bb 7536 096c 6a38
00000080: 3eec 8db7 aef0 58b8 2772 dbb9 bd52 32ba
00000090: 2102 42b8 faa0 4fb9 0119 8bb9 1458 6bb7
000000a0: 76a1 82b9 bbbb 45b9 f30e 0538 e85d 0c38
000000b0: 5270 e4b8 affc 4fb9 ad0c 57b9 d252 beb8
000000c0: 88ca 68ba c910 a139 e6c2 18b9 a447 18b8
000000d0: 68fe 2937 9ac8 beb8 858c 4db9 ab8a fb37
000000e0: 4062 38b4 b409 b338 1016 ffb6 7673 3f37
000000f0: 6be9 8db8 049d 03b7 a686 a137 28e1 c1b7
00000100: 0424 b1b6 b24b 57b9 f16f 6839 57d1 cbb8
00000110: 255d 4bb8 d56b 0eb8 e29d 9838 ee3d 6139
00000120: 3362 b7b8 1d5f 6737 b09d d6b8 468e 01b8
00000130: 0845 2d35 d8c0 8637 6fa7 02b8 6b22 5cb8
00000140: 384a dd38 e27d 0238 a43e 6e37 b01b ff37
00000150: 876d c2b6 3230 1539 d358 3d3a 1fe4 9038
00000160: 02b1 a239 58d2 4539 0f9d 4d37 97e3 9239
00000170: c4ce 2d39 c5fa 4639 ac95 d138 f0e8 1438
00000180: 8289 c238 4034 ec38 b94f c738 9338 0139
00000190: 44d2 3739 a432 013a f4a5 0a38 66ac 2739
000001a0: 48d1 8638 ca76 4b39 9076 1238 b5d6 fa36
000001b0: 7961 4db7 3d8a 7938 8477 7638 b580 d638
000001c0: 7c45 87b7 7bf6 6ab8 96ac bd36 521a 9338
000001d0: 4226 4cb8 1c2e a139 66f6 10b8 0c9f 0038
000001e0: ddc3 fd39 d2f9 0db9 87e1 3139 c83f 4f35
000001f0: 8a4e 2d37 5308 3039 60bb c1b8 fc69 0339
00000200: 2c46 be38 93c1 4838 f636 7e38 80f9 8638
00000210: cc8e 5a38 f4df deb8 a630 4fb8 8832 043a
00000220: 4672 5338 f809 5b39 5c2c 8938 f6a3 e338
00000230: 3d13 b338 f1ea 3037 b16b 9238 1847 f838
00000240: c453 8c38 400c 5238 8b7c 3737 ea07 8838
00000250: 63b9 1eb8 d820 8135 9e17 ff38 370b b0b7
00000260: bb15 3639 f1c9 7838 0e9a cf38 4947 1ab8
00000270: 66fc f838 692e 6e38 2745 79b6 1cd3 e5b8
00000280: 6894 1936 6bfc 9e38 9f40 8d38 0a4f fdb6
00000290: 6678 83b8 a8b8 a2b8 ae72 8738 6f0f 1938
000002a0: c8e5 6639 7eee 4bb9 4c15 5a39 5a5b a339
000002b0: b640 a3b6 dda6 f838 c568 8538 c563 2237
000002c0: 41dd f038 3a12 e038 9840 d738 f487 1e38
000002d0: 4214 f0b7 66c5 79b7 71cb 4c38 22f5 6238
000002e0: 389a c039 540f 89b8 ebfc 9d36 1973 6237
000002f0: f66b e337 8bb2 7cb8 bee2 a9b8 08c2 d937
00000300: 9c2a 1536 822a a537 70a5 69b8 9ee3 9137
00000310: 714f d436 5eaf 01b7 9c72 9fb5 1cec b036
00000320: 4a71 2736 a7d0 a437 ec3a dab7 cc8e e0b7
00000330: a005 ceb9 aa0d 4aba d0ae 81b8 5a0b abb9
00000340: 820f 93b9 b207 7fb7 dfe7 5cb9 1ac8 5db9
00000350: 18a8 7eb7 eace d637 f3ae 8eb8 8033 4eb9
00000360: 7621 8fb9 e0ce c4b8 e434 4fba d3bc 3339
00000370: 58f7 5fb9 482c 25b9 81c3 60b9 0b69 2bb9
00000380: 59bf 0bba ac53 e737 fad3 b835 a074 0439
00000390: c992 93b7 0c80 a0b7 17ab 47b9 0262 feb7
000003a0: 46f0 de37 2a32 d9b8 66df 35b8 bae7 fcb9
000003b0: aa94 aa39 7586 67b9 9f42 e737 9416 22b8
000003c0: 20d4 5a39 0b47 253a 08a9 fdb8 d4b4 edb6
000003d0: d845 aeb9 ca16 a4b8 ab4f 0c39 74c0 5839
000003e0: e027 31b8 71b9 51b9 c4c8 ec38 7ba2 1b38
000003f0: 4e8c 6c39 3d18 bf38 2bca 19b9 2885 8039
0.00024640362 0.00036363394 9.909503e-06 0.00013099061 6.233952e-05 1.2152469e-05 0.00016806087 0.00011218021
0.000116861695 5.873775e-05 -3.3427477e-05 2.0700647e-06 4.959696e-05 6.752422e-05 0.00044092909 -5.130734e-05
-1.6078258e-05 4.7961254e-05 7.594214e-05 -8.869272e-05 -8.1504535e-05 2.6293856e-05 1.9883612e-06 4.047178e-05
-7.3591094e-05 3.8825146e-05 1.2518175e-05 -1.7120263e-05 1.39521335e-05 9.003642e-06 3.6617148e-06 5.5890563e-05
-1.6918519e-05 -5.1722564e-05 -0.00041855985 -0.000680249 -4.6255187e-05 -0.00019801027 -0.00026530775 -1.4027599e-05
-0.0002491583 -0.00018857319 3.1723594e-05 3.3466058e-05 -0.000108928085 -0.0001983519 -0.0002050872 -9.0753325e-05
-0.0008880277 0.0003072082 -0.00014568455 -3.6306345e-05 1.01324185e-05 -9.097271e-05 -0.00019602671 2.9986104e-05
-1.7172079e-07 8.5371925e-05 -7.6021606e-06 1.141137e-05 -6.7668814e-05 -7.8447665e-06 1.9255396e-05 -2.311224e-05
-5.279204e-06 -0.00020532197 0.00022166946 -9.718787e-05 -4.848572e-05 -3.3955865e-05 7.277333e-05 0.00021480743
-8.744411e-05 1.3790818e-05 -0.00010233687 -3.08885e-05 6.4547976e-07 1.6063845e-05 -3.115035e-05 -5.248414e-05
0.000105519255 3.1111653e-05 1.420049e-05 3.0411262e-05 -5.794401e-06 0.00014227701 0.00072230137 6.908946e-05
0.0003103093 0.00018865743 1.225552e-05 0.00028016858 0.00016575592 0.0001897617 9.993775e-05 3.550289e-05
9.276254e-05 0.00011263089 9.503909e-05 0.00012323474 0.0001753057 0.00049285055 3.305632e-05 0.00015990585
6.4285996e-05 0.00019403841 3.4919532e-05 7.475576e-06 -1.2241647e-05 5.949497e-05 5.8762278e-05 0.00010228289
-1.612561e-05 -5.60195e-05 5.6527306e-06 7.014409e-05 -4.867302e-05 0.00030742667 -3.456175e-05 3.0665702e-05
0.0004840185 -0.00013539873 0.00016964051 7.7206323e-07 1.032989e-05 0.00016787769 -9.2378585e-05 0.00012532616
9.0729765e-05 4.7863996e-05 6.0609505e-05 6.436091e-05 5.210824e-05 -0.000106274994 -4.9397953e-05 0.000504293
5.0412746e-05 0.00020889181 6.540932e-05 0.000108547436 8.5389685e-05 1.0545119e-05 6.9818816e-05 0.00011838804
6.691323e-05 5.007931e-05 1.0936647e-05 6.4864595e-05 -3.784279e-05 9.620808e-07 0.000121637466 -2.0986057e-05
0.00017364968 5.931588e-05 9.899224e-05 -3.678285e-05 0.000118725744 5.6786845e-05 -3.7144143e-06 -0.00010958893
2.288516e-06 7.5810436e-05 6.7354405e-05 -7.549189e-06 -6.268993e-05 -7.759157e-05 6.4586624e-05 3.6492416e-05
0.0002202011 -0.00019448434 0.00020798034 0.00031157845 -4.865312e-06 0.00011856642 6.361449e-05 9.679182e-06
0.000114853035 0.00010684547 0.000102640304 3.779675e-05 -2.8619663e-05 -1.4887517e-05 4.882686e-05 5.4110897e-05
0.00036735996 -6.535524e-05 4.708408e-06 1.3497448e-05 2.7110782e-05 -6.0247763e-05 -8.100782e-05 2.5958769e-05
2.2227532e-06 1.9689327e-05 -5.5705605e-05 1.739134e-05 6.3273405e-06 -7.72983e-06 -1.1879779e-06 5.2726955e-06
2.4950882e-06 1.9647485e-05 -2.6015063e-05 -2.6769376e-05 -0.00039295573 -0.00077077246 -6.183761e-05 -0.0003262412
-0.0002804958 -1.5200976e-05 -0.00021067214 -0.00021150746 -1.5178717e-05 2.560714e-05 -6.8036745e-05 -0.00019664876
-0.00027300016 -9.384542e-05 -0.00079043047 0.00017141113 -0.0002135908 -0.00015752122 -0.00021435136 -0.00016346962
-0.0005330942 2.7576309e-05 1.3770762e-06 0.00012631947 -1.7592118e-05 -1.9133113e-05 -0.00019041855 -3.0324798e-05
2.6576348e-05 -0.0001035671 -4.336182e-05 -0.00048237835 0.0003253569 -0.00022079966 2.7568369e-05 -3.8644837e-05
0.00020869123 0.0006304837 -0.000120954646 -7.0842016e-06 -0.00033239904 -7.824374e-05 0.00013381119 0.0002067106
-4.2237225e-05 -0.00020000876 0.000112907524 3.71062e-05 0.00022558981 9.1121045e-05 -0.0001466653 0.00024513272

exp_avg_sq f4 [40, 17]
00000000: 001b 1a34 4bee e334 759c a732 b809 2634
00000010: b382 2d33 8200 3b33 13b7 7d32 76b2 7733
00000020: 805d 3f33 00e8 6b33 648a 3233 c071 a631
00000030: e205 0d33 ece4 b032 e1a3 e434 43e7 c031
00000040: 249f 2d32 885a cb32 d759 9833 7052 0733
00000050: 03a2 7f33 1388 7b32 3cb2 d731 066b cc30
00000060: 239c 9c32 1999 9f31 edac 7e31 2b7e 6332
00000070: 80c2 9331 72f4 fb32 6116 d132 a92a 4c33
00000080: f6e1 0432 367e 4e32 363a 3235 58e6 2936
00000090: 96d9 c032 9a3b a135 4147 2734 1337 e033
000000a0: 9a0b 6733 2022 f033 2e80 5333 f7ed b933
000000b0: e2cb 8433 5050 fc33 f389 3a34 0829 fa33
000000c0: ee1a d335 6d5b 9e34 3da6 8a34 d213 1e33
000000d0: 55eb ff33 4728 aa32 bbfc 2834 e67b d332
000000e0: 6c01 f032 3aec 1c32 09f8 0b33 2cec b632
000000f0: 8d18 7133 f583 ec32 3e9f 4b33 3568 1633
00000100: 2aa3 7933 4d16 1b34 3c6b 4833 9a9f 2634
00000110: 63e2 6033 3c8b 9f34 1939 9733 6a7e 8434
00000120: ff76 8633 9f97 fd32 f57a a132 dc22 3133
00000130: 6275 9b33 a3e0 da32 ac91 8c33 ebc3 5e33
00000140: f53f c733 c4f9 4134 c151 2334 f706 6a32
00000150: 442c f532 090a 1534 4ed7 9835 a3a5 3d33
00000160: 0150 3535 3dd6 ef33 1c72 f332 73e6 3033
00000170: 1c09 5033 94c0 1334 057e bd33 6b56 ae32
00000180: 1414 8833 0aff d233 9bdd 2233 d981 8334
00000190: 0f4c 5933 cafb e534 30ca 8b33 c129 b034
000001a0: b27e 8332 182a 5034 f66e d532 1894 de32
000001b0: cc63 0832 f850 6832 6c73 8732 8b9e 9632
000001c0: ee88 7632 6693 4233 816c 7732 5dba d832
000001d0: 0bf7 a033 c404 3d34 2be1 3d33 a6f9 3a34
000001e0: 2b2d 7535 c4ac a433 1b41 0935 7775 c133
000001f0: b755 7a33 1615 4d32 79e7 4833 0ddc d932
00000200: 35db ea32 6935 6d33 fd6b a934 3bbc 9833
00000210: 5642 c832 db93 dd34 322c 2133 12ab 9534
00000220: d12d 0433 78c9 3b34 d036 9b32 2b8b d033
00000230: 9624 af32 4879 5b32 10a7 8d31 8e4c 0e33
00000240: 7d8a c032 a2a5 e932 ffbf 6c32 c8ce 1633
00000250: c36c 9f32 3da2 0933 3611 9533 dff0 a332
00000260: 45d3 1d33 ccbd ab33 4199 8534 43f9 c032
00000270: e1e9 5d34 3085 c832 1afd 1b32 3881 ef31
00000280: aa3f d532 ad18 4032 b766 7232 73f8 2d33
00000290: 1e5a 1733 e3af c533 4731 9932 4539 9b34
000002a0: 484f 6733 d402 0c34 2bae d233 1aab a234
000002b0: ada0 e932 7817 1734 55e8 1633 96c5 0833
000002c0: fcc9 e131 ba1e 7133 b73d 2c33 3a2b 4a33
000002d0: b026 9c33 d35c 5632 0529 e832 c260 8e32
000002e0: 1265 8c34 6956 1b32 bfe3 2332 a70d d831
000002f0: b9b6 f232 44c1 3432 59ac ba32 0f60 0932
00000300: f9fb 5631 5f16 5c30 1fae f831 4b7e a130
00000310: 5a25 6330 1554 3731 6896 4331 d146 a432
00000320: 79f7 0232 7883 a032 41e7 8931 b293 ca31
00000330: fa50 0335 1b41 1736 3c06 0233 3cac 8c35
00000340: 6dda 1334 7661 0b34 2b7e 1f33 2085 0434
00000350: 1585 9433 41fa 3533 cce7 f432 9d57 ec33
00000360: 1551 5234 09e9 cf33 a474 ac35 a365 0234
00000370: 62da 0535 4c12 3a34 435d b634 dbf6 7833
00000380: 5503 0335 014a 9033 b4e3 be33 5526 3033
00000390: 7e4b cd33 37e8 a833 94b7 5834 4764 7533
000003a0: 8fe8 3734 d88f 1d34 ce63 e633 c03b 2b35
000003b0: 595d 0c34 e1d5 f234 e95b 1d34 7694 8e35
000003c0: 6c9a c634 314e 8835 4530 ad34 64e0 b834
000003d0: 15a6 1d34 2d04 8034 8fe3 8534 eed8 4834
000003e0: e837 d434 8745 e334 3230 cf34 9a24 2735
000003f0: 6d19 c834 dc5d ee33 7fad a434 1c3a 6434
1.435219e-07 4.2455426e-07 1.9512507e-08 1.546349e-07 4.039857e-08 4.3539792e-08 1.47681645e-08 5.767148e-08
4.455569e-08 5.4926204e-08 4.156972e-08 4.8441677e-09 3.283447e-08 2.0593198e-08 4.2587547e-07 5.614227e-09
1.010611e-08 2.367348e-08 7.094393e-08 3.1507113e-08 5.9519163e-08 1.4641063e-08 6.2775865e-09 1.4873371e-09
1.8231793e-08 4.6449142e-09 3.7060162e-09 1.3241826e-08 4.300375e-09 2.9331407e-08 2.4340979e-08 4.753625e-08
7.734789e-09 1.2019475e-08 6.6394875e-07 2.531704e-06 2.2450688e-08 1.2012781e-06 1.5579009e-07 1.0440831e-07
5.379443e-08 1.1182078e-07 4.9243845e-08 8.6580194e-08 6.183815e-08 1.1749273e-07 1.7372786e-07 1.1648996e-07
1.5728563e-06 2.9496314e-07 2.5825457e-07 3.6805268e-08 1.19171695e-07 1.980892e-08 1.5738162e-07 2.4619975e-08
2.7940324e-08 9.134107e-09 3.2589046e-08 2.1294987e-08 5.6134514e-08 2.7534023e-08 4.740945e-08 3.5019372e-08
5.8123227e-08 1.4443613e-07 4.6663658e-08 1.5518017e-07 5.235996e-08 2.9717364e-07 7.0418714e-08 2.4678894e-07
6.2615065e-08 2.9522026e-08 1.8798781e-08 4.124273e-08 7.239102e-08 2.5480693e-08 6.5457556e-08 5.186659e-08
9.278293e-08 1.806539e-07 1.52103e-07 1.3622176e-08 2.8541884e-08 1.3880357e-07 1.1387544e-06 4.4155637e-08
6.7544175e-07 1.11682745e-07 2.8340814e-08 4.1187786e-08 4.843706e-08 1.3760501e-07 8.823921e-08 2.0295564e-08
6.336646e-08 9.8252784e-08 3.7920113e-08 2.4495128e-07 5.0593425e-08 4.2837775e-07 6.5094696e-08 3.2812935e-07
1.5308022e-08 1.9386823e-07 2.4846923e-08 2.5911547e-08 7.938933e-09 1.35225875e-08 1.5768556e-08 1.7534395e-08
1.4350219e-08 4.5303203e-08 1.4401963e-08 2.5230458e-08 7.4955175e-08 1.760373e-07 4.420978e-08 1.7413421e-07
9.133534e-07 7.668271e-08 5.113122e-07 9.0086296e-08 5.8285618e-08 1.1937365e-08 4.6776652e-08 2.5362192e-08
2.734087e-08 5.522944e-08 3.1557275e-07 7.1122905e-08 2.331323e-08 4.1272037e-07 3.752593e-08 2.7877883e-07
3.0775315e-08 1.7489026e-07 1.80693e-08 9.711069e-08 2.0389319e-08 1.2775054e-08 4.122633e-09 3.3131577e-08
2.2414719e-08 2.7200091e-08 1.3780663e-08 3.5112663e-08 1.8559495e-08 3.2045353e-08 6.941484e-08 1.9085233e-08
3.674656e-08 7.997332e-08 2.4884687e-07 2.2465093e-08 2.0667314e-07 2.3343631e-08 9.079736e-09 6.970506e-09
2.4825415e-08 1.11814815e-08 1.4109609e-08 4.0505665e-08 3.523939e-08 9.205521e-08 1.7833953e-08 2.891267e-07
5.3855985e-08 1.3039545e-07 9.810568e-08 3.0299344e-07 2.7197837e-08 1.4071509e-07 3.51359e-08 3.184467e-08
6.571325e-09 5.614013e-08 4.0103e-08 4.7071104e-08 7.271353e-08 1.2477545e-08 2.7027008e-08 1.6574976e-08
2.615057e-07 9.041835e-09 9.539632e-09 6.2879795e-09 2.82556e-08 1.05213225e-08 2.1731624e-08 7.996291e-09
3.1284328e-09 8.0067325e-10 7.2375452e-09 1.1750186e-09 8.26352e-10 2.66778e-09 2.846173e-09 1.9124316e-08
7.623265e-09 1.8686237e-08 4.0135153e-09 5.8957648e-09 4.891914e-07 2.253865e-06 3.0273654e-08 1.048094e-06
1.3769905e-07 1.298084e-07 3.713482e-08 1.2341889e-07 6.9159945e-08 4.236995e-08 2.8510748e-08 1.1005543e-07
1.9587272e-07 9.6815775e-08 1.2848946e-06 1.2144169e-07 4.986415e-07 1.7329256e-07 3.3967999e-07 5.7966513e-08
4.880615e-07 6.718984e-08 8.8889834e-08 4.1013056e-08 9.559788e-08 7.865349e-08 2.0183353e-07 5.713471e-08
1.7127807e-07 1.4674094e-07 1.0728364e-07 6.378941e-07 1.3072476e-07 4.523163e-07 1.4655201e-07 1.0623032e-06
3.699273e-07 1.0155546e-06 3.2258882e-07 3.4435936e-07 1.4682185e-07 2.3844896e-07 2.493875e-07 1.870537e-07
3.9528754e-07 4.2332633e-07 3.859182e-07 6.226561e-07 3.7271403e-07 1.10998116e-07 3.0673615e-07 2.1255295e-07
