timeSerise/logs/lightning_logs/version_14/checkpoints/epoch=99-step=1400.ckpt (torch, 51355 bytes, 27 tensors)

lstm.weight_ih_l0 f4 [40, 29]
000000 51 1f 61 3e b8 43 96 3e 0d 32 06 be 6d 9e 52 be
       0.21984603 0.2934854 -0.1310503 -0.20568247
000010 94 3c c4 bd 87 53 f2 bd 19 a4 b2 3d 4b 3e 23 be
       -0.09581867 -0.11832338 0.087227054 -0.15941732
000020 95 25 c7 3d f3 81 9a be cc cd e0 bc 01 06 e7 3c
       0.09723965 -0.30177268 -0.027441882 0.028201105
000030 f4 0d 88 be 6c 57 02 3d 64 d4 c8 bc 0c 34 37 bd
       -0.26573145 0.031821653 -0.024515338 -0.04472737
000040 ff e8 86 3e 2d 9e 4c 3e 0c cc 50 3d a0 94 64 3d
       0.26349637 0.19982214 0.050975844 0.055805802
000050 32 59 3b be cd 83 0e be a7 1a cd 3d ba 0b 8a 3e
       -0.18295744 -0.13917466 0.10014849 0.26962072
000060 63 a0 f3 3b 3f 36 4c 3e e5 91 7a bd 96 5c 29 3e
       0.007434891 0.19942568 -0.061174292 0.16539225
000070 7c 1b 98 be b3 ff 97 ba 5a 43 52 3e d2 ce 41 be
       -0.2970847 -0.001159659 0.20533505 -0.18926552
000080 75 c9 63 3e c9 bb a1 be 9f 9a e7 3d b7 cf 15 be
       0.22244819 -0.3158858 0.113087885 -0.14630018
000090 a8 3b 1e bd 40 9e 59 be 8d ef 36 3e c2 56 3d 3e
       -0.03863111 -0.21251774 0.17864819 0.18490127
0000a0 40 2c 61 3e ce 96 17 be b7 d1 e0 3d dd 1b 80 3d
       0.21989536 -0.14803621 0.109775 0.062553145
0000b0 11 06 82 be 35 b3 e5 3d 36 92 f1 3d 91 95 3e 3e
       -0.25395253 0.11215822 0.11795466 0.18611743
0000c0 ef 4a 33 3c 49 84 88 3e 39 2b 85 be aa d9 a7 3c
       0.0109431585 0.26663426 -0.2600954 0.020489533
0000d0 f6 96 56 be 12 ff 04 bd e7 28 0b be c8 b2 63 bd
       -0.20956025 -0.032469817 -0.13589822 -0.05559042
0000e0 bf 5c 2a be 7b b5 76 be ff fe 9d be 66 1c 76 be
       -0.16636942 -0.24092667 -0.3085861 -0.2403427
0000f0 cb 4e 92 be 0c d3 42 be ce cc 31 bd 7a d6 7a 3e
       -0.2857574 -0.1902582 -0.043408208 0.24495879
000100 72 b6 4e be 79 f2 c0 bd 55 84 90 bb d6 a9 15 3d
       -0.20186785 -0.09421248 -0.0044103065 0.03653892
000110 68 aa 15 bd 21 cb 36 be 1a 43 cd bc 68 fd 01 3c
       -0.036539465 -0.17850925 -0.02505641 0.007933952
000120 b1 f5 0b 3d 28 28 9c 3d 59 69 42 be 58 b5 74 3d
       0.034169856 0.07624847 -0.189855 0.059743255
000130 a9 ff ac bd 91 dd c1 bd f9 93 7a bd 5f be 4b 3e
       -0.08447201 -0.094660886 -0.061176274 0.1989684
000140 1d a7 24 3e 82 09 ad be 62 66 a8 bd 88 77 83 3c
       0.16079374 -0.33796316 -0.08222653 0.016048208
000150 45 d2 c4 3d 90 73 90 3e e7 ed 6d be 9b 5e 92 3e
       0.09610418 0.28213167 -0.23235284 0.28587803
000160 21 74 ab 3d e3 9a 8f bd e1 07 26 3e 04 3a b5 bd
       0.08371759 -0.07011964 0.16213943 -0.08848956
000170 11 c9 85 3d 9a dc a7 3e 9e 0f 5b 3e 07 11 9a be
       0.06532491 0.32785493 0.21392676 -0.30091116
000180 23 d9 48 3e 3d fe 78 3e 7d ca 13 3e 2e f5 2b 3e
       0.19614081 0.24315734 0.14432712 0.16792747
000190 fd 18 90 3d 10 f8 95 3e 3c 36 6d bd 92 9c a8 be
       0.07036016 0.2929082 -0.05791305 -0.32931954
0001a0 bf 6f 35 3e c7 9f 37 3d 83 8e 1e bd c3 6e 79 3e
       0.17718409 0.04483011 -0.03871013 0.24358658
0001b0 10 08 96 3e de f8 82 bd d3 05 b0 3c d0 a4 61 3e
       0.29303026 -0.06395124 0.021487152 0.22035527
0001c0 a8 30 1d 3e fe f9 21 3d ea fd 80 be 23 48 20 3e
       0.15350592 0.03954505 -0.2519372 0.15652518
0001d0 13 94 8c bd 5e 0b 6c 3e ba aa 7a bc e5 77 73 be
       -0.068641804 0.23051211 -0.015299493 -0.23776205
0001e0 c5 e7 88 3e ba 13 b2 bd 26 72 83 3c 59 b4 d9 bd
       0.26739326 -0.08695169 0.016045641 -0.10630102
0001f0 1e a1 43 3d 95 fe 87 3d 3a 17 68 3e 02 bd 82 3e
       0.047761075 0.066403545 0.2266511 0.25534827
000200 fd 53 64 3c d1 f4 40 3e 98 c7 97 be 2d 8f e2 bc
       0.01393604 0.1884339 -0.29644465 -0.027656162
000210 ac 7d 6b 3d 5c 78 fc bd 39 eb 63 be 4e d9 30 bd
       0.057492897 -0.12327644 -0.22257699 -0.043175988
000220 e9 33 51 be 46 16 9a be 6e 25 50 3e 63 fa 62 3e
       -0.20429958 -0.30095118 0.20326778 0.22165827
000230 bb 9d 74 3e 38 4c ad 3d 2f c3 95 3d 29 28 46 be
       0.23888294 0.08461803 0.07312619 -0.19351257
000240 30 7e 40 bd 39 7c 81 be 63 56 09 be 81 a5 a5 bd
       -0.04699534 -0.25290087 -0.1341186 -0.08088208
000250 c8 36 97 be 71 dc 81 be 72 ab fd bc eb 79 20 bd
       -0.29533982 -0.25363496 -0.03096554 -0.03917877
000260 9a ee e1 bd 03 8c aa 3e 96 76 31 3e c0 a4 50 3d
       -0.11031838 0.33309945 0.17330393 0.050938368
000270 26 85 48 bd 04 ec 74 3e 5a 9c 37 be cf a6 98 3e
       -0.048955105 0.23918158 -0.17930737 0.29814765
000280 96 34 09 be a5 20 56 3e 60 8b a5 3d da 53 03 be
       -0.13398966 0.2091089 0.08083224 -0.12824956
000290 4a da 8a 3c 61 cf 1d be a2 98 6e 3e 03 8f 4b 3e
       0.016949791 -0.1541114 0.23300412 0.19878773
0002a0 79 2d d2 bd 6b dc 7b be c7 6b dc 3d f1 55 8d 3d
       -0.102625795 -0.24595802 0.107627444 0.06901158
0002b0 a4 00 f4 3d fe f9 7c be 19 f3 2a be 84 34 59 be
       0.11914185 -0.2470474 -0.16694297 -0.2121144
0002c0 46 23 8c 3e ee 4f 45 3e 6a fa 88 3e 0f 81 80 be
       0.27370661 0.19268772 0.2675355 -0.25098464
0002d0 b1 91 94 3d 83 62 03 3d b8 f9 6b bd 49 d9 9d be
       0.07254351 0.03207637 -0.057611197 -0.30829838
0002e0 19 f6 aa 3d 45 2d fe 3d e2 49 83 3e 99 fb 0c 3d
       0.08347721 0.12410978 0.25642306 0.03441963
0002f0 36 f7 89 3e 68 38 03 3d 76 5d 87 be d0 21 90 3b
       0.2694642 0.032036215 -0.26438493 0.004398562
000300 89 08 9b 3c 84 14 eb bd 29 58 2d 3e 71 3b a6 bd
       0.018924968 -0.114785224 0.16928162 -0.08116806
000310 87 29 92 3c 67 9a af 3c 4d 30 0a be e4 f7 e2 3d
       0.017842067 0.02143593 -0.13494988 0.11082438
000320 7d c4 99 3e ff 36 39 3e 89 e0 94 3c d0 76 0f 3e
       0.3003272 0.18087386 0.018173473 0.14010167
000330 86 09 86 3e 8a ac 8f be 77 71 1f 3d ed 3e da 3c
       0.2617914 -0.28061324 0.038926568 0.026641333
000340 27 54 0b 3e 1f 39 5c 3d 17 be 34 be 5c 87 43 3e
       0.1360632 0.053765412 -0.17650639 0.19094604
000350 86 af 68 3e fd 94 41 3e 84 77 96 be dc 97 90 3e
       0.22723207 0.18904491 -0.29388058 0.2824086
000360 51 2c 5d be c2 5e 85 3e ca 63 8b 3d 26 99 ce bc
       -0.21598937 0.26048857 0.06806143 -0.025219511
000370 23 47 75 3d ab 21 62 3e 49 bd 5e be 6a 8b 2d 3c
       0.059882294 0.22083156 -0.21751894 0.010592321
000380 8a db 23 3e 33 c4 9c 3c fd d6 f7 bd 26 b0 23 bd
       0.16001716 0.019136524 -0.12101553 -0.03996291
000390 95 ec 44 be bc 26 2f be c6 bd 7d 3e 45 41 97 3e
       -0.19230874 -0.1710462 0.24779424 0.29541984
0003a0 1d 54 95 be 2f dd 4f be ec 36 c4 bc bd c8 9b 3e
       -0.29165736 -0.20299219 -0.02395197 0.3042659
0003b0 c3 2d 94 be cf 7e 63 3d 98 f1 0e 3e 20 99 9a 3e
       -0.28941163 0.055540856 0.13959348 0.3019495
0003c0 5e c7 6e be 63 93 c3 ba 69 52 62 3e 2c e1 f2 3c
       -0.2331824 -0.0014921244 0.2210175 0.029648386
0003d0 ee 13 8b 3e 18 7f b5 3d 12 72 61 be d9 b9 56 3e
       0.27163643 0.08862132 -0.2201617 0.20969333
0003e0 aa 21 4a 3e 48 5f 4c 3e e5 5e 5a 3e 76 81 5a bd
       0.19739404 0.19958222 0.21325262 -0.05334612
0003f0 ce da 56 3e 29 f4 4b be 89 bb e4 3d 34 66 2a be
       0.20981905 -0.19917358 0.11168582 -0.1664055

lstm.weight_hh_l0 f4 [40, 10]
000000 c4 0b 57 3e 20 81 61 3e 6d fb 8a be d5 73 43 3e
       0.21000582 0.22021914 -0.27144948 0.19087155
000010 a3 08 e6 3d 66 cc 8e 3e fa f4 18 be 2c 69 76 3e
       0.11232116 0.2789032 -0.14937201 0.24063557
000020 d7 57 8a bd 2a 99 5c 3e e3 b1 50 be 15 e0 90 be
       -0.06755035 0.21542802 -0.20380358 -0.2829596
000030 33 6a 1c 3c f7 ad 52 bd 78 03 db 3d b0 f2 e5 bd
       0.009546804 -0.051435437 0.10694021 -0.112279296
000040 02 95 56 be 4b d4 1a be c2 d5 f2 bd 9f c3 83 be
       -0.2095528 -0.15120046 -0.11857177 -0.25735185
000050 22 7e 63 3e 3f d2 13 3e c9 cd 84 bd e3 9e 92 3e
       0.22216085 0.14435671 -0.06484563 0.28636846
000060 a3 08 3e be 3b fa 86 be 77 ab 29 3e 8c 02 13 3e
       -0.18557982 -0.26362786 0.16569315 0.1435644
000070 02 8f ee 3c f0 2e 8b 3e 3e ea 5e 3e e5 1c 21 be
       0.029120926 0.27184248 0.21769044 -0.15733679
000080 51 b3 86 bd fa 3f d7 3d e0 3c 27 3e 14 2e 88 be
       -0.06577171 0.105102494 0.16331816 -0.26597655
000090 f0 83 30 3e 98 47 a1 be 72 3c 79 3e 43 a7 5f be
       0.1723783 -0.31499934 0.24339464 -0.21841149
0000a0 59 6c 97 3c 47 45 de 3c 64 8d 8f 3e 13 8d 35 be
       0.018484281 0.027132643 0.2803756 -0.17729597
0000b0 23 4c 2f be 8c 2b 73 3e 28 43 98 bc b4 a7 72 bd
       -0.17118888 0.2374708 -0.01858671 -0.059241965
0000c0 ab d9 2b 3e e2 b2 18 bd 04 4a 0d be 80 43 97 bd
       0.16782252 -0.03727997 -0.13797766 -0.073859215
0000d0 79 ac 89 be f2 bd 02 be 98 87 34 3d c0 72 8a be
       -0.268894 -0.12767771 0.044074625 -0.27040672
0000e0 89 14 4e be f1 f4 ac 3e b9 4b 84 3d 65 85 a1 3d
       -0.20125021 0.33780625 0.064597555 0.07886771
0000f0 54 de 8e be 69 bb 45 bd 66 26 4b 3e dc c5 db 3d
       -0.27903998 -0.04827443 0.19838867 0.10731098
000100 e5 fb 74 be ac 80 d0 bd a9 53 b5 bb 3a 14 8b be
       -0.23924215 -0.10180792 -0.0055336547 -0.2716387
000110 b5 00 26 be 6c e8 90 bd 53 fd 16 3e d1 72 8c be
       -0.16211207 -0.07075581 0.14745073 -0.27431348
000120 95 fa a9 bd f7 e6 55 3d f5 bc 68 3d 90 32 dc bd
       -0.08299748 0.05222222 0.05682083 -0.107518315
000130 24 32 49 be 22 5d c3 3d 7f 77 4f 3e 7c f7 03 be
       -0.19648033 0.09539248 0.20260428 -0.12887377
000140 cb 63 27 3e 77 81 99 3d 1d 74 1e be 6e c0 82 3d
       0.16346662 0.074953966 -0.15473981 0.06384359
000150 b9 ef 89 be 14 93 ab 3d 13 2d 95 be 09 60 29 3d
       -0.26940706 0.08377662 -0.2913595 0.041351352
000160 1f 62 91 be ad 4e 75 3d 7f 9b 44 be 08 69 01 be
       -0.28395173 0.059889484 -0.19199942 -0.12637722
000170 9b 36 61 3e 19 f9 6a bd 98 d6 92 be bf b9 61 3e
       0.21993487 -0.057366464 -0.28679347 0.22043513
000180 3c 30 0e 3e 87 de 77 3d 53 ae 6b be 85 b4 7f 3e
       0.13885587 0.060514953 -0.23015718 0.24971206
000190 7a 07 f9 bd f6 11 e7 bd be 16 ee bd 56 6a e8 3b
       -0.12159629 -0.11282723 -0.116254315 0.0070927544
0001a0 09 37 a6 3c 6e 7d 45 3e ac 4c 21 be a4 f5 51 3e
       0.020289915 0.19286129 -0.15751904 0.2050386
0001b0 2b fa 1e 3e 87 83 a3 3c 0f 48 9a 3e 1e 65 ae be
       0.15525119 0.019960178 0.301331 -0.3406152
0001c0 2a 17 99 bc 45 46 26 be aa 74 89 3e e5 32 e3 3c
       -0.018687803 -0.16237743 0.2684682 0.02773423
0001d0 ee 0d da bd dd c4 e8 bd ec d7 59 be 9b 29 75 be
       -0.10647188 -0.11365674 -0.21273774 -0.23941652
0001e0 92 ac 90 be d4 4d 3e be a3 2e c2 3d 49 04 06 3d
       -0.2825666 -0.18584377 0.094815515 0.03271893
0001f0 05 77 a2 be 1c 81 be 3d 9f 06 8b bd 1f 65 d4 3c
       -0.3173143 0.093019694 -0.06788372 0.025927125
000200 ae 63 1f 3e 38 54 c2 3d 07 33 f4 3d db 65 a0 bd
       0.15565369 0.0948872 0.11923795 -0.078319274
000210 f7 e5 60 3c 50 94 cf 3d 86 e9 fc 3d 1f ee 1f be
       0.013726703 0.1013571 0.123492286 -0.1561818
000220 6e b7 36 3e 66 c4 69 3e 0f 62 a6 be b8 fa 76 3e
       0.1784341 0.22828826 -0.32496688 0.24119079
000230 6d 72 5a 3e ac f6 af bc 21 ff 1d 3e 2d 77 28 3d
       0.21332712 -0.021479927 0.15429355 0.04112928
000240 56 45 84 3d 11 d1 52 be 1e 49 9b be 70 ee 47 3e
       0.06458537 -0.20587565 -0.3032922 0.1952455
000250 2f c1 51 be 4a 71 4a bd e9 65 7e 3e 1c de 6a 3e
       -0.2048385 -0.049424447 0.24843563 0.2293629
000260 5f f9 75 be a8 bf 67 3d 2f f1 99 be 56 f4 65 3d
       -0.24020909 0.056579262 -0.3006682 0.05614122
000270 6c 9c 1a be e0 6e 40 3d d1 2f 01 3e ef 78 c9 3d
       -0.15098733 0.04698074 0.12615897 0.098375194
000280 e9 55 8e 3e 76 f6 c5 3d 6a 42 a3 3e 3c 0b c7 3c
       0.2779992 0.09666149 0.31886607 0.02429735
000290 03 cc 7b 3e 2a 1e 1b be ad ec 9a 3e 4a 67 e3 bd
       0.24589543 -0.15148225 0.30258694 -0.11103685
0002a0 97 fb eb 3d 4a 10 09 3e 5e 50 b5 3d de cf 0c bd
       0.11522596 0.1338512 0.088532194 -0.034377925
0002b0 ee f1 50 3d 8c 97 96 3d 2b f3 51 3e 64 4d 0c bd
       0.051011972 0.07353124 0.20502917 -0.034253493
0002c0 a7 9f 9c 3e 73 d6 00 3e 12 b3 bf 3d 1b fe a7 bc
       0.30590555 0.12581806 0.09360327 -0.02050691
0002d0 64 f7 2b be f2 59 8f be 7f 45 86 3e 1b 7b 88 3e
       -0.16793591 -0.2799831 0.26224896 0.26656422
0002e0 25 fc a3 bd 62 18 08 3e e6 bb 24 be 06 50 1e 3e
       -0.08007077 0.13290551 -0.16087303 0.15460214
0002f0 a9 18 a9 be e5 44 33 3e 45 bc 87 3e 1a f3 3e bd
       -0.33026627 0.1750675 0.26510826 -0.04661856
000300 df f3 32 ba d7 bd 15 bd b4 17 81 be 28 6b 83 3e
       -0.0006826501 -0.036558 -0.25213397 0.2566769
000310 c7 76 80 3e 2e 0d 55 be 13 1f 20 3e e4 a5 a3 3e
       0.2509062 -0.20805809 0.15636854 0.31962502
000320 6a af 5d 3e 6c 80 70 3e 9f 31 51 3d 84 9b ec 3d
       0.21648946 0.23486489 0.051072713 0.115531
000330 e8 f0 9f 3e d5 ac 7f 3e 18 05 02 bd 38 b9 61 3d
       0.31238484 0.24968274 -0.03174314 0.05510828
000340 2b 45 b5 bd c3 71 3e be 2f b4 4a be 5f 4b 81 be
       -0.08851083 -0.18598084 -0.19795297 -0.25252816
000350 cb e4 8b 3e cb ad 03 bd cd 46 00 3e a5 41 61 be
       0.27322993 -0.032148164 0.12527008 -0.21997698
000360 2e 17 a2 3d 6c f1 7e be 51 bd a1 3e 51 e3 03 be
       0.079145774 -0.24896783 0.3158975 -0.12879683
000370 99 5d 93 3d 82 ba 1d be 48 77 09 3e 0e d5 0d be
       0.07195587 -0.15403178 0.13424408 -0.13850805
000380 e1 d8 4e 3e d5 36 98 3e 73 8e 5a be a4 ef ab 3d
       0.2019992 0.29729334 -0.21343403 0.08395317
000390 cd 38 2d be 04 92 8f be d4 a9 9c 3e a2 8b 29 bd
       -0.16916199 -0.2804109 0.3059832 -0.04139293
0003a0 77 b7 f9 3d 6b 1c 1e be 0a 1a 89 be 08 dd c3 bc
       0.12193196 -0.15440528 -0.2677768 -0.023909107
0003b0 86 be f4 3d a9 78 81 be 9b 88 87 3e 64 67 2b be
       0.11950402 -0.2528737 0.2647141 -0.16738659
0003c0 54 3d 6e be 87 c9 4c 3e 51 db 98 bd c5 45 52 3b
       -0.23265582 0.19998752 -0.07463706 0.0032085043
0003d0 47 f0 7c be 77 45 89 be 93 f0 48 3e 30 23 58 be
       -0.24701034 -0.2681081 0.19623022 -0.21107173
0003e0 cd 32 e4 bd 90 49 dc bd 8d 16 a0 bd 66 64 40 3e
       -0.11142502 -0.107562184 -0.07816801 0.18788299
0003f0 22 bf 71 3e c6 fc 6f 3e 04 88 a2 be fa b7 c4 bd
       0.23608068 0.23436269 -0.31744397 -0.09605403

lstm.bias_ih_l0 f4 [40]
000000 a1 82 52 3e b2 cf 9b 3e cd 4d d4 3d b4 5c 38 be
       0.20557643 0.30431896 0.10366402 -0.18004113
000010 ee 26 7f be fb 63 98 3e af 9b 8b 3d 1d 67 12 3d
       -0.24917194 0.2976378 0.06816804 0.035742868
000020 ad 73 3b 3e d8 68 44 3e 9b 4c 15 3e b8 4e 6e 3d
       0.18305846 0.1918062 0.14580004 0.05818054
000030 c9 96 8e 3d aa cd 0c bd 52 df 97 3e 29 8f c3 bd
       0.06962354 -0.034375824 0.29662567 -0.0954879
000040 fb 0b 47 3e 0b 7a 60 bc 3e 5d 7c be ef 51 78 3e
       0.19438164 -0.013700972 -0.24644944 0.24250005
000050 db 0d 01 be 87 c3 59 3d 33 5d c8 bd e9 6d bf 3d
       -0.12602942 0.053164985 -0.09783401 0.093471356
000060 cb d6 7e bd 2c e6 8b be b7 b1 1d be 05 78 28 be
       -0.06221656 -0.27324045 -0.15399824 -0.16452034
000070 82 e7 1b 3e 8d 21 8c 3d 56 d6 94 3e b4 0b 36 3e
       0.15225032 0.06842337 0.29069775 0.17777902
000080 fe 5a 82 3e 9b 4d 34 be 89 ab 5b 3e c3 fd 87 3e
       0.25460047 -0.17607729 0.21452154 0.26560792
000090 65 48 06 bd da b9 66 3e 1a 36 37 bd 48 cb ab 3c
       -0.032783885 0.22531834 -0.04472933 0.020970955

lstm.bias_hh_l0 f4 [40]
000000 c9 66 b9 bd 79 f5 de bd 78 37 98 3d b1 6d 19 3c
       -0.09052808 -0.10886664 0.07432455 0.009364531
000010 7b a5 c7 3d 19 0e 92 be 3a ce e8 bd d3 47 8f bd
       0.0974836 -0.2852638 -0.113674596 -0.06996121
000020 38 e7 16 3e bc 61 ab bd f4 af 10 bc 61 87 31 3d
       0.1473664 -0.08368251 -0.008831013 0.043341998
000030 c6 e8 53 be 2d 8e 5e be d5 12 6e bc cc 5f 84 be
       -0.20694265 -0.21733923 -0.014530857 -0.25854337
000040 eb bf 1c 3d 4f e7 8d 3d 17 ea 10 be b7 39 5b 3e
       0.038268965 0.06928884 -0.14151798 0.21408735
000050 41 93 7b 3e 5c 3c 4d bd e0 5f b2 3d 1d 75 32 be
       0.24567892 -0.05010639 0.08709693 -0.17427488
000060 4b b0 e8 3d 2e f2 42 3e 96 1a 25 be bc c5 55 3e
       0.1136175 0.19037697 -0.16123423 0.20876211
000070 cc c7 93 be d6 ca 88 be 8f 5b 34 3e 7b 4d 22 be
       -0.2886337 -0.26717252 0.17613052 -0.15849869
000080 9e cd 94 be d0 f1 19 3e 64 55 39 be 32 87 ab 3e
       -0.29063123 0.1503365 -0.1809898 0.33501583
000090 72 7c 5f be fe ee 11 bd 16 0b c6 bd 08 65 44 be
       -0.21824816 -0.03562831 -0.09670083 -0.19179165

lstm.weight_ih_l1 f4 [40, 10]
000000 15 00 09 be 79 81 2f be 5b b0 1c 3d 02 cf 8a bd
       -0.13378938 -0.17139234 0.038254123 -0.06777765
000010 64 25 9c be f1 11 b0 3d 64 4f f4 bd e9 57 46 3d
       -0.30497277 0.08597172 -0.11929205 0.04842368
000020 83 63 5d 3d 7d 9d 87 3e 9f be 35 bd 98 1b 53 3e
       0.05404998 0.26487342 -0.044371244 0.20615995
000030 74 72 13 3e 5c 5f 84 3d d1 6f 62 be 3c 51 b5 bd
       0.14399129 0.06463501 -0.22112967 -0.08853385
000040 c0 39 50 be 0e 9c 9c 3d a6 93 36 3e 75 59 69 3e
       -0.2033453 0.076469526 0.17829761 0.22788031
000050 ae c0 ab be b8 8e 63 be ef f9 e5 bd 84 d5 27 3e
       -0.3354544 -0.22222412 -0.11229312 0.16390043
000060 b4 b5 68 be f2 15 2e be 6f e4 27 3e 8f e4 33 3e
       -0.22725564 -0.17000559 0.16395734 0.17567657
000070 d7 79 8d bd fd 8e c6 3d 5a f6 7d 3e f6 7b 18 3e
       -0.06908005 0.096952416 0.24801007 0.14891037
000080 40 f9 de bd a1 bb 29 3d b3 af 81 3e 2a e1 76 3e
       -0.108873844 0.041438702 0.2532936 0.24109331
000090 e9 2b 91 be cc c4 91 3e 60 fe 8c 3e 9c fc 5b 3d
       -0.28353813 0.28470457 0.27537823 0.053707704
0000a0 f8 03 8b be f2 bc 4b be 54 06 02 3e c7 12 97 3e
       -0.27151465 -0.19896296 0.12697726 0.29506513
0000b0 f3 80 a3 bd 28 34 49 bd 03 41 82 be 00 5f 30 bd
       -0.079835795 -0.049122006 -0.25440225 -0.04305935
0000c0 e2 7e 9d be 37 1d 80 bc 6c 6d 1f 3e db 73 6b 3e
       -0.30760866 -0.01563893 0.15569085 0.22993414
0000d0 1e 54 61 3e b2 e3 a8 3d 7e d7 59 3e 55 44 cb 3d
       0.22004744 0.082465544 0.2127361 0.09925143
0000e0 54 b9 34 be dc c1 a0 3e 2d 9b a8 bd 0e 90 8d 3e
       -0.17648822 0.31397903 -0.082327224 0.27648968
0000f0 d0 96 08 3d c9 3d 30 3e f2 e9 ca bd bc 74 d6 bd
       0.03334695 0.17211069 -0.09907903 -0.10471484
000100 41 a2 4d be 51 0b 59 be b3 65 4a 3e dd ee 86 3e
       -0.20081426 -0.21195723 0.19765358 0.26354113
000110 b4 66 1d be a3 3b 2d be c8 c5 09 3e ef 99 82 be
       -0.1537121 -0.16917281 0.13454354 -0.25508067
000120 18 98 4e be 00 ee 17 bd 93 8c b4 bd 5c 80 cc bd
       -0.20175207 -0.03709221 -0.08815875 -0.0998542
000130 27 70 2b 3d 49 08 4e be 19 42 66 be b1 9d 54 be
       0.041855004 -0.20120348 -0.22486152 -0.2076328
000140 54 e8 8b 3e f1 df 23 be 2d e1 0b 3e a5 35 3e 3e
       0.2732569 -0.16003396 0.13660116 0.18575151
000150 75 90 38 be f7 7c 08 be 17 7d 31 bd 0d a9 1a 3e
       -0.18023856 -0.1332892 -0.043332186 0.1510355
000160 4c 69 a3 be 52 f0 22 3e ca 68 db bd 12 13 a2 3d
       -0.31916273 0.15911987 -0.10713346 0.079137936
000170 76 05 2e 3e 24 e6 a7 be df 54 a3 3d 84 2f a6 bd
       0.1699427 -0.3279277 0.07975172 -0.08114532
000180 1d ba 9c be bf e8 fc 3d 2b 96 2b bd 65 b6 4d 3e
       -0.30610743 0.1234908 -0.04189126 0.20089109
000190 a1 88 84 3c 5d f6 47 be 79 cc 29 3c cb 1a 8a bd
       0.016178431 -0.19527574 0.0103636915 -0.067433916
0001a0 d5 83 b8 bd 7b 32 98 bd 15 77 12 3e ec 66 24 3d
       -0.0900952 -0.074315034 0.14303239 0.040137216
0001b0 86 c5 71 be cc 09 3f 3e 5f ba 59 be 76 e9 65 3e
       -0.23610505 0.18656081 -0.21262501 0.2245234
0001c0 bb 26 28 bd 56 94 6c be 40 af 8b be 99 90 8b be
       -0.04105256 -0.2310346 -0.27282143 -0.27258757
0001d0 aa db 96 3e 9b f7 79 3e 3c 18 2b 3e 5f 91 64 3e
       0.29464465 0.2441086 0.16708463 0.2232108
0001e0 2c 82 ac bd c4 3f 91 be bd 3f 1b 3e 9a e8 9f be
       -0.08423266 -0.28368962 0.15161033 -0.31232148
0001f0 0e 8c 91 bc 4d 6c 34 be eb 12 84 3e 4c 63 0a be
       -0.017766979 -0.17619438 0.25795683 -0.13514441
000200 b3 be 47 bd 07 31 79 be d0 0d 70 3a 17 1f 3b be
       -0.04876585 -0.24335109 0.00091573317 -0.18273579
000210 f7 e6 89 be eb 38 05 bc 1e 5a f1 bd 99 ed 02 be
       -0.26934025 -0.008131246 -0.117847666 -0.12785949
000220 2a eb ed bd 4c ae 3d 3e 01 a6 6a 3e e4 ff 9e 3e
       -0.116171196 0.1852352 0.22914888 0.31054604
000230 d4 1d c1 bd ca 5d 29 3e 8e 46 28 bd 12 08 12 be
       -0.094295174 0.16539684 -0.04108291 -0.14260891
000240 42 33 8a be 66 0f 62 3e 48 15 2a 3e 41 b4 7b 3d
       -0.26992232 0.22076187 0.1660968 0.0614512
000250 a6 7f 44 be 54 d8 35 3e 71 f1 05 3e fc 6b 95 3e
       -0.19189319 0.17758304 0.13080384 0.29183948
000260 ca 53 93 3e 74 86 4d be 4d e7 09 be 93 d9 4f 3d
       0.28774863 -0.20070821 -0.1346714 0.050744604
000270 ed 99 91 3e 42 7d 20 be 66 4c 97 be 18 65 9b 3d
       0.2843775 -0.15672782 -0.29550475 0.075876415
000280 6e d8 99 3e b0 0a 8f be 25 61 af bd 64 75 1c be
       0.30047935 -0.2793784 -0.08563451 -0.15279156
000290 e9 8d 80 3e 1a 86 91 be b8 7c 05 be b7 f1 07 3e
       0.2510827 -0.28422624 -0.13035858 0.132758
0002a0 a8 a3 67 be 12 cb 5e be 0b 74 fe bd 29 ae a2 3d
       -0.22621024 -0.21757153 -0.12424477 0.07943375
0002b0 9a 24 1b 3e 05 e9 1f 3d 24 1f 93 bd 53 89 33 be
       0.15150681 0.039040584 -0.07183674 -0.17532854
0002c0 e4 ba a9 3d 42 c7 8a 3d 34 82 15 3e 4a fa 78 3c
       0.082876 0.06776287 0.1460045 0.015196392
0002d0 9c d7 60 be 3e 57 1b be 6d 8a b9 be 4a 9d 10 bd
       -0.21957248 -0.15169999 -0.36238423 -0.035306253
0002e0 f0 72 d9 bd 0d d8 81 3d 12 f5 86 bd 62 18 2c 3d
       -0.10617626 0.063400365 -0.06589712 0.04201544
0002f0 74 66 09 3e 38 bb 09 be b6 df 14 be 05 94 0e be
       0.13417989 -0.13450325 -0.14538464 -0.13923652
000300 67 19 fa bd 5d 37 15 be 51 7d 2e be 82 04 dd bd
       -0.12211876 -0.145719 -0.17039992 -0.107918754
000310 5c bb 10 3e e5 68 3e 3e 3a ed 8a 3e 20 1b 86 be
       0.14133972 0.18594702 0.27134115 -0.2619257
000320 88 26 9b 3d 8e bf 5f 3e 0e 1f 95 be 0c 00 f1 bc
       0.07575709 0.21850416 -0.29125255 -0.029418968
000330 42 ff 5b be a6 cd a4 3e da 49 94 3e 9c b8 41 bd
       -0.21484092 0.32188147 0.28962594 -0.047295198
000340 3a ee 0b 3d e6 53 ba bc 7e 66 33 3e 68 45 68 3e
       0.034162737 -0.022745084 0.17519566 0.22682726
000350 3e 7f b3 bd a5 6b 2f bd 4b ef da 3d 79 da b3 3d
       -0.08764504 -0.042827267 0.10690173 0.08781905
000360 88 13 39 3e ac 5d 97 be c2 62 d2 bd 31 2b 62 be
       0.18073857 -0.29563653 -0.10272743 -0.22086789
000370 94 6b 29 be 95 e6 1d be 32 2d a0 bd 53 ee 2f ba
       -0.16544944 -0.15419991 -0.0782112 -0.0006711233
000380 93 eb 77 be 7a 2d 99 3e de bc 63 be 01 40 44 3e
       -0.24210958 0.29917508 -0.22240016 0.1916504
000390 36 60 0e 3e 4b c1 6a be ba e8 1c be 22 45 00 3e
       0.13903889 -0.22925298 -0.15323153 0.12526372
0003a0 77 10 87 3e 07 18 87 3e 0c c2 3d be 67 28 15 3e
       0.2637975 0.2638552 -0.18531054 0.14566194
0003b0 68 42 31 3e 71 38 86 3c bd 48 6e be bc c8 61 bd
       0.17310488 0.016384335 -0.23269935 -0.055123076
0003c0 c6 30 37 be d4 96 78 3e 73 42 0c be 35 0a 91 3d
       -0.178897 0.24276286 -0.13697223 0.07082025
0003d0 28 0a cc bc 47 cb 80 3d 5f 16 6a 3e b0 c2 68 3e
       -0.024907187 0.06288772 0.22860096 0.22730517
0003e0 56 aa 58 3e fb 63 21 bd 45 80 6e 3d c9 51 5a 3e
       0.21158728 -0.03940199 0.058227796 0.21320261
0003f0 5a 96 20 be 79 f1 0e 3e 42 b4 5b 3d ca ac 9b 3e
       -0.15682355 0.13959302 0.053638704 0.30405265

lstm.weight_hh_l1 f4 [40, 10]
000000 04 75 49 3c c8 96 1c 3e 4a 2b 9a be 99 ed 5f be
       0.012295965 0.15291893 -0.30111152 -0.2186798
000010 75 9a 41 be 39 b2 1e be 8b 76 39 3e 79 7c 04 3e
       -0.18906577 -0.15497674 0.18111627 0.12938108
000020 00 1f 9b be 8e 9f 9a be 32 04 8c be d2 a6 d0 bd
       -0.3029709 -0.30199856 -0.2734695 -0.101880684
000030 36 38 9e 3e 78 f2 18 3e 86 3d ec bd 0a 75 6d be
       0.3090226 0.14936244 -0.11535172 -0.23189178
000040 d4 68 13 3c 5a 9c d7 bd 0f 7c 2b be 07 9c 59 3e
       0.008997161 -0.105278686 -0.16746543 0.21250926
000050 eb 55 83 bc 10 46 6c 3d 93 59 57 be 47 f3 03 be
       -0.01603218 0.057684004 -0.21030264 -0.12885772
000060 9d d0 7a be f5 eb db bd 5c 27 d0 bd 2a 04 84 3d
       -0.24493642 -0.107383646 -0.10163757 0.06446107
000070 95 5e 14 be 5e fb 7a 3d ed 0e 4b 3d 8f 9a 12 3e
       -0.14489205 0.06127488 0.04957478 0.14316772
000080 d0 84 d0 bd 8b b6 77 3e 64 5b e0 3d 8b 34 6e be
       -0.10181582 0.24190728 0.109549314 -0.23262231
000090 b8 3b 69 be a2 e0 80 bb 61 2a 2f 3e b9 db 2c 3e
       -0.22776687 -0.0039330283 0.1710601 0.16880693
0000a0 f3 ef 3e 3e 90 f0 5f 3e 94 8d e8 bd 88 0e e2 bd
       0.18646221 0.21869111 -0.11355129 -0.11037928
0000b0 5f 39 3f be ee a8 f8 3d 37 3a 82 3e 89 ae 46 bd
       -0.18674229 0.12141596 0.2543504 -0.048506293
0000c0 68 6a 80 be db cd 51 3e 44 d6 23 bd 72 75 78 be
       -0.25081182 0.20488684 -0.03999926 -0.24263552
0000d0 78 df 15 be b7 9c 91 3e c2 1d 9e 3e 27 d0 b3 bd
       -0.14636028 0.28439876 0.30882078 -0.08779936
0000e0 02 20 9f 3d 12 d4 3d 3e bf 7a 71 3e b5 d7 9c 3d
       0.07769777 0.1853793 0.2358198 0.0765833
0000f0 31 c3 96 3e e7 df 16 3d 07 64 1b 3b 1f b8 41 3d
       0.29445794 0.036834624 0.0023710744 0.047294732
000100 58 56 cf b9 da 01 75 be ee 78 20 3e 0a 0c 35 be
       -0.00039546448 -0.23926488 0.15671131 -0.17680374
000110 ff 5f 57 3e 88 68 92 3e c1 eb 4e 3e 12 f2 2e bd
       0.21032713 0.28595376 0.2020712 -0.042711325
000120 ef 94 8e bd 90 6d d0 bd 11 0b 31 3e c0 1e 96 3d
       -0.069620006 -0.101771474 0.17289378 0.07330084
000130 00 b4 7d 3e e2 12 eb 3d e3 f4 53 3e 13 7b 5d 3e
       0.24775696 0.11478211 0.20698886 0.2162898
000140 20 4f 07 3b 13 b4 45 3e 66 8c 3c be 5b 83 9c bd
       0.0020646527 0.19306974 -0.18412933 -0.076422416
000150 3a 8e 65 3d e5 bd 8e be 56 52 8c 3e e7 69 8e 3e
       0.05604384 -0.27879253 0.27406567 0.27815172
000160 cd 62 a8 bd 9b 0e 7e be 87 7f 25 3e 2e 7e 88 3e
       -0.0822197 -0.24810259 0.16161929 0.26658767
000170 bb ec 82 be 1b 5a bd 3d a5 1f 5d 3e c9 28 0f 3d
       -0.25571236 0.09245702 0.21594103 0.034951005
000180 fe 23 c4 3d 9b 64 cc 3b 23 b5 71 3e 9c a5 96 3e
       0.095771775 0.006237579 0.23604254 0.29423225
000190 96 b1 18 be 10 33 19 be 5f b0 93 be c5 86 77 be
       -0.14911494 -0.14960885 -0.28845498 -0.24172504
0001a0 bc b9 0d 3c cb 3d 3e 3e a6 47 34 bd 0a c7 e7 3d
       0.00865024 0.1857826 -0.04401364 0.113172606
0001b0 ac ff 03 3e 2e 0e b2 3b c7 9c 59 be 7d 02 9b be
       0.128905 0.0054338193 -0.21251212 -0.30275336
0001c0 e6 44 89 bd 8c b7 ae 3d 05 2e 62 3d f3 58 90 be
       -0.067025945 0.085311025 0.05521967 -0.28192863
0001d0 67 2a 8f 3d 83 cd 91 3e 1e c5 44 3e c0 87 89 3e
       0.069905095 0.28477105 0.19215819 0.26861382
0001e0 75 65 8d be 85 0e 60 be 88 41 9b 3e 6f d4 03 be
       -0.27616468 -0.21880539 0.30323434 -0.12874006
0001f0 ea 84 1f be e7 13 9d 3d 8d 4c 38 be 17 ca 42 3e
       -0.15578046 0.07669812 -0.17997952 0.19022404
000200 25 d7 2d bd d6 ad 92 3d 1c 4d 8f bd 0b 2e a3 be
       -0.042441506 0.07162063 -0.06997129 -0.31871065
000210 9f 82 f6 bd d1 03 5b be e6 9a 16 bd 6e a9 8e 3e
       -0.12036633 -0.21388175 -0.036768816 0.2786364
000220 f9 9d 15 be 27 ce 0d 3e 5b 57 75 3e 03 fd 4f be
       -0.14611043 0.13848172 0.23959105 -0.2031136
000230 c8 9e 8c 3e 85 87 ae 3c 1d 40 26 be 4c f0 68 bc
       0.2746489 0.021304855 -0.16235395 -0.0142174475
000240 d5 1b c5 3c 7f bc e6 bd 0b 03 80 3d fd 9e e4 3d
       0.024061123 -0.112664215 0.062505804 0.11163137
000250 31 c1 66 bb a1 83 60 3d 69 84 75 bd b2 98 a2 be
       -0.0035210366 0.05481303 -0.05994073 -0.31757122
000260 f2 27 9f 3e 53 a8 a4 bd af 81 84 bd e0 1e 1b 3e
       0.31085163 -0.08039918 -0.06470048 0.15148497
000270 0c 57 15 bd c7 6e 13 3e 4c f0 df bd 73 37 99 3e
       -0.036459967 0.14397727 -0.10934505 0.29925117
000280 c5 c4 98 be 7e b1 8e 3e a1 e2 8e 3d 5b 78 dc 3d
       -0.29837623 0.2786979 0.0697682 0.107651435
000290 1c f3 0f be af 1d 91 be 04 8d 4f 3e 82 d4 38 be
       -0.14057583 -0.2834296 0.20268637 -0.18049815
0002a0 c5 44 00 3e 0c 7c 42 be e3 92 8a 3e dc e2 10 3e
       0.12526233 -0.18992633 0.2706519 0.1414904
0002b0 06 41 bc 3c 8c b3 3e be 8f 64 8b 3e 25 2e d7 bd
       0.022980224 -0.18623179 0.27225158 -0.10506848
0002c0 81 0f f7 bc ea 36 55 3d d3 af 8e 3e 41 e2 9a be
       -0.03015876 0.052054323 0.27868518 -0.30250743
0002d0 ca 13 5a bd 24 f1 f5 bd a7 85 a2 3e 42 f1 0f bc
       -0.05324153 -0.120088845 0.31742594 -0.008785548
0002e0 14 c9 8e 3e 96 f6 8a 3e b6 e2 a0 be c5 8c f9 bd
       0.27887785 0.27141255 -0.31422967 -0.12185053
0002f0 cf 1c ae 3c b3 06 8f bc b2 7b 08 bd c9 99 40 be
       0.021253971 -0.01745925 -0.03332109 -0.18808664
000300 7d ec 89 be 82 79 4c 3d 29 1c 88 be 6e 7b 05 3e
       -0.2693824 0.049920566 -0.26583984 0.13035366
000310 59 53 34 3e 71 e9 68 bd bf 8d 32 3e 1c dd 79 3e
       0.1760992 -0.056863252 0.17436884 0.24400753
000320 2e b9 34 3d 5a ca 23 be 27 7a 43 be 0a 7b 5e 3e
       0.044121914 -0.1599516 -0.19089566 0.21726623
000330 94 c9 1f 3e 35 5b 87 3e ca 10 72 be d5 84 0f be
       0.1560424 0.26436773 -0.23639217 -0.14015515
000340 f3 81 75 3e 03 b3 a8 bd 21 17 08 3e 74 15 f0 bd
       0.23975353 -0.08237269 0.13290073 -0.11722842
000350 13 4f d2 3d 6b 7c 6a be 88 5f a8 bc 4b 14 a9 bd
       0.102689885 -0.22899024 -0.020553365 -0.08255824
000360 61 81 3f bd 1d fd ab 3d 2f 1f 62 3e 55 98 b1 bd
       -0.046754245 0.08397887 0.22082208 -0.08671633
000370 51 d0 09 3e ac f3 1b 3d bb e6 1f be a2 7f c1 3d
       0.13458373 0.03807418 -0.1561536 0.09448172
000380 3c 21 fb bd 3f 39 3a be cd 4c 4f 3e 3e 81 67 bc
       -0.12262198 -0.181859 0.20244141 -0.014129935
000390 c0 32 39 3d c0 0b 84 be 85 87 35 3e 70 bc 61 be
       0.045214415 -0.25790215 0.17727478 -0.2204454
0003a0 72 26 96 3e 48 fd 99 3e 10 6a 0e 3e ad 72 38 3d
       0.29326206 0.3007605 0.13907647 0.04503124
0003b0 14 38 06 3b b8 d5 10 3e 91 00 09 3e e7 d1 76 3d
       0.0020480203 0.14144027 0.13379122 0.060258772
0003c0 a3 e1 a0 3e f2 7a a5 be 4c 56 0e 3e 51 62 94 3e
       0.31422147 -0.32320362 0.13900107 0.2898126
0003d0 89 0f 96 3e be f0 06 3e 20 67 67 3e da 11 42 be
       0.29308727 0.13177773 0.22597933 -0.18952122
0003e0 96 bc 10 be c5 93 74 bb fd 21 26 be ac 70 94 be
       -0.1413444 -0.0037319523 -0.16223903 -0.28992212
0003f0 5a 73 54 3e 2a b1 9a 3c c1 ce 57 3e fb 9e 76 be
       0.20747128 0.018883307 0.21074964 -0.24084084

lstm.bias_ih_l1 f4 [40]
000000 b5 15 a2 3e 7e 98 7f bc f9 e5 fe bd d5 6b 58 3e
       0.31657186 -0.015600322 -0.124462076 0.21134885
000010 98 97 8e 3e ef 44 4c be c0 40 06 be 75 e4 00 be
       0.27850032 -0.19948171 -0.13110638 -0.1258715
000020 1e 5d f7 3d b1 81 04 3d 29 6e ab 3d 2d 3d 27 3e
       0.120783076 0.032350246 0.08370621 0.1633193
000030 1e 16 3a 3e bd e6 87 3e af 55 d5 3c 05 8e a0 3e
       0.181725 0.26543227 0.026041834 0.31358352
000040 f2 77 92 3e a3 c9 0a be d8 ec 96 be 60 59 14 be
       0.28607136 -0.13553481 -0.29477572 -0.14487219
000050 49 b7 41 be a0 08 a4 3c 83 0e 00 3e 0e ff c8 bd
       -0.18917574 0.020023644 0.12505536 -0.09814273
000060 91 9b 83 bc 01 61 d6 bd f6 0d b0 3d 53 f5 6f 3e
       -0.01606539 -0.10467721 0.08596413 0.23433428
000070 08 b9 87 3d bd 9e 58 3e 02 08 9f 3e 26 72 5c 3e
       0.06627089 0.21154304 0.31060797 0.21527919
000080 5b 22 1a 3e f2 18 53 be 3e 7f 6c 3e b2 ff 81 be
       0.15052168 -0.20614985 0.23095414 -0.25390393
000090 dc 22 45 3d 4f d8 1d bc 88 a6 83 be 8d 75 4b 3e
       0.048128948 -0.0096340915 -0.2571299 0.19869061

lstm.bias_hh_l1 f4 [40]
000000 09 f6 fd 3d 48 10 33 be c9 26 88 bd 33 62 60 3d
       0.12400443 -0.1748668 -0.06648023 0.05478115
000010 e8 b9 02 be 34 a4 b9 3d 96 0a 6f be be 9d 73 3e
       -0.1276623 0.090645224 -0.23343882 0.23790643
000020 5a 34 54 be e7 ea 4f 3e 0e 70 9e bd 68 7d 10 3e
       -0.20723096 0.20304452 -0.077362165 0.14110339
000030 97 83 02 3e d7 f7 19 bd c1 3f 58 3e 46 ac 7d bd
       0.1274551 -0.037589874 0.2111807 -0.06193187
000040 b5 99 df bd 90 c9 75 3e ba 61 83 3d d5 05 97 bd
       -0.10917989 0.24002671 0.06415124 -0.07374159
000050 c7 4a 8e 3e 1a 04 1b 3e 9d aa 33 bd 74 67 04 3e
       0.27791426 0.15138283 -0.04386388 0.12930089
000060 95 82 b9 3c 9a 47 9d be 36 7c 94 be 6c 07 14 3d
       0.022645274 -0.3071869 -0.29001015 0.03613989
000070 07 df 51 bb 82 ce 70 3e c3 08 8d 3e 24 3d 54 3e
       -0.0032023804 0.23516276 0.27545747 0.20726448
000080 8d bd 91 be a7 6d 77 3e ae ff 28 3e f0 74 44 3e
       -0.28464928 0.24162923 0.16503784 0.19185233
000090 05 3f 41 bb fb 90 7f 3e 5a af b1 bd 83 ff 4e bd
       -0.0029487025 0.2495765 -0.08676024 -0.050536644

fc.weight f4 [1, 600]
000000 cc f8 77 3b 68 f8 94 ba 75 f6 04 bb d8 0b bf bc
       0.0037837503 -0.0011365535 -0.0020288501 -0.023321077
000010 20 8b b2 bc c1 84 f8 3c 80 6f 03 bd fa e5 8a 3c
       -0.021794856 0.03033674 -0.032088757 0.016955364
000020 98 48 4b 3d 70 ac d8 bc a0 50 2e 3b 50 3c 78 3a
       0.049629778 -0.026449412 0.002659835 0.00094694365
000030 cd 88 42 bc aa 19 02 3d be 67 5e 3b 56 93 4f 3c
       -0.011873436 0.031762756 0.0033936347 0.012669405
000040 86 85 e6 bc bf cc 0e bd 51 67 87 3c 45 e5 a1 ba
       -0.02813984 -0.03486323 0.016528757 -0.0012351653
000050 a8 3e 0d bb 52 dc a0 3c e7 d4 cb bb 36 a9 e9 3c
       -0.0021552239 0.019636307 -0.0062204483 0.028523069
000060 f0 f5 bb bc b0 83 de bc 89 4b e8 bc 07 b2 d0 3b
       -0.02294442 -0.027162403 -0.02835633 0.0063688788
000070 22 1a 38 3d d6 13 03 3d c7 7b f2 3a 80 d7 d8 ba
       0.044946797 0.03200134 0.0018500023 -0.0016543716
000080 ef 0b 2e 3b 29 b2 dd 3c 21 e0 21 3d 1a 61 11 3d
       0.0026557406 0.027062492 0.039520387 0.035492994
000090 e0 ef 0a 3d 5a 08 39 3c 4b 79 18 bc dc 10 97 bc
       0.03392017 0.011293495 -0.009306262 -0.018440656
0000a0 4d 24 98 3b 16 7a 90 bc 0f bb ee bb 01 a7 f3 bc
       0.0046429993 -0.01763634 -0.0072854827 -0.02974272
0000b0 fc 9d 07 3d 5d a7 fe 3b 3b 7c 92 bc f4 86 ac bc
       0.03310965 0.007771416 -0.017881503 -0.021060444
0000c0 9a 34 35 3d 5a 55 a2 3c 56 eb 0d bd 4f 5c 18 3c
       0.044239618 0.01981609 -0.034648262 0.009299352
0000d0 69 ec 07 3d 2e a9 ac 3c ea 65 b5 bb e5 fc 7c bc
       0.033184443 0.021076765 -0.0055358307 -0.015441154
0000e0 40 2a ee bc 5f ec d2 bc e6 88 5c 3c 44 85 95 3c
       -0.02907288 -0.025747476 0.0134603735 0.018252023
0000f0 2e aa 7a 3b 9b 24 29 bd 4a f7 41 3d 22 6c 17 3d
       0.0038248408 -0.041294675 0.047354974 0.036968358
000100 5b 49 87 bc 8d ee 0b bd e9 93 56 3c 3f 05 27 3d
       -0.01651447 -0.034163047 0.013096788 0.040776487
000110 d8 2e d1 3c 12 a5 8a bc d9 5d 5d 3b 7b d9 90 bc
       0.025535032 -0.016924415 0.0033777861 -0.017681828
000120 ea ca 20 3d 61 50 b7 ba de 1b cd 3c 7c 01 bc bc
       0.039256014 -0.0013985747 0.025037702 -0.022949927
000130 c8 c3 1b bc da a8 58 3c af f0 ec 3c 00 c6 4a 3a
       -0.009507127 0.013223851 0.02892336 0.0007735193
000140 dd 38 0f 3a 6c 0d c3 3c af 6c de 3c aa 3b 2a 3d
       0.00054634904 0.023810111 0.027151434 0.041560806
000150 ff 2f fe 3b 7b 2c 00 3c 88 eb b4 3c dc 0e 4e 3c
       0.0077571864 0.007823105 0.022084966 0.012576785
000160 4c 08 34 3d b3 48 87 bc a0 e3 1f bd 9d a6 fb bb
       0.043953225 -0.016514158 -0.03903544 -0.007679774
000170 83 f1 4a 3d db 33 16 3c a9 bb e0 3b 8a 43 88 bb
       0.04954673 0.009167637 0.0068583083 -0.004158442
000180 44 0f 6f bc 56 c9 f6 3c 33 c2 e8 bc 20 88 b7 bc
       -0.014591042 0.030125301 -0.028412914 -0.022403777
000190 5b 78 d0 3b 0f 77 a7 3c df 6f b5 3c a1 98 0b 3d
       0.0063620037 0.020442514 0.02214807 0.034081105
0001a0 d0 e2 15 bc 6f f2 76 bb 42 72 a2 39 1a 48 5f bc
       -0.009148315 -0.0037681123 0.00030984177 -0.01362803
0001b0 b9 c6 30 3d 86 07 1f 3c 46 e5 ff 3c 5b 27 1b bd
       0.043158267 0.009706384 0.031237256 -0.03787933
0001c0 32 fb ed bb 06 e4 bd 3c f6 24 3b 3d 0e 9a 95 3b
       -0.007262611 0.02318002 0.045689546 0.004565484
0001d0 44 35 4d 3b d6 6c 0e bd 94 53 50 3d ec d1 98 bc
       0.0031312266 -0.034771763 0.050860956 -0.018654786
0001e0 f2 22 a5 bb a8 bd 15 bd 7c 51 b5 3a a9 3d 69 3c
       -0.005039566 -0.036557823 0.0013833488 0.014235892
0001f0 1d 53 7c 3c a3 a1 11 bc 93 67 8a 3c 39 ec 76 3c
       0.015400675 -0.008888635 0.016895091 0.015070968
000200 1b bb 04 bb b6 39 cf 3c 6c 58 98 bc 18 d8 cf bc
       -0.0020253125 0.025296073 -0.01859685 -0.025371596
000210 a0 8e cc bc c8 96 d5 bc 41 30 3c 3c 0b e8 82 bc
       -0.024970353 -0.026072875 0.011486114 -0.015979787
000220 74 55 cd 3c de 40 1c 3c 7c a1 35 3c 91 83 62 3c
       0.025065161 0.00953695 0.011085864 0.013825313
000230 c8 7d 67 bc da 1b b6 bb f1 c0 33 3d 70 c1 07 bd
       -0.01412911 -0.0055575194 0.043885175 -0.03314346
000240 52 a4 a7 3b 8d 4c 21 bd 0f a3 35 bc dc 9e 18 3d
       0.005116024 -0.039379645 -0.0110862395 0.037260875
000250 de 7e ef bb eb 87 f4 3c 75 1f 3a bd f1 16 3b bd
       -0.007308825 0.029849967 -0.045440156 -0.045676176
000260 08 03 c4 3b 2a 52 32 3d 46 ef c0 bc c8 a5 86 bb
       0.0059818067 0.04353539 -0.023551594 -0.004109118
000270 4c 02 8e bc 56 81 cb 3b 68 2c 9a bc 4a 66 15 3d
       -0.01733508 0.0062104864 -0.018820003 0.036474504
000280 15 78 87 bc b2 1b 2d bd 4b 0d b5 3c 1d a6 2f bc
       -0.016536752 -0.04226274 0.022101065 -0.010720757
000290 95 a5 fe bc 2f 88 27 bd c9 57 23 3a fd 95 ed 3c
       -0.031084815 -0.04090136 0.00062310376 0.029002184
0002a0 72 7a 6a 3b 98 1a dc 3c a6 d8 ba 3b 02 b2 02 bd
       0.003577855 0.02686815 0.005702096 -0.031908043
0002b0 cd 05 a1 bc 80 c5 97 3c c1 5d 37 bc 53 d6 df 3c
       -0.019656086 0.018526793 -0.011191786 0.027323877
0002c0 85 96 00 bd 06 99 0d 3c ac 16 3f bc 7c 23 5f bb
       -0.031393547 0.008642441 -0.01166312 -0.003404825
0002d0 0f e0 97 3c 0e 17 17 bd 33 98 ad bc fe 5a 25 3d
       0.018539457 -0.03688722 -0.021190738 0.04036998
0002e0 8f e8 26 3d a5 6b 28 bd c6 db cf 3c c6 a7 07 3d
       0.04074913 -0.041118283 0.02537335 0.033118986
0002f0 a9 66 ac 3b db 35 27 bc 80 c2 e7 3c a3 9b 4e bd
       0.0052612615 -0.010205711 0.028290987 -0.050441395
000300 ed 20 01 3d 89 59 a6 bc 17 0a 05 3d 2f ec 21 bd
       0.03152554 -0.020306366 0.032480326 -0.039531883
000310 0c 50 9b 3c 09 f8 24 3d d4 1d 11 3d 45 21 c8 3b
       0.018959068 0.040275607 0.035428837 0.0061074817
000320 dd 43 87 3c 72 0f 86 3c 9f 45 ac 39 45 2b 1d 3d
       0.016511852 0.016364787 0.00032858268 0.038371343
000330 ff b0 c3 3b ea 26 c1 bc 1b 1e 85 bc a5 37 b8 3c
       0.0059720273 -0.023578126 -0.016249707 0.02248747
000340 f7 46 51 bc ef eb ab 3c fa 6d 84 3c ae aa 81 bc
       -0.012773267 0.020986525 0.016165722 -0.015828457
000350 04 72 5c bb 9c 7c f3 bc a3 bd 09 3d 3c 61 54 3c
       -0.0033637295 -0.029722504 0.033628117 0.012962636
000360 30 bd ff 3c a2 2e 16 3c 48 0d 43 3d 76 f1 bd bc
       0.031218141 0.009166392 0.047620088 -0.023186427
000370 26 b1 80 bc 4e 5e 7e bc 72 5f ba 3b 68 ac 12 3c
       -0.015709471 -0.015525414 0.0056876475 0.008952238
000380 ec b2 36 3c f4 07 01 3d df 1e ee bc 86 75 be 3b
       0.011151057 0.031501725 -0.029067455 0.0058123497
000390 14 4f 82 3c 67 82 fd 3c 69 a2 fe 3b 8f 82 7f bd
       0.015906848 0.03094597 0.0077708256 -0.06238037
0003a0 c8 3d 5b 3d 69 fc 1c 3d 9e 84 c4 3c 64 1d 09 bd
       0.053525716 0.038326655 0.023989018 -0.033475295
0003b0 d4 0c db bb 22 45 b9 bb b4 b9 ae bc 72 7f c9 bb
       -0.006684879 -0.005653993 -0.021328785 -0.006149226
0003c0 16 e5 0d 3d 66 c2 11 3c 4a ea 2f bc b2 d2 fb bb
       0.0346423 0.008896446 -0.010737011 -0.007685029
0003d0 b6 80 2f 3d 1d 78 53 3c df ef f7 bc 58 0f 2b bc
       0.042847358 0.012907055 -0.030265747 -0.01044067
0003e0 3d 70 3f 3d 97 5c f6 bb 69 c2 13 3c bc f2 21 3c
       0.0467379 -0.007518362 0.009018519 0.009884533
0003f0 98 2f 78 bc b1 fd b1 3c a9 e8 05 bd d8 05 0b 3d
       -0.015148066 0.021727415 -0.032692585 0.03394112

exp_avg f4 [40, 29]
000000 0c 6b 88 39 95 a4 12 3a 0f 62 38 b7 e5 79 12 39
       0.00026019698 0.00055939826 -1.0990086e-05 0.00013969054
000010 62 49 d6 39 0b d2 fd 39 bf aa 1b 39 f4 3a c3 38
       0.00040871935 0.00048412415 0.0001484556 9.3093055e-05
000020 b3 df 39 b9 0d 93 8c 39 ac d3 b6 39 54 b5 1d 38
       -0.0001772631 0.00026812442 0.00034871453 3.7600592e-05
000030 4a 5c de b8 bc 65 6d b7 2a 64 e1 39 aa 2f 65 39
       -0.00010602975 -1.4149988e-05 0.00042989972 0.00021856898
000040 0a 2a b4 b8 f9 01 95 b5 9a 16 46 b8 aa 87 80 b4
       -8.590899e-05 -1.1101939e-06 -4.7227928e-05 -2.3940567e-07
000050 99 59 73 38 85 04 8c b6 f5 c2 5d b7 c8 d5 3e 38
       5.801916e-05 -4.1728513e-06 -1.32180185e-05 4.549863e-05
000060 b7 ad e1 b8 87 0e 13 b9 64 85 40 38 c0 12 bb 39
       -0.00010761193 -0.00014024424 4.5900597e-05 0.0003568139
000070 c5 a5 ba 39 85 c4 b0 36 c9 b0 85 38 13 65 26 37
       0.00035600192 5.2680866e-06 6.374863e-05 9.917904e-06
000080 1e aa 78 37 4b d0 76 38 c9 92 97 37 ce 92 66 38
       1.482156e-05 5.884496e-05 1.8068955e-05 5.4972996e-05
000090 72 a1 f0 b6 40 cb 02 37 50 b5 2d 37 99 2b ad 37
       -7.171352e-06 7.795927e-06 1.0353819e-05 2.0643509e-05
0000a0 00 e4 e6 37 d2 16 7e 37 8a 93 21 37 38 5e 97 37
       2.7524307e-05 1.5144893e-05 9.630699e-06 1.8044477e-05
0000b0 1c fa ac 37 90 d3 d4 37 ca 8f d1 36 33 ff 4a 37
       2.0620464e-05 2.5370886e-05 6.2454246e-06 1.2099556e-05
0000c0 52 d3 21 b6 7d 8b 93 b6 f7 80 79 b7 7b 66 8d b6
       -2.4113874e-06 -4.39718e-06 -1.48715835e-05 -4.2140578e-06
0000d0 53 8a 01 37 75 b3 19 b6 c5 69 80 37 a9 9b 80 37
       7.721205e-06 -2.2903234e-06 1.5308042e-05 1.5331274e-05
0000e0 c7 aa 12 37 f8 af 18 38 aa c3 ee b6 54 db 56 b8
       8.74204e-06 3.6403508e-05 -7.115731e-06 -5.122584e-05
0000f0 9b 40 a7 36 e7 be 13 b8 54 d1 38 b7 f2 f3 cf b6
       4.984509e-06 -3.5225323e-05 -1.1015993e-05 -6.1974797e-06
000100 1c f1 47 b7 ec c9 93 b7 f7 4d 30 b7 4c a2 23 37
       -1.1917462e-05 -1.7617793e-05 -1.050857e-05 9.753345e-06
000110 11 0d 2f b7 42 fb 15 b8 0c 75 24 b7 e7 85 73 37
       -1.0433855e-05 -3.575837e-05 -9.802414e-06 1.4515105e-05
000120 8a 6f 8a b7 da f6 14 36 5d ec 42 b8 57 10 9a 36
       -1.6502821e-05 2.2197405e-06 -4.6473335e-05 4.59146e-06
000130 0e 4a 4a 36 07 83 93 b6 6b 80 49 37 91 44 dd b6
       3.014345e-06 -4.396195e-06 1.2010433e-05 -6.5942954e-06
000140 29 85 7d 36 77 92 9e 36 70 8a 37 b7 df 40 e1 b6
       3.7777447e-06 4.7258177e-06 -1.09398825e-05 -6.7130745e-06
000150 a0 44 0f b5 42 78 0a b8 ae 2e 4c b7 2c 0c 14 b8
       -5.3371514e-07 -3.3013763e-05 -1.2170216e-05 -3.5297286e-05
000160 fb 40 e0 b8 92 01 25 b7 32 36 33 b8 17 46 9b b8
       -0.00010693256 -9.835132e-06 -4.27274e-05 -7.404031e-05
000170 a4 e0 5a b8 ee ce 57 b8 3b 5a b9 b7 3b 69 16 37
       -5.2184463e-05 -5.1452713e-05 -2.2095735e-05 8.965198e-06
000180 dc 6b 5d b8 00 e3 70 b8 92 52 87 b6 90 92 28 b6
       -5.2790958e-05 -5.743187e-05 -4.032926e-06 -2.5119261e-06
000190 87 d7 65 37 34 41 de b8 78 2d 96 b7 f8 f8 dc b6
       1.3699645e-05 -0.0001059793 -1.7902566e-05 -6.5854947e-06
0001a0 d4 a9 da b6 8d f4 8d 37 67 54 fa 33 2a 22 58 b6
       -6.516677e-06 1.6922388e-05 1.1656885e-07 -3.2206394e-06
0001b0 c7 48 0d b7 a0 ca 9c b6 61 f6 20 37 16 6d 81 35
       -8.4212e-06 -4.672751e-06 9.594108e-06 9.642997e-07
0001c0 4a 36 ad b6 e0 9d d7 b6 90 bc 37 b8 6c b4 8a b8
       -5.162122e-06 -6.4258784e-06 -4.3806212e-05 -6.613959e-05
0001d0 2a dc 1b b8 00 3a 68 b5 7c f5 d9 b6 35 45 b4 38
       -3.7159924e-05 -8.6511136e-07 -6.495682e-06 8.59596e-05
0001e0 f7 b4 c3 b8 d6 36 dc b8 c7 b8 a7 b8 dc 13 72 37
       -9.332032e-05 -0.000105006315 -7.997598e-05 1.4428948e-05
0001f0 ac 1e 2b 39 94 1b 08 b9 da 70 1c b8 30 35 d2 37
       0.00016319257 -0.00012980244 -3.72984e-05 2.5058718e-05
000200 44 39 0d 39 56 43 93 37 4f 92 01 b9 5b 0c a2 b8
       0.00013468141 1.7555121e-05 -0.00012356903 -7.727063e-05
000210 36 78 38 39 c1 fe b1 b6 3f cc ee 37 6b 76 e0 36
       0.0001759239 -5.3046683e-06 2.846692e-05 6.689506e-06
000220 6b 28 78 b8 22 22 96 37 57 18 d6 36 bb b2 2e b8
       -5.916545e-05 1.7897288e-05 6.3805305e-06 -4.165129e-05
000230 3f 4c c4 38 a8 4d 04 39 40 0e c1 36 8d 2e e1 b8
       9.36021e-05 0.0001261743 5.753507e-06 -0.00010737507
000240 a2 50 a5 b8 f3 a0 8b b7 74 02 5d 37 89 3d 17 b7
       -7.882832e-05 -1.6645039e-05 1.3173198e-05 -9.014629e-06
000250 a4 34 46 b7 cc fc 85 37 97 2a 82 b7 7b d6 b3 b8
       -1.1813976e-05 1.5972553e-05 -1.551704e-05 -8.575335e-05
000260 9e 35 a2 38 99 90 eb 37 b8 2b 34 b6 44 ce 1c b9
       7.734749e-05 2.8081517e-05 -2.6847538e-06 -0.00014954159
000270 34 04 b1 38 5d f2 96 38 26 d0 15 37 2d 61 df b8
       8.4408006e-05 7.197701e-05 8.929555e-06 -0.00010651569
000280 42 0a 9e b7 58 e2 fc 38 3b e7 0f b7 82 08 a1 36
       -1.8839844e-05 0.00012058456 -8.577302e-06 4.7991643e-06
000290 17 e8 0d 36 81 d2 11 37 49 2f 36 37 39 6c 1f 36
       2.1145731e-06 8.691685e-06 1.0859055e-05 2.375584e-06
0002a0 f7 1d 69 b8 7d 88 10 37 7c 5b 0e 39 24 94 a4 38
       -5.5579436e-05 8.6148475e-06 0.00013576256 7.847723e-05
0002b0 30 b9 d4 b7 5e b2 25 b9 73 ab 36 b8 64 5b 09 b9
       -2.5358604e-05 -0.00015802073 -4.3551856e-05 -0.00013099384
0002c0 71 7b 85 35 8f 30 05 b8 a7 08 ce b8 1c 9c b0 b8
       9.945198e-07 -3.1754895e-05 -9.824457e-05 -8.4214116e-05
0002d0 a4 cc c1 b8 2d f5 50 38 5a 58 56 b6 1c a0 84 b8
       -9.2410744e-05 4.9819402e-05 -3.1939912e-06 -6.324073e-05
0002e0 5c a1 ee b8 54 ab b6 37 d3 d6 d3 37 b6 7c 92 37
       -0.0001137878 2.1775872e-05 2.5253195e-05 1.746263e-05
0002f0 ac bc 29 b9 13 77 2c b8 91 e9 68 38 0f 4c 26 36
       -0.00016187382 -4.1118892e-05 5.5530636e-05 2.47802e-06
000300 4f d4 57 b6 b2 51 fc 37 f1 f3 71 b5 ea d5 f4 b7
       -3.2161076e-06 3.0078783e-05 -9.013448e-07 -2.9186678e-05
000310 f6 42 1d 37 35 4a df b6 0e 52 82 b7 26 0b 8a 38
       9.37352e-06 -6.6545567e-06 -1.5535417e-05 6.582429e-05
000320 ce e9 53 b7 17 25 1b 38 a8 a7 58 b9 a6 87 39 39
       -1.2631017e-05 3.6989422e-05 -0.00020661822 0.00017693508
000330 0e a7 c5 39 fb 89 d6 b6 a0 fc 32 b7 c8 e4 c7 39
       0.00037699234 -6.39376e-06 -1.0668446e-05 0.00038126693
000340 d6 5e 91 39 64 74 c7 38 f0 c0 4d 39 ff 9e 4f b9
       0.00027727213 9.510739e-05 0.00019622198 -0.00019800289
000350 63 32 31 39 c9 8b 5c 39 94 fd b3 38 5f 46 c6 b8
       0.00016898806 0.00021032909 8.582618e-05 -9.4544834e-05
000360 58 c7 78 36 56 27 71 39 ac a2 1d 39 40 36 61 b7
       3.7070913e-06 0.00022998205 0.00015033287 -1.3423676e-05
000370 65 09 85 b4 c7 2d e6 b7 8f 24 b0 37 0f eb 6d 38
       -2.4780016e-07 -2.7439453e-05 2.0997859e-05 5.672412e-05
000380 70 18 99 b7 f7 d9 7f 37 02 d0 77 38 33 c8 fb b8
       -1.82504e-05 1.5249933e-05 5.908311e-05 -0.00012005903
000390 ec c2 dc b8 a0 f3 1f 37 39 8d 9f 39 fe 7f 38 39
       -0.000105267245 9.533862e-06 0.00030432062 0.00017595288
0003a0 44 da 37 b7 c1 e6 19 b8 b6 98 f9 b5 89 42 1a b7
       -1.0958469e-05 -3.669295e-05 -1.859639e-06 -9.194607e-06
0003b0 ca 45 f6 b7 18 e1 5a 36 1b c2 4e b7 1c 04 cf b7
       -2.9357983e-05 3.2615553e-06 -1.23237505e-05 -2.4678237e-05
0003c0 36 78 a1 b6 d8 69 6d b5 47 07 eb b6 14 54 b7 b7
       -4.8121683e-06 -8.8443403e-07 -7.004393e-06 -2.1854452e-05
0003d0 c2 cb 13 b7 f3 0b 39 b6 d8 e2 93 36 5e 6f 44 b7
       -8.809324e-06 -2.7574104e-06 4.4073495e-06 -1.170844e-05
0003e0 9b 06 ef b7 8a 71 15 b6 ec ce 82 36 7d a2 bf 35
       -2.8494096e-05 -2.2268819e-06 3.898391e-06 1.4277899e-06
0003f0 ec 52 03 b6 88 fa 8a 36 08 39 d2 b6 f2 74 18 b6
       -1.9568788e-06 4.141886e-06 -6.265127e-06 -2.2717836e-06
