timeSerise/lightning_logs/version_0/checkpoints/epoch=99-step=34200.ckpt (torch, 96027 bytes, 27 tensors)

lstm.weight_ih_l0 f4 [40, 17]
-0.0032414992 0.2179125 0.2725188 0.35722283 0.3881093 -0.0017660185 0.47162032 0.054728404
0.32360175 0.05635733 0.21417356 0.056460593 -0.1074991 0.18721037 0.1845839 -0.14446668
0.29321173 -0.29770616 0.008936964 0.31842086 -0.19036064 -0.03649328 -0.03704648 -0.10598997
-0.18316297 0.38914204 -0.028939124 -0.3364314 -0.10317694 -0.09633802 -0.26255015 -0.19780982
0.31881332 -0.299486 0.09179712 0.37979138 -0.16379958 -0.076100804 -0.23141713 -0.21798511
0.012788986 -0.3803579 0.023707727 -0.2386532 0.13746174 0.47050142 -0.119937025 0.025885586
0.27483863 -0.081103496 0.053581614 0.19513373 -0.08112995 0.21140538 -0.1289891 -0.2003556
0.35753176 -0.12297847 0.36818993 0.1315719 -0.14879695 -0.09375176 0.17703134 -0.2929633
-0.07471162 0.12085975 0.048641354 0.19912851 -0.07252097 -0.25606632 -0.26991472 0.23704587
0.02217449 -0.20252593 -0.021165304 0.39994067 0.4047125 -0.0125199985 0.14229667 -0.28382128
0.13106123 0.21521053 0.1587634 0.18564221 0.030674731 0.17480521 -0.019875769 0.15099691
0.027690664 -0.17045534 -0.22980447 -0.21994418 -0.018174417 -0.24689183 -0.057603218 -0.2341656
0.15546559 0.26381052 -0.14341474 -0.24559551 -0.097304456 0.20407917 -0.0057205637 -0.23446092
0.3031084 0.13578594 -0.16448861 -0.046439342 0.2452055 0.18268156 -0.2560077 -0.03287846
-0.050097093 -0.28440467 0.17597716 0.16682982 -0.09854335 0.16972771 0.24682057 0.4238967
-0.009888437 0.35207966 0.028374534 -0.12822704 0.30429414 -0.22204447 0.3920133 0.11466252
0.30085233 0.10436893 -0.03151996 0.09409255 0.12443989 -0.028083242 0.35700142 -0.24917708
0.13808914 0.24658364 -0.28314325 -0.27523243 0.21707188 0.11786401 -0.018046282 -0.12315935
-0.31595445 0.022530144 -0.22992131 0.27609366 0.056770157 0.03753689 0.20798777 0.04538207
-0.12207827 -0.2737761 0.12782021 -0.038984023 0.17229863 0.18376383 -0.13920891 0.170897
-0.17731173 -0.103922576 -0.0048323697 -0.17298073 -0.32253334 0.17053488 0.18531105 -0.0040065516
0.05249181 -0.1782147 0.03939636 0.0856972 -0.05001348 0.12626806 -0.05492818 0.13306642
0.34631515 -0.17028221 -0.08892256 0.23265387 0.13228509 -0.031128978 0.37277362 0.14097542
0.16644152 -0.10667516 0.057866618 -0.048234038 0.18604489 -0.0019612676 0.15195383 0.06345909
-0.16123548 -0.17250185 0.10104838 -0.41493124 0.21492748 -0.025692467 0.26168406 0.13622491
0.031773962 0.008182198 0.057976753 -0.4222271 -0.016672157 0.047390744 -0.17604458 -0.13797544
-0.38477927 0.14654872 -0.09602214 -0.4525505 -0.38007602 0.07275859 0.06660599 0.4973934
-0.28852186 -0.052850958 -0.14298904 0.3003716 -0.23653984 0.16828614 -0.39623615 -0.03136141
0.26359913 -0.24013956 0.1470761 -0.28672072 -0.21879853 0.0019580356 -0.41825986 0.30561802
0.32183772 0.0052155773 0.1175359 -0.2786033 -0.27940226 -0.25976315 0.104111366 -0.12838979
-0.029230345 0.0048423535 0.17891003 -0.086074725 -0.11161208 0.005600824 -0.27150702 0.060629793
0.10118111 -0.2980205 -0.20736608 -0.27413842 -0.26970407 0.0050323927 0.25119522 0.13912183
00000000: 556f 54bb 7424 5f3e 9687 8b3e e9e5 b63e
00000010: 43b6 c63e bf79 e7ba 3878 f13e e42a 603d
00000020: 21af a53e f2d6 663d 5050 5b3e 3943 673d
00000030: 7d28 dcbd 13b4 3f3e 9003 3d3e 13ef 13be
00000040: d91f 963e f16c 98be 586c 123c 0f08 a33e
00000050: e6ed 42be fa79 15bd 0dbe 17bd 4511 d9bd
00000060: 138f 3bbe a03d c73e be11 edbc bd40 acbe
00000070: 6e4e d3bd de4c c5bd f96c 86be a88e 4abe
00000080: 803b a33e 3b56 99be 2100 bc3d 0474 c23e
00000090: 14bb 27be bdda 9bbd 9df8 6cbe 7d37 5fbe
000000a0: e588 513c 45be c2be b536 c23c 8161 74be
000000b0: c5c2 0c3e 90e5 f03e 8ba1 f5bd 020e d43c
000000c0: a6b7 8c3e 9719 a6bd 6578 5b3d 23d1 473e
000000d0: 7627 a6bd a77a 583e b815 04be 052a 4dbe
000000e0: 670e b73e 23dc fbbd 6483 bc3e c9ba 063e
000000f0: 3a5e 18be ec00 c0bd b447 353e 49ff 95be
00000100: 6802 99bd 5185 f73d 283c 473d 58e8 4b3e
00000110: e085 94bd 201b 83be 4332 8abe 27bc 723e
00000120: 47a7 b53c f562 4fbe dc62 adbc 06c5 cc3e
00000130: 7a36 cf3e ae20 4dbc 38b6 113e 0651 91be
00000140: ea34 063e 2660 5c3e df92 223e fe18 3e3e
00000150: 9349 fb3c 2300 333e 82d2 a2bc ef9e 1a3e
00000160: 88d7 e23c d88b 2ebe dd51 6bbe 0c39 61be
00000170: 84e2 94bc 36d1 7cbe 5af1 6bbd 1bc9 6fbe
00000180: 5f32 1f3e 2c12 873e 50db 12be 647d 7bbe
00000190: 8f47 c7bd 21fa 503e 9173 bbbb 8616 70be
000001a0: 0631 9b3e 780b 0b3e b46f 28be 2e37 3ebd
000001b0: 2717 7b3e e010 3b3e 7113 83be 90ab 06bd
000001c0: 9c32 4dbd 7d9d 91be 5b33 343e 70d5 2a3e
000001d0: 19d1 c9bd 1acd 2d3e 88be 7c3e fd08 d93e
000001e0: 1c03 22bc c943 b43e b671 e83c f34d 03be
000001f0: 71cc 9b3e a05f 63be f8b5 c83e 2fd4 ea3d
00000200: 5109 9a3e 61bf d53d 131b 01bd 98b3 c03d
00000210: 57da fe3d d40e e6bc e4c8 b63e 4728 7fbe
00000220: 3d67 0d3e 6c80 7c3e 27f8 90be 44eb 8cbe
00000230: 1748 5e3e b062 f13d ccd5 93bc f83a fcbd
00000240: c8c4 a1be 2391 b83c 7e70 6bbe 265c 8d3e
00000250: d387 683d 48c0 193d bffa 543e 8de2 393d
00000260: 2c04 fabd 622c 8cbe 4de3 023e b6ad 1fbd
00000270: 0d6f 303e 962c 3c3e c88c 0ebe a0ff 2e3e
00000280: 3591 35be 5cd5 d4bd db58 9ebb dc21 31be
00000290: 1723 a5be b2a0 2e3e 2ec2 3d3e 6449 83bb
000002a0: a701 573d ea7d 36be 145e 213d 0382 af3d
000002b0: efda 4cbd 6a4c 013e 5ffc 60bd 9042 083e
000002c0: 3850 b13e 765e 2ebe 081d b6bd d13c 6e3e
000002d0: be75 073e 3302 ffbc 2fdc be3e dc5b 103e
000002e0: a56f 2a3e 8278 dabd 8c05 6d3d 0e91 45bd
000002f0: 8d82 3e3e 9c88 00bb c999 1b3e d7f6 813d
00000300: ea1a 25be 53a4 30be 74f2 ce3d de71 d4be
00000310: f315 5c3e 0279 d2bc 74fb 853e 8b7e 0b3e
00000320: 6a25 023d a00e 063c 0879 6d3d 272e d8be
00000330: 0c94 88bc cc1c 423d 0845 34be 6f49 0dbe
00000340: ca01 c5be de10 163e 41a7 c4bd b3b4 e7be
00000350: 5399 c2be 7502 953d b968 883d 59aa fe3e
00000360: 23b9 93be 3f7a 58bd b86b 12be 4eca 993e
00000370: 8037 72be 3453 2c3e 77df cabe d274 00bd
00000380: 77f6 863e 25e7 75be 1e9b 163e 0fcd 92be
00000390: b90c 60be 6352 003b 2826 d6be f779 9c3e
000003a0: eac7 a43e 6fe7 aa3b a9b6 f03d 17a5 8ebe
000003b0: d00d 8fbe adff 84be 5738 d53d 9d78 03be
000003c0: 7a74 efbc 9bac 9e3b 3134 373e f247 b0bd
000003d0: e094 e4bd 1e87 b73b f802 8bbe f256 783d
000003e0: 0b38 cf3d 2596 98be c657 54be df5b 8cbe
000003f0: a716 8abe c5e6 a43b a99c 803e f475 0e3e

lstm.weight_hh_l0 f4 [40, 10]
-0.24114236 0.21845706 0.040873054 0.059501983 -0.22137007 -0.28665233 0.10834334 0.041820224
0.08879929 -0.108636364 -0.32169154 -0.0811431 -0.3367084 -0.1483157 -0.15254165 -0.12448964
0.119041935 -0.15482593 0.06931593 0.27472124 0.256317 0.122574784 -0.19895972 -0.4816073
-0.48301846 0.061098196 -0.080437385 0.19737494 0.047541745 0.12323969 -0.034154173 0.07803354
-0.29634878 0.2005611 -0.013754197 -0.11981431 -0.24171439 0.22197764 0.030070843 -0.09771037
-0.23127776 0.01596167 -0.08467914 -0.21582825 0.08812954 -0.20890537 -0.10068416 0.3783859
-0.05522189 0.03512836 -0.13213108 0.22141473 -0.33028597 0.18544994 -0.03723986 -0.0866577
0.3608083 0.024280638 0.27970195 -0.28839236 -0.08318455 -0.2770229 0.09674676 -0.14485501
0.19987418 0.005817909 -0.14290443 0.25995475 -0.28891048 0.03298447 -0.12736233 -0.0984522
0.16679466 -0.2958108 0.13005444 -0.10527598 -0.06913578 -0.01304474 -0.2748994 -0.084136285
-0.15520462 -0.06908762 -0.05273095 -0.094569035 0.0264293 0.15266263 -0.25423592 -0.17342779
-0.30661428 0.2174865 -0.33101654 -0.20473117 0.28803802 0.11022725 -0.34839085 -0.0016564142
0.06318761 0.2017771 -0.12569112 -0.48650673 0.24828573 -0.2879561 0.18227527 -0.18107463
-0.099861234 -0.15647572 0.03348055 -0.4010217 0.16350193 -0.20964964 0.26081893 -0.031134006
0.28163594 -0.15279506 0.08183777 -0.111628056 -0.29099584 0.27900383 0.26484716 0.27464685
0.46681127 -0.26339376 0.3702643 -0.014947923 -0.14288682 0.060516782 -0.4513525 -0.19133186
0.19679333 0.16648088 0.23367734 0.19678777 -0.2672649 -0.2597104 0.21670741 -0.1359987
-0.43183297 0.2032509 -0.2290845 -0.03564313 0.04639996 0.18211477 0.10831994 -0.08790747
0.19010043 -0.19659711 -0.32334316 -0.1347067 0.16545464 0.29174557 0.2083391 0.057604134
-0.09313083 -0.14070624 -0.13898675 -0.23165047 -0.17924829 -0.25933757 -0.110075176 -0.34976584
-0.039085124 0.30331004 0.1167163 -0.18993397 -0.2672228 -0.15716137 0.098598816 -0.028687585
0.22608109 -0.1850666 0.09322097 0.17776911 -0.028998367 -0.30352774 0.23143187 0.12416624
0.15369476 0.24710861 -0.10220997 0.19203374 0.08570262 0.1257371 0.046362657 0.16831128
-0.17938638 -0.107716255 -0.23995703 0.06921605 0.15108454 0.16703019 0.21600246 -0.19923973
0.27526227 -0.13695171 -0.191595 0.25835693 0.32403877 -0.28869858 0.21382794 -0.2623692
-0.31683064 -0.009100232 -0.21078046 -0.29272717 0.12003549 0.21671896 -0.058073472 0.3178276
0.0820041 -0.026381737 -0.3401692 -0.0038904327 0.17839397 0.22090557 0.29537243 0.2832455
-0.2342921 -0.0019046622 -0.15801635 0.18346809 -0.18670155 0.19363052 -0.055651993 -0.042117156
0.004000304 0.06704365 -0.08035026 0.29306632 -0.008354549 0.3068856 0.04654397 0.18294646
-0.035335246 0.15184894 0.1308121 0.1389849 0.19532439 0.074236594 -0.31510982 0.23741503
-0.032428786 -0.19244415 0.05488305 0.21065481 -0.1918858 0.264437 0.30303207 -0.118883245
0.1884672 -0.27645034 0.12822437 -0.23961776 0.06436198 -0.20301044 0.08135253 -0.3338413
00000000: 06ee 76be 35b3 5f3e 816a 273d 5ab8 733d
00000010: d6ae 62be 18c4 92be 1de3 dd3d af4b 2b3d
00000020: 67dc b53d be7c debd c1b4 a4be 5b2e a6bd
00000030: 0b65 acbe 12e0 17be e133 1cbe 6df4 febd
00000040: 42cc f33d b08a 1ebe 83f5 8d3d 43a8 8c3e
00000050: fb3b 833e 7d08 fb3d 19bc 4bbe 3b95 f6be
00000060: 324e f7be 1a42 7a3d 5bbc a4bd a81c 4a3e
00000070: 22bb 423d 1765 fc3d 3fe5 0bbd 0cd0 9f3d
00000080: 07bb 97be e45f 4d3e 4959 61bc 3461 f5bd
00000090: fa83 77be 1b4e 633e 2157 f63c 601c c8bd
000000a0: 14d4 6cbe 0cc2 823c 426c adbd 1502 5dbe
000000b0: 437d b43d 4aeb 55be 7f33 cebd ccbb c13e
000000c0: 5930 62bd c1e2 0f3d 5f4d 07be 8bba 623e
000000d0: 3e1b a9be 97e6 3d3e d388 18bd 9879 b1bd
000000e0: debb b83e 30e8 c63c 1835 8f3e 2aa8 93be
000000f0: a95c aabd f2d5 8dbe 2a23 c63d df54 14be
00000100: d1ab 4c3e 28a4 be3b 8a55 12be ca18 853e
00000110: 13ec 93be b91a 073d 456b 02be 4fa1 c9bd
00000120: 38cc 2a3e 8374 97be fe2c 053e ef9a d7bd
00000130: 0f97 8dbd 9bb9 55bc 9dbf 8cbe a54f acbd
00000140: f6ed 1ebe cf7d 8dbd 69fc 57bd 69ad c1bd
00000150: 4282 d83c 9853 1c3e 362b 82be 0e97 31be
00000160: 8cfc 9cbe c8b4 5e3e 007b a9be 0ca5 51be
00000170: b879 933e d3be e13d 4960 b2be 0a1c d9ba
00000180: 8168 813d a89e 4e3e 2cb5 00be 6917 f9be
00000190: 9d3e 7e3e fb6e 93be 5ea6 3a3e a16b 39be
000001a0: 0c84 ccbd 2c3b 20be e722 093d b752 cdbe
000001b0: 0d6d 273e 65ae 56be 0f8a 853e be0c ffbc
000001c0: 9632 903e 4f76 1cbe 909a a73d 409d e4bd
000001d0: 68fd 94be 97d9 8e3e 0c9a 873e 839e 8c3e
000001e0: e301 ef3e 8cdb 86be 4893 bd3e 22e8 74bc
000001f0: ec50 12be 72e0 773d ad17 e7be 80ec 43be
00000200: 3184 493e f779 2a3e 1d49 6f3e bc82 493e
00000210: f2d6 88be c3f8 84be 8ce8 5d3e 3e43 0bbe
00000220: 3619 ddbe 0121 503e 2195 6abe 88fe 11bd
00000230: e20d 3e3d 4b7c 3a3e d8d6 dd3d d508 b4bd
00000240: b0a9 423e c150 49be 3c8d a5be 8ef0 09be
00000250: f16c 293e ad5f 953e d856 553e 50f2 6b3d
00000260: 60bb bebd 4c15 10be 8b52 0ebe c835 6dbe
00000270: dd8c 37be e5c7 84be 186f e1bd 8214 b3be
00000280: b917 20bd 744b 9b3e f508 ef3d 0d7e 42be
00000290: 6dd1 88be e9ee 20be 2dee c93d 3a02 ebbc
000002a0: cd81 673e 1982 3dbe a3ea be3d 1b09 363e
000002b0: fc8d edbc fd67 9bbe 7afc 6c3e df4a fe3d
000002c0: 2962 1d3e 0a0a 7d3e 7653 d1bd 7ea4 443e
000002d0: db84 af3d 3ac1 003e c5e6 3d3d cb59 2c3e
000002e0: 10b1 37be 579a dcbd 4cb7 75be 25c1 8d3d
000002f0: e8b5 1a3e f609 2b3e c02f 5d3e 8005 4cbe
00000300: 2def 8c3e 123d 0cbe 7b31 44be 5c47 843e
00000310: 69e8 a53e 4dd0 93be b6f5 5a3e 4155 86be
00000320: a037 a2be 2419 15bc d5d6 57be 56e0 95be
00000330: 2bd5 f53d 93eb 5d3e 73de 6dbd 4dba a23e
00000340: c4f1 a73d 831e d8bc a82a aebe a1f6 7ebb
00000350: e9ac 363e 1235 623e 0e3b 973e 8e05 913e
00000360: 45ea 6fbe dca5 f9ba 0acf 21be 0fdf 3b3e
00000370: b12e 3fbe 1447 463e 58f3 63bd 0a83 2cbd
00000380: fb14 833b 2e4e 893d ad8e a4bd ca0c 963e
00000390: 85e1 08bc 1c20 9d3e e4a4 3e3d 5156 3b3e
000003a0: b1bb 10bd 4a7e 1b3e 9bf3 053e 0f52 0e3e
000003b0: 1e03 483e 5b09 983d 1356 a1be ed1c 733e
000003c0: 0cd4 04bd 1410 45be 0dcd 603d e5b5 573e
000003d0: b67d 44be 4964 873e 0527 9b3e 0f79 f3bd
000003e0: 8cfd 403e e68a 8dbe 404d 033e 5c5e 75be
000003f0: 37d0 833d f8e1 4fbe 289c a63d 3fed aabe

lstm.bias_ih_l0 f4 [40]
0.34351006 0.15450753 0.33361828 0.12240737 -0.18327798 -0.13777715 -0.022388384 0.1141873
-0.26617542 0.019061835 -0.15837647 0.1807118 -0.083701886 0.2573408 0.14593352 0.060494233
0.12580524 0.2829367 -0.108896926 -0.066582106 0.07530024 0.016654683 -0.019598626 0.02974497
0.27655238 -0.22044392 0.14249822 -0.027602911 -0.09218516 -0.0042558266 0.007544183 0.13820249
-0.15977556 0.2524918 -0.13471358 0.12469042 -0.117417224 0.35550863 -0.13807602 0.42250186
00000000: 8de0 af3e 3937 1e3e 04d0 aa3e b7b0 fa3d
00000010: 39ad 3bbe 7415 0dbe d867 b7bc 08db e93d
00000020: 2548 88be 9127 9c3c 712d 22be 840c 393e
00000030: e56b abbd 2cc2 833e 996f 153e cdc8 773d
00000040: 17d3 003e 14dd 903e 5a05 dfbd 335c 88bd
00000050: 0337 9a3d 676f 883c 4c8d a0bc b9ab f33c
00000060: 4698 8d3e 0dbc 61be 0eeb 113e 801f e2bc
00000070: 93cb bcbd 7674 8bbb 3235 f73b f484 0d3e
00000080: 349c 23be 9b46 813e 5bf2 09be b15d ff3d
00000090: 7178 f0bd 3a05 b63e cd63 0dbe 2a52 d83e

lstm.bias_hh_l0 f4 [40]
-0.14897606 0.019363549 -0.2198132 0.20374574 -0.08776718 0.09363473 0.0658407 -0.18752663
-0.2747737 0.07978095 0.0016532852 0.26781473 -0.12946327 0.18398634 0.029913906 0.024301106
-0.099524446 -0.13393168 0.22730523 0.07119454 -0.21191652 0.29294622 -0.1619012 -0.03961136
-0.04652824 -0.0666116 -0.07307444 -0.2759091 -0.046017475 -0.31718218 -0.23527607 -0.2641074
0.3887923 -0.017649993 -0.22016577 -0.1104166 -0.21680641 0.22979178 -0.20703556 -0.021684522
00000000: 2e8d 18be 4ea0 9e3c b616 61be b9a2 503e
00000010: 47bf b3bd 91c3 bf3d 7dd7 863d fb06 40be
00000020: 23af 8cbe 3264 a33d 0cb3 d83a 031f 893e
00000030: 0592 04be ea66 3c3e 020e f53c 1d13 c73c
00000040: 79d3 cbbd 6325 09be b4c2 683e 71ce 913d
00000050: a500 59be 0cfd 953e 6ec9 25be 853f 22bd
00000060: 6594 3ebd aa6b 88bd 0da8 95bd f543 8dbe
00000070: d27c 3cbd b465 a2be 36ec 70be 1639 87be
00000080: c90f c73e b896 90bc 2373 61be 1922 e2bd
00000090: 8002 5ebe 894e 6b3e 2101 54be bda3 b1bc

lstm.weight_ih_l1 f4 [40, 10]
-0.15653943 0.12137046 0.1860171 0.02477217 -0.35387906 -0.016875206 -0.19915643 0.027450372
-0.2502364 -0.021029891 -0.24037515 -0.04606677 0.2406276 0.17497523 -0.23974966 -0.27892807
-0.16401473 0.026524618 -0.116994694 -0.044455796 -0.35233793 -0.24050434 0.059478536 0.37256503
0.15728916 -0.12596877 -0.3071534 0.16833761 0.11321759 0.33893126 -0.24826781 -0.22722313
-0.05115437 0.2177047 -0.097431876 -0.21435891 0.3956558 -0.21069662 0.43321213 -0.14276959
-0.3106992 -0.08773135 0.17620443 0.024512978 -0.13247775 -0.35682225 0.17272656 -0.15020895
-0.16090533 -0.2937422 -0.17482586 0.08225268 -0.23373511 0.34583896 -0.09467952 -0.36100528
0.3495982 -0.08507257 0.083735235 -0.29947937 -0.18579248 0.009099027 -0.36738008 -0.11709903
-0.09080001 0.19786619 0.09598585 -0.24948093 0.30239493 0.2245458 0.33166245 0.39996544
0.09299033 0.1834917 -0.23700725 -0.36969316 -0.11357878 0.14850219 0.059269015 -0.12361293
0.25183612 0.018350968 0.059432264 -0.10970506 -0.19482023 -0.23245214 -0.15456653 -0.1837359
-0.1889326 0.31804818 -0.043696303 -0.19754568 0.1799831 -0.1310894 0.121040575 -0.31984895
0.18976216 0.21660484 0.19967823 -0.40094015 0.2469841 0.098284036 -0.089777306 0.027625244
0.10411122 -0.014282237 -0.12847006 0.1297613 -0.21679218 0.10847575 0.2518171 -0.1570575
0.27887493 0.38485974 0.15750325 0.10655304 -0.050068684 -0.09749004 0.13422589 0.09610225
-0.12857041 -0.07145489 0.24895741 0.12807703 0.3526442 0.099808484 0.14940114 0.34881598
-0.24035776 0.10993449 0.17390595 -0.16821222 0.21577829 0.19285518 -0.1832233 0.22436221
-0.13381073 0.25500908 0.0543485 -0.07021504 -0.13445881 0.2475627 0.19589995 -0.27757758
-0.24983072 -0.17288265 -0.42210808 0.2669804 0.044086467 -0.20317408 -0.21467713 -0.12849966
-0.11725993 0.38181123 0.2568286 0.02737446 -0.22283274 -0.028823722 0.0675926 0.19089043
0.16394635 -0.32771975 -0.014053645 0.13422126 0.2856975 0.20330034 0.16081116 -0.047660157
-0.045920942 0.13551274 -0.0742727 0.10290247 -0.007104167 0.26364312 0.0143232215 -0.16337657
-0.06720782 -0.1473883 0.24773024 0.18860893 0.2814487 0.14697106 -0.014240717 0.33228278
-0.22621542 0.026325483 -0.24302207 -0.008886489 0.3031484 -0.06750075 0.13542928 -0.32633054
0.27352306 0.24954848 -0.24033576 0.13193919 -0.2480741 -0.08523117 0.16651885 -0.21334867
0.3019404 0.22849004 0.13194321 -0.26831838 0.03091704 0.2022157 -0.0031798503 -0.21983214
-0.18689305 0.05822935 -0.23623763 0.22523242 -0.39123902 0.02426076 0.17032099 0.41825005
0.03324135 -0.12913959 -0.003778365 0.024200782 0.07303796 0.03439076 0.110203594 -0.057365004
-0.17169695 -0.06618578 0.14474022 -0.2635533 -0.24579798 -0.08885678 -0.019891711 0.052742813
-0.2828864 -0.26195505 -0.24731758 0.24285401 0.22339138 -0.04766855 -0.2911196 -0.398046
-0.07664947 0.18755102 -0.27054816 0.14149508 -0.18478292 -0.22810805 -0.18842545 0.1638389
-0.0736369 -0.34142345 0.1018847 -0.053437326 -0.09489427 -0.38333544 0.2569723 -0.06580688
00000000: df4b 20be 1391 f83d 447b 3e3e 02ef ca3c
00000010: a32f b5be df3d 8abc aaef 4bbe 9adf e03c
00000020: fc1e 80be e146 acbc e724 76be 82b0 3cbd
00000030: 1567 763e b52c 333e ef80 75be a9cf 8ebe
00000040: 7af3 27be 284a d93c ea9a efbd 4817 36bd
00000050: a365 b4be c546 76be c49f 733d d8c0 be3e
00000060: 6910 213e f5fd 00be 3643 9dbe b260 2c3e
00000070: a0de e73d 6688 ad3e eb39 7ebe 2ead 68be
00000080: 3f87 51bd fbed 5e3e 5d8a c7bd e780 5bbe
00000090: 6693 ca3e dbc0 57be fbcd dd3e 3132 12be
000000a0: f713 9fbe 7eac b3bd ef6e 343e 71cf c83c
000000b0: 3fa8 07be 68b1 b6be 3bdf 303e 60d0 19be
000000c0: 5ec4 24be 6165 96be 8d05 33be 1874 a83d
000000d0: 4258 6fbe ce11 b13e 56e7 c1bd afd5 b8be
000000e0: 89fe b23e 873a aebd 617d ab3d 5c55 99be
000000f0: 6240 3ebe 1614 153c 3e19 bcbe 9ed1 efbd
00000100: 5bf5 b9bd 6f9d 4a3e 3b94 c43d ee77 7fbe
00000110: 82d3 9a3e 56ef 653e a9cf a93e 45c8 cc3e
00000120: b771 be3d 40e5 3b3e 07b2 72be 6c48 bdbe
00000130: fe9b e8bd f510 183e 11c4 723d c728 fdbd
00000140: aaf0 803e c554 963c 3f6f 733d 0cad e0bd
00000150: f47e 47be ef07 6ebe b046 1ebe 4425 3cbe
00000160: 8c77 41be 36d7 a23e e5fa 32bd 6a49 4abe
00000170: 7d4d 383e 4d3c 06be 1fe4 f73d 3ec3 a3be
00000180: 0351 423e a9cd 5d3e 7378 4c3e 0748 cdbe
00000190: 66e9 7c3e 2449 c93d 2add b7bd 564e e23c
000001a0: 4338 d53d 0b00 6abc a88d 03be 25e0 043e
000001b0: c5fe 5dbe 8928 de3d 2cee 803e aed3 20be
000001c0: b2c8 8e3e 560c c53e 8848 213e 7b38 da3d
000001d0: d214 4dbd dca8 c7bd 8372 093e 42d1 c43d
000001e0: f6a7 03be f156 92bd b1ee 7e3e a026 033e
000001f0: c88d b43e 6468 cc3d 9dfc 183e 0298 b23e
00000200: 5820 76be 5525 e13d 6714 323e d33f 2cbe
00000210: fcf4 5c3e d47b 453e e49e 3bbe 35bf 653e
00000220: ae05 09be 8d90 823e 889c 5e3d e7cc 8fbd
00000230: 92af 09be 1481 7d3e ff99 483e a61e 8ebe
00000240: a0d3 7fbe 2608 31be 8d1e d8be a8b1 883e
00000250: 0394 343d de0c 50be 52d4 5bbe 6a95 03be
00000260: f925 f0bd c37c c33e 0a7f 833e 6740 e03c
00000270: 442e 64be ba1f ecbc fd6d 8a3d c878 433e
00000280: 8de1 273e e2ca a7be 4241 66bc 4c71 093e
00000290: f146 923e f72d 503e aeab 243e 4c37 43bd
000002a0: 9917 3cbd dac3 0a3e 491c 98bd 88be d23d
000002b0: 12ca e8bb 3bfc 863e f2ab 6a3c 304c 27be
000002c0: 41a4 89bd f5ec 16be ffac 7d3e b322 413e
000002d0: 0b1a 903e 957f 163e e551 69bc f820 aa3e
000002e0: 04a5 67be 8aa8 d73c c7da 78be a398 11bc
000002f0: 4436 9b3e d53d 8abd f9ad 0a3e cc14 a7be
00000300: 370b 8c3e a389 7f3e 941a 76be 111b 073e
00000310: 2307 7ebe ae8d aebd eb83 2a3e 1378 5abe
00000320: ef97 9a3e 4bf9 693e 1f1c 073e 0761 89be
00000330: bb45 fd3c a211 4f3e 0965 50bb ad1b 61be
00000340: e460 3fbe e681 6e3d 47e8 71be 54a3 663e
00000350: 7b50 c8be 80be c63c a068 2e3e df24 d63e
00000360: 1528 083d 2b3d 04be 729e 77bb b840 c63c
00000370: ed94 953d 53dd 0c3d 6cb2 e13d 91f7 6abd
00000380: 53d1 2fbe 698c 87bd c836 143e 75f0 86be
00000390: 77b2 7bbe 8bfa b5bd f1f3 a2bc d908 583d
000003a0: 7cd6 90be f91e 86be d240 7dbe b9ae 783e
000003b0: b6c0 643e 1940 43bd a10d 95be afcc cbbe
000003c0: 66fa 9cbd 600d 403e 4a85 8abe 16e4 103e
000003d0: bc37 3dbe 2895 69be 9af2 40be 62c5 273e
000003e0: f1ce 96bd 0ecf aebe eda8 d03d 19e1 5abd
000003f0: ed57 c2bd 8b44 c4be e091 833e c2c5 86bd

lstm.weight_hh_l1 f4 [40, 10]
-0.2251778 0.120318994 -0.025461024 -0.24760142 -0.116489425 0.2739749 -0.25661305 -0.009273567
0.17413197 -0.060909525 0.22670738 0.22879922 -0.2994894 0.13766608 0.36347464 -0.4200508
0.12476345 -0.11050621 0.16650042 0.40477663 0.016430715 0.15945746 0.10833673 0.14377287
0.13242143 -0.23204455 0.30138278 -0.28801996 0.1141314 -0.0045049805 0.078479834 -0.03575699
-0.040683057 0.006549125 -0.06339972 -0.39959714 0.114637315 0.4427434 -0.20065852 -0.18657455
0.06339565 -0.00057547254 -0.0682424 0.028630748 0.0036444839 -0.3646119 0.083879754 0.2769421
0.24014165 -0.22904272 -0.14702731 0.33104414 -0.19392554 -0.1147766 -0.12748498 -0.019437294
0.091785885 -0.17148162 -0.03756761 0.17211348 -0.20019004 0.0603342 -0.08432311 -0.0058373567
-0.14693552 0.1565055 -0.03333115 0.23793629 -0.11025181 -0.030059842 0.06711223 0.08368073
0.045578774 -0.07688968 -0.17839542 0.13560545 -0.35213438 0.2937036 -0.082879156 0.21625257
-0.15808721 -0.16798481 -0.07529776 -0.021137783 -0.173964 0.16087557 0.15281595 0.253939
0.28971645 -0.0069738026 -0.036105867 -0.09169775 -0.13794833 0.18566203 0.078799196 -0.4577056
-0.38053754 -0.11351513 -0.3428822 -0.21340902 0.013329901 0.09638004 0.081333324 -0.10695385
0.16164564 0.4234312 0.17081806 -0.31318593 0.063887 0.058338083 -0.140158 -0.14262483
-0.19564371 0.07183739 0.3363515 0.17650421 -0.05238626 -0.28525463 -0.15316886 0.31787324
-0.23868117 -0.034102198 0.06749682 -0.17956269 -0.024362171 0.10427169 0.28627333 0.30983642
0.34184477 0.18453111 -0.2330079 -0.033768967 0.3350779 0.058950793 0.038575184 0.04892328
0.03253367 -0.12117685 -0.19611469 0.026488157 -0.0944468 -0.14010464 -0.1316699 -0.14937943
0.07296707 0.14669053 0.3239285 -0.10372982 0.21665393 0.04776037 -0.45894748 -0.037798498
0.19793038 0.063687585 0.10767502 -0.37751007 -0.066179335 -0.22548138 0.11849646 0.044511586
0.13484614 -0.019492952 0.14166144 -0.096606076 -0.30653808 0.22698925 0.2542147 -0.18342954
0.3225127 0.12749727 -0.03551143 0.06476892 0.24788162 0.35505077 -0.41502324 -0.10914343
0.09343823 -0.0830553 -0.20027457 0.30808392 0.1174623 -0.18269543 0.18967424 -0.006341036
0.3342858 -0.14273115 0.1747353 -0.052343387 0.26256225 -0.2667389 -0.28612226 0.16861413
0.20896725 -0.19216512 0.37232313 -0.44977897 0.04820386 -0.15621585 -0.113762066 0.039378062
-0.25112054 -0.30115694 0.0886504 -0.023489345 0.28001902 -0.120073915 -0.20136155 0.24582408
0.0025292458 -0.18676364 -0.010013948 0.20659705 -0.057912245 0.03189288 -0.17543158 0.2801952
0.16845985 -0.17287193 -0.027692316 0.2645926 -0.20847887 -0.28425363 -0.2528964 0.08281838
0.18127297 0.1634881 0.17075531 -0.15687227 -0.25444883 0.20542377 0.07769332 -0.13514233
0.1843642 -0.3541063 -0.33362183 -0.04690698 0.24710499 0.03767768 0.22776718 0.25668314
-0.019816363 0.28524503 0.27290457 0.122363284 0.26637924 0.27495438 -0.07818323 0.10622957
0.30970514 -0.13738592 0.12074661 -0.08841755 0.086497426 -0.2005183 0.07621998 0.21848516
00000000: 0295 66be ce69 f63d a393 d0bc 3a8b 7dbe
00000010: 0292 eebd 7046 8c3e c962 83be 29f0 17bc
00000020: a74f 323e 447c 79bd fb25 683e 584a 6a3e
00000030: ad56 99be 56f8 0c3e 5919 ba3e e610 d7be
00000040: fb83 ff3d 1451 e2bd 167f 2a3e e23e cf3e
00000050: b599 863c d148 233e a6df dd3d 3239 133e
00000060: 7c99 073e 169d 6dbe d84e 9a3e 5a77 93be
00000070: b9bd e93d 849e 93bb 09ba a03d ec75 12bd
00000080: 47a3 26bd 0b9a d63b b6d7 81bd ff97 ccbe
00000090: f8c6 ea3d 43af e23e 6d79 4dbe 660d 3fbe
000000a0: 94d5 813d 4fdb 16ba acc2 8bbd 088b ea3c
000000b0: 4bd8 6e3b 69ae babe 26c9 ab3d 5bcb 8d3e
000000c0: b1e7 753e 2d8a 6abe 548e 16be 9e7e a93e
000000d0: 6b94 46be fe0f ebbd 6c8b 02be f63a 9fbc
000000e0: 3dfa bb3d e198 2fbe 7fe0 19bd 843e 303e
000000f0: 9efe 4cbe fe20 773d 98b1 acbd 4c47 bfbb
00000100: 4476 16be fa42 203e 3e86 08bd 92a5 733e
00000110: b3cb e1bd 0f40 f6bc 2372 893d cd60 ab3d
00000120: cfb0 3a3d 5678 9dbd 4aad 36be 28dc 0a3e
00000130: f54a b4be 5160 963e 8cbc a9bd 5071 5d3e
00000140: 9de1 21be 3604 2cbe b635 9abd 2529 adbc
00000150: 9e23 32be 91bc 243e c97b 1c3e 4b04 823e
00000160: b755 943e 7f84 e4bb bfe3 13bd 08cc bbbd
00000170: 5442 0dbe 301e 3e3e 7961 a13d 6358 eabe
00000180: d1d5 c2be 9f7a e8bd 418e afbe e587 5abe
00000190: a865 5a3c e662 c53d 1692 a63d 9f0a dbbd
000001a0: 6f86 253e f9cb d83e eeea 2e3e e859 a0be
000001b0: 30d7 823d eaf3 6e3d 9485 0fbe 3e0c 12be
000001c0: d356 48be 7b1f 933d 4436 ac3e 85bd 343e
000001d0: fa92 56bd e50c 92be 4cd8 1cbe 48c0 a23e
000001e0: d668 74be bfae 0bbd c63b 8a3d 48df 37be
000001f0: 2d93 c7bc 658c d53d 6b92 923e e1a2 9e3e
00000200: 4706 af3e b9f5 3c3e 9f99 6ebe 5451 0abd
00000210: 558f ab3e 6376 713d 0301 1e3d c763 483d
00000220: 0742 053d 912b f8bd 4ad2 48be b1fd d83c
00000230: 536d c1bd 9777 0fbe 79d4 06be ecf6 18be
00000240: c26f 953d 0b36 163e f5d9 a53e 4d70 d4bd
00000250: 87da 5d3e 61a0 433d 2afb eabe 99d2 1abd
00000260: 43ae 4a3e a36e 823d b984 dc3d 0049 c1be
00000270: 0889 87bd 97e4 66be 46ae f23d c851 363d
00000280: 1b15 0a3e afaf 9fbc b20f 113e 68d9 c5bd
00000290: 8ff2 9cbe df6f 683e 6e28 823e f4d4 3bbe
000002a0: 6220 a53e a58e 023e 6f74 11bd 91a5 843d
000002b0: aed4 7d3e 37c9 b53e ed7d d4be 9786 dfbd
000002c0: 8b5c bf3d e618 aabd c714 4dbe 2dbd 9d3e
000002d0: 1390 f03d 8314 3bbe f739 423e 77c8 cfbb
000002e0: 8227 ab3e 1d28 12be cfed 323e 0566 56bd
000002f0: 8f6e 863e 0092 88be 9e7e 92be 2fa9 2c3e
00000300: 83fb 553e efc6 44be 23a1 be3e 6e49 e6be
00000310: 6971 453d 0cf7 1fbe 16fc e8bd e44a 213d
00000320: df92 80be 3e31 9abe 578e b53d ba6c c0bc
00000330: a75e 8f3e 50e9 f5bd b931 4ebe 4fb9 7b3e
00000340: b4c1 253b f83e 3fbe 8b11 24bc 2d8e 533e
00000350: 6435 6dbd 1ca2 023d 56a4 33be bf75 8f3e
00000360: bd80 2c3e 5705 31be ffda e2bc ae78 873e
00000370: 7c7b 55be b189 91be a37b 81be af9c a93d
00000380: 9f9f 393e 6d69 273e 7bda 2e3e 20a3 20be
00000390: 1e47 82be 9c5a 523e ad1d 9f3d c062 0abe
000003a0: f8c9 3c3e 6c4d b5be 7bd0 aabe 8921 40bd
000003b0: 1709 7d3e e953 1a3d cd3b 693e f96b 833e
000003c0: ed55 a2bc a30b 923e 26ba 8b3e 9a99 fa3d
000003d0: dc62 883e d2c6 8c3e 871e a0bd e48e d93d
000003e0: ac91 9e3e e5ae 0cbe 004a f73d 4314 b5bd
000003f0: 9025 b13d ab54 4dbe 3919 9c3d 93ba 5f3e

lstm.bias_ih_l1 f4 [40]
0.22457203 -0.07498941 -0.009215383 -0.15710476 -0.2750804 -0.076890334 -0.14496364 0.4183827
0.09565106 0.13849255 -0.19602062 -0.24565598 -0.10124257 0.112523824 -0.049773045 -0.12097628
-0.18251963 0.08933736 -0.27000087 -0.2914392 0.25718248 -0.000116829826 -0.21810669 -0.06769724
0.24509452 -0.18049443 0.13443217 0.25891742 -0.109599225 -0.0126316 -0.19651578 0.17151698
0.11357403 0.12146019 -0.023884593 -0.021466112 0.19329016 0.28234574 -0.1418344 0.27937987
00000000: 36f6 653e 0c94 99bd 1efc 16bc 12e0 20be
00000010: 57d7 8cbe ae78 9dbd 5971 14be 4236 d63e
00000020: b4e4 c33d fed0 0d3e a1b9 48be 3e8d 7bbe
00000030: 4458 cfbd e472 e63d d2de 4bbd 69c2 f7bd
00000040: 6de6 3abe 81f6 b63d 8e3d 8abe 8537 95be
00000050: 6cad 833e 8902 f5b8 5c57 5fbe daa4 8abd
00000060: 0ffa 7a3e 88d3 38be 96a8 093e d390 843e
00000070: 8f75 e0bd c5f4 4ebc 6f3b 49be 26a2 2f3e
00000080: 8099 e83d 1fc0 f83d 9fa9 c3bc b3d9 afbc
00000090: dbed 453e 9f8f 903e 093d 11be e10a 8f3e

lstm.bias_hh_l1 f4 [40]
0.14636084 -0.118762136 -0.216615 0.32946187 0.31441495 0.3481053 0.11187594 0.0061602467
0.21766555 0.04123013 0.25099215 -0.079072945 -0.29158407 -0.1414392 -0.046918474 -0.105619766
-0.13749631 0.22661242 0.16316222 0.23045005 -0.27346507 0.15559871 0.061346125 0.065947965
-0.3152047 0.16122344 -0.23784587 -0.23100069 0.08297727 0.05857705 0.012637189 0.081256144
0.20469308 -0.2575319 0.08049609 -0.14707768 0.22164242 -0.09904612 0.2338305 0.12281037
00000000: 9edf 153e 9039 f3bd 53d0 5dbe 3aaf a83e
00000010: fffa a03e dc3a b23e 361f e53d e5db c93b
00000020: b8e3 5e3e ede0 283d 0b82 803e fff0 a1bd
00000030: 824a 95be 70d5 10be 962d 40bd 2d4f d8bd
00000040: d5cb 0cbe 160d 683e ff13 273e 19fb 6b3e
00000050: 9d03 8cbe 4555 1f3e 1346 7b3d ba0f 873d
00000060: 8362 a1be c217 253e de8d 73be 728b 6cbe
00000070: fdef a93d 7dee 6f3d 360c 4f3c 9f69 a63d
00000080: 109b 513e 39db 83be 22db a43d 889b 16be
00000090: 3bf6 623e b1d8 cabd 4371 6f3e 0184 fb3d

fc.weight f4 [1, 4800]
0.052662216 0.0036825214 -0.037138447 -0.025935456 -0.081004806 0.05985116 -0.005287522 -0.0755325
-0.032499865 0.07023077 0.03685868 0.021246122 -0.012794793 0.01833659 -0.063638955 0.0628056
-0.012765911 -0.03526438 -0.010278109 0.031491898 0.04486606 0.025930954 0.006553012 7.302988e-05
-0.027006913 -0.012870176 -0.01450506 0.0068288334 -0.0036695434 0.028495314 0.06623347 0.037657436
-0.008384095 -0.002227097 -0.004121507 -0.04343841 -0.026842818 0.02062245 -0.01707728 0.013296977
0.03498716 0.019897291 -0.010921388 -0.0022764958 -0.024483578 -0.023401996 -0.0069458457 0.03686648
-0.005849706 0.005083368 0.043415274 -0.011825058 -0.0006585694 -0.01691903 -0.0075175688 -0.04635133
-0.005655123 0.030613981 -0.02017838 -5.7293448e-05 0.023816276 -0.014858842 0.0027875802 -0.031535197
-0.015100411 -0.042864174 0.0075411373 0.032370962 -0.001584897 -0.019641297 0.030311026 0.0077565447
0.0010387151 0.005874929 -0.026232585 -0.024068186 -0.0014969157 0.027702343 -0.0029252472 -0.00421082
0.045851775 0.01795511 -0.030368831 0.012363691 -0.0048887813 -0.012205543 -0.02040514 0.0028598218
-0.007829325 0.022535918 0.006357127 0.019529287 -0.019204266 0.005803305 0.000937884 -0.025867641
-0.033718165 0.009992971 -0.00939252 -0.0060506547 -0.013528779 0.010992525 -0.0024295447 -0.011693227
0.013792611 -0.0121174175 -0.02087887 0.023260936 -0.007965238 0.011359486 -0.01152181 0.03515187
-0.004677631 -0.009392149 0.00020128423 -0.020687021 -0.013953349 0.012055396 -0.014612566 0.023911297
-0.0017017598 0.005640171 -0.020778729 0.021762967 0.017090403 -0.024128374 -0.0144116655 0.010997294
-0.021376379 0.01938637 0.02184093 -0.00018413321 0.004219548 -0.011096221 0.0048695765 -0.030210746
-0.003576662 0.019492403 -0.016660275 0.034652214 -0.0077827615 -0.018509477 -0.009361704 0.0041599604
0.007102966 -0.015521492 -0.007488076 0.014594131 -0.03549801 -0.004346962 -0.024464678 -0.014861509
-0.008356216 0.0047092587 -0.018021926 -0.008180004 0.002083882 -0.0062561086 -0.031968523 -0.019416828
0.0082580745 -0.026001263 -0.014222287 -0.024286948 -0.03290241 -0.0019811965 0.0039369212 -0.014913704
-0.008728391 -0.050118208 0.03272055 0.004045681 0.00058709393 0.0078156 -0.034537006 -0.0128010595
-0.025077984 -0.0069738855 0.009668978 -0.041533835 -0.0094633745 0.05480799 -0.020640783 0.019164095
-0.0016599731 0.008670717 -0.02694491 0.0057774037 -0.001232615 0.027077695 -0.014433569 0.026959965
-0.02077814 0.02151577 0.03777665 -0.008451514 -0.025778927 0.004904681 -0.009727712 0.028851576
-0.0073899333 0.0020807213 -0.00047127643 -0.018545179 0.012137027 -0.0012594403 -0.019365933 -0.0033702978
-0.019991238 -0.0011160346 0.026625978 -0.023253748 -0.006435814 -0.011674809 0.004189104 -0.016368119
-0.0042257025 -0.011743632 -0.005586321 -0.017330302 0.042601366 0.017158618 0.010149372 0.011500509
-0.007815514 -0.03309781 -0.029077636 0.004936643 -0.011341558 0.02109944 0.032205448 -0.003342152
-0.0036799274 0.01714375 0.023965346 -0.055694148 -0.0018140144 0.032071296 -0.013541665 0.009916428
-0.0024626842 0.018407485 -0.008849574 -0.009966637 -0.003337729 -0.043314558 0.0010319569 0.016811242
-0.010563267 0.006602757 -0.02177567 0.048208464 -0.0034040872 -0.013709255 -0.0040619187 -0.008717813
00000000: 56b4 573d 7556 713b 7c1e 18bd 9876 d4bc
00000010: d9e5 a5bd 7d26 753d f342 adbb c9b0 9abd
00000020: 941e 05bd 26d5 8f3d 21f9 163d 590c ae3c
00000030: 40a1 51bc 9e36 963c 2455 82bd 39a0 803d
00000040: 1d28 51bc 6271 10bd 8465 28bc a6fd 003d
00000050: 79c5 373d 276d d43c a6ba d63b 9e27 9938
00000060: 9a3d ddbc 6edd 52bc a2a6 6dbc 68c4 df3b
00000070: b97c 70bb 016f e93c 6aa5 873d af3e 1a3d
00000080: 715d 09bc 7df4 11bb b50d 87bb 79ec 31bd
00000090: 78e5 dbbc 6af0 a83c a7e5 8bbc 90db 593c
000000a0: b24e 0f3d a5ff a23c 9fef 32bc 4331 15bb
000000b0: c991 c8bc 8bb5 bfbc fa99 e3bb 4e01 173d
000000c0: e4ae bfbb 6292 a63b 37d4 313d e3bd 41bc
000000d0: d8a3 2cba c799 8abc f055 f6bb e4da 3dbd
000000e0: 9c4e b9bb 2cca fa3c 214d a5bc 5f4e 70b8
000000f0: 5a1a c33c 8072 73bc d6af 363b 0d2b 01bd
00000100: b767 77bc 5892 2fbd a51b f73b 6a97 043d
00000110: 52bc cfba c9e6 a0bc d44e f83c 9d2a fe3b
00000120: 7f25 883a 7a82 c03b b8e5 d6bc a52a c5bc
00000130: 2834 c4ba 06f0 e23c 81b5 3fbb ebfa 89bb
00000140: 12cf 3b3d 9816 933c 0ec8 f8bc 1491 4a3c
00000150: 1232 a0bb c2f9 47bc ae28 a7bc d96b 3b3b
00000160: 9246 00bc 3f9d b83c 724f d03b e2fb 9f3c
00000170: 4452 9dbc a729 be3b 54dc 753a 60e8 d3bc
00000180: 0f1c 0abd 8fb9 233c 16e3 19bc 9244 c6bb
00000190: d0a7 5dbc fe19 343c ff38 1fbb f394 3fbc
000001a0: 67fa 613c 2288 46bc 2a0a abbc b88d be3c
000001b0: a180 02bc 231d 3a3c f9c5 3cbc 68fb 0f3d
000001c0: d046 99bb 87e1 19bc d30f 5339 d477 a9bc
000001d0: 969c 64bc ff83 453c 8b69 6fbc a0e1 c33c
000001e0: 950d dfba 2fd1 b83b 2738 aabc 4048 b23c
000001f0: 2c01 8c3c dea8 c5bc e81e 6cbc ff2d 343c
00000200: 841d afbc 2ad0 9e3c c0eb b23c e213 41b9
00000210: 2244 8a3b edcc 35bc f890 9f3b 877c f7bc
00000220: 6e66 6abb 88ae 9f3c 217b 88bc 7bef 0d3d
00000230: 8906 ffbb 30a1 97bc d561 19bc 4750 883b
00000240: ffbf e83b db4d 7ebc 895e f5bb 391c 6f3c
00000250: 5d66 11bd f670 8ebb 266a c8bc b07d 73bc
00000260: 83e8 08bc 2050 9a3b b8a2 93bc 6c05 06bc
00000270: bd91 083b 0b00 cdbb 6df1 02bd 0a10 9fbc
00000280: e04c 073c 9a00 d5bc 9804 69bc 6cf5 c6bc
00000290: adc4 06bd f6d6 01bb 4a01 813b 9c58 74bc
000002a0: 8601 0fbc c048 4dbd fc05 063d a291 843b
000002b0: 35e7 193a 010d 003c ad76 0dbd 89bb 51bc
000002c0: 5870 cdbc 3185 e4bb a26a 1e3c 621f 2abd
000002d0: 450c 1bbc 587e 603d dc16 a9bc 05fe 9c3c
000002e0: 7493 d9ba 9f0f 0e3c 92bb dcbc 6050 bd3b
000002f0: b28f a1ba 0bd2 dd3c c77a 6cbc 25db dc3c
00000300: eb36 aabc d741 b03c b0bb 1a3d 3878 0abc
00000310: 542e d3bc 72b7 a03b fb60 1fbc 245a ec3c
00000320: 4127 f2bb b65c 083b a715 f7b9 0fec 97bc
00000330: 62da 463c ce13 a5ba 4ea5 9ebc 37e0 5cbb
00000340: aac4 a3bc e847 92ba b91e da3c a57e bebc
00000350: 85e3 d2bb b347 3fbc c044 893b 6f16 86bc
00000360: c377 8abb 5d68 40bc 750d b7bb 47f8 8dbc
00000370: c57e 2e3d 3b90 8c3c 8d49 263c a26c 3c3c
00000380: a40c 00bc 9291 07bd 3934 eebc 90c3 a13b
00000390: f1d1 39bc bcd8 ac3c dce9 033d 0208 5bbb
000003a0: f02a 71bb 0d71 8c3c f952 c43c 8c1f 64bd
000003b0: 39c4 edba 315d 033d dcdd 5dbc 8378 223c
000003c0: fc64 21bb 4bcb 963c cefd 10bc 1b4b 23bc
000003d0: cdbd 5abb 9b6a 31bd ba42 873a bbb7 893c
000003e0: 8e11 2dbc f15b d83b e462 b2bc 3d76 453d
000003f0: 1b17 5fbb c89c 60bc d819 85bb 28d5 0ebc

exp_avg f4 [40, 17]
0.0001134414 0.0003427358 -4.3934224e-06 0.00027517194 6.0667702e-05 3.6752342e-06 -1.1724999e-06 6.403071e-05
4.390312e-05 3.0445237e-05 2.7477201e-05 1.9779294e-05 4.4129243e-05 0.000108577566 0.0001367265 0.00013163005
6.9985734e-05 -7.87251e-05 -9.8133205e-05 -0.00024979404 -0.0004274733 5.312351e-05 1.662502e-05 9.79745e-06
-0.000116750394 1.3603736e-05 -2.8931816e-05 -9.5931275e-05 1.5156243e-05 -7.691241e-05 -5.816139e-05 -0.00045347473
0.00021437423 -0.000108826986 -3.5787096e-05 5.7596088e-05 1.9875915e-05 0.00012741986 -1.3044102e-05 -7.487159e-07
-3.615496e-05 -9.138568e-06 3.3583343e-05 7.5033786e-06 -1.2379508e-05 5.488389e-05 1.5838648e-05 -1.2819215e-05
-0.000121400575 0.00012630712 7.2565526e-05 0.00010853485 0.00027327475 -8.893015e-06 0.00018463747 -6.3671855e-06
9.038544e-07 8.520759e-05 5.0635972e-05 1.0798314e-05 4.5006298e-05 4.2455133e-05 4.5488418e-05 7.441091e-05
-4.413304e-06 0.00013543207 8.410354e-05 4.484615e-05 8.384649e-05 0.00042431947 2.0959844e-05 0.0002641077
8.475577e-05 -8.1657083e-07 9.7232456e-05 7.190142e-05 6.234642e-05 9.202021e-05 3.792326e-05 8.183588e-05
5.1428735e-05 4.7823414e-05 -1.0982376e-06 0.00015581734 0.00029056022 -0.00017976308 0.00018114207 4.840978e-05
0.0004461092 -1.0585554e-06 -5.251091e-05 -0.00016298814 -0.00012502886 -7.494374e-05 5.35063e-05 0.00016622666
-0.00010724373 5.1184143e-05 0.0002658505 -5.8802907e-05 4.2686715e-05 0.000245668 8.605887e-06 8.825514e-05
3.0895978e-06 5.3332154e-05 -1.6645005e-05 7.418539e-06 4.7239133e-05 3.250171e-05 2.0761681e-05 3.667291e-05
-3.5327866e-05 4.6871637e-06 5.2848e-05 -2.0798725e-05 -1.5472384e-05 6.2024274e-06 0.00010061498 0.00014990137
0.0005268041 0.00017564958 0.00057693286 -0.0001479293 6.354672e-06 0.00026709543 0.00015445374 8.36899e-05
9.5826115e-05 0.000105202766 3.351232e-05 0.000107704356 0.00012206458 0.00034817515 4.119605e-05 0.0003130823
-0.00018873498 -0.00020021758 -0.00024115972 -0.00032644253 -9.03957e-05 -4.944576e-06 -1.959454e-05 -0.0001798844
-4.351586e-05 -5.6585035e-05 -3.9370003e-05 -6.0845996e-05 -2.4093053e-05 -3.70829e-05 -0.0003713905 -1.6347672e-05
-5.3639124e-05 9.273588e-05 0.00028111984 3.4766144e-06 0.00012051082 0.00010689805 1.7362825e-05 3.9824532e-05
1.33437425e-05 2.0667976e-06 6.183562e-05 2.908998e-05 2.4916331e-05 9.686653e-05 5.647724e-05 -1.2210236e-05
0.00025570768 4.109883e-05 9.3158615e-06 0.00018568667 -3.9495535e-05 0.00017554045 3.142595e-05 7.6141405e-06
-6.838939e-05 4.6724672e-05 3.7191385e-05 -4.7997826e-05 -2.4575396e-05 1.6677066e-05 6.0455615e-05 5.771564e-05
-6.54757e-05 6.6296576e-05 0.00014537014 -0.00010344384 -0.00018400776 -0.0002343307 -0.0004535929 6.6016546e-05
1.2570998e-05 -4.333316e-05 -0.0001388033 -5.046816e-06 -1.8546918e-05 -0.000106825515 1.0998338e-06 -8.2509745e-05
-6.7706e-05 -0.0004920604 0.00027822488 -0.00020450285 -5.2827912e-05 7.756492e-05 1.1283245e-05 0.00013034011
-2.580473e-06 -5.2830246e-06 -3.3628457e-05 -2.0704015e-06 3.9659e-05 -1.2674305e-05 -5.4503616e-05 0.00012395333
2.0651194e-05 -2.6167032e-05 -0.00019958822 0.00023641349 5.2022922e-05 0.000105565574 0.00025608102 -3.3901822e-05
0.00018255672 -3.427105e-05 8.9861646e-07 7.299494e-05 1.055332e-05 2.31754e-05 2.290898e-05 3.5764795e-05
7.2655144e-05 8.505598e-05 -2.7934399e-05 0.000109724875 9.340449e-05 1.9049865e-05 8.677315e-05 0.0004805734
3.196816e-05 0.0003170945 8.315888e-05 9.4319614e-07 0.000111344896 8.827283e-05 0.00011032582 8.2370476e-05
5.908909e-05 5.2128336e-05 5.5298195e-05 6.505684e-05 2.7828433e-05 0.00013788302 0.00034683017 -3.8699578e-05
00000000: 63e7 ed38 38b1 b339 366b 93b6 f444 9039
00000010: 7375 7e38 0ba4 7636 ca5e 9db5 3a48 8638
00000020: 9e24 3838 a664 ff37 d77e e637 b6eb a537
00000030: 6a17 3938 23b4 e338 3e5e 0f39 2c06 0a39
00000040: 4ec5 9238 3719 a5b8 ddcc cdb8 caf6 82b9
00000050: 7f1e e0b9 efd0 5e38 f575 8b37 ba5f 2437
00000060: e4d7 f4b8 9a3b 6437 9ab2 f2b7 b62e c9b8
00000070: 9147 7e37 094c a1b8 51f2 73b8 59c0 edb9
00000080: a5c9 6039 0b3a e4b8 1a1a 16b8 5493 7138
00000090: 34bb a637 029c 0539 fed7 5ab7 5dfb 48b5
000000a0: 18a5 17b8 da51 19b7 d7db 0c38 88c5 fb36
000000b0: 95b1 4fb7 2133 6638 3ddd 8437 1c12 57b7
000000c0: 7098 feb8 4f71 0439 522e 9838 349d e338
000000d0: 5146 8f39 3533 15b7 3e9b 4139 b5a5 d5b6
000000e0: 67a0 7235 7ab1 b238 f661 5438 682a 3537
000000f0: 25c5 3c38 da11 3238 d1ca 3e38 0e0d 9c38
00000100: fe15 94b6 c502 0e39 bf60 b038 3019 3c38
00000110: bed6 af38 3277 de39 ecd2 af37 ef77 8a39
00000120: e8be b138 5232 5bb5 47e9 cb38 c8c9 9638
00000130: fbbf 8238 f9fa c038 ca0f 1f38 4e9f ab38
00000140: 2fb5 5738 0096 4838 2867 93b5 e662 2339
00000150: 5556 9839 c97e 3cb9 f4f0 3d39 9b0b 4b38
00000160: c3e3 e939 b013 8eb5 293f 5cb8 cce7 2ab9
00000170: 2e1a 03b9 1d2b 9db8 f46b 6038 214d 2e39
00000180: 0ae8 e0b8 8eae 5638 da61 8b39 24a3 76b8
00000190: 830a 3338 00cd 8039 0162 1037 9e15 b938
000001a0: e356 4f36 f7b0 5f38 e0a0 8bb7 c4ec f836
000001b0: a222 4638 7252 0838 5f29 ae37 3dd1 1938
000001c0: 022d 14b8 6e46 9d36 1ca9 5d38 ec78 aeb7
000001d0: b1ca 81b7 721e d036 4201 d338 d82e 1d39
000001e0: 3a19 0a3a 932e 3839 4f3d 173a 781d 1bb9
000001f0: 383a d536 f108 8c39 dcf4 2139 ac82 af38
00000200: 41f6 c838 4ea0 dc38 948f 0c38 56df e138
00000210: ecfc ff38 478b b639 ecc9 2c38 3225 a439
00000220: 29e7 45b9 7ff1 51b9 d2df 7cb9 6026 abb9
00000230: d292 bdb8 96e9 a5b6 f45e a4b7 5a9f 3cb9
00000240: cd84 36b8 b855 6db8 3821 25b8 e434 7fb8
00000250: 701b cab7 7689 1bb8 30b7 c2b9 5c22 89b7
00000260: 92fa 60b8 327b c238 4463 9339 c84f 6936
00000270: c1ba fc38 742e e038 62a6 9137 4409 2738
00000280: f0de 5f37 50b3 0a36 bfad 8138 4206 f437
00000290: 6a03 d137 d324 cb38 fae1 6c38 90da 4cb7
000002a0: 8110 8639 8861 2c38 524b 1c37 e3b4 4239
000002b0: 02a8 25b8 4811 3839 5bcf 0338 f87c ff36
000002c0: 466c 8fb8 3cfa 4338 f2fd 1b38 4651 49b8
000002d0: 4327 ceb7 bae5 8b37 b991 7d38 b213 7238
000002e0: 0050 89b8 b408 8b38 806e 1839 fdef d8b8
000002f0: 35f2 40b9 abb6 75b9 35d0 edb9 5d72 8a38
00000300: 06e8 5237 a0c0 35b8 ba8b 11b9 d257 a9b6
00000310: 3495 9bb7 8307 e0b8 009e 9335 1509 adb8
00000320: 62fd 8db8 9dfd 00ba b6de 9139 d16f 56b9
00000330: 8a93 5db8 59aa a238 2b4d 3d37 e8ab 0839
00000340: 302c 2db6 d644 b1b6 480c 0db8 3af1 0ab6
00000350: 8757 2638 baa3 54b7 d09a 64b8 78f9 0139
00000360: 1a3c ad37 4681 dbb7 8e48 51b9 c3e5 7739
00000370: 3033 5a38 1663 dd38 9d42 8639 ce31 0eb8
00000380: b26c 3f39 42be 0fb8 7438 7135 dc14 9938
00000390: 2a0e 3137 cb68 c237 a92c c037 2802 1638
000003a0: 6f5e 9838 1560 b238 aa54 eab7 181c e638
000003b0: 27e2 c338 46cd 9f37 fbf9 b538 78f5 fb39
000003c0: 8d15 0638 b43f a639 9565 ae38 f22f 7d35
000003d0: d681 e938 1d1f b938 b95e e738 50be ac38
000003e0: 6dd6 7738 60a4 5a38 fcef 6738 206f 8838
000003f0: 1b71 e937 b194 1039 c2d6 b539 5b51 22b8

exp_avg_sq f4 [40, 17]
4.4781164e-08 2.1426962e-07 3.5069547e-09 1.18600056e-07 7.531634e-09 1.4283937e-08 2.8579918e-09 1.1188788e-08
8.540302e-09 1.3948764e-08 9.520754e-09 7.5513045e-09 8.168643e-09 2.229008e-08 7.600847e-08 2.6931414e-08
1.9210043e-08 1.8722568e-07 7.3611614e-07 1.483206e-07 6.776876e-07 4.0861725e-08 3.7917317e-08 8.92808e-09
3.012926e-07 1.4155317e-08 1.8237209e-07 1.6775773e-07 5.9022955e-08 1.4412386e-07 2.766872e-07 3.64921e-07
1.12735435e-07 8.137948e-08 4.473153e-08 1.422898e-07 3.6665866e-09 1.10365946e-07 1.4123199e-08 1.2046191e-08
3.8697094e-09 8.0626545e-09 3.2319004e-08 8.0066094e-08 1.4961506e-08 1.8236749e-08 1.3065855e-08 1.2020274e-08
6.852157e-08 5.3844694e-08 2.3661936e-08 1.0950352e-08 5.2869918e-08 6.119545e-09 3.9232148e-08 3.4808896e-09
2.9496792e-09 2.9757523e-09 3.4008822e-09 8.899439e-09 6.556466e-09 9.250939e-09 1.7705068e-08 1.3818821e-08
1.573097e-08 1.7037863e-08 9.055353e-09 1.505763e-08 3.1115903e-08 4.033436e-07 1.7459353e-09 3.474948e-07
1.3239755e-08 2.3275303e-08 4.329277e-09 2.4894161e-08 7.889588e-09 2.7241791e-08 7.3642616e-09 2.8363775e-08
1.05675815e-08 1.2942838e-08 1.6388384e-08 8.401532e-08 1.4258885e-07 2.723353e-07 1.0108329e-06 6.7018185e-08
1.0975817e-06 2.0527179e-07 3.286406e-07 1.283755e-07 6.5738584e-07 5.0822376e-07 1.0903454e-06 6.014009e-07
5.800687e-07 3.303959e-07 9.835236e-07 4.2428834e-07 2.1713889e-07 1.9071511e-07 8.723063e-09 1.2279553e-07
1.6761351e-08 7.6190545e-08 4.310597e-08 1.456932e-08 5.0313207e-09 8.239145e-09 4.8133906e-08 5.993821e-09
3.8400923e-08 8.591265e-09 5.6646883e-08 2.585266e-08 1.6468812e-08 4.228264e-09 5.798735e-08 1.2131908e-07
7.001062e-07 8.472383e-08 5.06438e-07 9.167796e-08 3.5447304e-08 3.4836894e-08 1.543259e-07 2.5534133e-08
4.242081e-08 6.4286525e-08 2.7144486e-08 3.3842362e-08 1.8341493e-07 3.259332e-07 3.4578115e-08 1.848649e-07
2.2066169e-07 7.3112477e-07 8.755689e-08 5.3787386e-07 3.2411894e-08 1.3286952e-08 1.5404389e-08 1.5802453e-07
4.524855e-08 1.11190325e-07 7.861791e-09 2.650471e-07 4.7295727e-09 6.0398504e-09 3.9898964e-07 2.1739451e-08
3.682429e-08 5.2371593e-08 3.0006206e-07 9.685032e-09 1.4511986e-07 2.1294131e-08 3.7352034e-08 9.205801e-09
2.8699025e-08 5.482138e-08 1.6548306e-08 2.102415e-08 1.3522799e-08 6.603484e-08 6.277412e-08 8.431937e-08
9.2709996e-08 5.668396e-08 1.1789809e-07 5.9320564e-07 1.5806803e-08 3.8943233e-07 3.2106932e-08 3.7291283e-08
1.3143371e-08 2.92286e-08 3.2825305e-08 2.4862391e-08 4.8035837e-08 3.744599e-08 4.275793e-08 3.5640458e-08
2.7528213e-07 3.5389753e-08 1.077449e-07 2.2508996e-07 8.1305154e-07 1.4698131e-07 7.1625533e-07 4.8871545e-08
5.3686943e-08 1.6984677e-08 3.4061776e-07 1.4027717e-08 1.9716168e-07 1.8141132e-07 8.118208e-08 1.3804909e-07
2.6692672e-07 4.129563e-07 1.1931716e-07 1.8952161e-07 8.795312e-08 2.9559337e-07 3.0078213e-09 2.1326703e-07
1.797778e-08 2.0097232e-08 6.9421726e-09 2.7086504e-09 3.6976935e-08 9.965864e-08 3.3955633e-08 1.1568779e-07
9.804634e-09 1.889835e-08 1.365167e-07 1.3102394e-07 1.30884565e-08 1.5839994e-08 8.7187146e-08 1.6760357e-08
7.868269e-08 5.4962332e-09 8.411183e-09 3.4638166e-09 1.0093783e-08 1.8462835e-08 8.223118e-09 2.1875586e-08
4.0568764e-08 2.3261169e-08 3.906578e-08 1.8376305e-08 1.4855871e-08 3.0092462e-08 2.3611346e-08 4.468216e-07
2.2682791e-09 3.337603e-07 9.7376e-09 4.197531e-09 4.1038337e-09 3.614392e-08 1.0938933e-08 2.1358579e-08
9.558222e-09 1.362036e-08 9.237302e-09 1.3542591e-08 9.549623e-09 4.8731216e-08 2.0781482e-07 3.1793718e-07
00000000: 6955 4033 fc11 6634 00ff 7031 12b1 fe33
00000010: 7a64 0132 6b65 7532 5366 4431 cf38 4032
00000020: a5b8 1232 50a3 6f32 b890 2332 fdba 0132
00000030: 1256 0c32 6778 bf32 193a a333 ce56 e732
00000040: 5503 a532 3408 4934 8499 4535 0e42 1f34
00000050: 56ea 3535 f17f 2f33 88da 2233 1c62 1932
00000060: 57c1 a134 be2f 7332 0fd2 4334 e520 3434
00000070: 6d80 7d33 77c0 1a34 998b 9434 5cea c334
00000080: f618 f233 d8c2 ae33 d61e 4033 53c8 1834
00000090: 46f7 7b31 5202 ed33 7ca2 7232 b5f3 4e32
000000a0: 53f6 8431 ee83 0a32 1fcf 0a33 cdf0 ab33
000000b0: b384 8032 09a7 9c32 3d78 6032 b981 4e32
000000c0: 2226 9333 de42 6733 2641 cb32 2820 3c32
000000d0: 1713 6333 1644 d231 3480 2833 7534 6f31
000000e0: 4eb3 4a31 fd7d 4c31 f4b4 6931 26e4 1832
000000f0: 4947 e131 0fee 1e32 db15 9832 d167 6d32
00000100: c520 8732 a85a 9232 dd91 1b32 1458 8132
00000110: 4ca4 0533 1f8b d834 a3f5 ef30 528f ba34
00000120: 0f75 6332 efee c732 b9c0 9431 d7d6 d532
00000130: c68a 0732 5501 ea32 bb08 fd31 9aa4 f332
00000140: b78c 3532 345b 5e32 70c6 8c32 e96b b433
00000150: 861a 1934 7b35 9234 f4ab 8735 a3eb 8f33
00000160: 9f50 9335 ae68 5c34 0570 b034 97d7 0934
00000170: 3677 3035 df6c 0835 fc57 9235 f56f 2135
00000180: 04b6 1b35 4461 b134 9d01 8435 bfc9 e334
00000190: af26 6934 5fc7 4c34 70dc 1532 c7d9 0334
000001a0: 9afa 8f32 329e a333 8423 3933 8c4c 7a32
000001b0: f7df ac31 258c 0d32 cabb 4e33 35f2 cd31
000001c0: 43ee 2433 c898 1332 e84b 7333 9a12 de32
000001d0: 4d77 8d32 3448 9131 c40d 7933 ef43 0234
000001e0: efee 3b35 6bf1 b533 28f2 0735 7ee0 c433
000001f0: b93e 1833 929f 1533 c8b4 2534 2756 db32
00000200: 2d32 3633 e40d 8a33 5b2b e932 125a 1133
00000210: b6f0 4434 ebfb ae34 0a83 1433 477f 4634
00000220: 06ef 6c34 8342 4435 e906 bc33 6962 1035
00000230: 4135 0b33 a244 6432 9c52 8432 74ad 2934
00000240: 4f57 4233 87c7 ee33 8610 0732 cc4b 8e34
00000250: c381 a231 1687 cf31 b834 d634 8fbd ba32
00000260: bc28 1e33 2def 6033 3718 a134 3963 2632
00000270: 3ed2 1b34 4aea b632 ff6c 2033 8a27 1e32
00000280: d385 f632 bf74 6b33 1c26 8e32 9898 b432
00000290: e651 6832 0acf 8d33 70ce 8633 1013 b533
000002a0: dc17 c733 ac74 7333 292f fd33 c83c 1f35
000002b0: 87c7 8732 2c13 d134 f2e5 0933 332a 2033
000002c0: 28cd 6132 5f12 fb32 cefb 0c33 fa90 d532
000002d0: f64f 4e33 4dd4 2033 d7a4 3733 1913 1933
000002e0: 7dca 9334 72ff 1733 6361 e733 42b0 7134
000002f0: 7a40 5a35 ead1 1d34 b144 4035 d5e6 5133
00000300: 6b95 6633 b3e5 9132 26de b634 8dfe 7032
00000310: 64b3 5334 f7c9 4234 5256 ae33 a53a 1434
00000320: 214e 8f34 48b4 dd34 a71d 0034 4e7f 4b34
00000330: bde0 bc33 0bb2 9e34 27b2 4e31 65fe 6434
00000340: 8e6d 9a32 48a2 ac32 ff87 ee31 1523 3a31
00000350: 92d0 1e33 eb03 d633 9dd6 1133 0970 f833
00000360: 3d71 2832 e955 a232 6d95 1234 96af 0c34
00000370: a4db 6032 8410 8832 a43b bb33 6af8 8f32
00000380: 44f8 a833 61d9 bc31 c680 1032 1b08 6e31
00000390: ed68 2d32 3498 9e32 a845 0d32 ece8 bb32
000003a0: d43d 2e33 dacf c732 48c9 2733 ecd9 9d32
000003b0: d038 7f32 033f 0133 e6d1 ca32 b1e2 ef34
000003c0: fddf 1b31 ab2f b334 6b4a 2732 e039 9031
000003d0: b401 8d31 a93c 1b33 f0ed 3b32 0378 b732
000003e0: 8135 2432 fafe 6932 15b2 1e32 f2a8 6832
000003f0: b00f 2432 8a4c 5133 b423 5f34 f4b0 aa34
