timeSerise/logs/lightning_logs/version_5/checkpoints/epoch=199-step=3000.ckpt (torch, 47451 bytes, 27 tensors)

lstm.weight_ih_l0 f4 [40, 31]
0.018302687 0.20573969 -0.07240289 0.06995206 0.05455804 0.25998792 0.21772544 0.29671913
-0.087658405 -0.058547784 0.27890605 0.072788306 0.16983248 -0.018024594 0.12652388 0.053253513
0.25699434 0.23063774 -0.3105686 0.30824968 -0.12817588 0.12728606 0.026107157 -0.27022168
0.10231231 0.0071452362 0.21812116 -0.07322913 -0.16233096 -0.19559222 -0.020651305 0.30997813
0.17589678 -0.20936051 -0.30619594 -0.08318772 0.30048335 0.014997729 -0.11482098 -0.06727536
-0.0453914 0.30010265 0.17620544 0.09389251 0.14394298 0.28234124 0.12635621 -0.03588737
-0.23882829 0.28671288 -0.2821545 0.028470756 -0.13380295 0.17236955 -0.23192914 0.26274103
0.24650943 -0.0022426108 -0.2573154 0.123905234 0.27770963 -0.18952653 0.048914067 0.15904513
0.2214031 0.14658459 0.011687727 0.03188195 0.036893636 -0.1736983 0.10839167 -0.018886128
-0.09677918 0.2638017 -0.018817661 -0.1728091 0.2612538 0.091593385 0.2287285 -0.28788495
-0.05382127 0.1419385 -0.13654564 -0.22554338 0.23495208 0.1790346 0.31316757 -0.13910228
0.16206342 0.1067054 -0.030889817 0.27826303 0.039244037 -0.28609842 -0.009010752 -0.17579328
0.05624137 -0.15916854 -0.00245858 -0.053276207 0.11570153 -0.011844331 -0.23346289 -0.16075984
-0.263196 0.009385776 -0.30463386 -0.27930325 0.17421848 0.0022227252 -0.2511878 0.2545255
-0.17193076 0.20311038 0.10741724 0.09923316 -0.25068793 0.22618194 -0.0065384554 0.08131414
0.032514967 0.06289215 0.18783227 0.23361 -0.15882078 -0.18255349 -0.2597853 0.23901919
-0.14970852 0.20909296 0.17204085 -0.07263859 -0.3267656 -0.16669475 0.24548921 -0.026716823
0.132837 -0.13682994 -0.08830722 0.2481349 0.15883966 -0.26189396 0.19299673 -0.26378143
0.2604093 -0.14059629 -0.11629067 -0.01903117 -0.32190818 -0.34558818 0.002803575 0.13403824
0.2530893 -0.19724387 0.32410324 0.28203216 -0.08949036 -0.1917108 0.2823199 0.12863128
-0.19329512 0.25109446 0.18935753 0.18939275 0.075164564 -0.018407704 0.25303283 0.25263914
0.029889006 0.250188 0.21919805 0.014544774 -0.11212591 -0.05275649 -0.019586965 0.100479364
-0.024170458 0.017101243 0.14760701 0.13931659 0.23434092 -0.2454248 0.027323045 0.0072371704
0.27304408 -0.03658411 -0.1972531 -0.02414069 0.20405297 0.061885905 0.25762817 -0.19436148
0.17066622 -0.25096294 -0.15646899 -0.11743141 -0.08595267 0.20778576 0.0006710985 -0.0017788586
0.040436257 -0.15931097 -0.22352006 0.26157916 0.22464043 -0.14695519 0.10696668 -0.041254137
0.07097314 -0.12627493 0.25981715 0.21957085 0.16333383 -0.27408186 -0.28285882 -0.10271503
0.17107804 0.13428111 -0.20850608 0.11362377 -0.1249711 0.113037914 0.09127884 -0.2540603
-0.11287232 -0.011954318 -0.06367917 -0.25503626 0.32867151 0.028895877 0.07546159 -0.090898804
0.18735042 0.109321736 -0.28897935 -0.11947255 -0.11641216 0.15750493 -0.15809493 0.10103876
0.18419395 0.15819563 0.22077248 0.020186637 0.12672399 -0.07881708 -0.13364603 0.2068801
0.084809415 -0.09619531 0.107761525 0.07204981 -0.11064442 -0.19473398 0.22050023 0.02457327
00000000: 84ef 953c 6dad 523e f747 94bd 0743 8f3d
00000010: 4078 5f3d 231d 853e 6bf3 5e3e 92eb 973e
00000020: 4086 b3bd cdcf 6fbd c6cc 8e3e 0912 953d
00000030: 91e8 2d3e 50a8 93bc 7a8f 013e 5b20 5a3d
00000040: c394 833e 4d2c 6c3e d902 9fbe e7d2 9d3e
00000050: 8a40 03be 4757 023e adde d53c 7f5a 8abe
00000060: 1e89 d13d 9622 ea3b 275b 5f3e 27f9 95bd
00000070: 163a 26be 5449 48be ed2c a9bc 74b5 9e3e
00000080: 491e 343e 9a62 56be b7c5 9cbe 535e aabd
00000090: f4d8 993e 09b9 753c 4327 ebbd aac7 89bd
000000a0: 55ec 39bd 0ea7 993e 336f 343e b74a c03d
000000b0: ca65 133e 088f 903e 8663 013e a3fe 12bd
000000c0: 678f 74be 08cc 923e 8e76 90be 813b e93c
000000d0: a403 09be a581 303e d57e 6dbe fe85 863e
000000e0: f86c 7c3e c4f8 12bb d8be 83be 07c2 fd3d
000000f0: f52f 8e3e 3e13 42be 1e5a 483d badc 223e
00000100: 7fb7 623e 451a 163e e17d 3f3c a696 023d
00000110: c81d 173d f8dd 31be 74fc dd3d 15b7 9abc
00000120: 2a34 c6bd 0411 873e 7f27 9abc def4 30be
00000130: 0fc3 853e 5095 bb3d ce37 6a3e a865 93be
00000140: b173 5cbd 5358 113e 9fd2 0bbe d8f4 66be
00000150: 4797 703e d954 373e 8057 a03e d470 0ebe
00000160: f4f3 253e 5c88 da3d a40c fdbc 7e78 8e3e
00000170: 5bbe 203d 7e7b 92be d5a1 13bc 2703 34be
00000180: 5a5d 663d 14fd 22be 2120 21bb 2738 5abd
00000190: ecf4 ec3d ba0e 42bc e510 6fbe 3a9e 24be
000001a0: a0c1 86be ccc6 193c f8f8 9bbe d600 8fbe
000001b0: 5466 323e 24ab 113b b09b 80be 2b51 823e
000001c0: 9e0e 30be 2bfc 4f3e 92fd db3d c13a cb3d
000001d0: 2b5a 80be 3d9c 673e 8a40 d6bb 0788 a63d
000001e0: 6a2e 053d 99cd 803d 1a57 403e 7637 6f3e
000001f0: eaa1 22be 4def 3abe 9402 85be 72c1 743e
00000200: 314d 19be 771c 563e 7a2b 303e 8bc3 94bd
00000210: d24d a7be 07b2 2abe 8661 7b3e 3ddd dabc
00000220: 6c06 083e 261d 0cbe 6ada b4bd 1317 7e3e
00000230: dda6 223e f716 86be efa0 453e 5c0e 87be
00000240: 5e54 853e 79f8 0fbe ce29 eebd 42e7 9bbc
00000250: 26d1 a4be eff0 b0be 2fbc 373b 5241 093e
00000260: ec94 813e 4cfa 49be dcf0 a53e 8566 903e
00000270: b946 b7bd d64f 44be 3c8c 903e ebb7 033e
00000280: 28ef 45be 748f 803e f1e6 413e 2cf0 413e
00000290: e1ef 993d c1cb 96bc 858d 813e eb59 813e
000002a0: cad9 f43c a418 803e 7475 603e 344d 6e3c
000002b0: 45a2 e5bd 3017 58bd d874 a0bc 20c8 cd3d
000002c0: 2001 c6bc e817 8c3c 4b26 173e 02a9 0e3e
000002d0: 11f7 6f3e a450 7bbe 94d4 df3c c925 ed3b
000002e0: 6fcc 8b3e 38d9 15bd b7fc 49be b2c2 c5bc
000002f0: 43f3 503e 137c 7d3d d7e7 833e b206 47be
00000300: 20c3 2e3e 377e 80be 6839 20be e17f f0bd
00000310: f407 b0bd cac5 543e a8ec 2f3a 9728 e9ba
00000320: 7da0 253d 6a22 23be 71e2 64be b4ed 853e
00000330: 2408 663e 6c7b 16be 5911 db3d 19fa 28bd
00000340: 5e5a 913d 374e 01be c106 853e 2ed7 603e
00000350: fc40 273e 7554 8cbe dfd2 90be 425c d2bd
00000360: 152f 2f3e fd80 093e 9e82 55be 94b3 e83d
00000370: d9f0 ffbd 6c80 e73d 67f0 ba3d 3114 82be
00000380: 9a29 e7bd 0bdc 43bc 3a6a 82bd 1d94 82be
00000390: a247 a83e 0cb7 ec3c 9b8b 9a3d 2729 babd
000003a0: cad8 3f3e 13e4 df3d 1af5 93be 06ae f4bd
000003b0: 8069 eebd f948 213e a3e3 21be 69ed ce3d
000003c0: 579d 3c3e 09fe 213e 2e12 623e 725e a53c
000003d0: efc3 013e d96a a1bd 81da 08be 60d8 533e
000003e0: 8fb0 ad3d 0c02 c5bd 13b2 dc3d da8e 933d
000003f0: 8b99 e2bd 5868 47be d0ca 613e e24d c93c

lstm.weight_hh_l0 f4 [40, 10]
0.19055745 -0.08850796 -0.10243686 -0.049325265 0.20693807 0.20337741 0.08948428 0.07735808
0.20248002 0.13646816 -0.17773172 -0.31466892 0.054397427 -0.007318654 0.18532136 0.28906766
0.049211536 -0.2919637 0.31102648 0.24858631 -0.06809931 0.11239166 -0.035977595 -0.03787109
-0.0629854 -0.13189377 -0.23162316 -0.17475271 0.22133917 0.08030651 0.16558433 -0.27525416
-0.107990704 -0.16116145 0.12768298 0.20136997 0.28833643 0.05147227 0.06909217 0.21337749
0.27068558 0.21297316 -0.27254194 -0.21213023 -0.24519025 -0.10442342 -0.13230027 -0.29197156
-0.27645975 -0.3014836 0.07283064 -0.024895318 -0.0685287 -0.1246248 0.1514057 0.25904492
0.1381207 0.2920832 -0.3022552 0.13610275 -0.20403452 0.12281435 0.27564335 -0.15998346
0.13119066 -0.033157744 0.19199379 0.31785354 -0.04259251 0.27607784 -0.28217253 0.0053035994
0.27401504 -0.283955 0.116645284 -0.2301959 -0.14002421 -0.13172147 -0.039109558 -0.0055304402
-0.0236942 0.12600768 0.13855746 0.15498328 0.0307135 0.16780764 0.23637234 0.29144058
-0.01845017 -0.23227203 0.3266704 0.026895953 0.17490989 -0.12431298 -0.20672894 -0.30071154
-0.2666455 -0.18672451 0.21283144 0.13555482 0.019057048 -0.11344298 -0.19215055 -0.12235153
-0.108441725 -0.14351438 0.009211583 -0.27784288 0.093879946 -0.05461692 0.10807824 -0.12545243
0.15005207 0.2005346 -0.0065869265 0.3172434 -0.27095565 -0.122710094 0.020012073 -0.0016912799
0.19873852 -0.2890572 -0.06661626 -0.2595529 0.082210146 -0.04451364 0.15006708 -0.02130357
0.19067879 0.060281884 0.17046836 0.17569573 0.27661568 -0.18020734 0.3014711 -0.2943072
-0.080901936 0.19197091 -0.13267502 -0.19433248 0.18197763 0.13826849 -0.26868227 0.051434502
-0.19624093 0.22480328 -0.28463843 0.10326486 -0.16967742 0.110620886 -0.15952279 0.037639532
-0.27055556 0.14384179 -0.12155341 -0.07858762 -0.074431196 -0.009350479 0.17883156 0.16645129
0.20750704 0.19755346 0.055193976 -0.051585104 0.1878486 -0.007727229 0.05730087 -0.017809251
0.08703225 0.1042192 0.19686066 -0.2966062 0.048948612 -0.18067692 0.14998831 0.228989
-0.12451556 -0.33160153 -0.23032384 -0.12470007 -0.22349828 -0.19731295 -0.07629758 0.085555494
0.21409644 -0.101940595 -0.27217323 0.2709906 0.100841165 -0.353099 -0.0193962 0.16614118
0.28172368 0.30208096 0.3037996 0.13077302 -0.15073362 0.14782853 -0.07066655 -0.17952202
0.2196641 0.2427556 -0.03653153 -0.17305276 0.093786575 -0.20381932 -0.18010452 0.3298489
0.041603215 -0.2704425 0.055771887 -0.053386897 -0.25896695 -0.23203655 -0.29150334 -0.015846439
0.0127177425 0.31442994 0.3082716 0.2885877 0.056892686 0.13340364 0.0856196 0.025052061
0.23063795 0.18047085 0.21360622 -0.28600258 0.0571425 -0.29558495 0.22519563 0.22159639
-0.23364179 -0.24963899 -0.031440113 -0.17849685 0.1675155 -0.17695932 0.14972803 0.1580909
0.26414362 -0.24590985 -0.053749774 -0.13046023 0.30086964 0.31638855 0.20509422 -0.23427832
-0.043813515 0.056572914 0.10082794 -0.15031014 0.24297796 -0.24194053 -0.0019520215 0.11179784
00000000: 7e21 433e a943 b5bd 6bca d1bd 4a09 4abd
00000010: 93e7 533e 2b42 503e 8943 b73d ea6d 9e3d
00000020: ec56 4f3e 4fbe 0b3e 4eff 35be 491c a1be
00000030: d6cf 5e3d 52d1 efbb e2c4 3d3e ad00 943e
00000040: 0992 493d 447c 95be dd3e 9f3e 698d 7e3e
00000050: a777 8bbd 992d e63d 3e5d 13bd b71e 1bbd
00000060: 7dfe 80bd 290f 07be 9f2e 6dbe 60f2 32be
00000070: bca6 623e bd77 a43d f08e 293e 1dee 8cbe
00000080: 3b2a ddbd 8207 25be 54bf 023e ee33 4e3e
00000090: d5a0 933e 96d4 523d 3280 8d3d a17f 5a3e
000000a0: 4d97 8a3e a315 5a3e 9e8a 8bbe ab38 59be
000000b0: 2713 7bbe f2db d5bd b979 07be 4c7d 95be
000000c0: 228c 8dbe 0f5c 9abe 3b28 953d 44f1 cbbc
000000d0: c658 8cbd 4a3b ffbd 190a 1b3e 89a1 843e
000000e0: 836f 0d3e ee8b 953e 32c1 9abe 855e 0b3e
000000f0: 6dee 50be 1786 fb3d 2021 8d3e b4d2 23be
00000100: d856 063e 6ad0 07bd 059a 443e b3bd a23e
00000110: 7c75 2ebd 135a 8d3e eb78 90be d1c9 ad3b
00000120: b34b 8c3e 8d62 91be b9e3 ee3d 79b8 6bbe
00000130: 8262 0fbe fee1 06be 5831 20bd b238 b5bb
00000140: 571a c2bc 2808 013e 02e2 0d3e f0b3 1e3e
00000150: e19a fb3c c4d5 2b3e 970b 723e b337 953e
00000160: d024 97bc b8d8 6dbe 5841 a73e e754 dc3c
00000170: 941b 333e ce97 febd c0b0 53be ddf6 99be
00000180: c285 88be b634 3fbe 7cf0 593e e2ce 0a3e
00000190: 871d 9c3c cb54 e8bd 1dc3 44be 7093 fabd
000001a0: b216 debd 6ff5 12be 2eec 163c 6c41 8ebe
000001b0: 2144 c03d feb5 5fbd 2058 dd3d 9a76 00be
000001c0: 40a7 193e f158 4d3e 25d7 d7bb ba6d a23e
000001d0: b3ba 8abe 6e4f fbbd 5cf0 a33c f0ad ddba
000001e0: 1c82 4b3e 4eff 93be 1b6e 88bd 1ee4 84be
000001f0: cb5d a83d ef53 36bd 2fab 193e d384 aebc
00000200: 4d41 433e 23ea 763d 428f 2e3e 95e9 333e
00000210: 92a0 8d3e 4688 38be 6c5a 9a3e 6faf 96be
00000220: eaaf a5bd 0694 443e f6db 07be 18ff 46be
00000230: 5858 3a3e 4196 0d3e b990 89be fcac 523d
00000240: 62f3 48be d532 663e 21bc 91be 877c d33d
00000250: ebbf 2dbe 348d e23d f159 23be e92b 1a3d
00000260: 4286 8abe 434b 133e fff0 f8bd 8cf2 a0bd
00000270: 626f 98bd c032 19bc 9f1f 373e 3572 2a3e
00000280: ba7c 543e 744b 4a3e 1413 623d e74a 53bd
00000290: 625b 403e b234 fdbb 51b4 6a3d b5e4 91bc
000002a0: f73d b23d e070 d53d d795 493e c5dc 97be
000002b0: 577e 483d 5f03 39be 8996 193e 187c 6a3e
000002c0: 0402 ffbd adc7 a9be 03da 6bbe c062 ffbd
000002d0: bcdc 64be 680c 4abe e841 9cbd b837 af3d
000002e0: 193c 5b3e 3bc6 d0bd 4a5a 8bbe 48bf 8a3e
000002f0: d085 ce3d 64c9 b4be c8e4 9ebc ea20 2a3e
00000300: 163e 903e 5baa 9a3e 9f8b 9b3e 5de9 053e
00000310: ea59 1abe 5d60 173e a0b9 90bd 9fd4 37be
00000320: a0ef 603e ed94 783e 16a2 15bd be34 31be
00000330: 2d13 c03d 03b6 50be 526d 38be f4e1 a83e
00000340: 2268 2a3d 7077 8abe 1071 643d 38ac 5abd
00000350: 5197 84be fd9a 6dbe ed3f 95be 64d0 81bc
00000360: 145e 503c f6fc a03e c6d5 9d3e c4c1 933e
00000370: 4e08 693d f79a 083e 5459 af3d fb39 cd3c
00000380: 5b2c 6c3e 5acd 383e 97bb 5a3e ee6e 92be
00000390: 410e 6a3d e956 97be af99 663e 2aea 623e
000003a0: cb3f 6fbe 5da1 7fbe 59c7 00bd e1c7 36be
000003b0: 2f89 2b3e d334 35be 4e52 193e 95e2 213e
000003c0: d53d 873e cbcf 7bbe b928 5cbd 5e97 05be
000003d0: 960b 9a3e aefd a13e 3804 523e a8e6 6fbe
000003e0: cd75 33bd 00b9 673d e17e ce3d e7ea 19be
000003f0: 37cf 783e 42bf 77be f9da ffba 44f6 e43d

lstm.bias_ih_l0 f4 [40]
-0.07718468 -0.27256048 0.020275306 0.2981565 -0.19044177 0.30809382 -0.13711008 0.010482336
0.20388223 -0.21015987 0.25047094 0.13590248 0.17138676 0.27299404 -0.14662395 0.23957483
-0.14997269 0.13337491 -0.25554976 -0.158787 0.08115422 0.15163305 -0.25882792 0.00632372
-0.066196404 -0.26334283 0.08935885 -0.2553511 -0.18625946 -0.16266432 0.27533147 -0.16044426
0.065569796 -0.2101826 0.21385992 0.012343142 0.044598192 -0.019281182 -0.12756717 -0.19207916
00000000: 0013 9ebd 0c8d 8bbe 6618 a63c f8a7 983e
00000010: 2b03 43be 79be 9d3e 9666 0cbe 1bbe 2b3c
00000020: 81c6 503e 2634 57be ba3d 803e 052a 0b3e
00000030: 0380 2f3e e0c5 8b3e 9724 16be 1b53 753e
00000040: 7192 19be 6f93 083e 6bd7 82be 0f99 22be
00000050: 2f34 a63d b245 1b3e 1885 84be 3537 cf3b
00000060: fb91 87bd dfd4 86be c601 b73d 61bd 82be
00000070: cdba 3ebe 7a91 26be 3ff8 8c3e 804b 24be
00000080: 7549 863d 1c3a 57be 18fe 5a3e e43a 4a3c
00000090: 98ac 363d 92f3 9dbc f8a0 02be 66b0 44be

lstm.bias_hh_l0 f4 [40]
0.24647567 0.050858416 0.1454916 -0.29238352 -0.23142381 0.082916364 -0.23017032 0.2879411
-0.29329422 0.24777633 -0.15101203 -0.25511348 -0.065742925 0.14012258 -0.06156922 -0.16135979
0.271861 -0.19289039 -0.111375526 -0.002509743 -0.059777856 -0.2519674 -0.23665255 0.09560539
-0.08859643 -0.22198129 -0.027376713 -0.22319567 -0.08643414 0.03875793 -0.30085135 -0.18916024
0.21733066 -0.06250898 -0.30898562 0.066405505 -0.2217198 0.17153162 0.23356427 0.30032635
00000000: 1e64 7c3e ea50 503d c0fb 143e 4bb3 95be
00000010: 5dfa 6cbe 0ed0 a93d c5b1 6bbe 046d 933e
00000020: a92a 96be 14b9 7d3e e6a2 1abe 3c9e 82be
00000030: 3aa4 86bd 4b7c 0f3e 0230 7cbd 803b 25be
00000040: 5d31 8b3e 0f85 45be da18 e4bd 807a 24bb
00000050: a0d9 74bd df01 81be 0c55 72be c2cc c33d
00000060: 0c72 b5bd 104f 63be 2145 e0bc 688d 64be
00000070: 6204 b1bd a3c0 1e3d 3009 9abe 39b3 41be
00000080: ee8b 5e3e b504 80bd 5d33 9ebe 9cff 873d
00000090: 840a 63be fca5 2f3e 792b 6f3e 60c4 993e

lstm.weight_ih_l1 f4 [40, 10]
0.29100147 0.038150005 -0.22114156 0.010258757 -0.10571461 -0.011339662 -0.18276748 0.20996498
-0.17173918 0.21334961 0.11547346 0.0102275675 0.24212644 -0.2764788 0.07901347 0.28590164
-0.27275652 0.253502 0.21412238 0.19567949 -0.07734722 0.031519897 -0.24236023 0.29893756
-0.19171907 -0.028136427 0.29404837 0.3130669 0.13598523 -0.2618655 -0.05774786 -0.29535437
0.083855934 0.2544537 0.12003377 -0.17006312 0.07288747 -0.23189193 0.0555438 0.08010703
0.050891068 0.1343174 0.3039366 0.064502895 -0.22457631 -0.15186968 -0.044830494 -0.28129277
-0.21463048 -0.17632411 0.029892193 -0.12716775 0.24739216 0.1790106 0.15057024 0.22738974
0.23467393 0.19777286 0.050017275 -0.2292499 -0.14363392 -0.19478485 0.25086793 -0.006987252
0.0019149567 -0.2048225 0.004024093 -0.11427525 0.076029986 -0.06520143 0.23618117 -0.18989496
-0.2377404 0.17948018 -0.08980662 -0.19934401 0.26836735 -0.04557061 -0.22592297 -0.15402111
0.032316905 0.27716625 0.022323627 0.14037052 -0.30761153 -0.06303598 0.16118197 0.002146012
0.27180782 -0.11469607 0.010196445 -0.0074035614 -0.030041624 0.14332671 -0.14728694 0.107060015
0.3166232 0.12814662 0.2428179 0.028180769 0.024775924 -0.14563598 0.28511798 0.1933306
0.25841677 -0.17171644 -0.039641164 -0.16339223 -0.10462737 0.14420046 0.056291163 -0.16784322
0.13370688 -0.03269051 0.08966302 0.31631702 0.25835276 0.073709644 0.049954068 -0.31371644
-0.15707737 -0.26882523 -0.09183889 0.23236683 0.19117723 -0.23425826 0.21298024 -0.22323175
0.031299956 -0.2269916 -0.08234059 -0.29972386 0.2600084 -0.27583927 0.1420374 0.022366894
-0.09848601 0.064752534 0.26141438 0.2991645 0.23010954 0.23111291 -0.20902848 -0.04891451
-0.16858098 -0.17826055 -0.0022349644 0.068060204 0.089180924 0.128196 0.10553692 0.16641983
0.035034765 0.19367296 -0.28624153 -0.060525186 0.039035603 0.13081633 -0.14761122 -0.2954535
0.17095065 -0.30673525 -0.009265791 0.057336688 -0.25577447 -0.2519991 0.17345002 0.26590964
0.10209907 0.2148857 0.048716865 -0.046331987 0.119356 0.20856756 0.31866696 0.17668867
0.26604804 0.12192096 -0.06022864 0.20886365 -0.06162012 -0.08974705 -0.03888434 0.23892958
0.023361525 0.10845749 -0.276888 0.0039798226 -0.2751219 0.21827926 -0.00088738045 0.11028281
0.29121807 0.28508034 -0.038334537 0.10374953 -0.09965806 0.26299286 0.019649722 0.08349438
-0.17750192 0.20203282 -0.0993344 -0.13675776 0.035672646 -0.2525949 -0.30264997 0.006149677
-0.06409582 -0.22154275 0.26270133 -0.18625712 0.25223845 0.042001095 -0.05684592 -0.30506203
0.11959862 -0.08224012 -0.1241981 0.23669833 -0.048580747 -0.2540963 -0.21505713 0.11250445
-0.09546581 0.2286422 0.08093037 0.10573102 -0.29258814 -0.14589843 0.32417306 0.2923686
0.1231441 -0.095880575 0.07932564 0.24145895 0.18142225 -0.009490886 -0.12764412 -0.27559903
-0.21464972 0.26259127 -0.14817195 0.17030776 0.20475931 -0.3096596 -0.15156876 -0.041883465
-0.24132948 0.25340405 -0.22132957 -0.1936759 -0.16625121 -0.10308392 0.19610444 -0.009470228
00000000: 25fe 943e 2e43 1c3d ef72 62be 5814 283c
00000010: e780 d8bd fdc9 39bc 6627 3bbe 0f01 573e
00000020: 65dc 2fbe 5278 5a3e 597d ec3d 8791 273c
00000030: feef 773e a18e 8dbe d0d1 a13d b361 923e
00000040: bea6 8bbe 04cb 813e e642 5b3e 3460 483e
00000050: 3868 9ebd 021b 013d 482d 78be 580e 993e
00000060: 0152 44be 5d7e e6bc 828d 963e 4e4a a03e
00000070: b63f 0b3e 3c13 86be 0589 6cbd b038 97be
00000080: a9bc ab3d c147 823e 44d4 f53d 0725 2ebe
00000090: 0746 953d 1475 6dbe e581 633d 280f a43d
000000a0: 2773 503d 808a 093e 949d 9b3e 181a 843d
000000b0: 55f7 65be ba83 1bbe 2ea0 37bd 9b05 90be
000000c0: 18c8 5bbe 4f8e 34be 79e0 f43c 4338 02be
000000d0: 5f54 7d3e 8e4e 373e 162f 1a3e dbd8 683e
000000e0: 5d4e 703e f884 4a3e eade 4c3d 7cc0 6abe
000000f0: c514 13be ae75 47be c371 803e 51f5 e4bb
00000100: 49ff fa3a fdbc 51be 8adc 833b 2409 eabd
00000110: 9cb5 9b3d 5488 85bd 7ad9 713e d373 42be
00000120: 3872 73be a7c9 373e 88ec b7bd d620 4cbe
00000130: 7267 893e 3fa8 3abd 5a58 67be b6b7 1dbe
00000140: bb5e 043d bce8 8d3e 0ae0 b63c 4abd 0f3e
00000150: 427f 9dbe 0219 81bd e30c 253e 1ba4 0c3b
00000160: 652a 8b3e c6e5 eabd fd0e 273c 9399 f2bb
00000170: da19 f6bc 3dc4 123e 63d2 16be 4842 db3d
00000180: 701c a23e de38 033e 41a5 783e 5bdb e63c
00000190: e1f6 ca3c 9921 15be fcfa 913e 75f8 453e
000001a0: 344f 843e 6fd6 2fbe c65e 22bd 4b50 27be
000001b0: e046 d6bd 49a9 133e 9091 663d 18df 2bbe
000001c0: 75ea 083e 7ce6 05bd 3fa1 b73d 4ef4 a13e
000001d0: d046 843e 15f5 963d a39c 4c3d 719f a0be
000001e0: e4d8 20be 76a3 89be 0716 bcbd 92f1 6d3e
000001f0: f7c3 433e 66e1 6fbe 7e17 5a3e dd96 64be
00000200: 6234 003d 7c70 68be 2fa2 a8bd 6875 99be
00000210: d21f 853e ce3a 8dbe 4172 113e c73a b73c
00000220: 09b3 c9bd fa9c 843d 1bd8 853e 172c 993e
00000230: d6a1 6b3e dda8 6c3e 900b 56be 955a 48bd
00000240: 7ea0 2cbe ef89 36be 7b78 12bb 2663 8b3d
00000250: 7da4 b63d d045 033e be23 d83d f669 2a3e
00000260: 9d80 0f3d 3452 463e 408e 92be 42e9 77bd
00000270: cce3 1f3d b7f4 053e 6527 17be ae45 97be
00000280: b00d 2f3e 670c 9dbe 8bcf 17bc e0d9 6a3d
00000290: dff4 82be 0706 81be e29c 313e 4f25 883e
000002a0: 5119 d13d ff0a 5c3e 568b 473d 9cc6 3dbd
000002b0: eb70 f43d bc92 553e 5128 a33e e0ed 343e
000002c0: 7337 883e b2b1 f93d 4eb2 76bd 5ae0 553e
000002d0: 6165 7cbd 4dcd b7bd 3045 1fbd f5a9 743e
000002e0: ab60 bf3c f61e de3d 44c4 8dbe 2c69 823b
000002f0: c7dc 8cbe 9984 5f3e 189f 68ba f4db e13d
00000300: 891a 953e 0df6 913e ad04 1dbd a27a d43d
00000310: 8619 ccbd 00a7 863e 74f8 a03c 1aff aa3d
00000320: 10c3 35be b1e1 4e3e d56f cbbd 3a0a 0cbe
00000330: 7b1d 123d 1e54 81be f0f4 9abe 3b83 c93b
00000340: ab44 83bd 1adc 62be ca80 863e 30ba 3ebe
00000350: 6625 813e 5709 2c3d 44d7 68bd 1731 9cbe
00000360: 1ff0 f43d 826d a8bd 935b febd 0c61 723e
00000370: 9bfc 46bd e918 82be f037 5cbe bc68 e63d
00000380: 9483 c3bd 2e21 6a3e d2be a53d 8189 d83d
00000390: 1dce 95be 6666 15be 03fa a53e 56b1 953e
000003a0: f932 fc3d 095d c4bd 7b75 a23d 0441 773e
000003b0: c1c6 393e a97f 1bbc 24b5 02be 511b 8dbe
000003c0: 23cd 5bbe 5d72 863e 63ba 17be 2865 2e3e
000003d0: 6dac 513e b48b 9ebe d734 1bbe ff8d 2bbd
000003e0: 131f 77be 2dbe 813e 38a4 62be fa52 46be
000003f0: c23d 2abe aa1d d3bd 9acf 483e 0429 1bbc

lstm.weight_hh_l1 f4 [40, 10]
0.09647454 -0.2683114 -0.16328156 0.3172546 -0.28651646 0.25759044 -0.14509037 0.015370715
-0.27833822 -0.31799504 0.22494172 -0.29380417 -0.14629447 0.07568669 0.21427892 0.04408922
0.08360215 0.16465327 0.10627579 0.23759598 0.109260805 0.020046065 -0.14500795 0.19438644
-0.05355334 -0.12141255 -0.11159943 -0.06808905 0.03178401 0.2527609 -0.03310102 0.004554618
0.042387433 -0.25313002 0.041669033 0.32393613 -0.11466895 -0.08007926 0.02379814 0.22180854
-0.2488428 -0.19429174 0.18665335 -0.14010487 -0.040389117 -0.28216875 -0.19314633 0.088380575
-0.251964 -0.014890066 0.19241114 0.1039338 -0.24367361 -0.30285817 0.008329128 -0.0032947524
-0.3283595 0.22065577 0.13763118 0.27703777 -0.23519948 -0.15091327 -0.2083144 0.11327564
-0.2185659 0.3024324 -0.10272483 0.11758423 0.2701485 0.009993199 0.037223767 -0.29585138
0.15379424 -0.08662662 0.11452322 0.17193149 0.25190446 -0.22447282 -0.010348776 0.1342989
0.16261578 -0.17888984 0.120206244 -0.23295544 0.19448958 -0.08963857 -0.100463435 0.17847565
0.30665 0.17937878 -0.26938862 -0.28756276 -0.2682727 0.27918467 0.20363808 0.2790397
0.16465624 0.25341383 -0.19795758 0.03442687 0.07714465 0.19414933 0.2856375 0.018963145
-0.10158865 -0.0838105 -0.30143815 -0.05677985 0.05963977 0.2618557 0.12980182 0.008152646
-0.27138358 -0.22829352 0.09829051 -0.2154428 -0.050543375 -0.32000455 -0.1701345 0.06392841
-0.110597186 0.1340793 -0.01459375 0.1597662 -0.120141484 -0.023921508 -0.17172119 0.017732397
0.10897676 0.13668793 -0.14381772 0.08646659 0.2787565 -0.005989319 -0.22498423 -0.076811835
0.058793616 -0.18408775 -0.06496744 -0.055175416 -0.08790311 0.22282185 0.21345024 0.03645128
-0.1679577 0.06620304 0.234409 -0.12006741 0.20316313 0.0697094 0.100283474 -0.11257989
0.031276777 -0.30171937 -0.04922275 -0.27016613 -0.18337548 -0.10880711 0.24802883 0.21244442
0.08266089 0.10296385 0.015946737 0.18908451 -0.17321551 0.2911466 -0.03494181 -0.28328204
0.043693256 -0.23095152 -0.26802853 -0.110956326 0.15067567 -0.24718681 -0.12977777 -0.2559591
0.25654477 -0.17327352 0.30875728 0.039198615 -0.30919132 -0.056887336 -0.09543769 0.30396768
-0.26485538 -0.3023735 -0.009930111 -0.009012975 -0.28185377 -0.21783787 -0.005818954 0.057168286
-0.21634114 0.109444216 -0.1845718 0.039230548 -0.31031498 0.19311228 0.19062412 0.029760944
0.16184984 0.14677396 0.1968273 0.03968903 0.24713264 0.09296028 -0.008955001 -0.10774212
-0.24529356 0.12206436 -0.18537089 0.022156421 0.077426895 -0.046601832 -0.117782064 0.070335284
0.09148077 -0.10064014 0.28505248 -0.18970169 -0.13265133 0.15991324 -0.21231316 -0.22643948
0.02197927 0.018479308 0.021742146 -0.21752055 0.09633072 -0.029011708 -0.2614932 -0.07463144
-0.040806375 -0.09303794 -0.17809053 0.06172277 -0.20162793 0.18954702 -0.291871 0.09191483
-0.046375267 0.17749889 -0.27447295 -0.2065259 0.09624833 -0.07399167 0.2268817 0.029015752
-0.034727167 -0.28872254 -0.18879375 0.18685618 -0.0009782672 0.09061529 0.02760749 -0.16624318
00000000: 7294 c53d 1d60 89be 4833 27be 326f a23e
00000010: 49b2 92be e5e2 833e 9292 14be 74d5 7b3c
00000020: 5982 8ebe 3fd0 a2be 1f57 663e 806d 96be
00000030: 38ce 15be a001 9b3d ef6b 5b3e e696 343d
00000040: 9b37 ab3d de9a 283e 1fa7 d93d 5c4c 733e
00000050: 21c4 df3d a537 a43c f77c 14be 3d0d 473e
00000060: bf5a 5bbd 25a7 f8bd 3e8e e4bd 4672 8bbd
00000070: f32f 023d e069 813e ef94 07bd e83e 953b
00000080: 729e 2d3d 429a 81be 26ad 2a3d f5da a53e
00000090: 8ed7 eabd 9800 a4bd 51f4 c23c c721 633e
000000a0: a6d0 7ebe 6af4 46be 0e22 3f3e a777 0fbe
000000b0: 0f6f 25bd 6c78 90be 27c8 45be e000 b53d
000000c0: 6d01 81be 77f5 73bc 6d07 453e 3edb d43d
000000d0: 9385 79be 3a10 9bbe e576 083c c6ec 57bb
000000e0: bd1e a8be 96f3 613e 30ef 0c3e e5d7 8d3e
000000f0: 22d8 70be 0289 1abe 5f50 55be 0ffd e73d
00000100: bdcf 5fbe 6bd8 9a3e 6561 d2bd 00d0 f03d
00000110: e750 8a3e 84ba 233c f377 183d d579 97be
00000120: 3d7c 1d3e 4c69 b1bd 268b ea3d cf0e 303e
00000130: 9ff9 803e 34dc 65be ea8d 29bc a785 093e
00000140: c084 263e e62e 37be b12e f63d df8b 6ebe
00000150: 4728 473e 6d94 b7bd c6bf cdbd 52c2 363e
00000160: 3b01 9d3e 12af 373e 4eed 89be 6d3b 93be
00000170: 0a5b 89be 4bf1 8e3e 8086 503e 4bde 8e3e
00000180: a59b 283e 75bf 813e 64b5 4abe 3103 0d3d
00000190: 04fe 9d3d 15cf 463e 143f 923e 9958 9b3c
000001a0: b60d d0bd d7a4 abbd 1a56 9abe fd91 68bd
000001b0: d548 743d f311 863e c5ea 043e ad92 053c
000001c0: caf2 8abe c7c5 69be 894c c93d 0a9d 5cbe
000001d0: 9206 4fbd a3d7 a3be bd37 2ebe e6ec 823d
000001e0: c780 e2bd 164c 093e a01a 6fbc c099 233e
000001f0: bd0c f6bd 0af7 c3bc aed7 2fbe 8843 913c
00000200: 352f df3d ecf7 0b3e f444 13be 6515 b13d
00000210: 2cb9 8e3e 0d42 c4bb 4462 66be 864f 9dbd
00000220: 93d1 703d 8081 3cbe a60d 85bd 9eff 61bd
00000230: 8c06 b4bd 692b 643e b392 5a3e f04d 153d
00000240: 1afd 2bbe 7695 873d ea08 703e e7e5 f5bd
00000250: ff09 503e cdc3 8e3d 6c61 cd3d 4990 e6bd
00000260: 141c 003d f67a 9abe cb9d 49bd 3753 8abe
00000270: c8c6 3bbe 43d6 debd 45fb 7d3e 088b 593e
00000280: 1d4a a93d b6de d23d bba2 823c 5f9f 413e
00000290: 685f 31be 2b11 953e 251f 0fbd 580a 91be
000002a0: b3f7 323d 8e7e 6cbe 093b 89be 123d e3bd
000002b0: b94a 1a3e 8a1e 7dbe 77e4 04be 120d 83be
000002c0: d659 833e 9d6e 31be 6f15 9e3e ba8e 203d
000002d0: 534e 9ebe b202 69bd d674 c3bd a7a1 9b3e
000002e0: 209b 87be b3d0 9abe e7b1 22bc 28ab 13bc
000002f0: 234f 90be e410 5fbe edac bebb 4b29 6a3d
00000300: 8888 5dbe 4a24 e03d 6400 3dbe 36b0 203d
00000310: 9be1 9ebe 3abf 453e f832 433e 39cd f33c
00000320: f7bb 253e ea4b 163e 198d 493e f790 223d
00000330: 5710 7d3e f661 be3d ffb7 12bc e7a7 dcbd
00000340: 3c2e 7bbe e1fc f93d ded1 3dbe 6281 b53c
00000350: fe91 9e3d 90e1 3ebd b937 f1bd f20b 903d
00000360: 455a bb3d 6b1c cebd 66f2 913e 2941 42be
00000370: c0d5 07be 4cc0 233e 9f68 59be c0df 67be
00000380: df0d b43c eb61 973c 961c b23c b5bd 5ebe
00000390: 0a49 c53d f6a9 edbc 70e2 85be 5ed8 98bd
000003a0: 9624 27bd ad8a bebd 5d5d 36be 04d1 7c3d
000003b0: 8d77 4ebe 9d18 423e 1e70 95be d83d bc3d
000003c0: fef3 3dbd 45c2 353e b887 8cbe 877b 53be
000003d0: d81d c53d f288 97bd ad53 683e 71b2 ed3c
000003e0: 133e 0ebd 71d3 93be 2653 41be 3a57 3f3e
000003f0: 3339 80ba 8294 b93d 1a29 e23c a73b 2abe

lstm.bias_ih_l1 f4 [40]
-0.24283133 0.13832597 -0.26601747 -0.11900618 -0.16935647 0.21673173 0.011087371 -0.30293816
-0.3030264 0.17529082 0.25506687 0.20260741 0.24390724 -0.20234872 -0.26899132 -0.21076092
-0.052409228 0.038347427 -0.10832626 0.09311089 -0.29170385 0.06564528 0.23283188 0.018608697
0.11773321 0.18354052 0.019598994 0.29445133 -0.21337655 -0.17664497 0.102364406 0.23274176
-0.08965783 0.1476215 0.2279042 0.26560792 0.2203385 0.09433565 -0.24380606 -0.10841618
00000000: c7a8 78be 53a5 0d3e 7133 88be 83b9 f3bd
00000010: c86b 2dbe ecee 5d3e cea7 353c b61a 9bbe
00000020: 4726 9bbe 707f 333e 2098 823e 5178 4f3e
00000030: d2c2 793e 8134 4fbe 3bb9 89be b6d1 57be
00000040: 0fab 56bd 3112 1d3d 28da ddbd ecb0 be3d
00000050: 355a 95be 0871 863d 7b6b 6e3e 4471 983c
00000060: 1c1e f13d 0cf2 3b3e 128e a03c 53c2 963e
00000070: 627f 5abe 6be2 34be 6ea4 d13d db53 6e3e
00000080: 869e b7bd 172a 173e b85f 693e c3fd 873e
00000090: 6aa0 613e 0d33 c13d 4ca8 79be 4d09 debd

lstm.bias_hh_l1 f4 [40]
-0.20516168 0.18406063 -0.054252792 0.22790678 0.12070047 0.18004103 -0.16661924 0.06402584
-0.10401085 -0.00408213 0.14871216 0.21082173 -0.13269973 -0.0688751 -0.21059832 -0.20981939
-0.30624795 0.029738607 -0.0078772595 0.24480507 -0.0680979 -0.13233826 -0.04808103 -0.16936494
-0.29136842 0.25440472 -0.12472772 -0.019100795 0.09017394 0.2928783 0.28911322 0.14674811
0.19183221 0.24217635 -0.23436888 -0.21306871 0.19954222 -0.1988024 0.116603054 -0.066074535
00000000: e715 52be 647a 3c3e 2d38 5ebd 6560 693e
00000010: cf31 f73d ad5c 383e 3c9e 2abe fb1f 833d
00000020: a403 d5bd 63c3 85bb 0048 183e a7e1 573e
00000030: 70e2 07be 630e 8dbd 16a7 57be e5da 56be
00000040: 88cc 9cbe 619e f33c 9f0f 01bc 2eae 7a3e
00000050: e976 8bbd ae83 07be 9df0 44bd 016e 2dbe
00000060: 3e2e 95be 5641 823e 3f71 ffbd 4579 9cbc
00000070: 1dad b83d 25f4 953e a606 943e 2345 163e
00000080: aa6f 443e 14fd 773e 65fe 6fbe af2e 5abe
00000090: cc54 4c3e db92 4bbe 95cd ee3d 1652 87bd

fc.weight f4 [1, 200]
-0.012769428 0.023343459 -0.07619945 0.058725566 0.016381087 -0.038878538 0.016455282 0.03107829
0.018095175 -0.07011254 -0.013280368 -0.04771622 -0.04473412 -0.05599335 -0.041245587 -0.03780209
-0.005404988 0.0106177805 -0.004141229 0.024654733 0.030753324 -0.03358374 -0.05722174 0.05852592
0.004183016 -0.052802112 -0.0060933423 0.042263705 0.051879577 -0.053469565 0.049255278 0.073696345
0.021135613 -0.018221222 0.034484793 -0.06875359 0.0102712 0.022626106 -0.061088786 0.025387643
0.048288345 -0.015467511 0.022900175 0.025273478 -0.042544246 0.01315251 0.0034290615 -0.054239366
-0.03456252 0.011008644 0.06891971 -0.040189393 -0.051542807 0.06899355 0.0012180174 0.0020633335
-0.021353181 -0.014640235 0.057856143 -0.03954438 -0.041790936 0.042000793 0.009536105 -0.05264443
-0.05418776 0.012388929 0.07527998 -0.0748928 0.020418944 0.028576717 -0.051380415 -0.05364497
0.04045404 0.05942618 0.040633805 0.01924576 -0.033514794 -0.05868977 -0.060756058 -0.07317263
-0.005680396 0.0077033024 0.0024579132 0.047274984 -0.03576948 -0.0074584954 0.07632353 0.0064076977
-0.07306852 -0.0059107025 0.010845865 -0.037596826 0.047626473 0.023266325 0.06438249 -0.036959846
0.0733976 0.05478853 -0.028334556 0.02304841 -0.020033414 0.063701995 0.027154546 0.045473102
-0.00035201156 -0.058562733 0.0039524604 0.055292122 0.03390205 -0.025019411 -0.011058265 0.03061776
-0.017053468 -0.014807217 0.019554412 -0.057523627 -0.01796861 -0.050756145 0.04498509 -0.0036552288
0.031536784 0.041806452 -0.08548754 0.06342794 -0.016734976 -0.077129856 -0.020368163 -0.029540082
-0.060709678 -0.069113925 -0.042388357 0.040259857 0.035749584 0.06482711 0.0064951093 0.021731773
-0.028334392 -0.024613252 -0.03287754 -0.017745314 -0.047103878 0.06181004 -0.0541498 -0.050912946
-0.010272619 -0.008915991 0.020825135 0.01697514 -0.0070345816 -0.04951103 -0.011066336 0.012772947
-0.059026275 0.047860242 0.0099061495 0.032294847 -0.04452921 0.026424281 -0.05814495 -0.046768926
-0.054096285 0.003297404 0.04777396 0.07023716 -0.04663462 -0.047520336 -0.0099115465 -0.050765127
0.0053963833 0.04390644 -0.049014017 0.0065579982 -0.0030794016 -0.00044794937 -0.0129574975 -0.06703641
0.0821065 0.051428128 -0.049636375 -0.0058704624 -0.040678814 -0.020438354 0.026061896 -0.014912809
-0.043871406 -0.04945007 -0.016626684 -0.0010349305 -0.07358458 -0.05153624 0.02469888 -0.03901722
0.045634583 0.046607416 -0.01587855 -0.0012283352 -0.021381373 0.020676179 -0.00365002 -0.036741845
00000000: dd36 51bc c83a bf3c 750e 9cbd 388a 703d
00000010: a131 863c 1a3f 1fbd 3acd 863c e697 fe3c
00000020: 553c 943c 2a97 8fbd e795 59bc 1572 43bd
00000030: 203b 37bd 4859 65bd 22f1 28bd 5dd6 1abd
00000040: 531c b1bb 33f6 2d3c 26b3 87bb b9f8 c93c
00000050: 65ee fb3c 1b8f 09bd 5861 6abd e0b8 6f3d
00000060: ae11 893b 0747 58bd a9aa c7bb b51c 2d3d
00000070: ae7f 543d e702 5bbd e7bf 493d 1cee 963d
00000080: 9824 ad3c ac44 95bc ed3f 0d3d afce 8cbd
00000090: 8948 283c 625a b93c 3c38 7abd bff9 cf3c
000000a0: 00ca 453d 716b 7dbc 2699 bb3c 530a cf3c
000000b0: e042 2ebd a07d 573c 1bba 603b 192a 5ebd
000000c0: 6e91 0dbd 995d 343c c725 8d3d a29d 24bd
000000d0: 8d1e 53bd 7e4c 8d3d e2a5 9f3a fe38 073b
000000e0: deec aebc 99dd 6fbc 90fa 6c3d 4af9 21bd
000000f0: f92c 2bbd 0609 2c3d 533d 1c3c b0a1 57bd
00000100: fcf3 5dbd effa 4a3c 642c 9a3d 6561 99bd
00000110: a145 a73c b819 ea3c 4574 52bd d4ba 5bbd
00000120: 23b3 253d de68 733d a26f 263d 49a9 9d3c
00000130: cf46 09bd af64 70bd 58db 78bd 88db 95bd
00000140: 9e22 babb fc6b fc3b f114 213b 6aa3 413d
00000150: 0583 12bd 6566 f4bb 834f 9c3d aaf7 d13b
00000160: f3a4 95bd 91ae c1bb dbb2 313c 21ff 19bd
00000170: fa13 433d 0599 be3c f8da 833d 3563 17bd
00000180: 7b51 963d f069 603d df1d e8bc 05d0 bc3c
00000190: 1d1d a4bc 3176 823d 3673 de3c 0142 3a3d
000001a0: 318e b8b9 7adf 6fbd a483 813b fe79 623d
000001b0: e0dc 0a3d 82f5 ccbc ba2d 35bc 19d2 fa3c
000001c0: b7b3 8bbc f899 72bc 9330 a03c e59d 6bbd
000001d0: e832 93bc ade5 4fbd 4942 383d 908c 6fbb
000001e0: b72c 013d 3e3d 2b3d 1714 afbd 82e6 813d
000001f0: ca17 89bc 42f6 9dbd 22db a6bc 0bfe f1bc
00000200: b6aa 78bd 9a8b 8dbd 6a9f 2dbd 85e7 243d
00000210: 286e 123d 13c4 843d edd4 d43b d506 b23c
00000220: 871d e8bc bba1 c9bc 99aa 06bd 9f5e 91bc
00000230: ffef 40bd 862c 7d3d 2ecc 5dbd 188a 50bd
00000240: 7d4e 28bc 6014 12bc 7999 aa3c 730f 8b3c
00000250: 5982 e6bb 14cc 4abd 944f 35bc 9f45 513c
00000260: 89c5 71bd 1a09 443d 674d 223c 9a47 043d
00000270: 4364 36bd bc77 d83c 6629 6ebd c690 3fbd
00000280: 1194 5dbd 4219 583b a1ae 433d 80d8 8f3d
00000290: f103 3fbd afa4 42bd 0a64 22bc 18ef 4fbd
000002a0: 25d4 b03b 3dd7 333d ecc2 48bd 7ae4 d63b
000002b0: c9cf 49bb bfda eab9 af4b 54bc 634a 89bd
000002c0: 7427 a83d 4da6 523d 834f 4bbd 025d c0bb
000002d0: d49e 26bd 566e a7bc c27f d53c db54 74bc
000002e0: 81b2 33bd 288c 4abd af34 88bc 81a6 87ba
000002f0: 83b3 96bd aa17 53bd 4e55 ca3c 85d0 1fbd
00000300: 54eb 3a3d 6be7 3e3d bc13 82bc 1700 a1ba
00000310: fd27 afbc 1761 a93c 2d35 6fbb 9e7e 16bd

exp_avg f4 [40, 31]
-2.9030248e-06 -6.4365196e-07 1.1764399e-07 2.584046e-06 -1.3012956e-07 2.405934e-06 4.7994263e-08 7.503261e-07
-5.1435217e-07 4.6328515e-07 1.7546686e-06 8.3368604e-07 -1.4680745e-07 4.7028357e-06 -2.9357843e-06 3.9451126e-07
6.473533e-07 -8.645678e-07 2.276626e-06 -8.2528817e-07 4.9638093e-06 -5.042321e-06 5.2356486e-06 -2.612214e-08
2.6305968e-06 8.344017e-06 -5.4910385e-07 2.5784084e-07 -1.14740915e-05 1.2510234e-06 -2.3120808e-06 -7.7353725e-06
-1.7153175e-06 5.434242e-07 5.8786864e-06 6.609798e-07 4.7181774e-07 6.067845e-06 2.5980407e-06 2.028126e-06
1.7701137e-06 1.4338036e-07 2.9750754e-06 9.0382866e-07 3.4594846e-06 -7.9872854e-07 1.7644306e-06 1.3874483e-06
4.906886e-07 2.897099e-06 1.6188111e-06 5.3106857e-07 -9.391182e-07 1.3076751e-06 -1.3900252e-07 1.3625704e-06
3.2418857e-06 -8.436467e-07 -3.933269e-07 -3.4816154e-07 1.5225469e-07 9.886553e-07 -6.088485e-07 -1.3501003e-07
6.357277e-08 4.5202341e-07 6.270317e-08 8.764754e-07 -3.6174868e-07 7.2015195e-07 4.2912768e-07 -1.1279355e-06
4.9338263e-07 5.1650346e-07 -7.6410464e-07 4.6547433e-07 2.968539e-07 2.6527317e-07 4.013768e-07 -2.1794379e-07
6.6020434e-08 7.9289144e-08 3.9046634e-07 -1.8600969e-07 1.4629833e-07 -5.4640924e-07 1.3561974e-07 1.2189233e-06
-1.4217983e-07 -8.880818e-08 -5.119906e-07 5.6640147e-08 -3.711284e-08 1.3130496e-06 2.9129302e-07 2.6948334e-07
-8.388761e-07 -2.716912e-07 2.622059e-06 -3.732627e-06 -1.5493439e-06 -1.8664194e-06 1.6048801e-07 2.1447122e-06
-1.324054e-06 -2.1681653e-06 8.941131e-07 1.4875437e-06 -3.398635e-07 -3.5951643e-08 -4.4342523e-06 3.699498e-06
-1.4272036e-06 6.634279e-06 -8.27436e-06 3.0348185e-06 1.0290006e-06 1.263407e-06 5.77015e-06 -1.8615074e-07
9.457895e-07 -6.9069306e-06 1.1783782e-06 -4.171745e-06 -2.195493e-06 -4.867677e-07 4.4950653e-07 2.1119108e-06
-2.561045e-07 1.8750452e-06 -1.9238428e-08 -1.1071475e-06 5.8860508e-08 1.3206229e-06 1.5834738e-06 -1.253162e-06
4.2055655e-07 2.5161382e-06 1.7227606e-07 -6.288455e-07 -5.715436e-07 1.9406886e-07 2.8621275e-06 -5.995361e-07
1.4167564e-06 -2.3305051e-06 1.9517854e-06 6.830118e-07 6.593089e-07 2.703256e-06 -4.3484537e-08 2.3421275e-07
-2.6076555e-06 7.332888e-07 -9.4463303e-07 5.73988e-06 1.2727975e-06 -9.964916e-07 -4.864666e-06 1.2118636e-08
-3.6873375e-06 -1.1652089e-06 -6.121755e-07 -1.8183928e-06 -1.4817342e-06 -9.4024347e-07 6.4170973e-07 -1.4385828e-06
-3.313007e-06 -7.426663e-07 4.3562613e-07 -5.048722e-07 -1.2117446e-06 -3.571556e-06 -5.0555787e-08 6.578808e-07
-1.8624265e-06 4.9215305e-07 -7.2980316e-07 6.803531e-07 2.150266e-06 -3.865803e-07 -6.3008997e-07 -3.7954296e-06
7.452499e-08 -1.452839e-06 4.1007664e-07 9.091269e-08 2.885876e-07 -1.9430043e-07 -1.5230339e-07 -1.2772896e-06
9.306833e-07 8.0167564e-07 -4.5555635e-07 -7.963958e-08 -6.130841e-07 5.727026e-07 -1.5956167e-07 -1.069382e-06
3.0963406e-07 -6.7478373e-07 2.4447045e-06 -2.6243545e-06 5.078265e-07 -1.7342151e-07 3.647692e-07 -8.9760516e-07
5.403227e-07 1.2043383e-06 -4.1279822e-08 -3.5930887e-07 -8.7238993e-07 3.0495633e-07 -9.529202e-07 5.022926e-07
3.3642237e-08 1.1380123e-05 2.5235083e-06 -5.3258697e-07 -9.501924e-06 -1.18965666e-07 -3.4126892e-06 -6.2082036e-06
-2.2791178e-06 -2.4539584e-06 -2.3242699e-06 -2.5635456e-06 -2.4101857e-06 -2.3394696e-06 -1.9244494e-06 -2.9467865e-06
-6.2788575e-07 -1.892845e-06 -2.3298812e-06 -4.770279e-06 -7.23895e-07 1.4195906e-06 -5.1358406e-06 2.023906e-06
-8.8781707e-07 1.787895e-07 1.7896305e-06 -3.6343656e-07 -3.9004863e-07 -6.4803344e-06 4.111942e-07 -1.4626348e-06
-7.6162123e-06 -1.6888549e-06 7.192564e-07 6.121756e-06 3.1701896e-07 2.0405714e-06 4.398201e-06 1.8239637e-06
00000000: 96d1 42b6 6dc7 2cb5 78a3 fc33 9269 2d36
00000010: beb9 0bb4 a275 2136 4022 4e33 046a 4935
00000020: 0312 0ab5 6db9 f834 f481 eb35 78ca 5f35
00000030: 20a2 1db4 0dcd 9d36 6404 45b6 37cd d334
00000040: c8c5 2d35 a614 68b5 23c8 1836 5f89 5db5
00000050: cc8e a636 3531 a9b6 e1ad af36 3163 e0b2
00000060: 4f89 3036 48fd 0b37 2166 13b5 606d 8a34
00000070: d980 40b7 d6e8 a735 3f29 1bb6 2cc7 01b7
00000080: dc39 e6b5 d4df 1135 8841 c536 306e 3135
00000090: 234e fd34 649a cb36 005a 2e36 f01a 0836
000000a0: a594 ed35 18f4 1934 68a7 4736 a29e 7235
000000b0: 7e29 6836 3568 56b5 60d1 ec35 5c38 ba35
000000c0: ddb7 0335 c86b 4236 ed45 d935 c18e 0e35
000000d0: b617 7cb5 6083 af35 b940 15b4 90e1 b635
000000e0: 2c8f 5936 f676 62b5 702a d3b4 f5ea bab4
000000f0: 737b 2334 f0b1 8435 c06f 23b5 46f7 10b4
00000100: 8085 8833 a0ad f234 6fa7 8633 ee46 6b35
00000110: 5c36 c2b4 7750 4135 dc62 e634 9263 97b5
00000120: ff70 0435 d9a5 0a35 df1c 4db5 4ee6 f934
00000130: 4a5f 9f34 de6a 8e34 cf7c d734 ef03 6ab4
00000140: 1ec7 8d33 ab45 aa33 49a1 d134 f4b9 47b4
00000150: 2e16 1d34 f5ac 12b5 df9e 1134 e399 a335
00000160: 18aa 18b4 d0b6 beb3 ba6f 09b5 8044 7333
00000170: 0066 1fb3 0a3c b035 0263 9c34 82ad 9034
00000180: 202f 61b5 f4dc 91b4 a1f6 2f36 0b7e 7ab6
00000190: 0df3 cfb5 af81 fab5 9c52 2c34 e0ed 0f36
000001a0: 26b6 b1b5 cc80 11b6 fc02 7035 9da7 c735
000001b0: 7c76 b6b4 4069 1ab3 f0c9 94b6 e444 7836
000001c0: 588e bfb5 069c de36 1bd2 0ab7 c9a9 4b36
000001d0: 311c 8a35 5592 a935 369d c136 bae0 47b4
000001e0: 29e2 7d35 15c2 e7b6 c428 9e35 04fb 8bb6
000001f0: 4856 13b6 6caa 02b5 b553 f134 5aba 0d36
00000200: bc7e 89b4 10aa fb35 c041 a5b2 4c99 94b5
00000210: d0cd 7c33 4240 b135 bf87 d435 5232 a8b5
00000220: dac8 e134 edda 2836 e2fa 3834 efcd 28b5
00000230: 2d6c 19b5 3e61 5034 fa12 4036 cfef 20b5
00000240: 6127 be35 c665 1cb6 6bfb 0236 3758 3735
00000250: 5dfb 3035 9669 3536 c1c3 3ab3 e97b 7b34
00000260: 2eff 2eb6 39d7 4435 b092 7db5 3299 c036
00000270: fdd4 aa35 31bf 85b5 2a3b a3b6 5332 5032
00000280: fa73 77b6 4664 9cb5 6154 24b5 800f f4b5
00000290: 00e0 c6b5 0a65 7cb5 f541 2c35 5415 c1b5
000002a0: 0755 5eb6 a45b 47b5 00e0 e934 8e86 07b5
000002b0: 3aa3 a2b5 ddae 6fb6 ad22 59b3 3999 3035
000002c0: 7df8 f9b5 801c 0435 b1e7 43b5 82a1 3635
000002d0: 4a4d 1036 318b cfb4 7423 29b5 fcb4 7eb6
000002e0: 8c0a a033 2bff c2b5 8128 dc34 c83b c333
000002f0: 2def 9a34 e5a0 50b4 d688 23b4 566f abb5
00000300: 12d4 7935 bb32 5735 3093 f4b4 5206 abb3
00000310: d292 24b5 d3bb 1935 fa53 2bb4 b087 8fb5
00000320: c83b a634 c922 35b5 b40f 2436 111e 30b6
00000330: 9251 0835 be35 3ab4 7fd5 c334 f5f2 70b5
00000340: b10a 1135 c0a4 a135 a54b 31b3 09e7 c0b4
00000350: 2e2e 6ab5 e1b8 a334 2dcc 7fb5 49d5 0635
00000360: 087e 1033 42ed 3e37 8b59 2936 19f7 0eb5
00000370: 746a 1fb7 117a ffb3 8e05 65b6 1050 d0b6
00000380: f2f2 18b6 afae 24b6 a7fa 1bb6 6109 2cb6
00000390: adbe 21b6 c8ff 1cb6 ca25 01b6 68c1 45b6
000003a0: fb8b 28b5 a90d feb5 0e5b 1cb6 6210 a0b6
000003b0: b051 42b5 c388 be35 8954 acb6 71d2 0736
000003c0: 5352 6eb5 49f9 3f34 3c33 f035 571e c3b4
000003d0: e067 d1b4 a671 d9b6 1ac2 dc34 c04f c4b5
000003e0: c48e ffb6 9dac e2b5 ec12 4135 7c69 cd36
000003f0: c132 aa34 c0f0 0836 4294 9336 eace f435

exp_avg_sq f4 [40, 31]
1.18226815e-07 5.8130603e-09 2.7848996e-09 8.3041094e-08 1.0201217e-10 2.528231e-08 2.2407155e-08 6.6558146e-09
5.422469e-09 1.4282325e-08 2.0760162e-08 7.797925e-09 4.5460684e-09 1.0228952e-08 2.0683915e-08 2.666085e-09
2.8822429e-09 4.0158312e-09 4.986969e-08 1.2956481e-09 2.7592086e-09 3.7517065e-09 3.4566328e-09 3.4016212e-09
4.371541e-09 6.1349072e-09 7.819374e-09 4.124078e-09 5.380338e-09 2.1643087e-09 1.9923327e-09 1.1127948e-08
5.4713495e-10 2.0276084e-10 7.61526e-09 9.3319984e-11 4.427867e-09 1.4697441e-09 8.103251e-10 2.7141372e-10
1.3008601e-09 2.9811305e-09 8.565714e-10 1.6447863e-10 1.5267071e-09 2.3376192e-09 6.9832656e-10 1.081079e-10
1.0231922e-10 6.2860166e-09 5.2361915e-10 6.392927e-11 2.3797844e-10 2.2641258e-10 8.38774e-10 6.407479e-10
3.9002354e-10 1.1370797e-09 9.012717e-10 2.5326378e-11 1.6085043e-12 2.3496377e-10 1.2747258e-08 6.268096e-10
1.7857617e-10 8.668039e-09 3.253611e-11 2.9618823e-09 2.0794733e-09 2.7732887e-09 4.849993e-10 8.221619e-10
1.0531583e-09 2.4656686e-09 6.5567995e-10 7.6281254e-10 7.565506e-10 1.0240367e-09 4.210127e-10 9.549757e-10
2.4027984e-09 6.276625e-10 4.4389645e-10 1.3690019e-09 3.2513112e-10 3.4184083e-10 1.4359451e-10 2.4058744e-10
2.4916072e-10 3.4433906e-10 3.4106157e-10 2.7548347e-10 7.7048055e-11 4.275469e-08 2.1023958e-09 1.2123467e-09
2.91845e-08 1.2045759e-10 6.958682e-09 1.2808372e-08 9.377022e-09 2.5719686e-09 3.0904497e-09 1.6651704e-09
8.950629e-09 3.426882e-09 1.7599356e-09 1.6123399e-09 2.5310158e-09 3.036734e-09 4.226735e-09 5.3719753e-09
1.677516e-09 2.396285e-09 6.4884254e-09 1.0365752e-09 1.9346795e-09 7.8331003e-10 1.3170873e-09 3.7470138e-10
1.7716839e-10 1.0283787e-09 9.901079e-10 2.97034e-09 2.9157459e-09 1.4337008e-10 1.3101417e-10 2.0234332e-09
8.51515e-12 7.343779e-10 5.405349e-10 2.6223448e-10 2.582342e-10 4.9832793e-10 1.4062031e-10 3.5422476e-10
2.5430563e-10 1.9841168e-10 2.4387842e-10 9.976558e-11 1.4194458e-10 3.2261524e-10 6.472283e-10 1.0387349e-10
7.641914e-11 4.011647e-10 2.0564249e-10 6.834485e-11 4.924769e-11 1.766748e-10 6.6244905e-11 7.896179e-11
1.14968375e-10 6.8205275e-11 8.978453e-11 1.8512337e-07 9.102355e-09 4.3687858e-09 1.3051117e-07 8.463964e-11
4.3613042e-08 3.0584594e-08 1.488558e-08 9.5071915e-09 1.38366305e-08 3.6550034e-08 1.5210674e-08 1.0809498e-08
1.2623042e-08 2.702286e-08 2.5859732e-09 8.338879e-09 1.3042649e-08 6.2113024e-08 2.899137e-09 2.3300102e-09
8.506198e-09 3.1604999e-09 3.5889727e-09 4.4112323e-09 3.5589998e-09 2.0470827e-08 3.6986192e-09 6.2589813e-09
2.3484819e-09 1.0644035e-08 2.3684629e-07 1.1646023e-08 5.6182343e-09 1.6571323e-07 1.4225733e-10 4.1602995e-08
5.4236537e-08 3.5274812e-08 1.4271543e-08 1.1904144e-08 2.821725e-08 3.121436e-08 1.5178989e-08 1.0169806e-08
2.5213053e-08 5.4508464e-09 1.8661297e-08 1.3657772e-08 5.7293153e-08 7.989123e-09 4.407963e-09 7.953861e-09
3.6067405e-09 9.636633e-09 3.4415306e-09 5.8847958e-09 8.839012e-09 4.637322e-09 8.772483e-09 7.914843e-09
1.4472318e-08 3.5480966e-07 1.7446208e-08 1.0238706e-08 2.5158008e-07 6.723418e-11 4.89779e-08 9.447931e-08
4.7868475e-08 2.1952754e-08 1.2184915e-08 6.775147e-08 3.3338484e-08 2.9942278e-08 2.203966e-08 3.938475e-08
8.806046e-09 1.5450144e-08 3.1359036e-08 9.852123e-08 5.2457354e-09 5.857983e-09 2.492688e-08 7.495773e-09
6.9016206e-09 6.3380496e-09 1.272058e-08 2.1701108e-08 4.778276e-09 1.3338671e-08 1.2130489e-08 1.2562479e-08
8.351859e-08 4.1065245e-09 3.625878e-10 5.8793248e-08 3.0453703e-10 1.2917839e-08 2.6169248e-08 8.944406e-09
00000000: e1e3 fd33 38bc c731 7960 3f31 5354 b233
00000010: bf53 e02e 632c d932 db79 c032 2ab1 e431
00000020: 8b50 ba31 545e 7532 1454 b232 a3f7 0532
00000030: a433 9c31 68bb 2f32 69ac b132 4336 3731
00000040: f410 4631 a0fb 8931 4e30 5633 9112 b230
00000050: 839c 3d31 5ce8 8031 ba89 6d31 f4c1 6931
00000060: 7b34 9631 37cb d231 f855 0632 c6b3 8d31
00000070: f4dd b831 ecba 1431 7de9 0831 3c2d 3f32
00000080: 3365 1630 1af0 5e2f 45d4 0232 7b36 cd2e
00000090: ee23 9831 0600 ca30 8fbd 5e30 1636 952f
000000a0: f2c9 b230 9adc 4c31 db73 6b30 9ed8 342f
000000b0: 3bd4 d130 d5a3 2031 5df4 3f30 56bb ed2e
000000c0: 9a00 e12e 63fc d731 6cee 0f30 fb94 8c2e
000000d0: 7dd4 822f 7af1 782f 798f 6630 a020 3030
000000e0: ef6a d62f 6f47 9c30 5cbd 7730 efc5 de2d
000000f0: 7a60 e22b 362c 812f 09ff 5a32 ce4b 2c30
00000100: b958 442f 70ea 1432 6718 0f2e fc89 4b31
00000110: 7be6 0e31 3694 3e31 cb50 0530 80fe 6130
00000120: b7be 9030 8070 2931 603b 3430 29ae 5130
00000130: 84f5 4f30 17be 8c30 4574 e72f 3840 8330
00000140: 7a1e 2531 d287 2c30 df08 f42f 7927 bc30
00000150: 23be b22f d2ed bb2f 43e2 1d2f ac43 842f
00000160: 41fa 882f 6a4d bd2f 2680 bb2f da72 972f
00000170: 336e a92e 47a1 3733 bd79 1031 a89f a630
00000180: 65b1 fa32 cc71 042f 3719 ef31 d10b 5c32
00000190: 9418 2132 8dbe 3031 c45f 5431 fadb e430
000001a0: 48c5 1932 587e 6b31 3be2 f130 2b99 dd30
000001b0: 1aee 2d31 caae 5031 c13a 9131 6594 b831
000001c0: 598e e630 e4ab 2431 cbf0 de31 3f77 8e30
000001d0: 3ef3 0431 8b50 5730 e404 b530 88fe cd2f
000001e0: 78cc 422f dc56 8d30 5314 8830 c61e 4c31
000001f0: 585e 4831 17a3 1d2f 360d 102f 9d0c 0b31
00000200: d4cc 152d 40dd 4930 c394 1430 392a 902f
00000210: 3cf7 8d2f b6fa 0830 199d 1a2f b4bc c22f
00000220: 56ce 8b2f ec27 5a2f d612 862f 0763 db2e
00000230: d911 1c2f 0f5c b12f a5e8 3130 946b e42e
00000240: 270c a82e ea8a dc2f 371b 622f bb4a 962e
00000250: f897 582e 8941 422f 91ac 912e 89a3 ad2e
00000260: 71d1 fc2e 28fc 952e 3270 c52e 53c6 4634
00000270: 9560 1c32 3f1c 9631 a322 0c34 e21f ba2e
00000280: 0c51 3b33 1e5c 0333 79bb 7f32 1255 2332
00000290: 25b6 6d32 30fb 1c33 a0a8 8232 adb4 3932
000002a0: badc 5832 e61f e832 ecb4 3131 c742 0f32
000002b0: 2d12 6032 ff62 8533 283a 4731 f91d 2031
000002c0: a822 1232 1a30 5931 e0a1 7631 9c91 9731
000002d0: 9692 7431 d3d7 af32 cc2a 7e31 950e d731
000002e0: ee62 2131 f6dc 3632 d04f 7e34 c013 4832
000002f0: 830a c131 e8ee 3134 e169 1c2f faae 3233
00000300: b4f1 6833 1181 1733 e92e 7532 fb82 4c32
00000310: 6462 f232 8d10 0633 f362 8232 48b7 2e32
00000320: 1794 d832 274a bb31 a04c a032 84a3 6a32
00000330: 7d12 7633 8940 0932 da74 9731 73a5 0832
00000340: 73da 7731 5c8e 2532 0c80 6c31 3633 ca31
00000350: 63da 1732 5156 9f31 cab5 1632 d9f9 0732
00000360: eda1 7832 ab7c be34 9edc 9532 4ee6 2f32
00000370: e710 8734 7ad9 932e c55b 5233 8de4 ca33
00000380: f297 4d33 9e92 bc32 d355 5132 c47e 9133
00000390: 0d30 0f33 e299 0033 ba51 bd32 fe27 2933
000003a0: 6649 1732 3ab7 8432 a0af 0633 9e92 d333
000003b0: fa3d b431 5d47 c931 ca1e d632 c2c6 0032
000003c0: 4c23 ed31 13c6 d931 b489 5a32 3e69 ba32
000003d0: 292e a431 1828 6532 7466 5032 5ed2 5732
000003e0: d55a b333 5f19 8d31 b255 c72f dc83 7c33
000003f0: c76b a72f 42ed 5d32 c9ca e032 eaa9 1932
