timeSerise/lightning_logs/version_6/checkpoints/epoch=19-step=6840.ckpt (torch, 96027 bytes, 27 tensors)

lstm.weight_ih_l0 f4 [40, 17]
-0.15038879 0.06263779 -0.043543007 0.24241672 0.07832699 -0.09463044 0.029190758 0.17018732
0.03333856 -0.18134563 0.15163164 0.3617907 -0.20576127 0.08866889 0.106268026 -0.073513225
-0.13816573 0.31739587 0.06739597 -0.10342589 0.19604544 0.008108911 0.10072353 0.34583795
-0.28195956 -0.017420035 0.24423099 0.32920194 -0.27340403 -0.20967954 0.23285793 0.01231267
-0.3674209 -0.20748971 0.13788246 0.23871608 0.2642102 -0.008555717 -0.21783504 0.18407732
0.12110915 0.049844798 0.13639769 0.22304147 -0.20085195 -0.1142097 0.20275256 -0.04498812
-0.23178723 0.1919495 -0.036844194 0.13557523 0.10094451 -0.3076131 0.15132165 -0.027961474
0.0314056 0.1986455 0.27339175 0.06764579 0.088325195 0.3425737 -0.30016232 0.2320219
0.1859649 0.03346129 -0.09206301 -0.058147583 -0.025362466 0.15685607 -0.07372114 -0.14555462
0.28194857 0.33155367 0.09802479 -0.22926676 -0.3642075 -0.31632808 -0.109696925 -0.20159994
0.27913302 -0.1788465 0.009936879 0.0071233786 -0.09372702 0.16330637 -0.05253342 -0.23394316
-0.1470934 -0.12778705 -0.14484736 -0.0721862 -0.047974344 -0.040323902 0.20281121 -0.2669441
0.029977882 0.2801628 0.037413135 -0.19580083 -0.25441858 0.11186351 -0.3358742 -0.10600217
-0.12403951 0.23157805 0.094988875 0.21950419 0.2737623 -0.074357234 -0.11304759 0.1492788
0.079698116 -0.073131725 -0.23347342 -0.009505902 -0.30328563 0.045344356 -0.22851232 0.19198564
0.4090065 -0.036888823 -0.009072479 0.18843341 -0.06435523 -0.23155196 -0.008384737 0.25915068
-0.06381782 -0.1872487 0.3274732 -0.061932206 -0.15817104 -0.17488553 0.33104494 0.40016606
-0.2352217 -0.0594866 -0.036628965 0.22131106 -0.21933398 -0.10135641 0.22881542 -0.24057823
0.21569525 0.051276386 -0.03100448 -0.31260836 0.33765358 -0.0451306 0.19671187 0.120789886
-0.13693792 -0.13959147 0.35400724 0.11046857 0.16060223 -0.16835615 0.22244562 0.26227158
0.008353266 -0.17397048 0.2955108 0.06408081 0.04879804 0.0074544246 0.27895027 0.22217874
-0.06574496 -0.24028713 0.011570127 0.3155093 -0.101937614 -0.122634314 -0.063214146 0.18542007
-0.12073318 -0.057288174 0.19750296 0.0574432 -0.012125619 0.263282 0.04901751 -0.17988913
0.236386 0.20023414 0.20981853 0.2926201 -0.045133546 0.010741671 -0.15455122 -0.1508182
-0.08216822 -0.10660638 -0.033002283 0.034597676 -0.12991144 0.09491186 -0.12152048 0.22388892
0.07903902 -0.09070262 -0.18339226 -0.09741454 0.2049747 0.054842282 -0.013462396 -0.09450188
-0.20180097 -0.20697565 -0.1480709 -0.06976601 0.0024309729 0.011591712 -0.22192642 0.04058751
0.0114546735 -0.021154884 0.1000538 -0.021519044 0.1920363 0.11911419 0.052375123 0.27123505
-0.087518126 0.12033089 0.009716068 -0.1251247 0.26763448 0.07089544 -0.0753289 -0.22710842
-0.45105028 -0.29948017 -0.23044838 -0.26920578 0.1597289 -0.08879335 0.121066034 -0.2770403
0.18680663 0.18632945 -0.065874554 0.26443425 0.2496353 -0.05681733 -0.144219 -0.108561546
0.19468454 0.0882568 -0.07512643 0.1632269 -0.26042634 0.34001762 -0.021346077 0.20849337
00000000: 85ff 19be 3e48 803d 275a 32bd 173c 783e
00000010: e769 a03d 9bcd c1bd 7521 ef3c 9645 2e3e
00000020: 048e 083d abb2 39be 5345 1b3e a13c b93e
00000030: 15b3 52be 0998 b53d 0da3 d93d 1a8e 96bd
00000040: 517b 0dbe b681 a23e e606 8a3d f4d0 d3bd
00000050: 23c0 483e 3ddb 043c 2348 ce3d ac11 b13e
00000060: 015d 90be 76b4 8ebc b017 7a3e 288d a83e
00000070: 9dfb 8bbe 3cb6 56be 4f72 6e3e 15bb 493c
00000080: 981e bcbe 2f78 54be 0f31 0d3e fd71 743e
00000090: 8f46 873e 472d 0cbc 2610 5fbe c47e 3c3e
000000a0: 1308 f83d 0f2a 4c3d d6ab 0b3e fc64 643e
000000b0: 22ac 4dbe c6e6 e9bd 5e9e 4f3e 7745 38bd
000000c0: a259 6dbe 698e 443e f0e9 16bd 3cd4 0a3e
000000d0: ffbb ce3d 777f 9dbe 10f4 1a3e 760f e5bc
000000e0: 29a3 003d ba69 4b3e 01fa 8b3e e089 8a3d
000000f0: d7e3 b43d d265 af3e e0ae 99be 2697 6d3e
00000100: 956d 3e3e b50e 093d 888b bcbd 292c 6ebd
00000110: f2c4 cfbc e19e 203e 1cfb 96bd 450c 15be
00000120: 905b 903e 67c1 a93e 39c1 c83d e8c4 6abe
00000130: 6879 babe c1f5 a1be c8a8 e0bd 3770 4ebe
00000140: 86ea 8e3e 8923 37be 4bce 223c 3b6b e93b
00000150: f4f3 bfbd c939 273e 492d 57bd cc8e 6fbe
00000160: a79f 16be 9cda 02be de52 14be 5cd6 93bd
00000170: bf80 44bd ad2a 25bd bead 4f3e e6ac 88be
00000180: 2d94 f53c 8071 8f3e 843e 193d 0380 48be
00000190: 2743 82be b218 e53d b4f7 abbe aa17 d9bd
000001a0: 6d08 febd cc22 6d3e 8789 c23d b5c5 603e
000001b0: 922a 8c3e 9b48 98bd 7f85 e7bd 8bdc 183e
000001c0: c438 a33d 16c6 95bd a813 6fbe a5be 1bbc
000001d0: 4148 9bbe 01bb 393d 22ff 69be e297 443e
000001e0: 4d69 d13e bc18 17bd bca4 14bc b0f4 403e
000001f0: adcc 83bd f51b 6dbe 2360 09bc 66af 843e
00000200: ebb2 82bd 20be 3fbe 91aa a73e a0ac 7dbd
00000210: 97f7 21be 3115 33be b97e a93e 91e2 cc3e
00000220: f5dd 70be 39a8 73bd 4108 16bd 5e9f 623e
00000230: 1699 60be f393 cfbd 974e 6a3e 245a 76be
00000240: 37df 5c3e 3007 523d 1bfd fdbc 340e a0be
00000250: eee0 ac3e ddda 38bd d66e 493e b060 f73d
00000260: 7439 0cbe 11f1 0ebe 7040 b53e 583d e23d
00000270: e974 243e 8e65 2cbe c9c8 633e 7648 863e
00000280: 23dc 083c 5125 32be 314d 973e cd3c 833d
00000290: 74e0 473d 3f44 f43b 92d2 8e3e d382 633e
000002a0: 4ba5 86bd d40d 76be a190 3d3c 6f8a a13e
000002b0: abc4 d0bd b327 fbbd 6b76 81bd c2de 3d3e
000002c0: f542 f7bd 01a7 6abd 373e 4a3e 9049 6b3d
000002d0: 88aa 46bc e6cc 863e 96c6 483d db34 38be
000002e0: 2c0f 723e 2e0a 4d3e abda 563e 4dd2 953e
000002f0: f4dd 38bd d5fd 2f3c ad42 1ebe 1670 1abe
00000300: d047 a8bd 7254 dabd 672d 07bd 4bb6 0d3d
00000310: 8107 05be 2661 c23d bbdf f8bd 2343 653e
00000320: 36df a13d 4cc2 b9bd 2ecb 3bbe 4681 c7bd
00000330: e3e4 513e 4da2 603d 6291 5cbc 348a c1bd
00000340: eaa4 4ebe 6df1 53be e69f 17be 7be1 8ebd
00000350: f550 1f3b 2aeb 3d3c ae40 63be 173f 263d
00000360: 62ac 3b3c 024d adbc 02e9 cc3d b548 b0bc
00000370: 2aa5 443e 24f2 f33d 4c87 563d 52df 8a3e
00000380: b43c b3bd 0b70 f63d 2530 1f3c b020 00be
00000390: 6307 893e a131 913d 0a46 9abd 1c8f 68be
000003a0: 10f0 e6be 7755 99be a9fa 6bbe 57d5 89be
000003b0: f98f 233e 4ad9 b5bd 78f1 f73d 3ad8 8dbe
000003c0: 3d4a 3f3e 26cd 3e3e 3de9 86bd ed63 873e
000003d0: 65a0 7f3e 4ab9 68bd 25ae 13be 8455 debd
000003e0: 625b 473e fbbf b43d e3db 99bd f424 273e
000003f0: 9a56 85be ca16 ae3e f8dd aebc 497f 553e

lstm.weight_hh_l0 f4 [40, 10]
0.2518947 0.21795231 -0.23024581 -0.1556827 -0.18150494 -0.30352575 0.32567626 -0.09097102
0.17888531 0.14323165 0.20897977 -0.25380257 -0.15595411 0.24197088 -0.14477755 -0.06836798
0.1879414 0.24564594 0.22090237 -1.9410385e-05 -0.14304234 -0.19010885 0.26143643 0.061734837
-0.11241396 0.27108595 0.07137454 -0.14369681 0.2690158 -0.3120946 -0.0807838 -0.010908115
0.19134495 0.23291157 -0.23932543 0.19671458 -0.12806869 0.01806478 0.26872754 -0.10478049
-0.14003773 -0.09622391 0.3018956 0.29604176 0.2575361 -0.29350877 0.20586082 0.19113916
0.25972462 -0.1387744 -0.24778888 0.15889156 -0.033141952 0.0554653 -0.029918872 -0.35277677
0.26239118 -0.20837525 -0.014416942 0.12995647 -0.1433291 -0.052186877 0.0764158 0.09393293
0.012881683 0.04746056 0.15545057 -0.27015913 -0.0094134975 -0.20917392 0.39285564 -0.30293676
-0.17563912 -0.2670834 -0.10996613 0.12106977 0.0058933105 0.07386188 -0.16697267 -0.0169807
0.046221934 -0.32249308 -0.03617738 -0.17160809 -0.2640574 -0.27844927 -0.22508428 0.22849077
-0.12675397 0.31802163 -0.07351537 0.22677478 0.18904983 -0.11991191 -0.13892551 0.29277024
0.07604205 0.21333039 -0.048041403 -0.16782089 0.27577928 0.2970189 -0.047300346 0.05952726
-0.001198311 0.26849583 0.18414876 -0.04523454 0.017790314 -0.021088012 0.036382005 -0.24672982
-0.14630719 -0.23451723 0.08285449 -0.24831538 -0.17087296 0.09187066 -0.2193472 0.094103195
0.22431621 0.30733997 0.1852886 -0.18084672 -0.15417771 -0.20540266 -0.025687654 -0.20192198
0.05604008 -0.1174203 -0.14633211 -0.16035871 -0.15841924 0.25347438 0.35552502 0.23178606
0.16786556 0.10199258 -0.04158813 0.2459222 -0.15935151 0.013521938 -0.1652948 0.24372788
0.101236 0.071679324 -0.24980986 0.32370093 -0.3054879 0.21585882 0.28334033 0.10979425
0.15756847 -0.089546114 -0.29138133 -0.18692721 0.14970937 -0.22251058 -0.018703636 0.2731751
-0.23824476 0.22741327 -0.042735096 -0.080220155 0.1939522 0.18301515 0.13143474 0.29641372
0.23900244 -0.15313356 0.056003064 -0.3023797 0.19335844 -0.08876771 -0.17874593 -0.061745405
0.26413268 -0.13340288 0.2076355 0.25187498 0.2549382 -0.27382514 -0.21290836 -0.07811248
0.2561418 0.26408798 -0.15540928 -0.24960065 -0.20732453 0.06527957 0.23730733 0.023908501
0.29475796 -0.04845021 -0.041149136 0.09560324 0.11664301 -0.13310042 0.28534696 0.35309052
-0.0142130805 0.17235254 0.14596915 -0.26183888 -0.13763161 0.3318922 0.2978415 0.17556547
0.22611602 0.16407426 -0.04145486 0.21578279 -0.22337659 0.11159535 -0.063873 -0.24826308
-0.034703605 0.17970574 -0.2158128 -0.014326963 0.22270316 0.23567183 0.17769392 -0.047876954
0.29543188 0.13074555 -0.09220064 -0.13057357 -0.14875062 0.08315443 -0.27358463 0.17965141
-0.11265193 0.13934427 0.23662902 0.016012575 -0.11701125 0.19964659 -0.31980377 -0.1850649
-0.13892488 0.2587498 0.12238667 -0.07150895 0.24024887 0.15804349 0.147907 -0.14531396
-0.22917229 0.070217 -0.011714256 0.14124966 0.20687337 0.33574727 -0.2801372 0.24344495
00000000: 58f8 803e e42e 5f3e 8fc5 6bbe 496b 1fbe
00000010: 6edc 39be ba67 9bbe 0abf a63e 044f babd
00000020: b62d 373e 51ab 123e cbfe 553e 69f2 81be
00000030: 6fb2 1fbe 37c7 773e 9140 14be 8304 8cbd
00000040: b673 403e 9c8a 7b3e 3b34 623e 7cd3 a2b7
00000050: b179 12be e5ab 42be ffda 853e abdd 7c3d
00000060: 4a39 e6bd c7cb 8a3e d12c 923d 4225 13be
00000070: 70bc 893e ddca 9fbe fa71 a5bd f3b7 32bc
00000080: eeef 433e 5f80 6e3e ba11 75be 8c6f 493e
00000090: 7024 03be 97fc 933c a896 893e 2797 d6bd
000000a0: 0d66 0fbe 0b11 c5bd 0f92 9a3e c992 973e
000000b0: c6db 833e c846 96be 2ecd 523e fcb9 433e
000000c0: a0fa 843e e01a 0ebe 5ebc 7dbe 78b4 223e
000000d0: dbbf 07bd 952f 633d 6c18 f5bc 289f b4be
000000e0: 2358 863e 5260 55be 0a35 6cbc 4f13 053e
000000f0: ddc4 12be e8c1 55bd e37f 9c3d e85f c03d
00000100: b20d 533c 0166 423d 6f2e 1f3e 4c52 8abe
00000110: 123b 1abc b031 56be 6024 c93e 871a 9bbe
00000120: beda 33be 28bf 88be ec35 e1bd 6df3 f73d
00000130: ac1c c13b e644 973d e2fa 2abe 1c1b 8bbc
00000140: 3653 3d3d d01d a5be bb2e 14bd 08ba 2fbe
00000150: 8832 87be e790 8ebe 7e7c 66be 7cf9 693e
00000160: cbcb 01be bbd3 a23e 3a8f 96bd a637 683e
00000170: 4796 413e 6094 f5bd 7d42 0ebe fbe5 953e
00000180: efbb 9b3d 4873 5a3e 10c7 44bd 3dd9 2bbe
00000190: f132 8d3e dc12 983e 02be 41bd dbd2 733d
000001a0: a510 9dba 4978 893e 7e91 3c3e da47 39bd
000001b0: febc 913c c4c0 acbc 4c05 153d bea6 7cbe
000001c0: 8dd1 15be 4925 70be 9daf a93d 6346 7ebe
000001d0: 52f9 2ebe af26 bc3d 8d9c 60be 2db9 c03d
000001e0: 26b3 653e aa5b 9d3e 4bbc 3d3e e22f 39be
000001f0: c3e0 1dbe 1355 52be ea6e d2bc a3c4 4ebe
00000200: 488a 653d 0e7a f0bd 16d8 15be 1335 24be
00000210: a738 22be 65c7 813e 6007 b63e 5359 6d3e
00000220: f3e4 2b3e 7ce1 d03d 5158 2abd 07d3 7b3e
00000230: 0b2d 23be 1e8b 5d3c 0a43 29be cd93 793e
00000240: d254 cf3d 9ccc 923d 28ce 7fbe 21bc a53e
00000250: e968 9cbe 180a 5d3e fc11 913e cfdb e03d
00000260: a159 213e f463 b7bd ef2f 95be d969 3fbe
00000270: 6a4d 193e d0d9 63be 5e38 99bc 9bdd 8b3e
00000280: 6ff6 73be 06df 683e ff0a 2fbd 774a a4bd
00000290: 689b 463e 5368 3b3e d496 063e 8ac3 973e
000002a0: 0ebd 743e 0bcf 1cbe 7863 653d 83d1 9abe
000002b0: c1ff 453e d8cb b5bd 2c09 37be c0e8 7cbd
000002c0: 663c 873e c49a 08be 679e 543e c2f5 803e
000002d0: 4287 823e cf32 8cbe a604 5abe 70f9 9fbd
000002e0: 0525 833e 8a36 873e 9c23 1fbe 5097 7fbe
000002f0: e24c 54be 4cb1 853d b100 733e c3db c33c
00000300: 84ea 963e ba73 46bd ff8b 28bd a2cb c33d
00000310: 88e2 ee3d 7a4b 08be ff18 923e 48c8 b43e
00000320: fbdd 68bc 2f7d 303e f078 153e bf0f 86be
00000330: 4def 0cbe c6ed a93e ae7e 983e 6fc7 333e
00000340: f58a 673e 1503 283e 92cc 29bd 2af6 5c3e
00000350: d5bc 64be 1a8c e43d d9cf 82bd ad38 7ebe
00000360: 5e25 0ebd c804 383e 08fe 5cbe a3bb 6abc
00000370: 4c0c 643e f553 713e 65f5 353e a01a 44bd
00000380: d942 973e 29e2 053e b0d3 bcbd 14b5 05be
00000390: 1552 18be df4c aa3d 4913 8cbe 8af6 373e
000003a0: 0eb6 e6bd 44b0 0e3e e14e 723e ce2c 833c
000003b0: 98a3 efbd 2870 4c3e 52bd a3be a781 3dbe
000003c0: 5342 0ebe db7a 843e dda5 fa3d 4973 92bd
000003d0: cd03 763e 27d6 213e ef74 173e 2fcd 14be
000003e0: 24ac 6abe eecd 8f3d 27ed 3fbc c0a3 103e
000003f0: 9dd6 533e 11e7 ab3e 256e 8fbe a249 793e

lstm.bias_ih_l0 f4 [40]
0.12766135 0.2322316 -0.23416805 0.11858343 0.22628763 -0.23118907 0.098704755 0.36965686
-0.10249187 -0.008859972 0.031100307 0.13638146 -0.07438539 -0.043552164 -0.19050802 0.13466427
0.116531745 0.1336208 0.17621155 -0.19898123 -0.050041355 -0.0618999 -0.22780998 -0.17473015
0.2729592 -0.16382234 0.26097834 0.13960132 0.24997833 0.03744782 -0.2180053 0.1098479
0.13481994 -0.053184457 -0.15328236 0.008870858 -0.2288178 0.059688494 -0.047512937 0.012157586
00000000: a8b9 023e 1fce 6d3e c0c9 6fbe dfdb f23d
00000010: f2b7 673e d4bc 6cbe b825 ca3d aa43 bd3e
00000020: 42e7 d1bd 6a29 11bc 12c6 fe3c 95a7 0b3e
00000030: 5e57 98bd c163 32bd 8914 43be 6ee5 093e
00000040: 32a8 ee3d e4d3 083e cd70 343e bcc1 4bbe
00000050: 2af8 4cbd c08a 7dbd 0547 69be 76ec 32be
00000060: 4fc1 8b3e 0bc1 27be f49e 853e a6f3 0e3e
00000070: 52fa 7f3e e362 193d c83c 5fbe f0f7 e03d
00000080: 3d0e 0a3e f2d7 59bd 0df6 1cbe 1357 113c
00000090: 374f 6abe ec7b 743d ed9c 42bd 9d30 473c

lstm.bias_hh_l0 f4 [40]
-0.064455405 0.11413514 -0.0022386308 -0.014488683 0.27299848 0.15889114 0.06780813 0.26324835
0.11989556 -0.067126095 -0.23926945 0.2915559 0.071215585 0.09947461 0.11228652 -0.19544697
0.19780423 0.32379892 0.32611716 0.1530182 0.14306754 -0.15478098 -0.13102926 0.275721
0.1452321 0.18258663 0.00993081 -0.25280803 -0.08542566 0.19466479 0.02105972 0.053110786
0.16380493 -0.13256977 -0.23856069 0.3024914 0.23254634 0.17554753 0.323752 -0.09701909
00000000: 3201 84bd afbf e93d feb5 12bb f161 6dbc
00000010: 75c6 8b3e 5cb4 223e fdde 8a3d 7dc8 863e
00000020: ce8b f53d 6879 89bd 0d03 75be d146 953e
00000030: 7ad9 913d 58b9 cb3d 7af6 e53d 4023 48be
00000040: 318d 4a3e f9c8 a53e d4f8 a63e ceb0 1c3e
00000050: 4c80 123e e87e 1ebe 892c 06be 4e2b 8d3e
00000060: b9b7 143e fdf7 3a3e d6b4 223c 0e70 81be
00000070: a6f3 aebd 3556 473e 6f85 ac3c b28a 593d
00000080: 7bbc 273e 5fc0 07be 4149 74be 27e0 9a3e
00000090: a120 6e3e bbc2 333e d2c2 a53e f2b1 c6bd

lstm.weight_ih_l1 f4 [40, 10]
-0.29601163 -0.023779247 -0.29975975 0.11186577 0.1790246 0.21239902 -0.059384048 0.292793
-0.10329435 -0.19646882 -0.06484693 -0.012397424 0.17314568 0.20263308 -0.20196992 -0.024861071
0.25150025 -0.1923659 -0.29284316 -0.12788752 0.021577151 -0.15855533 -0.10734936 -0.1387463
-0.057373658 0.14190494 0.095662214 0.10878864 0.17055589 0.12458792 -0.28264412 0.25723663
0.13907439 0.11325124 -0.37388998 0.21593907 -0.12144437 -0.118954085 0.098228484 0.24540547
-0.01327543 0.28757107 0.19904406 0.101323396 0.26802257 -0.34288818 -0.19967458 -0.15534474
0.15263821 -0.18171585 0.09769796 -0.12210335 0.006385244 0.055275165 0.13776001 -0.21618207
-0.04711123 0.25105256 -0.06820411 0.08414245 0.12787752 -0.18717796 0.26289135 -0.0060937167
-0.08486805 -0.081746385 -0.1089834 0.27249312 0.23106004 0.16048442 0.27424473 -0.33319333
0.18365139 0.20454273 -0.2904108 -0.06523296 -0.049067788 0.12866083 -0.22729602 -0.062394597
-0.09552909 0.120173596 -0.13221964 0.18435144 0.2755614 -0.08724098 0.1192173 0.09099438
-0.27740514 -0.020404827 0.28735477 0.06476714 -0.084652364 0.23080514 0.2618586 0.2819174
0.26290262 -0.2221612 0.031098489 -0.007469836 -0.17760122 -0.2926075 -0.28398296 -0.19492395
-0.07871526 -0.28636268 -0.078918114 0.3178047 0.19305904 0.04698406 -0.23927632 0.015294802
0.14770044 0.1687182 0.046285346 -0.25099808 -0.16973299 -0.31429213 0.16563663 -0.25766706
-0.18348044 -0.064145155 -0.21707441 -0.11826053 -0.18014385 0.108617984 -0.3328464 0.00067133945
-0.16067487 0.22157083 0.06276995 0.13482691 -0.12188803 0.35415345 0.06189667 0.23161633
0.28972322 0.3984716 0.05897222 0.13038479 -0.13711938 0.059999768 0.007494843 0.21003109
0.1566363 0.0005989561 -0.113278165 0.063639775 -0.25889024 0.07069242 0.29378912 0.016446782
-0.16349265 -0.027191428 -0.01200226 0.22360525 -0.27367488 -0.024678769 0.14265145 0.050673086
0.011875815 -0.10679295 0.275172 0.2793102 0.26110226 0.06448671 0.032925736 0.17810099
-0.039947975 0.0903009 0.035461333 -0.022407167 -0.15237483 -0.1378048 -0.35820335 -0.19492602
-0.29392165 0.30190745 -0.026522366 0.19347815 -0.17980997 0.27355224 -0.12640867 0.19080864
0.15136449 -0.19462016 -0.019335128 0.067918204 -0.32704052 0.13025032 -0.27454042 -0.13582128
-0.27723604 -0.052415825 0.18968226 0.28843445 -0.08883852 -0.16923696 0.13368928 0.16906208
-0.3131457 0.17445755 -0.05830694 0.29003492 0.10003072 -0.21883708 0.22545049 0.07097914
-0.30797777 -0.3305546 -0.013718211 -0.29731253 0.24920902 -0.07017479 -0.27559325 -0.079519466
-0.014802381 0.31266963 -0.29318148 0.121584706 -0.26656935 0.2761702 -0.22274111 -0.2263751
0.15553299 0.2751245 0.17080355 -0.22679365 -0.21146731 0.071133435 0.2857179 0.094401665
-0.06393038 -0.036244754 -0.2892475 0.169246 -0.15017842 0.083901115 0.17930843 0.33226585
-0.22957142 0.013175364 -0.3105768 -0.13600881 -0.089049704 -0.26668066 -0.010287285 0.15952854
0.087619826 -0.03687752 0.24817587 -0.25030455 0.15521197 -0.16153182 -0.18867628 0.17726396
00000000: d68e 97be b2cc c2bc 1c7a 99be e119 e53d
00000010: 3a52 373e 217f 593e b03c 73bd f7e8 953e
00000020: fd8b d3bd 1f2f 49be 78ce 84bd 911e 4bbc
00000030: 1a4d 313e 0c7f 4f3e 34d1 4ebe 72a9 cbbc
00000040: a4c4 803e 91fb 44be 8aef 95be f2f4 02be
00000050: 91c2 b03c 545c 22be fbd9 dbbd 8313 0ebe
00000060: a400 6bbd 874f 113e 8dea c33d 94cc de3d
00000070: 34a6 2e3e f427 ff3d bbb6 90be 85b4 833e
00000080: 8469 0e3e 44f0 e73d 826e bfbe 221f 5d3e
00000090: d3b7 f8bd 339e f3bd 042c c93d 924b 7b3e
000000a0: 3081 59bc 843c 933e 35d2 4b3e a482 cf3d
000000b0: 413a 893e 0a8f afbe 7e77 4cbe b112 1fbe
000000c0: 314d 1c3e b813 3abe de15 c83d 5211 fabd
000000d0: 4f3b d13b 3668 623d f610 0d3e d55e 5dbe
000000e0: b5f7 40bd f689 803e 99ae 8bbd e052 ac3d
000000f0: 53f2 023e 94ab 3fbe b299 863e cdad c7bb
00000100: 4dcf adbd a66a a7bd b032 dfbd 3884 8b3e
00000110: 019b 6c3e 0756 243e ce69 8c3e 5198 aabe
00000120: 1c0f 3c3e a673 513e b9b0 94be dc98 85bd
00000130: 4efb 48bd aabf 033e 4ac0 68be 7a91 7fbd
00000140: c1a4 c3bd 931d f63d 9664 07be a0c6 3c3e
00000150: 6216 8d3e 66ab b2bd 3328 f43d 435b ba3d
00000160: 0c08 8ebe 0628 a7bc 2a20 933e a2a4 843d
00000170: 385e adbd 2f58 6c3e 5512 863e 7a57 903e
00000180: 2c9b 863e 3a7e 63be 42c2 fe3c 87c5 f4bb
00000190: 18dd 35be a6d0 95be 3766 91be 259a 47be
000001a0: 7735 a1bd 219e 92be d29f a1bd 4cb7 a23e
000001b0: 45b1 453e 5c72 403d da04 75be 0d97 7a3c
000001c0: c93e 173e 77c4 2c3e b495 3d3d d282 80be
000001d0: 7cce 2dbe e6ea a0be a69c 293e f0ec 83be
000001e0: 4ce2 3bbe 895e 83bd c148 5ebe 9432 f2bd
000001f0: a177 38be 1b73 de3d d86a aabe d4fc 2f3a
00000200: f487 24be 77e3 623e 888d 803d 1110 0a3e
00000210: 6ea0 f9bd 9a53 b53e 5d87 7d3d d52c 6d3e
00000220: 9a56 943e 7804 cc3e db8c 713d 9783 053e
00000230: 0669 0cbe 51c2 753d 4d97 f53b 6412 573e
00000240: 4465 203e 4303 1d3a 62fe e7bd 9255 823d
00000250: 438d 84be 30c7 903d 876b 963e 67bb 863c
00000260: 9e6a 27be 8fc0 debc 21a5 44bc c6f8 643e
00000270: 1d1f 8cbe 212b cabc 3913 123e 958e 4f3d
00000280: c792 423c 43b6 dabd 58e3 8c3e bf01 8f3e
00000290: 32af 853e 9c11 843d 23dd 063d 1b60 363e
000002a0: 7da0 23bd aeef b83d e73f 113d 3c8f b7bc
000002b0: 2608 1cbe b41c 0dbe 6e66 b7be b09a 47be
000002c0: e67c 96be 9d93 9a3e 6f45 d9bc 231f 463e
000002d0: 1b20 38be 0a0f 8c3e 4671 01be 5763 433e
000002e0: 4bff 1a3e 824a 47be b464 9ebc b318 8b3d
000002f0: db71 a7be 5760 053e 9090 8cbe bc14 0bbe
00000300: e2f1 8dbe fab1 56bd 113c 423e aead 933e
00000310: f8f0 b5bd 744c 2dbe d8e5 083e 9c1e 2d3e
00000320: a254 a0be 00a5 323e 42d3 6ebd 757f 943e
00000330: e8dc cc3d d416 60be 7edc 663e 835d 913d
00000340: 43af 9dbe 743e a9be 59c2 60bc 5939 98be
00000350: a630 7f3e cdb7 8fbd 8f1a 8dbe 1adb a2bd
00000360: b085 72bc 3c16 a03e e21b 96be 6701 f93d
00000370: c77b 88be 2e66 8d3e 3f16 64be e0ce 67be
00000380: 0a44 1f3e 1edd 8c3e 20e7 2e3e 983c 68be
00000390: e38a 58be 68ae 913d 9e49 923e a955 c13d
000003a0: eeed 82bd 6175 14bd 4018 94be d34e 2d3e
000003b0: 5fc8 19be 59d4 ab3d a19c 373e c01e aa3e
000003c0: c514 6bbe 7bdd 573c ec03 9fbe e545 0bbe
000003d0: b15f b6bd 5e8a 88be 008c 28bc 735b 233e
000003e0: 0672 b33d e20c 17bd d121 7e3e eb27 80be
000003f0: e3ef 1e3e 9968 25be 5b34 41be af84 353e

lstm.weight_hh_l1 f4 [40, 10]
0.085929215 0.10936756 0.18450783 -0.21559706 -0.2395961 0.16534153 -0.22608209 -0.03762575
0.09586486 0.09271015 0.1953856 -0.13093531 -0.04946645 -0.26372093 0.24599098 -0.09342664
0.018279096 -0.1750041 0.017185107 0.11242404 0.17788392 0.0061395876 -0.1955161 -0.24800722
0.10579667 0.26189905 -0.23546287 -0.04912986 -0.15073062 0.15296383 -0.18795304 0.23694654
-0.22030337 0.28964722 0.14914958 -0.33626324 -0.296245 -0.06889667 0.24119398 -0.131414
0.09681438 0.1909127 -0.1422881 0.030054832 -0.20959622 -0.19437878 -0.29108247 0.33722395
0.19962128 0.1914214 0.09680221 -0.18597296 0.2342529 0.099944964 0.06735731 -0.31399053
-0.2441841 0.07023156 0.16526507 0.2821532 -0.3171973 0.08412406 0.28434834 0.2839108
-0.29198238 -0.06586852 0.14396144 -0.15267119 0.08866911 -0.25029054 0.3137181 0.004248667
-0.21432908 -0.053559583 -0.17344035 -0.33510926 -0.01612432 0.1140882 0.30124846 0.20645685
-0.24302295 0.24738 -0.12963331 0.038384296 -0.34520644 -0.14734514 -0.18088454 0.26251322
-0.09481822 0.020701924 -0.13854714 -0.029927406 0.117395796 0.12075027 -0.25481442 0.23287949
0.31630558 -0.087511376 -0.21737584 -0.25807104 0.26881397 0.094851546 0.11229933 0.052667633
-0.058253013 -0.112015024 0.14591017 -0.20275404 0.029570147 -0.25901726 -0.1301099 0.14687261
0.1200357 -0.0033335008 -0.15834145 -0.16154148 0.17514306 -0.16095671 0.25397652 -0.23460712
-0.038936228 -0.18146566 -0.1188369 -0.24606505 0.10936472 -0.07730272 -0.10390555 0.26678774
0.107944116 -0.19037923 -0.27895847 0.15015295 -0.2380492 -0.24529575 -0.030247336 0.23961951
-0.169288 -0.2288398 -0.24245466 -0.11948934 0.041492514 -0.2748324 0.038063493 0.037414268
0.098118745 0.13417569 -0.2442879 -0.19293484 -0.25626665 -0.12584852 0.009875725 -0.25178722
-0.028463967 -0.24611802 0.30010462 -0.10134145 -0.30779853 -0.23781452 -0.20765507 0.19818486
0.03977751 -0.15892127 -0.111470595 0.25798348 0.15010244 -0.17537263 -0.06496182 0.12485558
0.053216696 -0.18438666 -0.09719601 -0.26703858 -0.2878249 0.24633807 -0.23991403 0.2180596
-0.2904422 -0.13087212 -0.28936946 0.041118667 0.08470671 -0.11084642 0.226209 0.24633576
-0.253785 0.29726028 0.16479777 0.22446705 -0.21772683 -0.18279228 -0.0863512 -0.23729815
0.20648468 0.011775323 -0.0054545174 0.13460469 0.31185216 -0.15152995 -0.20569448 -0.071996376
-0.00821363 0.33035418 -0.18973753 -0.11976047 -0.21724243 0.15376985 0.30508503 0.08983443
-0.033133812 -0.006247116 -0.23879652 -0.2799763 -0.03943299 0.30502495 -0.1826271 -0.30686352
-0.06444893 -0.08845468 -0.19124392 0.06471565 -0.27369678 0.17500317 0.06443167 0.2607035
0.21754037 -0.05632371 0.14261861 0.044540796 0.19435059 0.26536983 0.21817814 -0.115304716
-0.18436646 -0.21555856 -0.26862803 0.19322163 -0.10393375 -0.266711 -0.120771535 0.16967411
-0.01571242 0.10538346 -0.23580405 -0.06741092 -0.20168073 0.23192762 -0.28174168 0.16456872
0.07851096 -0.3533553 -0.0031061214 -0.0630696 -0.33462378 0.21259789 0.08438827 -0.26463318
00000000: a8fb af3d 19fc df3d 9fef 3c3e 7ac5 5cbe
00000010: ae58 75be 4a4f 293e 1082 67be 751d 1abd
00000020: cc54 c43d d2de bd3d 2a13 483e e813 06be
00000030: 559d 4abd 6e06 87be 0fe5 7b3e 7756 bfbd
00000040: 0bbe 953c 4634 33be c8c7 8c3c 933e e63d
00000050: 3427 363e 982e c93b 5f35 48be 9bf5 7dbe
00000060: edab d83d a217 863e 2e1d 71be 643c 49bd
00000070: 2159 1abe 8da2 1c3e c376 40be 1da2 723e
00000080: 3597 61be a44c 943e abba 183e b22a acbe
00000090: 6dad 97be b319 8dbd 8efb 763e 6491 06be
000000a0: 9e46 c63d 9e7e 433e f9b3 11be 8d35 f63c
000000b0: 64a0 56be 3b0b 47be c308 95be 9ea8 ac3e
000000c0: 8569 4c3e f903 443e 3d40 c63d b26f 3ebe
000000d0: fedf 6f3e f2af cc3d a1f2 893d 5ec3 a0be
000000e0: 660b 7abe 90d5 8f3d 3f3b 293e 6276 903e
000000f0: af67 a2be 3c49 ac3d 1b96 913e c25c 913e
00000100: b77e 95be 13e6 86bd a16a 133e d655 1cbe
00000110: 2698 b53d 1526 80be a99f a03e 6738 8b3b
00000120: 1579 5bbe 4b61 5bbd 599a 31be 7193 abbe
00000130: 2617 84bc 13a7 e93d 3d3d 9a3e 6d69 533e
00000140: 02db 78be 2f51 7d3e 98be 04be da38 1d3d
00000150: e6be b0be a5e1 16be cc39 39be 2268 863e
00000160: 0e30 c2bd 1597 a93c 4ddf 0dbe 522a f5bc
00000170: 356d f03d eb4b f73d 0977 82be f677 6e3e
00000180: cef2 a13e 2a39 b3bd c697 5ebe e321 84be
00000190: fca1 893e 8741 c23d 31fd e53d 04ba 573d
000001a0: b69a 6ebd 2268 e5bd 7a69 153e c19e 4fbe
000001b0: 183d f23c e99d 84be 883b 05be c665 163e
000001c0: 47d5 f53d dd76 5abb 4324 22be 216b 25be
000001d0: b458 333e d6d1 24be 3609 823e d93c 70be
000001e0: 987b 1fbd 22d2 39be c360 f3bd 7af8 7bbe
000001f0: 9cfa df3d e350 9ebd 6fcc d4bd 6798 883e
00000200: ce11 dd3d c6f2 42be a5d3 8ebe b2c1 193e
00000210: 2bc3 73be cf2e 7bbe 43c9 f7bc d15e 753e
00000220: d559 2dbe fb54 6abe 0946 78be d4b6 f4bd
00000230: 0ef4 293d d5b6 8cbe 77e8 1b3d b43f 193d
00000240: 7bf2 c83d 5a65 093e 9b26 7abe b690 45be
00000250: 6235 83be 6fde 00be cbcd 213c 41ea 80be
00000260: 442d e9bc 5d06 7cbe 50a7 993e 1b8c cfbd
00000270: c597 9dbe a685 73be 88a3 54be f9f0 4a3e
00000280: beed 223d 42bc 22be b24a e4bd 6916 843e
00000290: 74b4 193e e294 33be b40a 85bd 48b4 ff3d
000002a0: c0f9 593d dbcf 3cbe b40e c7bd 48b9 88be
000002b0: c95d 93be 0c40 7c3e 06ac 75be 044b 5f3e
000002c0: d7b4 94be 5703 06be 3c28 94be 0c6c 283d
000002d0: b67a ad3d 7303 e3bd 55a3 673e 713f 7c3e
000002e0: 1cf0 81be 8032 983e bfc0 283e b1da 653e
000002f0: c8f3 5ebe e62d 3bbe e6d8 b0bd 49fe 72be
00000300: b870 533e 49ed 403c cfbb b2bb d0d5 093e
00000310: 16ab 9f3e ab2a 1bbe 93a1 52be d672 93bd
00000320: 7692 06bc 2f24 a93e 8e4a 42be fa44 f5bd
00000330: cd74 5ebe d875 1d3e 1b34 9c3e 1dfb b73d
00000340: 52b7 07bd 9bb4 ccbb 1387 74be 0e59 8fbe
00000350: 7d84 21bd 3b2c 9c3e 9902 3bbe 371d 9dbe
00000360: cdfd 83bd ba27 b5bd 72d5 43be a489 843d
00000370: fc21 8cbe 0834 333e c0f4 833d ee7a 853e
00000380: e7c2 5e3e b1b3 66bd 9d0a 123e 6970 363d
00000390: d703 473e 8ede 873e 176a 5f3e e124 ecbd
000003a0: 90ca 3cbe 62bb 5cbe 9d89 89be e4db 453e
000003b0: 38db d4bd 588e 88be 1157 f7bd 0dbf 2d3e
000003c0: 55b7 80bc 49d3 d73d 9e76 71be bd0e 8abd
000003d0: 6585 4ebe 6f7e 6d3e 7240 90be b484 283e
000003e0: 5bca a03d fcea b4be 1290 4bbb a22a 81bd
000003f0: cf53 abbe 43b3 593e c2d3 ac3d 007e 87be

lstm.bias_ih_l1 f4 [40]
0.001961289 -0.1630545 -0.17020792 0.22818747 0.058512222 0.31679982 -0.30369598 0.27866918
0.08479747 0.28789693 0.17218412 -0.2305902 -0.007757137 -0.11292712 0.22959045 -0.24493591
-0.28372976 0.24317153 0.23289087 -0.006197162 0.15116489 -0.04203764 0.24552625 0.034439705
-0.24254656 0.16997062 -0.096483156 0.061748322 0.20839751 0.05413372 -0.085322395 0.21391344
0.2742862 0.12541893 -0.22160001 0.3251484 -0.20433898 0.03354938 -0.10698319 -0.10449667
00000000: f888 003b c2f7 26be fc4a 2ebe faa9 693e
00000010: 83aa 6f3d 9633 a23e 0a7e 9bbe baad 8e3e
00000020: 4caa ad3d 3a67 933e 0951 303e d61f 6cbe
00000030: 952f febb 5546 e7bd c219 6b3e 7bd0 7abe
00000040: 0745 91be f501 793e f27a 6e3e 9011 cbbb
00000050: f8ca 1a3e a92f 2cbd 3c6b 7b3e a610 0d3d
00000060: 205e 78be c70c 2e3e f698 c5bd cfeb 7c3d
00000070: 2866 553e 52bb 5d3d 82bd aebd 200c 5b3e
00000080: 3e6f 8c3e d26d 003e 1deb 62be da79 a63e
00000090: 3d3e 51be 136b 093d 011a dbbd 5a02 d6bd

lstm.bias_hh_l1 f4 [40]
-0.041224647 0.14078926 -0.06400145 -0.20030966 0.18222103 -0.22451279 0.14836068 -0.19576369
-0.3225365 0.028496655 0.16852708 -0.21223961 0.08634602 -0.17616002 0.280301 -0.082076505
-0.126078 -0.18201531 0.14052726 -0.1741556 0.2910861 -0.123697385 0.21666709 -0.26700687
0.21488997 -0.2871296 -0.1034081 0.15657835 -0.19842628 0.09809078 0.23710786 -0.1525543
0.26956737 -0.14915563 0.21976496 -0.07662499 -0.14077924 0.0786493 0.21819045 0.2339265
00000000: 2ddb 28bd 0f2b 103e 3113 83bd fa1d 4dbe
00000010: 2698 3a3e aee6 65be ddeb 173e 4776 48be
00000020: 8123 a5be d171 e93c 5d92 2c3e 5755 59be
00000030: 2fd6 b03d 4b63 34be 9d83 8f3e ba17 a8bd
00000040: 971a 01be 3962 3abe 61e6 0f3e d855 32be
00000050: 3d09 953e 0e55 fdbd fadd 5d3e 20b5 88be
00000060: 1e0c 5c3e a702 93be a0c7 d3bd 1356 203e
00000070: 4230 4bbe d2e3 c83d 67cc 723e 3237 1cbe
00000080: bc04 8a3e 41bc 18be 110a 613e 90ed 9cbd
00000090: 6f28 10be e212 a13d 516d 5f3e 6e8a 6f3e

fc.weight f4 [1, 4800]
0.012778441 -0.00044517382 -0.01206332 0.0034900072 -0.0054307044 -0.05752694 -0.005634782 0.03940997
-0.0036847037 0.0044090184 -0.009491995 -0.0041537196 -0.010756918 0.038553335 -0.035563275 0.046916667
0.010863467 0.02542779 -0.0012841148 0.0044501615 -0.022651339 -0.015982319 0.00026310497 0.026268804
-0.023226358 0.048695326 -0.015827777 0.016757546 0.02115491 0.00028878197 -0.0140946945 -0.0073969057
0.012214065 0.028917871 -0.023397995 0.039382752 -0.008896013 -0.007052152 -0.0042588995 -0.0011513323
-0.013040758 -0.0056954175 0.0016918413 -0.0018260054 0.011345859 -0.0073725656 0.0022598857 -0.0063591735
0.0011752511 -0.0022037574 -0.00849808 0.004167375 0.013614321 -0.0077670636 -0.011478487 -0.014656255
0.0011231425 0.010358161 0.007891491 0.0061579854 0.0059355535 0.015836746 -0.008386538 -0.0050403825
-0.0039987788 -0.009431102 -0.015838189 0.0047002276 -0.009245664 -0.00046442694 0.003106888 -0.009682632
0.00249943 0.020285442 -0.011546203 0.016828058 -0.009033293 -0.0019841178 0.009874881 0.0129923625
-0.021239359 0.005159227 -0.0051510194 -0.011344687 0.01128518 0.008768951 -0.008842706 -0.006237234
-0.015022204 0.0031822247 -0.0019251421 -0.010732126 0.0032288765 0.003688734 -0.0015883215 0.0020196007
-0.015740445 -0.0051400512 -0.0037758313 -0.0041835643 -0.0012224196 -0.007124032 -0.0125366105 0.0024055766
-0.0007784045 -0.011088213 0.014071767 0.0014866226 -0.015012739 -0.012486746 0.010336195 -0.004041951
0.011252804 -0.018618273 -0.0031559998 -0.0232964 0.010117951 -0.013936105 -0.007331925 0.0032987401
0.016811896 0.0048729964 0.009519729 -0.010470357 0.0063690585 -0.0009498593 -0.0018308584 -0.0013383741
-0.011591029 -0.0009147639 0.008208047 -0.005067102 -0.00340017 -0.030218186 -0.008545973 -0.010433307
-0.0059416457 -0.026776318 0.01110393 0.008110009 0.00883234 -0.004506534 -0.004128104 -0.016279245
-0.013359232 -0.0040972326 -0.0040641087 0.00019161667 0.004502303 -0.002257602 -0.007522514 0.0052290624
-0.0114519745 -0.009009435 -0.013817912 -0.0005319508 0.008588067 0.011975527 -0.004352809 0.01441441
0.0079473285 0.0012791787 -0.0027501597 -0.0032726645 -0.015338566 -0.0060083196 -0.0054692915 0.0036527005
0.0031323913 0.017017173 0.012401121 0.0043786354 0.016046468 0.017991275 -0.008523494 -0.004440011
-0.0010139779 -0.01328679 0.009656047 -0.00049508084 -0.004187717 -0.012346355 -0.0013682639 -0.021298748
-0.0016165567 -0.0019116973 -0.012800568 -0.019055866 0.008537095 -0.01423945 0.014607411 0.0025847298
0.009696912 -0.01714514 0.010716212 0.0008322981 -0.0043041743 0.0029055066 -0.0049583707 -0.0071598706
0.012377958 -0.0019858084 -0.00436416 -0.012684691 0.00066386984 0.005895737 0.004540807 0.0027287847
0.0031634788 0.004131203 -0.011196786 -0.004790828 0.004719828 0.015664155 0.0015776056 0.0017836955
0.009755568 -0.015861465 0.01547818 -0.00044681193 -0.01306854 -0.0022081486 -0.0036259952 -0.014122015
0.0018078923 -0.0009429404 0.009173535 0.001382024 0.014982086 0.00013221774 -0.00036809078 -0.015654301
0.01901584 -0.013551111 -0.0023750488 -0.025466466 0.012656349 -0.02040864 0.002232485 0.0074714795
0.018573584 0.006213684 -0.008588397 -0.009310037 -0.0032359178 -0.04079136 0.011790283 -0.008690801
-0.0018710986 -0.009424058 -0.0069416426 0.015596769 0.009645491 -0.0022001609 -0.025358455 0.0065165283
00000000: ab5c 513c 3866 e9b9 3ba5 45bc 9bb8 643b
00000010: 0df4 b1bb 5ea1 6bbd faa3 b8bb 596c 213d
00000020: 127b 71bb 8779 903b 5084 1bbc ed1b 88bb
00000030: c93d 30bc 1aea 1d3d ccaa 11bd b12b 403d
00000040: affc 313c f14d d03c be4f a8ba a9d2 913b
00000050: 4d8f b9bc 5aed 82bc 5af1 8939 ad31 d73c
00000060: 3445 bebc c074 473d 41a9 81bc 1f47 893c
00000070: 104d ad3c a967 9739 6fed 66bc be61 f2bb
00000080: 801d 483c 2ce5 ec3c 27ad bfbc cf4f 213d
00000090: 95c0 11bc bd15 e7bb 3d8e 8bbb 4de8 96ba
000000a0: e7a8 55bc a0a0 babb c6c0 dd3a 9356 efba
000000b0: fbe3 393c 9095 f1bb 971a 143b 9d60 d0bb
000000c0: e20a 9a3a ea6c 10bb 883b 0bbc 7a8e 883b
000000d0: 9a0e 5f3c da82 febb 4410 3cbc ca20 70bc
000000e0: 6936 933a 47b5 293c 504b 013c edc8 c93b
000000f0: 087f c23b 10bc 813c b167 09bc cb29 a5bb
00000100: 3008 83bb e984 1abc 17bf 81bc 5e04 9a3b
00000110: 207b 17bc 547e f3b9 ee9c 4b3b e7a3 1ebc
00000120: 7acd 233b a82d a63c 492c 3dbc ffda 893c
00000130: 6100 14bc f907 02bb 41ca 213c ebdd 543c
00000140: 2afe adbc bc0e a93b e2c9 a8bb 11df 39bc
00000150: 7ae5 383c a5ab 0f3c ffe0 10bc b661 ccbb
00000160: b11f 76bc df8c 503b 0d55 fcba cdd5 2fbc
00000170: 8f9b 533b b0be 713b 3a2f d0ba 475b 043b
00000180: 1bf2 80bc e06d a8bb f073 77bb 4816 89bb
00000190: 9839 a0ba b670 e9bb 5b66 4dbc e1a6 1d3b
000001a0: d70d 4cba 56ab 35bc 458d 663c c7da c23a
000001b0: fef7 75bc 3595 4cbc 2559 293c 5872 84bb
000001c0: ae5d 383c 5985 98bc e4d4 4ebb 18d8 bebc
000001d0: c3c5 253c 4354 64bc a540 f0bb ad2f 583b
000001e0: 1ab9 893c a8ad 9f3b a3f8 1b3c dc8b 2bbc
000001f0: 89b3 d03b fbff 78ba 6af9 efba 626c afba
00000200: 4de8 3dbc c4cc 6fba 0b7b 063c ef09 a6bb
00000210: 63d5 5ebb 218c f7bc 6904 0cbc 76f0 2abc
00000220: 23b2 c2bb 025a dbbc 42ed 353c d8df 043c
00000230: 85b5 103c 8cab 93bb 0c45 87bb 0d5c 85bc
00000240: aee0 5abc 1442 86bb 372c 85bb b5ec 4839
00000250: 0e88 933b 47f4 13bb 6c7f f6bb 8e58 ab3b
00000260: 10a1 3bbc 4f9c 13bc 8664 62bc 9d72 0bba
00000270: f7b4 0c3c 0035 443c 02a2 8ebb 6b2a 6c3c
00000280: 8335 023c 1daa a73a 063c 34bb 337a 56bb
00000290: 9c4e 7bbc 70e1 c4bb be37 b3bb 2562 6f3b
000002a0: ce48 4d3b 9967 8b3c 122e 4b3c a87a 8f3b
000002b0: e273 833c 7062 933c 20a6 0bbc 837d 91bb
000002c0: 74e7 84ba d6b0 59bc 6634 1e3c 50c8 01ba
000002d0: 1e39 89bb 5e48 4abc 5157 b3ba b67a aebc
000002e0: a4e2 d3ba eb91 faba 79b9 51bc 0c1b 9cbc
000002f0: 2cdf 0b3c 954c 69bc ec53 6f3c 9264 293b
00000300: ccdf 1e3c f773 8cbc 0d93 2f3c 942e 5a3a
00000310: 080a 8dbb 506a 3e3b d479 a2bb 599d eabb
00000320: ebcc 4a3c 5624 02bb 3a01 8fbb 73d3 4fbc
00000330: 8d07 2e3a 0731 c13b 0dcb 943b 69d5 323b
00000340: 5e52 4f3b 0b5f 873b b972 37bc 61fc 9cbb
00000350: c9a8 9a3b 1d52 803c a9c7 ce3a e4ca e93a
00000360: d1d5 1f3c e7ef 81bc 3198 7d3c 1542 eab9
00000370: 6e1d 56bc 96b6 10bb 1ba2 6dbb 0660 67bc
00000380: cdf6 ec3a a92f 77ba 984c 163c 0825 b53a
00000390: 6c77 753c eea3 0a39 4ffc c0b9 733d 80bc
000003a0: 1bc7 9b3c 7b05 5ebc b5a6 1bbb 0d9f d0bc
000003b0: 935c 4f3c 0530 a7bc e24e 123b 50d3 f43b
000003c0: a127 983c 299c cb3b 59b6 0cbc 2089 18bc
000003d0: b111 54bb d714 27bd 082c 413c dd63 0ebc
000003e0: a73f f5ba 5d67 1abc b876 e3bb 9789 7f3c
000003f0: 1f08 1e3c 9330 10bb 89bc cfbc 9a88 d53b

exp_avg f4 [40, 17]
3.8692888e-05 2.5971389e-05 -2.4848538e-05 -0.00012947837 5.032692e-05 -1.5784507e-06 8.185282e-05 -1.5853977e-05
-0.00010906092 3.1380972e-05 -0.00014386939 0.00011266124 0.0001241345 1.7304691e-06 0.00023690441 -0.00018702382
-4.875771e-05 2.0748115e-05 6.414792e-05 -4.3583705e-06 9.764734e-05 -3.2718955e-05 2.3831415e-05 -2.897031e-05
-2.363859e-05 -2.7516337e-05 -6.3658685e-05 -3.6952813e-05 2.7058302e-05 7.3921045e-05 0.00011057659 0.0001264473
-6.717923e-05 5.213951e-07 0.00037668282 0.001141481 1.1193756e-05 0.0007286911 0.00016904448 2.2076665e-06
0.00025273152 0.000106085565 0.00016570237 0.0001746792 0.0002009459 0.00019170702 0.00017768767 0.00013586707
0.0002697406 0.00027875073 0.00060418353 0.00012734502 0.00018586495 4.0980856e-05 0.00017004569 8.470702e-05
4.720431e-06 -3.2627377e-05 3.0442287e-05 5.3654207e-05 -2.2557683e-06 -4.704807e-07 4.5401293e-06 7.017191e-05
7.076356e-05 0.00015876592 0.00017926056 -0.00011118068 -3.6575708e-05 -0.000116334755 -3.8193702e-05 -6.182907e-05
-2.9952073e-05 1.0051854e-05 -7.279913e-05 -6.9761074e-05 -3.185638e-05 -3.6678444e-05 -3.3069413e-05 1.286549e-05
2.57774e-06 1.3935969e-06 0.00014186568 -0.00023141687 -6.4977205e-05 5.45867e-05 0.00054769753 6.73859e-05
0.0005237012 -4.0417537e-05 -4.2730644e-06 0.00013607313 5.6555044e-05 0.00015486093 6.0330698e-05 -6.142167e-06
0.00016973702 0.00014375741 3.5984594e-05 -5.3902124e-05 0.00023094384 0.00043804166 -6.9931106e-05 0.00016232026
-8.3878795e-06 3.419463e-05 5.3010994e-05 3.7563277e-06 6.2970576e-05 -1.4053989e-05 -9.886132e-06 3.265735e-05
1.0000019e-06 3.4935296e-05 5.9623388e-05 4.965659e-05 -0.00020128724 8.7657994e-05 0.00026756173 -3.0838419e-06
3.9068225e-05 3.567076e-05 0.000117386735 5.55145e-06 1.1991552e-05 -6.019078e-05 2.3346109e-05 1.52497605e-05
1.1529211e-05 -1.3602279e-05 -3.4864046e-05 6.991726e-06 6.608851e-05 -6.837885e-05 8.644548e-05 5.6672332e-05
-5.9136077e-05 -5.14545e-05 2.870605e-05 0.0001660751 0.00010814647 9.626004e-06 -0.00030659602 8.838385e-05
4.3048753e-05 -0.0001453906 -7.2537056e-05 -0.00015639333 6.0449736e-05 0.00015969019 2.2375752e-06 0.00030332583
-0.00032831196 0.00025703723 0.00030391436 1.4936901e-05 0.00014638013 0.0001959657 1.4211522e-05 -3.7706137e-05
9.1939975e-05 3.981235e-05 2.6975662e-05 -2.3505336e-05 -5.903769e-06 5.088465e-05 0.00013864771 0.0005262218
-4.0878083e-05 -0.00016649254 -0.00014024759 -0.00066842494 -3.6611156e-05 -0.00048518067 -4.9268507e-05 -7.688188e-06
-0.00016289878 -0.000101217884 -0.00028359654 -6.598225e-05 -0.00018493444 -9.310401e-05 2.2798944e-05 1.000054e-06
0.00013931814 -0.0003845531 -0.0004598011 -6.6243985e-05 -0.00010566955 2.8730845e-05 6.737257e-05 -4.92047e-05
3.4064396e-05 -0.00012917105 -4.418338e-06 -0.00010154518 -0.00013488575 -0.00013756682 -2.5518659e-05 9.488967e-05
0.00023210631 0.0001488151 -0.00020616905 -1.9584984e-05 0.00040006207 0.0011702736 1.9281937e-05 0.0007325023
0.00016541549 2.0206633e-06 0.00028961722 0.00011832114 0.00018854174 0.00019844818 0.00019678386 0.00018684445
0.00017911394 0.00012150228 0.0002871877 0.0003268696 0.00057549815 1.505515e-05 -4.1988013e-05 2.8937584e-05
-1.2527016e-07 4.5288718e-05 1.0873475e-05 -6.908734e-05 -2.0464115e-05 7.774872e-06 -3.1068903e-05 -8.444362e-06
-2.666944e-05 3.5857604e-05 2.9963918e-05 0.0001301044 -0.00011998655 -2.316813e-05 -7.583306e-05 -0.0002852599
-3.1038413e-05 -0.00011638202 -8.146231e-05 9.532426e-06 -0.00012798634 -8.982591e-05 -6.765187e-05 -4.4532746e-05
-2.5693134e-05 -8.975272e-06 -3.7619433e-05 -4.1999938e-05 0.00010253451 -0.00022207282 -0.00019675991 -0.0002224766
00000000: 2c4a 2238 22dd d937 d471 d0b7 96c4 07b9
00000010: 1e16 5338 27db d3b5 66a8 ab38 28fe 84b7
00000020: a3b7 e4b8 109f 0338 a5db 16b9 8b44 ec38
00000030: 1a2a 0239 7742 e835 8b69 7839 d31b 44b9
00000040: 3181 4cb8 3d0c ae37 2787 8638 1e3e 92b6
00000050: 04c8 cc38 b63b 09b8 93e9 c737 4405 f3b7
00000060: 7c4b c6b7 e2d2 e6b7 7f80 85b8 c8fd 1ab8
00000070: 43fb e237 0f06 9b38 5be5 e738 f096 0439
00000080: 93e2 8cb8 00f6 0b35 837d c539 bf9d 953a
00000090: d1cc 3b37 a205 3f3a 8841 3139 6c27 1436
000000a0: 0d81 8439 417a de38 64c0 2d39 172a 3739
000000b0: 01b5 5239 f604 4939 ac51 3a39 8a77 0e39
000000c0: f86b 8d39 4a25 9239 1262 1e3a eb87 0539
000000d0: bee4 4239 dce2 2b38 4b4e 3239 bca4 b138
000000e0: 3264 9e36 61d9 08b8 505e ff37 c40a 6138
000000f0: ce61 17b6 6096 fcb4 6a57 9836 4229 9338
00000100: e666 9438 677a 2639 e4f7 3b39 ac29 e9b8
00000110: de68 19b8 bff8 f3b8 2d32 20b8 3baa 81b8
00000120: 9641 fbb7 62a4 2837 bcab 98b8 b14c 92b8
00000130: 879d 05b8 2ed7 19b8 03b4 0ab8 dcd8 5737
00000140: 3cfd 2c36 a00b bb35 c7c1 1439 7ea8 72b9
00000150: 5f44 88b8 06f4 6438 5c93 0f3a 8851 8d38
00000160: fe48 093a 0086 29b8 5861 8fb6 daae 0e39
00000170: 8435 6d38 2a62 2239 980b 7d38 d018 ceb6
00000180: 6ffb 3139 96bd 1639 2aee 1638 f714 62b8
00000190: 8429 7239 f5a8 e539 faa7 92b8 8334 2a39
000001a0: abb9 0cb7 346c 0f38 1f58 5e38 3815 7c36
000001b0: 120f 8438 6cc9 6bb7 9ddc 25b7 90f9 0838
000001c0: ce37 8635 7d87 1238 2014 7a38 5c46 5038
000001d0: a210 53b9 07d5 b738 8747 8c39 00f4 4eb6
000001e0: 30dd 2338 309d 1538 862d f638 9846 ba36
000001f0: 532f 4937 5c75 7cb8 63d7 c337 39d9 7f37
00000200: 966d 4137 5835 64b7 fc3a 12b8 789a ea36
00000210: 0099 8a38 9e66 8fb8 104a b538 74b3 6d38
00000220: e108 78b8 d9d0 57b8 c6cd f037 7224 2e39
00000230: b2cc e238 5f7f 2137 9fbe a0b9 b85a b938
00000240: 3f8f 3438 fe73 18b9 091f 98b8 84fd 23b9
00000250: 698b 7d38 8272 2739 4029 1636 b407 9f39
00000260: 4921 acb9 f4c2 8639 b256 9f39 8099 7a37
00000270: 9e7d 1939 247c 4d39 066e 6e37 a826 1eb8
00000280: e6cf c038 2ffc 2638 cb49 e237 532d c5b7
00000290: fd18 c6b6 fa6c 5538 f661 1139 26f2 093a
000002a0: 8274 2bb8 8094 2eb9 6d0f 13b9 3d39 2fba
000002b0: ee8e 19b8 d95f feb9 a8a5 4eb8 84fc 00b7
000002c0: cfcf 2ab9 f044 d4b8 afaf 94b9 f35f 8ab8
000002d0: f6ea 41b9 d640 c3b8 5c40 bf37 9839 8635
000002e0: ee15 1239 d89d c9b9 7511 f1b9 78ec 8ab8
000002f0: e89a ddb8 0503 f137 604a 8d38 2561 4eb8
00000300: 5ee0 0e38 1772 07b9 3c41 94b6 a7f4 d4b8
00000310: 1e70 0db9 d03f 10b9 e710 d6b7 81ff c638
00000320: 9061 7339 400b 1c39 152f 58b9 6f4a a4b7
00000330: 6cbf d139 de63 993a a5bf a137 6605 403a
00000340: 6273 2d39 bb9a 0736 c4d7 9739 2e23 f838
00000350: 4ab3 4539 8716 5039 c457 4e39 adeb 4339
00000360: 88d0 3b39 0acf fe38 ae91 9639 b25f ab39
00000370: 07dd 163a 6095 7c37 491c 30b8 fdbe f237
00000380: 0082 06b4 64f4 3d38 386d 3637 fce2 90b8
00000390: 5aaa abb7 d270 0237 fb4f 02b8 42ac 0db7
000003a0: 30b8 dfb7 cf65 1638 065b fb37 a26c 0839
000003b0: 4aa1 fbb8 2e59 c2b7 9008 9fb8 f08e 95b9
000003c0: 3e2f 02b8 1f12 f4b8 bfd6 aab8 75ed 1f37
000003d0: 1234 06b9 eb60 bcb8 52e0 8db8 acc8 3ab8
000003e0: 9687 d7b7 8094 16b7 8fc9 1db8 1729 30b8
000003f0: cc07 d738 38dc 68b9 5651 4eb9 9c48 69b9

exp_avg_sq f4 [40, 17]
9.610601e-08 3.6158696e-07 8.578333e-09 2.5265786e-07 1.8050223e-08 3.5821362e-08 3.8881747e-09 3.9280792e-08
6.676597e-08 1.5518182e-08 9.8889466e-08 4.2306212e-08 2.2181498e-08 5.6834217e-08 2.4570423e-07 1.439346e-07
4.6508422e-08 5.991619e-08 2.6274003e-07 9.6117185e-09 1.4797173e-07 1.9165215e-08 2.1914975e-08 2.980413e-09
8.228373e-08 4.6680043e-08 2.290027e-08 2.5176995e-08 2.6303706e-09 4.7271207e-08 8.7812e-08 1.4418674e-07
1.3072071e-08 1.1826803e-08 7.443603e-07 4.9722053e-06 2.7103435e-09 3.3094607e-06 1.0254261e-07 2.6018926e-08
2.8829891e-08 9.90889e-08 1.3347498e-07 1.4446802e-07 1.7052123e-07 1.6339875e-07 1.7136051e-07 1.8560542e-07
8.8360093e-07 2.5145553e-07 8.7797173e-07 4.0675385e-08 1.2602318e-07 6.8903465e-09 7.4883424e-08 1.7453546e-08
9.668461e-09 3.9411185e-09 1.5455004e-08 7.463557e-09 1.0695932e-08 1.3387568e-08 4.768961e-09 9.919821e-09
1.3446346e-08 6.4164325e-08 8.558515e-08 5.916995e-08 6.751688e-08 2.4118097e-07 1.0725135e-08 2.1261127e-07
6.645498e-09 1.3145642e-08 5.272543e-09 2.2680622e-08 1.838344e-08 8.824463e-09 1.2041297e-08 3.1869686e-08
1.2875801e-08 2.230031e-08 1.4428905e-07 1.5280204e-07 3.0739262e-08 1.14943845e-07 8.756951e-07 1.096754e-08
5.7261184e-07 3.834286e-08 4.4441812e-08 2.211919e-08 5.4768076e-08 7.183641e-08 1.1209598e-07 2.0330103e-07
8.153464e-08 2.4743342e-08 3.1436155e-08 1.4511916e-07 2.3221673e-07 4.0354482e-07 1.17864305e-08 1.0206813e-07
6.452188e-09 4.4044057e-08 1.068803e-08 6.660934e-09 4.2082804e-09 6.9308417e-09 1.309113e-08 6.990177e-09
3.6362877e-09 1.8021932e-08 1.0171343e-08 5.648428e-09 5.696137e-08 3.811339e-08 1.10415606e-07 2.883532e-08
1.0935545e-07 8.294077e-09 7.977996e-08 4.8388573e-09 5.59695e-09 2.5618634e-09 1.0540949e-08 8.338475e-09
5.914584e-09 1.0518291e-08 9.17568e-09 9.254252e-09 1.776841e-08 4.7774574e-08 2.9794567e-08 1.563226e-08
4.2635065e-07 1.3680885e-06 1.7496342e-08 7.601261e-07 1.760494e-07 8.491507e-08 8.455451e-08 6.0426466e-08
1.0557207e-07 1.4026378e-07 1.1225531e-07 3.7598738e-07 4.7431506e-08 7.265782e-08 9.697764e-07 2.4305663e-07
5.461657e-07 1.1011745e-07 9.417077e-08 6.0819976e-09 5.766033e-08 3.114678e-08 1.008421e-08 2.345437e-09
2.407183e-08 1.6897426e-08 2.1694422e-08 4.2719154e-08 8.624105e-09 1.1154149e-08 2.6163764e-08 4.231363e-07
1.9920616e-08 9.170505e-08 3.8789165e-07 2.4832445e-06 1.14034e-08 1.5232189e-06 3.083151e-08 1.2004311e-07
2.6848076e-08 1.2443186e-07 2.250679e-07 4.4490832e-08 1.956768e-07 2.959763e-07 5.313489e-08 9.308089e-08
4.7393848e-07 6.432068e-07 5.487743e-07 1.9767229e-07 8.839172e-07 2.4625441e-08 5.292089e-07 5.264741e-08
7.000546e-08 2.597549e-08 2.0629204e-07 1.8362482e-07 9.32441e-08 1.8574718e-07 1.6394207e-08 1.14550495e-07
3.7538544e-07 4.789449e-07 7.6332554e-08 4.199747e-08 8.302926e-07 5.476425e-06 4.1176977e-09 3.41366e-06
8.964534e-08 7.5776526e-08 3.8100303e-08 1.201365e-07 1.5962553e-07 1.8471795e-07 1.7603533e-07 1.4547231e-07
1.8012162e-07 1.6564078e-07 9.4310985e-07 3.4978015e-07 8.5113896e-07 5.9387943e-08 1.9892417e-07 4.97353e-09
1.2706889e-07 1.2494239e-08 8.82075e-09 6.2017134e-09 3.111103e-08 9.078793e-09 2.0900336e-08 1.9106581e-08
6.0365046e-09 6.3378853e-09 8.41528e-09 7.8607144e-08 3.4328895e-08 1.7327341e-08 7.182682e-08 4.6094974e-07
7.6852515e-09 3.104051e-07 1.5659518e-08 3.0384733e-08 9.793143e-09 2.1570237e-08 1.4726665e-08 5.5459495e-09
1.102327e-08 4.5373664e-08 2.7603454e-08 2.5543155e-08 1.2809788e-07 1.768805e-07 1.3266057e-07 1.728853e-07
00000000: d662 ce33 2220 c234 e85f 1332 08a5 8734
00000010: dc0c 9b32 01da 1933 bf98 8531 b0b5 2833
00000020: fb60 8f33 d84c 8532 0f5d d433 2cb4 3533
00000030: a189 be32 e219 7433 55e9 8334 718c 1a34
00000040: 8dc0 4733 46ab 8033 b70e 8d34 c920 2532
00000050: 29e2 1e34 c1a0 a432 8a3f bc32 fbcf 4c31
00000060: f5b3 b033 407d 4833 3ab6 c432 cc44 d832
00000070: f8c1 3431 3e07 4b33 2893 bc33 c0d1 1a34
00000080: 9493 6032 d42e 4b32 0dd0 4735 ebd6 a636
00000090: de40 3a31 1a18 5e36 6535 dc33 3980 df32
000000a0: 9aa5 f732 b3ca d433 5351 0f34 111f 1b34
000000b0: 8518 3734 b572 2f34 38ff 3734 d44a 4734
000000c0: 9830 6d35 c9ff 8634 c2ad 6b35 0fb3 2e33
000000d0: fd50 0734 21c0 ec31 99cf a033 c1ec 9532
000000e0: 571a 2632 726a 8731 eac1 8432 1239 0032
000000f0: 35c1 3732 26ff 6532 39dc a331 d66b 2a32
00000100: a801 6732 b6ca 8933 efca b733 0c22 7e33
00000110: ccfd 9033 a97b 8134 a441 3832 244a 6434
00000120: 6b56 e431 25d7 6132 c729 b531 37d3 c232
00000130: 9de9 9d32 669a 1732 2fde 4e32 17e1 0833
00000140: 5f34 5d32 e68e bf32 dfed 1a34 e811 2434
00000150: 2d06 0433 0cd7 f633 4f11 6b35 c06b 3c32
00000160: 96b5 1935 6cae 2433 4ae0 3e33 9d00 be32
00000170: 233a 6b33 7c44 9a33 6bb9 f033 f64a 5a34
00000180: 2418 af33 2f8b d432 6b04 0733 0dd2 1b34
00000190: 4057 7934 c7a6 d834 457d 4a32 8c30 db33
000001a0: 0cb2 dd31 f42a 3d33 749e 3732 32de e431
000001b0: 6d98 9031 5424 ee31 66e7 6032 3f2e f031
000001c0: 40e2 7931 a6ce 9a32 0abe 2e32 1914 c231
000001d0: b0a5 7433 1eb2 2333 9f1d ed33 8ab1 f732
000001e0: cbd6 ea33 bd7d 0e32 7f53 ab33 0a43 a631
000001f0: 4b4f c031 c70c 3031 9517 3532 0041 0f32
00000200: 3b39 cb31 efb3 3432 11a3 1d32 a1fc 1e32
00000210: 26a1 9832 b330 4d33 f2ee ff32 b447 8632
00000220: 30e5 e434 2a9f b735 dd4a 9632 780b 4c35
00000230: 1708 3d34 8e5a b633 5594 b533 cdc3 8133
00000240: dcb6 e233 6a9b 1634 0211 f133 50db c934
00000250: 7eb7 4b33 0f08 9c33 4329 8235 737d 8234
00000260: 399c 1235 b579 ec33 ee3a ca33 d1f9 d031
00000270: 34a6 7733 3fc6 0533 d33e 2d32 5d2d 2131
00000280: 84c6 ce32 d525 9132 8a5a ba32 357a 3733
00000290: 3729 1432 77a0 3f32 babe e032 692b e334
000002a0: e61d ab32 62ef c433 6c3f d034 d1a5 2636
000002b0: afe8 4332 6771 cc35 9b6b 0433 33e5 0034
000002c0: 8b9f e632 929b 0534 31aa 7134 3016 3f33
000002d0: 3b1b 5234 ace6 9e34 6e36 6433 c3e3 c733
000002e0: 9c71 fe34 d6a8 2c35 7c4f 1335 bf3f 5434
000002f0: 5446 6d35 eb87 d332 f50e 0e35 711e 6233
00000300: e955 9633 b520 df32 2081 5d34 682a 4534
00000310: 7c3d c833 cc71 4734 3ed3 8c32 cdfe f533
00000320: 9588 c934 d890 0035 44ec a333 b560 3433
00000330: 46e1 5e35 22c2 b736 a77b 8d31 3b16 6536
00000340: 0c83 c033 96ba a233 baa3 2333 dffe 0034
00000350: 8865 2b34 e256 4634 3904 3d34 2033 1c34
00000360: 7467 4134 feda 3134 042a 7d35 6bc9 bb34
00000370: d379 6435 bc11 7f33 dc97 5534 a2e3 aa31
00000380: 6e70 0834 3fa6 5632 128a 1732 d916 d531
00000390: f09e 0533 f4f8 1b32 5388 b332 d11f a432
000003a0: a869 cf31 a1c4 d931 cb92 1032 bcce a833
000003b0: 0571 1333 3ad7 9432 363f 9a33 7378 f734
000003c0: 1808 0432 c1a5 a634 a583 8632 5e80 0233
000003d0: b33e 2832 7449 b932 8f00 7d32 b08e be31
000003e0: db60 3d32 dfe0 4233 a31c ed32 fe69 db32
000003f0: 478b 0934 8bec 3d34 7671 0e34 59a2 3934
