DeepLearning/timeSerise/lightning_logs/version_0/checkpoints/epoch=9-step=6950.ckpt (torch, 140440 bytes, 27 tensors)

lstm.weight_ih_l0 f4 [40, 50]
00000000: 1a16 15bd 9bf0 a13d e41e 94be b37a 46be
00000010: 1527 a6bc 9190 acbd 44b6 aabc ed10 47bd
00000020: e47b be3d b7d8 9c3e 6da8 39be 82e6 8abe
00000030: 72e6 b53c 23e1 943e 84bc 3e3e bbe4 923c
00000040: 9381 893e b81b b9bd 18c9 e13d 0098 2a3e
00000050: 5207 5c3e ee70 91be 15a3 cf3d 45bb a53d
00000060: 2a11 1d3e 52b4 88bd 8a78 2d3d b165 a23e
00000070: 73b2 3e3e c44f 79be 7160 81be f13e 5c3d
00000080: 1ae1 b83e 92a1 7abe f5b2 813e 5b73 b73e
00000090: 7496 e3bd 3d49 53be 9676 2a3e 2748 97bd
000000a0: 7234 693e 9acc 10bd ec68 9abe 66c6 88be
000000b0: b6eb ad3d ada1 b83e b1b0 0e3e 503b 2dbd
000000c0: 08bf 613e 7a91 34be b635 763e 8158 99bd
000000d0: 1c56 38be 11c4 00bc 4c73 ef3d 06d7 31be
000000e0: 722d df3c cfb2 48be aeba a03e d024 90bd
000000f0: 71f7 73be 6441 74bd a611 6f3e 02c5 6d3d
00000100: ccf5 72be 05a2 05bd db45 093e 95e9 1bbe
00000110: df30 5bbe 520a c83d 3274 083e 1447 2b3e
00000120: 71b5 933c 46ed 1d3e 488d 503e 2207 0cbe
00000130: efc8 c2bb 0149 47bd 3654 d03d 075e 413c
00000140: a026 d73d 17af 8fbe bc31 39be 2c7c 223e
00000150: a741 b2bd 7298 993d 8d20 4b3e a507 003e
00000160: aa6b ae3d 58bb 67be 5aea cdbc 6034 12be
00000170: 98ad 13be 97f6 c03d 9017 0e3e a67d a5bd
00000180: f9e0 4d3d 56c9 d33b dd69 3a3e ba8c 8bbd
00000190: cde1 1d3e ee75 d9bd 7002 253d 2a29 bcbc
000001a0: 0c2b 1a3e 9fe4 e13d eda4 943e 14eb 2b3e
000001b0: 4c24 5b3e 1875 823e 5175 76be 7843 4dbe
000001c0: 0931 693e 222e 93be 17bb 483d c89b be3e
000001d0: 2a06 3cbe 3447 fe3d d06f 7cbe f7a2 94bc
000001e0: d438 f4bb fd28 893e 02b2 55be 2cc4 ddbd
000001f0: 147d 21be cab3 863e dae9 073e 214b 983e
00000200: 9c18 2fbe 06b3 0bbe d49b 18be 61b5 313e
00000210: 4788 213b 37fb 7d3e 59ad ff3d 0428 ebbc
00000220: fee4 e1bd 14b5 9c3e bd89 853e 194c 11be
00000230: c37b a03e 2a43 993e 0031 b53d 63e0 bb3d
00000240: 001f 5abe 809e 1ebe 1fa6 9c3e 615b 08be
00000250: 9544 3a3d 61cb c7bd 4f3e 77be 0586 0c3e
00000260: 0d05 703e 3050 733e b016 b4bd c65c b9be
00000270: b1ec 45be 143d 6bbd 9f3d bf3c b618 383e
00000280: e3c1 4ebd ed62 75bd bde5 5dbe 6668 9cbe
00000290: ee28 3fbe dc1f 7ebe c199 313d c1a9 0bbd
000002a0: de29 643d e2f6 ec3d e2a8 81be 3597 463d
000002b0: 5fb4 96be 97ec 053d 7511 d03d b358 7dbe
000002c0: 4caa 9bbe cac9 7abd 117a e6bd 360a 86be
000002d0: 4f5a 94bc 33d8 643e 0fda 72be e601 36be
000002e0: cdd2 82be ad34 4e3e 9a14 be3b dbf9 a5be
000002f0: 023d 603e e32b 95be 3c0c c1ba 739b 70be
00000300: 8fcf abbd 2f6f 4bbd 307e 993e 4fb2 8bbe
00000310: 0d05 5dbe 04a4 8d3e b393 343d 922a 6bbe
00000320: c7cd 9b3e e12a 18be a1e7 873b fcd7 96be
00000330: df17 24bb 62fa eebd 89f7 273e 302b d9bd
00000340: 1d1e e23d c41e 10bd 516b 88bd e583 863d
00000350: c933 80be ce66 ad3d 90b1 e03d e90c 61be
00000360: c899 273e 8e76 643d be96 41be 7c82 503e
00000370: ee87 70be d208 4d3d 8327 843e 2063 5dbe
00000380: 8bbc 303e 58fb c6bd 71c8 4abe 1a02 b23e
00000390: 4e8e db3c b27b 833e aba4 42be f6c6 8bbe
000003a0: 83c1 2d3e 101c c03d 84e9 1dbe 13d1 5dbe
000003b0: 2093 563e 500c 053e 05b1 013a e05f 2bbb
000003c0: 9fcd 15be 6eff 9d3d 8def 783c 2557 79bd
000003d0: dedf 11be 0f7c 31bd c466 0fbe 0196 9b3e
000003e0: 2a2d 89be c8e5 9d3c 5708 9d3e eb9b a23d
000003f0: 13a1 82bd 5eef 833c 70e6 e63d ef93 fc3d
-0.03639803 0.0790722 -0.28929818 -0.19382744 -0.020282308 -0.08426011 -0.020838864 -0.048600126
0.09300974 0.3063409 -0.18130656 -0.27128989 0.022204611 0.29078016 0.186266 0.017931333
0.2685667 -0.0903849 0.11024684 0.16659546 0.21487167 -0.2840647 0.10138527 0.080923595
0.15338579 -0.06675018 0.042351283 0.3171821 0.1862276 -0.24346834 -0.2526889 0.053770963
0.3610924 -0.24475697 0.25331846 0.35830197 -0.11112681 -0.20633407 0.166468 -0.07386809
0.22773913 -0.035351373 -0.30158174 -0.26713866 0.08492224 0.3606085 0.1393459 -0.042292893
0.22045529 -0.1763362 0.24043927 -0.07487584 -0.18001598 -0.007859246 0.11691913 -0.17367181
0.02724335 -0.1959946 0.31392425 -0.070382714 -0.2382486 -0.059632674 0.23346576 0.05804921
-0.23726577 -0.032625217 0.13405554 -0.15225823 -0.21405362 0.097675934 0.13325575 0.16726333
0.018030854 0.15422544 0.20366395 -0.13674596 -0.0059443633 -0.048653606 0.10172312 0.011802203
0.10505414 -0.2806327 -0.18085378 0.1586768 -0.087039284 0.0749978 0.19836636 0.12502916
0.08516629 -0.2263006 -0.025136162 -0.14277792 -0.1442169 0.09422033 0.13876176 -0.08080606
0.05026338 0.00646321 0.18204446 -0.06813951 0.15418167 -0.106181964 0.040285528 -0.022968847
0.15055484 0.11029934 0.29032078 0.16788894 0.21400565 0.2547996 -0.2406819 -0.20045269
0.22772612 -0.28746134 0.049006548 0.37228227 -0.18361726 0.12415925 -0.24652028 -0.018144114
-0.0074530635 0.26789084 -0.20868686 -0.108284324 -0.1577037 0.26309043 0.13272801 0.2974482
-0.17099231 -0.13642511 -0.14903194 0.17354347 0.0024647878 0.24802862 0.12484235 -0.028705604
-0.11030005 0.30606902 0.26081648 -0.14189185 0.31344423 0.29934055 0.08847237 0.09173658
-0.21300888 -0.1549015 0.3059549 -0.13316108 0.04547556 -0.09755588 -0.24144863 0.13723
0.23439427 0.23761058 -0.0879339 -0.36203593 -0.19328572 -0.057431296 0.023344813 0.17978176
-0.050477874 -0.059908796 -0.2166967 -0.305484 -0.18667957 -0.24816841 0.04335952 -0.034097437
0.05570399 0.11570527 -0.2532416 0.048484046 -0.29434487 0.032696333 0.1015958 -0.24740867
-0.30403364 -0.061227597 -0.11253751 -0.26179665 -0.018109469 0.22348098 -0.23715995 -0.17774162
-0.25551453 0.20137282 0.0058007957 -0.32417187 0.21898273 -0.29135045 -0.0014728378 -0.23496799
-0.08389198 -0.04966658 0.29979086 -0.27284476 -0.21583958 0.27664196 0.04408617 -0.22965458
0.30430433 -0.14860107 0.0041474854 -0.29461658 -0.0025038642 -0.116688505 0.16403021 -0.106039405
0.110409 -0.03518559 -0.06661094 0.06568126 -0.2503951 0.08466874 0.10971367 -0.21977581
0.16367257 0.055777125 -0.1890516 0.20362276 -0.23489353 0.05005724 0.25811395 -0.21619844
0.17259423 -0.09715909 -0.19803025 0.34767228 0.026801255 0.2568031 -0.19008128 -0.27300233
0.1696835 0.093803525 -0.1542111 -0.21661787 0.20954561 0.12992978 0.00049473374 -0.0026149675
-0.1462922 0.07714735 0.015193832 -0.060874123 -0.14245555 -0.043331202 -0.14004046 0.3038788
-0.2679227 0.019274607 0.30670425 0.07939895 -0.06378379 0.01610535 0.11274421 0.123329036

lstm.weight_hh_l0 f4 [40, 10]
00000000: 3bc5 e33c 3195 bd3d 87c6 7dbe 71bd a5be
00000010: dbb7 0dbe 9247 393e b3fa 8cbe 7704 ccbc
00000020: 7895 98be 0d0a a3be a0e9 113d 39e0 61be
00000030: 3e24 6dbe b0ee 59be 9523 083d db1a b53e
00000040: 7642 b13d e785 dbbd e40e 1d3e ddfc 45be
00000050: 950a 1ebe 1924 273d 8811 a4be 2b61 263e
00000060: 2c2a 973e cf68 e8bd f45c 58be 066a 913b
00000070: 37f6 2d3e 46e3 16bd e86e e33d 52d9 613e
00000080: 1869 9b3e 53e3 0b3e 8485 173e ffef 86bc
00000090: a54d 1d3e bd48 13be 6e6f 763e 95ca ac3e
000000a0: c99e f3bd 80ca b2be d85b 6d3e 35f2 3d3e
000000b0: 4773 72bd e211 2dbe d0ea a6be c452 ac3e
000000c0: 9a39 97be 0ffa 24be 2973 00be 1653 c03d
000000d0: 876d db3c 9da4 47be 60fe 993d 5b13 35be
000000e0: 0472 aa3e 6fde 863d 4549 1e3e 2fbf 5dbe
000000f0: ccf4 223d 4595 ad3c 4b1c c2bd a302 9b3c
00000100: f738 6c3e 41e9 1d3e 58b7 2dbe 66a3 27be
00000110: 4ff9 58be 183b 3cbe 9d6f 3c3e bc46 8b3e
00000120: 675d 10be 6f24 e1bd a2f1 5a3e f85b c3bd
00000130: 47e2 633e 63c5 273e 9270 9c3e 8440 1bbe
00000140: 7c7e bb3d 635d cb3d a3d1 0fbe 897d 8f3d
00000150: b61d 4ebe 83d3 9c3e 5e1f 693e db80 15be
00000160: 7e55 37bc 9b39 4fbe c7b2 a2be 2d77 583e
00000170: 4f4b 703e 4af9 dd3c 575f 0cbe 9501 1a3e
00000180: 28bc 3a3e 6b18 8fba 409c 9ebc 6629 9bbe
00000190: 6916 44be c9f7 7fbe 1cbe 2f3b a281 9cbe
000001a0: e54c 30be 5083 d23d 8d41 8d3e 0474 703e
000001b0: 86a5 57bd 6aec 323e 2943 3bbe e3e7 17bd
000001c0: abab 8c3e 4f70 933e 2342 b2bd 8586 4b3e
000001d0: ca36 243e 41d1 f03c 7ffa 0bbd b253 503d
000001e0: 4e9b ee3d 5520 b9bd 8e3f 513e e3cf 69be
000001f0: 5958 a33e 7bac 573d d150 893e b40c 8bbe
00000200: 8681 cfbd e2c9 423e 9bc1 743d 84fa 363e
00000210: 1e45 82be b839 f33d 5422 c3bd 544d ddbd
00000220: 40eb 203e 4a4d 70be 45b8 7b3d 12f9 45be
00000230: b600 883e 7c31 a1be c496 a3be 524c 73be
00000240: 5437 59be 07cf 293e 3487 663e 9e64 973e
00000250: a808 c4bd ddf1 cbbd 96f5 803e b213 39be
00000260: 7202 9cbe d251 463e fd60 69be e93b 853c
00000270: ffe9 94bd 065f eb3d 9add ea3d 8fc5 81be
00000280: bdb2 21be 60c7 bbbc dc88 55be 9985 68be
00000290: 4813 7cbe 1dd6 2d3e 8e0b 82bd 4280 98be
000002a0: fe22 46be 67a7 743e daf9 7d3e 5e3d 143d
000002b0: feed 52bd 6d34 4f3e ce3e aabd efe0 e03d
000002c0: bc91 edbc f73d 363d c7a6 953e 6bff 173e
000002d0: 7a97 8f3e 1819 a43e 7e73 37be bc0a 05be
000002e0: 45f6 9ebe 4288 073d 5f9c 8a3e 5831 2f3e
000002f0: 29c4 ecbd 57ee 10be ae84 3a3e ff42 ed3d
00000300: 1bb6 593e be58 97be be57 cbbd de9d 543d
00000310: 741e ddbd c4f8 a3be 3b93 813e b173 273b
00000320: 1818 45be 64e3 ae3c 922b 733e 69f4 993e
00000330: 3544 bc3d 4ab0 ad3c 1725 00be 8d46 d9bd
00000340: 6fd2 353e c569 82be 9915 1abe acce 843c
00000350: 8e02 72be c910 8cbd 3da5 afbd 01e1 3cbe
00000360: d501 a73d 2cda 63be fdf4 90be b7fa 38be
00000370: e93f 8b3e bdfa 70be 5666 ea3d 687e da3d
00000380: 4c3a 103e f502 1fbe 5589 cf3c 9d9c 3abe
00000390: 577e 36be 9bff 81be 88d4 38bc ba01 313c
000003a0: a0f3 7fbe c2b1 773d eef4 87bd 96d0 0c3e
000003b0: 85b6 78bb d937 abbb 34c8 99bc b74b a0be
000003c0: b7a9 7e3e 57d1 88be 956c 583e bfed 463e
000003d0: 09ac 1bbe 5fac a03e c360 7a3e 2b34 6fbe
000003e0: adf8 973d a718 20be 4bf2 7d3e f3d2 543c
000003f0: a4a9 d7bd cf85 14be 4bf6 843e 8f16 c53d
0.027804008 0.09256972 -0.24782763 -0.32371095 -0.13839667 0.18093708 -0.27535018 -0.024904473
-0.29801536 -0.31843606 0.035623193 -0.2205819 -0.23158357 -0.21282458 0.03323706 0.35372052
0.086552545 -0.10718899 0.15337712 -0.19334741 -0.15433724 0.04080591 -0.32044625 0.16248004
0.29524362 -0.11348116 -0.21129209 0.004437688 0.16988455 -0.03683784 0.11105138 0.22055557
0.30353618 0.13660936 0.14797026 -0.01647186 0.1536165 -0.14383216 0.24065945 0.33748308
-0.1189552 -0.3492012 0.23179567 0.18549426 -0.05919197 -0.16901353 -0.32601023 0.33656895
-0.29536134 -0.16111015 -0.1254393 0.093908474 0.026785625 -0.19496389 0.07519221 -0.17683165
0.33290112 0.065853946 0.15457638 -0.21654962 0.039784238 0.021189341 -0.09478053 0.018922156
0.23068605 0.1542101 -0.16964471 -0.16370925 -0.21188854 -0.18381917 0.18401952 0.27202404
-0.1409813 -0.10993277 0.21381238 -0.09539026 0.22254287 0.16383891 0.30554634 -0.1516133
0.09154984 0.099299215 -0.14044814 0.07006366 -0.20128521 0.3063012 0.22765872 -0.14599936
-0.0111898165 -0.20236818 -0.3177702 0.21139212 0.23466228 0.02709641 -0.13708244 0.15039666
0.18235838 -0.0010917311 -0.019361615 -0.30305022 -0.19149174 -0.24996866 0.0026816195 -0.30567652
-0.17216833 0.10278952 0.27589074 0.23481756 -0.05264809 0.17472997 -0.18287338 -0.03708638
0.27474722 0.28796622 -0.08704021 0.19875534 0.16036525 0.029396655 -0.03417444 0.050861068
0.11650716 -0.0903937 0.204344 -0.22833209 0.3190334 0.052654725 0.2681947 -0.2715813
-0.101321265 0.19022325 0.05975495 0.17869002 -0.25443357 0.11876243 -0.09528032 -0.10805765
0.15714741 -0.23466983 0.06145503 -0.19333294 0.26563042 -0.31483066 -0.31950963 -0.23759583
-0.21212512 0.16582881 0.22512513 0.29568952 -0.095719635 -0.09958241 0.25187367 -0.1807392
-0.30470616 0.1936715 -0.22790904 0.016263919 -0.07271194 0.11492734 0.114680484 -0.25346038
-0.1579084 -0.022922218 -0.20852989 -0.22707213 -0.2461673 0.16976209 -0.0634986 -0.29785353
-0.19349286 0.23891984 0.24802342 0.036191337 -0.0514965 0.20234843 -0.0831276 0.10980403
-0.029000156 0.044492688 0.29228804 0.14843528 0.28045255 0.32050395 -0.1791515 -0.12992376
-0.31047264 0.03308893 0.27072427 0.17108667 -0.11560852 -0.1415342 0.18214676 0.11585044
0.21260874 -0.29559892 -0.09928845 0.051908366 -0.10796824 -0.3202573 0.2530764 0.0025551135
-0.19247472 0.021348663 0.2374709 0.30069283 0.09192697 0.021202225 -0.12514149 -0.106091596
0.17756055 -0.2547132 -0.15047301 0.01621183 -0.23633787 -0.06839139 -0.085764386 -0.18445207
0.08154646 -0.22251195 -0.2831191 -0.1806439 0.27197197 -0.23533149 0.114453 0.10668641
0.14084738 -0.15528472 0.02533404 -0.18223806 -0.17821632 -0.25390324 -0.01128114 0.010803634
-0.2499528 0.060472257 -0.066385135 0.13751444 -0.0037950587 -0.0052251634 -0.018772222 -0.31307766
0.24869429 -0.26722214 0.21135171 0.1942663 -0.15202345 0.3138151 0.24450974 -0.23359744
0.07420478 -0.15634404 0.24799459 0.012989747 -0.10530403 -0.14504169 0.25969157 0.09623443

lstm.bias_ih_l0 f4 [40]
00000000: f588 663e 06c6 793e b682 23bd 2bff 2d3d
00000010: 4db5 4c3e 64a5 183e ae9a a7bd 8c35 7c3e
00000020: 9e63 d73d 0881 9b3e daba fdbd 5536 febb
00000030: e9bb 1fbe e005 8e3e 8f7b 8dba 9f69 ab3d
00000040: 8afc b93d b8c3 b1bc 64cb 56be 3c9d 293e
00000050: 3735 a1be 1b71 82be d75a c13d c6b0 29be
00000060: a876 2f3e 07fa 8fbe dfe1 2dbd 845e a1be
00000070: 7383 1dbe 846e 95be be4b 623e 9958 06be
00000080: 2076 b3bc 44b1 573e 0004 8a3e cbf9 fb3d
00000090: 27d3 633e c4f6 003e e6f7 473e 0d4d 413e
0.22513182 0.24391946 -0.039919578 0.042479675 0.19991036 0.14906842 -0.081838 0.24629802
0.10517047 0.3037188 -0.12389155 -0.0077579417 -0.15599026 0.27738857 -0.001079427 0.08369755
0.09081371 -0.021699771 -0.20976025 0.16563886 -0.31485912 -0.25476918 0.094411545 -0.1657134
0.17135108 -0.28120443 -0.042451736 -0.31517422 -0.15382175 -0.2918588 0.22099206 -0.13119735
-0.021906912 0.21063715 0.26956177 0.123035036 0.22248517 0.12594134 0.1952816 0.18877049

lstm.bias_hh_l0 f4 [40]
00000000: 7cbf 66bd e05e d1bd f10d 6a3e 5ce4 88be
00000010: 6df1 a23e bcc4 8bbe 8739 d13c 7cb2 363d
00000020: ac66 8b3e 471c 703d a778 043e 7991 1abe
00000030: b273 81bd 31c1 7f3d 8312 87bd 33ca c0bc
00000040: 9704 85be 9daf fe3d 0103 8abe 8c50 773e
00000050: 2d82 80be 77e4 303e 380d 93be cd25 3f3c
00000060: 1e2d 563e 8b7f 5e3d 140d 75be 3f1e 8abb
00000070: 4f65 73be a247 26bd 4f1e 8f3e dada c4bc
00000080: 2456 0cbe 770c 24bd 43fc 643e 2440 683e
00000090: bd75 9e3e cad2 69be 3a66 1ebe 6caf 9bbd
-0.056334957 -0.10223174 0.2285688 -0.26736724 0.31824818 -0.27298534 0.025540126 0.04460381
0.2722677 0.058620717 0.1293665 -0.15094556 -0.06320895 0.0624401 -0.06595328 -0.023533916
-0.25980064 0.12435839 -0.26955417 0.2415182 -0.25099316 0.17274652 -0.28721023 0.011666727
0.20915648 0.054320853 -0.2393077 -0.0042150314 -0.23769115 -0.040595658 0.2795281 -0.024030138
-0.13704735 -0.04005095 0.22361855 0.22680718 0.30949202 -0.22834316 -0.15468684 -0.076018184

lstm.weight_ih_l1 f4 [40, 10]
00000000: 1f01 b63d cc5f a5bd 1ebc a53e 90f4 7abe
00000010: 14db a2bd e83f 903e 8b6f 8a3e 8db7 49be
00000020: 9d38 0d3e c386 c13c 7b60 9e3e 4a3b ffbd
00000030: 300a 3d3e 02e6 7d3e a6a0 34bc e84c 3e3e
00000040: 11ab 823e 68a3 66be 4acf edbd 7ae3 8d3e
00000050: 2999 cc3d 8126 21be c769 033e e903 46be
00000060: 3311 683c 6c89 f6bd dbb0 143e 236e babd
00000070: 410c bdbd 64be 963e 4b66 0fbc 3cde 903d
00000080: 199c 14bc 36e5 4f3e 48d0 3ebe c44c 16be
00000090: a7a3 8f3e ef07 053e 4d2e 18be 4c68 4ebc
000000a0: 96c7 31be 4e40 de3c e674 3c3d a3ad 2c3e
000000b0: fdfc 7ebe 9f9c 0e3c a570 14bc 72f8 2c3e
000000c0: 096c 7ebe 42cb 47be 43bc 6a3e c5fc c7bb
000000d0: ba0f 1b3d 4b2e af3d 6432 a0be 6ed1 56be
000000e0: 30b2 243e 16d1 953e 4985 ffbd 2496 b63e
000000f0: 4f98 27be d5be 22be 9f48 01be edc8 3b3e
00000100: 9147 0dbe bb33 1cbe 2e71 983e 5177 72be
00000110: f016 563e de41 ab3e c63b 87bd 5443 873d
00000120: 937b 873e 6be0 f6bd 6d4d 37be 5008 883d
00000130: a151 913e 0ba0 103e 4475 913e 20fb 713e
00000140: 2b85 b53e 7135 b3be 1813 923e 4ccd 743e
00000150: 10c3 583c 8672 10bd ba56 b63d 7ee3 11bc
00000160: ee89 2a3e 83f0 813e fc96 733e c47f 99be
00000170: 0d10 4dbe 6759 38bc 5eb2 76be d4f2 cb3b
00000180: b95e 0d3d c08e f23d 6e14 cb3d e97d 5dbd
00000190: 1d76 b13e cc95 e7bd b4d6 633d b178 4d3e
000001a0: d7d9 213d 8e82 463e ede7 eabd 7d6a efbb
000001b0: 2c06 833e b787 163e 922f 8bbe 60ff ae3d
000001c0: ca0c 28be fb61 b7bd dd9c b5be 5cf1 933e
000001d0: 9ccd 3ebe 0d49 913e 8cee 45be f687 e43c
000001e0: 4bbf c8bc a9aa b7bd a89a 873e 0d1d 343e
000001f0: 1a68 b1bd 96cb dfbd cc59 8f3e db5b e3bc
00000200: ccb6 c9bd a4d1 523e e2dd 823e 3d7a 78be
00000210: 8226 393d 396b 28bd 9b75 df3d 95f5 8f3e
00000220: 4bff 00be 9d9a 073e ff1d 52be dc21 cd3d
00000230: ac3e bc3d 7b3a 85be 87cf 43bd 0469 c73d
00000240: 67ac b63d 3e9f 913d 6d19 1fbe 758f 8d3e
00000250: a59f 573e b926 97bd bc32 163e 4727 2e3c
00000260: 2b0e aa3e 4d38 a53d 85f0 52be 0606 83be
00000270: e324 53bd 4f46 1cbe 81e9 ec3d 6011 d93d
00000280: 34b1 893e 19c8 ff3b 2701 82be b6c6 a43e
00000290: a07b 703e 4074 62bd 6fa9 b23c c3de 6abe
000002a0: cdb6 9cbe a7e7 453e 8d02 16bc bde4 8e3e
000002b0: e413 d33d ebd3 213e 1c11 6bbd 055d 1f3e
000002c0: 66e8 6b3d 523f 8abe 9ff4 c33d b375 87bd
000002d0: 7a4d 6f3e 9395 87be e625 60be 8fe4 fcbd
000002e0: 944b 253e 3b20 043e d854 7cbd bec5 a5bd
000002f0: 35d0 15be 5123 78be c388 2c3d 3748 753e
00000300: c1d1 943e 8630 f73d 0af5 1abe 9c48 86be
00000310: 5d6b 723e 3506 7cbe a36b 4f3e cf68 953e
00000320: ed4b 003c bdca 22bd e0eb 9ebd e1b4 85bd
00000330: 74b7 313e 21df e3bd 7264 b63e 7323 5bbd
00000340: 69e3 a8bd 350e b93e 0650 873d 0acd 05be
00000350: 93c6 a63e 5baf 23bd 4a66 27be c8f1 7ebd
00000360: 5818 a73e 32dd 0f3e acc8 95be c7d4 123c
00000370: ae41 d8bd 8f35 6f3e 9fde 333e 13d0 0abe
00000380: aad2 013e 4ca3 663e d41e 163d 7b09 72bd
00000390: f7cd 03bd bb10 193d 0334 67bd d3b9 9cbe
000003a0: 171a 22bd 959c 49be d5c7 6c3e 6132 d23c
000003b0: fadb 4abe b93e 863e 63cf cc3d 6de3 1abe
000003c0: 84e6 273d db1c e3bd 0959 b6be 468b 553d
000003d0: a53a 04be 4450 77be 55ab 843e 6f6a 73be
000003e0: 6da9 853d e027 88bd 6770 9abe ecf7 8a3e
000003f0: d921 48be fe19 093e 3c0d 863e d426 af3d
0.088869326 -0.080749124 0.32370085 -0.24507356 -0.07951942 0.28173757 0.27038226 -0.19698925
0.13791128 0.02362383 0.30932984 -0.1246248 0.18460917 0.24794772 -0.01102463 0.18584025
0.25521138 -0.22523272 -0.11611803 0.27712613 0.099901505 -0.15737344 0.1283332 -0.19337429
0.014164257 -0.1203793 0.1452059 -0.09103038 -0.09230853 0.29442132 -0.008752416 0.07073638
-0.00907042 0.20302281 -0.1863414 -0.14677721 0.28054544 0.12991308 -0.14861412 -0.0125981085
-0.17361292 0.027130272 0.04600992 0.16863112 -0.24901195 0.008704334 -0.00906006 0.1689165
-0.248459 -0.1951113 0.22923379 -0.0061031305 0.037856795 0.085537516 -0.31288445 -0.20978329
0.16083598 0.29261082 -0.12476594 0.35661423 -0.16366695 -0.15893109 -0.12625359 0.18338366
-0.13796832 -0.15254109 0.2977385 -0.23678328 0.20907187 0.3344869 -0.06603198 0.06604639
0.26461467 -0.12054523 -0.1790063 0.066422105 0.2838259 0.14123552 0.2840978 0.23630953
0.35453162 -0.3500171 0.28530192 0.2390644 0.0132301 -0.035265468 0.089032605 -0.008904336
0.16654179 0.25378808 0.23788065 -0.2998029 -0.20025654 -0.011251784 -0.24091479 0.0062240157
0.034514163 0.11843634 0.09916006 -0.054075155 0.34660426 -0.11307868 0.05562468 0.20065571
0.03951439 0.1938574 -0.114700176 -0.0073063956 0.25590646 0.14700209 -0.2718473 0.08544803
-0.16411129 -0.08954235 -0.3547124 0.2889508 -0.18633121 0.28376046 -0.1932928 0.027896862
-0.024505278 -0.08968098 0.2648518 0.17589207 -0.08662434 -0.10927503 0.27998197 -0.027753761
-0.09849319 0.20587784 0.25559908 -0.2426538 0.04520274 -0.04111788 0.10911103 0.28117052
-0.12597387 0.13242574 -0.20519255 0.10016224 0.09191641 -0.2602118 -0.047805335 0.09736827
0.08919602 0.07110451 -0.15537043 0.27648512 0.21056993 -0.07380433 0.14667791 0.010629482
0.33213934 0.08067379 -0.20599563 -0.25590533 -0.05154885 -0.15261196 0.11567975 0.10599017
0.26893008 0.007805836 -0.25391504 0.32182854 0.23484659 -0.055286646 0.021809308 -0.2293654
-0.30608216 0.1932665 -0.009155882 0.27908888 0.10306528 0.15803497 -0.057389364 0.15562828
0.05759468 -0.27001435 0.09568142 -0.06614246 0.23369399 -0.26481304 -0.21889457 -0.123482816
0.16142112 0.1290292 -0.06160435 -0.08094357 -0.14630206 -0.24232222 0.042122614 0.23953329
0.2906628 0.12069802 -0.15132537 -0.26227272 0.23673768 -0.24611743 0.20255904 0.29181525
0.007830602 -0.039744128 -0.07759833 -0.065286405 0.17355138 -0.11126543 0.3562351 -0.053500604
-0.082465 0.36143652 0.0660706 -0.13066497 0.32573375 -0.039962154 -0.16347614 -0.0622423
0.3263576 0.14049223 -0.29254663 0.008961863 -0.105594024 0.23360275 0.17565392 -0.13555937
0.12678018 0.2252323 0.036650494 -0.059091073 -0.032178845 0.03736947 -0.056446087 -0.30610523
-0.039575662 -0.19688638 0.23123105 0.025658788 -0.19810477 0.2621973 0.100004934 -0.15125819
0.04099132 -0.11089488 -0.35614803 0.052134775 -0.12912996 -0.24151713 0.25911966 -0.2377107
0.06526456 -0.066482306 -0.3016388 0.27142274 -0.19544162 0.13388821 0.26181972 0.08552328

lstm.weight_hh_l1 f4 [40, 10]
00000000: 2141 75bd 00d2 98bc ea61 6b3e 2100 6a3e
00000010: 5eeb ba3e 904b 443e 70c3 c03d b0a3 2bbe
00000020: d328 363c 28cf c53d 1dfe 79be 3f31 dfbd
00000030: 9071 8dbd 2f21 28bd c30b a23e 48cf d9bd
00000040: 0265 9dbd 4d04 0c3d 5563 a9be 26d9 a3be
00000050: b4bb 1a3e 130c 653e 5ecc 87be a611 8cbe
00000060: c442 3ebd 8e98 183e 59ce 6bbe 63f8 8abe
00000070: eeea 46bd 4417 bdbd 9e52 103e 8a7a d0bd
00000080: 7254 5dbd 8673 13bd 4180 efbd 64b3 62be
00000090: c714 e5bd 3859 dbbd 8721 aa3e 668e a53e
000000a0: 01e7 37be 79ad b6bd 3f3f 35be 7120 93be
000000b0: 09ce 583e 5d77 80be 025c 8abd 5bc8 643e
000000c0: d16e 4fbd 8695 7e3e 505e 25bd ca46 7b3e
000000d0: 2541 933d 4e44 283c aee4 ddbd a122 8ebe
000000e0: 0ec2 623e 13fa 2c3e 3e74 1c3e 1cbf 403d
000000f0: 1daa a3be 1188 a5bd 0280 883e 8f29 a5bd
00000100: 75be 8fbe 34a1 1bbe ddf6 0cbc dd87 5a3d
00000110: 3f75 b33d 628a 24be 8d5f 81bd e613 08be
00000120: d44a 3bbe ad1a 613d 09af 2ebe 39b0 11bd
00000130: 2777 7f3e aeb7 8dbd 79e2 fd3d 358b 213e
00000140: da57 773e 8b23 38be 7163 e5bd e6bd 87be
00000150: 2e4e 6abe 135a 473e d2bd fb3d bfb4 453e
00000160: 359d 273e 136c c33d a841 533d b27a 4ebb
00000170: 3a16 bf3a fc82 24bd 10b7 973e 420d b43d
00000180: 49a7 cfbd 5967 9ebe dac3 d63b 82eb 07be
00000190: f3b7 993d 832c 7a3e 39db 8dbe ad43 4cbe
000001a0: a8d5 1b3e 0d8d 203e a22e 553e 8d8a 933d
000001b0: 6ede 4d3e fffb 81be a7dc 8f3e f4a4 78be
000001c0: 406a 93bc a67a cb3d f68d 9bbd da4a 19be
000001d0: 9a2b 1ebe fbc8 2cbe 2e2b 52be 28e7 08be
000001e0: bce9 513e bf24 8e3e 1135 8b3e 2b7f f0bd
000001f0: 791e d03d 207c 093d 77b7 cdbd c530 8d3d
00000200: 9ce6 873e 192b 0cbe 3143 5f3e 69b1 a2be
00000210: 82e3 6dbe f595 c0bd bc7a 4f3e 15e0 013e
00000220: 9a32 88be 71d9 4dbe 2b9e 77bd 8859 8d3e
00000230: 0757 83be ce45 34be 8532 1bbe b184 87be
00000240: edf4 54be 153a 843d 6ef7 183e 6ef7 0b3e
00000250: 68f2 4abe b48d 733e a4f8 663d e2af 633e
00000260: 8142 013e 9c79 97be 2225 873d 3592 e6bd
00000270: 922f aabd 68c0 ea3d 7077 153d c4ce 0c3e
00000280: 4734 27be bd1b 6dbd cae1 2bbd b331 533d
00000290: 70e3 6dbe f44a 0dbe 629e 783e 0e45 9fbd
000002a0: 3265 e13d 84b5 03be 61a1 0d3e 1440 d03b
000002b0: 75bc 37bd 2dbd ea3d 1174 ff3d b7b1 583e
000002c0: 53d5 063d cdbb d63c f01d 5ebe 3d82 093e
000002d0: 63ad 4a3e d5b2 33be 875f 85be 1980 913e
000002e0: 6bb4 1b3d 64a8 94be e78a 1bbe 19b8 3bbe
000002f0: 6875 97bd 98d1 5cbe c44d b4be f8b3 30be
00000300: 206f 8ebe 929b 133e b1f8 8f3e 29ae c6bd
00000310: 04b6 46be 76fe 76be ed42 1f3e bd8e f03d
00000320: 6e83 2cbe 0ef2 613d a125 68be d476 ba3c
00000330: 292a b43e 663f 5fbd 63eb 9c3e 023f 86be
00000340: 952d c33c e06e 003e 5e74 8bbd 243c 25be
00000350: 58c1 89be a381 71bd 9606 d63c bc0f 093c
00000360: 04e6 0a3e ece5 803e 77c9 b4be 8a08 7bbe
00000370: 0ae7 56be 3d63 0bbe 4966 113e c6c1 a43e
00000380: 27aa c2bd 0937 9a3d f501 29be 4711 983d
00000390: 6fcf 123e b62e ed3c 5eec 573e aec3 86be
000003a0: e2a2 7a3e b827 a5be 84ae 81be 28c3 903e
000003b0: a584 9b3e e299 a53e ff88 e93d 6c9c 7a3e
000003c0: 083b 9f3e f3c5 e93d 18c1 1fbe 94c7 c2bd
000003d0: 41bc 95be d183 b43d 513b 0a3c 61a0 843e
000003e0: 9adb b53d ca4d 59be c83f 78be 6a3a 033c
000003f0: 406b b1bd cb91 d73d 172a 4c3e 7dc1 b0be
-0.059876565 -0.018654823 0.2298657 0.22851612 0.36507696 0.1916945 0.09412277 -0.1676166
0.011118132 0.096586525 -0.24413343 -0.10898065 -0.06906426 -0.04104727 0.31649598 -0.10635239
-0.07685281 0.03418379 -0.33083597 -0.3200161 0.15110666 0.22367887 -0.26523107 -0.27357215
-0.04645039 0.14901945 -0.23027934 -0.2714263 -0.04856389 -0.09232953 0.14094016 -0.101796225
-0.05403561 -0.035998844 -0.11694384 -0.22138745 -0.111856036 -0.107103765 0.33228704 0.32335204
-0.17959215 -0.08919806 -0.17699908 -0.28735688 0.21172346 -0.25091067 -0.0675583 0.22342055
-0.050642792 0.24861726 -0.040373147 0.24538723 0.0719016 0.010270191 -0.10834633 -0.27760795
0.22144338 0.1689227 0.15278718 0.047057256 -0.31965724 -0.08082593 0.26660162 -0.08064567
-0.28074995 -0.15198213 -0.008603779 0.053352226 0.08762597 -0.16068414 -0.06317053 -0.1328884
-0.18290263 0.05495708 -0.17058958 -0.03556845 0.24947797 -0.069198 0.12396712 0.1577576
0.24154606 -0.17982309 -0.112006076 -0.2651207 -0.22881386 0.19467954 0.12292065 0.1930723
0.16368563 0.09542098 0.051576287 -0.0031506238 0.0014578768 -0.04016398 0.29631853 0.08791591
-0.10139329 -0.30938223 0.006554109 -0.13273433 0.07505789 0.24431042 -0.27706316 -0.19947691
0.15218222 0.15678807 0.2081857 0.07204161 0.20104381 -0.2538757 0.28098032 -0.24281675
-0.017995 0.09935503 -0.07595436 -0.1496996 -0.1544632 -0.16873543 -0.20524284 -0.13369429
0.20499319 0.2776241 0.27188924 -0.11743005 0.10162062 0.03356564 -0.10044759 0.06894068
0.26543128 -0.13688315 0.21802975 -0.31775978 -0.23231319 -0.09403602 0.20261663 0.12683137
-0.26601106 -0.20102479 -0.060453575 0.2760737 -0.25652334 -0.17604753 -0.1515599 -0.26468423
-0.20796557 0.06456391 0.14938137 0.13668606 -0.19819033 0.23784524 0.056389466 0.22235063
0.12623025 -0.29584968 0.065988794 -0.112583555 -0.083098546 0.1146248 0.036490858 0.1375075
-0.16328536 -0.05788778 -0.041963376 0.05156107 -0.23231292 -0.13798124 0.24279168 -0.07776843
0.110056296 -0.12862211 0.13831092 0.006355295 -0.04485746 0.11461864 0.1247331 0.21161543
0.032918286 0.026212597 -0.21691108 0.13428588 0.19792704 -0.17548688 -0.26049444 0.28418043
0.038013857 -0.29034722 -0.15189706 -0.18331946 -0.0739544 -0.21564329 -0.3521558 -0.17256153
-0.27819157 0.14414814 0.28119424 -0.09701187 -0.19405371 -0.24120507 0.15552874 0.11745975
-0.16847011 0.055162482 -0.22670604 0.02276174 0.35188416 -0.05450382 0.30648336 -0.26219946
0.023825446 0.12542295 -0.06809305 -0.16136223 -0.26905322 -0.05896152 0.026126187 0.008365568
0.13564306 0.25175416 -0.35309955 -0.24514976 -0.20986572 -0.13612075 0.14199175 0.32179087
-0.0950511 0.075300284 -0.16504653 0.074251704 0.14336942 0.028952938 0.2108626 -0.26321167
0.24476197 -0.32256866 -0.25328457 0.28273892 0.30374637 0.32343966 0.11403083 0.24473733
0.31099725 0.11414709 -0.15601003 -0.09510723 -0.2924519 0.088142045 0.008436994 0.2590361
0.08879776 -0.2122108 -0.2424308 0.0080095325 -0.086630344 0.10525855 0.19937931 -0.3452262

lstm.bias_ih_l1 f4 [40]
00000000: 9b70 e43d 4d54 88bd 2176 893e 4f11 08bd
00000010: f3ff 873d 2f61 4bbe 157d 403d ba20 1a3d
00000020: 5af2 fabd 66b1 fdbd 00bc 22be 09a6 63be
00000030: 114c c13d 79f1 423e 835e 353d 02da e33c
00000040: 967b 973d 4a3e afbe 636d 203e 914f 313e
00000050: 0123 43bd 52ef 77bd dc7e 5e3e 3eff 20be
00000060: 79fd 30be 556c debd 9252 033e 0fff 8b3e
00000070: 61f7 113d 9e7e 1abe 5e46 74bd bc31 17bd
00000080: 61cd 1b3e c6ec 773e fd75 24be 9565 edbc
00000090: 42a2 7dbe ea55 81be e334 6cbd e2c7 fcbd
0.1115429 -0.06656704 0.26847938 -0.03321963 0.06640615 -0.19861291 0.046994288 0.037628867
-0.12253256 -0.12387352 -0.15892029 -0.22231306 0.09438337 0.19037427 0.044279587 0.027813915
0.07396619 -0.3422721 0.15666728 0.17315508 -0.047640804 -0.060530968 0.2172808 -0.15722367
-0.17284192 -0.108605064 0.12824467 0.27343032 0.03563631 -0.15087363 -0.05963742 -0.036912665
0.15215065 0.24211416 -0.16060634 -0.028979102 -0.24768928 -0.2526086 -0.057667624 -0.12342812

lstm.bias_hh_l1 f4 [40]
00000000: 6768 e1bd 3cb3 53bd d28c 983e ad70 8abd
00000010: 1970 7b3e 4d8e 3abe abca 1e3e 7c4e 763e
00000020: 13cc 973d 768f a9be 02ed b1be dbfd 4b3e
00000030: 41a3 5dbe 1f3a ba3d 659a b83c a688 84bd
00000040: b5d9 87be 4cdc 863e ef52 8cbe c105 d9bd
00000050: 1641 553e e4bc 4e3e b2a1 5fbe 6dd6 633d
00000060: c322 80be 2f91 7ebe 8fbc 80bd f76d 50be
00000070: 465e 2b3d 4bde da3d 806e c33d 79d8 7c3e
00000080: bd7c 71be b19e e8bc 1f41 b6be 6b46 993c
00000090: 3678 2bbe 715c 28be 75fb 46bd 8e65 6ebd
-0.11006241 -0.051684603 0.29794937 -0.067597724 0.2455448 -0.18218346 0.15506999 0.24053377
0.07411971 -0.33117265 -0.34751135 0.19921057 -0.21644308 0.09093117 0.022534559 -0.06471376
-0.26533285 0.26339948 -0.27407023 -0.105968006 0.2082561 0.20189244 -0.21839026 0.055624414
-0.2502652 -0.2486007 -0.06285965 -0.20354448 0.041837953 0.1068693 0.095425606 0.24691953
-0.2358274 -0.028395982 -0.35596558 0.018710336 -0.16745076 -0.16441514 -0.04857965 -0.05820232

fc.weight f4 [1, 7200]
00000000: 0444 e53a 204d 653c 5f15 f83b ed0b 95bb
00000010: 9744 2aba ef59 4fbc 8b64 373c e5e0 f7bb
00000020: 32ed a23c 7d70 14bd 06e8 8fba 184e e5bb
00000030: 1b7c e13c 8411 4dbb f990 8a3b ca38 903b
00000040: 5ba4 063c c416 81bb 0cd2 7c3c b3b2 50bc
00000050: fbe2 5bbc 9c82 fd39 1927 ca3c e7a2 9bbb
00000060: 8d97 0fbb f085 493a ed6c 0c3c 0b47 39bb
00000070: f263 823c 2e8b 18bc 8c53 953b 3cab 033c
00000080: a7d8 c83b 5c4c f53b 958f 84bc f4a6 dabb
00000090: 3a35 a73b 9ce2 983a 7c00 263c 3a89 fcbb
000000a0: e0a7 0cbc 8688 32bc d96d fc3b b7a0 133c
000000b0: 999b 3fbc 1ff6 40bc dec7 db3a 0721 cfba
000000c0: 54fc ca3c 7535 70bc 8908 1e3c 7da6 45bc
000000d0: 8f80 da3c a6db 01bc e256 8a3b b890 c93b
000000e0: 6d60 b2bb 7c1b 8c3b 4edb 863c ac06 46bb
000000f0: 6b1d 78bb 7c5d 2bbc 3ef0 993c 83a9 9bbc
00000100: 92e9 97bb 2097 083b c101 fbbb 45ab 10bc
00000110: 2ddc b43b fb6e 27bc 9ab3 c73b 91d9 dfbb
00000120: d155 8c3b 2b18 dabc c696 49bc bac7 62bc
00000130: 5731 393c 2b1b a0bb ed47 6639 b3f3 cbbb
00000140: 5b7d 013b bf55 24bb eec2 233c 6724 0ebc
00000150: 0016 d03a 31db ac3b 6b73 0fbc 5dc4 a43b
00000160: 5130 40bb 6f88 6bbb 96e6 01bc db9a de3b
00000170: ccd6 a439 2448 cdbb 1399 70bc ef07 d1bb
00000180: 802c 06bc 9340 94bc 045e 2d3c 4725 63bc
00000190: 87bf 97bb 5d75 81bc 2313 aa3c b44e 363c
000001a0: 9907 08bb 5d64 60bc 0edf 3dbb c9af 16bc
000001b0: 8a83 9abb 925e 5abc 9816 123b e769 1ebc
000001c0: c5e1 b73c 23da 8d3b af86 a3bb 48fe ec3b
000001d0: cf92 513b a560 52bc 90d5 1cbc fe30 a03a
000001e0: ebda b7bb b721 2dbb 34df 0e3c 3e80 743c
000001f0: 4a47 e7bb 4bd6 f3bb cd87 8bbc 2a9a 65bb
00000200: 0fe3 f9bb bbd8 2abb f870 94bb 1e69 83bb
00000210: c43b 613c 1fa0 8fba 50e9 5dbc 71b4 213b
00000220: d58a 5cbc ce27 45bc 10ac 11ba 4db3 a63a
00000230: 92b7 38bc 52a4 05bc 6375 6a3a 90ca 433c
00000240: 9d57 18bc e97e e2bb bee0 4dbc 3dbc 483b
00000250: a351 7f3a 1e3a 9ebc 19e2 9abb 379e 853b
00000260: b449 47bb ee33 833c e525 47bc 9338 963a
00000270: e3ea 2fbc f568 51bb e064 1f3c 3648 fabb
00000280: a1e1 21bc d549 613b 5ec0 b6bb fd63 753b
00000290: c6c3 0bbc 44c8 23bc ee55 1e3c 0e51 d3bb
000002a0: 1530 2abc ad3d 96bb 0e78 d23b 77a5 64bc
000002b0: 028a 20bc 0084 d2bb 3a7f 873a 548b 93ba
000002c0: 4b88 993c 7e62 6ebc b97b 063b c6e5 89bc
000002d0: fbfd 8dbc 4818 2abc 8c81 4abb be27 9239
000002e0: 9996 ed3b aaf7 81bb 2ef8 2d3c 5fba acbc
000002f0: 5a47 d5ba d335 52bc 7e1d 36bc cffc e33b
00000300: 5472 81bc 1dd2 8aba c3d6 2abc 7219 1ebc
00000310: 9993 933c 2bd3 11bc d0b7 d2ba 8238 a2bc
00000320: 06e5 ffbb 11b8 853a 775a 21bc 49c5 053c
00000330: 8af9 923b dd37 d93b c303 babb 12f5 f3bb
00000340: 0313 603b 0197 3dbc 9452 28bc 967a 313b
00000350: bd32 d1ba cd6f 0bbc e5b8 f2bb 7c67 19bc
00000360: 664a 843c 381f 22bc bc08 3cbb a105 07bc
00000370: 4eff 8538 2bdc 033c 054e eaba b7fc 00bb
00000380: c027 ab3b e172 1cbb fe10 7bbb 096e 8ebc
00000390: fe2d 863c b130 f4bb 4ebd 6ebb 2046 56bb
000003a0: 4444 f9bb ffa6 2dbc 2de6 c4ba f7b6 4b3a
000003b0: b858 b23b 07e8 35bc a9d9 37ba 6f15 3aba
000003c0: 62a1 90bb 31d7 fdbb 79ca 7bbc 5054 e138
000003d0: 1a49 b23b 4d7f 0ebb 4412 1d3c 1a36 3fbc
000003e0: 181c b6b9 7b5f 0dbc 2608 183c b1bb c4bb
000003f0: b098 41b9 92a4 023a 2f41 953b 76dc b6bb
0.0017491584 0.013995439 0.007570907 -0.004548541 -0.0006495206 -0.012655719 0.011193405 -0.0075646513
0.019888494 -0.03624009 -0.0010979183 -0.006997835 0.027524998 -0.0031290958 0.004228708 0.004401301
0.008217896 -0.0039394815 0.015430938 -0.012737918 -0.013420816 0.00048353232 0.024676846 -0.004749644
-0.00219104 0.00076875 0.008570892 -0.0028271105 0.015916798 -0.009310527 0.0045570787 0.008036431
0.0061293426 0.0074859094 -0.016181746 -0.0066727344 0.0051027806 0.0011664215 0.010131951 -0.0077067884
-0.008584946 -0.010896808 0.0077035245 0.009010485 -0.011694812 -0.01177743 0.0016767939 -0.001580269
0.024778523 -0.014661183 0.00964559 -0.01206362 0.02667263 -0.007925903 0.004221783 0.006151285
-0.0054436238 0.0042757373 0.016461994 -0.003021638 -0.0037859331 -0.0104593 0.018791314 -0.019001728
-0.004635998 0.002084203 -0.007660121 -0.008829896 0.005519411 -0.010219331 0.006094408 -0.006831356
0.004282691 -0.026622852 -0.012304014 -0.013841564 0.011303267 -0.004886051 0.00021961304 -0.0062241196
0.0019758556 -0.0025075523 0.009995205 -0.008675671 0.0015875697 0.005275153 -0.008755545 0.005028291
-0.0029325674 -0.0035939475 -0.007928511 0.0067933626 0.00031440554 -0.0062647033 -0.014684933 -0.0063791196
-0.008189321 -0.018097198 0.010581497 -0.013863868 -0.004630986 -0.015803033 0.020761078 0.011127163
-0.0020756482 -0.0136958035 -0.0028972062 -0.009197184 -0.0047153877 -0.013328211 0.00222913 -0.009668804
0.022446522 0.0043289824 -0.004990421 0.007232461 0.0031978374 -0.012840425 -0.009572402 0.0012221632
-0.005610814 -0.00264178 0.008720208 0.014923153 -0.007058059 -0.007441317 -0.017032528 -0.0035034516
-0.0076259444 -0.0026069123 -0.0045300685 -0.0040103337 0.013747159 -0.0010957754 -0.013544396 0.0024674202
-0.0134608345 -0.012033416 -0.00055569503 0.0012718231 -0.011274235 -0.008156853 0.00089438836 0.01195015
-0.009298232 -0.0069121015 -0.01256579 0.0030629777 0.0009739643 -0.019314822 -0.00472666 0.0040776986
-0.003040892 0.016015973 -0.012155031 0.0011460952 -0.010737154 -0.0031953428 0.00972864 -0.0076380027
-0.009880454 0.0034376283 -0.005577131 0.003744363 -0.008530563 -0.0099964775 0.009664042 -0.0064488715
-0.01038744 -0.004584989 0.006423003 -0.0139554655 -0.009798529 -0.006424427 0.0010337599 -0.0011256733
0.018741747 -0.01454985 0.0020520522 -0.016833197 -0.017333021 -0.010381766 -0.003089997 0.000278769
0.0072506187 -0.0039662914 0.010618253 -0.021084962 -0.0016271875 -0.0128302155 -0.01111543 0.0069576274
-0.015801586 -0.0010591183 -0.01042718 -0.009649621 0.018014716 -0.008900444 -0.0016076509 -0.019802336
-0.007809284 0.0010201951 -0.009848229 0.008164712 0.004485314 0.006628974 -0.005676718 -0.007444986
0.003419102 -0.011571647 -0.010273594 0.0027081124 -0.0015960556 -0.008510542 -0.007407295 -0.0093630515
0.016148757 -0.009895138 -0.002869173 -0.008241088 6.3894884e-05 0.008048098 -0.0017876035 -0.001968188
0.0052232444 -0.0023872184 -0.0038309689 -0.017386453 0.016379353 -0.0074520935 -0.0036428752 -0.0032695606
-0.007607015 -0.010598897 -0.0015022211 0.00077710993 0.005442705 -0.011102683 -0.000701333 -0.0007098531
-0.0044137696 -0.0077466 -0.015368097 0.000107445405 0.0054408433 -0.0021743358 0.009586874 -0.011670614
-0.00034734677 -0.008628721 0.0092792865 -0.00600382 -0.00018462795 0.00049836293 0.0045548896 -0.00558048

exp_avg f4 [40, 50]
00000000: 337f 68ba 7162 5034 fe39 3535 aaf4 ca33
00000010: 147a 9db4 7d10 81b6 ad26 d4b7 d6f2 0838
00000020: f843 a738 be28 da38 29d5 72b9 e601 66ba
00000030: 4652 76ba aac2 13b9 7202 84b9 f4b4 96b9
00000040: 1297 9fb9 1402 c7b9 07b1 9fb9 6d46 49b9
00000050: 0e18 f4b8 846f 19b9 5a09 f1b8 dc4b 76b8
00000060: e593 8db8 62a9 b7b8 0d23 a9b8 96e2 a8b8
00000070: 6faf 80b8 505d 69b8 8efd 56b8 8750 01b8
00000080: 9dd6 2cb8 639e 27b8 24f1 23b8 63ea 5eb8
00000090: c09c 3eb8 e024 b8b8 9fe0 99b8 a506 c4b8
000000a0: edbd 05b9 48c9 a9b8 12a2 c4b8 05a0 0bb9
000000b0: b789 9aba 24b0 a4b9 782c f1b9 3ada 9738
000000c0: f3e9 9437 9413 1c36 c55d 5db9 4513 0634
000000d0: a833 f833 ecaa 8f33 f5ea 51b4 a981 03b6
000000e0: f773 f235 ac84 20b6 7a0e 2ab7 b1bd 8338
000000f0: 5a1b b436 4858 ffb9 4ee6 c1b8 1cac 99b8
00000100: 7adb ed37 2609 68b8 6c6d 6036 bd05 b0b8
00000110: 13de 12b9 f0d5 54b9 2048 c1b8 1818 0ab8
00000120: 60c8 82b8 6bed 48b8 4cea 61b7 fe59 b8b6
00000130: 76c8 08b8 3c75 10b8 4008 e836 d119 8db7
00000140: 0856 7fb6 a68b 5636 fae5 8936 74cc b636
00000150: b2f6 a0b7 a6ee 34b8 c7a4 51b8 228c 0cb7
00000160: 5442 7337 2ca9 bc37 d620 a6b8 3b43 10b8
00000170: 642b beb6 885e bf35 7f1b b9b9 cc6a aeb8
00000180: 5482 9bb8 7750 bcb7 54b4 2837 49dc 92b5
00000190: 7b71 a7ba b87e e533 5c68 4a35 1263 0632
000001a0: ed54 e1b4 2282 5ab6 1b90 6b36 cefc cf37
000001b0: 01ae c0b6 1306 4339 8698 2fb9 cf84 e2ba
000001c0: 6d87 92ba c4b0 27b9 62fd e0b9 3d60 ccb9
000001d0: 7d66 ddb9 9ce5 f0b9 1b55 0dba 66f2 d5b9
000001e0: 55d3 2eb9 5b9a 87b8 f3d8 41b9 e23c 64b9
000001f0: 5e3c 4bb8 e291 4cb9 0761 66b9 bb10 80b9
00000200: f97f 09b8 6a8a 45b9 ab98 8037 392f 0fb8
00000210: e6b7 49b9 ef5f 13b9 68f7 1eb9 7e7b cdb8
00000220: 735d 1bb9 0e2e ecb8 f361 94b8 f78d 05b9
00000230: cc56 c3b8 d185 30b7 be4f 68b8 2dc3 d9b7
00000240: e278 e6ba 2c75 9bb9 0434 49ba 1f54 3bb4
00000250: 2c02 4337 0db1 5036 3f78 253b 33f7 ccb4
00000260: d1f2 80b5 1aa6 bdb4 1104 c7b4 b6c9 b436
00000270: 45ff af37 b7f9 80b8 4ee0 3538 adad fa37
00000280: 9cdb f8b7 a082 1b3b d603 323b 6dad 183a
00000290: e7a8 443a 33c3 893a 9c2f 323a e86a 053a
000002a0: f28d 213a dbc0 6d3a a331 4a39 9d2f 0a39
000002b0: 655e 5238 982b f838 42f0 4238 34ea 9d39
000002c0: a2bb d239 1698 f739 380c ca39 522f 2c39
000002d0: 1e18 9139 3b8d e539 9ba2 a239 fbbe 9539
000002e0: cc4f 7039 24e8 87b7 58d0 4c39 fe7d 4f39
000002f0: a8f0 5139 324b 4a39 c5e8 0439 6170 4738
00000300: 347c 7b39 e5bb e038 f02f 5c3b 6e5a 193a
00000310: ddd0 913a f84a 4a38 7996 5fb7 12cc 6336
00000320: 368e 4ab9 a75d dcb3 648b 6234 a73f f134
00000330: a480 8935 0cd9 c735 5c20 a436 38ec 0ab7
00000340: ac51 bbb4 fd80 9b37 310f a638 ac4d 9d37
00000350: 72c4 16ba d689 ec38 f7d0 5e38 dc85 aab8
00000360: d2d3 d2b8 46d1 8eb9 7511 a2b8 bc88 c4b8
00000370: 7848 24b9 6871 f4b7 d0b3 07b8 5fe6 9cb7
00000380: f05d 4fb7 ace3 a837 786b bc37 ce4b 8f38
00000390: d071 2536 7a98 1039 c425 c9b6 c134 0739
000003a0: 250e 1d38 9e17 21b7 4966 86b7 000e feb7
000003b0: a00a 3bb6 b890 5bb6 b29d 3fb7 b091 5fb9
000003c0: 9cd5 47b9 f6bd 34b8 e078 b3b7 0600 a8b8
000003d0: 5047 23b9 7d79 94b9 50d1 d4b7 00c1 d835
000003e0: 070e 5f36 e512 5a32 f324 a7ba 8a54 2933
000003f0: d0b9 f135 0d7d a234 ae1f d6b4 e6cf 06b4
-0.0008869052 1.9407322e-07 6.7512144e-07 9.450862e-08 -2.9332352e-07 -3.846419e-06 -2.529038e-05 3.2651085e-05
7.975841e-05 0.00010402639 -0.00023158327 -0.00087740866 -0.0009396415 -0.0001409153 -0.00025178824 -0.0002874505
-0.000304394 -0.00037957786 -0.0003045874 -0.0001919509 -0.00011639307 -0.0001463276 -0.000114935174 -5.872162e-05
-6.7509514e-05 -8.75767e-05 -8.065077e-05 -8.053069e-05 -6.136193e-05 -5.5638433e-05 -5.1257717e-05 -3.0830994e-05
-4.120787e-05 -3.9963412e-05 -3.9086808e-05 -5.3147214e-05 -4.5445515e-05 -8.780672e-05 -7.3374475e-05 -9.347246e-05
-0.00012754621 -8.0960395e-05 -9.376196e-05 -0.00013315685 -0.001179031 -0.00031411753 -0.00046000234 7.240889e-05
1.7751916e-05 2.3257207e-06 -0.00021111134 1.2486733e-07 1.1557796e-07 6.690047e-08 -1.9550119e-07 -1.9595993e-06
1.8064155e-06 -2.3919083e-06 -1.013616e-05 6.2818996e-05 5.367602e-06 -0.00048703165 -9.245855e-05 -7.3276664e-05
2.8354803e-05 -5.532163e-05 3.3442293e-06 -8.393403e-05 -0.00014006374 -0.00020297593 -9.2163915e-05 -3.2924203e-05
-6.236206e-05 -4.790483e-05 -1.3465597e-05 -5.494104e-06 -3.261162e-05 -3.444146e-05 6.915099e-06 -1.6820532e-05
-3.8048038e-06 3.196977e-06 4.109691e-06 5.447824e-06 -1.9188363e-05 -4.3137603e-05 -4.9982944e-05 -8.3772775e-06
1.4499372e-05 2.2490123e-05 -7.921613e-05 -3.439489e-05 -5.6674926e-06 1.4258121e-06 -0.00035306436 -8.316859e-05
-7.4152515e-05 -2.2448816e-05 1.0055566e-05 -1.0941959e-06 -0.0012774909 1.06866935e-07 7.5402727e-07 7.8223525e-09
-4.1971307e-07 -3.2560279e-06 3.510161e-06 2.4794044e-05 -5.7423026e-06 0.00018598912 -0.0001674612 -0.0017282012
-0.0011179276 -0.00015992211 -0.00042913394 -0.00038981615 -0.00042228765 -0.0004594744 -0.0005391405 -0.00040807127
-0.0001667266 -6.4660526e-05 -0.00018486734 -0.00021766455 -4.8455193e-05 -0.00019509302 -0.00021970655 -0.00024426528
-3.278253e-05 -0.00018838947 1.532988e-05 -3.4137836e-05 -0.00019237361 -0.0001405475 -0.0001516022 -9.798164e-05
-0.00014816764 -0.00011261935 -7.0754344e-05 -0.00012736754 -9.314492e-05 -1.0521574e-05 -5.5387376e-05 -2.5959302e-05
-0.0017583633 -0.00029651204 -0.00076752924 -1.7446335e-07 1.1623411e-05 3.1097472e-06 0.0025248674 -3.8177822e-07
-9.607412e-07 -3.5324848e-07 -3.7069597e-07 5.3879003e-06 2.0980495e-05 -6.150029e-05 4.3362663e-05 2.9883196e-05
-2.9666167e-05 0.0023728982 0.002716293 0.00058241823 0.0007501975 0.0010510444 0.00067972555 0.00050894776
0.0006162814 0.000906957 0.00019282712 0.00013178443 5.0155813e-05 0.000118336815 4.6476962e-05 0.00030119868
0.0004019412 0.00047224824 0.00038537546 0.00016420826 0.00027674524 0.0004378351 0.00031020198 0.00028561786
0.0002291791 -1.6201353e-05 0.0001953257 0.00019787994 0.00020021445 0.00019292234 0.00012675214 4.754996e-05
0.00023983495 0.000107161504 0.003359791 0.0005849962 0.0011124868 4.8230373e-05 -1.332687e-05 3.394442e-06
-0.00019317199 -1.02615836e-07 2.10986e-07 4.493606e-07 1.0244735e-06 1.4889824e-06 4.891348e-06 -8.28044e-06
-3.4890888e-07 1.8537505e-05 7.9183264e-05 1.8752027e-05 -0.00057513185 0.00011279031 5.312354e-05 -8.131165e-05
-0.00010053035 -0.0002724027 -7.7280136e-05 -9.371477e-05 -0.00015667256 -2.9139876e-05 -3.235397e-05 -1.8703924e-05
-1.2360033e-05 2.0133179e-05 2.246139e-05 6.832891e-05 2.4653164e-06 0.00013789712 -5.9946633e-06 0.00012894256
3.744489e-05 -9.601847e-06 -1.6021675e-05 -3.0285679e-05 -2.7871356e-06 -3.271778e-06 -1.1421203e-05 -0.0002132121
-0.00019057695 -4.309226e-05 -2.139475e-05 -8.0108686e-05 -0.00015571457 -0.00028319276 -2.5369838e-05 1.6149424e-06
3.3237754e-06 1.2693566e-08 -0.0012752101 3.9425267e-08 1.8009978e-06 3.0265838e-07 -3.9883656e-07 -1.2555356e-07

exp_avg_sq f4 [40, 50]
00000000: 231b ef34 bbc1 7a34 8d02 9934 4802 ca33
00000010: 608e 5d33 9f0a f233 8f2b ac34 b496 1e34
00000020: 445b 6134 19dd cd33 2af9 db33 db2e 4134
00000030: 31b1 f833 6b7b 6333 9771 7233 6127 c733
00000040: 1345 8033 3385 e233 850c ba33 991d 8833
00000050: e1a2 9031 8fec e331 a239 a331 3789 e030
00000060: 3d78 1d31 8a81 8731 29f8 7c31 96b4 8d31
00000070: 67fc 8631 5823 8031 468f a431 5499 dd30
00000080: e43d ab31 6bc8 c231 341f 8931 a07c c131
00000090: 570a 6831 f419 2a32 0340 c531 83c2 d431
000000a0: 5a12 0d32 a439 5431 421a 7331 b663 dc31
000000b0: 4098 1b35 ba44 6633 c255 0935 8922 0d34
000000c0: 64e4 0833 7efb d231 d777 a934 41d4 c834
000000d0: ce26 cd33 fcc6 2c32 aee6 9433 bf12 6134
000000e0: 5338 4433 ff07 1734 246a a932 8216 ae33
000000f0: 39cf 9233 a7b2 8a34 7b42 f731 f73d 7a33
00000100: 3c9c 2b34 2270 6b33 5160 5533 b9a2 3133
00000110: 691b 4433 c452 0534 486b 0132 bda6 8f31
00000120: 8d73 be31 e99b 2132 4225 b731 e11e f231
00000130: ebcc a531 7a80 ba31 0462 b931 68f6 5f31
00000140: 4d09 5331 657d 8931 f3ac 2632 9255 0b32
00000150: 3ae2 2431 1e85 9331 ac7f bd31 0225 4e31
00000160: 19ab 0032 ab09 0b32 66cf 3432 b47e 9231
00000170: 4868 1432 d15e 1332 9083 ad34 1f43 9d33
00000180: 7949 1135 6795 7f34 6f30 a732 58aa 3933
00000190: 421d 9434 0976 2e34 1cc4 5334 5c44 1034
000001a0: 3cc1 b633 a8ee 0833 4a61 0d33 d36e 7a33
000001b0: 197f 8d32 31ea f633 1087 2b33 838a d834
000001c0: 42ca 0b34 dfd7 1833 4d62 1433 dc12 1633
000001d0: bf95 7933 77cc a433 05df 7733 c6e8 1533
000001e0: a091 af31 76be df30 0fcf 0b32 d576 3332
000001f0: 1066 0f31 dc1b fc31 7f71 1a32 f917 4532
00000200: d23b 1831 c8cc 0232 d06e 6731 3253 e630
00000210: 8e5b 3432 a4ca b131 17e2 e831 196a 3031
00000220: 4253 2a32 23b6 d431 a946 1a31 8e3f f931
00000230: 0e04 0b31 f8cb 8e31 7acb 3a31 7b57 5631
00000240: d585 2235 5940 1a33 3d0e 0435 1fe6 4f33
00000250: 6787 c731 5487 9231 d96a 0b36 e5e0 2d36
00000260: 3234 d834 dca3 ab34 303f 9831 166a 8634
00000270: c745 9034 02c0 4535 cce6 bc33 125c eb32
00000280: 7a31 9831 a3ed 8135 37b8 9235 9534 e233
00000290: f87c 7634 5e74 be34 1528 3e34 1769 4934
000002a0: ccb6 2534 27a7 fd34 245c 0d33 30a4 7132
000002b0: 6824 3f32 792e 5632 91de a032 c9aa f532
000002c0: 965d 5733 1a1d 8133 884b 0933 1f7d 1332
000002d0: f966 8132 26c9 6333 69cb e032 ba60 ca32
000002e0: 2bf0 8932 edfd ab32 84ec 8f32 a5ae c932
000002f0: 5e0f dc32 b337 0833 122e 4b32 7408 2b32
00000300: 7446 5933 89ba 3a32 e780 a036 c088 b733
00000310: d5fb 6f35 1a81 5034 84c6 8733 eae0 1432
00000320: 0076 d834 ff30 6434 c5c2 8034 6ff7 2734
00000330: dfbd 3b34 7c16 3734 5a18 4934 57c5 e033
00000340: 6392 4a34 ff14 1034 3954 fc33 dfa0 4233
00000350: 2a8d 8b34 a0ec 8634 dee6 a033 6eff 7433
00000360: a315 8633 8aa0 a834 1569 f034 a7c7 2e34
00000370: bd03 5333 3f0a bb31 1b68 c231 5d5a 1732
00000380: 2334 4432 e390 8f31 cef5 1831 414e 6132
00000390: 3635 3731 c746 3233 0eec 1432 88be 6a33
000003a0: 1db1 bc31 7e19 d531 fc7b a831 531b 5e32
000003b0: b241 a432 211a bc31 84f5 8031 1add 6933
000003c0: e89e 2333 c6ab 7831 a2ed 2f31 62ad 2c32
000003d0: 1e0a 5634 f380 1435 c2a6 4b35 b8d3 2334
000003e0: e961 3b33 9985 5e31 5fd6 1136 240d cd35
000003f0: f804 1936 16ab f734 2e62 4234 691c 4334
4.4536964e-07 2.3353543e-07 2.8500327e-07 9.406773e-08 5.158506e-08 1.1270935e-07 3.206919e-07 1.4769722e-07
2.098796e-07 9.586274e-08 1.0243305e-07 1.7991572e-07 1.1580631e-07 5.2964804e-08 5.6448325e-08 9.2738226e-08
5.973029e-08 1.0548174e-07 8.663577e-08 6.338377e-08 4.2094688e-09 6.633463e-09 4.7504765e-09 1.6337144e-09
2.2914854e-09 3.943744e-09 3.681189e-09 4.1241703e-09 3.928608e-09 3.7293084e-09 4.7893165e-09 1.6123445e-09
4.983791e-09 5.668928e-09 3.990772e-09 5.6312075e-09 3.376632e-09 9.901203e-09 5.740732e-09 6.1921255e-09
8.211453e-09 3.0882825e-09 3.537608e-09 6.4141785e-09 5.796355e-07 5.3613554e-08 5.116127e-07 1.3144212e-07
3.1872688e-08 6.1403957e-09 3.1565898e-07 3.7407338e-07 9.553115e-08 1.00569615e-08 6.9337474e-08 2.0961578e-07
4.5686033e-08 1.406588e-07 1.9722457e-08 8.1066005e-08 6.8363484e-08 2.583449e-07 7.196204e-09 5.8264018e-08
1.5982454e-07 5.4817185e-08 4.9680526e-08 4.135902e-08 4.5659736e-08 1.24167e-07 7.533181e-09 4.1808037e-09
5.5428644e-09 9.406883e-09 5.3302367e-09 7.0466375e-09 4.8254285e-09 5.4279186e-09 5.3953517e-09 3.2590837e-09
3.0709828e-09 4.0014805e-09 9.701796e-09 8.110321e-09 2.3993736e-09 4.2933967e-09 5.5151386e-09 2.9997982e-09
7.489484e-09 8.093063e-09 1.0524536e-08 4.2635637e-09 8.638445e-09 8.578085e-09 3.2319485e-07 7.3230915e-08
5.4123626e-07 2.3803078e-07 1.9463384e-08 4.3228596e-08 2.7588436e-07 1.6247954e-07 1.972225e-07 1.3435914e-07
8.5101846e-08 3.1882024e-08 3.2917605e-08 5.8308455e-08 1.6472358e-08 1.1497867e-07 3.993688e-08 4.0333916e-07
1.3018965e-07 3.558659e-08 3.454834e-08 3.494175e-08 5.8111024e-08 7.674037e-08 5.7712004e-08 3.4903472e-08
5.109726e-09 1.6279518e-09 8.1379445e-09 1.0446191e-08 2.0867255e-09 7.3373325e-09 8.989786e-09 1.147236e-08
2.2152915e-09 7.613558e-09 3.3677914e-09 1.6758348e-09 1.0498196e-08 5.1744156e-09 6.777792e-09 2.567168e-09
9.914233e-09 6.1907186e-09 2.2450115e-09 7.254079e-09 2.0229467e-09 4.1559325e-09 2.7182225e-09 3.1190825e-09
6.0544454e-07 3.5914443e-08 4.919455e-07 4.8405237e-08 5.8070557e-09 4.2645443e-09 2.0774808e-06 2.5909915e-06
4.0271112e-07 3.1970455e-07 4.430966e-09 2.5036633e-07 2.687286e-07 7.3667627e-07 8.796414e-08 2.739947e-08
4.429407e-09 9.68041e-07 1.0931461e-06 1.053351e-07 2.2955999e-07 3.5474926e-07 1.770971e-07 1.8757815e-07
1.5433324e-07 4.7246542e-07 3.2912922e-08 1.4065378e-08 1.1125941e-08 1.2467006e-08 1.8727663e-08 2.8599418e-08
5.0143704e-08 6.012324e-08 3.1966493e-08 8.584975e-09 1.5064403e-08 5.30355e-08 2.6169532e-08 2.3559881e-08
1.6058115e-08 2.0022492e-08 1.6754946e-08 2.3478899e-08 2.5618359e-08 3.1715626e-08 1.182663e-08 9.955432e-09
5.0588326e-08 1.0869038e-08 4.783378e-06 8.546476e-08 8.94009e-07 1.9418476e-07 6.322537e-08 8.665873e-09
4.0318992e-07 2.125198e-07 2.398357e-07 1.5643103e-07 1.7484807e-07 1.7051383e-07 1.8728443e-07 1.0466709e-07
1.8865971e-07 1.3418683e-07 1.17499845e-07 4.5315456e-08 2.5993478e-07 2.5131612e-07 7.492575e-08 5.704299e-08
6.243797e-08 3.1409246e-07 4.477994e-07 1.6277646e-07 4.9130666e-08 5.443581e-09 5.6579785e-09 8.809903e-09
1.1420556e-08 4.1783195e-09 2.2258635e-09 1.3114517e-08 2.6660252e-09 4.1508226e-08 8.668406e-09 5.4655658e-08
5.4916556e-09 6.202014e-09 4.903539e-09 1.29283135e-08 1.9121988e-08 5.4744906e-09 3.753202e-09 5.445063e-08
3.809592e-08 3.6186392e-09 2.560093e-09 1.005114e-08 1.9933984e-07 5.532194e-07 7.586606e-07 1.5257581e-07
4.362838e-08 3.2381193e-09 2.1731464e-06 1.5277515e-06 2.2801669e-06 4.6131817e-07 1.8103376e-07 1.8171126e-07
