timeSerise/logs/lightning_logs/version_0/checkpoints/epoch=159-step=8320.ckpt (torch, 48219 bytes, 27 tensors)

lstm.weight_ih_l0 f4 [40, 30]
0.052513845 -0.05012935 -0.35030237 -0.20443377 0.052477974 -0.23278579 0.1557215 -0.29297215
-0.13284399 -0.3351605 0.18530546 0.26151928 0.17412843 0.10473563 -0.015939372 0.34354725
-0.074032396 0.11841484 0.1952577 0.317948 0.038772136 -0.008930328 0.095918536 0.21752515
-0.38104442 0.23532699 -0.015544747 0.3581972 0.102388166 0.11386956 -0.17465086 0.06856846
0.00422448 0.21246006 0.27581063 0.14004195 -0.105232015 0.11784799 0.12743466 0.2930515
0.37384847 -0.16994292 0.13029988 -0.00047702985 -0.24528782 -0.18878366 0.076044135 -0.09211086
0.1645755 -0.19267364 -0.090200074 0.13204406 -0.14434007 0.30731395 0.28798816 -0.24237284
-0.14859065 0.1294978 -0.17920882 0.058448154 -0.044024054 -0.1626983 0.14676248 0.07137613
-0.10447076 0.28317457 0.06598367 -0.15898472 0.022143096 0.36906677 -0.33338073 -0.15973477
0.12247126 -0.13082048 -0.13657266 -0.17466192 -0.20634925 0.3169053 -0.25752762 -0.046851628
0.28759128 -0.0848849 0.06295597 0.24698636 0.39278367 -0.020455826 -0.18604705 -0.009966966
-0.054973356 -0.18767713 0.34473476 -0.2273907 -0.10226666 -0.08830124 -0.017344289 -0.29637617
-0.3097185 0.2985153 0.10832227 -0.24927968 0.01867201 0.16072296 0.26986837 0.120094724
-0.05496483 0.22247718 -0.0151341045 -0.10562916 -0.13054545 -0.054984257 -0.11970281 -0.31524888
0.30595192 -0.097722195 -0.07339778 -0.0051488187 -0.29009822 -0.14824651 -0.24007735 0.13976331
0.06629017 -0.27417275 0.18264519 -0.031035187 -0.28891566 -0.082411945 0.44019112 -0.23463409
-0.083279364 -0.35917887 0.345232 0.21753234 -0.508322 0.02565459 0.3114822 0.17787877
0.15811571 -0.48491675 0.0794952 -0.26054853 -0.20079406 -0.043566294 -0.13326187 -0.23303366
0.19240043 -0.22022268 -0.17233938 -0.26046062 -0.10789304 -0.2523936 -0.16725081 -0.01701395
-0.049333658 0.097599626 0.35349524 0.029212045 0.040651273 -0.19208121 0.2854303 -0.16835989
-0.03522378 -0.16564639 0.26590878 0.20828313 -0.015903214 -0.34669045 0.32800418 0.13364767
-0.23088726 -0.17127953 -0.16270456 0.040255576 0.19202639 0.42026156 0.18044247 -0.07460789
-0.21758151 -0.17523657 -0.30579704 -0.24835278 0.28713286 0.2399587 -0.024594294 -0.27878565
-0.30144265 0.31796676 -0.18343733 -0.02298919 0.06721136 -0.24478647 -0.18773581 -0.18571453
-0.10314215 -0.30180266 0.28015476 0.09439621 0.17651969 -0.05684906 -0.16362031 0.21324247
-0.28519443 0.22472143 -0.03266659 -0.24702212 -0.19305478 -0.28070945 0.28233483 -0.22646683
-0.15564424 -0.20039901 0.107635766 0.03135654 -0.32666123 0.22853875 0.0021773728 0.012148592
0.100119986 -0.2666015 -0.2654262 -0.22916432 0.25206774 0.15139571 -0.073358215 0.12743714
-0.14406711 -0.15797952 -0.07564625 -0.14248626 0.20001884 -0.31675655 -0.047656137 0.4046292
-0.2154935 -0.16778891 0.013606338 0.095647775 -0.18757746 -0.14344162 0.12423597 -0.09123291
-0.2371197 0.34014872 0.009930209 0.22273743 0.38197032 -0.17359048 -0.19529933 0.1768171
-0.10607434 -0.041948427 -0.2424469 0.39863798 -0.37978965 0.14286166 -0.12989742 0.0131672565
00000000: c218 573d 6f54 4dbd d55a b3be 1657 51be
00000010: 25f3 563d 665f 6ebe 7575 1f3e 7200 96be
00000020: 4108 08be 289a abbe b7c0 3d3e dbe5 853e
00000030: b94e 323e a27f d63d 4993 82bc 6de5 af3e
00000040: 4c9e 97bd 7b83 f23d a2f1 473e 15ca a23e
00000050: 88cf 1e3d 8350 12bc f070 c43d eabe 5e3e
00000060: 4118 c3be 8ff9 703e 65af 7ebc a065 b73e
00000070: e3b0 d13d 7234 e93d add7 32be 9f6d 8c3d
00000080: 826d 8a3b 218f 593e 0d37 8d3e 2867 0f3e
00000090: e283 d7bd 495a f13d 3b7e 023e d90a 963e
000000a0: 1169 bf3e 8405 2ebe 556d 053e dd19 fab9
000000b0: bb2c 7bbe 8150 41be 07bd 9b3d 9ea4 bcbd
000000c0: 7b86 283e 3d4c 45be d1ba b8bd 8f36 073e
000000d0: e2cd 13be 4158 9d3e 2f73 933e 9630 78be
000000e0: 2628 18be 129b 043e 8482 37be 5567 6f3d
000000f0: 9152 34bd 629a 26be e748 163e a62d 923d
00000100: c4f4 d5bd 42fc 903e 7222 873d e4cc 22be
00000110: 7065 b53c 52f6 bc3e e1b0 aabe 8391 23be
00000120: 36d2 fa3d cef5 05be b4d9 0bbe 93da 32be
00000130: 384d 53be 6941 a23e a9da 83be 7ee7 3fbd
00000140: 2a3f 933e 22d8 adbd 0fef 803d fee9 7c3e
00000150: f11a c93e fa92 a7bc 1e83 3ebe 7c4c 23bc
00000160: be2b 61bd 6f2e 40be 1381 b03e 1cd9 68be
00000170: 2f71 d1bd 48d7 b4bd 9c15 8ebc 9ebe 97be
00000180: 6c93 9ebe ffd6 983e 11d8 dd3d 2c43 7fbe
00000190: 0bf6 983c 8f94 243e 302c 8a3e 39f4 f53d
000001a0: cd22 61bd 0fd1 633e 09f5 77bc 1a54 d8bd
000001b0: b5ad 05be 2c37 61bd bf26 f5bd 4d68 a1be
000001c0: bba5 9c3e 9322 c8bd 9351 96bd 6cb7 a8bb
000001d0: c187 94be efcd 17be d6d6 75be 1d1e 0f3e
000001e0: 24c3 873d 5f60 8cbe 5707 3b3e 813d febc
000001f0: c1ec 93be 98c7 a8bd bb60 e13e eb43 70be
00000200: 5f8e aabd 4be6 b7be 40c2 b03e ccc0 5e3e
00000210: 6421 02bf 9329 d23c 987a 9f3e da25 363e
00000220: 16e9 213e 0247 f8be 61ce a23d 9e66 85be
00000230: f59c 4dbe 9272 32bd cd75 08be 60a0 6ebe
00000240: 9e04 453e 0e82 61be bc79 30be 185b 85be
00000250: 07f7 dcbd bc39 81be cc43 2bbe d760 8bbc
00000260: 1712 4abd 50e2 c73d 54fd b43e 194e ef3c
00000270: f381 263d f0b0 44be ec23 923e 8966 2cbe
00000280: cf46 10bd 359f 29be 3225 883e 2c48 553e
00000290: 7547 82bc 6981 b1be 2af0 a73e efda 083e
000002a0: b66d 6cbe e763 2fbe 069c 26be 08e3 243d
000002b0: 91a2 443e 862c d73e e9c5 383e 05cc 98bd
000002c0: b0cd 5ebe 3771 33be 6e91 9cbe 3150 7ebe
000002d0: 1403 933e bcb7 753e f979 c9bc febc 8ebe
000002e0: b156 9abe 8acc a23e ffd6 3bbe d353 bcbc
000002f0: 1ca6 893d 4ea9 7abe d13d 40be f32b 3ebe
00000300: 313c d3bd e185 9abe 7270 8f3e cd52 c13d
00000310: 94c1 343e 8fda 68bd 158c 27be 3c5c 5a3e
00000320: 0105 92be 601d 663e 67cd 05bd 5ef3 7cbe
00000330: 27b0 45be 26b9 8fbe 318e 903e ece6 67be
00000340: 3461 1fbe 6635 4dbe 2470 dc3d b76f 003d
00000350: 2440 a7be 1006 6a3e 41b2 0e3b e30a 473c
00000360: b50b cd3d fe7f 88be f1e5 87be 0daa 6abe
00000370: 060f 813e 7a07 1b3e d53c 96bd e27e 023e
00000380: 5486 13be 62c5 21be 6cec 9abd ebe7 11be
00000390: bdd1 4c3e ea2d a2be 1533 43bd 8f2b cf3e
000003a0: 54aa 5cbe dbd0 2bbe 1eed 5e3c fbe2 c33d
000003b0: 4e14 40be 5ce2 12be 6e6f fe3d 52d8 babd
000003c0: 82cf 72be f927 ae3e 51b2 223c 4815 643e
000003d0: 9d91 c33e b4c1 31be 8cfc 47be 8b0f 353e
000003e0: 813d d9bd 1dd2 2bbd 0044 78be 471a cc3e
000003f0: ca73 c2be 544a 123e d403 05be 7abb 573c

lstm.weight_hh_l0 f4 [40, 10]
-0.078555845 0.088167794 0.2440045 0.24116544 -0.1502481 0.18249564 0.13976586 -0.28653508
0.22912431 0.25579947 -0.3766784 -0.10464376 0.30976686 0.24393967 -0.46421742 -0.10475329
0.1533101 -0.10873116 -0.36044386 0.31219125 -0.0073209945 -0.05593428 0.2269594 0.026984511
0.029230773 0.28516924 -0.13685022 0.054517087 0.11416102 -0.013273099 -0.12724802 0.08166746
-0.12923062 -0.10545049 0.07808798 -0.27363393 0.14511263 -0.13197288 -0.17979191 -0.05414188
-0.1725691 0.20091851 0.13039854 -0.0859834 -0.20940681 0.10577951 0.00892027 -0.0020964164
0.2770024 -0.08281347 -0.12596567 -0.04801642 0.09522444 -0.12649277 -0.2831598 0.26692545
0.2335534 -0.18589579 0.2079863 0.038955383 0.14539239 0.14548416 0.06964282 -0.30623618
-0.10868518 0.10913965 0.27892193 -0.028620426 -0.2282577 0.02120199 -0.033209022 -0.24038552
-0.06991462 -0.18549547 0.21229894 0.0860334 -0.020803006 -0.17763819 0.0066333255 0.12203327
0.092218414 0.12918925 -0.18082443 -0.21175079 -0.14683746 -0.037927303 0.2696849 -0.25769967
-0.15279551 -0.24580783 -0.18235917 0.20110896 0.09936959 -0.2297515 -0.28830415 0.008698775
0.22708927 -0.19257346 0.13653602 -0.08901741 -0.2972861 0.16480382 -0.23966636 -0.26841235
-0.090738885 -0.039931104 0.16125314 0.16248152 -0.21707192 -0.2800078 -0.3102224 -0.15016745
0.016254492 -0.19323403 0.08642383 0.020029515 0.17927338 -0.21738745 -0.31453985 -0.047711093
-0.23998624 -0.27995417 0.122948796 0.27015823 -0.108859725 0.25415555 -0.017200157 -0.116518766
-0.2503688 -0.022804568 0.23009294 -0.11760672 0.23489892 -0.028010251 0.14010288 0.092922576
0.3100296 -0.18872063 0.001908652 -0.14497311 0.1946771 -0.18202849 -0.28771412 -0.2841161
-0.17647667 0.37872675 0.17750597 0.13994937 -0.035121784 0.2874604 -0.27878684 0.016540011
0.067899205 0.30930567 0.25672132 -0.009223945 0.07686921 -0.1911012 0.21402323 -0.24494094
-0.21007034 -0.30460766 -0.2383733 0.18155241 -0.21696237 0.22551301 0.072251484 -0.089102484
-0.15655918 -0.23488021 -0.046886526 0.2481881 -0.14414042 -0.21434534 0.16168004 0.24129905
0.04467143 0.07281044 0.109402135 -0.32418302 -0.04805608 0.1301126 0.27522188 -0.20336637
0.14162743 -0.1966534 0.07659051 -0.15181752 0.0009763825 -0.16875014 -0.12532645 -0.030018395
-0.05959644 -0.06318687 0.22909383 0.11223919 -0.22098678 -0.22388509 -0.2088943 -0.3160097
-0.16241007 0.06814004 0.10959801 0.013513606 -0.006803499 0.20508668 -0.23220964 0.28121805
0.18741463 -0.12654264 -0.0830206 0.24891564 -0.029076051 0.13055237 -0.033645306 -0.0319582
-0.31429785 0.30643812 -0.23744254 0.19251646 -0.059521254 0.22152364 -0.06325983 -0.34902167
0.29734865 -0.2765612 0.22860193 -0.068945356 -0.33353013 0.07537312 -0.30008817 -0.21221426
-0.22442603 -0.029953651 0.0016677079 -0.2827477 -0.22949836 0.12899303 0.085359484 0.17503113
-0.2054717 -0.04564489 -0.12234746 0.28248104 -0.077374056 -0.3253248 0.19100526 0.18509264
-0.14801167 0.09363258 -0.029393617 -0.19384359 0.23906359 0.035565343 0.2860636 -0.08317341
00000000: e3e1 a0bd 5191 b43d 51dc 793e 13f4 763e
00000010: a3da 19be 23e0 3a3e c81e 0f3e bab4 92be
00000020: 909f 6a3e 26f8 823e fedb c0be 784f d6bd
00000030: c399 9e3e 52cb 793e e8ad edbe e588 d6bd
00000040: 53fd 1c3e 71ae debd 198c b8be 88d7 9f3e
00000050: f4e4 efbb 581b 65bd 0c68 683e 9f0e dd3c
00000060: 6075 ef3c b401 923e 7722 0cbe 4f4d 5f3d
00000070: 41cd e93d 6a77 59bc 4e4d 02be 4541 a73d
00000080: 0855 04be 6df6 d7bd 97ec 9f3d bf19 8cbe
00000090: 6898 143e e623 07be 5f1b 38be e0c3 5dbd
000000a0: f4b5 30be 95bd 4d3e 3287 053e 1118 b0bd
000000b0: bd6e 56be eea2 d83d 5326 123c 0864 09bb
000000c0: 42d3 8d3e 1c9a a9bd 25fd 00be deac 44bd
000000d0: 0805 c33d 5287 01be 52fa 90be 74aa 883e
000000e0: 9f28 6f3e 775b 3ebe 5cfa 543e ae8f 1f3d
000000f0: bee1 143e cdf9 143e e5a0 8e3d fdca 9cbe
00000100: 5696 debd 9c84 df3d dbce 8e3e 6275 eabc
00000110: 63bc 69be ccaf ad3c 2f06 08bd 9f27 76be
00000120: 652f 8fbd 86f2 3dbe e564 593e 4732 b03d
00000130: 116b aabc c9e6 35be 5e5c d93b 94ec f93d
00000140: 02dd bc3d 304a 043e 0a2a 39be 33d5 58be
00000150: 8f5c 16be a959 1bbd 2414 8a3e 36f1 83be
00000160: 6d76 1cbe 0cb5 7bbe 5dbc 3abe 82ef 4d3e
00000170: 4982 cb3d fa43 6bbe 9a9c 93be 4f85 0e3c
00000180: 178a 683e fa31 45be 19d0 0b3e c34e b6bd
00000190: e235 98be 55c2 283e 196b 75be 586d 89be
000001a0: 4fd5 b9bd cc8e 23bd 8b1f 253e 8e61 263e
000001b0: 1a48 5ebe 2f5d 8fbe 78d5 9ebe 7fc5 19be
000001c0: 2428 853c 24df 45be fafe b03d f014 a43c
000001d0: 7193 373e d19a 5ebe 5e0b a1be b56c 43bd
000001e0: f4be 75be 2756 8fbe 94cc fb3d 2e52 8a3e
000001f0: d9f1 debd ad20 823e 58e7 8cbc 64a1 eebd
00000200: 5730 80be a5d0 babc 7c9d 6b3e cbdb f0bd
00000210: 5889 703e c175 e5bc 2177 0f3e 314e be3d
00000220: 33bc 9e3e fb3f 41be bc2b fa3a d573 14be
00000230: 6f59 473e ad65 3abe 444f 93be aa77 91be
00000240: 4db6 34be 79e8 c13e 20c4 353e e34e 0f3e
00000250: dcdb 0fbd 022e 933e 26bd 8ebe eb7e 873c
00000260: bd0e 8b3d 505d 9e3e fa70 833e 0820 17bc
00000270: 9b6d 9d3d 08b0 43be e828 5b3e ccd1 7abe
00000280: ae1c 57be 89f5 9bbe 2118 74be e0e8 393e
00000290: 622b 5ebe e2ec 663e 96f8 933d 5d7b b6bd
000002a0: 0d51 20be 7084 70be 160c 40bd 0525 7e3e
000002b0: 8c99 13be 587d 5bbe 748f 253e 1917 773e
000002c0: 64f9 363d a41d 953d 3a0e e03d 51fb a5be
000002d0: 74d6 44bd 3d3c 053e e2e9 8c3e 463f 50be
000002e0: c806 113e 825f 49be 7cdb 9c3d 0d76 1bbe
000002f0: ecf3 7f3a d6cc 2cbe 9455 00be 23e9 f5bc
00000300: 661b 74bd 1e68 81bd 9397 6a3e a9dd e53d
00000310: 5c4a 62be 2242 65be 63e8 55be 06cc a1be
00000320: d34e 26be 018d 8b3d ec74 e03d 2c68 5d3c
00000330: e3ef debb 3e02 523e 5dc8 6dbe d0fb 8f3e
00000340: 9fe9 3f3e 6594 01be b406 aabd bee3 7e3e
00000350: e630 eebc 85af 053e a9cf 09bd 9ae6 02bd
00000360: a6eb a0be 75e5 9c3e 2324 73be 0923 453e
00000370: 8fcc 73bd 18d7 623e 5f8e 81bd f8b2 b2be
00000380: 153e 983e 6e99 8dbe a016 6a3e 3933 8dbd
00000390: 76c4 aabe 395d 9a3d 28a5 99be b24e 59be
000003a0: f0cf 65be 5c61 f5bc fe96 da3a 4ec4 90be
000003b0: 9e01 6bbe c016 043e f4d0 ae3d 5c3b 333e
000003c0: 2c67 52be 23f6 3abd 4e91 fabd 5ba1 903e
000003d0: 4a76 9ebd f990 a6be e296 433e ed88 3d3e
000003e0: 5f90 17be 70c2 bf3d e2ca f0bc ef7e 46be
000003f0: 16cd 743e f7ac 113d ee76 923e d256 aabd

lstm.bias_ih_l0 f4 [40]
-0.0019550247 -0.025541393 0.34044513 0.13857551 -0.41011176 0.17063387 -0.033363495 -0.017540237
0.10657346 0.28458172 0.03772856 0.12411069 0.13722886 -0.14113349 -0.25346556 0.10853418
0.08038128 -0.059656247 0.10402603 0.21973518 -0.16412988 -0.2387899 -0.3612749 -0.16910979
0.2887231 0.115120046 0.33270308 -0.0050850203 0.032951042 0.1418096 0.2857653 -0.25864583
-0.022889607 -0.078560255 -0.4027545 0.1930897 -0.14974715 -0.14206119 -0.20191734 -0.11723691
00000000: df1f 00bb 2f3c d1bc d34e ae3e bde6 0d3e
00000010: 2bfa d1be a5ba 2e3e 29a8 08bd 8bb0 8fbc
00000020: 3043 da3d b2b4 913e 4389 1a3d bf2d fe3d
00000030: b985 0c3e 4c85 10be 3dc6 81be 2b47 de3d
00000040: f19e a43d 1c5a 74bd 990b d53d 4202 613e
00000050: aa11 28be 5785 74be 06f9 b8be 1e2b 2dbe
00000060: 84d3 933e 0fc4 eb3d 0f58 aa3e 3ea0 a6bb
00000070: acf7 063d 8936 113e d44f 923e 3a6d 84be
00000080: fc82 bbbc 33e4 a0bd d635 cebe 4eb9 453e
00000090: 5157 19be 7d78 11be 6bc3 4ebe e819 f0bd

lstm.bias_hh_l0 f4 [40]
0.19866022 -0.103558876 0.1999576 -0.08050589 0.04847429 -0.10382526 0.18845637 0.29121885
0.3210414 -0.048017934 0.1723345 0.18588622 0.033536445 -0.22422251 -0.16689126 0.2066082
-0.27977455 -0.31367642 0.2979813 -0.39288107 -0.08141806 0.21730249 -0.3294597 0.014545175
0.31760445 -0.07839498 -0.16952421 -0.1969149 0.20230849 0.27501175 -0.3176117 -0.36762127
-0.2578481 0.21830344 0.0376149 -0.19439527 0.33687308 0.23378143 0.13076274 0.25905874
00000000: 966d 4b3e ad16 d4bd afc1 4c3e 46e0 a4bd
00000010: fa8c 463d 57a2 d4bd b5fa 403e a31a 953e
00000020: 8a5f a43e 74ae 44bd 7578 303e f558 3e3e
00000030: 835d 093d 969a 65be 8be5 2abe 1a91 533e
00000040: 9c3e 8fbe 329a a0be 0191 983e b527 c9be
00000050: 83be a6bd 8b84 5e3e f1ae a8be e34e 6e3c
00000060: 0d9d a23e 8c8d a0bd c197 2dbe 0fa4 49be
00000070: f529 4f3e 57ce 8c3e 009e a2be db38 bcbe
00000080: ab04 84be f08a 5f3e 1512 1a3d 8e0f 47be
00000090: a17a ac3e 6664 6f3e abe6 053e 59a3 843e

lstm.weight_ih_l1 f4 [40, 10]
0.09872543 0.031491216 0.21635588 -0.25331888 -0.23438323 0.3195937 0.3217326 0.23838204
-0.25213993 0.12429027 0.112169094 -0.32698646 0.10317416 0.18594378 0.13736187 0.22031812
-0.07778598 0.11322042 -0.020611394 0.023007108 -0.095946126 0.181136 -0.2256443 0.009949645
0.21646371 0.33005583 -0.18419933 -0.32198358 -0.29383156 -0.18507153 -0.028537042 0.009656487
0.23266399 -0.07982505 0.22164774 -0.118568085 0.1056006 0.2069284 -0.21262538 -0.065943725
0.1580544 0.021544494 0.23532097 -0.04473672 0.1936312 0.07834785 -0.037544005 -0.28150186
0.10416574 -0.18961215 -0.10656583 0.031222235 0.23860095 0.10531068 -0.042456113 0.07492361
-0.16850841 0.23963256 0.15037371 -0.1810031 -0.1676502 -0.15172985 -0.37464765 -0.2793516
0.16626987 0.33545232 -0.36338344 0.21880157 -0.05703504 0.088517025 0.07366379 -0.2927153
0.18612008 -0.114925615 0.015594869 0.0399195 -0.011044213 0.26082382 0.003129579 -0.052130945
-0.15883425 -0.31544766 0.17468266 -0.027989116 0.038247522 0.18828519 -0.0005827944 0.17026629
0.28481007 0.1810343 -0.3292622 -0.2911872 -0.37403125 0.15092061 -0.10325999 -0.1924179
-0.22320783 -0.31372678 0.1263513 -0.27589723 -0.012728738 -0.29730558 -0.073649965 -0.10532494
-0.30810153 0.0059454865 0.23854713 -0.13637526 0.046088405 0.36159483 0.054516055 -0.32534847
0.23450615 0.29375088 -0.050403185 0.17362921 0.2880784 -0.1495095 -0.25261876 -0.1999884
-0.23242353 0.1202944 -0.31357902 -0.05810793 0.1718293 0.03187719 -0.25174922 0.0899566
-0.4056286 0.02272777 0.2853546 -0.31783235 -0.20652433 -0.0855399 -0.07628595 -0.2458088
0.13126868 0.020010723 0.30141613 -0.055683937 -0.072449006 -0.02454574 -0.20067543 0.22401421
-0.049075373 0.13244924 -0.30492616 -0.19287814 -0.16201751 -0.08864422 0.09538996 0.07981621
-0.3636689 0.028226076 -0.21229202 0.02563892 0.011310445 0.22298351 -0.0044080745 0.33682144
-0.014886514 -0.40606013 -0.3963699 -0.27528688 -0.2641826 0.026712077 0.22358973 0.031993017
-0.011338019 0.20528227 0.02291918 0.099201545 -0.16396405 -0.1757171 0.08869405 -0.04643931
0.19124636 0.08056888 -0.29253218 0.06403652 -0.07005166 0.13942297 -0.1111876 0.20004445
0.17834523 0.018444419 -0.045933858 -0.027862558 0.07850522 -0.22049662 -0.27028835 0.13964018
-0.0676332 -0.19827247 0.282328 -0.0734315 -0.28968787 0.25508323 -0.010101955 -0.0023073219
0.22432055 -0.2156695 0.33873177 -0.09216331 0.095061 -0.24719568 0.28804994 0.080905706
-0.023441767 -0.29308847 -0.09140838 0.16659072 -0.1320652 0.19685028 0.31391844 0.24747555
-0.05612355 0.1196866 0.067636676 0.0036711437 0.034727756 -0.22006951 -0.27434224 -0.2764411
0.08315576 0.15780169 -0.25038308 -0.23844863 -0.060379848 0.1045809 -0.21194373 0.20769213
0.040342454 0.32187134 0.20106363 -0.24430405 0.3607738 -0.09069937 -0.220886 -0.08211966
0.11370168 0.08815064 -0.1258486 -0.18526429 -0.08667298 -0.18509777 -0.10443276 -0.11271232
-0.21310504 0.26939896 0.13001919 0.34728274 -0.08652974 0.2382244 0.25821722 -0.11146697
00000000: 8f30 ca3d effc 003d 658c 5d3e 03b3 81be
00000010: 2802 70be c9a1 a33e 23ba a43e 6c1a 743e
00000020: 7c18 81be e68b fe3d e9b8 e53d c56a a7be
00000030: f94c d33d 0c68 3e3e 97a8 0c3e 139b 613e
00000040: 424e 9fbd 1ce0 e73d 3ad9 a8bc 6779 bc3c
00000050: 677f c4bd b77b 393e 4d0f 67be d603 233c
00000060: aaa8 5d3e 14fd a83e c09e 3cbe 08db a4be
00000070: 1771 96be 6483 3dbe 84c6 e9bc 3e36 1e3c
00000080: 783f 6e3e 517b a3bd a0f7 623e d3d3 f2bd
00000090: 2145 d83d 0ae5 533e 78ba 59be 810d 87bd
000000a0: 03d9 213e 147e b03c fbf7 703e da3d 37bd
000000b0: 4247 463e d674 a03d bec7 19bd 0321 90be
000000c0: d954 d53d b029 42be 303f dabd c6c5 ff3c
000000d0: cf53 743e 20ad d73d 76e6 2dbd 8d71 993d
000000e0: 788d 2cbe 3d62 753e 91fb 193e e058 39be
000000f0: 7eac 2bbe 125f 1bbe d1d1 bfbe 2c07 8fbe
00000100: a642 2a3e 68c0 ab3e 650d babe 850d 603e
00000110: 939d 69bd 6a48 b53d 0bdd 963d c8de 95be
00000120: 4396 3e3e 1f5e ebbd 9f81 7f3c a182 233d
00000130: c9f2 34bc b38a 853e 9f19 4d3b 4287 55bd
00000140: 72a5 22be 5b82 a1be 03e0 323e 6e49 e5bc
00000150: 6fa9 1c3d d5cd 403e acc6 18ba 495a 2e3e
00000160: a0d2 913e 0e61 393e 0e95 a8be 7d16 95be
00000170: 0681 bfbe ef8a 1a3e f979 d3bd 3309 45be
00000180: 9890 64be cca0 a0be 3c62 013e 6742 8dbe
00000190: 328c 50bc 7038 98be cbd5 96bd 9ab4 d7bd
000001a0: 7cbf 9dbe 5bd2 c23b b345 743e f5a5 0bbe
000001b0: 32c7 3c3d f522 b93e 3a4c 5f3d 1394 a6be
000001c0: 6122 703e 8466 963e 9273 4ebd dbcb 313e
000001d0: 037f 933e 0519 19be 3f57 81be c2c9 4cbe
000001e0: 6f00 6ebe e95c f63d 6e8d a0be 9502 6ebd
000001f0: 05f4 2f3e a891 023d 46e5 80be 2a3b b83d
00000200: 8dae cfbe 972f ba3c 001a 923e ecba a2be
00000210: 1d7b 53be 8b2f afbd cf3b 9cbd 4db5 7bbe
00000220: 4c6b 063e 87ed a33c 3753 9a3e d714 64bd
00000230: 2560 94bd 2614 c9bc dc7d 4dbe fb63 653e
00000240: 4203 49bd c6a0 073e 481f 9cbe d981 45be
00000250: ebe7 25be 1a8b b5bd d05b c33d ae76 a33d
00000260: cf32 babe 5f3a e73c 1463 59be b608 d23c
00000270: 724f 393c ca55 643e 9c71 90bb dc73 ac3e
00000280: 91e6 73bc 1de7 cfbe fff0 cabe 67f2 8cbe
00000290: f142 87be 49d3 da3c b5f4 643e 1c0b 033d
000002a0: 19c3 39bc 8435 523e 01c1 bb3c 2e2a cb3d
000002b0: 31e6 27be 2fef 33be 3aa5 b53d 2537 3ebd
000002c0: 16d6 433e 4c01 a53d c7c6 95be 9425 833d
000002d0: 3f77 8fbd e5c4 0e3e 53b6 e3bd 74d8 4c3e
000002e0: 22a0 363e c018 973c 2425 3cbd 0540 e4bc
000002f0: 58c7 a03d dec9 61be 3c63 8abe d6fd 0e3e
00000300: 4683 8abd f007 4bbe 4c8d 903e 4163 96bd
00000310: f851 94be 459a 823e ac82 25bc 7036 17bb
00000320: 49b4 653e 77d8 5cbe 406e ad3e 1ec0 bcbd
00000330: 57af c23d dd20 7dbe 487b 933e e4b1 a53d
00000340: f308 c0bc b10f 96be 5134 bbbd c296 2a3e
00000350: 1a3c 07be 1f93 493e ebb9 a03e 3b6a 7d3e
00000360: cfe1 65bd 401e f53d 1985 8a3d 9297 703b
00000370: b13e 0e3d e759 61be 9676 8cbe b089 8dbe
00000380: 914d aa3d c496 213e 3632 80be e12b 74be
00000390: dc50 77bd 832e d63d c707 59be 3fad 543e
000003a0: 213e 253d 52cc a43e a0e3 4d3e d72a 7abe
000003b0: 58b7 b83e 97c0 b9bd f12f 62be 5a2e a8bd
000003c0: 6ddc e83d 5388 b43d 75de 00be ecb5 3dbe
000003d0: 9a81 b1bd 458a 3dbe d8e0 d5bd b8d5 e6bd
000003e0: 3538 5abe a9ee 893e c023 053e 0bcf b13e
000003f0: 8136 b1bd 19f1 733e 0c35 843e cb48 e4bd

lstm.weight_hh_l1 f4 [40, 10]
-0.07545512 -0.14900242 -0.216556 0.12544438 0.3274214 -0.11709199 -0.09828344 0.10181519
0.12256714 -0.35164794 0.080169946 0.07663663 -0.03335431 -0.2452055 0.11535815 -0.1394701
0.36127275 0.25723085 0.23257644 -0.09453949 -0.20532997 -0.03661235 -0.12184068 0.06799261
0.28193805 -0.11716111 0.26900554 -0.1601484 0.25010028 0.10531713 -0.018942067 -0.15510646
0.24941073 0.30434594 0.28503945 0.2558279 0.16194119 -0.30989325 0.20751609 0.24118854
0.12527098 0.081601076 -0.091636345 -0.12975703 0.007881838 0.22974974 -0.21289518 0.056385566
0.01939377 0.0031447965 0.18518874 -0.16737808 -0.17247644 0.21347927 0.31201908 -0.19264327
-0.011122948 0.10638096 0.23951714 -0.16428353 -0.09526415 0.057280436 0.10052287 0.29893535
0.15290888 -0.2839106 -0.22496776 -0.09578343 0.13251609 0.20055194 -0.17946507 -0.1814541
-0.01242373 -0.31904814 0.29381537 0.037031308 0.029239502 -0.37666252 -0.05618886 -0.29425856
-0.019328194 0.29480517 0.29727355 0.28766534 -0.21562216 0.06281377 0.2444629 0.29559785
-0.053570505 0.25009444 0.16850066 0.10249029 -0.13590632 -0.278188 -0.15631306 0.1344275
-0.15635699 -0.068864696 0.23651059 -0.27401108 -0.24353686 -0.1666855 0.24533491 0.13616532
0.14766225 -0.27526408 -0.21137525 0.15001959 -0.054448765 0.08232686 -0.08715288 0.17366022
0.16618744 0.015533794 0.2907936 -0.09839285 -0.19096632 0.03463712 -0.24217406 0.013632405
0.009659486 -0.30223295 0.31158417 -0.26151142 0.31491315 -0.070685014 -0.14500937 -0.24259573
0.2007626 0.23747483 -0.11146613 -0.22723904 -0.24674691 0.19475219 0.22253932 0.08356636
0.20813346 0.21853375 -0.21091685 -0.064196095 -0.020603621 -0.24804163 -0.17460282 0.19235031
-0.15460825 -0.03151097 0.24239908 0.023028806 -0.042703006 0.23897775 -0.31270036 -0.03237176
-0.0057361554 -0.043712433 0.01103601 -0.246664 0.012157462 -0.10615019 -0.2948477 0.015500729
-0.024130572 0.09213998 -0.13523024 0.06421683 -0.18517229 -0.009089512 0.25056797 -0.13896728
0.19028714 -0.13559213 0.14060241 -0.117582604 0.18263853 -0.31682646 -0.24175338 0.15907425
0.090880394 -0.25551635 -0.117903166 0.20713909 0.2894774 0.27230394 0.11564659 0.1342622
-0.2810096 -0.04678411 -0.09650959 0.15759774 -0.16272391 0.30578336 0.25020686 0.06484228
0.09479355 0.29173246 0.26648313 -0.082639806 -0.20112239 -0.26529303 -0.20436576 0.0647038
0.31239417 0.040001813 0.23660728 0.17585185 0.061300278 0.3122737 0.11760649 -0.09647073
0.07489127 -0.28217682 -0.0067550614 0.16149554 0.038091026 -0.11101928 -0.05551607 0.22601911
-0.10192844 -0.1287033 -0.21247542 -0.26648203 -0.16143312 -0.16315494 0.30329296 0.01679175
-0.013144041 0.14194636 0.2975694 -0.15800214 -0.020035462 0.2505213 0.10521443 0.32335988
-0.03896827 -0.22716 -0.16912737 0.074750274 -0.20603101 0.19108249 -0.28799772 0.050221812
0.18648176 -0.0564837 0.29961294 0.073165804 0.1496413 -0.12036524 -0.078167714 0.03550827
-0.15661636 -0.09448583 0.120294586 -0.24411805 0.28439018 0.1832791 -0.24343544 -0.032276046
00000000: 3788 9abd 1794 18be dbc0 5dbe 7e74 003e
00000010: c7a3 a73e edcd efbd d448 c9bd 7b84 d03d
00000020: 7b04 fb3d 330b b4be 2430 a43d aaf3 9c3d
00000030: 879e 08bd 2717 7bbe e540 ec3d 40d1 0ebe
00000040: bef8 b83e c3b3 833e 8528 6e3e ec9d c1bd
00000050: 0542 52be d5f6 15bd 9b87 f9bd b63f 8b3d
00000060: 2f5a 903e 2af2 efbd 18bb 893e f1fd 23be
00000070: 250d 803e 82b0 d73d 652c 9bbc 3ad4 1ebe
00000080: 8765 7f3e 3bd3 9b3e b1f0 913e e0fb 823e
00000090: e9d3 253e 54aa 9ebe 197f 543e 21fa 763e
000000a0: 0947 003e 771e a73d d6ab bbbd 07df 04be
000000b0: d322 013c 8443 6b3e 3201 5abe 8df4 663d
000000c0: afdf 9e3c ee18 4e3b 1ea2 3d3e 2965 2bbe
000000d0: aa9d 30be 4f9a 5a3e f7c0 9f3e 4744 45be
000000e0: 063d 36bc 43de d93d fb43 753e f139 28be
000000f0: da19 c3bd e49e 6a3d efde cd3d 0e0e 993e
00000100: 2594 1c3e bb5c 91be f35d 66be 1a2a c4bd
00000110: 4cb2 073e 7d5d 4d3e b1c5 37be 1bcf 39be
00000120: e78c 4bbc 475a a3be f86e 963e 24ae 173d
00000130: ae87 ef3c e9d9 c0be 4a26 66bd 0fa9 96be
00000140: 2956 9ebc b4f0 963e 3d34 983e df48 933e
00000150: 0ecc 5cbe 81a4 803d 7c54 7a3e 9a58 973e
00000160: bf6c 5bbd 610c 803e 708b 2c3e 6ee6 d13d
00000170: 072b 0bbe a86e 8ebe 8810 20be 5da7 093e
00000180: 0c1c 20be ef08 8dbd d52f 723e 2e4b 8cbe
00000190: ba61 79be 9baf 2abe 1339 7b3e ec6e 0b3e
000001a0: c634 173e 6aef 8cbe c172 58be bc9e 193e
000001b0: ab05 5fbd fc9a a83d 367d b2bd fcd3 313e
000001c0: 0a2d 2a3e 7481 7e3c e6e2 943e 3182 c9bd
000001d0: ad8c 43be a7df 0d3d 7afc 77be 735a 5f3c
000001e0: d242 1e3c 47be 9abe f687 9f3e d3e4 85be
000001f0: 4c3c a13e 4ec3 90bd 567d 14be 046b 78be
00000200: b694 4d3e 9a2c 733e 5b48 e4bd 5ab1 68be
00000210: 39ab 7cbe 1e6d 473e 59e1 633e d724 ab3d
00000220: f020 553e 50c7 5f3e 96fa 57be 3e79 83bd
00000230: edc8 a8bc a0fe 7dbe 15cb 32be 7bf7 443e
00000240: a051 1ebe a611 01bd 7737 783e e8a6 bc3c
00000250: 59e9 2ebd 95b6 743e 431a a0be 4098 04bd
00000260: 5cf6 bbbb cf0b 33bd 62d0 343c 7d95 7cbe
00000270: 1730 473c 4565 d9bd 47f6 96be c5f6 7d3c
00000280: 7aad c5bc e3b3 bc3d cc79 0abe 1d84 833d
00000290: ce9d 3dbe 2dec 14bc 724a 803e 704d 0ebe
000002a0: a2da 423e aad8 0abe 14fa 0f3e 26cf f0bd
000002b0: 9805 3b3e 1437 a2be 338e 77be 5ce4 223e
000002c0: 801f ba3d 0ad3 82be 3777 f1bd 451c 543e
000002d0: 6236 943e 6c6b 8b3e 1fd8 ec3d 087c 093e
000002e0: 7ee0 8fbe b2a0 3fbd d2a6 c5bd 4d61 213e
000002f0: 19a1 26be a38f 9c3e 1d1b 803e 07cc 843d
00000300: 1f23 c23d f55d 953e 7a70 883e 0f3f a9bd
00000310: 07f3 4dbe 7dd4 87be 4245 51be 6d83 843d
00000320: 21f2 9f3e f1d8 233d 2e49 723e 8212 343e
00000330: 0016 7b3d 57e2 9f3e acdb f03d 7292 c5bd
00000340: 9860 993d 7b79 90be 9059 ddbb 165f 253e
00000350: 5605 1c3d 145e e3bd d264 63bd 8e71 673e
00000360: dcbf d0bd ccca 03be 2893 59be 5570 88be
00000370: b94e 25be 1712 27be 3749 9b3e da8e 893c
00000380: 1b5a 57bc 635a 113e 045b 983e 50cb 21be
00000390: 6921 a4bc 5444 803e aa7a d73d 6d8f a53e
000003a0: 319d 1fbd a29c 68be ba2f 2dbe ac16 993d
000003b0: cbf9 52be 21ab 433e 7074 93be 63b5 4d3d
000003c0: 13f5 3e3e 745b 67bd de66 993e f4d7 953d
000003d0: 923b 193e 0d82 f6bd 6516 a0bd 1f71 113d
000003e0: 0a60 20be c981 c1bd 025d f63d 15fa 79be
000003f0: 979b 913e 84ad 3b3e 2447 79be e333 04bd

lstm.bias_ih_l1 f4 [40]
0.23969783 0.028434018 0.26869017 -0.19687086 -0.14591481 -0.13151965 0.21030174 0.17841604
0.29498947 -0.11738529 0.037516296 0.10446931 -0.13025069 0.19045953 0.044071354 -0.13705255
-0.16539998 0.18192594 -0.03861148 0.18780307 -0.16910815 -0.13419537 0.07225196 -0.21337618
0.29294664 -0.26644778 0.28402093 -0.02549336 0.0988415 0.08361378 -0.011443156 0.106721565
-0.23847273 0.18322717 -0.2879737 -0.20937747 -0.018487355 0.061669607 0.013013219 -0.031620886
00000000: 5973 753e 75ee e83c c291 893e 8498 49be
00000010: b16a 15be 16ad 06be 5759 573e b2b2 363e
00000020: dc08 973e b367 f0bd b0aa 193d 01f4 d53d
00000030: 7060 05be d307 433e 2a84 343d 8157 0cbe
00000040: 9d5e 29be cb4a 3a3e 1227 1ebd 734f 403e
00000050: b02a 2dbe 836a 09be d6f8 933d 497f 5abe
00000060: 1afd 953e d86b 88be 316b 913e 73d7 d0bc
00000070: 6a6d ca3d b43d ab3d 137c 3bbc d690 da3d
00000080: 3232 74be e79f 3b3e 4a71 93be 0c67 56be
00000090: cb72 97bc 4599 7c3d 6635 553c e784 01bd

lstm.bias_hh_l1 f4 [40]
-0.17075811 -0.08426574 -0.17817247 -0.17568219 -0.17639299 0.13748798 0.17375113 -0.14319658
0.084044024 0.19655953 -0.20992374 -0.13628809 -0.019660259 -0.14215381 -0.06387503 -0.045541152
0.014746154 -0.26191464 -0.28146836 -0.15261903 0.25745627 0.19920284 0.24860033 -0.26945013
-0.00071930664 0.042546317 0.052215472 0.22418539 0.210372 -0.21072286 -0.048608594 -0.023772204
0.36076447 -0.013273948 -0.23060526 -0.20249161 0.11452934 0.27289242 -0.10215495 -0.12288454
00000000: 37db 2ebe 8493 acbd d872 36be 08e6 33be
00000010: 5da0 34be a6c9 0c3e d1eb 313e 20a2 12be
00000020: 461f ac3d e746 493e 40f6 56be 1b8f 0bbe
00000030: 8d0e a1bc c590 11be e9d0 82bd 5c89 3abd
00000040: da99 713c ad19 86be 9f1c 90be 2a48 1cbe
00000050: 4fd1 833e d4fb 4b3e 1691 7e3e 5ef5 89be
00000060: da8f 3cba 0c45 2e3d e4df 553d db90 653e
00000070: c26b 573e bcc7 57be ce19 47bd edbd c2bc
00000080: 1fb6 b83e f97a 59bc c923 6cbe f659 4fbe
00000090: 5c8e ea3d 8eb8 8b3e 9d36 d1bd e4aa fbbd

fc.weight f4 [1, 300]
0.013665482 -0.012542182 0.0386705 0.034018558 0.0019739366 0.040641773 0.0553341 -0.063611776
-0.003145478 -0.039767824 0.028898155 0.07102401 -0.0029543133 -0.044228688 0.010732561 0.014755372
0.035042565 0.05467922 0.04585482 -0.0066086366 0.043270264 0.07251606 0.0385164 0.040950555
-0.003696902 -0.051326454 -0.0027628252 -0.032878287 -0.013075562 0.025262997 0.04502239 -0.018910812
0.055477075 0.03313579 0.055950858 -0.06332513 -0.013634176 -0.031420626 0.027459078 -0.05706388
-0.051239815 0.057889536 0.0061135413 0.023131384 -0.015885143 0.0025049741 0.065304615 -0.035942897
0.057642046 -0.0035614676 0.008356046 0.015578587 0.05197018 -0.016038906 0.034334656 -0.039250094
-0.047674086 0.05214388 -0.027986338 -0.00017294241 -0.037276816 0.05250455 0.04055361 0.022876156
-0.045232724 -0.02847201 0.011068027 0.06449626 0.0099216765 -0.052376132 0.019633494 0.03931642
-0.035199482 -0.024867177 -0.021567265 -0.04017875 0.06060698 -0.0044173696 0.010973661 0.030020012
0.029315572 0.0053077 0.04587299 -0.03870791 -0.02050813 -0.038755182 0.016773527 -0.046757095
0.06868928 -0.05257731 0.04317312 0.018537942 0.0558737 0.010770881 0.027930154 -0.063225806
0.05196537 0.045483876 -0.0149706295 0.024400948 0.023958901 0.052160807 -0.020267349 0.024812378
0.043796707 0.017399402 -0.03601152 0.061177067 0.04194617 -0.042489503 -0.04892623 0.031216213
0.017024709 0.02661929 0.044128958 -0.016722212 -0.030386679 0.009872226 0.014789136 0.025268488
-0.04771008 0.021911612 -0.0032869014 -0.027405605 -0.014222471 -0.027573965 0.020356908 0.019106887
-0.010040076 0.0051236064 -0.013655864 0.00991171 0.06282159 0.047506712 -0.04041204 0.019009644
0.031349327 0.003605193 0.057841856 -0.013638055 -0.03255541 0.021322533 0.013935297 -0.05484317
0.02083918 -0.042195868 -0.03814967 0.036230568 0.061956536 -0.016926248 -0.0120809125 0.06406907
0.015030132 0.0073637427 -0.029412316 0.049001556 -0.026235888 0.045648325 0.0074508856 -0.010363146
-0.05906244 -0.026037477 0.018912062 0.014950715 0.020507164 -0.029920997 -0.040208563 0.022133477
0.0687777 -0.01687693 0.01819346 -0.02473622 0.036735523 0.03489825 -0.0035275212 -0.008831249
-0.0024591505 -0.0475507 -0.03974743 -0.042264797 -0.014438263 -0.06759606 -0.016631307 -0.024819046
0.07695574 0.03848693 0.019742057 -0.030825246 -0.008806926 0.037598614 -0.067985214 0.0027845488
0.07242947 -0.029366836 0.050820753 0.01335832 0.008878292 0.051909618 -0.020862762 0.043888763
-0.008528016 0.01701034 0.008395874 0.014336708 0.029254077 -0.0040765963 -0.008747629 -0.057273142
0.0057848115 0.04006968 -0.033133265 -0.064790785 0.07211215 0.003797353 -0.019961847 0.027845772
0.025586713 -0.055960968 0.032507475 0.012891191 -0.05783761 0.018268695 0.03565479 0.00077428453
0.012304647 -0.0036994866 0.00536606 -0.017170528 -0.016655274 -0.035190742 -0.05478047 -0.084905386
0.027626853 -0.04026105 -0.016960908 -0.05301627 0.012261162 -0.017779768 0.06252167 0.02028188
-0.06882128 -0.0020772193 0.07411754 0.032957952 0.065352336 0.005953417 0.041554667 -0.09381099
-0.032299623 -0.008715741 -0.004434678 -0.054388173 0.056589548 0.020447908 0.019017477 -0.04553145
00000000: 30e5 5f3c b97d 4dbc f564 1e3d 0b57 0b3d
00000010: 295d 013b fd77 263d 02a6 623d e446 82bd
00000020: 5d24 4ebb 96e3 22bd d3bb ec3c 0975 913d
00000030: 279d 41bb 2429 35bd a0d7 2f3c 84c0 713c
00000040: cb88 0f3d 51f7 5f3d 44d2 3b3d 438d d8bb
00000050: 293c 313d 4d83 943d 5fc3 1d3d c5bb 273d
00000060: b947 72bb b03b 52bd 8410 35bb 62ab 06bd
00000070: e23a 56bc 58f4 ce3c 6669 383d d9ea 9abc
00000080: ee3b 633d 65b9 073d ba2c 653d 9bb0 81bd
00000090: e161 5fbc eab2 00bd dcf1 e03c d1bb 69bd
000000a0: d7e0 51bd 941d 6d3d 1a54 c83b 077e bd3c
000000b0: 8f21 82bc 7e2a 243b 6dbe 853d dc38 13bd
000000c0: 111a 6c3d 8367 69bb cce7 083c 543d 7f3c
000000d0: afde 543d 0664 83bc 7fa2 0c3d b5c4 20bd
000000e0: e745 43bd d294 553d 9b43 e5bc e057 35b9
000000f0: 93af 18bd 030f 573d 8b1b 263d c766 bb3c
00000100: f345 39bd 223e e9bc ab56 353c 9d16 843d
00000110: 878e 223c 5b88 56bd 6cd6 a03c 410a 213d
00000120: 552d 10bd 40b6 cbbc d5ad b0bc 7992 24bd
00000130: 063f 783d 95bf 90bb dfca 333c 87ec f53c
00000140: 3627 f03c 37ec ad3b 51e5 3b3d 2f8c 1ebd
00000150: aa00 a8bc c1bd 1ebd a368 893c 5e84 3fbd
00000160: f7ac 8c3d 4e5b 57bd 4cd6 303d e2dc 973c
00000170: d2db 643d 5978 303c c7cd e43c 887c 81bd
00000180: a4d9 543d 4d4d 3a3d 5f47 75bc 7fe4 c73c
00000190: 7545 c43c 92a6 553d b607 a6bc 5443 cb3c
000001a0: 2d64 333d 3189 8e3c d180 13bd ce94 7a3d
000001b0: bfcf 2b3d 7909 2ebd df66 48bd 25b9 ff3c
000001c0: 6777 8b3c b210 da3c 91c0 343d 05fd 88bc
000001d0: 7ced f8bc 1ebf 213c 224e 723c dcff ce3c
000001e0: a56b 43bd fb7f b33c 0e69 57bb b881 e0bc
000001f0: 5e05 69bc cce2 e1bc 88c3 a63c 0c86 9c3c
00000200: 227f 24bc ede3 a73b d8bc 5fbc ba64 223c
00000210: 9ba8 803d 6696 423d 1887 25bd 1dba 9b3c
00000220: 2768 003d 1a45 6c3b 95eb 6c3d 2672 5fbc
00000230: d258 05bd 98ac ae3c df50 643c 3ba3 60bd
00000240: eeb6 aa3c 93d5 2cbd d442 1cbd 8166 143d
00000250: 23c6 7d3d eaa8 8abc 05ef 45bc a536 833d
00000260: f140 763c 8d4b f13b 19f2 f0bc dbb5 483d
00000270: a5ec d6bc bdf9 3a3d 8f26 f43b 2fca 29bc
00000280: 75eb 71bd 8c4c d5bc 78ed 9a3c d8f3 743c
00000290: a4fe a73c e11c f5bc bcb1 24bd 4451 b53c
000002a0: 53db 8c3d 7d41 8abc 730a 953c 9da3 cabc
000002b0: fd77 163d 78f1 0e3d fc2d 67bb f1b0 10bc
000002c0: b329 21bb 86c4 42bd 33ce 22bd da1d 2dbd
000002d0: 778e 6cbc ce6f 8abd 613e 88bc 5051 cbbc
000002e0: f99a 9d3d 79a4 1d3d 18ba a13c 3a85 fcbc
000002f0: ed4a 10bc 0101 1a3d d53b 8bbd fa7c 363b
00000300: e755 943d b892 f0bc 6c29 503d dbdc 5a3c
00000310: 4176 113c 2e9f 543d 62e8 aabc b4c4 333d
00000320: 17b9 0bbc 4559 8b3c d98e 093c 83e4 6a3c
00000330: 3fa6 ef3c f894 85bb 3752 0fbc 3e97 6abd
00000340: 848e bd3b 1b20 243d bfb6 07bd 08b1 84bd
00000350: 89af 933d 03dd 783b 0787 a3bc d11c e43c
00000360: 3a9b d13c 5437 65bd 8f26 053d 9335 533c
00000370: 21e7 6cbd 3ba8 953c c20a 123d 5bf9 4a3a
00000380: 6e99 493c 1673 72bb c6d5 af3b 35a9 8cbc
00000390: a470 88bc 2b24 10bd 7c61 60bd e0e2 adbd
000003a0: b651 e23c c5e8 24bd 9af1 8abc 9727 59bd
000003b0: 0ae3 483c e0a6 91bc 5c0b 803d 2f26 a63c
000003c0: 2cf2 8cbd f521 08bb f0ca 973d ebfe 063d
000003d0: 72d7 853d e214 c33b 3a35 2a3d fa1f c0bd
000003e0: 9c4c 04bd 78cc 0ebc c650 91bb 22c6 5ebd
000003f0: 71ca 673d 5f82 a73c 8aca 9b3c 307f 3abd

exp_avg f4 [40, 30]
0.0010795862 0.00023295292 2.3078082e-05 1.9739146e-06 9.599527e-06 1.5452475e-05 -3.2058256e-06 8.742508e-06
1.5191241e-05 4.3240766e-06 -9.2558885e-08 8.028823e-06 1.9145242e-05 -2.0295086e-06 -7.845257e-07 2.5875706e-06
6.4094806e-06 1.683948e-05 2.7505457e-06 -4.3088617e-06 -1.1087924e-05 1.6678487e-05 1.4743939e-05 4.4725984e-06
4.3101414e-07 3.7417934e-07 1.6633427e-06 -1.8869775e-06 1.3180673e-08 1.2084856e-06 -0.00023740085 -5.363955e-05
-5.8194014e-06 -1.3617347e-08 -4.5217425e-06 -1.3112767e-06 7.472597e-08 -1.0840948e-06 -5.0130084e-06 1.893577e-07
-6.623967e-08 -5.751748e-07 -7.5152857e-06 2.3236823e-06 2.775987e-08 -1.8347332e-07 -4.4732693e-07 -5.2299806e-06
-1.0804862e-08 1.993227e-08 2.1814972e-07 -1.0725076e-06 -1.1272936e-06 -4.021575e-06 7.098996e-08 -9.227322e-08
-5.927735e-08 2.768134e-07 -9.695682e-11 -3.5077335e-08 -0.0058583375 -0.0011092353 -0.00011986798 -4.815783e-06
-0.00011344145 -1.1242577e-05 1.7190741e-05 -8.207201e-05 -0.00010684051 4.7037873e-05 3.3487533e-05 -4.6558107e-06
-0.00013061208 -2.2903336e-05 -1.9172629e-05 3.909713e-05 1.09811635e-05 -0.00015558941 -1.8223975e-05 8.1410384e-05
2.8338703e-05 2.6690319e-05 -0.00025685068 3.9330276e-05 -1.1137119e-05 6.538003e-06 -1.0677727e-05 6.1171872e-06
-7.040098e-06 -9.179048e-06 -1.795617e-10 -5.540189e-11 -6.958052e-12 -1.0939588e-37 8.324907e-12 -1.5282931e-11
1.6435778e-14 1.6118324e-11 -8.835466e-12 -1.4257306e-11 2.7500173e-14 1.7902466e-11 -1.8689175e-11 -6.198813e-12
4.2672263e-14 -2.428124e-13 1.9804094e-11 -2.656199e-11 6.148362e-14 -7.064655e-14 4.4963518e-14 1.8629253e-11
7.335646e-12 -1.1659844e-13 1.6688206e-12 -6.759671e-14 -3.3836833e-11 -7.07888e-13 5.092887e-14 5.0420243e-14
-0.0010869878 -0.00019750843 -2.4178615e-05 1.43410025e-05 -1.2874658e-05 3.0370616e-06 -5.577767e-05 9.398828e-06
1.162564e-05 2.4915587e-05 -2.673011e-05 1.0336437e-05 1.1113039e-05 -4.556966e-06 -3.8286566e-05 1.3032058e-05
-4.7996145e-06 2.0216521e-05 5.1479115e-06 1.5763948e-05 -9.74483e-05 6.330281e-05 -2.8438497e-05 2.1509057e-05
-1.9252312e-07 3.213573e-07 1.356201e-06 -3.8438984e-06 -7.355951e-07 1.3419921e-05 0.0002170011 4.9995622e-05
5.1550132e-06 -7.862891e-09 4.689268e-06 4.578833e-07 1.5267582e-07 1.5675163e-06 4.3150267e-06 -8.880701e-07
1.2180277e-07 1.0428313e-06 6.1544224e-06 -2.1719043e-06 3.2952459e-09 4.309369e-07 6.416294e-07 4.0712903e-06
-2.0405226e-07 2.2916328e-07 6.970634e-08 -6.018086e-08 3.9706115e-06 9.919049e-07 2.6684808e-07 4.5738872e-08
-1.252508e-07 -1.1983871e-09 -3.378638e-08 -2.3544335e-09 -4.2675565e-09 -9.59147e-10 -1.0185912e-10 0.0
-1.2740231e-10 2.5543206e-11 -1.7857249e-12 -2.2862713e-11 -8.1174255e-11 3.9635656e-12 -4.4718268e-14 4.0863216e-11
-1.9572197e-10 5.3044343e-11 0.0 -1.9367466e-12 6.4075893e-13 -1.00563155e-10 -1.1089369e-37 1.1112086e-37
-4.881261e-13 5.385101e-12 2.9029882e-12 -9.253512e-11 5.468196e-13 -2.2861367e-11 4.4924646e-12 6.6728095e-13
3.0881436e-14 0.0 -0.00010518706 -2.3472894e-05 -2.5524973e-06 -2.435636e-09 -1.7732675e-06 -7.8166676e-07
1.0796666e-08 -7.6381804e-07 -1.67586e-06 -1.2605324e-07 1.0898613e-07 -4.7077572e-07 -2.7410679e-06 5.479229e-07
2.3852314e-08 -1.2853486e-07 -2.6853442e-07 -2.1817168e-06 1.9742124e-08 3.450956e-08 1.2814111e-07 -5.413656e-07
-9.83755e-07 -1.2127604e-06 2.29877e-09 -6.452412e-08 -3.5404113e-08 8.2876696e-08 1.3886406e-08 1.4203881e-09
5.378721e-05 4.7473986e-06 4.530807e-07 5.4711893e-09 -2.3763182e-06 2.8348722e-06 2.0673198e-07 -2.8953139e-06
3.8872795e-06 -7.401519e-07 4.848379e-08 -1.4755083e-06 2.404357e-06 -5.187812e-07 7.3775325e-08 2.9895418e-07
00000000: e780 8d3a d344 7439 ce97 c137 9877 0436
00000010: a80d 2137 f09f 8137 aa23 57b6 c9ac 1237
00000020: e2dd 7e37 8917 9136 c9c4 c6b3 88b3 0637
00000030: 189a a037 b132 08b6 3298 52b5 20a6 2d36
00000040: 0511 d736 8242 8d37 0496 3836 d794 90b6
00000050: 4506 3ab7 c7e8 8b37 bc5c 7737 5413 9636
00000060: 2266 e734 d1e2 c834 0540 df35 0e44 fdb5
00000070: 3771 6232 4033 a235 ceee 78b9 07fb 60b8
00000080: 4744 c3b6 baf1 69b2 79b9 97b6 20ff afb5
00000090: 0979 a033 3781 91b5 6a35 a8b6 4052 4b34
000000a0: a53f 8eb3 b665 1ab5 d02b fcb6 8ff0 1b36
000000b0: 9a74 ee32 c300 45b4 2528 f0b4 317d afb6
000000c0: 49a0 39b2 8637 ab32 8a3c 6a34 15f3 8fb5
000000d0: 834d 97b5 11f1 86b6 2573 9833 bd27 c6b3
000000e0: 2398 7eb3 f29c 9434 d635 d5ae f0a7 16b3
000000f0: 4cf7 bfbb c363 91ba a261 fbb8 4397 a1b6
00000100: 6ae7 edb8 809e 3cb7 d634 9037 131e acb8
00000110: 900f e0b8 884a 4538 f774 0c38 1c39 9cb6
00000120: eaf4 08b9 8a20 c0b7 e8d4 a0b7 39fc 2338
00000130: bd3b 3837 b725 23b9 b0df 98b7 deba aa38
00000140: e7b8 ed37 06e5 df37 eaa9 86b9 90f6 2438
00000150: 90d9 3ab7 0561 db36 7d24 33b7 3d42 cd36
00000160: fb39 ecb6 b6ff 19b7 206e 45af fca8 73ae
00000170: 90d0 f4ac e7e6 1482 0c74 122d 1a6e 86ad
00000180: 530a 9428 3dc7 8d2d 676f 1bad 33d1 7aad
00000190: 15b3 f728 c578 9d2d 4864 a4ad f219 daac
000001a0: c52d 4029 f4b0 88aa db32 ae2d 49a4 e9ad
000001b0: e572 8a29 f714 9fa9 687f 4a29 59dd a32d
000001c0: d00c 012d 3647 03aa 99dd ea2b da36 98a9
000001d0: e3d0 14ae b540 47ab fd5c 6529 9512 6329
000001e0: 4279 8eba 441a 4fb9 2ed3 cab7 239a 7037
000001f0: 3c00 58b7 52d0 4b36 d1f2 69b8 a9af 1d37
00000200: be0b 4337 d101 d137 793a e0b7 a96a 2d37
00000210: 2472 3a37 0ae8 98b6 e395 20b8 43a4 5a37
00000220: 600c a1b6 a696 a937 39bc ac36 d23c 8437
00000230: 285d ccb8 70c1 8438 358f eeb7 596e b437
00000240: 5ab8 4eb4 0387 ac34 b606 b635 d6fa 80b6
00000250: b675 45b5 1f26 6137 ca8a 6339 64b2 5138
00000260: 3af9 ac36 5c15 07b2 8158 9d36 00d3 f534
00000270: 36ef 2334 7363 d235 ccc9 9036 b663 6eb5
00000280: e4c8 0234 69f7 8b35 1682 ce36 08c1 11b6
00000290: 9472 6231 845b e734 703c 2c35 1e9c 8836
000002a0: 7519 5bb4 ec0f 7634 77b1 9533 c73c 81b3
000002b0: 4b3b 8536 9821 8535 5243 8f34 6c72 4433
000002c0: ae7c 06b4 7fb4 a4b0 851c 11b3 a2cb 21b1
000002d0: d3a1 92b1 fcd2 83b0 96fd dfae 0000 0000
000002e0: 9014 0caf 30ae e02d 8551 fbab 411a c9ad
000002f0: 0b81 b2ae a074 8b2c a764 49a9 e4b7 332e
00000300: d632 57af 9f4a 692e 0000 0000 5349 08ac
00000310: 8c5b 342b 0624 ddae d0f0 1682 f83f 1702
00000320: 3165 09ab ad78 bd2c 9647 4c2c a47c cbae
00000330: 81ea 192b 3917 c9ad 8610 9e2c a9d2 3b2b
00000340: df13 0b29 0000 0000 df97 dcb8 a8e7 c4b7
00000350: 924b 2bb6 2960 27b1 0201 eeb5 bbd3 51b5
00000360: 3d7c 3932 2d09 4db5 1cee e0b5 4059 07b4
00000370: c20b ea33 ecbe fcb4 30f3 37b6 fa14 1335
00000380: cbe3 cc32 6503 0ab4 172b 90b4 9c69 12b6
00000390: 6495 a932 aa37 1433 2997 0934 5c52 11b5
000003a0: 9009 84b5 21c6 a2b5 64f8 1d31 8390 8ab3
000003b0: 3c0f 18b3 f2f9 b133 0f91 6e32 7737 c330
000003c0: 9499 6138 d84b 9f36 f03e f334 17fd bb31
000003d0: d678 1fb6 bc3e 3e36 0efa 5d34 1d4d 42b6
000003e0: 7a6f 8236 daae 46b5 7e3c 5033 140a c6b5
000003f0: 8a5a 2136 5f42 0bb5 6a6e 9e33 f37f a034

exp_avg_sq f4 [40, 30]
0.00020389455 8.175453e-06 6.3543666e-08 2.697377e-10 1.3742204e-08 2.6187791e-08 1.2960496e-08 8.099704e-09
9.531036e-09 3.8929198e-09 1.28909425e-08 6.958597e-09 8.495318e-09 3.8568198e-09 6.0271104e-09 1.8428563e-09
1.1143844e-08 1.5496262e-08 7.888043e-09 1.601698e-09 8.334617e-09 4.6137947e-09 5.788623e-09 8.639547e-10
1.1725207e-09 9.317543e-10 4.3774144e-09 9.110894e-09 8.8825103e-10 1.3039193e-09 3.8450835e-06 1.868184e-07
2.2020168e-09 3.5328853e-14 8.021307e-10 5.042033e-10 9.939118e-12 1.444187e-10 3.7530135e-10 7.9891055e-10
3.3951793e-11 1.2684843e-10 5.227038e-10 7.15193e-10 1.7175207e-12 1.0260327e-11 1.4008207e-10 1.6198011e-09
2.417123e-12 1.7269418e-12 5.4478914e-11 1.1876651e-10 2.647604e-10 3.8418363e-10 8.3041705e-11 3.5910352e-10
1.7020417e-10 1.5008077e-10 9.863855e-13 2.821045e-13 0.014318063 0.0005591425 5.2052806e-06 2.3725206e-09
1.3288263e-06 1.6685389e-06 7.466642e-07 3.5587897e-07 9.1151e-07 7.0461454e-07 6.8331366e-07 1.06642666e-07
1.6514706e-06 6.595935e-07 1.7131143e-07 2.2413651e-07 1.933222e-07 3.0428864e-06 1.0514668e-07 1.2219714e-07
5.036149e-07 2.6898988e-07 7.0086134e-07 1.6966216e-07 3.0332254e-07 1.5370368e-07 2.4663476e-07 1.1449321e-06
2.1848052e-08 6.546186e-08 6.250287e-16 4.298386e-17 5.3488606e-19 2.5716858e-28 3.9524654e-19 7.760463e-20
1.2827043e-23 3.2421599e-21 1.1736669e-19 4.0034833e-19 4.2568146e-23 4.030989e-20 3.1850297e-19 7.844304e-20
2.1688542e-25 7.811379e-24 2.8098568e-21 5.2542983e-19 6.126801e-25 8.545682e-25 1.3838539e-22 2.55616e-21
7.400052e-21 2.9399967e-22 1.3154922e-20 3.099103e-20 4.5924463e-19 1.1351488e-21 3.2214423e-24 4.0201224e-25
0.002140133 8.7307e-05 3.780047e-07 2.7039505e-08 1.6006793e-07 1.9684333e-07 3.7464588e-07 6.6144935e-08
2.5487685e-08 6.600044e-09 3.804643e-07 2.9862655e-08 2.5416243e-08 2.0223572e-09 2.7502315e-07 3.8678294e-08
3.8027643e-08 2.686293e-08 2.7868987e-07 9.3454446e-08 1.2769631e-07 2.85364e-08 6.7790564e-09 1.0241e-08
1.4896402e-10 1.0731792e-10 1.3383482e-09 2.8303909e-08 2.8354133e-08 9.535352e-09 2.4051194e-06 1.1873849e-07
1.4329863e-09 6.7517098e-15 6.6363576e-10 2.0148651e-10 7.711504e-12 4.1759613e-11 4.7027077e-10 4.4417206e-10
2.7415715e-12 6.867533e-11 4.2219553e-10 4.6752796e-10 3.219227e-13 5.654014e-13 5.3585518e-11 1.1490419e-09
5.3571344e-12 9.68889e-13 4.1286033e-12 7.968306e-12 2.3057728e-10 2.899131e-10 1.5241942e-10 9.4025746e-11
9.5023295e-11 1.173857e-10 9.6818475e-14 7.122693e-13 4.2339404e-15 2.3550068e-16 3.1362669e-18 0.0
2.904167e-18 1.8216257e-19 3.147092e-22 1.9904046e-20 2.647348e-19 2.4197818e-18 1.3809781e-22 1.3362994e-19
1.8443874e-19 2.6814017e-18 0.0 9.1691076e-23 1.4007128e-20 3.0980276e-18 4.1923293e-25 5.166362e-34
7.436466e-21 3.418962e-21 5.8277144e-19 1.530151e-19 1.937144e-19 1.2643415e-18 5.480802e-20 1.6612514e-21
2.6245334e-23 0.0 3.8551934e-07 1.752697e-08 1.9641289e-10 1.4455284e-15 8.084497e-11 3.9575676e-11
8.826425e-13 1.5650805e-11 5.8863275e-11 4.163336e-11 1.8763192e-12 2.168546e-11 5.082152e-11 3.1994008e-11
1.750669e-13 7.8604793e-13 1.3692453e-11 1.256291e-10 1.6763027e-13 1.0486647e-12 1.1085427e-11 4.6523267e-12
5.2739535e-11 1.5646638e-11 1.3512438e-12 1.4438615e-11 3.4603008e-11 2.2697165e-11 1.7717532e-13 5.1724196e-14
1.055166e-06 5.969087e-08 6.829055e-10 1.6508692e-15 3.895702e-10 7.223783e-11 1.6854442e-12 1.0728398e-10
1.0371304e-10 2.0828014e-10 8.1649775e-13 2.2561997e-10 7.725215e-11 1.5159904e-10 4.430956e-14 7.482037e-13
00000000: 87cc 5539 4e29 0937 8075 8833 354a 942f
00000010: da16 6c32 90f3 e032 dda8 5e32 e026 0b32
00000020: f1bd 2332 7cc2 8531 f776 5d32 7718 ef31
00000030: cef2 1132 f284 8431 0617 cf31 be47 fd30
00000040: 2573 3f32 a41c 8532 fb83 0732 bd22 dc30
00000050: 0930 0f32 5e87 9e31 44e5 c631 687b 6d30
00000060: 6826 a130 310f 8030 2568 9631 2386 1c32
00000070: 1c29 7430 9535 b330 0405 8136 4098 4834
00000080: 4a52 1731 651b 1f29 ee7c 5c30 2798 0a30
00000090: cfd9 2e2d 40ca 1e2f f852 ce2f 559a 5b30
000000a0: 5252 152e a978 0b2f 03ae 0f30 3c97 4430
000000b0: 34b8 f12b 6880 342d 9905 1a2f af9f de30
000000c0: 0417 2a2c a30b f32b ce99 6f2e cd95 022f
000000d0: b78d 912f 0a35 d32f 539c b62e 546b c52f
000000e0: 3724 3b2f fb03 252f 48d2 8a2b 8bcf 9e2a
000000f0: 4f96 6a3c 6b93 123a 05a9 ae36 d309 2331
00000100: 205a b235 8ff2 df35 606e 4835 a20f bf34
00000110: 7eae 7435 be24 3d35 f56c 3735 6d03 e533
00000120: 19a8 dd35 ec0e 3135 baf1 3734 2daa 7034
00000130: 0094 4f34 6434 4c36 00cd e133 4b35 0334
00000140: 2730 0735 b069 9034 d322 3c35 612c 3634
00000150: 55d8 a234 bf09 2534 3969 8434 91ab 9935
00000160: 60ac bb32 0a94 8c33 fa26 3426 633a 4624
00000170: d9de 1d21 fdff a211 f84f e920 1f3d b71f
00000180: 711c 7819 7ef8 741d e88f 0a20 ee52 ec20
00000190: d0d8 4d1a ab5b 3e1f cf02 bc20 e937 b91f
000001a0: de3e 8616 1318 1719 894e 541d 5b14 1b21
000001b0: 859d 3d17 ef3c 8417 344c 271b 5323 411d
000001c0: 75c8 0b1e 3fb6 b11b 4d7d 781e db59 121f
000001d0: 8b8b 0721 f189 ab1c 3d3f 7918 62d5 f816
000001e0: 7941 0c3b 9718 b738 92f0 ca34 8044 e832
000001f0: 23df 2b34 e25b 5334 f022 c934 900b 8e33
00000200: 03f0 da32 9ac6 e231 9d42 cc34 5642 0033
00000210: e952 da32 aff9 0a31 e5a6 9334 3c1f 2633
00000220: d653 2333 35c0 e632 d89e 9534 20b1 c833
00000230: e51c 0934 3520 f532 36ed e831 65f0 2f32
00000240: a5c9 232f 9efe eb2e f1f0 b730 f420 f332
00000250: 668f f332 ecd0 2332 a367 2136 2dfd fe33
00000260: b9f2 c430 8841 f327 376b 3630 6989 5d2f
00000270: 87a9 072d 25a9 372e 5d44 0130 a92f f42f
00000280: c3eb 402c c604 972e bd1a e82f 5b83 0030
00000290: f339 b52a 7725 1f2b eeab 6b2e 51ec 9d30
000002a0: c77c bc2c e85b 882b 2743 912c 0f2e 0c2d
000002b0: bc85 7d2f a461 9f2f 4196 272f cac3 ce2e
000002c0: 5cf5 d02e 2311 012f 0d04 da29 697c 482b
000002d0: 358b 9827 c4c1 8725 686a 6722 0000 0000
000002e0: 2a4a 5622 420f 5720 e43a be1b 08fd bb1e
000002f0: 9845 9c20 638c 3222 34f3 261b 2cc3 1d20
00000300: 30bf 5920 3fda 4522 0000 0000 07b2 dd1a
00000310: 284b 841e 1698 6422 0ebf 0117 8cae 2b08
00000320: 8b78 0c1e 2c2a 811d f700 2c21 faa5 3420
00000330: 96b2 6420 7995 ba21 6a69 811f 8d0a fb1c
00000340: 4dd4 fd19 0000 0000 60f9 ce34 378e 9632
00000350: 50f5 572f 9652 d026 acc7 b12e 400e 2e2e
00000360: 1871 782b 7baa 892d 1471 812e ff1a 372e
00000370: c308 042c 51bf be2d f283 5f2e 0db6 0c2e
00000380: 991b 452a b940 5d2b 54e1 702d 7321 0a2f
00000390: 23bc 3c2a 2196 932b 5304 432d 6fb0 a32c
000003a0: 70f3 672e 19a1 892d b02b be2b be01 7e2d
000003b0: 862f 182e 79a5 c72d 4f7b 472a f0f1 6829
000003c0: 3a9f 8d35 672f 8033 34b7 3b30 53ea ed26
000003d0: 222b d62f 48da 9e2e 8734 ed2b 83eb eb2e
000003e0: 4011 e42e a601 652f ddd2 652b 6012 782f
000003f0: 18e1 a92e 56af 262f 728d 4729 c299 522b
