timeSerise/logs/lightning_logs/version_11/checkpoints/epoch=199-step=3000.ckpt (torch, 46555 bytes, 27 tensors)

lstm.weight_ih_l0 f4 [40, 29]
000000 c2 ca 9f be 7c a0 cd 3c 38 df a5 3e a0 6b 93 3e
       -0.3120938 0.025100939 0.32396865 0.2879305
000010 b3 47 50 3e fb 58 92 be ee bb d3 3d 00 08 bf bd
       0.20339851 -0.28583512 0.10338579 -0.09327698
000020 f4 be 33 bd a8 b3 03 3e a2 9e cf 3d 6d f4 87 3e
       -0.04388328 0.12861502 0.10137679 0.2655367
000030 62 e9 3d 3e d0 7e cb 3d 9e db 5c 3e fc d0 34 be
       0.1854606 0.09936297 0.21568152 -0.17657846
000040 16 82 66 be f4 fc 8f 3e 7b 04 84 3e 8c cb 44 3e
       -0.22510561 0.28122675 0.25784668 0.19218272
000050 90 0a 1e 3e 09 61 0e be 24 5d 5c bd b4 bd 48 3e
       0.15433717 -0.13904203 -0.053799763 0.19603616
000060 2b f3 83 be ee f6 63 3e 21 00 85 bc fa ae f6 bd
       -0.2577146 0.22262165 -0.016235413 -0.12045093
000070 8f c4 80 3e 66 9c 63 3e bc 33 07 3e 2f e8 98 be
       0.25149962 0.2222763 0.13203329 -0.29864642
000080 af e1 2d 3e f4 2f 66 bd 69 0d 95 bd 11 c2 8c be
       0.16980623 -0.056198075 -0.072779484 -0.2749181
000090 ef 2d 1f 3e aa 13 36 bd 1a 2a 5b be 2c d6 85 be
       0.15544866 -0.044452347 -0.21402779 -0.26139963
0000a0 c7 f8 9f be 1a c2 e8 bd 53 25 e1 bd 55 b7 75 3d
       -0.3124449 -0.11365147 -0.10993447 0.059989292
0000b0 36 21 1a 3e 28 58 3e be 42 42 34 be 2d 7a 15 3e
       0.15051731 -0.18588316 -0.176034 0.14597388
0000c0 e3 01 0b 3e 79 e2 38 3e db a3 93 be ba 96 24 3e
       0.13574938 0.18055142 -0.2883595 0.16073123
0000d0 d3 a6 c6 bd 01 ec 61 be 68 66 99 3e 8d 89 3f bd
       -0.09699788 -0.22062685 0.29960942 -0.046762038
0000e0 67 7f 46 3e b3 6e b0 3e e7 ca e6 bb 34 21 54 be
       0.19384538 0.34459457 -0.007043231 -0.20715791
0000f0 22 93 fb 3c 4f c3 88 3e e1 70 4e bc 6a 4f b9 bd
       0.030709807 0.2671151 -0.012600155 -0.0904835
000100 84 ac 0a 3e 9f 98 b5 be f9 86 a6 be c1 09 6c 3e
       0.13542372 -0.35468003 -0.3252485 0.23050596
000110 52 47 b4 be 5e 43 4e be 11 84 fa bc 34 64 f3 3d
       -0.35210663 -0.20142886 -0.030580552 0.118843466
000120 9b 22 e2 3d ef 9e 83 3d 61 fc 06 3e 2c 5a 9f 3e
       0.11041757 0.064267986 0.13182212 0.31123483
000130 1a 21 95 3e e0 4e 4a be 11 7a 50 be 5b a6 01 3e
       0.29126817 -0.19756651 -0.20359065 0.12661116
000140 68 9e 6f be a6 10 be bc c6 c8 7c be d4 3c 82 bd
       -0.23400271 -0.023201298 -0.24685964 -0.06359258
000150 df dc 98 3d f6 1e 23 be 4a a7 ce bd ff 4b c6 3c
       0.07464003 -0.1592978 -0.100905016 0.02420616
000160 14 14 b5 3d c4 ae 02 bd 70 b8 97 be 36 78 90 3e
       0.0884172 -0.03190495 -0.29632902 0.28216714
000170 ef 70 1e 3c c1 21 00 3d bb bf a5 3d 8e 97 67 be
       0.00967048 0.03128219 0.0809321 -0.22616407
000180 f3 ff 89 be c8 96 d1 3d 1a 0a 4e 3e 96 ec 05 bd
       -0.26953086 0.10233837 0.20121041 -0.03269633
000190 48 23 50 be 41 8f 9e 3e c7 09 6f bd d9 65 cf bd
       -0.20325959 0.3096867 -0.058358934 -0.10126848
0001a0 d5 99 6d 3e c2 03 3c 3e 65 a0 8d 3e d1 87 5a 3e
       0.23203214 0.18360808 0.27661434 0.21340872
0001b0 52 e2 94 3e 50 fb 82 be a7 a3 5e bd 37 91 e0 bc
       0.2907892 -0.2558236 -0.05435529 -0.027412994
0001c0 60 cb b7 bc 08 93 df bd 84 5f 32 bc 0e 36 02 be
       -0.022435844 -0.10916716 -0.0108870305 -0.12715933
0001d0 8f d7 5f 3e a7 37 3f be b4 cc d6 bd 0a 9c 09 3e
       0.21859573 -0.18673573 -0.10488263 0.1343843
0001e0 90 bb 06 be a1 40 f1 ba 32 88 8a 3e cd ab 91 3e
       -0.13157487 -0.0018406102 0.27057034 0.28451386
0001f0 c8 28 d0 bc 18 7b 07 3d 63 e8 50 3e 9d db 28 3e
       -0.025410071 0.033076376 0.20401148 0.16490026
000200 9a 94 64 3e c8 4a 53 3e c1 7e 8b 3e a0 c9 6d be
       0.22322312 0.20633996 0.27245143 -0.23221445
000210 8a 7b c2 3d 02 06 22 3c 43 62 f6 3d 7a cc 37 be
       0.094962195 0.009889128 0.12030461 -0.17949095
000220 87 23 8b be b8 0d a0 bd 7f ca aa 3e b1 cb 64 3e
       -0.27175543 -0.07815117 0.33357617 0.22343327
000230 ca 84 02 3c 1c 31 97 bd 97 84 2a 3d 30 30 8d 3e
       0.00796623 -0.07382414 0.041630354 0.27575827
000240 dd ca 1a 3e 71 ff 88 be 63 b1 9a be 04 14 04 3e
       0.15116449 -0.26757386 -0.3021346 0.1289826
000250 4f 35 b6 3d 11 ff 92 3e 85 f6 ab 3e a5 ec 23 be
       0.088968866 0.28710225 0.33586517 -0.16008241
000260 bf f8 8a 3e cb 57 b0 be eb 1c 94 3e b6 cf 0b 3e
       0.27142903 -0.3444198 0.28928313 0.13653454
000270 f5 31 11 3e ff bf 5b bd 74 0a 3c 3d 3c 54 88 be
       0.14179213 -0.0536499 0.045908406 -0.26626766
000280 ff c1 42 3e d4 3f 57 3e 73 ab 92 3e fa 2c 94 be
       0.19019316 0.21020442 0.2864643 -0.28940564
000290 fa b5 65 be 2c 13 35 3d 8c 4b 61 be 07 f5 9a 3e
       -0.224327 0.044207737 -0.22001475 0.30265066
0002a0 c7 e0 e0 3d f5 50 6a be 4a 97 9d be 34 d9 5c be
       0.10980373 -0.22882445 -0.30779487 -0.21567231
0002b0 dd c3 a6 3e 6a 5a 3f 3d fe 8b 95 3e 72 39 18 3e
       0.32571307 0.046717085 0.29208368 0.14865664
0002c0 3d 13 ee bd 1b 4a b0 bd 1f 95 1e 3c 6a 84 28 be
       -0.11624763 -0.086078845 0.009679108 -0.16456762
0002d0 83 ee 13 3d 9c 68 88 bd 1b 4b 08 be 70 a3 49 bd
       0.036116134 -0.06660578 -0.133099 -0.04922813
0002e0 07 81 65 3e 48 68 2a 3e 5c 8d 0a bd 21 58 77 3e
       0.22412501 0.16641343 -0.033826217 0.24154712
0002f0 b4 41 01 be 98 57 62 3e 75 13 89 be 16 fb 7a be
       -0.1262272 0.22103727 -0.26772657 -0.24509844
000300 6d e2 15 3e cc 0e 8a bd de ea cb bd fa 35 4e be
       0.14637156 -0.067411035 -0.09956907 -0.20137778
000310 79 84 05 3e 36 0f 55 bd 05 09 87 be d7 27 b1 3d
       0.13038816 -0.05201646 -0.2637407 0.08650177
000320 97 30 26 be 73 b8 ab 3e 67 16 c6 bd ec c4 50 be
       -0.16229473 0.3353916 -0.09672242 -0.2038762
000330 b1 3a 9f bd 34 ce 2d 3e 84 77 16 3e d8 38 fd 3b
       -0.07774866 0.16973191 0.14694029 0.0077277236
000340 61 02 e1 3d e3 51 c6 bc 25 e9 9d be 21 65 17 be
       0.10986782 -0.024208969 -0.30841938 -0.14784671
000350 2f e4 a2 be f4 72 72 3e 6e 0a 1a be 05 e2 84 3e
       -0.31814715 0.23676664 -0.15043041 0.2595369
000360 b7 3d 45 be 47 a9 31 3e 00 a0 85 bc cb 35 92 3e
       -0.19261824 0.1734973 -0.016311646 0.28556666
000370 1d 35 a5 bc 4c c7 02 3c 8f a5 94 bd 6a e3 4a be
       -0.020166928 0.007982086 -0.0725814 -0.19813314
000380 8f 84 35 3e c8 00 9c ba 43 95 81 be 0a 00 b3 3e
       0.17726348 -0.0011902088 -0.2530919 0.34960967
000390 e6 79 e0 3d 37 03 53 be 5b 60 92 3e 4b 9b 5e 3d
       0.1096075 -0.20606695 0.28589138 0.054347318
0003a0 20 db 84 3e 47 ad 1a bd ba 7a 02 3c 4e 69 0b be
       0.2594843 -0.037762906 0.007963831 -0.1361439
0003b0 30 39 02 3e 69 a0 22 3e 20 ce bd be 57 11 a4 3c
       0.12717128 0.15881504 -0.37071323 0.0200278
0003c0 41 2c 6a be e5 5b 57 be 3d 53 40 3e c7 0f 78 3d
       -0.22868444 -0.21031149 0.18781753 0.06056192
0003d0 23 d4 2c be ce 77 f6 bc 36 cc 97 be 9e 55 42 3e
       -0.16877799 -0.030086424 -0.29647988 0.18977973
0003e0 aa 40 db 3d 85 4c 5d 3d 70 7f fc bd ef 49 52 be
       0.10705693 0.054028053 -0.12328994 -0.20536016
0003f0 46 87 de bd c0 ac 1d be f0 cb 07 3e 7e 5e 37 3e
       -0.10865645 -0.1539793 0.1326139 0.1790714

lstm.weight_hh_l0 f4 [40, 10]
000000 7b ff 5e 3d bb a1 69 be bc 8a 97 be 13 e6 5e 3e
       0.054442864 -0.22815602 -0.29598033 0.21767454
000010 be 46 3f be ec ca 2f 3d 1c bc 90 3e 5b dd 4a 3e
       -0.1867933 0.04291813 0.28268516 0.19811003
000020 8c 18 85 be 70 b5 8b be 4a 1e 83 3e b4 81 79 3c
       -0.2599529 -0.27286863 0.25609046 0.015228678
000030 60 69 ad bd bd f3 bc bd ad b6 c6 3d fa 66 22 3d
       -0.08467364 -0.09226177 0.097028114 0.039648987
000040 2e fd e2 bd 9c fe 2d 3b 13 19 93 be 47 39 87 be
       -0.110834464 0.0026549464 -0.28730068 -0.26410887
000050 ea bb 30 3e b3 ca 02 be 6f 33 74 be a4 7a 10 be
       0.17259184 -0.12772636 -0.23847745 -0.14109284
000060 e6 9d 58 3e 0d 74 ba 3d d6 80 ae 3d b2 c3 4e 3e
       0.21153983 0.09104166 0.08520667 0.2019184
000070 ec 5c 1e bd 5a 0a 45 be 17 70 f9 bd 18 97 51 bd
       -0.038662836 -0.1924223 -0.121795826 -0.051169485
000080 88 27 d8 bd ea e1 12 bd 25 5b c0 3e 44 d6 ab be
       -0.10554415 -0.03585998 0.37569538 -0.3356191
000090 de bb 61 be 9e 8d f1 3d a6 91 83 3e 3c 69 23 be
       -0.22044322 0.117945895 0.25697058 -0.15958112
0000a0 7a e6 83 be 2c 0b 77 be 7d ee d1 bd ab 61 9b be
       -0.25761777 -0.24125355 -0.10250566 -0.30347952
0000b0 e8 a4 e9 3d 1d 17 a8 bb b5 04 8d 3d 27 e6 3e bd
       0.114084065 -0.0051297084 0.068856634 -0.04660621
0000c0 b6 bb af be e8 bb 14 3e c4 5d 9b be d8 35 05 3d
       -0.343229 0.14524806 -0.30344975 0.032522053
0000d0 0f 67 56 bc 76 ce 4e 3e ed e4 8a be a1 c0 54 be
       -0.0130860945 0.20195946 -0.27127782 -0.20776607
0000e0 d1 d1 e9 bd e4 4b 48 3d 28 6d 30 be b0 0e 83 3e
       -0.114169724 0.0489005 -0.1722914 0.25597143
0000f0 18 a8 8e 3d 22 d2 2c bd 2d 98 28 3d 37 d4 1d bd
       0.06965655 -0.042192586 0.04116075 -0.038532462
000100 c7 e6 67 be 23 2c 2d be bb 67 9c 3d 0a 1b 2f be
       -0.22646628 -0.16911368 0.076369725 -0.17100158
000110 91 47 55 3d 37 d2 c3 3d e2 53 9f bc 90 f8 6c 3e
       0.052070204 0.0956158 -0.019449178 0.23141694
000120 f2 06 ed 3d dc e8 f5 bd a0 6b 6a be 0b 82 55 be
       0.1157359 -0.12007305 -0.22892618 -0.20850389
000130 de 59 ae bd 03 fd bf bc 84 57 8b 3e 4f 3c 22 be
       -0.085132346 -0.023436075 0.27215207 -0.15843318
000140 1b 3a 38 3e 98 3a 61 be b9 1d 57 be 8e 36 de 3c
       0.17990915 -0.21995008 -0.21007432 0.027125623
000150 2f 1a a6 3c 0e 40 b3 bc 40 2e 47 be 81 ca 0c 3e
       0.020276157 -0.02188113 -0.19451237 0.13749124
000160 d1 ea 14 bc 9e e2 07 be 14 ef 9c bb 2a 79 79 3e
       -0.009089188 -0.13270041 -0.0047892425 0.24362627
000170 33 16 8f 3e 83 39 15 3d 70 fc ff 3c 26 8d 92 3e
       0.27946624 0.0364318 0.031248301 0.28623313
000180 72 17 1e 3e 8f fb 5c be 0d 2a bb be a2 57 b7 bd
       0.15438631 -0.21580337 -0.3655552 -0.089522615
000190 1c 29 51 be db 8a a7 be d6 7b 18 b9 97 fd 83 be
       -0.20425838 -0.32723126 -0.00014541982 -0.2577941
0001a0 65 2d ba 3e be 5e 3b be 69 ef f1 3b c4 94 d2 3d
       0.36362758 -0.1829786 0.0073832762 0.10282281
0001b0 4b b3 42 bd 04 30 53 be cc 16 33 3e 23 3c 2d be
       -0.04753427 -0.20623785 0.17489165 -0.16917472
0001c0 e5 3c b2 be f5 dd a2 be 2f 7e 92 bd 2d 9c ea bd
       -0.34812084 -0.31809965 -0.07152974 -0.114555694
0001d0 19 6c 9d be e9 ff 4f 3e 00 6b 36 be 4f a8 99 be
       -0.30746534 0.20312466 -0.17814255 -0.30011222
0001e0 aa 1e 1e bc a3 af 96 be 98 f8 a3 3e 79 79 6f 3d
       -0.009650866 -0.29430875 0.320256 0.058465455
0001f0 9f 82 27 be 06 86 28 3e 40 f1 92 bd d1 7d fe bd
       -0.16358422 0.16457376 -0.07174921 -0.12426341
000200 3d 04 6c 3d 3b 96 8e 3d df 49 d3 bd 47 66 2f be
       0.05762123 0.06962248 -0.10316824 -0.1712886
000210 1d c9 65 bd 2f 27 53 3d 9f ee 34 3c 74 0e b3 bc
       -0.0561 0.05155104 0.01104322 -0.021857478
000220 e5 75 94 be b9 a0 12 3e 55 98 35 3d bd ab 7a 3e
       -0.28996196 0.14319123 0.04433473 0.24479575
000230 36 89 b3 3e 2e 3b 89 be 2a e6 c0 3d 70 38 52 bd
       0.3506562 -0.26802963 0.094189 -0.051323354
000240 7a 9a 26 3d 33 18 28 be c5 05 72 be 39 38 5d be
       0.040674664 -0.16415481 -0.23635013 -0.21603478
000250 7d f2 96 bd f2 ef 9d 3e f2 42 27 3e bd fe 87 3e
       -0.0737047 0.30847126 0.16334131 0.26561537
000260 e3 b1 44 bd 17 ab 65 be d6 ac 1f be 0b 54 26 be
       -0.04802121 -0.22428547 -0.15593275 -0.16242997
000270 e4 3c 55 be d0 48 89 3d 67 a8 0d be 15 fa f3 bd
       -0.20824009 0.06703341 -0.13833772 -0.11912934
000280 59 44 80 3e 52 d7 5f be b6 f7 8b 3e c7 07 4f 3d
       0.25052145 -0.21859482 0.27337426 0.050544526
000290 74 5f 3f bd b5 20 17 be 82 6f 0a 3d 70 6c 81 3e
       -0.04672189 -0.1475857 0.03379775 0.25278044
0002a0 49 12 47 3d ce 6e 1e 3e d4 4e 02 be 24 ba 81 3e
       0.048601422 0.15471956 -0.12725383 0.25337327
0002b0 d8 8a d8 bd 3d d0 98 3e 64 f4 78 be c1 d7 4e be
       -0.10573357 0.29846373 -0.24311978 -0.20199491
0002c0 37 13 95 3e 4b 6c a8 bd f0 6b 43 be 06 81 b8 3d
       0.29116222 -0.0822378 -0.19084144 0.09008984
0002d0 8c 06 8f 3e de 10 30 be fe b7 16 be 14 88 81 3e
       0.27934682 -0.17193934 -0.14718625 0.25299132
0002e0 4e 54 22 be e2 3d 43 be f6 5e b0 3d ac ba 42 3e
       -0.15852472 -0.19066575 0.08611862 0.19016522
0002f0 50 f6 bf 3c 9d 8f c5 be e9 b6 ab bd 76 c0 84 3d
       0.02343288 -0.3858613 -0.08384497 0.064820215
000300 1e 01 85 be 25 73 a3 bd f7 8c bd be e4 58 20 be
       -0.25977415 -0.079809465 -0.3702161 -0.15658909
000310 dd 6c aa be 93 0c 83 be e2 d3 76 bd 20 72 76 be
       -0.3328618 -0.2559553 -0.06026066 -0.24066973
000320 d6 58 de 3c 4a 3e 1a be eb 5c 9b be 01 a0 74 be
       0.02714197 -0.15062824 -0.30344328 -0.23889162
000330 a9 42 03 be 9f 83 51 3e 08 49 36 3d 8b 97 84 be
       -0.12818398 0.20460366 0.04450324 -0.25896868
000340 5d d1 8d 3e 94 55 1e 3e bb ed 87 3e 54 49 cc 3e
       0.27698794 0.15462333 0.2654856 0.39899695
000350 55 b2 6b 3d f1 b8 9d be 92 95 61 3e 3e fc b4 bc
       0.057543118 -0.30805162 0.22029713 -0.022092935
000360 a9 ce 61 be e3 4a 8e 3e 14 ed dc bd 64 82 63 3e
       -0.22051491 0.2779151 -0.107874066 0.22217709
000370 a7 57 58 3e 9d 78 08 3e 59 ba 44 3e 38 9b 3c 3e
       0.21127187 0.1332726 0.19211711 0.18418586
000380 51 f0 52 be 19 ae 6a 3d 50 ab 74 be d1 a7 9a be
       -0.20599486 0.05729494 -0.23893476 -0.3020616
000390 eb 88 94 bd 2c c7 bb 3d 6b 0a 79 be 2a 24 89 3e
       -0.072526775 0.091688484 -0.2432038 0.26785403
0003a0 54 0d a8 bd 9f 29 a5 3e ef e2 db bc 2b a7 0b 3e
       -0.08205667 0.32258317 -0.026841609 0.13637988
0003b0 ac ea 0c 3d f3 87 60 bd 03 d6 95 be 00 fe 22 3e
       0.034403488 -0.05481715 -0.2926484 0.15917206
0003c0 63 1e 53 be e9 33 7f be d4 65 92 3e f8 4a 3c be
       -0.2061706 -0.24922146 0.28593314 -0.18387973
0003d0 cc 5a bd 3d b1 ca 56 3e 79 b7 bc 3d 6c 59 6c bc
       0.09245834 0.20975758 0.09214682 -0.014425617
0003e0 b8 5c 75 3d 18 65 69 be 10 e4 86 be 6e f2 71 be
       0.059902877 -0.2279247 -0.26345873 -0.23627636
0003f0 54 2b 17 3e 0a 45 2d 3e 0a 6d a3 3d e2 d1 a5 3e
       0.14762622 0.16920868 0.07979782 0.3238669

lstm.bias_ih_l0 f4 [40]
000000 3d 29 8d be f2 a2 9e 3e 02 69 80 3e 0d c0 71 3e
       -0.27570525 0.30983692 0.25080115 0.23608418
000010 f2 8c cc bc 2c ee 62 be 7e a2 8d 3e e2 c6 27 be
       -0.024969552 -0.22161168 0.27663034 -0.16384462
000020 71 39 8a 3e 34 37 79 bd 6f 04 24 3e 3f af a5 3e
       0.2699695 -0.06084366 0.16017316 0.32360265
000030 26 b9 38 bd 2c 8f 4b be 13 d4 6e bc 97 22 e9 3c
       -0.045098446 -0.19878834 -0.01457693 0.028458877
000040 c5 dd ec 3d 60 37 92 be 99 3e 93 be 02 ea 32 be
       0.11565737 -0.28557873 -0.28758696 -0.1747208
000050 0f cf f4 3d f8 5d 38 be 1b 66 10 be 67 38 c0 3d
       0.11953556 -0.18004596 -0.1410145 0.09385758
000060 84 a6 c8 bd 09 6c 7d 3d b2 a0 8f be e6 d6 51 bc
       -0.09797385 0.06187061 -0.28052288 -0.012807583
000070 59 e2 50 bc e7 7e 9b be f9 a0 bc bd ce 44 7f 3e
       -0.012749278 -0.30370256 -0.092103906 0.2492859
000080 6a 52 ed bd d1 2e 2d 3e 1d 92 58 3e 35 6e 48 be
       -0.11587985 0.1691239 0.21149488 -0.1957329
000090 a5 ee 50 bd f0 27 3c be bc dc 09 3e cc 7e c8 3c
       -0.05100884 -0.1837461 0.1346311 0.024474524

lstm.bias_hh_l0 f4 [40]
000000 bd 8c 46 be 92 0e 82 3d d8 e3 62 3e 2f ff 2a 3d
       -0.19389625 0.06350435 0.22157228 0.04174727
000010 b0 bb 90 3e 73 a3 66 be 94 10 86 be f6 71 12 3e
       0.28268194 -0.22523288 -0.26184523 0.14301285
000020 96 27 29 3d 92 e1 19 3e e1 20 8d 3e 91 60 41 be
       0.041297518 0.15027454 0.27564147 -0.18884493
000030 4b 7f 98 be c8 8d 2f be 3a 26 4c bd 19 7d 82 be
       -0.29784617 -0.17143929 -0.049841143 -0.25486067
000040 3c bd db 3d c2 23 54 bd 0e 7a 9a 3e 79 d3 8a be
       0.10729453 -0.051791914 0.30171245 -0.27114466
000050 5a 8d 9e 3e 2c 06 e2 bd b1 ad 70 be 28 dc 70 be
       0.30967218 -0.110363334 -0.23503758 -0.23521483
000060 31 c1 0f 3e 76 c3 98 bc 42 5e 6a be 03 a8 98 bc
       0.1403854 -0.01864789 -0.22887519 -0.018634802
000070 2d bd 53 3e dd 61 9c 3e 72 d7 f1 3d 56 1d 81 be
       0.20677634 0.30543414 0.11808671 -0.25217694
000080 70 a6 bc 3d 24 7b 04 be 92 9c a7 3e 7f a7 20 3e
       0.09211433 -0.129376 0.3273664 0.15688895
000090 bd 7b 5d 3e 05 43 ed 3d 80 fe 9c 3e 8c eb 9a 3e
       0.21629234 0.115850486 0.30662918 0.30257833

lstm.weight_ih_l1 f4 [40, 10]
000000 8f d0 1c bb 02 b0 ab bd 77 4c 81 3e 21 f1 bc bd
       -0.0023928022 -0.0838318 0.2525365 -0.09225679
000010 5b 17 44 be 60 be b4 bb da eb 3c 3e 21 4a 60 3e
       -0.19149534 -0.0055158585 0.18449345 0.21903278
000020 ff 80 84 3d 1c 31 b3 3d 5f 4c c4 bd 1e a5 5b bc
       0.064699166 0.08749601 -0.09584879 -0.013406066
000030 6e 92 0d be ed 09 3b 3e fb a6 20 be 94 d3 08 3e
       -0.1382539 0.18265505 -0.15688698 0.1336196
000040 cc d8 6c 3e d7 91 c5 bd cf 4c ba 3c e7 83 e9 bc
       0.23129576 -0.09646957 0.022741703 -0.028505279
000050 a3 e0 92 be a8 5d 1d be 16 f9 10 3e c2 67 63 3e
       -0.2868701 -0.15367758 0.14157519 0.22207549
000060 6d 39 7f 3d 4b ed 5b bd fe 97 5a bd 57 3c 23 3d
       0.062310625 -0.053693097 -0.053367607 0.039852466
000070 98 cd 6e be fd 2b 6b 3e 80 0c 2d 3e 4e a7 40 bd
       -0.23320615 0.22965999 0.168993 -0.047034554
000080 ab 79 09 be 49 88 12 be 1b 34 3c 3e a3 66 7d be
       -0.13425319 -0.14309801 0.18379252 -0.24746184
000090 60 c3 6c be e2 0a c1 3d 81 39 a3 3e 5c f2 05 3d
       -0.23121405 0.09425904 0.3187981 0.032701835
0000a0 e6 48 93 be 9c f8 48 bd 50 6a 8f be 3d 20 64 3e
       -0.28766555 -0.049065217 -0.28010798 0.22277923
0000b0 90 e6 bd be ea c5 87 3e 6f 1b a6 be 40 0e a5 3d
       -0.37089968 0.26518184 -0.32442805 0.080593586
0000c0 04 57 98 3c 5b f1 20 3e 77 7b a1 3e b9 ee 15 3e
       0.01859618 0.1571707 0.3153951 0.14641847
0000d0 4f 73 4d 3e 2b 01 d4 3d fb 27 62 3e c8 b1 ce 3d
       0.20063518 0.10351785 0.22085564 0.10092503
0000e0 85 4b 97 bd be 9a fb 3d a5 84 d3 bd ce fb 9e 3e
       -0.07387451 0.12285374 -0.10328034 0.31051487
0000f0 0a c7 4d 3e 2d 9d 29 bd 6b a7 75 3e bf 52 c4 3d
       0.20095459 -0.04140966 0.23989646 0.09586095
000100 f2 93 9c be c0 c9 18 3e 31 07 96 3e 7c d2 77 3e
       -0.30581623 0.14920712 0.29302362 0.24201387
000110 7e 08 e5 bb 3c 11 94 3e 5a e0 fd 3d 7f f6 82 3e
       -0.0069895377 0.289194 0.12396307 0.25578687
000120 0e 31 88 3e 97 24 47 bc fc 00 ed 3d 07 65 20 be
       0.26599926 -0.01215472 0.115724534 -0.15663539
000130 2c 17 5d 3d 2c 35 a9 be f1 09 be 3c ee e5 cc bd
       0.053977177 -0.3304838 0.0231981 -0.10004793
000140 9e 64 9e 3e ab de 1c be 1f 87 4a 3e 6f a6 2c 3e
       0.3093614 -0.15319316 0.19778107 0.16860364
000150 0e 32 13 3e 47 e2 8e 3e d9 74 18 be f8 5f 44 bc
       0.14374563 0.2790701 -0.14888324 -0.011985771
000160 63 eb 76 3e 9b c1 ba bd 70 ab ae bd e1 60 ed bd
       0.2411323 -0.091189586 -0.08528793 -0.11590744
000170 f8 61 a6 3d 8a b5 96 be 73 f8 20 3e c2 eb 1c be
       0.08124155 -0.29435378 0.15719776 -0.1532431
000180 33 cd f1 3d 4c 8b 31 be 1b bc 92 3d 4a 4a 85 3e
       0.11806717 -0.17338294 0.071647845 0.2603324
000190 6a dc fd bd b4 d5 54 be 29 3d 95 be 13 0b 1d 3d
       -0.12395556 -0.20784646 -0.29148224 0.03834064
0001a0 26 37 f1 bd 68 f9 73 be fd 63 1e be 5e 09 88 be
       -0.11778097 -0.2382561 -0.1546783 -0.26569647
0001b0 98 1a 44 be 69 b0 93 3e 52 80 80 3d 2c 03 8e bd
       -0.1915077 0.28845528 0.06274475 -0.06934199
0001c0 42 59 53 bd da f1 99 be 43 b1 43 be 1f b6 39 be
       -0.051598795 -0.3006733 -0.19110589 -0.1813588
0001d0 49 ec 07 be 33 57 27 3e 9b fd d6 bd 01 5f 84 3e
       -0.1327373 0.16341858 -0.1049759 0.25853732
0001e0 09 3e 7c 3d 47 a8 2f be 40 b1 ac 3d 30 21 9b bd
       0.0615826 -0.17154036 0.08432245 -0.075746894
0001f0 39 cb 80 3d a7 3d b3 be fa e0 a4 3d 8a 70 8a be
       0.06288762 -0.35007975 0.080507234 -0.27038985
000200 84 a0 42 be ba c7 8c 3e 42 49 96 3e 86 4e 17 be
       -0.19006544 0.2749613 0.29352766 -0.14776048
000210 2b 1d 08 3e 5e 5f 6b be ca 59 a6 3d 1a 1e 90 be
       0.13292377 -0.22985598 0.08122595 -0.28147966
000220 68 ca a2 bb a4 f3 9c bd e5 2e 30 be 85 2e b2 3e
       -0.0049679764 -0.07663658 -0.17205389 0.34801117
000230 90 37 a0 3e ee e6 e8 bd 35 95 40 be 5b a4 9d be
       0.3129239 -0.11372171 -0.18806918 -0.30789456
000240 8d 03 8f be e2 4d 8e 3e 06 5a 0b 3e 04 7f c3 bc
       -0.27932397 0.27793795 0.1360856 -0.023864277
000250 aa 06 50 bc 96 d0 0d 3e ed 01 6e be 14 55 37 3e
       -0.012696901 0.138491 -0.23242922 0.17903548
000260 52 cb 8b be b9 d9 38 3e bd 9b a6 be a9 b5 77 3e
       -0.2730356 0.18051805 -0.32540694 0.24190392
000270 53 58 88 bd 70 19 24 be e0 7d 8d be 6e 4f 93 be
       -0.066574715 -0.16025329 -0.27635098 -0.28771538
000280 db 0b b7 3d 53 df 05 bd 59 91 cb bc 63 2b 8b be
       0.08937808 -0.03268368 -0.02484958 -0.2718154
000290 42 69 5f 3b 91 10 78 3e cd c7 83 be ab ad 8f 3e
       0.0034089838 0.2422507 -0.25738373 0.28062186
0002a0 d3 f9 db bd 00 15 a0 3e c2 42 9a be 9a fe 97 3e
       -0.107410096 0.31266022 -0.30129057 0.29686433
0002b0 78 5e 69 3e c8 4e 55 3e 30 f9 ba bc 8d 24 bb 3d
       0.22789943 0.20830834 -0.0228239 0.09137831
0002c0 af 85 4b 3c f2 3e 31 be 9e a0 9f 3d 09 08 8e be
       0.012422009 -0.17309168 0.07794307 -0.27740505
0002d0 2a a1 04 3d 12 87 5b be 61 58 fa bd da b2 f8 bd
       0.03238026 -0.21438244 -0.12223888 -0.12143488
0002e0 69 5c 8a be 03 a5 1a 3e 13 61 dc bd d5 17 8e 3d
       -0.27023628 0.1510201 -0.10760703 0.06938139
0002f0 a8 a5 6d 3e 4e ed 90 3e 4e 91 90 be ba c7 8e 3e
       0.23207724 0.2830605 -0.2823586 0.27886754
000300 c9 5f 1e bd d8 a2 c1 3c f3 49 42 3e 4c df 57 3d
       -0.038665567 0.02363722 0.18973522 0.052703187
000310 36 9a 96 3c 6e 91 38 3e 2a 47 7c 3e ad e6 de 3d
       0.01838408 0.18024227 0.24636522 0.10883842
000320 37 8b 6d be 36 7b 9c 3e 3d 81 3c be 56 a0 e3 bd
       -0.23197637 0.30562752 -0.18408675 -0.11114566
000330 58 49 ba be fd 1f f7 bd cf 01 23 3e bb 5c bf bd
       -0.36384082 -0.12066648 0.15918659 -0.09343859
000340 98 30 5d 3e 34 d0 98 3e 89 ee 30 bd 6e 4f 62 be
       0.21600568 0.29846346 -0.043196235 -0.22100613
000350 65 73 45 3c da b5 af bb e9 e6 9e bd b9 80 1a be
       0.012051438 -0.0053622546 -0.07758886 -0.15088166
000360 9d 93 a5 3e 06 6f 36 3e 44 22 cc bd ff 51 0e be
       0.32339182 0.1781579 -0.09967473 -0.13898467
000370 7d eb 41 3d c8 56 6d bc 5d 2c c3 3b 9e 6b e1 bd
       0.04734372 -0.014486022 0.0059562162 -0.110068545
000380 e6 91 85 3e a3 66 10 bd fe 01 98 3e b3 81 32 3c
       0.26087874 -0.035254132 0.2968902 0.0108951805
000390 db 57 49 be 1b 52 ec 3d 2a 20 30 be d5 26 4e be
       -0.1966242 0.11539098 -0.1719977 -0.20132
0003a0 bd 2d f2 3c 4d 80 8b be cf 10 c0 bd ea 0d 86 3e
       0.029562825 -0.27246323 -0.09378206 0.2618249
0003b0 fd c6 20 3c 6b 94 62 3e 82 c1 73 3e c0 ea 9e 3e
       0.0098130675 0.2212693 0.23804286 0.31038475
0003c0 8e 64 d1 3d c5 60 f5 bc 5f e3 03 be aa 67 93 3e
       0.102242574 -0.02995337 -0.12879704 0.28790027
0003d0 8e 2a ab bd a7 7d 4b 3e 2e af 21 3c 13 db 93 be
       -0.08357726 0.19872151 0.009868426 -0.28878078
0003e0 5d 62 78 be bd 25 3b 3e f5 03 08 be b6 7f 30 3e
       -0.24256273 0.18276115 -0.1328276 0.17236218
0003f0 7e 39 07 be a5 64 53 3d 00 e4 86 be fc f0 76 3e
       -0.13205525 0.051609654 -0.26345825 0.24115366

lstm.weight_hh_l1 f4 [40, 10]
000000 c2 a5 0d be 18 d0 b7 3e 10 e1 dc bd d1 6c 5e be
       -0.13832763 0.3590095 -0.10785115 -0.21721198
000010 56 d5 8f 3e 18 bd 64 be 6a d5 44 3e 0b 5e a3 be
       0.2809245 -0.22337759 0.19222036 -0.31907687
000020 76 0e 9a be 2d 6c 60 3e f9 9c 1c be cc 30 9f be
       -0.30089158 0.21916266 -0.15294255 -0.31091917
000030 5f f6 8c 3e 45 d7 d4 bc 00 d0 b7 bc 81 09 5d 3e
       0.27531716 -0.025981555 -0.02243805 0.21585657
000040 f5 e2 94 3e 4c a6 4d be 04 a9 fe 3d 30 76 54 3e
       0.29079404 -0.20082968 0.12434581 0.2074821
000050 c7 ae 80 3d fe ce db bd e2 cd 1b 3e 7d 45 71 3e
       0.06283336 -0.1073284 0.15215257 0.23561664
000060 80 1e 66 be d9 7d e4 bd 61 60 b5 bc 67 1d 64 3e
       -0.22472572 -0.11156816 -0.022140684 0.22276841
000070 57 d5 99 bd aa 9e 26 bc 9f 0b a6 bc 3d 3d e1 bd
       -0.075113945 -0.010169664 -0.020269213 -0.109980084
000080 2a 60 9d 3e 1c b6 ec bd 8b b9 87 3e 5f 14 5c 3e
       0.3073743 -0.11558172 0.26508746 0.21492146
000090 7e 73 0b 3e a7 b1 75 be 2a f3 9b 3c 36 85 87 3e
       0.13618276 -0.2399355 0.019036848 0.2646882
0000a0 58 0a 58 3e 73 da 50 3e c4 04 b2 bd 67 a0 75 3e
       0.21097696 0.20395832 -0.08692315 0.2398697
0000b0 60 c7 ce 3d 29 f2 56 be 22 bc 03 be 29 5d 41 3e
       0.100966215 -0.20990814 -0.12864736 0.18883194
0000c0 96 a3 77 3c 3a c0 86 be 08 24 77 bd b6 d9 93 be
       0.0151146855 -0.26318532 -0.060337096 -0.28877038
0000d0 7a c9 98 bd c6 b0 9e 3e 2a 25 f1 3d e2 7a 8b 3e
       -0.074603036 0.30994242 0.117746666 0.2724219
0000e0 35 54 41 3d d4 a4 29 3e 70 0f 7c be 85 9a 3f 3c
       0.047199447 0.16566783 -0.24615264 0.011694555
0000f0 8f ad 93 bd 6f 50 41 3e 1c a3 0d bd 3c ba f8 3c
       -0.07210838 0.18878339 -0.03457938 0.030362241
000100 d6 41 34 be 66 02 9d 3e 2f df 1a 3d 5c c7 74 be
       -0.1760324 0.30665892 0.0378105 -0.23904175
000110 71 81 4a be 2a d8 2d 3d 1c 9b 2d 3d 1e 05 f9 bc
       -0.1977594 0.04244248 0.042384252 -0.030397948
000120 10 c6 0b 3e 63 d3 98 3e 31 e1 81 3e 6a a4 50 3e
       0.13649774 0.29848775 0.2536712 0.20375219
000130 98 d9 0f bd 43 59 ea bd 80 7a 31 bc 81 ad 79 3e
       -0.035119623 -0.114428066 -0.010832429 0.24382593
000140 cf 86 1a 3e 6c 7a 2f 3e 72 87 91 be 08 60 6b 3e
       0.15090488 0.17136544 -0.2842365 0.22985852
000150 3b c6 ab 3e 9b 6c b5 bd 3f 75 e3 3d 35 c0 72 be
       0.33549675 -0.088586055 0.11106347 -0.23706134
000160 fc 17 b0 be f8 f7 88 be b6 34 9c 3d 61 99 0f 3e
       -0.343933 -0.26751685 0.07627241 0.14023353
000170 a3 49 93 be 49 ce ac bd 97 15 e8 bd 27 dd c9 bd
       -0.28767118 -0.08437783 -0.11332243 -0.098566346
000180 6d 60 35 be ef 27 02 bd 11 a5 00 be 1a f8 87 3e
       -0.17712565 -0.031776365 -0.12562968 0.26556474
000190 1f ad 8c bd 7c 56 57 be a0 c3 d0 bd eb db 5b be
       -0.06868958 -0.21029085 -0.101935625 -0.21470611
0001a0 14 0c d5 bc e1 1c 87 bd 33 00 12 3d 89 6f 7e 3e
       -0.026006736 -0.06597305 0.03564472 0.24847235
0001b0 cc 7b ad be 12 7e 88 3e 30 40 3c bd 2e 9f 8d bd
       -0.33883512 0.26658684 -0.04595965 -0.06915127
0001c0 08 a8 4a 3e 52 7e d2 bd 0f 7a a8 3b 00 a1 67 3e
       0.19790661 -0.10278 0.0051415036 0.2262001
0001d0 ae 62 1a 3d 5d ac a6 bd 81 ef 14 3e 51 82 da bd
       0.037691765 -0.081383444 0.14544488 -0.10669387
0001e0 45 9d 8b 3e c9 a1 87 be 67 a4 90 3e c1 4d ec 3d
       0.27268425 -0.2649062 0.2825043 0.11538268
0001f0 2b 67 69 be d6 86 5b bd c9 a9 c9 3d 64 dd 88 3e
       -0.22793262 -0.053595386 0.09846837 0.26731408
000200 00 17 2b be fc 67 25 3e 87 04 8e 3d 4a 27 1a 3e
       -0.16707993 0.16152948 0.06934457 0.1505405
000210 d7 1c d8 3d e4 e5 7e bd 7a 08 16 3d 3e 0a a2 3d
       0.10552376 -0.06223096 0.036629178 0.0791211
000220 6f de 91 3e 53 4f 83 be f8 fc f5 bd cb f3 19 be
       0.28490016 -0.25646457 -0.120111406 -0.15034406
000230 14 b2 34 bd e9 2a 11 be 3b 03 83 bd 3e 31 56 bd
       -0.04411514 -0.14176525 -0.063971005 -0.052293055
000240 d3 7e 77 3e 29 5a 87 3e 97 3e 7d 3d 83 75 4c be
       0.24169473 0.26435974 0.06182727 -0.19966702
000250 28 99 c1 3d f2 5d 80 be 7c 50 92 3d 41 39 80 3c
       0.0945304 -0.25071675 0.071442574 0.0156523
000260 97 e8 3d 3d 7a d4 44 be 14 d1 09 be 98 0e 7e be
       0.046364393 -0.19221678 -0.13458663 -0.24810255
000270 93 43 6b bd 1f 04 93 bd a4 ac a3 3e 08 21 4e 3e
       -0.05743749 -0.071785204 0.31967652 0.20129788
000280 68 a4 76 bd 61 d7 71 be e7 c4 91 3e b2 c7 17 bd
       -0.060215384 -0.23617317 0.28470537 -0.03705568
000290 e5 54 46 3e 3c fe d5 bd 15 a2 a4 3d 7c 07 e2 bc
       0.19368322 -0.10448882 0.08038727 -0.02759146
0002a0 d3 3b 2f 3e 81 d6 9d 3e 64 6b 27 be 5e ed f5 3d
       0.17112665 0.30827716 -0.1634956 0.12008165
0002b0 cf a1 12 ba 59 13 99 be 11 e5 38 be 17 c7 8c 3e
       -0.00055935694 -0.29897574 -0.18056132 0.27495643
0002c0 0a 4a d4 bb 33 7f 0f be 9f 22 a3 be 83 55 82 3e
       -0.0064785527 -0.14013366 -0.3186235 0.25455865
0002d0 f3 e0 83 be 42 63 83 3e 0b 20 82 be 49 75 94 3e
       -0.2575756 0.25661665 -0.25415072 0.2899573
0002e0 4f 17 ad 3e ca 84 25 be 37 69 68 be b8 1e 68 3e
       0.33806846 -0.16163936 -0.22696386 0.22667968
0002f0 05 42 c1 bd 2a 2f a7 bd 3d b9 8e be 9f 91 22 3e
       -0.0943642 -0.08163293 -0.278757 0.15875863
000300 3e 2f 82 3e 50 34 28 3e 02 bb 0b 3c 7a b5 08 3e
       0.25426668 0.16426206 0.008528473 0.13350478
000310 69 f6 0a bd 61 32 ed bd 33 2d 06 3e 76 93 9c 3d
       -0.0339264 -0.11581875 0.1310318 0.076453134
000320 1f 39 7e ba 15 41 0f be 3c ac 09 3e fc 40 76 be
       -0.0009697843 -0.1398967 0.13444608 -0.24048227
000330 6d c2 f0 bb cb 21 5b bd 56 c1 71 3c c4 75 f5 3d
       -0.007347396 -0.053499024 0.014755568 0.11985353
000340 70 bd 66 be da c4 4d 3e d6 97 da 3d b9 cd 7c bd
       -0.22533202 0.20094624 0.10673492 -0.06171963
000350 e7 89 54 3e b9 57 79 be 63 5a 10 3e bc d0 82 3d
       0.2075573 -0.2434987 0.1409698 0.06387469
000360 97 44 75 be 10 10 b1 3d 69 31 28 be 50 53 ec bd
       -0.23951946 0.08645642 -0.16425098 -0.11539328
000370 a2 5a d2 3d 45 53 88 3e a0 fa 58 be 0f 83 75 be
       0.10271193 0.2662603 -0.21189356 -0.23975776
000380 5f 8a 63 3e 79 33 67 3d 24 d6 71 bd f6 92 fb bd
       0.22220753 0.056445573 -0.05904211 -0.1228389
000390 c6 61 35 be 6b 69 65 bc 5b cd 7b 3e 95 c1 a0 3e
       -0.17713079 -0.014002184 0.24590056 0.3139769
0003a0 92 12 a2 3b 36 92 91 3d 02 a0 91 be 45 89 ff 3d
       0.0049460614 0.07107966 -0.2844239 0.12477354
0003b0 54 6d 99 3d 58 1c 0f be dd 0b f4 3d 8a 3c 7b 3e
       0.07491556 -0.13975656 0.11916325 0.24534813
0003c0 38 72 7c be db 85 8f be fe e5 01 be 41 60 9a be
       -0.24652946 -0.2803181 -0.12685391 -0.3015156
0003d0 1a 52 4a 3e 22 8e 37 3e ae 4a 67 3e 1f f6 8d 3e
       0.19757882 0.17925313 0.22587082 0.27726838
0003e0 cf d2 62 be 70 02 13 be bd 63 64 bd 05 f8 9f be
       -0.2215073 -0.14356399 -0.05575918 -0.3124391
0003f0 ad d4 53 be b9 82 10 3d e9 a6 66 3e 0a 4b 7e bd
       -0.20686598 0.035280917 0.22524609 -0.06208328

lstm.bias_ih_l1 f4 [40]
000000 01 ae 5a be 7c 8f e3 3d 73 74 20 3e 5a 12 94 3d
       -0.2135544 0.11111352 0.15669422 0.07230063
000010 f1 0c 69 bd 1e 8b 2c be 5f 72 a3 3d 2f 0f 99 be
       -0.056897108 -0.16849944 0.07980799 -0.29894397
000020 47 b1 8c be c5 97 48 bd f2 ac 2b 3e 8a f5 aa bd
       -0.27479002 -0.048972864 0.16765192 -0.08347614
000030 96 20 6f be 28 26 a3 3d 04 9c 06 3e 63 e4 2a be
       -0.23352274 0.07966262 0.13145453 -0.16688685
000040 b1 9d 5c be fc 5f 9b be 74 eb 93 3e e1 17 e2 bd
       -0.2154453 -0.30346668 0.28890574 -0.11039711
000050 2d 06 9d 3e 6e 27 45 3e b0 f9 89 3e ce 67 44 3e
       0.30668774 0.19253322 0.2694831 0.19180223
000060 27 b2 86 3e 78 0e df bd 1b 26 65 be 9c d6 f3 bd
       0.26307794 -0.108914316 -0.22377817 -0.11906168
000070 dc 31 92 bd a1 b1 7b 3e 24 e2 a6 3d 12 ee b4 bc
       -0.07138416 0.24579479 0.08148602 -0.022086177
000080 c7 43 0b 3d d2 40 cb 3c 8a 4d 74 3e 9d 7c e1 bd
       0.034000184 0.024811182 0.23857704 -0.11010096
000090 7e d1 8f be b4 e6 d4 bd b2 3f 8e 3e 7a ca 0a 3c
       -0.28089517 -0.10395566 0.2778297 0.008471126

lstm.bias_hh_l1 f4 [40]
000000 a9 76 f2 bc 6b df b9 bc d4 ce 46 be 33 9c 37 bc
       -0.029597597 -0.022689542 -0.19414836 -0.011206674
000010 7f 77 5f 3e 7c 99 3d 3e 4b ac 5f 3e a5 31 b3 bd
       0.21822928 0.18515581 0.21843068 -0.08749703
000020 50 99 aa bc 75 57 9e 3d 5d a2 f5 3d d0 a3 91 3e
       -0.020825058 0.07731525 0.11993859 0.28445292
000030 1a 6c e9 bc b9 0e 48 be d6 e1 49 3e 3b df 02 3e
       -0.02849393 -0.19536866 0.19715056 0.12780468
000040 ed 2f 52 be 86 3f a2 3d 22 72 28 be e7 6c e5 3d
       -0.20526095 0.079222724 -0.16449788 0.11202412
000050 2b 76 23 be 9c 96 b7 bc 31 e7 43 3d 07 a0 87 bc
       -0.15963046 -0.022410683 0.047827903 -0.0165558
000060 e8 b2 f8 3d 73 69 73 be 05 38 8d be 27 62 1d 3e
       0.12143499 -0.23770694 -0.27581802 0.15369473
000070 dc 25 2d 3d c8 d8 2a 3e 02 db 12 be 5a 41 2b be
       0.042272434 0.16684258 -0.14341357 -0.16724148
000080 94 8a 18 3e d7 92 52 3c f4 f1 18 bd 73 ce 02 3e
       0.14896613 0.012852392 -0.03734012 0.12774067
000090 2e 0e ba 3d 22 4a 98 3e 23 0f 50 bd 6d c2 d6 bd
       0.09084736 0.2974406 -0.050795685 -0.104863025

fc.weight f4 [1, 200]
000000 cc 50 9e 3d 23 69 22 3c 0e 9a 49 3d b3 b9 73 3d
       0.077302545 0.009912762 0.049219184 0.05950327
000010 04 90 8b 3c 47 e5 cb 3c 01 44 75 bd 8a 77 a9 bc
       0.017036445 0.024889601 -0.059879307 -0.020686883
000020 02 74 8f bd b5 da 8f bd c6 4c 23 3c 9e 8e 10 bd
       -0.070045486 -0.07024137 0.009967035 -0.03529226
000030 3d fa 9e bc cb 55 69 3d 7a 72 92 3c 6b 7a 25 bd
       -0.019406432 0.056966584 0.017876852 -0.04039995
000040 86 f6 81 bb 31 1b c3 bd 89 ba 0b bd 70 a1 0d 3d
       -0.0039661555 -0.09526671 -0.03411344 0.034577787
000050 63 15 42 bd fa 53 20 3d 12 30 61 3d e7 15 8c 3d
       -0.047383677 0.039142586 0.054977484 0.06840115
000060 51 f9 10 bc b9 36 df 3b d7 c3 41 bc f6 fd 8f bd
       -0.008848504 0.0068119434 -0.011826477 -0.07030861
000070 17 93 6b bd 63 b0 86 bd 9a f5 5c 3c 2a b9 a3 3b
       -0.057513323 -0.06576612 0.01348629 0.0049964385
000080 1d 98 6a bc 6d 90 78 3c 8e d3 12 3c 4e 31 21 bd
       -0.014318493 0.015171153 0.008961571 -0.03935366
000090 4e bc 76 bd b5 80 25 3d 6e 2a 78 bd 4e ed b6 3b
       -0.060238175 0.040405948 -0.06058734 0.005582488
0000a0 c6 d7 c9 3c 12 7c 89 3d 3a 5a 4e 3d 50 51 65 bd
       0.024639022 0.06713118 0.050379016 -0.05598575
0000b0 6c e0 b2 bc 34 8f 37 bd d7 1e 66 3d 82 95 d4 bc
       -0.021835528 -0.044814304 0.056181755 -0.025950197
0000c0 48 07 19 bd e2 8b de bc 2b fd a0 3d 57 03 85 bc
       -0.03736046 -0.02716631 0.07860788 -0.016236944
0000d0 5c 6d 93 bd 07 57 76 bd b9 db d3 3c da 42 1f bd
       -0.07198593 -0.06014159 0.025861608 -0.038882114
0000e0 21 66 58 bd a6 29 66 bd 5b 37 2a 3d 23 18 77 3b
       -0.052831773 -0.056192063 0.041556697 0.0037703596
0000f0 a5 7b c1 3c 2b 98 c9 3c a3 88 38 3d de 0b ea 3c
       0.023618529 0.024608692 0.045052182 0.028570112
000100 26 ba 35 3d 27 28 79 bd ab 68 0c 3d 1f 23 4c bc
       0.044366978 -0.060829308 0.034279507 -0.012459545
000110 7a 5e 36 bd 95 f0 83 3d 6f 18 27 3d 6f c1 3c bd
       -0.044523694 0.06442372 0.040794786 -0.04608291
000120 00 38 9b 3c a3 50 94 bc f4 f1 51 bd c8 34 55 bd
       0.018947601 -0.018104857 -0.051256135 -0.05205229
000130 c6 10 36 bd 76 3b 38 3d 16 8a 11 bd 79 2f f6 3c
       -0.04444959 0.04497858 -0.03553208 0.030051934
000140 41 d4 a0 3d c2 c5 e7 3c 00 7b 8b bd f5 bb a8 bb
       0.07852984 0.02829254 -0.0681057 -0.0051493593
000150 c7 cb 48 3d a0 68 87 3d 5f 61 58 bd a4 8d 88 bc
       0.049022462 0.066117525 -0.052827235 -0.016669102
000160 79 03 47 bd da 7f 2f 3d 22 78 b6 3c 07 d1 86 3d
       -0.048587296 0.042846538 0.02227408 0.065828376
000170 c7 08 6d 3d a5 c8 91 bd 6d 88 5f 3d 04 1c 63 3b
       0.0578697 -0.07118348 0.054573465 0.003465415
000180 c3 51 56 bd d4 ec 5c bd b5 be 9d bd 57 42 d9 3b
       -0.052324068 -0.053936794 -0.0770239 0.006630223
000190 a8 13 44 bc fc 14 7b bd f8 b5 d4 bc 1c 6a c7 3c
       -0.011967577 -0.06129931 -0.025965676 0.02434259
0001a0 7e 03 f4 3c 5c 54 71 bd d3 58 f6 3b e2 88 25 3d
       0.029786821 -0.058918342 0.007517913 0.040413745
0001b0 fc 23 5c bd 94 f8 2d 3d ca ba 1c 3d 30 af f5 bc
       -0.053745255 0.04247339 0.038264073 -0.029990762
0001c0 7d 18 04 3d 47 b8 02 3d 47 3b 0b 3d f9 41 84 3d
       0.032249916 0.03191402 0.03399208 0.06457896
0001d0 aa 8c 32 ba 14 bf 82 3d dd bc af 3b 96 cd e2 3b
       -0.0006811122 0.063841015 0.0053630904 0.0069214804
0001e0 19 a0 de 3d 5b fa e7 3b 75 c6 50 3d e6 b7 56 bd
       0.1087038 0.0070794052 0.050970513 -0.052421473
0001f0 7b 16 05 bd e0 b0 49 bd 31 37 29 bd 79 2b 21 bd
       -0.032492142 -0.049240947 -0.0413124 -0.0393481
000200 6e 04 74 bd b0 26 16 3c 47 e1 6f 3d cf a9 fb bc
       -0.059574537 0.009164497 0.05856445 -0.03072062
000210 52 97 45 3d 89 aa 02 3c 71 ee 76 3c 3c ac 3e bd
       0.048240013 0.007975229 0.015071497 -0.046550974
000220 d6 30 f7 3b 2e 48 92 bc fc 30 3a bc 92 0a 86 3d
       0.0075436635 -0.017856684 -0.011364218 0.06544985
000230 67 e1 4e 3d 2b 7f 27 bb 08 a9 9d 3c 7b 11 67 bd
       0.05050793 -0.0025557976 0.01924564 -0.056413155
000240 5d c5 a5 bc cb 3f 8c bc f1 20 9e bb 82 8e 47 3c
       -0.020235712 -0.017120263 -0.0048257043 0.012179973
000250 61 b4 0d bd 48 e6 2b 3d 77 8f 6d 3d 84 97 46 3d
       -0.03459585 0.04196766 0.057998147 0.04848434
000260 f0 ab 7a 3d 4c d9 fd bc 64 cc 8e bb 5c bc ab 3d
       0.06119913 -0.030987404 -0.0043578614 0.08385536
000270 7b b6 11 bd 2b 63 f4 3c f3 7f a1 3b b4 1e 35 bd
       -0.035574418 0.029832443 0.004928583 -0.044218734
000280 fe 33 d3 3d 4e 04 22 bd f4 8e 99 bd 18 eb a9 bc
       0.10312651 -0.039554887 -0.07497969 -0.020741984
000290 75 72 87 3c 24 dd 36 3c f1 a7 4f 3d 0c 8c 2a 3d
       0.01653407 0.0111611225 0.05069727 0.041637465
0002a0 52 25 a3 bd f1 58 4c 3d 7c 50 8c 3d db 6d 83 bd
       -0.07966103 0.04988951 0.06851289 -0.06417438
0002b0 90 c1 76 bd c9 a6 74 3d 10 68 83 3d 87 15 6e 3d
       -0.06024319 0.05972937 0.06416333 0.058126
0002c0 31 bd 30 bd 1e 73 0f 3d 8a 0e 30 bd 2e 0f 68 3d
       -0.043149177 0.035021894 -0.042982616 0.0566551
0002d0 40 ef b5 3d d7 d7 02 3d df a2 13 3a a0 a1 f8 3c
       0.08883524 0.031944122 0.00056318747 0.030350506
0002e0 09 f5 0e 3c ff 98 4a 3d fb b0 a5 bc 9b e9 a0 bd
       0.008725413 0.049462315 -0.020225992 -0.07857057
0002f0 0e 00 54 bd ab 77 a6 bb c9 4e 6c 3d ca 20 93 bc
       -0.051757865 -0.0050801835 0.057692323 -0.017959971
000300 84 15 7d bc 29 19 13 3d 13 52 9e 3d 36 c7 14 3d
       -0.015447024 0.035912666 0.07730498 0.036322795
000310 a5 ce 7f bc 69 7e 08 3b cf 44 d4 bc bd 1e e6 3b
       -0.015613233 0.00208273 -0.025911717 0.0070227073

exp_avg f4 [40, 29]
000000 70 7d 0e b8 ce f4 23 b8 a7 96 23 b6 1a 46 32 37
       -3.397226e-05 -3.909022e-05 -2.4376584e-06 1.0625949e-05
000010 ca bf 5a b8 7f c8 27 b9 38 bd f5 37 8f 5e a7 38
       -5.2153868e-05 -0.00016001052 2.9294388e-05 7.9807935e-05
000020 a4 5f 1d 37 71 66 88 b8 70 63 82 b8 a0 6a 41 38
       9.380197e-06 -6.5040666e-05 -6.217405e-05 4.6114088e-05
000030 df fa 25 38 18 1f c6 36 86 df 1e b9 dc ca b9 36
       3.9572707e-05 5.9044796e-06 -0.00015151323 5.5370456e-06
000040 4c a9 ce 38 e6 50 33 b7 17 3e 43 36 8f 23 94 36
       9.8543795e-05 -1.0688067e-05 2.9093405e-06 4.4148833e-06
000050 f6 a3 60 b6 d2 2b 87 37 00 10 9c b7 78 e7 93 b7
       -3.347404e-06 1.611366e-05 -1.86041e-05 -1.7631552e-05
000060 94 03 70 36 a9 45 fd 37 b1 ee 93 38 bd 7c 8c b8
       3.576487e-06 3.0192388e-05 7.053966e-05 -6.6989545e-05
000070 48 29 5a b8 50 56 79 37 99 0c 30 38 17 23 d0 36
       -5.2013696e-05 1.4861653e-05 4.1973402e-05 6.202968e-06
000080 ac 3a a2 b7 2c 97 8d 38 a3 de 6e 38 3f e6 22 37
       -1.9339226e-05 6.751562e-05 5.695097e-05 9.709561e-06
000090 67 d2 8c b7 72 c1 e3 b5 10 d3 9c 37 14 1d 36 38
       -1.6787277e-05 -1.6969118e-06 1.8694933e-05 4.3419263e-05
0000a0 a5 d9 c9 37 80 62 1f b8 c4 55 1d 36 8e 27 26 38
       2.4062416e-05 -3.800029e-05 2.3444745e-06 3.9614322e-05
0000b0 50 ba 00 38 75 4c cd b7 f1 88 8e 37 e4 cd f3 b6
       3.0691095e-05 -2.4473507e-05 1.6991487e-05 -7.265933e-06
0000c0 51 ad a1 36 f2 3b 61 b6 2a 57 66 37 e2 38 9c 35
       4.8183506e-06 -3.3562505e-06 1.3729363e-05 1.1639461e-06
0000d0 da 1c f5 b6 df 8e 0f 37 cc 7b e3 b7 cd d9 c7 b6
       -7.3049277e-06 8.556729e-06 -2.7118156e-05 -5.9560175e-06
0000e0 72 bf 85 38 94 64 25 b7 40 3e 20 b5 00 59 9a 36
       6.377594e-05 -9.858184e-06 -5.969523e-07 4.5999186e-06
0000f0 a0 48 ea 34 ea 05 4e b7 4c 42 91 37 2f c4 a4 38
       4.3638738e-07 -1.2279934e-05 1.7316219e-05 7.8566714e-05
000100 1f bb 9a b7 86 c3 3b b8 50 1e 2d b7 a9 a4 f6 37
       -1.8445366e-05 -4.476637e-05 -1.0318661e-05 2.9402161e-05
000110 88 b5 4b 38 05 95 6b b8 5a a6 8c b7 2b 4b 65 b7
       4.8568036e-05 -5.616715e-05 -1.6766764e-05 -1.3666965e-05
000120 4a 48 b7 38 34 5c 96 36 cc 74 99 b8 69 95 ad 36
       8.739585e-05 4.481082e-06 -7.3173636e-05 5.1731954e-06
000130 55 7e 99 36 23 34 20 b6 ad f8 4a 37 ca bb da b6
       4.5744623e-06 -2.3872205e-06 1.2098038e-05 -6.518768e-06
000140 a1 39 96 37 c4 06 3a 37 fc 2f 26 b7 1f 77 e6 b6
       1.7908229e-05 1.1088039e-05 -9.905543e-06 -6.8684017e-06
000150 f0 3f 60 b8 0a 77 99 b7 ac 91 58 38 33 14 a0 b7
       -5.3465308e-05 -1.8294453e-05 5.163408e-05 -1.9082892e-05
000160 e2 a2 87 b8 ea 6c 20 b6 cb 41 e0 b7 c4 2b 29 b8
       -6.467641e-05 -2.3905254e-06 -2.6733518e-05 -4.03335e-05
000170 cd 50 5f b8 24 e0 cc b7 c3 e2 a2 37 ec f4 13 b7
       -5.3242595e-05 -2.4423069e-05 1.9417499e-05 -8.818908e-06
000180 3c 4f 71 b7 b3 8b 6f b8 fb f2 16 37 04 4f 99 b6
       -1.4383168e-05 -5.7112145e-05 8.99727e-06 -4.568954e-06
000190 ab 80 05 38 8a 84 c1 b8 59 3c 92 b7 67 67 35 37
       3.1829502e-05 -9.2276445e-05 -1.7432658e-05 1.0812516e-05
0001a0 a0 09 3a b7 a6 5a 14 36 01 ed bc b5 bd f2 94 b6
       -1.1088705e-05 2.2106483e-06 -1.4076069e-06 -4.439002e-06
0001b0 30 61 95 36 8e 57 46 b6 89 dc 6a b7 71 52 03 36
       4.45186e-06 -2.9555263e-06 -1.3998834e-05 1.9568508e-06
0001c0 7c d0 c6 b4 90 0c b2 37 1d 34 49 b8 ec 4d 76 b7
       -3.7032066e-07 2.1225103e-05 -4.797067e-05 -1.4680885e-05
0001d0 2f a8 46 37 c4 cc 32 36 1a 4f 2e 36 23 33 9e 38
       1.1840878e-05 2.6643256e-06 2.5974064e-06 7.543552e-05
0001e0 3e 2a 93 b8 36 f9 18 38 32 3e 84 b8 34 a9 0b 38
       -7.0173744e-05 3.647172e-05 -6.305835e-05 3.3297765e-05
0001f0 9c 83 c2 b5 ac 8d 6c 38 e8 3a a7 b8 00 7f 23 34
       -1.449243e-06 5.6398727e-05 -7.974153e-05 1.522676e-07
000200 0b ad ee 37 68 f9 2b b8 4f 03 7d 38 e0 d9 95 b8
       2.845239e-05 -4.1001855e-05 6.0322982e-05 -7.145456e-05
000210 b8 bb 70 38 38 c7 a5 37 b9 1d c2 36 5e 35 85 b7
       5.7395286e-05 1.9762301e-05 5.7851107e-06 -1.5879687e-05
000220 e8 f7 0c b4 99 0f 7d 37 77 2d 7d b6 94 73 4a b7
       -1.3128704e-07 1.5083607e-05 -3.7726402e-06 -1.2067048e-05
000230 95 6b b0 b6 0b 1d 4d 37 f0 37 84 37 d1 c6 2e 38
       -5.257733e-06 1.2225714e-05 1.5761674e-05 4.1669995e-05
000240 48 6f 8e b8 34 29 cd 37 69 dd 92 38 93 22 c8 b6
       -6.7918154e-05 2.4457091e-05 7.0030634e-05 -5.9644894e-06
000250 70 0c 0c b7 c4 dc 97 38 24 e6 d4 38 5e 6a 85 37
       -8.347546e-06 7.241362e-05 0.00010151815 1.5904367e-05
000260 e3 63 62 b8 bd 3b 26 35 b0 19 09 38 43 86 ad 38
       -5.3975626e-05 6.192675e-07 3.268727e-05 8.274291e-05
000270 6b db 15 b8 89 28 83 b7 3e 3a 8e b8 85 44 2b 39
       -3.5728717e-05 -1.5635293e-05 -6.781936e-05 0.00016333356
000280 f4 bc 0a 38 0a 52 87 b8 2d d8 3e b6 1e d2 be b4
       3.307774e-05 -6.4525826e-05 -2.8438037e-06 -3.5543138e-07
000290 a0 2c 9c 36 24 ee 43 37 f9 72 c6 b6 2b ad ec 36
       4.6543573e-06 1.1678352e-05 -5.9142444e-06 7.0535075e-06
0002a0 78 1b 1e 37 5e 02 a7 b5 c2 6a 94 b6 3c a5 4b b8
       9.423929e-06 -1.2443159e-06 -4.423172e-06 -4.8552858e-05
0002b0 8d 63 c1 38 20 5e 1f 36 ee 7f 28 38 b4 70 cf 38
       9.2215e-05 2.3747634e-06 4.0173465e-05 9.891522e-05
0002c0 12 96 60 36 53 e0 57 37 4f 79 bb 38 5e e0 fb 38
       3.3465953e-06 1.2867228e-05 8.93945e-05 0.00012010404
0002d0 56 30 14 38 fc 6a 5c b8 56 da 26 b5 6c b0 85 38
       3.5330966e-05 -5.2551724e-05 -6.215754e-07 6.374795e-05
0002e0 a0 f0 b4 38 24 9b e8 b7 a5 13 a8 b7 9f fc 10 b8
       8.627889e-05 -2.7728798e-05 -2.0036308e-05 -3.4567547e-05
0002f0 6c 62 2b 39 2c ad dd 37 da 78 5e b8 e9 73 97 37
       0.00016344496 2.6425892e-05 -5.3041476e-05 1.8054578e-05
000300 78 91 23 36 ac 87 98 b6 e7 10 fa 36 1c c0 09 b7
       2.4373567e-06 -4.5457473e-06 7.4525483e-06 -8.210565e-06
000310 e0 44 df 37 8e 7a 83 37 17 a4 2d b7 e1 38 77 b6
       2.6615744e-05 1.5673486e-05 -1.0349809e-05 -3.6838976e-06
000320 46 b0 7a b8 f3 c9 bc 38 6c 9f ef 37 ac 6d f6 b5
       -5.9768812e-05 9.0021545e-05 2.8565257e-05 -1.8360347e-06
000330 06 4b 2d b7 65 42 24 b3 a2 6f c7 b5 56 01 15 b7
       -1.0329071e-05 -3.824461e-08 -1.4859145e-06 -8.881403e-06
000340 93 c3 27 b7 a8 b1 67 b6 60 fa 04 36 70 10 94 35
       -9.999511e-06 -3.4525092e-06 1.981527e-06 1.1031643e-06
000350 80 06 20 b6 a7 f9 50 b7 33 c1 9c 36 2e 28 55 b4
       -2.3845641e-06 -1.2455893e-05 4.6716536e-06 -1.9851788e-07
000360 75 43 06 b5 be b2 9e b6 24 53 28 b7 d4 42 a4 36
       -5.0017053e-07 -4.7295753e-06 -1.0032938e-05 4.8953607e-06
000370 9d 38 b4 b3 60 da e4 b3 12 a5 09 35 75 f4 30 36
       -8.392201e-08 -1.06567995e-07 5.1276686e-07 2.6368336e-06
000380 19 23 81 b5 1e 9e 50 37 f1 52 58 35 95 b3 77 b5
       -9.621464e-07 1.2434581e-05 8.0586966e-07 -9.2275997e-07
000390 47 06 03 b7 cc ea c8 b5 7c b7 dd b6 fa 18 13 b7
       -7.80967e-06 -1.4969496e-06 -6.6076736e-06 -8.767698e-06
0003a0 84 fc a5 37 bb 88 a0 38 74 78 9e 34 ee 03 b7 37
       1.978712e-05 7.6548626e-05 2.9517435e-07 2.181713e-05
0003b0 74 cc 66 38 58 5d 95 37 01 e5 25 38 90 92 cc 37
       5.5026685e-05 1.780565e-05 3.9552342e-05 2.4386944e-05
0003c0 4c 74 a4 b6 57 41 a8 b7 c2 cd 8c 38 f6 12 0d 38
       -4.9011196e-06 -2.0057587e-05 6.7140456e-05 3.363468e-05
0003d0 f4 fa 81 b6 60 45 6b b7 42 0a 47 38 f0 8e 89 37
       -3.8737144e-06 -1.4023244e-05 4.745485e-05 1.6398233e-05
0003e0 fe 9b e2 37 ce 6f 9d 36 92 0d 56 36 38 83 01 b7
       2.7013939e-05 4.6919804e-06 3.1896384e-06 -7.719551e-06
0003f0 f4 85 37 b7 46 77 06 37 10 fd 20 b7 81 1c 80 b5
       -1.0938838e-05 8.014793e-06 -9.595664e-06 -9.545039e-07
