timeSerise/logs/lightning_logs/version_1/checkpoints/epoch=199-step=10400.ckpt (torch, 48219 bytes, 27 tensors)

lstm.weight_ih_l0 f4 [40, 30]
0	0xbc9170a1	-0.017753901
1	0xbd67f63c	-0.05663131
2	0x3e2fab23	0.17155127
3	0x3e1e576b	0.15463035
4	0x3c8dfe05	0.01733304
5	0x3c9fdb4d	0.01951375
6	0x3dbdb51c	0.092630595
7	0x3d228948	0.039681703
8	0xbe684a4f	-0.22684596
9	0xbe84e768	-0.259578
10	0x3d7668c2	0.0601585
11	0x3d233ded	0.03985398
12	0x3e106d98	0.14104307
13	0x3e3132bd	0.17304511
14	0x3e2f15d4	0.1709817
15	0xbdfc13d0	-0.123084664
16	0x3c959071	0.018257352
17	0xbed9eb79	-0.42562464
18	0x3e912ed1	0.2835603
19	0xbd071527	-0.032979157
20	0xbdbd58e8	-0.09245473
21	0x3dbe3f27	0.09289389
22	0xbe9a66d4	-0.30156577
23	0x3d893a0c	0.06700525
24	0xbe052044	-0.1300059
25	0xbd05487e	-0.032539837
26	0xbecad4b6	-0.3961541
27	0xbed16bf8	-0.40902686
28	0x3d914044	0.07092336
29	0xbe74d5c5	-0.23909672
30	0x3e80cd4e	0.25156635
31	0x3e4cc4d2	0.19996956
32	0xbdff7753	-0.12473931
33	0x3e8e4bd6	0.27792233
34	0x3e50e247	0.20398818
35	0xbe0cfe76	-0.13768944
36	0x3dc437d5	0.095809616
37	0xbe63df86	-0.22253236
38	0x3dd53c6e	0.10411917
39	0xbe362f6f	-0.17791532
40	0x3e4a342c	0.19746464
41	0x3e5cb4fb	0.21553414
42	0x3d9eab1d	0.07747481
43	0xbde82533	-0.1133522
44	0x3e31b445	0.17353924
45	0xbea18319	-0.31545332
46	0xbe72c0ee	-0.2370641
47	0x3e4d9dfa	0.20079795
48	0xbe3185e3	-0.1733623
49	0x3ea06edb	0.31334576
50	0x3e9474e7	0.2899544
51	0xbe917470	-0.28409147
52	0xbe7c0bfe	-0.2461395
53	0xbe38ce25	-0.18047388
54	0x3d58581f	0.052818414
55	0x3e5a2516	0.2130321
56	0xbd6d4bd1	-0.057933632
57	0xbdae27e7	-0.085037045
58	0xbe8fac7c	-0.28061283
59	0xbe6c6590	-0.23085618
60	0xbd32d88b	-0.043663543
61	0x3e1f4359	0.15553035
62	0x3e6e73e7	0.232864
63	0x3e72b417	0.23701511
64	0xbe822041	-0.25415233
65	0x3d9e9120	0.07742524
66	0x3e1e50ff	0.15460585
67	0xbe15f292	-0.14643314
68	0xbe914761	-0.2837477
69	0xbe864982	-0.26227957
70	0x3e4ee432	0.20204237
71	0xbd220027	-0.039550927
72	0xbea24a65	-0.31697384
73	0xbcd12949	-0.025532382
74	0xbc80af94	-0.015708722
75	0x3d54bb32	0.051936336
76	0xbe00ab28	-0.12565291
77	0xbe1a4457	-0.15065132
78	0xbeb15381	-0.3463402
79	0x3c0c76d8	0.008573256
80	0x3e1068d5	0.1410249
81	0xbe27a7cd	-0.16372605
82	0x3e616751	0.22012068
83	0xbe0f0b68	-0.13969195
84	0x3eb81d98	0.35960078
85	0x3d62c044	0.05535914
86	0xbe7a58c5	-0.24447925
87	0xbe906483	-0.28201684
88	0xbea88564	-0.3291427
89	0x3e817598	0.2528503
90	0xbe9ea3c5	-0.3098432
91	0x3e3205bd	0.17385001
92	0x3e433aa5	0.1906534
93	0xbd94b5bc	-0.072612256
94	0xbe84b8f3	-0.25922355
95	0x3e6b625c	0.2298674
96	0x3e691782	0.22762874
97	0xbeb5acd5	-0.35483423
98	0x3e4a1a04	0.19736487
99	0xbe7fc156	-0.24976096
100	0x3b718373	0.0036852031
101	0x3dc3b9bd	0.09556911
102	0x3cb2e9d4	0.021840014
103	0x3d972545	0.073801555
104	0xbda57ff5	-0.080810465
105	0x3dc67ff9	0.096923776
106	0xbc752e25	-0.014964615
107	0xbdf2e61c	-0.11860296
108	0x3d4748d0	0.048653424
109	0x3e608e54	0.21929294
110	0xbd03cabd	-0.03217577
111	0x3ea25ffa	0.3171385
112	0x3e3924a3	0.18080382
113	0xbd2f8021	-0.042846803
114	0xbe388b09	-0.18021788
115	0xbeb51c09	-0.35372952
116	0xbe2664f8	-0.16249454
117	0x3db9f4b2	0.09079875
118	0x3b1836a1	0.002322592
119	0x3e5de421	0.21669056
120	0xbe1237e9	-0.1427914
121	0x3e9ed5ab	0.3102239
122	0x3ea0aeba	0.31383306
123	0xbe48b9da	-0.19602147
124	0x3de324a1	0.11090971
125	0xbda789c9	-0.08180577
126	0x3ebe91a1	0.3722048
127	0xbe83ccac	-0.2574209
128	0xbe5d7e7f	-0.21630286
129	0x3e28cad3	0.16483621
130	0xbe559f31	-0.20861508
131	0xbdafec28	-0.08589965
132	0x3cc6fbaf	0.024289934
133	0x3dba254c	0.09089145
134	0x3e53f2cb	0.20698087
135	0xbe100e79	-0.14068021
136	0x3dac527a	0.08414169
137	0xbe6a6656	-0.228906
138	0x3e9e9727	0.30974695
139	0x3d5e52ce	0.054278187
140	0xbd94dfc5	-0.07269243
141	0xbf07b078	-0.53003645
142	0x3c2bba03	0.01048136
143	0xbccc2960	-0.024922073
144	0xbdaeaa6d	-0.085286
145	0xbd980848	-0.074234545
146	0x3e0854bf	0.13313578
147	0x3e63e6d4	0.22256023
148	0x3db7afd0	0.089690804
149	0x3e4e42f8	0.20142734
150	0x3e1acc1d	0.15116926
151	0xbe10f452	-0.14155701
152	0x3e1d6de5	0.15373953
153	0xbe5b44a8	-0.21412909
154	0x3dffdf5c	0.12493774
155	0x3da133b7	0.07871192
156	0xbe79daca	-0.24399868
157	0x3e650b9a	0.22367707
158	0xbdfef8d3	-0.12449803
159	0xbe860d9d	-0.2618226
160	0x3e3b1653	0.18270235
161	0xbe8c4330	-0.2739501
162	0x3deae7ce	0.114699945
163	0xbda88736	-0.082289144
164	0x3e24d28b	0.16095941
165	0xbeb07272	-0.34462315
166	0xbdc0935b	-0.09403106
167	0x3d1581d8	0.03650078
168	0x3cce354a	0.025171895
169	0x3e8b4ff8	0.2720945
170	0x3e3d037b	0.18458359
171	0x3e52b1a4	0.20575577
172	0xbd134676	-0.03595587
173	0x3de99afa	0.114065126
174	0x3d21d911	0.03951365
175	0x3eb69655	0.3566157
176	0xbea784bd	-0.3271846
177	0x3e2519fb	0.16123192
178	0x3e114351	0.14185835
179	0xbe4b8d18	-0.19878042
180	0x3ebf97b5	0.3742043
181	0xbdc5da94	-0.09660831
182	0x3e94edb6	0.2908761
183	0x3e9a17d5	0.30096307
184	0x3e466c6e	0.193773
185	0x3e8a63dc	0.27029312
186	0xbea19afb	-0.31563553
187	0x3e8a01ac	0.269544
188	0x3e473556	0.1945394
189	0x3d1e3330	0.038623035
190	0xbea16241	-0.31520274
191	0xbe3c6994	-0.1839965
192	0x3e34e634	0.1766594
193	0x3da50b83	0.08058836
194	0xbe617f6b	-0.22021262
195	0x3e5b5aee	0.21421406
196	0xbe1ce01a	-0.15319863
197	0xbe08d22b	-0.13361423
198	0xbe4cd47f	-0.20002936
199	0x3e5d3621	0.2160268
200	0xbe10301e	-0.14080855
201	0x3df4cc76	0.1195306
202	0xbafe48a2	-0.0019400308
203	0x3dd35504	0.1031895
204	0xbdbd1410	-0.09232342
205	0xbda98f46	-0.0827928
206	0xbe93c0aa	-0.2885793
207	0x3e06f4cd	0.13179322
208	0x3e623ecb	0.22094266
209	0x3dcd0a4f	0.10011732
210	0x3c7ef265	0.015560721
211	0x3d01f608	0.031728774
212	0x3e8dce52	0.27696472
213	0x3d006eef	0.031355795
214	0x3e932ef4	0.2874676
215	0xbe09d83b	-0.13461392
216	0xbde4c3ed	-0.111701824
217	0xbe3fed4f	-0.1874287
218	0xbe5fd943	-0.21860223
219	0x3eb8b2c8	0.360739
220	0xbe1d223c	-0.1534509
221	0x3e9b1a76	0.30293626
222	0x3e841f11	0.25804952
223	0x3e5d4437	0.21608053
224	0xbde25dde	-0.1105306
225	0xbd897bfe	-0.06713103
226	0xbdf0587a	-0.117356256
227	0xbc9ee6aa	-0.019397099
228	0x3e05fad4	0.13083965
229	0xbea639c2	-0.3246594
230	0x3da55500	0.08072853
231	0x3ca1781d	0.019710595
232	0xbe328ecb	-0.17437284
233	0xbeb24119	-0.3481529
234	0xbcb1a45c	-0.021684818
235	0x3e0b1fa1	0.13586284
236	0x3eb3eff7	0.35144016
237	0xbe716b2a	-0.23576036
238	0x3e5b5cbc	0.21422094
239	0x3e96b462	0.29434496
240	0x3d9856a7	0.074384026
241	0x3e5155e3	0.2044292
242	0xbe3b8005	-0.18310554
243	0xbe10cf99	-0.14141692
244	0xbe79c006	-0.24389657
245	0x3dec4778	0.11537069
246	0x3d7d65ad	0.061864544
247	0xbdec06e7	-0.11524754
248	0xbde138ca	-0.1099716
249	0x3eb2f026	0.34948844
250	0x3d8b36f3	0.0679759
251	0x3cdb7286	0.026788007
252	0x3e9615a9	0.293134
253	0xbe18d17f	-0.14923666
254	0xbb926f4e	-0.004468835
255	0x3e6604c9	0.22462763

lstm.weight_hh_l0 f4 [40, 10]
0	0x3e953dfc	0.29148853
1	0xbd5012b7	-0.050799098
2	0x3e87ea2a	0.2654584
3	0x3e71ea2e	0.23624489
4	0xbdb32a82	-0.08748342
5	0xbd97b863	-0.07408216
6	0x3e910949	0.28327397
7	0xbe2c1657	-0.16805397
8	0xbe042134	-0.12903291
9	0xbc8a5ac4	-0.016888984
10	0x3e04046f	0.12892316
11	0x3e55f898	0.20895612
12	0x3e6c40a1	0.23071529
13	0xbe8be2a9	-0.27321365
14	0xbaa6b5b3	-0.0012718946
15	0xbad52218	-0.0016260771
16	0x3e8e83e3	0.27834997
17	0xbe5546d9	-0.20827807
18	0xbe93ecc5	-0.28891578
19	0x3e3dae27	0.18523465
20	0xbdc6c944	-0.09706357
21	0x3bae8369	0.005325724
22	0x3dcc8e6b	0.099881016
23	0x3e383615	0.1798938
24	0x3df9f627	0.12205153
25	0x3df26f22	0.11837603
26	0xbd427ea1	-0.047484044
27	0x3c01e6b4	0.007928539
28	0x3c074586	0.008256322
29	0xbe216b8b	-0.1576368
30	0x3dc03c91	0.09386552
31	0x3e54133a	0.2071046
32	0x3e7f84a1	0.24952938
33	0xbe91ac0a	-0.28451568
34	0xbdfb7ad1	-0.12279285
35	0x3dc2ce39	0.0951199
36	0x3e53cda0	0.20683908
37	0x3d98a39f	0.07453083
38	0x3d9e7802	0.077377334
39	0x3e89371f	0.26799867
40	0xbe1994c9	-0.14998163
41	0x3e1743fe	0.1477203
42	0xbe3f1ebe	-0.18664071
43	0x3e37abbb	0.17936604
44	0x3df0755c	0.117411345
45	0xbec2d6ea	-0.3805459
46	0x3e3349dd	0.17508645
47	0xbd82a028	-0.06378204
48	0xbca616d4	-0.020274557
49	0xbd57ba02	-0.052667625
50	0xbe97bad2	-0.2963472
51	0x3d35f595	0.04442366
52	0x3e6e0c2c	0.2324683
53	0x3e85ea88	0.26155496
54	0xbd885bfb	-0.06658169
55	0x3eaf6515	0.34256807
56	0x3e68a5b0	0.22719455
57	0xbe25df55	-0.16198476
58	0x3db5d7d1	0.08879054
59	0x3e571116	0.21002612
60	0xbe1770c6	-0.14789113
61	0x3e866540	0.26249123
62	0xbe2d3518	-0.16914785
63	0xbd7fb378	-0.062427014
64	0x3e82f7d7	0.25579712
65	0x3e8b5e2c	0.27220285
66	0xbe571553	-0.21004228
67	0x3e4e81fb	0.20166771
68	0xbe4845c4	-0.19557863
69	0xbdbaa026	-0.09112577
70	0x3e7197e1	0.23593093
71	0x3cb50131	0.022095295
72	0x3e5308e7	0.20608865
73	0x3ebd7aae	0.3700766
74	0x3dda0666	0.10645752
75	0x3e8a8692	0.27055794
76	0xbddc6242	-0.10760929
77	0xbe12a5b0	-0.14321017
78	0xbe4e21c0	-0.20130062
79	0x3c7a833f	0.015290081
80	0x3e0bd884	0.13656813
81	0x3e21c046	0.15796003
82	0x3e52f9e0	0.20603132
83	0x3e8bf0aa	0.2733205
84	0x3e1d1feb	0.15344207
85	0x3e5c851a	0.21535149
86	0xbe716c8d	-0.23576565
87	0x3e43cb65	0.19120558
88	0xbcf60e94	-0.030036248
89	0x3e82d15e	0.2555036
90	0xbe1505c1	-0.14552976
91	0xbe0f05bd	-0.13967033
92	0xbdd286dd	-0.102796294
93	0x3e33fb71	0.17576386
94	0xbdeaa4ac	-0.1145719
95	0xbbd298d0	-0.006426908
96	0xbdd42aad	-0.10359702
97	0xbd711790	-0.05886036
98	0xbddc2230	-0.10748708
99	0x3dcf3035	0.10116617
100	0xbe0e4a02	-0.13895419
101	0xbe6e14cc	-0.23250121
102	0xbe7d5b54	-0.2474187
103	0x3e4ae038	0.19812095
104	0xbe547d3a	-0.20750895
105	0x3e90b96a	0.2826646
106	0x3e97c2e2	0.2964087
107	0xbdb2c478	-0.0872888
108	0x3e82764b	0.25480875
109	0xbea0f33d	-0.31435576
110	0x3e50e130	0.20398402
111	0x3e13ef83	0.14446835
112	0xbda674f1	-0.081277736
113	0xbdd21645	-0.10258154
114	0x3db3b871	0.08775414
115	0x3d576298	0.05258426
116	0x3c552f76	0.013011804
117	0xbdcdb044	-0.100433856
118	0xbe3b0963	-0.182653
119	0x3dd2db06	0.10295682
120	0xbe599f45	-0.21252163
121	0x3dc20bc3	0.094748996
122	0xbe8fffb4	-0.28124774
123	0xbe28662e	-0.16445228
124	0x3e6a94da	0.22908345
125	0x3e824988	0.25446725
126	0xbdc6e8cf	-0.097123735
127	0xbe329b02	-0.17441943
128	0x3d4c1750	0.04982692
129	0x3ea75e1c	0.32688987
130	0xbe114acd	-0.1418869
131	0x3d5787c7	0.05261972
132	0xbe8d3161	-0.27576736
133	0x3e34c5f5	0.1765364
134	0xbe50663a	-0.20351496
135	0x3d160964	0.03663005
136	0xbe864fc2	-0.26232725
137	0x3d98a585	0.07453445
138	0x3caee47f	0.02134919
139	0xbe81ccf2	-0.25351673
140	0xbda7288f	-0.08162033
141	0x3e58e8c9	0.2118255
142	0x3e6c4737	0.23074041
143	0xbd11f895	-0.035637457
144	0x3ddc3a77	0.10753339
145	0xbec40e59	-0.38292196
146	0xbe0989f7	-0.13431536
147	0xbd8cc400	-0.068733215
148	0x3dc20395	0.094733395
149	0x3dec6fe4	0.11544779
150	0x3d9b1d1c	0.075739115
151	0xbe824de9	-0.25450066
152	0x3e78fdea	0.2431561
153	0xb9b498d3	-0.00034446138
154	0x3e637bb6	0.2221516
155	0xbe31f003	-0.17376713
156	0x3cccb8b4	0.024990417
157	0xbe79e781	-0.24404718
158	0x3e8f615c	0.28003967
159	0x3d8ee086	0.06976418
160	0x3d11cf13	0.035597872
161	0x3e672445	0.2257243
162	0x3e606949	0.21915163
163	0x3dab49b7	0.08363669
164	0x3ebfe25a	0.3747738
165	0xbe4db4d9	-0.20088519
166	0xbe90e107	-0.28296682
167	0x3ead1b7e	0.33810037
168	0x3e32b53f	0.17451952
169	0x3bef4cbe	0.0073028496
170	0x3e2dde9a	0.16979447
171	0xbe5b3f1e	-0.21410796
172	0x3d1e0a23	0.038583886
173	0x3bf24313	0.00739325
174	0xbe49d598	-0.19710386
175	0x3e66d3aa	0.22541681
176	0xbc156a74	-0.009119619
177	0x3e980091	0.29687932
178	0x3e08c5e2	0.13356736
179	0x3e3031b9	0.17206468
180	0xbf02596b	-0.5091769
181	0x3e846b9d	0.25863352
182	0x3eab560f	0.33464095
183	0x3e0c9299	0.13727798
184	0xbe2b1d14	-0.16710311
185	0xbdeeac68	-0.11653978
186	0xbe4cc119	-0.19995536
187	0x3d2adb60	0.04171312
188	0xbe093f47	-0.13403045
189	0x3e83156f	0.2560229
190	0xbe32a96b	-0.1744744
191	0xbcb6e6c7	-0.02232684
192	0x3e970790	0.29497957
193	0xbdaf183c	-0.08549544
194	0xbe389586	-0.18025789
195	0x3d6532df	0.055956718
196	0xbdc37f90	-0.09545815
197	0x3c376924	0.011194501
198	0x3d1cef1b	0.038313966
199	0x3ddd7bb3	0.108146094
200	0x3e8a7b3e	0.2704715
201	0x3e5b9571	0.21443726
202	0x3e7e5240	0.24836063
203	0xbe624ae8	-0.22098887
204	0x3cc15f34	0.023604967
205	0xbe114ad7	-0.14188705
206	0xbe0ec30e	-0.13941595
207	0xbe7aaeb7	-0.24480711
208	0xbc776329	-0.015099325
209	0xbe5d4b6a	-0.216108
210	0x3e206d1b	0.1566662
211	0x3debd308	0.115148604
212	0xbe92af09	-0.28649166
213	0xbe69d29b	-0.22834246
214	0xbced523a	-0.028969873
215	0x3e66c225	0.22534998
216	0xbd802ad4	-0.06258169
217	0x3e8cac30	0.2747512
218	0x3e549100	0.20758438
219	0x3d4318b8	0.047630996
220	0x3e886dea	0.26646358
221	0x3d3da8ee	0.046303682
222	0x3e4a6cd0	0.19768071
223	0x3e57ef0f	0.21087287
224	0x3dbf9f17	0.09356516
225	0xbe8a20e7	-0.26978227
226	0x3db3cb39	0.08778996
227	0xbd91b8f6	-0.071153566
228	0x3e812964	0.2522689
229	0x3e3cd031	0.18438794
230	0x3d00d27b	0.03145073
231	0xbe4e4bfa	-0.2014617
232	0xbd8ec49b	-0.06971093
233	0x3dde85d3	0.10865369
234	0xbe2281e3	-0.1586986
235	0xbe436231	-0.19080426
236	0x3e4f450d	0.20241185
237	0xbe9a5d13	-0.30149135
238	0xbe242553	-0.16029863
239	0xbdb6ff82	-0.08935453
240	0xbe38f0bb	-0.18060581
241	0x3cfb15db	0.03065007
242	0x3d92299e	0.07136844
243	0xbd61443b	-0.05499671
244	0xbe87aefe	-0.26500696
245	0xbe21a49d	-0.15785451
246	0xbe909165	-0.28235927
247	0x3e977914	0.29584563
248	0xbeaa2334	-0.33229983
249	0x3e48fef2	0.19628504
250	0x3bbac510	0.005699761
251	0x3e134011	0.14379908
252	0x3e9b369f	0.3031511
253	0xbe8f283a	-0.27960378
254	0xbe23df22	-0.16003087
255	0xbe84595b	-0.25849423

lstm.bias_ih_l0 f4 [40]
0	0xbd329d42	-0.043607004
1	0xbe7dea2a	-0.24796358
2	0x3e3d605e	0.18493792
3	0x3e0f415a	0.13989773
4	0x3dd1d080	0.10244846
5	0xbc04f612	-0.008115308
6	0x3e4851ff	0.19562529
7	0xbe810e11	-0.25206044
8	0x3e226dff	0.15862273
9	0xbe67d091	-0.22638156
10	0xbe9b61b6	-0.30347985
11	0xbe82e5bf	-0.25565907
12	0x3e8f17bf	0.27947804
13	0x3e22ebbe	0.15910241
14	0xbe5ca1f3	-0.21546154
15	0xbe73011a	-0.23730889
16	0x3e27204d	0.16320916
17	0xbe7b63e8	-0.2454983
18	0x3ea7ffa2	0.3281222
19	0xbe6f4775	-0.23367102
20	0x3dac7721	0.084211595
21	0xbc34d448	-0.01103694
22	0xbd7d56f9	-0.06185052
23	0xbdd50672	-0.1040162
24	0x3e89ae17	0.26890633
25	0xbe934876	-0.2876622
26	0x3d7c0911	0.061532084
27	0xbe0f1b24	-0.13975197
28	0xbd34af24	-0.04411234
29	0x3e3b92f8	0.18317783
30	0x3eb5f32d	0.3553709
31	0xbe2ff8dd	-0.17184778
32	0xbe992bbb	-0.29916176
33	0x3e2a51fe	0.1663284
34	0xbcd84783	-0.026401287
35	0xbe96607a	-0.2937048
36	0xbd8c3f3e	-0.06848
37	0x3dfa1a87	0.12212091
38	0xbea17129	-0.31531647
39	0x3d9018cd	0.070359804

lstm.bias_hh_l0 f4 [40]
0	0x3d7b49c4	0.061349645
1	0xbd595be1	-0.05306614
2	0xbc8b03c5	-0.01696957
3	0xbe6d5e4c	-0.23180503
4	0x3e93eca0	0.28891468
5	0xbe991d8c	-0.29905355
6	0xbe233fc5	-0.15942295
7	0x3c511201	0.01276064
8	0xbde7515b	-0.11294814
9	0xbe3e5ecd	-0.18590851
10	0xbe3883c7	-0.18019019
11	0x3cda3a4d	0.026639128
12	0xbdf4c095	-0.119507946
13	0x3e459106	0.19293603
14	0x3e6ba61a	0.23012581
15	0xbe87909d	-0.2647752
16	0xbe121107	-0.14264308
17	0x3d7b07b2	0.061286636
18	0x3ed27987	0.41108343
19	0x3da17553	0.07883706
20	0x3dcfe105	0.10150341
21	0xbe8b3fa0	-0.2719698
22	0x3e16aa17	0.14713322
23	0xbe57dde8	-0.21080744
24	0x3e8f7f5b	0.28026852
25	0xbdfcbb3e	-0.12340401
26	0x3e1a9c75	0.15098746
27	0x3ab3fd06	0.0013732023
28	0xbe109549	-0.14119448
29	0xbe4dabc2	-0.20085052
30	0xbdb726d5	-0.089429535
31	0x3e3a2f33	0.18182068
32	0xbdc957d0	-0.09831202
33	0xbccec6e0	-0.025241315
34	0xbe9cdf2e	-0.30639023
35	0xbddc75ab	-0.10764631
36	0x3b821994	0.0039703343
37	0x3e75145d	0.23933549
38	0xbe5d641e	-0.21620223
39	0xbd5e765f	-0.054312106

lstm.weight_ih_l1 f4 [40, 10]
0	0xbe802da5	-0.25034824
1	0xbd599201	-0.053117756
2	0x3e6071fe	0.21918485
3	0x3d972508	0.0738011
4	0x3dd77c52	0.10521759
5	0xbd95ca32	-0.07313956
6	0xbddfd076	-0.10928433
7	0x3c51dc30	0.012808844
8	0x3e7619a0	0.24033213
9	0x3e5139b7	0.20432173
10	0xbe28bd89	-0.16478552
11	0x3e89081f	0.26764008
12	0x3e5cf13c	0.21576399
13	0xbce1a875	-0.027546147
14	0xbdf3ae0a	-0.1189843
15	0xbc4b5fa5	-0.01241294
16	0x3d9ed582	0.07755567
17	0xbc583290	-0.013195649
18	0xbdb62757	-0.08894222
19	0xbc895855	-0.016765753
20	0xbe7c9a95	-0.24668343
21	0x3e038c5a	0.12846509
22	0x3d67d0f4	0.056595758
23	0x3e35795d	0.17722078
24	0xbdf3b95e	-0.1190059
25	0xbe0c6747	-0.13711272
26	0x3e9c76c2	0.30559355
27	0x3e263bd7	0.16233765
28	0xbe75ab1d	-0.23991056
29	0xbe4c056b	-0.19923942
30	0xbea65b7b	-0.3249167
31	0xbe07550e	-0.1321604
32	0x3e921612	0.28532463
33	0x3de99464	0.114052564
34	0x3e2ba0c3	0.16760544
35	0xbe0aed68	-0.13567126
36	0xbd06f792	-0.032950945
37	0x3e171c27	0.14756833
38	0x3e00cadb	0.12577383
39	0xbe77579f	-0.24154519
40	0x3e9e354c	0.30900037
41	0xbdd099e9	-0.10185606
42	0x3e22f838	0.15915
43	0x3d04497d	0.032296646
44	0x3d619390	0.055072367
45	0x3dc4d13d	0.096102215
46	0x3d1542ca	0.03644065
47	0x3e8f92b9	0.28041628
48	0x3e315187	0.17316256
49	0xbe96af85	-0.29430786
50	0xbe83233e	-0.25612825
51	0xbcf62854	-0.030048527
52	0x3e94ccbf	0.2906246
53	0xbe8998b8	-0.26874328
54	0x3e35f880	0.17770576
55	0x3d09be55	0.03362878
56	0xbe4be995	-0.19913323
57	0x3e8698eb	0.26288542
58	0xbe9cdc91	-0.3063703
59	0xbe25b8b5	-0.16183741
60	0xbd848058	-0.06469792
61	0xbe51f6b1	-0.20504262
62	0xbe4759da	-0.1946787
63	0xbdd28fe3	-0.102813505
64	0xbe1ca57a	-0.152975
65	0xbe901072	-0.28137547
66	0xbe96ee4a	-0.29478675
67	0x3e4cfef6	0.20019135
68	0x3e399623	0.18123679
69	0x3e9b95f4	0.30387843
70	0x3e0170a7	0.1264063
71	0xbe7b4c64	-0.2454086
72	0x3e26704b	0.16253774
73	0x3e874dab	0.26426443
74	0xbd5e5abc	-0.05428575
75	0xbd9f589f	-0.07780575
76	0xbe2b5742	-0.16732505
77	0x3e4004c0	0.18751812
78	0x3d526058	0.05136141
79	0xbd7a94f3	-0.061177205
80	0xbd3e5a1b	-0.04647265
81	0x3ba76cd3	0.0051094084
82	0x3ea3c589	0.31986645
83	0x3e787219	0.24262275
84	0xbe8e90ff	-0.27844998
85	0x3e4ff739	0.20309152
86	0x3e64b48c	0.22334498
87	0x3abf3393	0.0014587514
88	0x3de08ca0	0.10964322
89	0x3d4056cd	0.04695778
90	0x3e3be442	0.18348792
91	0xbc9ad503	-0.0189004
92	0x3e9b660b	0.3035129
93	0xbc039043	-0.00803
94	0xbe969854	-0.29413092
95	0x3e460013	0.19335966
96	0xbe18ca5e	-0.14920947
97	0xbba94c24	-0.0051665474
98	0xbe2762df	-0.1634631
99	0xbe91a247	-0.2844412
100	0x3e83254d	0.25614396
101	0xbd774ba2	-0.060374863
102	0xbe9ce963	-0.3064681
103	0x3dbfe3b5	0.093696035
104	0xbd4c0cea	-0.049817003
105	0x3e6e3434	0.23262101
106	0x3e2dd02a	0.1697394
107	0x3b272c0f	0.0025508439
108	0x3dc3919e	0.09549259
109	0xbdc9c780	-0.09852505
110	0x3ea93078	0.3304479
111	0xbc64bf98	-0.013961695
112	0x3d869fa8	0.06573421
113	0x3e1a6ea0	0.15081263
114	0x3d9ea2d0	0.07745898
115	0x3df5c61a	0.120006755
116	0xbd317700	-0.043326378
117	0x3e9fbbc4	0.3119794
118	0xbc9d6f99	-0.019218253
119	0xbdb0363e	-0.08604096
120	0x3e93771e	0.28801817
121	0x3e2d6ba7	0.16935597
122	0x3e1f514a	0.15558353
123	0xbdd547d6	-0.10414092
124	0xbd74ae2a	-0.05973641
125	0x3e8bdc82	0.27316672
126	0x3e55a324	0.20863014
127	0x3e4a185a	0.19735852
128	0x3dc77035	0.09738199
129	0xbe0a67bb	-0.13516133
130	0x3e868f26	0.2628109
131	0x3de6d372	0.11270799
132	0xbe411fe7	-0.18859826
133	0x3e676bbd	0.22599693
134	0xbe3879cf	-0.18015216
135	0xbe277c32	-0.1635597
136	0x3c0f71a4	0.008755121
137	0xbde2cdab	-0.11074384
138	0xbea5c589	-0.3237727
139	0x3e97386b	0.2953523
140	0x3e650268	0.22364199
141	0x3e44d5db	0.19222204
142	0x3e9f684c	0.3113426
143	0x3e9b9659	0.30388144
144	0xbe7008a4	-0.23440796
145	0xbdd986f2	-0.10621442
146	0x3eb87302	0.36025244
147	0xbda145de	-0.07874654
148	0x3e4195c6	0.1890479
149	0xbda0419d	-0.07825015
150	0x3e33cdc3	0.1755896
151	0xbe2476a6	-0.16060886
152	0xbe637ff1	-0.22216775
153	0xbdc86b32	-0.09786071
154	0x3e34e7d9	0.17666568
155	0xbda713c7	-0.08158069
156	0xbe27c991	-0.16385485
157	0x3e6cf30d	0.23139592
158	0xbd18ff39	-0.037352774
159	0xbe8f563f	-0.27995488
160	0x3dd3d13c	0.10342643
161	0x3e2b6113	0.1673625
162	0xbe4044c2	-0.18776229
163	0x3e07f894	0.13278419
164	0xbe03431f	-0.12818573
165	0x3e16c385	0.14723022
166	0xbe64e660	-0.22353506
167	0xbd2f1343	-0.04274298
168	0x3c417a3c	0.011808928
169	0x3df8fba9	0.12157375
170	0x3e638da8	0.22222006
171	0xbe82d2f4	-0.2555157
172	0x3e75fd3d	0.24022384
173	0x3e009174	0.12555486
174	0xbe64c5c8	-0.22341073
175	0xbd6e51c9	-0.058183465
176	0xbe9555ec	-0.29167116
177	0xbea043af	-0.31301638
178	0xbd94de60	-0.07268977
179	0x3ddbd3cc	0.107337564
180	0xbdc562bf	-0.09637975
181	0xbe703a0f	-0.23459648
182	0x3dfcc827	0.123428635
183	0xbc206d0c	-0.009791624
184	0xbe60a409	-0.21937574
185	0x3dfa3267	0.12216645
186	0x3d9646df	0.07337736
187	0x3d558609	0.05212978
188	0xbd80344e	-0.06259976
189	0xbdc61508	-0.0967198
190	0x3d4859e5	0.048913855
191	0xbe26772b	-0.16256396
192	0xbe70402b	-0.23461978
193	0xbe9e2545	-0.3088781
194	0x3e7a26bb	0.24428837
195	0xbd2293cd	-0.039691735
196	0x3e2b8544	0.16750056
197	0xbe0c2893	-0.13687353
198	0xbe16d539	-0.14729775
199	0x3dc580c7	0.09643703
200	0x3d4225eb	0.047399443
201	0x3d3aa27f	0.045565125
202	0xbdd589b6	-0.10426657
203	0xbe53860c	-0.20656604
204	0x3c88a726	0.016681265
205	0xbdfcbe7b	-0.12341019
206	0xbe491494	-0.19636756
207	0x3cd76c2d	0.0262967
208	0xbe646de1	-0.2230754
209	0xbd2f0565	-0.042729754
210	0x3ddbde34	0.10735741
211	0x3e08d24c	0.13361472
212	0xbde23836	-0.11045878
213	0x3e8d07b3	0.27544937
214	0x3be635fd	0.007025479
215	0x3e3aeeb0	0.18255115
216	0xbebc7dd4	-0.3681475
217	0xbd3b186f	-0.0456776
218	0xbe8f0660	-0.2793455
219	0x3e2a7b9f	0.1664872
220	0x3e924bb9	0.28573397
221	0x3d0b307f	0.033981796
222	0x3e95a5fb	0.29228196
223	0x3e7bf1d7	0.24603973
224	0xbe8397fa	-0.25701886
225	0x3d86a10a	0.065736845
226	0xbdec45d7	-0.115367584
227	0xbe119b1c	-0.14219326
228	0xbe6afd43	-0.22948174
229	0x3d433dd0	0.04766637
230	0xbe8e5b03	-0.2780381
231	0x3da18cf9	0.078882165
232	0xbe981b3f	-0.29708287
233	0x3e0ae2f4	0.13563138
234	0x3ea35a08	0.31904626
235	0xbe786b78	-0.24259746
236	0xbec7188d	-0.38885918
237	0x3ccb906f	0.024849145
238	0x3e612a21	0.21988727
239	0xbe473d2f	-0.19456933
240	0xbd280ef3	-0.04102988
241	0x3e269d5d	0.16270967
242	0xbe95907c	-0.29211795
243	0x3e3f0514	0.18654281
244	0xbdacf4eb	-0.08445152
245	0xbe2424ad	-0.16029616
246	0xbd0f41b9	-0.034974787
247	0x3e250409	0.1611482
248	0x3e57bacb	0.2106735
249	0xbe163598	-0.14668882
250	0xbdc35f0e	-0.095396146
251	0xbe88a926	-0.2669155
252	0xbe3847d8	-0.17996156
253	0x3e8ad4f1	0.27115586
254	0x3ebd2e54	0.36949408
255	0x3e6b04fe	0.22951123

lstm.weight_hh_l1 f4 [40, 10]
0	0x3e785e75	0.24254782
1	0xbd8ed8e8	-0.06974965
2	0x3e28812e	0.16455528
3	0x3e2eb088	0.17059529
4	0x3d9d048c	0.07666883
5	0xbe4d0b85	-0.20023926
6	0x3bbd54d9	0.005777937
7	0x3df022dc	0.11725399
8	0x3e6dd75a	0.23226681
9	0x3e977b34	0.29586184
10	0x3db3722f	0.08762013
11	0x3e096e77	0.13421045
12	0xbe5fd805	-0.21859749
13	0x3e87cc95	0.2652327
14	0xbe314feb	-0.17315643
15	0x3dfd820e	0.123783216
16	0x3e7ea3c4	0.24867159
17	0xbe7e7011	-0.24847437
18	0xbe499b0a	-0.19688049
19	0xbe044f8a	-0.12920967
20	0x3e9cf2d3	0.3065401
21	0xbdf39855	-0.118942894
22	0x3e0981c7	0.13428412
23	0x3e8f9f2f	0.28051135
24	0xbe662443	-0.2247477
25	0x3e673abf	0.22581004
26	0xbe62ab82	-0.22135738
27	0x3e0145aa	0.12624231
28	0x3e62fe63	0.22167353
29	0x3e9c14ae	0.30484527
30	0x3d40ede6	0.047101878
31	0x3e1144f9	0.14186467
32	0x3e9173e5	0.28408733
33	0x3d0db7f9	0.034599278
34	0xbe96da72	-0.29463536
35	0xbe0b32e3	-0.1359363
36	0xbd1e91ee	-0.03871339
37	0x3e9b0190	0.3027463
38	0xbdbb4439	-0.09143872
39	0xbd2560c8	-0.0403755
40	0x3e65d601	0.22444917
41	0x3dc51c66	0.09624557
42	0x3e5bde4d	0.2147152
43	0xbe177029	-0.1478888
44	0xbd215e80	-0.039396763
45	0x3d3a0d8d	0.04542308
46	0x3d92dcf9	0.071710534
47	0xbdb61861	-0.08891369
48	0x3e9481ab	0.2900518
49	0x3e813d7d	0.25242224
50	0x3d658e6e	0.056044035
51	0xbdd42cd4	-0.10360113
52	0xbe869218	-0.26283336
53	0xbe5543f7	-0.20826708
54	0x3e6b2210	0.22962213
55	0xbe25ebd8	-0.16203249
56	0x3e36c0f6	0.17847046
57	0xbdd93a0f	-0.10606777
58	0xbe65a083	-0.22424512
59	0x3dee2094	0.116273075
60	0x3ec3f51f	0.3827295
61	0x3e1ac1d1	0.15112998
62	0xbe0f810e	-0.14014074
63	0xbe411871	-0.1885698
64	0x3dcef3c1	0.10105086
65	0x3e225ca7	0.15855657
66	0x3e09ea68	0.13468325
67	0xbe274d17	-0.16338001
68	0xbdf0d05c	-0.117584914
69	0xbd56bb5d	-0.052424777
70	0x3e8c12be	0.2735805
71	0x3e54dc21	0.20787098
72	0xbcb6edce	-0.022330191
73	0xbe6d61cf	-0.23181842
74	0x3e11ed40	0.1425066
75	0x3d9d966d	0.07694707
76	0x3d1e1ed1	0.038603608
77	0xbe73a091	-0.2379172
78	0x3e1a0016	0.15039095
79	0x3d9ad3e3	0.075599454
80	0x3ea41d4c	0.32053602
81	0x3c698893	0.014253753
82	0x3ebf5038	0.3736589
83	0xbe1e81d6	-0.15479216
84	0xbe5c305d	-0.21502824
85	0xbde15123	-0.11001804
86	0x3df6bd6a	0.120478466
87	0x3e8c668d	0.2742199
88	0x3e6a0854	0.2285474
89	0xbe0c602e	-0.13708565
90	0x3e9145d4	0.28373587
91	0x3e6c7c95	0.230944
92	0xbc9e0195	-0.019287864
93	0xbe35d1b8	-0.17755783
94	0xbda289f1	-0.079364665
95	0x3e448dd5	0.1919473
96	0x3e6c72d1	0.23090674
97	0x3e30f4bb	0.17280857
98	0xbd1b8825	-0.037971634
99	0x3ddf07b0	0.10890138
100	0xbe039118	-0.12848318
101	0x3e553972	0.20822695
102	0x3c855661	0.01627654
103	0x3e54aed4	0.20769817
104	0xbe8b7ba7	-0.27242777
105	0xbe42cef8	-0.19024265
106	0xbe6c5511	-0.23079325
107	0xbe8cc753	-0.27495822
108	0x3d543999	0.051812742
109	0x3dbb338b	0.091406904
110	0x3e7ac115	0.24487717
111	0xbea6f878	-0.32611442
112	0x3df442b9	0.11926789
113	0xbe845d44	-0.25852406
114	0x3dd2e9f1	0.10298527
115	0xbca55d87	-0.020186199
116	0x3e5df9fd	0.21677394
117	0x3e891fae	0.26781982
118	0xbdc2d032	-0.09512366
119	0xbe58c2fc	-0.2116813
120	0xbe944929	-0.28962067
121	0xbdc4f67b	-0.09617325
122	0x3e5f0413	0.21778898
123	0xbe4fcbe6	-0.20292625
124	0xbe6f674b	-0.23379247
125	0x3ca1acde	0.01973575
126	0x3e918bdd	0.2842702
127	0xbda8af13	-0.08236518
128	0x3da4242b	0.08014711
129	0x3ccff77f	0.02538657
130	0xbe70516a	-0.23468557
131	0x3d9a6f69	0.07540781
132	0x3ddf801a	0.10913105
133	0x3e1f4cba	0.15556613
134	0x3df4fc4a	0.11962183
135	0x3dd642ef	0.10461985
136	0xbe25c4e3	-0.16188388
137	0xbe29dd3d	-0.16588302
138	0xbe128961	-0.14310218
139	0x3dc86d17	0.09786432
140	0x3e544885	0.20730789
141	0x3e5fe056	0.21862921
142	0x3d952fdf	0.07284521
143	0xbe818fa1	-0.25304893
144	0xbe06a414	-0.13148528
145	0xbe859c8e	-0.26096004
146	0xbe1e15b1	-0.15437962
147	0x3d0d542c	0.0345041
148	0x3e82ce7e	0.25548166
149	0xbdb0100f	-0.08596813
150	0xbe47884e	-0.1948559
151	0x3b9445e7	0.0045249346
152	0xbe8ad4d1	-0.2711549
153	0x3e88425a	0.26613122
154	0xbe91b203	-0.28456125
155	0xbded854b	-0.11597689
156	0x3ddf0d08	0.108911574
157	0x3de3e39e	0.11127399
158	0x3e7aee03	0.24504857
159	0x3e29191e	0.16513488
160	0xbe9260e3	-0.28589544
161	0x3e1e32a4	0.15449005
162	0x3d049e53	0.032377552
163	0x3e36a57a	0.17836562
164	0xbe127ee8	-0.14306223
165	0xbe7f9495	-0.24959023
166	0xbdb3e72b	-0.08784326
167	0xbe39fe8a	-0.18163505
168	0xbeaaac72	-0.3333469
169	0xbd85bdcb	-0.06530341
170	0xbd1b7de9	-0.037961874
171	0x3da30dd0	0.07961619
172	0xbe3cd36e	-0.18440029
173	0x3e8f3685	0.27971283
174	0x3daaf32e	0.08347164
175	0xbc10b7d7	-0.008832893
176	0xbe803b8f	-0.2504544
177	0x3dcc2cb1	0.09969462
178	0x3ea558c9	0.322943
179	0x3e97f193	0.29676494
180	0x3df7a91e	0.120928034
181	0x3ddffd31	0.10936964
182	0x3e6680d3	0.2251008
183	0xbe2f29ee	-0.17105839
184	0xbe398049	-0.18115343
185	0xbc6bee98	-0.014400147
186	0x3e8cc29a	0.2749222
187	0x3e8bffba	0.2734354
188	0x3e43de7d	0.19127841
189	0x3e56ffb9	0.20995988
190	0xbdca8036	-0.098877355
191	0xbe022d30	-0.1271255
192	0xbdf5dd73	-0.12005129
193	0xbea20f56	-0.31652325
194	0x3da4cbcb	0.08046683
195	0xbe864bb0	-0.2622962
196	0xbc8f7768	-0.017512992
197	0x3c987ac8	0.018613234
198	0x3d3d0cde	0.04615485
199	0xbdb9128f	-0.09036743
200	0xbda069e2	-0.078326955
201	0xbe3c3679	-0.18380155
202	0x3ce9aa84	0.028523691
203	0xbe880fe0	-0.26574612
204	0xbe8265c3	-0.25468263
205	0xbe3d2977	-0.18472849
206	0xbe9c45eb	-0.30522093
207	0xbe29f361	-0.16596748
208	0xbe49e486	-0.19716081
209	0x3e2495fe	0.16072842
210	0x3e1dfee1	0.1542926
211	0x3e887412	0.26651055
212	0xbea228fc	-0.31671894
213	0x3e7de9dc	0.24796242
214	0xbe040b44	-0.12894922
215	0x3e30817c	0.17236894
216	0xbe1abf3a	-0.1511201
217	0x3cfe1f91	0.031020911
218	0xbdac7444	-0.084206134
219	0xbdcd401e	-0.10021995
220	0x3de70c0f	0.11281597
221	0x3e8d4c51	0.27597287
222	0x3e394fa9	0.18096794
223	0x3caa34f8	0.02077721
224	0xbd102780	-0.03519392
225	0xbdd6fb36	-0.104971334
226	0xbdcd6804	-0.10029605
227	0x3e57cb39	0.21073617
228	0xbe3092d6	-0.17243513
229	0xbe1d56a1	-0.15365078
230	0xbc1c2d96	-0.009532353
231	0xbe81fb4a	-0.2538703
232	0xbcc5cf5e	-0.024146732
233	0x3ea22bf6	0.31674165
234	0x3da3f151	0.08005012
235	0x3e55b877	0.20871149
236	0xbe5d7b45	-0.21629055
237	0x3dd301cc	0.10303077
238	0x3e8a1ec7	0.26976606
239	0xbe78766e	-0.24263927
240	0xbe3728c0	-0.17886639
241	0xbe822dd1	-0.2542558
242	0xbea6655d	-0.3249921
243	0xbdb0c315	-0.08630959
244	0xbe86c5b3	-0.26322708
245	0xbdfa9961	-0.12236286
246	0xbe5fdda0	-0.21861887
247	0x3cd1d4f6	0.025614243
248	0x3db2418c	0.08703908
249	0xbdda1e78	-0.10650343
250	0x3e21463f	0.15749453
251	0xbe1948a1	-0.14969112
252	0x3e903680	0.2816658
253	0x3d27687f	0.04087114
254	0xbe8f400c	-0.2797855
255	0x3e5e67d8	0.21719301

lstm.bias_ih_l1 f4 [40]
0	0x3e58ad8e	0.21159956
1	0x3d0a6d55	0.033795673
2	0xbe7eefd9	-0.24896182
3	0x3e296a15	0.16544373
4	0x3de403e6	0.11133556
5	0xbe2d4324	-0.16920143
6	0xbe0f6da3	-0.14006667
7	0x3e8d2120	0.27564335
8	0x3eb2ac49	0.34897068
9	0xbe25dfb5	-0.16198619
10	0xbe04a647	-0.12954055
11	0xbd855f09	-0.06512267
12	0x3e0b213b	0.13586895
13	0xbe746f28	-0.23870528
14	0x3e7fe2f3	0.24988918
15	0x3e82f50e	0.25577587
16	0xbde0df4e	-0.10980092
17	0xbe70554c	-0.23470038
18	0xbe14c6f8	-0.14529026
19	0x3d78b4f1	0.060719434
20	0x3e8b9c90	0.27267885
21	0x3d9d230b	0.076726995
22	0x3e825ff4	0.2546383
23	0xbdb61461	-0.08890606
24	0xbe8ea8ac	-0.2786306
25	0xbe587109	-0.2113687
26	0x3e7c81ef	0.2465894
27	0x3e7b2cae	0.24528763
28	0x3e5853f7	0.2112578
29	0x3e14af90	0.14520097
30	0x3d12fd97	0.035886373
31	0xbe81af17	-0.25328895
32	0x3db442cd	0.08801804
33	0xbd4b9380	-0.049701214
34	0xbe640c91	-0.22270419
35	0x3da4fc97	0.0805599
36	0x3e108b58	0.14115655
37	0xbe8d6fe8	-0.2762444
38	0xbde71606	-0.112834975
39	0xbdf6fb45	-0.120596446

lstm.bias_hh_l1 f4 [40]
0	0x3e131043	0.14361672
1	0x3e411b24	0.1885801
2	0xbe884b25	-0.2661983
3	0xbc9dcc8d	-0.019262576
4	0xbd103a33	-0.035211753
5	0x3e9285e9	0.2861779
6	0xbe3657d5	-0.17806943
7	0x3ea055a0	0.31315327
8	0xbdf4eef4	-0.11959639
9	0xbe3ede49	-0.18639483
10	0x3e4372d7	0.19086777
11	0xbe800a05	-0.25007644
12	0x3e7b3b1b	0.24534266
13	0x3db4eae3	0.088338636
14	0xbe0e39d2	-0.13889244
15	0x3c0bbded	0.008529169
16	0xbd6d1ed8	-0.057890743
17	0x3d82d022	0.063873544
18	0x3e6d6ca0	0.23185968
19	0xbbd22aea	-0.006413807
20	0xbdc74aae	-0.09731041
21	0xbe138f10	-0.14410043
22	0x3e9c86f6	0.30571717
23	0x3e53711d	0.20648618
24	0xbe2cf4e5	-0.16890295
25	0x3dcc6387	0.09979921
26	0x3d47452c	0.04864995
27	0x3e2d16f1	0.16903283
28	0xbcec6881	-0.028858425
29	0x3e9b6faf	0.30358645
30	0x3e41d0b9	0.18927278
31	0xbd86734a	-0.065649584
32	0x3d2fae42	0.042890795
33	0x3e3254c5	0.1741515
34	0x3c33ff54	0.010986168
35	0xbca338bb	-0.019924512
36	0x3e4875da	0.19576207
37	0xbdf6f137	-0.12057727
38	0x3e313ce7	0.17308389
39	0xbdb70770	-0.089369655

fc.weight f4 [1, 300]
0	0x3c50620f	0.0127186915
1	0xbb4189bc	-0.002953156
2	0x3d829131	0.06375349
3	0xbcf1a622	-0.029498164
4	0xbd5b0eb2	-0.05348081
5	0xbc8920ba	-0.016739238
6	0x3ba38324	0.0049899984
7	0x3c1e3d44	0.009658162
8	0x3d69c80c	0.057075545
9	0xbd00a510	-0.031407416
10	0xbcc2df2b	-0.023788055
11	0xbc1354c9	-0.008992382
12	0x3b67d696	0.0035375706
13	0xbd91f3c0	-0.0712657
14	0xbd66ea82	-0.056375988
15	0x3d27500f	0.040847834
16	0x3c58a326	0.013222491
17	0x3d7a4e44	0.061109796
18	0x3c95a937	0.018269164
19	0xbd22dba7	-0.039760258
20	0xbb87ece9	-0.004148115
21	0x3d49fe13	0.04931457
22	0xbd188166	-0.03723278
23	0x3bd1a470	0.0063977763
24	0x3c9fed47	0.019522322
25	0xba3f0951	-0.000728746
26	0xbd436c36	-0.04771062
27	0xbc951e45	-0.01820291
28	0x3d6ce7a0	0.057838082
29	0x3c1f748a	0.009732375
30	0x3d29029f	0.041262265
31	0xbd631740	-0.055442095
32	0x3aa6b5a8	0.0012718933
33	0xbc3b6d3e	-0.01143962
34	0x3cde4177	0.027130825
35	0x3b2449c7	0.0025068389
36	0xbcd0be16	-0.025481265
37	0xbd321b12	-0.043482848
38	0x3d03c98b	0.03217463
39	0x3d00037b	0.03125332
40	0x3d43bfc8	0.04779032
41	0xbd482027	-0.048858788
42	0x3b70fdc0	0.003677234
43	0xbd0b716c	-0.034043714
44	0xbb8b4a88	-0.004250828
45	0xbd805e38	-0.06267971
46	0x3ce08ec7	0.027411832
47	0xbb046050	-0.0020199008
48	0x3ad74fc1	0.0016426967
49	0x3d1f0491	0.038822714
50	0x3d620960	0.055184722
51	0xbd441664	-0.047872916
52	0x3d3ad551	0.04561359
53	0xbc573b33	-0.013136673
54	0xbd141049	-0.036148343
55	0xbd900367	-0.07031899
56	0xbd501efb	-0.050810795
57	0x3c90b7ae	0.01766571
58	0xbb923d93	-0.0044629066
59	0x3cb00b39	0.021489726
60	0x3d7066b9	0.058691714
61	0x3d1fb847	0.0389941
62	0xbcb99f70	-0.022659034
63	0x3c6c2afd	0.014414546
64	0xbd215800	-0.039390564
65	0xbc882b20	-0.016622126
66	0xbcc0e61e	-0.023547228
67	0xbc19b22e	-0.00938086
68	0xbc5df4a0	-0.013547093
69	0x3b579440	0.003289476
70	0xbcc3f46c	-0.02392026
71	0xbc77b5ad	-0.0151189985
72	0xbb532d17	-0.003222292
73	0x3ca41a24	0.020031996
74	0xbd81d351	-0.063391335
75	0xbd6a2f8b	-0.057174247
76	0xbd432680	-0.04764414
77	0xbd3af5ab	-0.045644443
78	0xbcf08f1b	-0.029365113
79	0x3ceb4cd9	0.028723167
80	0xbc027795	-0.007963081
81	0x3cccd083	0.02500177
82	0x3d8269cc	0.063678354
83	0xbc54c7c8	-0.012987085
84	0xbd49b4d2	-0.04924471
85	0x3d09691d	0.03354751
86	0x3cb8cd75	0.022558907
87	0xbb880608	-0.0041511096
88	0xbc21697b	-0.009851809
89	0x3a343ce6	0.00068755297
90	0xbcb6df13	-0.022323167
91	0xbd7d64e7	-0.061863806
92	0xbb87e932	-0.004147672
93	0x3b96e4ff	0.004604935
94	0xbd0b0cd2	-0.033947773
95	0xbd6b0050	-0.057373345
96	0x3c3e4b81	0.011614681
97	0xbc94ef28	-0.018180445
98	0x3ca6aa6e	0.02034494
99	0xbd334942	-0.043771036
100	0x3d83e66a	0.06440432
101	0x3c3a5935	0.011373808
102	0x3b4cd0b9	0.0031252338
103	0xbc6707d8	-0.014100991
104	0xbd6a5cb6	-0.057217322
105	0x3d21bd44	0.03948714
106	0x3cbe9700	0.023265362
107	0x3d3747f4	0.044746354
108	0xbd04ddd9	-0.032438133
109	0x3d36e3a7	0.0446507
110	0xbd043e62	-0.032286055
111	0x3cae95dd	0.021311695
112	0x3be83eb0	0.007087551
113	0x3ba9f9bd	0.005187242
114	0xbd7782f7	-0.060427632
115	0xbd36e6b5	-0.044653613
116	0xbd073347	-0.033007886
117	0xbcf886ff	-0.030337809
118	0x3d4d167b	0.050070267
119	0x3d84693f	0.064653866
120	0xbc8b872c	-0.017032228
121	0x3d04af20	0.032393575
122	0x3cd563be	0.026048537
123	0xbc5b8966	-0.013399458
124	0x3ca817ef	0.020519225
125	0xbd59e9f6	-0.05320164
126	0xbba9ef45	-0.005185994
127	0xbc744cb6	-0.014910867
128	0x3acd6762	0.0015671069
129	0x3cee0b2a	0.029058058
130	0x3d86401c	0.06555197
131	0xbd302bf2	-0.04301066
132	0x3d84daa6	0.064870164
133	0x3d1fb044	0.03898646
134	0xbd7a090a	-0.061043777
135	0xbd802e05	-0.062587775
136	0x3d0b951c	0.03407775
137	0xbc70196b	-0.014654498
138	0x3c20857e	0.009797452
139	0x3ce76ba4	0.02824957
140	0xbcc6576a	-0.024211604
141	0xbd0e2384	-0.03470184
142	0xbcd5b482	-0.02608705
143	0xbcb06496	-0.021532338
144	0xbd0f7e55	-0.03503259
145	0x3d279fc5	0.040923852
146	0x3cf43dec	0.029814683
147	0xbc81d856	-0.015850227
148	0xbd1c0f86	-0.03810074
149	0x3d8b43df	0.06800055
150	0xb9b861c1	-0.00035168047
151	0xbd103cb8	-0.035214156
152	0x3d3e73a7	0.046497013
153	0x3b9a5f49	0.004711066
154	0xbd2d3d96	-0.04229506
155	0xbd5e624b	-0.05429296
156	0x3bd22c18	0.006413948
157	0xbc125715	-0.008931895
158	0x3d5b3b87	0.053523567
159	0x3d3d375b	0.04619537
160	0xbcd46540	-0.025927186
161	0x3a17f84d	0.00057971926
162	0xbd1f86e2	-0.038946994
163	0xbd7ac472	-0.0612225
164	0x3cd49bcd	0.025953198
165	0x3c1e1557	0.0096486425
166	0x3d2a48fa	0.041573502
167	0x3d3eacda	0.046551563
168	0xbc1f5e88	-0.009727128
169	0x3d5e4e9e	0.054274194
170	0xbc17ccc3	-0.009265128
171	0xbcefe359	-0.029283212
172	0xbc32d9e2	-0.010916205
173	0x3ca05f25	0.019576618
174	0xbd0ad7c8	-0.03389719
175	0x3cfc9789	0.030833976
176	0x3d12233d	0.035678137
177	0xbbb78e63	-0.0056016906
178	0xbd79847f	-0.060917374
179	0x3d899722	0.067182794
180	0xbaed386b	-0.0018098479
181	0xba974e40	-0.0011543706
182	0xbc0683d1	-0.008210138
183	0xbc827af9	-0.015927779
184	0x3cb55662	0.022135917
185	0xbd38a811	-0.045082156
186	0xbd231815	-0.03981789
187	0x3d742fb1	0.059615795
188	0x3cbad4ce	0.022806551
189	0x3c96982c	0.018383108
190	0xbd0dde03	-0.034635555
191	0xba5f9925	-0.0008529595
192	0x3d043b6c	0.03228323
193	0x3c2bafef	0.010478958
194	0xbd9646e7	-0.07337742
195	0xbd687a69	-0.056757364
196	0xbbb67a24	-0.0055687595
197	0xbbd5e04d	-0.006526983
198	0xbc3acbc7	-0.011401123
199	0x3c0cf79c	0.008603957
200	0xbb45f347	-0.003020482
201	0xbd27ffde	-0.0410155
202	0x3cbbb0f6	0.02291153
203	0xbb0c7e42	-0.002143756
204	0xbca89e41	-0.020583274
205	0x3c7fa2b9	0.015602761
206	0x3ce67963	0.028134054
207	0xbb7932bb	-0.0038024622
208	0xbca0c6a1	-0.019625964
209	0x3d854229	0.0650676
210	0xbcf35b3e	-0.029706594
211	0xbbcfa48d	-0.0063367547
212	0xbd006647	-0.03134754
213	0xbd514926	-0.05109515
214	0xbd71c31f	-0.059023973
215	0xbd061151	-0.032731358
216	0x3d19802c	0.03747575
217	0xbbc5554c	-0.006022131
218	0xbd1d2615	-0.038366396
219	0x3d0c5dd3	0.034269165
220	0xbd036666	-0.032080077
221	0xbd043d53	-0.032285046
222	0xbca274b1	-0.019831033
223	0xbda20a64	-0.07912138
224	0xbcacd429	-0.02109726
225	0xbabf8590	-0.0014611948
226	0xbc8403c8	-0.016115084
227	0x3b5ebec7	0.0033988224
228	0x3be3446d	0.006935647
229	0x3d334950	0.043771088
230	0xbd09dc93	-0.03365762
231	0xbabe5af6	-0.0014522958
232	0x3d096b6f	0.033549722
233	0xbd3ade2b	-0.045622032
234	0x3c99f0be	0.018791553
235	0xbd1330d5	-0.03593524
236	0x3d3c96d6	0.046042286
237	0x3d1bd896	0.03804835
238	0x3c17ef6c	0.009273391
239	0x3d8b7e4d	0.06811199
240	0x3caf8243	0.021424418
241	0xbd1d54ae	-0.038410835
242	0x3c73c18a	0.014877686
243	0x3d05a7f9	0.032630894
244	0xbd4f751b	-0.05064879
245	0x3cd72d28	0.02626665
246	0xbd512a67	-0.05106583
247	0xbc65aab0	-0.014017746
248	0xbd8ed905	-0.06974987
249	0x3d71cd24	0.059033528
250	0x3d8304a4	0.063973695
251	0xbcd04f7a	-0.025428522
252	0x3c2d9f28	0.010597028
253	0xbd292dca	-0.041303433
254	0xba44568f	-0.0007489705
255	0x3cd9e3bc	0.02659785

exp_avg f4 [40, 30]
0	0xbcbd3aa6	-0.023099255
1	0xbb9afdae	-0.004729948
2	0xba024042	-0.00049686816
3	0xb573ec40	-9.0868343e-07
4	0xb9b141d2	-0.0003380911
5	0xb927714e	-0.0001596857
6	0xb8b91673	-8.825669e-05
7	0xb8a61890	-7.920072e-05
8	0xb98155c8	-0.0002466871
9	0xb8af63af	-8.363218e-05
10	0xb8c4dcfc	-9.38717e-05
11	0xb8d79400	-0.00010279566
12	0xb990fd5b	-0.00027654585
13	0xb7ce0db8	-2.4563502e-05
14	0xb88d49aa	-6.737125e-05
15	0xb7e3e471	-2.7166885e-05
16	0xb8c48348	-9.370461e-05
17	0xb9a248f4	-0.00030953402
18	0x37a6268c	1.9806692e-05
19	0x38b3c177	8.571421e-05
20	0xb8c565e0	-9.412668e-05
21	0xb90a2517	-0.00013174523
22	0xb963dc48	-0.00021730468
23	0xb93d719a	-0.00018066764
24	0x35c30d8a	1.4532573e-06
25	0xb65ec389	-3.3194394e-06
26	0xb6cfb6b6	-6.190351e-06
27	0xb59569bf	-1.1132141e-06
28	0xb78803a6	-1.6214162e-05
29	0x3840a57f	4.5930497e-05
30	0xb13411e6	-2.6203621e-09
31	0xb0295684	-6.160479e-10
32	0xae8e287c	-6.464604e-11
33	0x00000000	0.0
34	0xae8ad532	-6.3133845e-11
35	0xabd4d060	-1.5121342e-12
36	0xab6390d7	-8.0847606e-13
37	0xae28e90a	-3.8405758e-11
38	0xacc4889e	-5.5858226e-12
39	0xadae9106	-1.9845913e-11
40	0xaab64ab7	-3.2381538e-13
41	0xae81c62c	-5.901443e-11
42	0x2d93dd6b	1.6810294e-11
43	0xadc28d54	-2.2118009e-11
44	0x0216b0e2	1.1071022e-37
45	0x2c961737	4.2658338e-12
46	0xae6a8889	-5.3326708e-11
47	0xad891685	-1.5585097e-11
48	0x2a587b48	1.9227426e-13
49	0x2b3f0e9c	6.7877106e-13
50	0x29e51434	1.01731476e-13
51	0xae8aac15	-6.3060814e-11
52	0xab99fea0	-1.0941976e-12
53	0x2a2035a0	1.422946e-13
54	0xabd352ac	-1.5015398e-12
55	0xadf5f91d	-2.7963904e-11
56	0x2df3e959	2.7729529e-11
57	0x2bfab194	1.7812856e-12
58	0xab6fd857	-8.521009e-13
59	0xab60fc0a	-7.993056e-13
60	0xbb472ef7	-0.0030392983
61	0xb99f9862	-0.00030440377
62	0xb76e349a	-1.4198153e-05
63	0x3509ca4a	5.1330846e-07
64	0x3816a8ec	3.5920108e-05
65	0xb8500ee2	-4.9604925e-05
66	0xb68bf2e6	-4.1708e-06
67	0xb7cff756	-2.4791498e-05
68	0x378d476d	1.684177e-05
69	0xb5d1f588	-1.5643172e-06
70	0x356ac146	8.7453043e-07
71	0xb7d52d3a	-2.5412639e-05
72	0x36ee7d34	7.1075283e-06
73	0x367b5f9d	3.7457569e-06
74	0x37ffabc5	3.0478355e-05
75	0xb8096255	-3.2754924e-05
76	0xb7e08cf9	-2.6768526e-05
77	0x3780da06	1.5360314e-05
78	0xb7b16bdf	-2.1150276e-05
79	0xb7fb978f	-2.9992107e-05
80	0x3880b4b0	6.137171e-05
81	0xb516d9c6	-5.6196257e-07
82	0x37f73825	2.9470839e-05
83	0x36c0841f	5.737427e-06
84	0xb480d1da	-2.3994545e-07
85	0x348db18f	2.6392487e-07
86	0x364365dc	2.9116554e-06
87	0xb549ba8f	-7.5149813e-07
88	0x37611060	1.3414858e-05
89	0xb89b8614	-7.41595e-05
90	0x341bbd9c	1.450448e-07
91	0x33031524	3.052004e-08
92	0x316e117d	3.46435e-09
93	0x2b9a39e5	1.0958427e-12
94	0x2d726570	1.3778631e-11
95	0x316d3269	3.4516694e-09
96	0x2fc8875c	3.6475967e-10
97	0xb1d478d6	-6.1837495e-09
98	0x321fb5e5	9.296376e-09
99	0xad520ef0	-1.1940435e-11
100	0xaf445786	-1.7857191e-10
101	0x3163dd58	3.3158667e-09
102	0xb0d37580	-1.5385666e-09
103	0x310047a4	1.8667174e-09
104	0x2ddd8e21	2.5187909e-11
105	0xaf64db8b	-2.0814477e-10
106	0xb168d76c	-3.3882896e-09
107	0x31f1c765	7.0366917e-09
108	0xad729291	-1.3788652e-11
109	0xaf147519	-1.3502123e-10
110	0x2f241cc6	1.4925935e-10
111	0xb20fb2f6	-8.3643865e-09
112	0x32457b65	1.1494966e-08
113	0xb03ca518	-6.8628614e-10
114	0xae1f8d60	-3.627798e-11
115	0x2f991c94	2.7850844e-10
116	0x2f3102f8	1.6099111e-10
117	0x3025e45a	6.035116e-10
118	0x2e225736	3.6911994e-11
119	0xadc9d052	-2.2943567e-11
120	0x3bb001ef	0.0053713243
121	0x3a939f34	0.0011262656
122	0x391a74cf	0.00014730099
123	0x367f68e9	3.8059027e-06
124	0x390a88d2	0.00013211675
125	0x379f4caa	1.8989977e-05
126	0xb8683900	-5.5366196e-05
127	0x371efc4f	9.476279e-06
128	0x39376265	0.00017488895
129	0x37b9740c	2.2107757e-05
130	0xb71d8e6d	-9.39109e-06
131	0x388a0bc2	6.582543e-05
132	0x3899e0f6	7.337511e-05
133	0x37b2a7fe	2.1297481e-05
134	0x3892b85f	6.996164e-05
135	0xb894fd24	-7.104341e-05
136	0xb69b0a98	-4.6205932e-06
137	0x39246d14	0.00015680894
138	0xb8a8df3b	-8.052444e-05
139	0xb953800a	-0.00020170226
140	0x39140fd6	0.00014120279
141	0x37ccff28	2.4437511e-05
142	0x3969f3c9	0.00022311429
143	0x380b0eea	3.3154072e-05
144	0x347d0987	2.3565927e-07
145	0x35d73b76	1.6036054e-06
146	0x37224d6b	9.673978e-06
147	0x370e9082	8.497505e-06
148	0x36c3467e	5.8196592e-06
149	0xb771b095	-1.4405833e-05
150	0xb69d3cb8	-4.686033e-06
151	0xb583a515	-9.808306e-07
152	0xb3e235d8	-1.0533739e-07
153	0x2fd6f3e3	3.9099665e-10
154	0xb4046af7	-1.2332372e-07
155	0x329ddc2e	1.8377332e-08
156	0x32040046	7.683473e-09
157	0xb326ebe3	-3.8864425e-08
158	0xb326229e	-3.868137e-08
159	0xb316af59	-3.5084074e-08
160	0x3209b3eb	8.015358e-09
161	0xb39e7e8f	-7.380469e-08
162	0xb2cd5682	-2.390448e-08
163	0xb28304c5	-1.5252576e-08
164	0xb2736694	-1.4167785e-08
165	0x333996bd	4.3210765e-08
166	0xb3c6ddd0	-9.260441e-08
167	0xb331bf3e	-4.1384958e-08
168	0x31adabc6	5.054491e-09
169	0x32a34ab2	1.9009665e-08
170	0xb20104bc	-7.509865e-09
171	0xb2a9a998	-1.9751312e-08
172	0xb3b8aed8	-8.5999716e-08
173	0xb1de6a83	-6.4731593e-09
174	0xb10560e4	-1.9409123e-09
175	0xb213b5ca	-8.59786e-09
176	0x329609ad	1.7466698e-08
177	0xafe094a6	-4.0850984e-10
178	0xb178ea35	-3.622188e-09
179	0xb251247d	-1.2173698e-08
180	0xb0b58afa	-1.3208983e-09
181	0xafaeb5b8	-3.1779535e-10
182	0xae1288ba	-3.3317994e-11
183	0x02141ecd	1.0882162e-37
184	0xadc02045	-2.1842203e-11
185	0xad49e268	-1.14757995e-11
186	0xa7c4dc76	-5.4639952e-15
187	0xadfec91a	-2.8965764e-11
188	0xaca9914d	-4.8194005e-12
189	0x2b0507c7	4.7261885e-13
190	0x264bd2c2	7.0715403e-16
191	0xad6f7d10	-1.36133466e-11
192	0xadac014b	-1.955471e-11
193	0xaa299d28	-1.506474e-13
194	0x02128998	1.0765873e-37
195	0x0217b31a	1.1145128e-37
196	0xadc21406	-2.2064139e-11
197	0xad45faec	-1.1253869e-11
198	0x82123142	-1.0740522e-37
199	0x02154df4	1.0969163e-37
200	0x2aafcaac	3.1226877e-13
201	0xada9edde	-1.931871e-11
202	0xabc2a6a9	-1.3830787e-12
203	0xad750b59	-1.3929157e-11
204	0x299305cc	6.529117e-14
205	0xabb17edf	-1.261182e-12
206	0x2bfedfc5	1.8109894e-12
207	0x2ad90f48	3.8557547e-13
208	0x821d01c6	-1.1535047e-37
209	0x0211dc11	1.0716074e-37
210	0xbb36bfb4	-0.002788526
211	0xba24c119	-0.00062848773
212	0xb8ac275c	-8.2089304e-05
213	0x354dfc37	7.673547e-07
214	0xb8cb99ae	-9.7084194e-05
215	0x3784391c	1.576222e-05
216	0x382514c4	3.9358405e-05
217	0xb8997e08	-7.319084e-05
218	0xb70f927d	-8.557571e-06
219	0xb8234aeb	-3.8932e-05
220	0xb7d1addd	-2.4995703e-05
221	0xb5fdd6b6	-1.8912458e-06
222	0xb862a8dc	-5.403986e-05
223	0xb4d426a0	-3.951618e-07
224	0x37765a74	1.4683803e-05
225	0xb82ad07e	-4.0725332e-05
226	0xb6a9c330	-5.0593153e-06
227	0xb852a484	-5.022112e-05
228	0x38176503	3.609528e-05
229	0x37367d7c	1.0877262e-05
230	0x38c5945b	9.4213254e-05
231	0xb9365b58	-0.00017390901
232	0x3861341e	5.369272e-05
233	0xb8a8042a	-8.01164e-05
234	0xb592755e	-1.0912006e-06
235	0xb45e0319	-2.0676488e-07
236	0x358158b6	9.637067e-07
237	0x3607f5eb	2.025971e-06
238	0xb686e58e	-4.020235e-06
239	0xb7a67c29	-1.9846559e-05
240	0x375d582d	1.31931565e-05
241	0x362e9bf5	2.60188e-06
242	0x348d6684	2.6337887e-07
243	0x310a0ebb	2.0090016e-09
244	0x34530101	1.9651272e-07
245	0x3393e880	6.8875124e-08
246	0x335700a0	5.0059157e-08
247	0x33ae0fd0	8.105383e-08
248	0x340410d1	1.2299576e-07
249	0x3241c63e	1.1279154e-08
250	0x331f9bb8	3.7161698e-08
251	0x340ba764	1.300628e-07
252	0x33a4885a	7.661647e-08
253	0x32b91631	2.1546926e-08
254	0x333f5239	4.4545434e-08
255	0xb2b9c02b	-2.1624222e-08
