timeSerise/lightning_logs/version_5/checkpoints/epoch=19-step=6840.ckpt (torch, 96027 bytes, 27 tensors)

lstm.weight_ih_l0 f4 [40, 17]
00000000: e980 063e 75cc 54be 5de7 8cbe 4586 7c3e
00000010: 1081 9a3e c83d bdbc 7777 a5bd 60af 573e
00000020: 87fa 803e c772 b23a 3bce a53e fd4b 623e
00000030: 4f8a 8a3e 606a b8be 3c24 7bbe 7114 a13e
00000040: 4902 8dbe 1755 cfbd 498c c6bd fd91 3c3c
00000050: c798 67bc 9f77 233e a398 1ebd 2b4a 44be
00000060: 1198 913e 26b5 9dbe 1877 2b3e 93a9 223e
00000070: c6c5 3a3e 4519 54be b066 8ebe 3096 5c3e
00000080: 9bbc 323e a1b5 903e e732 433e 4999 8ebe
00000090: 49cc 6b3e 9c86 b63d 2262 d83d 6c48 bc3e
000000a0: 710f 63be 166e 04bd f3b7 b7bd 379b 0b3e
000000b0: e8d3 18be 0e10 a93e 836a 533e e4ba 6b3e
000000c0: 441c 9abe 7a17 8b3e 8036 97bc 0a38 783e
000000d0: 137d 163a 60c4 d13d 8b9e 1d3e 1f5c 86be
000000e0: 9fd3 1dbd b523 bcbd 1b7f 26be 0496 fe3d
000000f0: 58d5 c8bd ac7f 9ebe 1f1c 8a3e 466e 493e
00000100: 9eec 673e 9f7e 42be 928d 4e3e 370a d43e
00000110: 6543 ad3e 8f63 003e a2a8 803e 17a2 54be
00000120: f706 053e f623 d33d f1a2 26be afc1 e6bd
00000130: 0549 3cbd 82e3 553d 2b69 0ebe cb9d e1bd
00000140: f269 91bd e508 243d f5c3 683e 44f7 27be
00000150: 634f 8b3e d2d2 72be 811c 403e 098c aabd
00000160: ecf4 c3bb 433d cb3e 9034 50be 97b0 6c3e
00000170: d4bf 333c 5c46 c8bd efec 3abc b002 4e3d
00000180: d10c 3b3e cb47 6b3e dedf 2e3e 6e5a 423e
00000190: 8c78 30bd 19ca aa3e 8339 d23d c579 c63d
000001a0: 2624 56be 228c 4abe e5eb 45be d3f1 b4bc
000001b0: db81 783e b454 993e a4e5 56be 7cfd aabd
000001c0: 83f6 1c3c 6ac9 243e 9a73 7c3e c1b8 efbd
000001d0: 9aee 1bbd 6004 84be dfa7 b23c 45e0 fd3d
000001e0: 5ad1 a7bd 6c6d e93a 1ee8 213e 8c53 a93e
000001f0: 76bd 6c3e e5e9 953d 4208 e13d 7a88 2d3e
00000200: c0a3 743e fddc 4cbe 2400 623e 4b16 6bbd
00000210: 637e 89be d17b 693e f396 743d be1c 89bd
00000220: 7b47 413e 3c76 2ebd 536b 6ebe d3d7 973d
00000230: 5a16 413e 50e6 f3bc 96cc f33d 414c 2dbe
00000240: 80b7 9fbe 0da5 763e 1c5b 6bbe f6fc bd3d
00000250: 3ff8 5e3e f98f 3e3e 5475 2ebe 81c0 9bbd
00000260: 0e53 a63e 5949 9a3e 4f27 063e fa8f 21be
00000270: c60b ba3d 71c3 4a3e a201 ddbd 54a2 483d
00000280: e1b6 813e c7c5 6f3d 605a 90be ec60 a3be
00000290: 2187 a2be c6ef 61bd 6a38 303d d4e0 31be
000002a0: c75a 963e 5c14 6cbe f498 403e 5420 3abd
000002b0: cf78 3a3d d8aa e93d a4a6 4fbd 93a4 c3bc
000002c0: b93c 4cbe 7b26 493e 87cd 9dbd cb92 9d3e
000002d0: 14eb f9bd 9f23 7dbd 20b6 acbd 1a14 03be
000002e0: 1670 92bc 41df ed3e 3dac 3c3d 8f47 953e
000002f0: 8efe d1bd 024d 1b3e 49a2 bdbd 83d2 be3e
00000300: 5d5e 65bd 7c80 af3e 0c99 32be 4e36 853e
00000310: 4489 923e 45ac e43c f233 02be 8269 adbc
00000320: 4754 6bbe 553c 06bd 1829 96bd 59c4 03be
00000330: 63e6 d9bd 1f66 8cbe 028e 45be caf5 793d
00000340: 2356 2c3e b38e 19bd c42d f8bd 9e5f 983e
00000350: d9e6 573e cfd6 823e 49e8 4f3d 901d 98bc
00000360: 9637 b5bd ce8c 2cbd c1bd 993d 3373 353e
00000370: 9508 a03d ce5c a5be b947 3fbe d11e 68be
00000380: d6ec 363e 0eaf 0ebe 7067 823d 77f3 9c3e
00000390: ee0e 65bd bc01 34be 49e9 9bbe facb ffbd
000003a0: e2c3 143e 2a74 363c 0fc7 85bd 3f19 d33d
000003b0: 6377 31be 6d7b 04be 67a1 e73c 430f 7fbe
000003c0: 37aa c1bd 779b d9bd be3e 7bbd 7fa0 88be
000003d0: bbcf 203e ceba 19be f23c 2f3e 3770 e3bc
000003e0: 2afa 0a3b f215 37be 4d55 fa3d cf2a bc3d
000003f0: 8f9d 90be 6d0e 4cbe 0851 403c fbbd 173d
0.13135113 -0.20781119 -0.27520266 0.24660595 0.30176592 -0.023100749 -0.08079427 0.21062994
0.25191137 0.0013614529 0.32383904 0.220993 0.27058646 -0.36018658 -0.24525541 0.31460908
-0.27540806 -0.101236515 -0.09694726 0.011509416 -0.014135546 0.159636 -0.038719784 -0.19168918
0.2843633 -0.30802268 0.1674465 0.15885 0.18239507 -0.20712765 -0.2781272 0.21541667
0.1745476 0.28263572 0.19062386 -0.27851322 0.23027147 0.089123935 0.10565592 0.36774004
-0.22173859 -0.03233155 -0.089706324 0.13633429 -0.14924586 0.3302006 0.206461 0.23020512
-0.3009969 0.2716635 -0.018458605 0.24240127 0.00057406834 0.10242534 0.1539251 -0.26242158
-0.038531896 -0.09186498 -0.16259424 0.12430957 -0.09806317 -0.3095678 0.2697458 0.19670972
0.22648856 -0.18993615 0.20171192 0.41414043 0.3384048 0.12537979 0.25128657 -0.20764957
0.12990938 0.103095934 -0.16273095 -0.11267411 -0.045968074 0.05221892 -0.13907306 -0.11016425
-0.071002856 0.040047545 0.22731002 -0.16402918 0.27209005 -0.23713234 0.18760873 -0.08327491
-0.0059801247 0.39695176 -0.20332551 0.23114239 0.010971028 -0.09779045 -0.011409028 0.05029553
0.18266608 0.22976606 0.17077586 0.18979809 -0.043083712 0.33357313 0.10264876 0.096911944
-0.20912227 -0.19780019 -0.19328268 -0.022087967 0.24268286 0.29947436 -0.20986038 -0.083491296
0.009580257 0.16092458 0.24653473 -0.11705161 -0.038069345 -0.25784588 0.021808563 0.12396292
-0.081942275 0.00178091 0.15811202 0.33071554 0.23119149 0.073200025 0.10987903 0.16946593
0.2389059 -0.20006175 0.22070366 -0.057394307 -0.26854238 0.22801138 0.05971427 -0.06694935
0.18874924 -0.042593226 -0.23283128 0.07414212 0.18856183 -0.029772907 0.11904256 -0.1692362
-0.31194687 0.240864 -0.22983974 0.09276764 0.21774386 0.18609609 -0.17036945 -0.076050766
0.3248524 0.30134085 0.13100933 -0.15777579 0.09084277 0.19801117 -0.10791327 0.048982933
0.25334838 0.058538225 -0.2819395 -0.31909883 -0.3174372 -0.055160306 0.04302255 -0.17370921
0.29366133 -0.23054641 0.18808347 -0.045440987 0.04552537 0.11409539 -0.05069603 -0.023882186
-0.19945039 0.19643585 -0.07705217 0.30776057 -0.12203041 -0.06180155 -0.08433175 -0.12800637
-0.017875712 0.46459392 0.046062697 0.29156157 -0.102536306 0.15166095 -0.09259469 0.37269983
-0.055998195 0.34277713 -0.17441195 0.26017994 0.2862035 0.027914176 -0.12715128 -0.021168474
-0.22981368 -0.03277238 -0.07332057 -0.1286787 -0.10639646 -0.27421662 -0.19292453 0.06102542
0.16829734 -0.037489604 -0.12118104 0.2976045 0.21084155 0.2555451 0.050758634 -0.018568784
-0.08848493 -0.04212647 0.07506896 0.17719726 0.07814137 -0.32297367 -0.18679704 -0.22668006
0.17863783 -0.13933966 0.063673854 0.306545 -0.05592244 -0.17578787 -0.3045142 -0.12490077
0.14527848 0.011136094 -0.06532108 0.1030755 -0.17330699 -0.12937708 0.028275205 -0.24908166
-0.09456294 -0.10625356 -0.061339132 -0.2668495 0.15704243 -0.15012667 0.17113093 -0.02776347
0.0021206238 -0.17879465 0.12223301 0.091878526 -0.28245208 -0.19927378 0.011738069 0.037046414

lstm.weight_hh_l0 f4 [40, 10]
00000000: d15e 46be d853 a83e f2bf 793e 0790 05be
00000010: ba20 6e3e 2deb 99be 9b1b 353e 24b0 ccbd
00000020: 497f 3fbe edd7 a8bd a262 0c3d eb10 9f3e
00000030: 0be6 fe3d 943f 153e 1b8d 803e 6788 63be
00000040: 6e3e 42bc 722c 84bc 4829 40bd 1ab5 97bd
00000050: 6233 4f3d d578 90be a8b9 993c 6dbc e4bd
00000060: 41eb 01be c60d fc3d 2edd d9bd b06d afbe
00000070: 3b55 663e 58a5 84be 0b19 a03e c3d9 fabc
00000080: 21e2 13be 63a8 77be cc2a 55be e0f4 91be
00000090: 3481 cebc 97d1 b7be cc8c 84be f69a 9ebe
000000a0: 1549 733e 4689 6dbd 7392 b53d 2905 dc3d
000000b0: 7047 a13d 3738 95be 1196 64be a43c 12be
000000c0: ed73 99be 0d8a 35be 4518 7ebe 2828 9abd
000000d0: 2342 76be bd81 b63d a598 debd 773d bdbd
000000e0: 8411 a33e e411 73be da22 a6be cf84 99be
000000f0: 15ab 883e e207 b43e 4b8f b13d a3f5 4dbe
00000100: fb9e 44be aeb5 cc3b 86c3 00be ab2b 93be
00000110: e912 04be dfb6 7ebe b3c1 91be 3945 06be
00000120: a2fc 1f3e 8f95 8e3e 4b0c 4dbe fc05 05be
00000130: d4f0 88bd 5c2c 30be b323 403e 8527 993e
00000140: f5b9 08be 08a2 28bd 2100 c2bd 10a6 a63e
00000150: be84 203e da4d 55bc 8fb4 ab3d c6e5 cfbe
00000160: 484d 8a3e 32ff 023e 9d9f b1bc 7d36 843e
00000170: cad1 983c 0e7f 63be 15a1 e13c 9e71 b2be
00000180: 4a05 b6bd 4e4b 0abe 54c5 89be 33af b8be
00000190: cfc6 7abd a29b 81be a2f8 22be be31 643e
000001a0: 28d5 813e 7da3 a7bd c7cb 263e 6d54 0e3e
000001b0: d802 743e 3320 4c3e 89dc 33bd 08a7 72bd
000001c0: b6ee 3b3e 5d7f 8a3d 5665 11bd d054 aabd
000001d0: 39a1 9ebc c559 c43d 2338 46be 10dc 97bd
000001e0: 8057 0fbe 86fb a73d e529 443e fc23 013e
000001f0: 84d2 20be bfc1 38be 8679 d93c 4d3e 323e
00000200: d4e4 80be 8e8c 67be 18cd 30be 7c8a 5a3d
00000210: 2023 1f3d 512e 64be 7e0c 69be 372e 3bbd
00000220: e478 863e abfe ebbd c28d 4c39 d8df f9bc
00000230: ecae 5cbe 4654 ca3d d45e 833e 6b13 0dbe
00000240: a1c6 6a3c 4eec eebd 89f7 0bbe e543 07bd
00000250: d384 e0bd 254d 9ebe bf09 3dbd 2c15 8cbe
00000260: 1147 02be aa48 483e 83a3 713e 9fd7 9a3d
00000270: d47e 043d a731 7d3e d854 ebbd c6b6 27be
00000280: 05a4 1abe 45bb 253e 842a 193e 7991 81bd
00000290: 1d48 9abb ad86 65be 0199 1b3e 4ece eabd
000002a0: c93a 9fbe f9b4 87bd 32e2 f63d fe51 313e
000002b0: 429f 94be 18e2 333d f627 14be 6e4e b83d
000002c0: ac51 f4bd 03f8 9abd 4def 23be 7cab 7f3e
000002d0: ebf0 a1be b8f5 15be 445c 4cbe 7bf6 5dbe
000002e0: dc17 e1bd bf74 1fbe 96d1 873e a04b 9ebe
000002f0: 5fbe f63d ae00 40be 6cae 56be 2a66 99be
00000300: e496 393e a43b f2bb f812 493e f250 9ebe
00000310: f837 363e d3f0 4f3e 4239 8abe e9e2 66be
00000320: 7cfb 62be 9167 2d3e 9684 b23d 49d6 e83c
00000330: ab44 a23e 42d7 42be f280 abbd 19dd 093d
00000340: 871c db3e d86f e9bd 2c69 923e a3e1 7a3e
00000350: bb5b 0b3e e483 c2bd ddfc 70be 1449 6bbe
00000360: ab1a 3a3e 2ee4 303d 0188 87be 1090 aabe
00000370: eb22 8b3e 587f 5fbe 453b 72be 0db3 373e
00000380: 4acc 68be 3922 d6bd b0e1 323e 4b92 483e
00000390: b071 fbbd ec6c 933d 698f 0a3e 3471 c83c
000003a0: d0cb 9abe 56e7 583e 2634 1d3e bb6e 253e
000003b0: 9187 703e 6179 93bd 1bab 683e 4b97 0b3c
000003c0: 5d68 803e 106c 0f3e 3fa6 903d 4474 82be
000003d0: 71de 2abe 81f2 663e 1bd5 57bb 4b87 ac3d
000003e0: a62b bb3d 3d33 0d3e a740 993d 1a62 5fbd
000003f0: 50bb 6cbe b47e f6bd 0eca 27bd d5fd 8dbe
-0.19372107 0.32876468 0.24389628 -0.13043223 0.23254672 -0.30062237 0.17686312 -0.09994534
-0.18700899 -0.082443096 0.03427375 0.31067595 0.12446221 0.14575034 0.25107655 -0.22220002
-0.011855705 -0.016134474 -0.04691437 -0.07407589 0.05058611 -0.28217188 0.018765286 -0.11168752
-0.12687398 0.123073146 -0.1063789 -0.34263372 0.2249345 -0.25907397 0.31269106 -0.030621415
-0.1444173 -0.24185328 -0.20817107 -0.28507137 -0.025208093 -0.35902092 -0.2588867 -0.309776
0.23758347 -0.057992242 0.088658236 0.10743172 0.07874954 -0.2914445 -0.22322871 -0.14280945
-0.29971257 -0.17728443 -0.24813946 -0.075271904 -0.24048667 0.08911464 -0.108689584 -0.09240239
0.318493 -0.23737293 -0.32448465 -0.29984137 0.26693025 0.35162264 0.08669909 -0.20113234
-0.19201271 0.006247244 -0.12574586 -0.28744254 -0.12897839 -0.24874447 -0.28468093 -0.13112344
0.15623716 0.2784848 -0.2002422 -0.12990564 -0.06686559 -0.17204422 0.18763618 0.29912964
-0.13352187 -0.04117015 -0.09472681 0.3254857 0.15675637 -0.01301905 0.08384048 -0.4060499
0.27012086 0.12792662 -0.021682555 0.2582282 0.018654723 -0.22216436 0.02754263 -0.34852308
-0.088877276 -0.13505289 -0.26908362 -0.36071166 -0.061224755 -0.2531405 -0.15915158 0.222846
0.25357938 -0.0818548 0.16288672 0.13899393 0.2382921 0.19934158 -0.04391149 -0.059241325
0.1835278 0.06762574 -0.035497032 -0.08316958 -0.019363986 0.09587435 -0.19357352 -0.074150205
-0.13998222 0.08202271 0.19156606 0.12611383 -0.15705305 -0.18042658 0.026547205 0.17406578
-0.25174582 -0.22612211 -0.17265737 0.053354725 0.038851857 -0.22283293 -0.22758672 -0.04569837
0.26264107 -0.115231834 0.00019507765 -0.030502245 -0.21551102 0.09879355 0.25658286 -0.13776939
0.014329583 -0.11666165 -0.13668646 -0.033023734 -0.10962834 -0.30918232 -0.046151873 -0.27359903
-0.12722422 0.19558969 0.23597531 0.07560658 0.032347515 0.24725972 -0.11490792 -0.16378316
-0.15101631 0.16184719 0.14957625 -0.06326575 -0.0047083036 -0.22414656 0.15195085 -0.11465131
-0.31099537 -0.06626315 0.12054862 0.17316434 -0.29027754 0.04391679 -0.14468369 0.08999334
-0.1192964 -0.07566836 -0.16009255 0.2496776 -0.31629118 -0.14644516 -0.19957072 -0.21676056
-0.10990879 -0.15571879 0.2652709 -0.30917072 0.12048029 -0.1875026 -0.20964974 -0.29960757
0.18123966 -0.0073923636 0.19636142 -0.3092113 0.17794788 0.20306711 -0.2699681 -0.22547497
-0.22166246 0.16934039 0.08716695 0.028422492 0.31693015 -0.19027427 -0.08374204 0.03365812
0.42795202 -0.113982856 0.28595865 0.24500136 0.13609211 -0.094978124 -0.2353396 -0.22977096
0.18174236 0.04318636 -0.2647095 -0.33313036 0.27175078 -0.21825922 -0.23655422 0.17939396
-0.2273418 -0.10455746 0.17468905 0.19587056 -0.122775435 0.071985096 0.13531269 0.024468042
-0.30233622 0.21181998 0.15351924 0.16155522 0.23489214 -0.072008856 0.22721522 0.008519958
0.25079623 0.14006066 0.07062959 -0.2547933 -0.16686417 0.22553445 -0.0032933417 0.084242426
0.09139185 0.13789077 0.074830346 -0.054536916 -0.23118329 -0.120358855 -0.04096418 -0.2773272

lstm.bias_ih_l0 f4 [40]
00000000: 288a 84be 3352 e53c fff2 5bbe 3fde 81be
00000010: 2bed 80be e926 ecbd 5aa6 a83e 44e3 843e
00000020: 8726 ac3e 7972 c83c 318f 083e daa4 4e3e
00000030: 1a40 53bd d433 90be 43a6 b73d 08f6 9e3e
00000040: 9058 0c3d 160b d33d 6aea 343e bbfb 123e
00000050: e339 273e 3b9f 6b3e e9b2 54be 546e 583e
00000060: f27f 1b3e e855 bb3d 9c26 653e ad31 08be
00000070: df2d 183d 0f3f bb3d b8bc 213d c4ca dd3d
00000080: 31a8 3b3e 2073 b23e 6d38 43bd d8fb 36be
00000090: 2e3d 053c 941d fc3d 39a7 ae3e 980d eb3d
-0.25886655 0.027993297 -0.21479414 -0.25364873 -0.25180945 -0.11530859 0.32939416 0.2595464
0.33623144 0.024468647 0.13335873 0.20180073 -0.051574804 -0.28164542 0.08967259 0.31047082
0.034264147 0.10304849 0.17667547 0.1435384 0.16330676 0.2300996 -0.20771374 0.21135837
0.15185526 0.09147245 0.2237801 -0.133002 0.03715312 0.09142887 0.039486617 0.1082969
0.18325879 0.34853458 -0.047661234 -0.17869508 0.008132262 0.12310329 0.34111956 0.11477202

lstm.bias_hh_l0 f4 [40]
00000000: 20f4 87bd e02c 01be 74a1 8dbc 9942 67be
00000010: 3030 80be b75d df3d d49a 143e 62c0 983e
00000020: d9f3 57be 847c 15be 8f63 973e 0fc1 843e
00000030: c2a8 47be d6de f93d 7300 8abe 465e 563e
00000040: 4e8f f0bd 3781 893e 51b6 5b3e 43e6 163d
00000050: ae0e 6f3e bfee 573e 6a21 813e bc2f 923d
00000060: 380c 2e3e a6e3 8ebe 895d 483e d035 33be
00000070: 932a 19be a421 7abe ae4c 7dbe 120f cf3d
00000080: d1b4 4e3e f491 d6bd 0709 64bd 402e f3bd
00000090: 235e c73b 05d4 d8bd 609b 9bbd ce1c 22be
-0.0663836 -0.12614775 -0.0172889 -0.22583999 -0.25036764 0.109065466 0.14512187 0.29834276
-0.21089114 -0.1459828 0.29568145 0.25928542 -0.1949797 0.12200706 -0.26953468 0.209344
-0.11746083 0.26856396 0.21456267 0.03684069 0.23345444 0.21087168 0.25220805 0.07138011
0.16996849 -0.27908057 0.19566931 -0.17500997 -0.14957647 -0.24426895 -0.24736282 0.10110296
0.20186163 -0.10477057 -0.05567267 -0.11874056 0.00608422 -0.105873145 -0.07597995 -0.158313

lstm.weight_ih_l1 f4 [40, 10]
00000000: 4f96 673e 085b 4cbe 105e 303e f103 a13d
00000010: dcb6 75be 744a 1bbe e794 cfbd 1508 7dbe
00000020: 2dc8 39be fd8d 0a3c e88c da3b 0267 ed3c
00000030: 9e8a 593e f892 923e 70bf c63d dcfc 43bd
00000040: 97f7 643d 1379 c13c 9f49 093e e25d d2be
00000050: adcd 883d a0b6 59be eae9 503e e829 643e
00000060: 5843 74be 2a6a b7be d6ba aa3e a0e8 7fbe
00000070: 8f23 5a3e 1adf b3bd 161b 98be ad86 6ebe
00000080: bc1d 743d 5d4e 45bd 90b0 19bd ead1 8d3e
00000090: 5426 8e3d c87b 903e 67f4 d83d 166b b23e
000000a0: b4be ba3e 24a2 a93e 094d 5bbd 926e 233e
000000b0: d369 6abc db4f 27be 3fee adbd a498 653e
000000c0: 9f83 9ebe 7432 60be 80fd 64bd 46b9 723d
000000d0: 2275 00be 94f2 073e bfea 2dbe f341 c8be
000000e0: c4b8 4a3e d23f 173d a95d 1fbe 3e34 a1be
000000f0: 1f4f 933e 855c 8a3e 42a8 023e 33bf 63be
00000100: 1db7 a6bd 171e 0fbe aeef 593e e627 b5be
00000110: 2008 613e 413c fbbd 818f a2bd 6914 1b3e
00000120: e9d8 083e 0f81 383e 1566 8e3e 8886 6cbe
00000130: fa54 4f3e 66fa 13be b1e3 953e 7d7d 46be
00000140: 08e7 2c3d e429 8dbd 2084 43be a5dc fbbd
00000150: 98f5 413e 76bd f83d 615d b0bd 5a16 96be
00000160: 05fd 24bd 635c 41bd d0f5 853e b5ee f7bd
00000170: d6cc d3bd 8fef da3d de84 8abe 99c3 773e
00000180: 3bc1 97be fd40 91be 3a5e 6d3e aaeb 80be
00000190: 8fb3 853e b4c0 f83d ae78 8e3e 9e9b fcbd
000001a0: f325 75be 74f8 843d ebd9 32bc 7003 6a3e
000001b0: c84e 833e 45f4 9c3e db19 a33e de12 2c3e
000001c0: d17f 45be 9706 f43d 6e76 663a 3d22 e03d
000001d0: 78a3 193e 58b4 cbba 8acf 84be 335f 12be
000001e0: 4d77 80be 4761 fd3c 62de b3bd b9bd b53d
000001f0: 6904 66be 8213 43bd 94a0 62be 312d 3f3e
00000200: 7720 32be eb32 8fbd af7a b23d 538f adbe
00000210: 7061 8bbc cc26 583e aa3e 063e a5e7 943c
00000220: d44a 5ebd 74f4 b8bd 5cb0 a1bc 27c5 843d
00000230: 3c70 5dbe 840b bdbd be49 cdbc 1dda 0b3e
00000240: 68c8 56be 6d64 f8bd 5ba6 033e 776c 8fbd
00000250: 5925 8cbe 912b eb3d 8426 8fbe 2ea5 d93d
00000260: 6709 4fbe 940e 833e 431e 5cbe 41dd 26bd
00000270: 1a5a 85be 4149 e5bd cbe7 55be 77c8 d5bd
00000280: 635d 2bbe 348f 1a3e f9b6 d63d f45f a1bc
00000290: cb83 46be 104a 87be 9c67 85be d4a6 413e
000002a0: 1b31 0b3e 7907 a4bd 57e1 14bc 227d ec3c
000002b0: 53f0 95be 1243 6c3e 00c6 a13d 9211 6c3e
000002c0: e710 12be 346b 8abd 91de 91be b533 85bd
000002d0: e30d 29be 0779 fcbd 09b5 523c 2296 8d3d
000002e0: 1cab 19be f1ed 813e 5ba7 47be 6192 78be
000002f0: 1488 963e e9df 4d3e c902 903c 018b bd3c
00000300: bd3c f43d 3b35 293e 2454 7b3b 0309 8d3e
00000310: 5653 4c3e 81a0 6cbc 56f5 24be b8d9 893b
00000320: 4190 36be 1b66 8f3e c494 1dbd 069e 263e
00000330: 70e6 1b3e eeb7 143e b04f 873e 255b 23be
00000340: 79d8 81be 40e9 513e b7ed 73be 9a6c 823e
00000350: 086f b2be 6b98 2dbe c76e 113e 0912 073e
00000360: 5ced bc3d df10 0e3e f2dc 65be 0b75 9c3e
00000370: d502 9f3d 3ae8 a1be be53 a83e 9d40 7dbe
00000380: 29c2 9e3e 660b b93d 7c19 a13e 4dd6 863e
00000390: 02ec 7b3e fe42 763e a90b a73d de43 1fbe
000003a0: a596 1b3e 0523 95be 44d8 7fbe 8c85 19bd
000003b0: 9b6f 8bbe 1b09 85bd 6a70 4dbd dac6 2f3e
000003c0: 9664 783e f320 bd3d bf03 72bd 4120 533e
000003d0: 2b35 66be 75d4 b6be 8582 093e 0704 91bd
000003e0: 71bf 18be 2a02 f9bc 51f9 b63c 186a 71bd
000003f0: 3e26 953e 22ae 853e 9c83 2ebd 61b5 2f3e
0.22615932 -0.199566 0.17223382 0.0786208 -0.23995537 -0.1516512 -0.10135823 -0.24710114
-0.18142767 0.008456704 0.0066696294 0.028979782 0.21244285 0.28627753 0.097044826 -0.047848567
0.055900183 0.023617303 0.1340699 -0.41087252 0.066798545 -0.21261072 0.20401731 0.22281611
-0.23853815 -0.35823184 0.3334567 -0.24991083 0.21302627 -0.087827876 -0.29708165 -0.23293562
0.05959867 -0.048170436 -0.0375219 0.27699214 0.06940904 0.28219438 0.10593491 0.34847325
0.3647362 0.33131516 -0.053540263 0.15960148 -0.014307457 -0.16339056 -0.084927075 0.22421509
-0.30959794 -0.21894246 -0.05590582 0.05925872 -0.12544683 0.1327613 -0.1698408 -0.39112815
0.19797045 0.0369261 -0.15563072 -0.3148517 0.28771302 0.27023712 0.12759498 -0.22240905
-0.08140395 -0.13976322 0.21282837 -0.35382003 0.21975756 -0.12267352 -0.079375274 0.15144505
0.13363995 0.18017982 0.27812257 -0.23098195 0.2024726 -0.14450988 0.29275277 -0.19383807
0.042212516 -0.06892756 -0.1909337 -0.12297944 0.18941343 0.12145512 -0.086115606 -0.29313928
-0.04028036 -0.047207247 0.26164103 -0.12106077 -0.10341804 0.106902234 -0.27054495 0.24195708
-0.2963961 -0.28369895 0.23180476 -0.25179797 0.26113555 0.1214613 0.27826446 -0.12334369
-0.23940258 0.06492701 -0.0109162135 0.22852874 0.25646043 0.30655113 0.31855664 0.16804072
-0.1928704 0.119153194 0.0008791451 0.109440304 0.15003765 -0.0015541418 -0.2593959 -0.14294128
-0.2509102 0.030930175 -0.087826505 0.08874077 -0.2246262 -0.047626026 -0.22131568 0.18669583
-0.17395197 -0.06992134 0.08714806 -0.3389841 -0.017014235 0.2110855 0.13109842 0.018176863
-0.05427058 -0.09031001 -0.019737415 0.06482916 -0.21624845 -0.09230712 -0.025059577 0.13657422
-0.20974886 -0.1212853 0.12856428 -0.0700311 -0.27372244 0.11482919 -0.27959073 0.10627209
-0.2021843 0.2559706 -0.21495919 -0.040738348 -0.26045305 -0.11195613 -0.20889203 -0.10438626
-0.16734843 0.1509369 0.10484118 -0.019699074 -0.19386213 -0.26423693 -0.2605561 0.18911296
0.13592951 -0.08009238 -0.009086928 0.028868262 -0.29284915 0.2307246 0.07899094 0.23053578
-0.1426426 -0.067587286 -0.28490117 -0.06504003 -0.16509204 -0.12327772 0.012860545 0.06913401
-0.1500668 0.25376847 -0.19497435 -0.24274589 0.29400694 0.20104946 0.017579453 0.023137571
0.119256474 0.16524212 0.0038349712 0.27545938 0.19953665 -0.014442564 -0.16109213 0.0042068623
-0.17828466 0.28007588 -0.038471952 0.16271219 0.15224624 0.14523289 0.26427984 -0.15952738
-0.25360468 0.20499134 -0.2382115 0.2547348 -0.34850335 -0.16952674 0.14202414 0.13190474
0.0922496 0.13873623 -0.22447565 0.30558047 0.07764212 -0.31622487 0.3287639 -0.2473168
0.31007507 0.09035377 0.31464756 0.26335374 0.24601749 0.24048993 0.08156521 -0.15553233
0.15194185 -0.2912828 -0.24984843 -0.037480876 -0.27233586 -0.06495877 -0.050156035 0.171657
0.2425712 0.092348 -0.059085604 0.20617773 -0.2248122 -0.35708967 0.13428695 -0.07080846
-0.14916779 -0.03039654 0.02233568 -0.05893907 0.2913074 0.26109415 -0.04260598 0.17159034

lstm.weight_hh_l1 f4 [40, 10]
00000000: c692 983e d56d 86be 8ffc 95bd 63fe db3d
00000010: acaa 50be 2ac0 39ba 1d1b a73d 0853 12be
00000020: 534a 18be 07d8 373e 51d9 7abe 7bf4 b13d
00000030: bff3 573e 8cfc c03d 4798 01bc 3603 943e
00000040: c707 1d3e 19c8 28bd 73c4 b5be dbeb a3be
00000050: 54bd 4a3e 56a8 723d dada 75be afdc 49be
00000060: 6097 d3bd f414 b23d 8271 973c 2a9f f63d
00000070: fe48 253d 745f 75be 29ee 2bbe 6767 883e
00000080: 468e 033d e573 d7bd 2638 983e 176a 943e
00000090: 98fc 723e dd12 35be 4727 5abe b050 893c
000000a0: 8064 233e 35bc 8abe 571e 98be 38a5 32be
000000b0: 00e4 11be b64b 5a3e 6d99 5abe 6c75 0abd
000000c0: b301 ae3d 201a 193e a53b 26bc b067 b0bd
000000d0: 0c2c ba3d d3fd dd3d 3d58 34be d07f 293e
000000e0: 0612 9fbd 5e54 ecbc 37b2 97be 5d28 96be
000000f0: fc1f 8fbe 4348 253e f09f 653d d9ae 243e
00000100: 27b1 983e c877 983e a82d 963e d64a 943d
00000110: 5d67 673e 04ff 473d 2fdb c73d aaaf 9abe
00000120: 2ff4 afbd 9cf9 003e 471e ae3d 0f5a 5c3e
00000130: 8939 04be 2743 1fbe 052f c6bd 3d60 9b3e
00000140: 1d8e e73d b8b3 f3bd 2dfd 9a3e 6447 44be
00000150: bb89 093d 808e 0f3e f8b9 31be ae59 f1bd
00000160: 2b1a 28be f478 a23e b2f1 7a3e 8457 5a3e
00000170: ba8d f9bd 2624 44be ba6d 5abd 5da7 4abe
00000180: 23d3 12be 5d8d 42be 5889 883e 1a4a 04bd
00000190: 1d4f d93d ec21 9cbd 5ad3 89bd 5e14 59be
000001a0: 42d6 f03d ce10 9cbe b19d 893e 181a 57be
000001b0: 5038 8ebe 074c 79be 5ebf 9ebe a144 b8bd
000001c0: bf48 0c3e a94b e93d 8096 453e 62e1 e1bd
000001d0: 7ee0 c03d 01c9 f33d e7f8 2fbe d73a 843d
000001e0: f800 1cbe a11d 8f3e e1a6 60be ced6 803e
000001f0: fb56 933e 66d1 ce3c ab24 483e 4420 2d3e
00000200: 400c 823e 0595 163e c7d3 80be 6f4c 973e
00000210: 6bad 8b3e 4a3d 0bbe fa4c a23e 9b88 653e
00000220: a268 3bbe 8c5c 25be c46e 8e3e 8125 5fbe
00000230: db6a a5be 9df4 94be 0d03 6a3e 5240 afbd
00000240: ba7e 973e 54bb c03e ada6 aabd 7a93 813e
00000250: d6dd 77bd 2315 6cbe 9158 8e3e f927 753d
00000260: 4d2f d1be 6cc8 b43d e0d1 9c3e ad99 a13e
00000270: 96a4 d73d 4a4e f23d b867 a03d 0ee0 183e
00000280: 31e8 893d ae05 43be c99e fd3c 493d c43d
00000290: 85de bf3b e1b2 5d3d 75a8 9a3d 9d57 17be
000002a0: 9a0a 4c3e a28b 8b3e f9de 82bd 2629 1fbc
000002b0: 2001 b43d 9ac1 9fbd 9396 96be 9d02 d8bb
000002c0: 8916 63be 40b0 3cbd 4e01 8bbe 0157 1ebd
000002d0: adc2 87be 4c8a 93be 0bad 303d 18f4 693e
000002e0: d88e 91be bdf6 9fbe 1b80 613e 8db5 0a3e
000002f0: 4885 e23d 2794 bc3d 02bc ac3e 0cb0 e63d
00000300: 29a4 5e3e 8a61 77be 5d47 aabe fc7c a0bd
00000310: d1da 72bd 7025 86be 7d9b 2a3d 6e3e b03d
00000320: 5e60 14bd b961 c1bd b344 9ebe 6761 91be
00000330: 25e6 38be 2721 2e3e 0ce6 393e 921e 1abe
00000340: b9ce 78be 5cdc 7f3e af32 d23d ec89 87be
00000350: 179a 6e3e 5b3b 4c3e 6078 363e 5ff7 5d3e
00000360: 138a 943e 2309 153d 3f3c 763c bce5 42be
00000370: 6531 c83d ef7a 373e cc7e 6d3e eff9 cd3d
00000380: 4e24 41be d24c 4a3e f47c 91be e10d 3bbd
00000390: 2869 503d 5cfe 1a3e 2d25 5fbe 96b5 1a3e
000003a0: 4355 97be 1de4 0bbe a95a 39be 2f44 413e
000003b0: 834a 6f3b 55a6 aabe 9611 52be ac75 20bd
000003c0: 85d2 7fbe dce6 2c3d 11de 4e3e 365f 9ebc
000003d0: 7d9b 0e3e 75b4 183e 568d 1abe b1f5 4d3e
000003e0: 4207 46be db32 8ebe 8759 743e fabf a2bd
000003f0: af4a 4a3e 9782 e5bd 3501 88be f2bc 8f3e
0.2979948 -0.2625567 -0.07323562 0.1074188 -0.20377606 -0.00070858246 0.08159468 -0.14289486
-0.14872102 0.17953502 -0.24496962 0.08689209 0.21089076 0.094231695 -0.007909841 0.289087
0.15334998 -0.041206453 -0.3550144 -0.3201588 0.19798785 0.05924257 -0.24009266 -0.1971309
-0.10331607 0.08695403 0.018486742 0.12042077 0.040352814 -0.23962194 -0.1679007 0.2664139
0.032118104 -0.10520152 0.29730338 0.2898719 0.2372917 -0.17682977 -0.21304046 0.016762108
0.15956306 -0.27096716 -0.29710647 -0.17445838 -0.14247131 0.21317944 -0.2134759 -0.03380339
0.08496418 0.14951372 -0.010146056 -0.08613527 0.090904325 0.10839429 -0.17611785 0.16552663
-0.077671096 -0.028848823 -0.29628155 -0.2932767 -0.2795409 0.16140847 0.05606073 0.16082324
0.29822657 0.29778886 0.29331708 0.07240836 0.22598024 0.048827186 0.09758603 -0.30212146
-0.08591496 0.12595218 0.08501869 0.2151873 -0.12912573 -0.1555296 -0.09676937 0.3034686
0.11306403 -0.11899513 0.30271283 -0.19167858 0.033578616 0.14019203 -0.17356098 -0.11784683
-0.16416232 0.31732905 0.24506262 0.21322447 -0.12185235 -0.19154415 -0.0533273 -0.19790407
-0.14338355 -0.18999238 0.26667285 -0.03229723 0.10610793 -0.076236576 -0.06729765 -0.21199176
0.117596164 -0.3048157 0.26878121 -0.21006048 -0.27777338 -0.24345408 -0.31005377 -0.08997465
0.13699625 0.11391384 0.19295692 -0.110293165 0.094178185 0.11903573 -0.17184792 0.06456535
-0.15234745 0.27952293 -0.21938659 0.25163883 0.28777298 0.025246333 0.19545238 0.1690684
0.2539997 0.14705284 -0.25161573 0.29550502 0.27280745 -0.13597599 0.31699353 0.22415392
-0.18301633 -0.16148585 0.27818882 -0.2179165 -0.32308087 -0.29092875 0.22852726 -0.0855719
0.29588872 0.3764292 -0.08332572 0.25307828 -0.060514294 -0.23054938 0.27801946 0.059852574
-0.408564 0.0882729 0.30628872 0.31562558 0.10529439 0.11831339 0.07832283 0.1492922
0.0673374 -0.19045135 0.030959504 0.09582002 0.005855384 0.05412567 0.07551662 -0.14779516
0.19925919 0.2725497 -0.06390185 -0.0097144 0.08789277 -0.078005984 -0.29411754 -0.0065921084
-0.22176565 -0.046066523 -0.27149433 -0.038657192 -0.26515713 -0.2881645 0.043133777 0.2284702
-0.28429294 -0.31242934 0.22021525 0.13545819 0.11060578 0.09207945 0.3373719 0.11264047
0.2174231 -0.24158302 -0.3325757 -0.07836339 -0.05929071 -0.26200438 0.04165219 0.086056575
-0.036224715 -0.09442467 -0.30911788 -0.28394625 -0.18056543 0.17004834 0.18154162 -0.15050724
-0.24297608 0.24986404 0.102635734 -0.26472414 0.23300968 0.19944517 0.17819357 0.21676396
0.29011592 0.036385667 0.015029012 -0.19032949 0.09775046 0.17917989 0.231929 0.10057437
-0.18861505 0.19755867 -0.28415644 -0.045667533 0.050881535 0.15136093 -0.21791525 0.15108332
-0.29557237 -0.13661237 -0.1810099 0.18873666 0.0036512918 -0.33330026 -0.20514521 -0.03917472
-0.2498265 0.042212352 0.20201899 -0.01933251 0.13926502 0.14912589 -0.15092978 0.20113255
-0.19338706 -0.27773175 0.23862277 -0.07946773 0.19755052 -0.11206549 -0.2656342 0.2807384

lstm.bias_ih_l1 f4 [40]
00000000: 2fc8 cbbd 08d5 78bd 8032 043c 285f 4b3e
00000010: 3198 6f3e dcd9 a43e 0d49 3cbd dc32 293d
00000020: fd10 683e 1cd3 f6bc 4437 adbe e94c afbd
00000030: 6297 a13d 7ed5 5ebc bc95 5a3d c615 79be
00000040: d505 683e f1ac 893e ec91 db3c 84eb 163c
00000050: 8828 40be d4ee ecbc 70d8 9e3e 2066 8f3d
00000060: 8abe 1d3d 8125 b23c 3965 93be 362e 7f3e
00000070: c35a cd3c 6066 e23c 1c91 91bd 3a0b 943e
00000080: c3b5 2d3e 2d35 943e 40c5 c83d 6d6d a93e
00000090: f3e4 a83e 3a9f 01bd 9a5c 093e 9443 1fbe
-0.09950291 -0.060750037 0.008068681 0.19860518 0.233979 0.32197464 -0.045968104 0.04130827
0.2266273 -0.030129962 -0.33831227 -0.08559591 0.07890202 -0.013600705 0.053365454 -0.24324712
0.22658475 0.26889756 0.02680298 0.009211425 -0.18765461 -0.028922476 0.31024504 0.07001901
0.03851179 0.021746399 -0.28788164 0.24919972 0.025067693 0.027636707 -0.071077555 0.28914815
0.16963868 0.2894682 0.098032475 0.33091298 0.32987174 -0.03164599 0.13414231 -0.15553123

lstm.bias_hh_l1 f4 [40]
00000000: caf8 34be 6b91 9b3e 7014 853e 5dd6 1c3e
00000010: a463 a73e ae11 3bbe cd20 8b3e 5afb 223e
00000020: bda4 373d 6c65 2dbe e1b8 8b3d f34c d4bd
00000030: 60d7 66bd 86d6 27be 8039 79bc df3c f7bd
00000040: 0994 0a3d 25c3 503e 6f29 173e f833 4d3e
00000050: 1356 2fbe 5394 e33d e246 67be 4db0 f43d
00000060: 6e30 99be 6466 013e 5404 1c3e 4c17 893d
00000070: ab58 92be d4d9 38be feb2 bcbd 48ed 2a3d
00000080: d18c 4fbe 488d 5bbe 3c5d 253e 5b27 12bc
00000090: 69da 8e3e 509d 9bbe e6c4 073d bbe9 a3be
-0.1767303 0.30384383 0.25992155 0.15316148 0.32693207 -0.18268463 0.27173463 0.15916196
0.04483484 -0.1693322 0.06822372 -0.103662394 -0.05635774 -0.16390428 -0.015211463 -0.12072157
0.033832584 0.20386942 0.147619 0.20039356 -0.17122678 0.11112275 -0.22585633 0.11947689
-0.2991976 0.12636715 0.15236026 0.06693897 -0.28583273 -0.18051845 -0.092138276 0.041730195
-0.20268561 -0.21440613 0.16148847 -0.008920516 0.2790101 -0.30393457 0.03314676 -0.3201426

fc.weight f4 [1, 4800]
00000000: f765 81bb 856a 333d 72f6 5f3d 0059 a63b
00000010: 9bf9 2ebc 386d 25bc 15fe f73c 550a 453c
00000020: b6eb 10bc 6f40 a33c 16cd cbbb 4dab 4c3d
00000030: 374e a63d 485d 8e3c 939a 30bc a68a a63b
00000040: 0f0d d63c 7eea 0aba 4bc7 b2bc dd94 053c
00000050: 0cbc efbb abac b2bb 0990 aa3d ca11 7abb
00000060: 041b b0bc f240 423c b119 5fbb 9f99 573c
00000070: f4ae 89ba b5fe 853c 517f a83b 87f6 edbc
00000080: 2982 1f3d 8db6 2a3c 2386 f5bc 3ba3 2a3c
00000090: 4123 c73c 1c7e f5bb e234 ab3a cc43 4ebc
000000a0: aad3 fc3b d6c7 b5bc 32f4 ee3b 7561 60ba
000000b0: 264d 18bc 7517 ec3b b497 103c 789c a7b9
000000c0: 4eea 0b3b ad2d 3dbc 6e44 e73b 382d c6ba
000000d0: b3dc 7ebc f3ba 243c 7a9e 07bc b536 8a3c
000000e0: 81cf 5f3c 15b4 1dbc f3f1 67bc 9272 eabb
000000f0: 0349 21bb 5011 463c 0f3d 93bb e1fa 63ba
00000100: cd2f c2bc 0d26 2d3b 2c3d 54ba b38e 3bbc
00000110: 0f03 16bc 29ce 11bb 31fd 99bb c687 ed3b
00000120: 5477 1c3c da6f 123b c3b4 bbba 9eef 843c
00000130: fc06 bbbb 8277 623c 8bc3 a53b 0aed a43a
00000140: 111a 93bb bd14 75bc 886c 6bbc 28d9 883a
00000150: da07 8f3c 4bb8 10bc 3927 4abc b591 c53b
00000160: 5051 49b9 c0bd cb3a 1f78 c03a c22c fdbc
00000170: ec5f 56bb 2837 0d3c 61a2 463c 0fd4 12bc
00000180: 12b4 e3bb 326e e23b 682a 63bc c28b e6ba
00000190: 2f93 52bb c69e a6bc 2137 23bc 3492 563c
000001a0: 41b6 a3bb ceeb 83bc 7b85 1e3b 4e26 0abc
000001b0: e6d7 853b a496 21bc d309 c3bb 7799 90bc
000001c0: e48b 0abb 2c54 e9bb d0d3 1dbc 485c 73bb
000001d0: 3244 76bb f69f 073c be72 69bc 0a56 96ba
000001e0: 769b 8bbc b3f8 fa3b 9ede ab3b 69ca f93b
000001f0: ac6e adbc 79da 93bc 0f29 dcbc 9e1c 173c
00000200: 0895 77bb b3ea 84bc 6c1d 19bc b341 8bbb
00000210: 614a 0f3c ca3d 1fbc 9533 58bc 19ae 1bbc
00000220: a942 afbc cd4f 2e3c ccd2 4dbc f7ee a8bb
00000230: 43c4 c7bb 7fc6 7d3c 40e5 1dbc 9b09 72bc
00000240: 1176 65bc 3a67 013c 58fe f73a 6773 13bc
00000250: 5621 573c a13a 18bc b6f9 593b 24bd 823c
00000260: 1918 5cbc 3a78 b2bc 24e4 64bc aaf5 4a3c
00000270: daa7 e1ba e712 143c d4ee abba 4207 62bc
00000280: c18b 0dbc 128e 9cbc adcd 7cbc ec5a b3ba
00000290: 912c 923a e1ba 903c ef5c 103b 0f2a 473c
000002a0: d0d7 153b f60e 5a3c 5342 383b ed91 9bbc
000002b0: 9ce1 9cbc 9290 373a 7363 66bc e12b d7ba
000002c0: 04e9 043b 281f 30bc 71c5 753c 8026 85bc
000002d0: 40ed 523c 43fe 793c 3154 103b ca58 ec3b
000002e0: e8cd 023c f421 91bc d928 0abd 2456 fc3a
000002f0: ce16 fa3b 140e 41bc d184 58bc b12b eb3c
00000300: 1d5c 71bb 19ff f23b 24b5 38bc b250 9cbc
00000310: cdcd e1bc 366b 213b d47f 0abb a6db cabb
00000320: d753 c03b 1406 a53c b38c be3c 32c6 22bc
00000330: 53a8 e73b e695 c5b9 b7ea 74bc 4485 403c
00000340: 8b18 b7bb e2a8 55bc b6f4 3dbc c925 023d
00000350: 45b4 e43c 9bf8 e23a 9cb1 1fbc 7bec 4dbb
00000360: f6e3 8ebc 351f b8b9 28a3 19bc a283 453a
00000370: 49e9 053c ff84 cc3b daf8 ed3b 2d98 3abb
00000380: 4fd1 3338 2bc2 3a3b 5fb3 26bc 96c2 cb3b
00000390: e5d5 303c a10c 5fbc ec28 733b 0e4e 2a3a
000003a0: 8f75 c5bb 0980 213b bea5 b73b ad51 dc3a
000003b0: daf3 0f3c 1226 3f3c 06a2 8a3b b0ec 2bbc
000003c0: 943a 3fbc 8383 b23c 5073 16bc 5b4d 023c
000003d0: 327d b33b fbf8 8eba 3422 973c c4a2 b0bb
000003e0: 9fe0 cdba 60bd 373c 4984 d2bb 8aa4 743c
000003f0: a1c2 493c d80a 6cbb b8e5 63bc c791 3fbc
-0.0039489227 0.043802757 0.054678388 0.0050765276 -0.010679628 -0.010096841 0.030272523 0.012026389
-0.00884526 0.019928185 -0.0062195165 0.049968053 0.08120387 0.017378464 -0.010779041 0.005082446
0.026129274 -0.0005299224 -0.021823546 0.008153168 -0.007316118 -0.0054527125 0.08328254 -0.0038157576
-0.021497257 0.0118563045 -0.0034042413 0.013159185 -0.0010504411 0.016356805 0.0051421304 -0.029048217
0.03894249 0.0104195 -0.029971188 0.010414894 0.024308803 -0.00749184 0.0013062025 -0.012589406
0.007715662 -0.022190016 0.007292294 -0.0008559444 -0.009295737 0.0072049447 0.008825231 -0.000319693
0.0021349373 -0.0115465345 0.007057718 -0.0015119677 -0.0155555485 0.010054338 -0.00827753 0.01687179
0.013660313 -0.009625454 -0.014156806 -0.007154771 -0.0024610169 0.012089089 -0.0044933627 -0.00086967467
-0.023704434 0.0026420385 -0.00080962735 -0.011447596 -0.009156003 -0.0022248125 -0.004699372 0.0072488515
0.009549934 0.00223445 -0.0014320839 0.01622754 -0.0057076197 0.013822438 0.005058711 0.001258285
-0.0044891913 -0.014958558 -0.014369138 0.0010440694 0.017459799 -0.008833001 -0.012338453 0.0060293325
-0.00019199145 0.0015544221 0.0014684236 -0.030905131 -0.0032710982 0.008619107 0.012123675 -0.0089616915
-0.0069489563 0.006910109 -0.013865091 -0.0017589258 -0.0032131185 -0.020339381 -0.009961874 0.013096381
-0.0049960916 -0.016103651 0.0024188447 -0.008431984 0.004084575 -0.009862576 -0.005952099 -0.017651303
-0.002114051 -0.00712063 -0.00963302 -0.0037133861 -0.0037577269 0.008277884 -0.014248548 -0.0011469733
-0.017041903 0.007659042 0.005245044 0.007623006 -0.021170937 -0.018048512 -0.026875047 0.009223131
-0.0037778039 -0.016225195 -0.009345394 -0.0042497753 0.008745761 -0.0097193215 -0.013195892 -0.009501957
-0.02139409 0.010639143 -0.012562465 -0.00515544 -0.0060963943 0.01548922 -0.009637177 -0.014772798
-0.0140052 0.007898146 0.0018920405 -0.008999682 0.0131305065 -0.009291322 0.0033260412 0.01595933
-0.01343348 -0.021785844 -0.013970409 0.012387672 -0.0017216161 0.00903771 -0.0013117441 -0.013795676
-0.008639277 -0.019110713 -0.015429896 -0.0013683713 0.0011152198 0.017667236 0.002202805 0.012156024
0.002286423 0.013309231 0.0028115704 -0.018990481 -0.019150548 0.00070024387 -0.0140617965 -0.0016416275
0.002028049 -0.010749616 0.015000687 -0.01625371 0.012873948 0.015258375 0.0022022838 0.007212733
0.007983662 -0.017716385 -0.03373036 0.0019251746 0.007632113 -0.011783142 -0.01321526 0.028707357
-0.0036828585 0.007415664 -0.011273656 -0.019081447 -0.027563954 0.0024630553 -0.002113332 -0.006190735
0.0058693695 0.0201445 0.02326045 -0.009934949 0.0070696264 -0.0003768645 -0.0149485385 0.011750523
-0.0055876425 -0.013040753 -0.011593988 0.031774316 0.02791799 0.0017316522 -0.009746935 -0.003142147
-0.017442685 -0.00035118466 -0.009377278 0.00075345684 0.008173295 0.0062414403 0.0072623314 -0.0028472051
4.287186e-05 0.002849708 -0.010174601 0.006218265 0.010793184 -0.013613851 0.0037103249 0.00064966164
-0.006025977 0.0024642965 0.005604475 0.0016809009 0.008786166 0.0116667915 0.0042307405 -0.010493442
-0.011671681 0.021791225 -0.009182766 0.007953013 0.005477571 -0.0010907942 0.018448927 -0.005390497
-0.0015707201 0.011214584 -0.006424461 0.014931807 0.01231447 -0.0036017206 -0.01390975 -0.011692471

exp_avg f4 [40, 17]
00000000: 7af1 fb37 f50a 5b39 0d64 3b38 e2e6 5a39
00000010: 682f 8f38 cbb7 01b7 e7f8 83b7 e71f 09b7
00000020: 1176 5738 324b 63b8 beee 1937 c6d1 0639
00000030: eb70 f938 ba21 0437 1cde e237 e11b 0d39
00000040: b2d8 c038 8a3e f1b9 96e8 b937 46a4 81b8
00000050: 08a1 b7b6 c82c 6e38 54b3 55b8 9cd9 27b8
00000060: 7d67 ceb8 1b06 9d36 4886 b839 0ca7 ad38
00000070: b4ab 19b8 2255 27b9 9169 41b9 3f6e a2ba
00000080: 8ee8 bd39 f282 5b3a e8c1 8239 60e6 f9b9
00000090: 1426 9637 54c1 76b9 9dd6 f5b8 8828 6337
000000a0: ec1b fbb8 14d1 d3b8 9a66 52b8 b4fd 7eb9
000000b0: 55d2 12b9 ca41 7038 8e6b 0e39 7f63 f6b8
000000c0: 7ce6 0c3a 78ce 8db6 6e06 82ba fa03 9239
000000d0: 0d9c 4f3a 84b5 0e37 7955 ef39 775a 3739
000000e0: 792d 1737 3ee3 2739 1aae 4738 cbf6 0a39
000000f0: 7a06 4138 e242 c638 0a3d 8b39 fe82 0439
00000100: 1932 b838 c2cd e038 bf76 1b3a 4633 d238
00000110: 9f7b 273a 1a3e 3e3a d487 2238 8cb6 003a
00000120: d054 ad38 4d10 1c38 a511 2139 f9ea ce38
00000130: 7809 f238 bddd fe38 bc0c b438 6315 a438
00000140: 83d6 0339 b2c9 1139 d8db 8b3a ee5c dd37
00000150: 0578 acb9 b9b2 5239 b759 533a 0e51 5e37
00000160: ab2c 123a 018a fe38 3edb a7b6 1b93 1839
00000170: 8812 a638 c2a1 1c39 2830 4b39 4378 0a39
00000180: 093f b738 776c 0339 1cb2 5b38 d8dc 61b8
00000190: d966 eb39 bf7a de39 7a9b 11b9 ba7b fa38
000001a0: fbee e0b8 e8d8 f934 04e4 b635 5e3b 6bb6
000001b0: 6689 6837 b269 80b8 d727 6438 bc7b bc37
000001c0: a720 e237 ce17 9837 7f19 0937 8edb 6db8
000001d0: 654b abb9 dcf3 63b8 142d ce39 b08c 5739
000001e0: 96a6 773a 19d8 0d38 6708 3c3a 362b c838
000001f0: 0a7d d336 673d 2739 eae5 0439 7a8d 1d39
00000200: 7ccd 3239 e108 4339 8285 bf38 f2b6 2b39
00000210: ff99 bc38 4e58 ce38 9560 5939 ea60 303a
00000220: 61f1 1c39 e9cd 223a db19 a8b8 899d 9e39
00000230: 147b 9238 606d e5b6 88dd 3739 2cfe fbb6
00000240: 90e0 5a38 116e 0439 a354 2e39 83fc 9a38
00000250: 9800 7337 03c3 f138 10d1 e3b7 9bd7 e339
00000260: aaf5 0b39 2dcd 93b9 db76 19ba f2fa 6938
00000270: f971 76b9 6b15 4bb8 ba03 91b6 409d 7db9
00000280: 4502 94b8 b838 c5b8 a343 a4b8 f687 50b9
00000290: b1be 3538 a1b8 0bb9 08e4 0c36 448b fcb9
000002a0: 67a6 9739 79c9 b0b9 ce53 c238 e34d c339
000002b0: a2bc 4538 85e1 a439 dfca 9538 2007 c9b6
000002c0: c1aa 2638 f536 9436 1d12 ae38 d1a5 6bb8
000002d0: 5c0d df37 90b1 1139 6459 6239 2ba0 eb36
000002e0: 089d 1a38 439f a239 5c4a 9838 b18f 80ba
000002f0: 25bb 01ba 9f9b 04b9 ed1d b3b9 8271 8ab8
00000300: fe5e 72b8 d27b 23b9 a77e 54b9 082d 24b8
00000310: 14e5 1139 a0f9 96b8 7e63 8cb8 761f 3db9
00000320: 6215 51b9 0c90 09bb c039 8539 9960 a03a
00000330: ce0a 9238 8862 42ba 7a0b b7b6 9929 07ba
00000340: 9943 e6b8 38e0 0e37 4668 08b9 f358 03b9
00000350: d800 28b9 9f4f 9ab9 e29f 16b9 8954 d837
00000360: 042b b138 9a49 0cb9 c765 ab39 31fb acb8
00000370: 0df2 81ba 3caa 8039 c420 433a 1403 b1b6
00000380: 1c29 103a 997c f238 2e07 3037 8e2f 8438
00000390: 3bbc 2438 151f ff38 ffab 2f38 abb9 7738
000003a0: db48 6939 5982 2939 722f c338 c9cd cb38
000003b0: 63b8 eb39 50a3 4939 a085 b539 42ec cc39
000003c0: 1aab 0438 3dd9 8239 5092 2e38 fde7 a137
000003d0: 7ade ea38 681a a038 d28c 0a38 dc6e a038
000003e0: 6436 7b38 e629 3e38 411b 3038 1c79 bb38
000003f0: 1d78 1c3a 9484 11b8 087c 12b9 1bf2 67b8
3.0033978e-05 0.0002088955 4.4677454e-05 0.0002087611 6.8276015e-05 -7.731792e-06 -1.5732321e-05 -8.173264e-06
5.1369952e-05 -5.419105e-05 9.175097e-06 0.00012857383 0.00011894278 7.875666e-06 2.7044727e-05 0.00013457194
9.195636e-05 -0.00046013697 2.2162025e-05 -6.181798e-05 -5.4725715e-06 5.6785328e-05 -5.095017e-05 -4.0018567e-05
-9.842122e-05 4.6796754e-06 0.00035195262 8.280398e-05 -3.6637954e-05 -0.00015958076 -0.00018445241 -0.0012392475
0.00036222156 0.00083736994 0.00024940004 -0.00047664624 1.7899125e-05 -0.00023532409 -0.00011722485 1.3539691e-05
-0.000119738135 -0.00010100208 -5.0163457e-05 -0.0002431784 -0.00014002 5.728173e-05 0.00013582243 -0.00011748727
0.0005374921 -4.2261636e-06 -0.0009920129 0.00027850253 0.0007919677 8.506122e-06 0.00045649314 0.00017485941
9.010889e-06 0.00016011015 4.7607442e-05 0.00013252643 4.6020818e-05 9.4538336e-05 0.00026557624 0.000126373
8.783135e-05 0.00010719478 0.00059304753 0.00010023131 0.00063889654 0.00072571787 3.875031e-05 0.0004910014
8.2650804e-05 3.720848e-05 0.0001536073 9.8666125e-05 0.00011541223 0.00012152966 8.585441e-05 7.824113e-05
0.00012573045 0.00013903415 0.0010670377 2.6388527e-05 -0.00032895818 0.0002009374 0.000806238 1.3251103e-05
0.0005576114 0.00012137369 -5.002511e-06 0.0001455065 7.9189485e-05 0.00014937579 0.00019377528 0.00013205507
8.737861e-05 0.0001253354 5.2379546e-05 -5.3849857e-05 0.0004489932 0.00042434593 -0.00013886197 0.00011943975
-0.00010725666 4.6537684e-07 1.3626418e-06 -3.5052285e-06 1.3860268e-05 -6.123203e-05 5.439654e-05 2.2468965e-05
2.6956504e-05 1.8130897e-05 8.171773e-06 -5.670968e-05 -0.00032671835 -5.434813e-05 0.00039324968 0.00020556408
0.00094471255 3.3818276e-05 0.0007172883 9.544792e-05 6.3028465e-06 0.00015949235 0.0001267415 0.00015025391
0.00017051952 0.00018599957 9.1324575e-05 0.00016375983 8.9932226e-05 9.8392935e-05 0.00020730712 0.00067283085
0.0001496724 0.00062104926 -8.01568e-05 0.0003025348 6.9847476e-05 -6.8374648e-06 0.00017534767 -7.5099724e-06
5.218439e-05 0.00012629504 0.00016625463 7.390326e-05 1.4484067e-05 0.00011528099 -2.7157861e-05 0.00043457453
0.0001334759 -0.00028190893 -0.00058541977 5.578524e-05 -0.00023502846 -4.841892e-05 -4.3217706e-06 -0.0002418654
-7.057613e-05 -9.404257e-05 -7.832728e-05 -0.00019887075 4.3331358e-05 -0.00013324853 2.0994357e-06 -0.00048168947
0.00028924944 -0.00033719445 9.266251e-05 0.00037251328 4.7144138e-05 0.00031448543 7.142661e-05 -5.9910963e-06
3.973651e-05 4.4171416e-06 8.3003404e-05 -5.6182795e-05 2.6589893e-05 0.00013894425 0.0002158634 7.0221918e-06
3.6862708e-05 0.00031017707 7.261775e-05 -0.0009808448 -0.0004948846 -0.00012646474 -0.00034163837 -6.601495e-05
-5.7785765e-05 -0.00015591018 -0.00020265077 -3.9142586e-05 0.00013913616 -7.199054e-05 -6.694252e-05 -0.00018036165
-0.00019939759 -0.00209904 0.00025410764 0.001223582 6.963835e-05 -0.0007415195 -5.455161e-06 -0.000515604
-0.00010979846 8.516065e-06 -0.00013008816 -0.0001252627 -0.00016022043 -0.0002943249 -0.00014364676 2.5788571e-05
8.44803e-05 -0.00013378859 0.00032691492 -8.248387e-05 -0.0009914056 0.00024540897 0.0007443542 -5.2753694e-06
0.000549929 0.00011562667 1.0492089e-05 6.303108e-05 3.927595e-05 0.00012165137 4.1883435e-05 5.9062306e-05
0.00022247752 0.00016165654 9.307162e-05 9.718125e-05 0.00044960072 0.00019229692 0.0003462257 0.00039085938
3.1630603e-05 0.00024957387 4.1621097e-05 1.9300724e-05 0.00011199429 7.634313e-05 3.3032913e-05 7.650044e-05
5.989372e-05 4.533855e-05 4.1987052e-05 8.939413e-05 0.0005968826 -3.4694167e-05 -0.0001396985 -5.530017e-05

exp_avg_sq f4 [40, 17]
00000000: da05 1b33 2dc7 1834 4c07 0f32 b8f7 df33
00000010: 227a e832 4a43 3f32 c756 0932 8b4b 8b32
00000020: 734e be32 bd92 8e32 02d2 9332 6c2c 3833
00000030: 1e83 4233 08f7 0d33 b1d4 8633 6474 0133
00000040: e2db 9833 4451 be34 3042 fd34 64d4 0c33
00000050: 21c7 0535 0c24 af33 55ee c933 f1e2 ef32
00000060: 9d6a 7a34 c292 9734 b7ba 8534 6eac 5934
00000070: 4ea1 8034 248a b734 a1ad be34 e543 1836
00000080: cad1 ee34 2545 6435 fcc5 1334 8e0d 1f35
00000090: 0105 5532 8a1f e934 c4bc d932 34a8 ee32
000000a0: f48e e231 0881 9134 5f15 6234 67c0 7e34
000000b0: bc3f 5633 b228 c633 f84e 9834 759b a633
000000c0: ff11 6535 b175 0935 9a6f 9635 5e25 1f34
000000d0: cbc0 3635 4f6d 9931 5dbb 8d34 7951 8a33
000000e0: 2bfc 3c33 296f c532 85b5 9632 5a75 7933
000000f0: 5a78 c631 beb3 6a32 af84 d333 79ad bb33
00000100: 5ad6 ab32 d30d 3d34 6dec 9a34 6609 6933
00000110: ee3d 0a35 2d8b 5335 a3b3 c632 df34 f234
00000120: 353e 9332 30d4 b532 1353 6732 9fc8 8733
00000130: 7e95 b332 9fec 9632 ce94 5332 1796 4f33
00000140: 4aaa d832 53b3 1533 86db a935 a298 1432
00000150: b4e9 1034 6a75 c033 b1b2 4635 2cf1 1d32
00000160: ba00 dc34 284f 9532 dc4a 2133 c01a 0832
00000170: fc9a 8232 d563 3d33 6cc8 6c33 82e9 4433
00000180: d831 f532 1551 5a33 4113 5a33 73fd 9933
00000190: 7f82 a434 3dd5 6934 dd65 3333 0b19 0f33
000001a0: 2201 d132 e129 b833 234d 2933 9eb1 7b32
000001b0: 107b 6a31 37c1 4f33 538e 8a33 1b69 c733
000001c0: 935c 6d33 9e08 d733 00b5 4133 95e4 fd33
000001d0: 15f9 3634 33f6 ad32 101a 2f34 5b5c 7333
000001e0: 2197 7835 3cf9 2331 03ca 2635 083c 0f32
000001f0: d083 9832 ea02 db31 36b6 8732 4581 cf32
00000200: 0277 4633 c407 1633 23b2 8032 c7a7 1033
00000210: 2ab7 ea32 5698 a432 a331 1934 96ef e834
00000220: 003e 0734 8196 6635 cd69 1233 4270 0435
00000230: 8023 5233 3ac9 2533 4513 4a33 294a 1d33
00000240: 46d2 8432 a206 6133 319e 8a34 28e4 1633
00000250: 8b72 1a33 2b05 5c33 769c df33 5cfd 8034
00000260: 8d9f 1534 59fe 4134 5f55 6a35 ab17 4e32
00000270: b4e2 0135 8402 7e33 d0a4 2433 b006 1633
00000280: 9288 b232 9b63 9433 d773 b632 1755 e633
00000290: 417e 4232 f842 2c34 26a3 4b32 ac80 9534
000002a0: eb0f 4d34 d70f 4a34 4741 8c33 9742 5f34
000002b0: 8178 6632 a73a 2834 bb2f fc32 f4b7 8d32
000002c0: 5d08 ac31 f3ea 0633 398d 0733 0720 a832
000002d0: d5b3 af32 39fe ab33 95c4 b933 64aa 2333
000002e0: fde6 dd33 e12a d433 b8e8 8f33 508a 9c35
000002f0: bd22 6a35 77c9 d533 5a95 6035 48dc 9634
00000300: c789 2d34 3419 8533 8ff3 2135 f977 1535
00000310: d380 f934 2060 1035 637e 0335 2ce3 0235
00000320: 326d dd34 5def a236 a190 3d34 d8ec e235
00000330: 4dfe 7033 81e0 6d35 a095 4432 4063 2035
00000340: 1fb8 1e33 8dc5 0133 d01e f031 0b5d 4134
00000350: c740 3834 cd62 8634 79ce 5233 53e2 6833
00000360: 451d 3a34 3a98 9033 bd75 ee34 f145 8e34
00000370: 7e04 9735 7cae df33 99a3 fa34 8b05 1c31
00000380: 99a2 8534 8f82 b932 ee05 9d32 7e56 1532
00000390: c189 8132 bd43 f132 7c15 2331 00dd cf31
000003a0: d5ff a533 78d3 a033 5a57 b332 6d85 0e34
000003b0: 4dab 3034 6b90 7533 c819 1234 e062 4634
000003c0: 7014 f731 06d0 f333 a68b e831 a948 bf31
000003d0: 49b9 af31 ad9a b032 71f9 0132 cc32 b931
000003e0: 2a2d 9031 1ce1 7132 837c 2c32 736b 7332
000003f0: 833d c334 d08f 1432 ceda 2b33 b5f6 a833
3.609407e-08 1.4228563e-07 8.325355e-09 1.04293065e-07 2.7063894e-08 1.1132963e-08 7.99418e-09 1.6216083e-08
2.2154586e-08 1.6597705e-08 1.7208553e-08 4.288124e-08 4.5288395e-08 3.3053794e-08 6.2785496e-08 3.014101e-08
7.118048e-08 3.5449386e-07 4.717308e-07 3.278946e-08 4.983613e-07 8.1556294e-08 9.403144e-08 2.7926463e-08
2.332185e-07 2.8232722e-07 2.4909033e-07 2.027243e-07 2.3959223e-07 3.4186917e-07 3.551659e-07 2.2689285e-06
4.4483596e-07 8.503724e-07 1.3762468e-07 5.925184e-07 1.23993695e-08 4.342258e-07 2.5347966e-08 2.7783337e-08
6.5937176e-09 2.7102237e-07 2.1055665e-07 2.3725589e-07 4.9883724e-08 9.227496e-08 2.8369664e-07 7.758255e-08
8.5335336e-07 5.120774e-07 1.1208351e-06 1.4821623e-07 6.8080834e-07 4.465313e-09 2.639962e-07 6.4409456e-08
4.4001506e-08 2.2984368e-08 1.7544844e-08 5.808156e-08 5.776241e-09 1.3661461e-08 9.849588e-08 8.7394206e-08
2.0004496e-08 1.7607026e-07 2.8856758e-07 5.4258088e-08 5.1499126e-07 7.880615e-07 2.3131923e-08 4.511448e-07
1.714134e-08 2.1167665e-08 1.3464859e-08 6.32292e-08 2.0906324e-08 1.7569901e-08 1.2315651e-08 4.833245e-08
2.5223148e-08 3.485486e-08 1.2655371e-06 8.6494385e-09 1.3496066e-07 8.962054e-08 7.402078e-07 9.193439e-09
4.0978722e-07 1.7381879e-08 3.7553818e-08 7.922324e-09 1.520447e-08 4.409579e-08 5.5130315e-08 4.584718e-08
2.854442e-08 5.0830824e-08 5.077459e-08 7.17072e-08 3.064233e-07 2.1777392e-07 4.176933e-08 3.331756e-08
2.4331317e-08 8.5757854e-08 3.9418534e-08 1.4650508e-08 3.4121435e-09 4.837167e-08 6.4520144e-08 9.285778e-08
5.526506e-08 1.0013285e-07 4.5100933e-08 1.18228094e-07 1.7040686e-07 2.025181e-08 1.6307627e-07 5.6661843e-08
9.260712e-07 2.3861295e-09 6.2133785e-07 8.337345e-09 1.775507e-08 6.37407e-09 1.5798928e-08 2.4156757e-08
4.6208704e-08 3.493166e-08 1.4982168e-08 3.3680205e-08 2.7324479e-08 1.9161387e-08 1.4267293e-07 4.338769e-07
1.259541e-07 8.590069e-07 3.40895e-08 4.933719e-07 4.8926722e-08 3.860007e-08 4.7049316e-08 3.662186e-08
1.5462444e-08 5.2392927e-08 2.5819602e-07 3.5132103e-08 3.5960095e-08 5.1227442e-08 1.0412707e-07 2.40262e-07
1.393475e-07 1.8067057e-07 8.7296024e-07 1.199616e-08 4.838614e-07 5.914127e-08 3.833412e-08 3.493068e-08
2.0784032e-08 6.909905e-08 2.1240266e-08 1.07256874e-07 1.1320993e-08 1.6043111e-07 1.1853251e-08 2.7847034e-07
1.9097904e-07 1.8818479e-07 6.531132e-08 2.0792719e-07 1.3415161e-08 1.5667557e-07 2.9358366e-08 1.6498213e-08
5.0068096e-09 3.141299e-08 3.1560578e-08 1.9572338e-08 2.045446e-08 8.009051e-08 8.650492e-08 3.8106364e-08
1.0333131e-07 9.879819e-08 6.701288e-08 1.166316e-06 8.7222344e-07 9.955232e-08 8.366384e-07 2.8099953e-07
1.6162004e-07 6.1978795e-08 6.03316e-07 5.568141e-07 4.6473596e-07 5.378406e-07 4.898522e-07 4.875935e-07
4.1243908e-07 4.855842e-06 1.7654612e-07 1.6907243e-06 5.611064e-08 8.8616076e-07 1.1442722e-08 5.974907e-07
3.69547e-08 3.0214824e-08 6.9884223e-09 1.8008375e-07 1.7159901e-07 2.5031332e-07 4.908222e-08 5.422255e-08
1.7333248e-07 6.7332124e-08 4.441662e-07 2.650045e-07 1.1251684e-06 1.0415985e-07 4.6685162e-07 2.2704139e-09
2.4891486e-07 2.1596206e-08 1.8279902e-08 8.6926075e-09 1.508022e-08 2.8086896e-08 2.3731834e-09 6.0496177e-09
7.729947e-08 7.4890465e-08 2.0878065e-08 1.327332e-07 1.6453596e-07 5.7174855e-08 1.3606689e-07 1.8476157e-07
7.1909696e-09 1.13534085e-07 6.767965e-09 5.567092e-09 5.114235e-09 2.0559435e-08 7.565505e-09 5.3899836e-09
4.196086e-09 1.407923e-08 1.0040028e-08 1.4168893e-08 3.6366336e-07 8.647433e-09 4.001304e-08 7.8679854e-08
