timeSerise/logs/lightning_logs/version_2/checkpoints/epoch=199-step=10200.ckpt (torch, 50139 bytes, 27 tensors)

lstm.weight_ih_l0 f4 [40, 30]
-0.07485561 0.026522733 0.12897198 -0.0055033322 0.0020138167 0.031741317 0.29038176 -0.3718817
0.120063044 0.4095189 0.02792701 0.25890985 -0.03308816 0.107291535 -0.14876291 0.029920906
-0.23171073 0.16227232 -0.28354117 -0.43212867 0.6251078 0.63149357 0.52416927 0.2011867
0.12154387 -0.5909043 -0.0026850956 0.0867635 -0.48696142 0.1165206 -0.013296966 -0.16730988
-0.28826046 0.54421246 0.110338435 -0.1343135 -0.5035621 -0.3965891 0.6002607 0.10736235
-0.0746696 0.38821515 0.06359301 -0.002773719 -0.60821724 0.0814722 -0.27214086 0.46738446
-0.27255282 -0.12691772 -0.16568942 0.057977263 -0.25706366 0.15466456 0.5938478 0.35377023
-0.034178987 0.00902111 0.18558496 0.17605121 -0.020773614 -0.09140539 -0.15468581 1.049742
0.4473249 -0.2194965 -0.830194 0.18406995 0.7136498 0.17466852 0.03389948 0.43846458
0.44687667 0.25756428 -0.23688899 0.20510249 0.4261922 0.27533287 -1.1253395 0.010572523
0.49950323 1.1230873 0.57633185 0.69629925 0.816033 -0.3146149 -0.6922665 -0.75550526
-0.48056293 -0.9770688 0.25953206 0.1242121 0.019007174 0.10890347 0.056715526 -0.179406
-0.24162717 -0.011522457 0.073630646 -0.24774443 0.27948204 -0.021372136 0.16350277 -0.18259701
0.24163558 0.1536642 -0.18769653 0.25016963 -0.23238859 -0.25605094 -0.08439691 -0.1110159
-0.16276737 -0.23677121 -0.223941 -0.14433675 0.23834847 0.06352189 -0.21612428 -0.032177724
0.11322561 -0.3240743 0.083301924 -0.71370274 -0.48431632 0.13443154 -0.80307955 0.5629114
0.23038004 -0.019214002 0.26270422 -0.537162 -0.49708152 0.5851738 0.2977092 0.25071284
-0.2594826 -0.13035539 -0.36998776 -0.016477162 -0.39141974 0.072161645 0.48406467 -0.1383127
-0.078240156 -0.0579244 -0.16095974 -0.11031079 -0.110792994 0.42791057 0.108034275 -0.02635184
-0.19784936 0.22362535 -0.24174902 -0.1269603 -0.15385592 -0.12588117 -0.02506079 0.12543312
0.3093177 -0.050982695 0.34538165 0.1338937 -0.041543324 0.00627035 -0.18271352 -0.18954903
-0.17710489 0.007412345 -0.0021820571 -0.2716311 -0.26583093 0.023632385 0.12345403 0.32412115
0.21029863 -0.07815684 0.23406655 0.16018818 -0.27755645 0.15059128 0.2916312 0.1261754
0.0039532087 0.6682252 -0.4051703 -0.6839465 0.4457606 0.23756443 -0.27025726 -0.055531908
0.29902095 -0.1800642 0.031791575 -0.07455193 0.050071284 -0.0057294806 -0.07348044 -0.06717879
-0.26015162 -0.41675815 -0.097535394 0.55978864 0.10127057 0.08566557 0.1747447 0.12992282
-0.35831785 -0.4427239 0.008959597 -0.14869018 -0.3009033 0.5155444 0.46469674 -0.34404567
-0.5547575 0.46469194 -0.05527788 0.6517334 0.038911562 0.7585049 -0.6856564 0.18001086
-0.56805015 0.2297215 0.6745052 0.3333325 -0.038938515 0.12874554 -0.07504019 0.030766241
-0.16597307 -0.3401427 -0.107597955 0.61611736 0.44297144 -0.014916555 -0.05605767 0.65048534
0.09934422 -0.22572759 0.08072929 0.16725858 -0.11716588 0.51713985 0.25037003 -0.4994677
0.085716896 -0.12762953 -0.64169854 0.33611742 0.79005086 -0.03428564 -0.07475131 -0.29383364
00000000: e64d 99bd 3446 d93c 3b11 043e 4c55 b4bb
00000010: 3dfa 033b 2f03 023d ebac 943e 4767 bebe
00000020: 9de3 f53d 76ac d13e 2fc7 e43c d58f 843e
00000030: 7387 07bd aabb db3d 4e55 18be b01c f53c
00000040: 9445 6dbe b72a 263e 4f2c 91be f83f ddbe
00000050: 1107 203f 90a9 213f f52f 063f e303 4e3e
00000060: feeb f83d 8145 17bf 6ef8 2fbb 10b1 b13d
00000070: 0253 f9be 5aa2 ee3d 85db 59bc 4853 2bbe
00000080: e096 93be 8251 0b3f 1ef9 e13d 7a89 09be
00000090: 72e9 00bf ba0d cbbe afaa 193f cbe0 db3d
000000a0: 60ec 98bd 23c4 c63e 0d3d 823d 48c7 35bb
000000b0: 20b4 1bbf e6da a63d 0c56 8bbe 044d ef3e
000000c0: 0b8c 8bbe b8f6 01be 7daa 29be 9179 6d3d
000000d0: d99d 83be 6360 1e3e 6906 183f 5f21 b53e
000000e0: 44ff 0bbd 47cd 133c fc09 3e3e c546 343e
000000f0: 6d2d aabc c032 bbbd f565 1ebe f25d 863f
00000100: c507 e53e b1c3 60be 9887 54bf d57c 3c3e
00000110: c1b1 363f 4edc 323e 2eda 0a3d 6e7e e03e
00000120: 05cd e43e 77df 833e 0793 72be 6306 523e
00000130: dd35 da3e 6ef8 8c3e 200b 90bf 6038 2d3c
00000140: e3be ff3e 53c1 8f3f 7c8a 133f ab40 323f
00000150: 8ae7 503f 3415 a1be 6138 31bf cb68 41bf
00000160: 580c f6be 2e21 7abf 63e1 843e ea62 fe3d
00000170: efb4 9b3c c808 df3d 8a4e 683d 35b6 37be
00000180: 1d6d 77be b0c8 3cbc aacb 963d b7b0 7dbe
00000190: 4518 8f3e 9e14 afbc 456d 273e b6fa 3abe
000001a0: 516f 773e 265a 1d3e 8533 40be 3c16 803e
000001b0: 46f7 6dbe 1c19 83be 4ad8 acbd 4e5c e3bd
000001c0: 7dac 26be 2774 72be ca50 65be 03cd 13be
000001d0: 9f11 743e c417 823d af4f 5dbe cacc 03bd
000001e0: d4e2 e73d 11ed a5be 339a aa3d 39b5 36bf
000001f0: 4ff8 f7be 6ca8 093e 9f96 4dbf f61a 103f
00000200: bfe8 6b3e af66 9dbc 2b81 863e 7383 09bf
00000210: 7881 febe f3cd 153f 576d 983e 6f5d 803e
00000220: e7da 84be e27b 05be 096f bdbe 1dfb 86bc
00000230: 2b68 c8be 7cc9 933d 53d7 f73e d8a1 0dbe
00000240: 603c a0bd 2342 6dbd a1d2 24be a0ea e1bd
00000250: 70e7 e2bd 1817 db3e 1341 dd3d d0df d7bc
00000260: 0699 4abe 0bfe 643e 0e8d 77be e201 02be
00000270: 688c 1dbe fee6 00be 494c cdbc 8a71 003e
00000280: e45e 9e3e 3bd3 50bd ddd5 b03e 6e1b 093e
00000290: 5529 2abd 8277 cd3b 4119 3bbe 2419 42be
000002a0: fc5a 35be 42e3 f23b d800 0fbb 3b13 8bbe
000002b0: fe1a 88be b498 c13c 77d5 fc3d 35f3 a53e
000002c0: 8658 573e b110 a0bd 24af 6f3e 5f08 243e
000002d0: e11b 8ebe 9a34 1a3e af50 953e 2034 013e
000002e0: eb89 813b cf10 2b3f 7b72 cfbe 1e17 2fbf
000002f0: bc3a e43e 1744 733e 295f 8abe 6d75 63bd
00000300: 4619 993e c062 38be e237 023d afae 98bd
00000310: 8c17 4d3d 5ebe bbbb ea7c 96bd 0995 89bd
00000320: 9832 85be 5361 d5be a3c0 c7bd 4f4e 0f3f
00000330: f266 cf3d 6e71 af3d 46f0 323e 7d0a 053e
00000340: 7075 b7be b5ac e2be 46cb 123c 3d42 18be
00000350: ff0f 9abe b8fa 033f bbec ed3e c126 b0be
00000360: 9604 0ebf 1aec ed3e 0f6b 62bd 00d8 263f
00000370: bb61 1f3d 612d 423f 2e87 2fbf c454 383e
00000380: bc6b 11bf 1d3c 6b3e 5fac 2c3f 8faa aa3e
00000390: fe7d 1fbd dfd5 033e acae 99bd 7c09 fc3c
000003a0: d8f4 29be 2f27 aebe 515c dcbd deb9 1d3f
000003b0: 27cd e23e 9164 74bc ba9c 65bd 3586 263f
000003c0: fb74 cb3d 2225 67be 6655 a53d d545 2b3e
000003d0: aaf4 efbd 4763 043f 8030 803e 3bba ffbe
000003e0: 578c af3d 51b1 02be 5b46 24bf 9517 ac3e
000003f0: c640 4a3f 196f 0cbd 3717 99bd 5d71 96be

lstm.weight_hh_l0 f4 [40, 10]
0.10775289 -0.2153724 -0.35622373 0.0815155 0.16225845 0.15706228 0.2917993 -0.07670223
0.07914462 0.2629767 -0.13708939 -0.1934946 0.1189035 -0.02216529 -0.2877597 -0.1273796
-0.05240502 0.323682 0.5151952 0.049404837 -0.071852684 0.12262525 -0.082689464 -0.19821042
-0.2576594 0.11382493 0.41618446 0.057937924 0.37312868 -0.27298853 -0.22889645 0.312222
0.16884261 0.14659408 -0.25225025 0.19218875 -0.18726772 0.0640237 0.12711632 -0.2829018
-0.045456 -0.056220837 0.26719958 0.14572091 0.14033893 -0.038358647 0.27495384 -0.2763204
-0.30122566 -0.31092075 -0.04028563 0.3019629 -0.101161376 0.26569718 0.013375598 0.061689686
0.24553198 0.22903085 -0.27208644 -0.26558048 0.30663395 0.2688615 0.087816104 0.10994266
0.27161786 -0.012145503 -0.0811083 0.50561655 -0.30369356 -0.06274988 0.30672303 -0.004874446
0.55103534 -0.21739721 0.07197078 -0.2856851 -0.19174244 -0.22892207 0.6955636 -0.034672603
-0.111379616 0.09936299 0.51701003 -0.19745736 -0.021451877 0.19631052 0.15616053 -0.069406494
0.2599346 -0.13871378 -0.21878384 0.11970328 0.27778968 -0.21472952 -0.3134108 0.30137086
0.059098337 0.062227856 0.24032065 -0.045715727 0.19523522 0.3177753 -0.18057007 0.0290668
-0.22493502 0.36912212 0.24243289 0.55022025 -0.22133574 0.18329327 -0.20383069 0.06774807
0.28480625 0.20965402 -0.17810571 0.3021153 -0.28311628 0.29540288 0.57643795 -0.26017305
-0.23287934 0.17497799 0.44515833 0.2521982 0.21977983 0.1478855 -0.0057716025 0.11692795
0.32501686 0.014284165 0.17487976 -0.2452249 -0.25567907 -0.04739574 0.010816979 0.20366861
-0.29750514 0.28151748 0.25660607 -0.073955595 -0.18779437 0.13778307 0.24802133 0.2834755
-0.08384899 0.30998087 0.03328835 -0.13882513 0.3109467 0.22068153 0.14643277 0.14266264
0.376744 -0.057293124 -0.3046461 -0.101182394 0.16136627 -0.12283851 0.15955354 -0.2745742
-0.06868919 -0.058114637 0.04065453 -0.26183933 0.1054165 0.19180542 0.0037772162 -0.15896893
0.08328238 0.09306269 0.050457947 -0.25354904 0.21495424 0.2883483 0.18535939 0.09717611
-0.19873764 -0.12712479 -0.35552996 0.30440733 0.04927176 0.034507696 0.05605933 -0.2427577
-0.045049414 0.086701676 0.16122474 -0.19929989 0.006328365 -0.131354 -0.28735754 0.27913165
0.20751354 -0.19255485 0.29854274 0.15166007 -0.15545456 -0.029670032 -0.1225372 0.29034266
-0.14031678 -0.2449896 -0.26243567 0.07086479 -0.19525093 0.0680789 -0.17103526 -0.0911733
0.21694683 -0.29554263 0.10075063 0.272021 0.14959954 0.2081015 -0.14738245 -0.26420137
0.27971062 -0.082161084 0.102783844 -0.21854234 -0.1483712 0.21636538 0.226775 0.018540883
0.13843536 0.094697736 -0.31557363 0.1798115 -0.107524805 0.10186172 -0.27716663 -0.21182169
0.29173285 0.11791289 0.12811342 -0.2630987 0.076327294 0.23695785 -0.25461394 0.03968572
0.22717498 -0.12211294 0.32333052 0.22900751 -0.2635945 0.0388351 0.22733453 -0.14844996
0.17631806 -0.21800262 -0.079216234 0.24808638 0.22845031 0.10323507 0.14743988 0.14648691
00000000: 8cad dc3d 958a 5cbe f562 b6be 99f1 a63d
00000010: 1427 263e efd4 203e b866 953e 0f16 9dbd
00000020: 9316 a23d e2a4 863e 2961 0cbe 7323 46be
00000030: ae83 f33d fb93 b5bc 3d55 93be cc6f 02be
00000040: a5a6 56bd a6b9 a53e d5e3 033f ba5c 4a3d
00000050: 8027 93bd f222 fb3d 1859 a9bd acf7 4abe
00000060: efeb 83be 0b1d e93d 2116 d53e 5150 6d3d
00000070: b90a bf3e 27c5 8bbe d563 6abe 90db 9f3e
00000080: 14e5 2c3e c21c 163e f226 81be 21cd 443e
00000090: 1cc3 3fbe dc1e 833d c82a 023e 81d8 90be
000000a0: 1230 3abd d247 66bd 62ce 883e dd37 153e
000000b0: 02b5 0f3e f51d 1dbd c0c6 8c3e de79 8dbe
000000c0: 403a 9abe 0131 9fbe 8b02 25bd e29a 9a3e
000000d0: b22d cfbd 7609 883e 5325 5b3c 53ae 7c3d
000000e0: bc6c 7b3e 1087 6a3e ea4e 8bbe 2afa 87be
000000f0: 20ff 9c3e 37a8 893e eed8 b33d 9e29 e13d
00000100: 7f11 8b3e effd 46bc 1c1c a6bd 1670 013f
00000110: b97d 9bbe 0283 80bd cd0a 9d3e d1b9 9fbb
00000120: a710 0d3f 609d 5ebe 6b65 933d 5145 92be
00000130: 2158 44be 8c6a 6abe 7510 323f dc04 0ebd
00000140: ff1a e4bd d37e cb3d c55a 043f 4332 4abe
00000150: d9bb afbc a005 493e 8ce8 1f3e fe24 8ebd
00000160: 2616 853e fc0a 0ebe df08 60be fe26 f53d
00000170: 733a 8e3e 0ee2 5bbe 6177 a0be 484d 9a3e
00000180: 1911 723d a3e2 7e3d 9e16 763e 6a40 3bbd
00000190: beeb 473e 72b3 a23e 5ce7 38be 7f1d ee3c
000001a0: 5e55 66be 93fd bc3e 5440 783e 3cdb 0c3f
000001b0: d6a5 62be 3bb1 3b3e feb8 50be 80bf 8a3d
000001c0: 20d2 913e 8baf 563e 5861 36be dbae 9a3e
000001d0: 9ef4 90be 0c3f 973e 7091 133f 6735 85be
000001e0: ec77 6ebe 6e2d 333e cbeb e33e 1f20 813e
000001f0: f70d 613e 4c6f 173e b61f bdbb ec77 ef3d
00000200: 9c68 a63e 2108 6a3c ae13 333e 3c1c 7bbe
00000210: 5ee8 82be 0922 42bd b339 313c 818e 503e
00000220: 9852 98be 0f23 903e df61 833e 0876 97bd
00000230: 2b4d 40be 0117 0d3e 4ef9 7d3e b323 913e
00000240: 05b9 abbd d0b5 9e3e 5d59 083d 2d28 0ebe
00000250: 6834 9f3e 57fa 613e 79f2 153e 2816 123e
00000260: 97e4 c03e 32ac 6abd 93fa 9bbe b738 cfbd
00000270: 333d 253e c292 fbbd 0162 233e fd94 8cbe
00000280: ebac 8cbd 9d09 6ebd 5d85 263d ce0f 86be
00000290: 9be4 d73d a468 443e 2c8b 773b c0c8 22be
000002a0: f48f aa3d a797 be3d feac 4e3d 2ed1 81be
000002b0: f71c 5c3e 63a2 933e dace 3d3e 4504 c73d
000002c0: e181 4bbe 002d 02be 0608 b6be 47db 9b3e
000002d0: 2fd1 493d f157 0d3d 789e 653d 7995 78be
000002e0: bc85 38bd a690 b13d 1918 253e 4515 4cbe
000002f0: 2c5e cf3b aa81 06be 8720 93be 58ea 8e3e
00000300: 6e7e 543e 192d 45be 98da 983e c74c 1b3e
00000310: 7b2f 1fbe 910e f3bc c9f4 fabd cba7 943e
00000320: 34af 0fbe 8ede 7abe f85d 86be 8f21 913d
00000330: dcef 47be f36c 8b3d de23 2fbe 11b9 babd
00000340: 4f27 5e3e 5d51 97be 5956 ce3d 5646 8b3e
00000350: 9f30 193e 8f18 553e 6deb 16be 6745 87be
00000360: 3b36 8f3e 1244 a8bd 5680 d23d 90c9 5fbe
00000370: 9fee 17be e38e 5d3e b537 683e 0de3 973c
00000380: 00c2 0d3e e3f0 c13d de92 a1be 8120 383e
00000390: f735 dcbd e19c d03d c9e8 8dbe c9e7 58be
000003a0: 025e 953e 507c f13d 2a30 033e dfb4 86be
000003b0: 7c51 9c3d 14a5 723e c25c 82be 7e8d 223d
000003c0: 8fa0 683e 5916 fabd 948b a53e f280 6a3e
000003d0: dcf5 86be 8e11 1f3d 62ca 683e 4403 18be
000003e0: b98c 343e 143c 5fbe 1f3c a2bd 5b0a 7e3e
000003f0: e1ee 693e e96c d33d 7bfa 163e aa00 163e

lstm.bias_ih_l0 f4 [40]
0.19782323 0.28934655 0.2272346 -0.14532371 0.020655803 0.35943237 0.21148367 0.24006599
-0.25704363 -0.15838616 0.41531944 -0.031202815 -0.0065235137 0.0067143166 0.026039224 0.20364378
-0.21829537 0.18605919 -0.19141994 0.06815832 -0.22016095 -0.14416611 -0.21126325 0.1904121
0.27320966 -0.038512953 0.14838108 0.187748 0.18269654 0.28774524 0.012533713 -0.107794
-0.090066485 -0.19543514 -0.02068386 0.206026 0.10818637 0.015459219 -0.24736293 -0.22013034
00000000: 2c92 4a3e 3b25 943e 30b0 683e bdcf 14be
00000010: 5c36 a93c 8507 b83e 2d8f 583e dcd3 753e
00000020: 399b 83be fb2f 22be c0a4 d43e 0c9d ffbc
00000030: 33c3 d5bb c503 dc3b 3650 d53c ff87 503e
00000040: d288 5fbe 4d86 3e3e 9703 44be 9796 8b3d
00000050: df71 61be 48a0 13be 6555 58be 64fb 423e
00000060: 23e2 8b3e c2bf 1dbd 36f1 173e 0341 403e
00000070: cd14 3b3e 5853 933e 345a 4d3c 1ac3 dcbd
00000080: c774 b8bd 2620 48be 3371 a9bc 7bf8 523e
00000090: d190 dd3d aa48 7d3c b54c 7dbe d969 61be

lstm.bias_hh_l0 f4 [40]
0.30920082 0.10028882 0.2893468 -0.081128165 -0.22869974 0.013486299 0.2687679 0.379999
-0.12781803 -0.28213868 0.23584232 0.19848949 -0.09520338 0.20422739 0.18636264 0.22234143
-0.23263708 -0.027543161 0.07636766 0.09748089 -0.20841609 -0.15845855 0.11281233 0.15863164
-0.17181048 -0.05556562 0.30297324 0.2518641 -0.3983895 0.26653227 0.31337595 0.17588714
-0.14120191 -0.19634685 -0.018118685 0.09461745 0.47909775 -0.33283588 0.30647802 0.04725679
00000000: 924f 9e3e 3a64 cd3d 4425 943e 8626 a6bd
00000010: 4430 6abe a3f5 5c3c f29b 893e 3b8f c23e
00000020: bbe2 02be 7b74 90be a680 713e d440 4b3e
00000030: fdf9 c2bd fc20 513e d9d5 3e3e 79ad 633e
00000040: 6a38 6ebe 32a2 e1bc a666 9c3d 10a4 c73d
00000050: 076b 55be f542 22be 270a e73d 5570 223e
00000060: 16ef 2fbe c798 63bd 4f1f 9b3e 55f4 803e
00000070: b5f9 cbbe eb76 883e d072 a03e c21b 343e
00000080: 3c97 10be 260f 49be a36d 94bc cbc6 c13d
00000090: 4d4c f53e 7769 aabe b0ea 9c3e 5690 413d

lstm.weight_ih_l1 f4 [40, 10]
0.2601252 -0.038007267 0.49989152 0.24867438 0.11243149 0.06996069 0.063586034 -0.0981556
0.029989013 -0.20435473 -0.02688909 -0.48883754 0.73607993 0.10252258 -0.022202773 0.048007187
-0.2295918 -0.038220685 0.286793 0.12159367 0.31583565 -0.16313513 0.6429113 0.0077708918
-0.10027112 0.031136101 0.20792548 -0.08374504 0.26724476 0.1822037 -0.35116872 0.25990453
0.29616407 0.2610881 0.19105928 -0.14941947 -0.18984227 0.12157067 -0.10347234 -0.29390875
-0.41169932 -0.31423634 1.0361711 0.26654246 -0.06097024 -0.15967596 0.05877344 -0.37704152
-0.30898783 0.0271767 0.09924431 -0.26841876 0.2559622 -0.23115839 0.38262945 -0.013382281
-0.39401633 -0.018140536 0.112898186 0.2111209 -0.48861358 0.0043147695 0.23164341 -0.32026044
0.061322063 0.22459741 0.13601238 -0.0032197763 0.18271758 0.32285193 -0.48587295 -0.16657814
0.38236338 -0.2042643 -0.08836473 -0.12272199 -0.2679972 -0.02187028 0.19421355 -0.24199682
0.2945216 -0.30931875 0.10323318 -0.08817334 0.4623599 0.41058397 -0.26477584 -0.35930502
0.15077254 0.293777 -0.3379404 0.020707367 0.5114753 0.0045346143 0.36441088 0.4008772
0.101030365 -0.016084304 -0.08044984 0.22504687 0.18892705 -0.39333844 0.4546671 -0.31344134
0.17025405 -0.22156645 0.32834736 -0.34110337 -0.18695724 0.20792691 -0.24824454 -0.4637902
1.0194137 0.16763878 -0.072361514 0.2564103 -0.02521391 -0.38485044 0.13162637 -0.17105594
-0.12268011 0.031935647 1.0062226 -0.03176836 0.13651797 -0.15549846 -0.010749277 0.38077673
0.41156825 0.16574398 -0.1685437 -0.37639502 0.042930644 -0.11976311 0.24780823 0.4888187
-0.34485757 0.1287609 -0.29837286 0.21297619 -0.17348185 0.031959467 1.0599823 -0.11863076
0.2687262 -0.0023402805 -0.30130878 -0.54487157 -0.07742693 -0.25401202 0.13593046 0.16489923
0.030127687 0.15693624 0.44658086 0.19427764 -0.053791404 -0.14381994 -0.062377654 0.29920992
-0.11959961 -0.5196054 0.22521901 -0.05422123 -0.010017126 0.46728268 0.072543 -0.3254031
-0.074695826 0.09887547 -0.19237791 -0.37276456 0.57259476 -0.16507152 0.39537495 -0.059426654
0.080974944 -0.40029874 0.18588987 -0.09668514 0.13423897 -0.020188421 0.41338348 0.1008536
0.39992014 0.36536756 -0.22722442 0.12745816 0.1010545 0.059356846 -0.10886612 -0.04411644
0.40126637 0.23513861 0.055776093 -0.11268923 -0.23273884 -0.0665515 -0.32814682 0.23709008
-0.2615768 0.06355761 0.24552228 -0.122889906 0.2020196 -0.032083053 0.41798544 0.203977
-0.22224048 0.05671239 -0.2224119 -0.30425963 0.40698317 -0.010589664 -0.22530714 0.37021142
-0.01629948 -0.44928345 0.12979022 0.05415371 0.2165031 -0.048577607 0.087044485 0.03929299
0.24432059 0.44700444 0.16395648 0.26759404 0.21192607 -0.11550461 0.13808519 0.10871167
-0.047828104 -0.22434647 0.07933664 0.24114515 -0.16480258 0.11814352 -0.23751457 -0.07349378
-0.37789705 -0.2669674 0.1995306 0.23576102 0.05611681 -0.02162221 -0.4125484 -0.17259857
0.08944396 -0.11088397 -0.1610264 -0.4861345 0.07615606 -0.04624078 -0.31188267 0.036048215
00000000: 212f 853e 82ad 1bbd c8f1 ff3e 7fa4 7e3e
00000010: 7b42 e63d 8d47 8f3d 6539 823d ce05 c9bd
00000020: 85ab f53c 5e42 51be 8246 dcbc ea48 fabe
00000030: bc6f 3c3f 5cf7 d13d 97e2 b5bc 2fa3 443d
00000040: 1d1a 6bbe 4b8d 1cbd 88d6 923e 1a06 f93d
00000050: 36b5 a13e e50c 27be d695 243f f7a2 fe3b
00000060: f25a cdbd 2311 ff3c 6bea 543e 8582 abbd
00000070: 4ed4 883e 9b93 3a3e 63cc b3be 3512 853e
00000080: d1a2 973e 57ad 853e 0ba5 433e 6b01 19be
00000090: 0366 42be 0bfa f83d 4ee9 d3bd 357b 96be
000000a0: 41ca d2be 96e3 a0be 41a1 843f 4178 883e
000000b0: eebb 79bd 1882 23be 6bbc 703d 960b c1be
000000c0: a733 9ebe aca1 de3c 9a40 cb3d 2f6e 89be
000000d0: 7a0d 833e c9b4 6cbe 02e8 c33e 5b41 5bbc
000000e0: 82bc c9be 769b 94bc 2a37 e73d 1430 583e
000000f0: 8f2b fabe e962 8d3b ee33 6d3e 2df9 a3be
00000100: d82c 7b3d ddfc 653e d446 0b3e e202 53bb
00000110: 511a 3b3e d94c a53e 57c4 f8be 7693 2abe
00000120: 22c5 c33e a92a 51be 91f8 b4bd ab55 fbbd
00000130: ee36 89be 4d29 b3bc ebdf 463e 04ce 77be
00000140: 89cb 963e 075f 9ebe eb6b d33d 3994 b4bd
00000150: 70ba ec3e 1038 d23e b390 87be d4f6 b7be
00000160: 1e64 1a3e f069 963e 8606 adbe 7fa2 a93c
00000170: 0cf0 023f 1a97 943b 1094 ba3e c73f cd3e
00000180: 02e9 ce3d 3bc3 83bc e3c2 a4bd b072 663e
00000190: 1876 413e a863 c9be 20ca e83e 627b a0be
000001a0: 1457 2e3e 51e2 62be 251d a83e 1aa5 aebe
000001b0: b871 3fbe cbea 543e d133 7ebe e975 edbe
000001c0: 267c 823f 80a9 2b3e 4632 94bd 3648 833e
000001d0: 678d cebc 1e0b c5be 10c9 063e 4a29 2fbe
000001e0: b63f fbbd f4ce 023d e7cb 803f 8a1f 02bd
000001f0: 5ecb 0b3e fd3a 1fbe bc1d 30bc 2bf5 c23e
00000200: 13b9 d23e cab8 293e b896 2cbe d9b6 c0be
00000210: 0bd8 2f3d 5d46 f5bd 71c1 7d3e 7246 fa3e
00000220: 2c91 b0be e6d9 033e 54c4 98be 6e16 5a3e
00000230: 3aa5 31be eee7 023d 80ad 873f aff4 f2bd
00000240: 7b96 893e 645f 19bb 2545 9abe b47c 0bbf
00000250: 0392 9ebd dd0d 82be 5b31 0b3e 58db 283e
00000260: 57ce f63c e5b3 203e 3fa6 e43e b8f0 463e
00000270: 6054 5cbd 8945 13be b67f 7fbd 0b32 993e
00000280: a4f0 f4bd dc04 05bf d09f 663e 1517 5ebd
00000290: df1e 24bc ad3f ef3e 6d91 943d 3c9b a6be
000002a0: 20fa 98bd 397f ca3d b7fe 44be ffda bebe
000002b0: 9295 123f 8208 29be 966e ca3e 5d69 73bd
000002c0: 31d6 a53d f5f3 ccbe ea59 3e3e dc02 c6bd
000002d0: f175 093e 3062 a5bc 00a7 d33e 558c ce3d
000002e0: 55c2 cc3e 7511 bb3e 85ad 68be 6484 023e
000002f0: a9f5 ce3d 2a20 733d 33f5 debd 71b3 34bd
00000300: c972 cd3e 2dc8 703e 7975 643d 9cc9 e6bd
00000310: 1753 6ebe 274c 88bd dc02 a8be bec7 723e
00000320: 65ed 85be 7e2a 823d 316a 7b3e b4ad fbbd
00000330: 3ade 4e3e 8569 03bd 3002 d63e 59df 503e
00000340: 0293 63be 404b 683d f2bf 63be ebc7 9bbe
00000350: 1960 d03e 4580 2dbc eab6 66be 5a8c bd3e
00000360: 7d86 85bc 7b08 e6be bae7 043e 48d0 5d3d
00000370: fdb2 5d3e 50f9 46bd 6144 b23d b0f1 203d
00000380: 2d2f 7a3e c4dd e43e 35e4 273e 1602 893e
00000390: 2603 593e ae8d ecbd 3466 0d3e 39a4 de3d
000003a0: 67e7 43bd 15bb 65be 407b a23d c1ee 763e
000003b0: 02c2 28be 3bf5 f13d 0537 73be e883 96bd
000003c0: b97b c1be f3af 88be c051 4c3e 566b 713e
000003d0: bdda 653d 1021 b1bc 8b39 d3be aebd 30be
000003e0: 652e b73d 2317 e3bd 1be4 24be 9fe6 f8be
000003f0: b5f7 9b3d f966 3dbd 16af 9fbe 4ba7 133d

lstm.weight_hh_l1 f4 [40, 10]
-0.26193118 -0.471523 0.27823976 0.1783508 -0.06037466 -0.2299454 0.09620249 -0.24317352
0.20138296 0.17131405 -0.040857248 0.57429475 -0.11466645 -0.061043173 -0.05411315 0.26691544
-0.27908447 0.24610671 0.43849888 0.3700024 -0.26338017 0.0005866389 0.5452265 0.10908305
-0.23838906 -0.68338025 -0.17211409 0.124733746 0.1821257 0.2893446 0.026340881 0.19654115
-0.34689873 0.16712783 -0.2584087 0.13919996 -0.4631334 -0.34602872 -0.004613621 -0.06711648
0.25540662 0.18805848 0.23969758 0.29252684 0.1670262 0.296354 0.1357654 0.2891955
-0.02741891 0.16529506 0.109974414 -0.13510028 0.5950036 -0.096869215 0.3242579 -0.07986495
0.2462896 0.059512515 0.36562905 0.0570645 -0.07975864 -0.3897164 0.17908788 0.21672861
-0.4264246 -0.18426509 0.04642652 -0.5237505 -0.20802805 0.051011074 -0.09679338 -0.13929673
-0.11572372 0.33717945 -0.19613044 -0.27294442 0.014101955 -0.14512107 0.091858 0.20955193
0.09785735 -0.37893295 0.115271844 0.40613723 -0.096294545 -0.07645604 -0.08507766 0.13001275
-0.14575525 0.11586918 -0.1337635 0.17104037 -0.14075993 -0.07038007 -0.1373124 -0.28396258
-0.09691449 -0.4164232 -0.41453063 0.053452536 0.18317844 -0.26498085 0.023719275 0.4158882
-0.19503571 0.2596662 -0.009310407 -0.102815226 0.44181612 -0.22457345 -0.30622724 0.19599271
0.007780553 -0.103961006 0.26655698 0.27700618 0.27449858 -0.2093979 0.31295267 0.22639297
0.21760096 -0.123293854 0.51609546 0.11932189 -0.1327016 -0.0969612 -0.22556478 0.33224574
0.4086154 -0.017643964 -0.07967776 0.13704872 0.004223593 0.15567163 0.09943293 -0.15054339
-0.51141435 0.11430326 0.07823738 -0.09608133 0.19423166 0.076284334 0.21418379 0.17804411
0.18428764 0.036782254 -0.22176977 -0.18990304 0.23078887 0.091172814 0.1556535 -0.083597116
0.32404846 0.3834093 0.11222517 0.25365153 -0.32952076 -0.13402627 -0.15710548 -0.077832915
0.2707104 -0.12707411 0.13038425 0.0684344 -0.017101677 -0.061735168 -0.13522546 -0.33868578
0.2721314 0.19746168 0.050072994 -0.37115213 -0.38878816 0.17901711 -0.26268137 -0.1563831
-0.3581099 -0.31385332 -0.0033710105 -0.28798762 -0.1130246 -0.32657114 0.12605736 0.048707187
0.13782865 -0.3300296 -0.15279049 -0.03694952 0.116506495 -0.21944724 0.07528429 0.117918015
0.18325324 0.4412208 0.0233451 0.07551384 -0.29345497 -0.3846886 -0.29538438 0.0008089371
0.027878178 0.102909684 0.12362056 0.067587115 -0.19234593 -0.16672951 -0.20922107 0.18310541
0.2206807 -0.21882835 -0.28784984 -0.18641376 0.13364829 0.14469498 -0.1312491 0.08307454
0.23638788 -0.03814421 -0.08760527 0.18092552 -0.07498812 -0.56052613 0.13156319 0.3810803
-0.41659737 -0.14821592 0.06510025 -0.16537644 -0.3381575 0.021299493 0.06470637 -0.1200028
0.0015941162 -0.2940156 0.29464054 0.11982381 0.40273216 0.23909372 -0.008626891 -0.12812139
0.21956095 -0.30635872 -0.23774973 0.21896034 -0.041783 0.26804534 -0.24061327 -0.15236028
-0.21789885 -0.02887701 -0.18870577 -0.39005733 0.20071243 0.2999358 -0.49485254 0.06494552
00000000: d81b 86be 766b f1be 7175 8e3e 98a1 363e
00000010: 6b4b 77bd cf76 6bbe d005 c53d 7b02 79be
00000020: 5637 4e3e f36c 2f3e ee59 27bd fb04 133f
00000030: 3ed6 eabd 6808 7abd c0a5 5dbd 24a9 883e
00000040: 29e4 8ebe 6603 7c3e ed82 e03e f470 bd3e
00000050: c4d9 86be acc8 193a f793 0b3f ef66 df3d
00000060: 431c 74be 02f2 2ebf ad3e 30be 6874 ff3d
00000070: 297f 3a3e fa24 943e d5c8 d73c 1542 493e
00000080: b69c b1be 8f23 2b3e 254e 84be 6f8a 0e3e
00000090: d21f edbe ad2a b1be dc2d 97bb 5d74 89bd
000000a0: a8c4 823e 6792 403e 4873 753e 14c6 953e
000000b0: eb08 2b3e b6bb 973e 1606 0b3e 6f11 943e
000000c0: 9f9d e0bc 1c43 293e 443a e13d ba57 0abe
000000d0: 2852 183f 5e63 c6bd 2205 a63e 3c90 a3bd
000000e0: 5733 7c3e 65c3 733d bb33 bb3e 77bc 693d
000000f0: 7f58 a3bd e888 c7be d062 373e 1bee 5d3e
00000100: 5354 dabe fdaf 3cbe bc29 3e3d 8314 06bf
00000110: 4e05 55be fdf0 503d 9c3b c6bd cda3 0ebe
00000120: 8f00 edbd c9a2 ac3e 6bd6 48be 5fbf 8bbe
00000130: e30b 673c 9e9a 14be 0c20 bc3d c894 563e
00000140: 6f69 c83d 8003 c2be a513 ec3d 38f1 cf3e
00000150: 1336 c5bd fc94 9cbd 323d aebd 1022 053e
00000160: dd40 15be d24c ed3d 4df9 08be 3525 2f3e
00000170: 5f23 10be 6d23 90bd 9f9b 0cbe 8b63 91be
00000180: 1b7b c6bd 6c35 d5be 5c3d d4be 0cf1 5a3d
00000190: 2193 3b3e 92ab 87be ed4e c23c 4cef d43e
000001a0: 71b7 47be f8f2 843e ad8a 18bc ca90 d2bd
000001b0: b935 e23e 95f6 65be d1c9 9cbe 50b2 483e
000001c0: 02f4 fe3b 82e9 d4bd 287a 883e c1d3 8d3e
000001d0: 148b 8c3e 676c 56be 553b a03e 8fd3 673e
000001e0: c9d2 5e3e 7d81 fcbd d51e 043f 095f f43d
000001f0: eee2 07be 9893 c6bd 74fa 66be 1d1c aa3e
00000200: 0a36 d13e 138a 90bc 182e a3bd 8056 0c3e
00000210: 1166 8a3b 6268 1f3e 7ea3 cb3d 0c28 1abe
00000220: 0dec 02bf d417 ea3d eb3a a03d 4ac6 c4bd
00000230: aae4 463e f63a 9c3d ff52 5b3e 3251 363e
00000240: e6b5 3c3e fda8 163d 9d17 63be f175 42be
00000250: eb53 6c3e d0b8 ba3d a263 1f3e f734 abbd
00000260: aee9 a53e 394e c43e 4fd6 e53d 9dde 813e
00000270: f2b6 a8be 2f3e 09be 42e0 20be dd66 9fbd
00000280: 8e9a 8a3e b71f 02be 7383 053e 5627 8c3d
00000290: d118 8cbc 04de 7cbd 8b78 0abe 3968 adbe
000002a0: cf54 8b3e 6533 4a3e 5719 4d3d a707 bebe
000002b0: 3e0f c7be 4350 373e 2c7e 86be e422 20be
000002c0: 2e5a b7be 62b1 a0be 2cec 5cbb 1d73 93be
000002d0: 7179 e7bd 5534 a7be 2e15 013e 3081 473d
000002e0: f422 0d3e a4f9 a8be 1c75 1cbe 6158 17bd
000002f0: f59a ee3d c7b6 60be a62e 9a3d 007f f13d
00000300: bda6 3b3e b1e7 e13e 393e bf3c 00a7 9a3d
00000310: bb3f 96be e7f5 c4be 9f3c 97be da0e 543a
00000320: c760 e43c 50c2 d23d c72c fd3d 1d6b 8a3d
00000330: 55f6 44be 24bb 2abe 0c3e 56be fc7f 3b3e
00000340: 1ffa 613e 8a14 60be 0e61 93be 40e3 3ebe
00000350: 19db 083e ec2a 143e 2a66 06be fc22 aa3d
00000360: aa0f 723e 1a3d 1cbd 646a b3bd 8a44 393e
00000370: 5f93 99bd a47e 0fbf 80b8 063e f51c c33e
00000380: 404c d5be eac5 17be 4853 853d 7158 29be
00000390: fb22 adbe 467c ae3c c684 843d 07c4 f5bd
000003a0: aaf1 d03a 3689 96be 20db 963e 3066 f53d
000003b0: e932 ce3e fcd4 743e ce57 0dbc 4132 03be
000003c0: 96d4 603e 0ddb 9cbe aa74 73be 2437 603e
000003d0: a724 2bbd 3d3d 893e 5363 76be 5504 1cbe
000003e0: e020 5fbe 7b8f ecbc 163c 41be 98b5 c7be
000003f0: 8f87 4d3e 2f91 993e 505d fdbe 2802 853d

lstm.bias_ih_l1 f4 [40]
-0.5781553 0.029942531 0.11525209 -0.23452465 -0.047698468 0.2362714 -0.47349414 0.14016162
-0.46847472 -0.33543727 0.0029103023 -0.34882545 0.17329931 -0.37020147 -0.39303046 -0.4717847
-0.42965785 -0.14017525 -0.41271752 -0.46483576 0.087854356 0.2921067 -0.002530202 -0.061119046
0.17238319 -0.055782177 0.005720651 -0.0801521 -0.21998924 0.2634398 -0.27200994 -0.24877296
-0.23652568 -0.4397084 -0.30978543 0.07325409 -0.10133587 0.15995476 -0.14345552 -0.2139675
00000000: fc01 14bf 0a4a f53c 4a09 ec3d 3b27 70be
00000010: 785f 43bd 21f1 713e d36d f2be 8786 0f3e
00000020: ebdb efbe 6fbe abbe c5ba 3e3b 4099 b2be
00000030: 6075 313e 0c8b bdbe 4a3b c9be c48d f1be
00000040: 1dfc dbbe 1a8a 0fbe b64f d3be f4fe edbe
00000050: fcec b33d 028f 953e bfd1 25bb f757 7abd
00000060: 3885 303e da7b 64bd 4c74 bb3b c926 a4bd
00000070: dc44 61be 95e1 863e e344 8bbe 57be 7ebe
00000080: ca33 72be 7621 e1be 329c 9ebe 3e06 963d
00000090: 2e89 cfbd 2ecb 233e 01e6 12be 4c1a 5bbe

lstm.bias_hh_l1 f4 [40]
-0.40198502 -0.42477605 -0.42346486 -0.14302649 0.051182233 0.092957005 -0.21474664 -0.26949972
-0.34809336 0.24162222 -0.32656127 -0.27100438 -0.211249 -0.41477275 -0.3770566 -0.11547045
0.12150964 -0.2764845 -0.5085649 -0.05487662 0.12871872 -0.24294634 0.080177225 -0.22236095
0.11171013 0.123342276 0.038996007 0.31221634 0.16560102 -0.11104752 -0.03857451 -0.08876038
-0.21886522 -0.13089976 -0.07348719 0.039905548 -0.1574349 0.22136196 -0.34569523 -0.014329295
00000000: fbd0 cdbe 3f7c d9be 63d0 d8be 8975 12be
00000010: 76a4 513d 3e60 be3d 8be6 5bbe defb 89be
00000020: 4b39 b2be d16b 773e 0a33 a7be 16c1 8abe
00000030: a851 58be 185d d4be 900d c1be c57b ecbd
00000040: 0cda f83d 608f 8dbe 4f31 02bf 4fc6 60bd
00000050: d7ce 033e edc6 78be f533 a43d 97b2 63be
00000060: 48c8 e43d e09a fc3d 47ba 1f3d d2da 9f3e
00000070: 5093 293e e26c e3bd 4e00 1ebd 01c8 b5bd
00000080: 341e 60be 960a 06be 7480 96bd 0074 233d
00000090: 9d36 21be b6ac 623e f7fe b0be 6bc5 6abc

fc.weight f4 [1, 450]
-0.006193732 -0.005379499 0.026137235 -0.03781294 0.013280774 -0.052323423 0.10541785 0.06359409
-0.064806804 -0.14153013 0.0048718774 -0.040758505 -0.03952776 -0.09187274 0.002422528 -0.0056538624
0.042462755 0.005635486 -0.07742578 -0.14311823 -0.0017050741 -0.05505651 -0.043867897 -0.033703636
-0.03711732 -0.09044644 0.069599785 -0.0037783282 -0.03441456 -0.116960905 0.038482126 -0.001344184
0.01329367 -0.04548047 -0.029857721 0.017210439 0.021849714 0.0062226993 -0.073003404 -0.07079103
-0.025801344 -0.022266153 -0.05287291 -0.02137479 0.032018 -0.04245316 0.009672642 0.0471706
-0.08794308 0.052061416 0.01961823 -0.045600485 0.0074621122 0.004989904 -0.041399263 0.01174284
0.018330548 0.0020194657 -0.007029645 0.110469 0.08595624 -0.10157081 -0.09464981 -0.0034655624
-0.10317798 -0.037884444 0.03125501 0.034057733 -0.04218072 0.09127649 0.01013324 -0.036113504
-0.09459732 -0.060606662 -0.0049403193 -0.05879382 0.08837636 0.06189334 -0.053662058 0.026296623
0.059504304 -0.038358137 -0.03939288 -0.07011575 0.014204152 -0.045471735 0.083104305 0.08282009
-0.013124969 0.078326784 0.06820518 0.016179435 -0.14821692 -0.048230313 0.030463628 -0.007120613
0.013343296 0.003184857 -0.09071691 0.054433387 0.048451107 0.037742298 -0.16540197 -0.05078954
0.012198899 -0.03377543 0.030120905 0.040960394 -0.03370216 0.11033612 0.091409914 -0.00094914506
-0.08339438 -0.044909816 -0.019379051 0.024585318 0.02601458 0.019472368 -0.046870533 0.14195871
0.08854039 -0.0658921 -0.029495152 -0.002655472 -0.06345842 -0.057588995 0.04447264 0.06502812
-0.039065737 0.10215539 0.016801719 0.042883225 -0.0047679283 -0.0035372234 -0.006735073 -0.0012138203
0.038526576 0.018105159 0.08467919 0.028338248 0.023598075 0.0068641203 0.018839722 -0.052662063
-0.0020513004 0.04144686 0.051631406 -0.002901914 0.043141812 0.013243854 -0.025436863 0.030095587
-0.08776112 -0.047970682 0.033404574 0.045821626 0.0010679986 0.022269836 -0.044447817 0.05803536
0.004169489 0.07514457 0.004774841 -0.012222776 0.0034192586 0.03689572 0.035992347 0.054385547
-0.07729726 -0.05735974 0.016744176 0.022354713 0.00381082 -0.047289345 0.077392645 0.012728149
0.059347652 0.042324454 -0.064901225 -0.08691695 -0.011972561 0.044958945 -0.0009648202 -0.01891458
-0.009645041 -0.04131914 -0.0067591495 0.057226423 -0.13027285 -0.038460378 0.026543848 0.054765284
-0.003391638 -0.042029466 0.06845773 -0.083255604 0.03022079 0.0578235 -0.09515746 -0.12807977
0.0318943 0.045583293 0.02504474 -0.07777146 0.02029624 -0.047504835 0.017689735 0.01288846
-0.026808335 -0.1297127 0.011704599 -0.00019679754 -0.0370067 -0.019122783 -0.026685188 -0.1345348
0.02046477 0.041066248 -0.1222996 -0.11344176 -0.0058492725 -0.0022639579 0.029752566 -0.014774766
-0.036583863 -0.1223672 -0.008675988 0.043028224 -0.1507277 -0.07036909 0.034959845 0.010691829
0.019012678 -0.06505651 -0.042458456 -0.055558745 0.043678742 0.0036980726 -0.097906135 0.0019377643
0.026629921 -0.025089178 0.056584112 -0.023913626 0.018004254 -0.0085360715 0.07833101 0.05515368
-0.02147798 0.026440173 0.07340659 -0.10312863 0.08569598 -0.08006635 -0.065979816 -0.08736874
00000000: caf4 cabb 8246 b0bb c11d d63c bee1 1abd
00000010: 9a97 593c 1651 56bd 50e5 d73d 9e3d 823d
00000020: 6eb9 84bd 46ed 10be 45a4 9f3b 64f2 26bd
00000030: dce7 21bd c627 bcbd 47c3 1e3b 0944 b9bb
00000040: 6ded 2d3d e2a9 b83b 6891 9ebd 968d 12be
00000050: cb7c dfba ef82 61bd d3ae 33bd d30c 0abd
00000060: 5508 18bd fc3b b9bd 558a 8e3d d49d 77bb
00000070: 48f6 0cbd 3389 efbd 6f9f 1d3d 552f b0ba
00000080: b1cd 593c bb49 3abd 2e98 f4bc e8fc 8c3c
00000090: 2cfe b23c c9e7 cb3b cf82 95bd e3fa 90bd
000000a0: 575d d3bc 8267 b6bc 4491 58bd 2f1a afbc
000000b0: 4e25 033d 5de3 2dbd 007a 1e3c f635 413d
000000c0: 801b b4bd 5a3e 553d 69b6 a03c 93c7 3abd
000000d0: bc84 f43b 5982 a33b 4692 29bd 0a65 403c
000000e0: f229 963c 0359 043b f058 e6bb 923d e23d
000000f0: d309 b03d 5b04 d0bd c2d7 c1bd 7d1e 63bb
00000100: fa4e d3bd b82c 1bbd 4105 003d 1f80 0b3d
00000110: b1c5 2cbd 2bef ba3d e405 263c c1eb 13bd
00000120: 3dbc c1bd b13e 78bd 67e2 a1bb cad1 70bd
00000130: aafe b43d df83 7d3d bfcc 5bbd 046c d73c
00000140: c9ba 733d 6c1d 1dbd 6e5a 21bd d998 8fbd
00000150: 88b8 683c 9240 3abd 9732 aa3d 949d a93d
00000160: 1c0a 57bc cb69 a03d 28af 8b3d bc8a 843c
00000170: 2dc6 17be 268d 45bd dc8e f93c 0854 e9bb
00000180: d79d 5a3c 09b9 503b cac9 b9bd 8bf5 5e3d
00000190: ab74 463d ab97 1a3d 225f 29be b108 50bd
000001a0: e4dd 473c 1b58 0abd 1ec0 f63c 16c6 273d
000001b0: 470b 0abd e7f7 e13d 1f35 bb3d 0cd0 78ba
000001c0: acca aabd 5bf3 37bd d1c0 9ebc 2667 c93c
000001d0: 871c d53c 8484 9f3c 51fb 3fbd a05d 113e
000001e0: aa54 b53d 70f2 86bd d19f f1bc 6d07 2ebb
000001f0: 7df6 81bd 70e2 6bbd f128 363d 772d 853d
00000200: 6503 20bd d836 d13d c2a3 893c 52a6 2f3d
00000210: 483c 9cbb c3d0 67bb e3b1 dcbb 0d19 9fba
00000220: 0bce 1d3d 4551 943c 486c ad3d 9d25 e83c
00000230: c050 c13c 6aec e03b c355 9a3c 2db4 57bd
00000240: 1c6f 06bb 2fc4 293d 747b 533d 0a2e 3ebb
00000250: 78b5 303d c0fc 583c f860 d0bc 058b f63c
00000260: 1abc b3bd e87c 44bd 3cd3 083d 75af 3b3d
00000270: 16fc 8b3a 3b6f b63c ea0e 36bd 7cb6 6d3d
00000280: 35a0 883b 65e5 993d 4576 9c3b 0a42 48bc
00000290: a415 603b f71f 173d b66c 133d 61c3 5e3d
000002a0: 074e 9ebd 0cf2 6abd 152b 893c 3b21 b73c
000002b0: f3be 793b 79b2 41bd 0980 9e3d ba89 503c
000002c0: 8616 733d 685c 2d3d efea 84bd 8401 b2bd
000002d0: 8f28 44bc df26 383d fdeb 7cba c0f2 9abc
000002e0: 3c06 1ebc 423e 29bd db7b ddbb 4166 6a3d
000002f0: 3f66 05be a188 1dbd 7c72 d93c 9051 603d
00000300: 3e46 5ebb 1727 2cbd 9133 8c3d ea81 aabd
00000310: 9791 f73c 56d8 6c3d eae1 c2bd 5827 03be
00000320: 99a3 023d 8cb5 3a3d a02a cd3c a546 9fbd
00000330: 4d44 a63c 6e94 42bd 10ea 903c 1f2a 533c
00000340: 279d dbbc 68d3 04be a5c4 3f3c 705b 4eb9
00000350: 5694 17bd 62a7 9cbc e59a dabc 7ec3 09be
00000360: bca5 a73c 1535 283d 3678 fabd 2754 e8bd
00000370: 41ab bfbb e95e 14bb a7bb f33c dc11 72bc
00000380: f6d8 15bd a89b fabd bb25 0ebc 5d3e 303d
00000390: 5d58 1abe ab1d 90bd 0e32 0f3d c82c 2f3c
000003a0: 7ac0 9b3c 593c 85bd ebe8 2dbd 9191 63bd
000003b0: 7be8 323d 5d5b 723b 0383 c8bd 95fc fd3a
000003c0: fe26 da3c d287 cdbc bec4 673d 82e6 c3bc
000003d0: a87d 933c e1da 0bbc 026c a03d d3e8 613d
000003e0: 97f2 afbc 1099 d83c 3256 963d 1a35 d3bd
000003f0: 6081 af3d d4f9 a3bd 6d20 87bd 62ee b2bd

exp_avg f4 [40, 30]
-0.005585964 -0.001123538 -0.00013667767 3.3498027e-06 -8.577821e-05 -4.754965e-05 8.034931e-06 -3.7329988e-05
-2.1089625e-05 -8.2943225e-05 -6.8146073e-06 -6.7162014e-06 -6.596612e-05 -5.3830918e-05 2.961775e-05 -3.3752818e-05
-1.4472298e-05 -0.00011472051 2.718574e-05 1.8286139e-05 -2.4984662e-05 -5.151869e-05 -8.709512e-06 -8.3868654e-05
1.2955581e-06 -5.651729e-07 -3.7225125e-06 -9.779514e-06 -3.2913897e-06 6.344832e-06 -0.007811096 -0.0013632372
-0.00016210205 -6.4727164e-06 -8.761232e-05 -8.0962454e-05 4.438833e-05 5.2607493e-06 -9.9690835e-05 -0.00011853304
5.2853567e-05 2.9158185e-05 -0.000107794505 -0.00014279196 1.5545038e-05 3.2782722e-05 1.4361616e-05 -0.00023126416
-5.5076944e-05 -5.437821e-06 0.00012546303 1.7088796e-05 4.2904958e-05 -0.00028668367 6.3439957e-06 -7.0754168e-06
7.770594e-06 3.5803336e-05 1.0595961e-05 -6.0271555e-05 0.037338223 0.0072518913 0.0004359522 1.773561e-05
0.0002447355 0.00020895244 0.00081728015 -0.00013509464 -0.00020048913 -2.8008526e-05 0.00071124535 -0.000119227305
-9.5094125e-05 -4.3235934e-05 0.00035389676 0.00040892608 -0.00011029742 -0.00019883759 0.00011082483 0.00051232585
0.00048329058 -0.00013052783 -0.00025584776 -4.40339e-05 -2.2880006e-06 -7.9735696e-07 4.450305e-06 -3.8924485e-05
-0.0001404861 -4.4298286e-05 -9.4376594e-14 -2.3259594e-14 -2.5396184e-15 0.0 -2.198732e-15 -3.4088613e-16
-3.1055142e-18 -8.160633e-16 -1.8679003e-15 1.4745139e-16 -1.7268453e-19 -2.1904577e-15 -4.3207167e-16 8.308399e-17
4.600457e-21 -1.7141192e-18 -6.1188585e-16 -1.926023e-15 2.1673563e-20 5.641545e-20 1.79816e-18 -4.772267e-16
-1.8477996e-15 -4.2444016e-16 -4.301971e-17 1.9280523e-16 6.547164e-17 -6.7103853e-18 -5.764592e-19 2.2241287e-21
0.0060619 0.0012193362 0.00012299903 4.8226416e-06 7.289141e-05 5.493026e-05 2.9915887e-05 -4.518328e-06
4.239074e-05 6.003337e-05 9.499908e-06 -3.1279362e-06 9.6311494e-05 2.5138224e-05 -1.4181186e-06 1.27605335e-05
1.1676706e-05 0.000104802566 3.406342e-05 3.4368535e-05 -2.1555064e-05 -5.494547e-06 -7.732218e-06 0.0001137312
-1.3368368e-06 1.8947657e-06 -6.76533e-07 -1.0164618e-05 -8.681137e-06 -5.952597e-07 -9.093791e-09 -1.9789472e-09
-2.2618941e-10 -1.3315023e-15 -1.0058225e-10 -1.2560845e-10 2.1191655e-12 1.6609734e-12 -1.8567577e-10 -4.4295092e-11
8.1946266e-13 -4.98835e-12 -1.3639005e-10 -8.563181e-11 3.2330833e-13 7.029085e-13 -4.312215e-12 -2.2290475e-10
-1.4391236e-13 3.23143e-13 6.864095e-13 -2.7907691e-12 -1.372305e-12 -2.3630675e-10 1.5181296e-12 -9.757579e-12
1.3180656e-11 8.5691385e-12 -2.983593e-14 -6.7056115e-14 -9.744453e-05 -2.1748945e-05 -2.4677597e-06 2.9007772e-11
-8.3172256e-07 -1.6360078e-06 2.550677e-09 -3.5271942e-08 -1.879742e-06 -5.5526726e-07 5.449329e-10 -1.9507512e-07
-1.7948964e-06 -4.783037e-07 2.7232083e-10 -9.247523e-10 -4.4421157e-08 -2.4226572e-06 3.3113023e-10 -2.6461786e-10
8.1703794e-10 -1.7429452e-08 -2.3086666e-07 -2.1036092e-06 4.5184937e-08 -1.9279534e-07 6.7952985e-09 2.3707026e-08
3.5147868e-10 4.7964556e-11 -0.0016741124 -0.00022651431 -2.6307838e-05 -1.795959e-05 -2.019761e-05 -2.4070025e-05
8.5501466e-05 -2.2792916e-05 2.5560601e-05 -0.00013253668 4.9970182e-05 7.879184e-05 -6.927564e-05 -0.00010375385
5.9236416e-05 1.8364006e-05 3.11541e-05 -0.00015302219 -0.00015982766 -8.161569e-05 0.00027843833 2.2253469e-05
8.355493e-05 -0.00020606864 3.0877372e-06 -3.2208936e-06 1.9117588e-06 3.9980365e-05 5.83295e-05 -8.1090904e-05
-0.020677093 -0.004372009 -0.0003688242 -3.0799602e-06 -0.00021668551 -0.0001552186 -0.00021309798 -4.7840338e-05
-8.068091e-05 -3.0284922e-05 -0.00022647441 -6.644275e-05 -6.2922365e-05 -1.6064641e-05 -0.00012683186 -8.1393875e-05
00000000: 760a b7bb ae43 93ba 2251 0fb9 2ccd 6036
00000010: d3e3 b3b8 0c70 47b8 c4cd 0637 c592 1cb8
00000020: a0e9 b0b7 cef1 adb8 08a9 e4b6 bb5b e1b6
00000030: 4a57 8ab8 82c8 61b8 a273 f837 d091 0db8
00000040: 0cce 72b7 1b96 f0b8 ef0c e437 2f65 9937
00000050: 2796 d1b7 c615 58b8 121f 12b7 a4e2 afb8
00000060: 0ae3 ad35 63b6 17b5 47d0 79b6 b112 24b7
00000070: a5e1 5cb6 b1e5 d436 39f4 ffbb a6ae b2ba
00000080: f0f9 29b9 3630 d9b6 82bc b7b8 63ca a9b8
00000090: 9b2d 3a38 7e85 b036 1c11 d1b8 f194 f8b8
000000a0: 16af 5d38 ba98 f437 bc0f e2b8 6dba 15b9
000000b0: b766 8237 2e80 0938 acf2 7037 807f 72b9
000000c0: 6b02 67b8 8776 b6b6 ba8e 0339 e959 8f37
000000d0: d9f4 3338 084e 96b9 82de d436 5e69 edb6
000000e0: 725e 0237 8a2b 1638 4ec5 3137 17cc 7cb8
000000f0: f7ef 183d 46a1 ed3b 8490 e439 efc6 9437
00000100: d84f 8039 3e1a 5b39 be3e 563a 31a8 0db9
00000110: 643a 52b9 daf3 eab7 de72 3a3a ac09 fab8
00000120: 456d c7b8 3b58 35b8 388b b939 2165 d639
00000130: 7a4f e7b8 0f7f 50b9 a16a e838 9b4d 063a
00000140: 2a62 fd39 4cde 08b9 4e23 86b9 0ab1 38b8
00000150: 8d8b 19b6 f409 56b5 d453 9536 d942 23b8
00000160: 734f 13b9 eccc 39b8 6784 d4a9 f980 d1a8
00000170: b1ff 36a7 0000 0000 726f 1ea7 ea81 c4a5
00000180: 8125 65a2 d836 6ba6 ae98 06a7 f8ff 2925
00000190: b2de 4ba0 d0d6 1da7 8612 f9a5 2294 bf24
000001a0: e4cc ad1d 98f5 fca1 355d 30a6 dac8 0aa7
000001b0: 76b3 cc1e 0c35 851f 48ae 0422 1d8d 09a6
000001c0: e325 05a7 50ac f4a5 b664 46a4 0f4a 5e25
000001d0: a3f7 9624 cc91 f7a2 0724 2aa1 e80c 281d
000001e0: e7a2 c63b 22d2 9f3a 4df9 0039 2dd2 a136
000001f0: 47dd 9838 eb64 6638 e1f3 fa37 249c 97b6
00000200: b6cc 3138 57cc 7b38 cb61 1f37 89e9 51b6
00000210: d7fa c938 eddf d237 2f56 beb5 1316 5637
00000220: 12e7 4337 73c9 db38 52df 0e38 ef26 1038
00000230: 26d1 b4b7 cd5d b8b6 a0b9 01b7 f982 ee38
00000240: 5d6d b3b5 a74f fe35 fe9a 35b5 b488 2ab7
00000250: 33a5 11b7 efc9 1fb5 ea3a 1cb2 02fe 07b1
00000260: a9b2 78af c4e3 bfa6 c62e ddae a31b 0aaf
00000270: 7e1f 152c e0c2 e92b 1527 4caf d7cf 42ae
00000280: 82a8 662b 1083 afac 63f6 15af 6c4e bcae
00000290: a401 b62a e5d9 452b fbb8 97ac 1c16 75af
000002a0: ea07 22aa d0e9 b52a 0435 412b 0762 44ac
000002b0: 8022 c1ab 38e9 81af 62a8 d52b 3ba8 2bad
000002c0: 66e0 672d f8bf 162d 7c5e 06a9 38ff 96a9
000002d0: 225b ccb8 8171 b6b7 ca9b 25b6 b227 ff2d
000002e0: 8a43 5fb5 cd94 dbb5 fc47 2f31 e97d 17b3
000002f0: 714b fcb5 ad0d 15b5 3eca 1530 d775 51b4
00000300: 2ce8 f0b5 c864 00b5 c0b5 952f a831 7eb0
00000310: 94c9 3eb3 ef94 22b6 700a b62f a779 91af
00000320: ef95 6030 c5b7 95b2 25e4 77b4 bb2b 0db6
00000330: 5d11 4233 2e03 4fb4 147c e931 4da4 cb32
00000340: 3a3a c12f 4af3 522e e46d dbba 7984 6db9
00000350: a7af dcb7 eda7 96b7 0a6e a9b7 fce9 c9b7
00000360: 404f b338 6a33 bfb7 f96a d637 8bf9 0ab9
00000370: 1397 5138 0c3d a538 1348 91b8 6d96 d9b8
00000380: 9e74 7838 670c 9a37 76ab 0238 9574 20b9
00000390: 6997 27b9 1729 abb8 5cfb 9139 f6ac ba37
000003a0: 363a af38 2114 58b9 ec36 4f36 8826 58b6
000003b0: c44b 0036 97b0 2738 d3a6 7438 590f aab8
000003c0: 0263 a9bc 1243 8fbb bf5e c1b9 50b1 4eb6
000003d0: 1336 63b9 2dc2 22b9 0e73 5fb9 2ca8 48b8
000003e0: 3c33 a9b8 600c feb7 c379 6db9 2e57 8bb8
000003f0: 30f5 83b8 8ec2 86b7 2bfe 04b9 01b2 aab8

exp_avg_sq f4 [40, 30]
0.0011514149 4.4643406e-05 3.986445e-07 5.5419974e-10 2.0461509e-07 1.1375588e-07 9.4415626e-08 6.8080986e-08
7.4135e-08 8.434754e-08 9.091614e-08 8.8539075e-08 6.619394e-08 4.4498307e-08 2.6991799e-08 5.5452634e-08
8.605255e-08 1.3473867e-07 2.2278892e-08 4.2194763e-09 1.350068e-07 1.1080175e-07 6.378694e-08 2.6528358e-08
8.2237985e-09 1.8237362e-08 2.3592763e-08 2.322314e-08 2.4766234e-09 2.130956e-09 0.00077756104 2.0050828e-05
2.5542406e-07 1.4430633e-08 2.2067034e-07 2.330546e-07 1.04798616e-07 1.6089672e-07 2.7648056e-07 1.3648214e-07
8.850436e-08 1.5416018e-07 2.0016088e-07 1.398508e-07 4.449026e-08 8.779883e-08 1.5557639e-07 2.6974666e-07
1.6994892e-07 2.1050492e-07 2.3771308e-07 2.1352028e-07 2.9481484e-07 3.340041e-07 6.231943e-08 8.20207e-08
1.3118323e-07 1.14809794e-07 1.3380561e-07 9.468544e-08 0.03426301 0.0011776325 7.5778157e-06 9.8165785e-08
2.684795e-06 2.0891503e-06 2.5393567e-06 1.5883816e-06 3.4056023e-07 1.5033983e-07 2.8024722e-06 9.111346e-07
4.1586776e-07 1.4040688e-07 6.655508e-07 1.1155466e-06 1.3529847e-06 5.7537375e-07 2.7865516e-07 1.9878119e-06
1.2364591e-06 4.2581212e-07 2.9773182e-07 5.1251625e-08 2.410357e-08 7.799114e-08 1.2210754e-07 2.8442696e-07
4.5720597e-07 1.7380563e-07 8.962531e-23 6.5602237e-24 9.024936e-26 0.0 6.4094744e-27 5.926122e-26
1.955975e-32 9.237916e-29 2.6600386e-28 8.8417897e-26 9.562994e-33 3.435624e-28 2.2798864e-27 7.1e-26
0.0 2.7159672e-33 2.864027e-29 9.001734e-26 9.685081e-36 5.5895858e-36 3.0764002e-30 2.0636964e-29
3.7354933e-28 9.5874983e-29 1.4291227e-28 7.733075e-26 1.3626389e-27 6.977395e-31 4.388319e-34 2.8583877e-37
0.00018588835 8.806033e-06 5.6422046e-08 1.22550565e-08 5.4246627e-08 2.2794671e-08 4.7261558e-08 1.2430951e-08
2.2074786e-08 1.6316733e-08 4.880813e-08 2.5826852e-08 2.9249856e-08 5.6940683e-09 4.971794e-08 5.1798206e-09
2.826652e-08 2.6719345e-08 2.2295993e-08 2.383689e-08 2.3592095e-08 7.802667e-09 1.1488118e-08 1.4400869e-08
2.1444393e-09 7.250965e-09 1.8157573e-08 1.3698756e-08 5.294214e-09 1.037755e-09 4.012792e-15 2.364867e-16
3.134875e-18 1.19858e-25 2.1241676e-18 6.9866544e-19 3.0446456e-21 1.01951083e-19 3.8013431e-19 2.5856756e-18
6.5245204e-22 2.2798085e-19 1.1357837e-18 1.6279043e-18 2.2680103e-23 2.920465e-22 5.675754e-20 3.1289583e-18
1.3063664e-22 1.5222e-22 1.0410874e-20 7.931256e-20 3.2526835e-19 4.7361327e-19 2.7898654e-19 1.4288884e-18
1.7595887e-18 4.506531e-20 1.1056541e-22 4.917279e-24 2.4102697e-05 1.3128497e-06 1.6733416e-08 7.2798575e-16
4.089205e-09 6.0047665e-09 1.255871e-12 1.8037324e-10 2.7610585e-09 9.420009e-09 1.0851983e-11 2.3009682e-10
4.3631716e-09 5.8005116e-09 3.016931e-14 4.1788204e-13 1.2848549e-10 1.5223723e-08 2.6889732e-14 1.4282309e-13
1.6805133e-12 4.6746712e-12 1.4455707e-09 3.1182028e-09 6.1858507e-10 5.2108433e-09 2.437922e-09 8.498128e-11
3.3229685e-14 8.9259155e-15 0.0018566152 3.7873135e-05 3.7237473e-07 7.241418e-08 2.582845e-07 3.6667328e-07
5.6567666e-07 5.015446e-07 1.4768735e-07 8.720337e-08 4.0626273e-07 3.3248816e-07 1.5199863e-07 6.657884e-08
2.7952836e-07 2.4055777e-07 3.835332e-07 1.2615745e-07 4.2411352e-07 4.3538864e-07 5.1638534e-07 2.9544614e-07
2.4526864e-07 1.2630234e-07 1.8384684e-08 4.126759e-08 8.204821e-08 1.4503041e-07 2.714786e-07 3.995594e-07
0.00085455243 3.611629e-05 2.5281327e-07 1.1436323e-09 1.4243021e-07 2.8951984e-08 1.1117339e-07 3.9381344e-08
1.8518946e-08 1.9522332e-08 1.4288446e-07 1.8818737e-08 1.10009815e-08 1.8416605e-08 4.3393403e-08 4.007232e-08
00000000: 13eb 963a 7e3f 3b38 4805 d634 5756 1830
00000010: 2bb4 5b34 f549 f433 8ac1 ca33 eb33 9233
00000020: 2634 9f33 8d22 b533 ad3d c333 df22 be33
00000030: 8126 8e33 681e 3f33 98db e732 d12a 6e33
00000040: e4cb b833 afac 1034 cd5f bf32 e8fa 9031
00000050: 63f6 1034 e8f1 ed33 3efb 8833 7ae0 e332
00000060: a648 0d32 62a8 9c32 09a9 ca32 3a7c c732
00000070: 3831 2a31 2d70 1231 3dd5 4b3a d332 a837
00000080: 3721 8934 98ea 7732 67f1 6c34 903d 7a34
00000090: a60d e133 f4c2 2c34 336f 9434 ed8b 1234
000000a0: c90f be33 3a87 2534 ceeb 5634 e529 1634
000000b0: 8f15 3f33 eb8b bc33 830c 2734 b3d1 9034
000000c0: 347b 3634 2707 6234 133e 7f34 0244 6534
000000d0: 0b47 9e34 2d51 b334 78d4 8533 5b23 b033
000000e0: 5fdb 0c34 5a8d f633 35ac 0f34 df55 cb33
000000f0: 5f57 0c3d ca5a 9a3a f144 fe36 36cf d233
00000100: 6d2c 3436 5433 0c36 d169 2a36 6030 d535
00000110: 3ed6 b634 196d 2134 1b12 3c36 b194 7435
00000120: 6e44 df34 c0c2 1634 4da8 3235 e4b9 9535
00000130: 3398 b535 6273 1a35 139a 9534 5966 0536
00000140: 69f4 a535 2c9b e434 f3d7 9f34 c21f 5c33
00000150: 500c cf32 157c a733 aa1c 0334 58b3 9834
00000160: e975 f534 549f 3a34 61b3 d81a 4fc9 fd18
00000170: 5472 df15 0000 0000 cbe7 fd13 43b9 9215
00000180: bc1e cb0a 8135 ea10 9899 a811 80e9 da15
00000190: 999d 460a 30c2 d911 97a1 3413 99c9 af15
000001a0: 0000 0000 3ca2 6109 3239 1110 44df de15
000001b0: 99fa 4d05 33c1 ed04 5596 790e 9f48 d10f
000001c0: d8c3 ec11 6c12 f310 af29 3511 3076 bf15
000001d0: 33eb d712 ee6d 620d b0d3 1108 2388 c202
000001e0: 06eb 4239 a0bd 1337 b254 7233 4f8a 5232
000001f0: ccfc 6833 03ce c332 a2fc 4a33 e78f 5532
00000200: f89e bd32 e028 8c32 1ba1 5133 d9d9 dd32
00000210: 1d41 fb32 8ea5 c331 7489 5533 2ffa b131
00000220: bcce f232 7684 e532 6885 bf32 e0c1 cc32
00000230: 91a7 ca32 7e0c 0632 475d 4532 b167 7732
00000240: 605d 1331 2a24 f931 edf8 9b32 c457 6b32
00000250: 66e8 b531 c2a0 8e30 7993 9027 4753 8825
00000260: 1d50 6722 8460 1416 64bc 1c22 ab35 4e21
00000270: 030c 661d a6b9 f01f 4664 e020 08ca 3e22
00000280: 0831 451c 7e93 8620 b29c a721 7c3c f021
00000290: 3759 db19 0288 b01b d403 861f 5ae0 6622
000002a0: 15ee 1d1b cf05 381b e6a7 441e 8045 bb1f
000002b0: 2a01 c020 35c9 0b21 41af a420 e1dd d221
000002c0: b1d5 0122 9ed0 541f 56aa 051b 5f3a be18
000002d0: 2630 ca37 2c35 b035 2cbd 8f32 ded3 5126
000002e0: 0781 8c31 7c52 ce31 85bf b02b 8e52 462f
000002f0: 0ebd 3d31 a3d5 2132 fde8 3e2d 7ffe 7c2f
00000300: ddea 9531 d74d c731 d9de 0729 263f eb2a
00000310: 7345 0d2f 52c5 8232 8033 f228 f4cd 202a
00000320: df82 ec2b b279 a42c 7fad c630 0148 5631
00000330: 0e09 2a30 100b b331 6188 2731 35e0 ba2e
00000340: 38a7 1529 85cb 2028 ab59 f33a f8d9 1e38
00000350: cbea c734 1e82 9b33 5aaa 8a34 31db c434
00000360: 01d9 1735 e2a1 0635 fd93 1e34 8f44 bb33
00000370: 531c da34 d380 b234 1135 2334 1bfa 8e33
00000380: 1612 9634 0226 8134 67e8 cd34 e575 0734
00000390: b8b1 e334 5cbf e934 bb9d 0a35 cf9d 9e34
000003a0: 77ad 8334 b99d 0734 59ec 9d32 323e 3133
000003b0: 7b32 b033 a8b9 1b34 bcbf 9134 0783 d634
000003c0: 0b04 603a 927b 1738 64ba 8734 fc2d 9d30
000003d0: ebee 1834 16b2 f832 38be ee33 3f24 2933
000003e0: 9813 9f32 10b2 a732 c86b 1934 d7a6 a132
000003f0: d4fe 3c32 8b32 9e32 8d5f 3a33 fb1b 2c33
