DeepLearning/timeSerise/.lr_find_e1f805fa-36d5-433e-a122-0af3db8cc495.ckpt (torch, 47861 bytes, 9 tensors)

lstm.weight_ih_l0 f4 [40, 50]
0	0xbdd7137c	-0.10501763
1	0x3e77fd9c	0.24217838
2	0x3e876a91	0.2644849
3	0x3e87af39	0.26500872
4	0xbd903fcb	-0.070434175
5	0xbe397268	-0.18110049
6	0x3d9f5e43	0.07781651
7	0x3c2c75aa	0.0105261
8	0xbdd2fbcd	-0.103019334
9	0xbe547e36	-0.2075127
10	0xbca217e2	-0.019786779
11	0xbe55f391	-0.20893694
12	0xbe36349d	-0.17793508
13	0x3e5fd9b8	0.21860397
14	0xbe1aba0f	-0.15110038
15	0x3e7e673d	0.2484407
16	0xbd142cab	-0.03617541
17	0x3e18e7ff	0.1493225
18	0xbe08a859	-0.1334547
19	0xbe740425	-0.23829706
20	0xbd3e3035	-0.046432693
21	0x3e045731	0.12923886
22	0x3d1f805b	0.03894077
23	0xbdd1c7d6	-0.10243194
24	0x3db55d0e	0.088556394
25	0xbdc0b3ab	-0.09409269
26	0xbe1a1b80	-0.15049553
27	0x3e84a6b2	0.25908428
28	0x3e11ce9e	0.14238974
29	0x3e7f07b1	0.24905278
30	0x3db39263	0.087681554
31	0xbe2b99d9	-0.16757907
32	0xbe888457	-0.26663467
33	0x3b8ba9fa	0.004262206
34	0x3e903cf8	0.28171515
35	0xbd61101b	-0.054947
36	0x3e98a6b8	0.29814696
37	0x3e69ad87	0.22820102
38	0xbdc7f31e	-0.09763168
39	0x3e8563f5	0.26052824
40	0xbe0e7947	-0.13913451
41	0xbda3b6f8	-0.07993883
42	0xbe8ddd50	-0.2770791
43	0xbe199d62	-0.15001443
44	0x3e85608f	0.2605023
45	0xbe54922a	-0.20758882
46	0xbce915f7	-0.028452856
47	0x3e99ecd5	0.300635
48	0xbe9ade7d	-0.3024787
49	0x3e528990	0.20560288
50	0x3dd657e7	0.10465985
51	0xbe70d7c9	-0.23519816
52	0xbe1d5436	-0.15364155
53	0x3e71af33	0.2360199
54	0x3d00a9ee	0.031412058
55	0x3e037079	0.12835874
56	0x3e8dce1f	0.2769632
57	0x3e6d1def	0.2315595
58	0x3e01146b	0.12605445
59	0xbd2d327e	-0.04228448
60	0x3e9c08f8	0.30475593
61	0x3ddb1d78	0.1069898
62	0xbdebf3d0	-0.11521113
63	0x3ea07b4e	0.31344074
64	0x3e1dfcfd	0.15428539
65	0xbcadf591	-0.02123526
66	0xbda47fd5	-0.080321945
67	0x3c64b3fd	0.013958928
68	0xbd7ea4da	-0.062168933
69	0x3ccb1280	0.024789095
70	0x3e7fbd7e	0.2497463
71	0x3e42a7c4	0.1900931
72	0xbe99ca78	-0.30037284
73	0x3e3df098	0.1854881
74	0xbdd9234f	-0.10602438
75	0x3df92b1d	0.12166426
76	0x3e94d04b	0.29065165
77	0xbcb5f130	-0.022209734
78	0x3e8690d8	0.26282382
79	0xbc4ec1e3	-0.012619468
80	0x3e23533d	0.15949722
81	0xbe1abb46	-0.15110502
82	0x3e95ee38	0.2928331
83	0xbd8cf7ad	-0.06883178
84	0xbd9f5661	-0.07780147
85	0xbdf0a20f	-0.1174966
86	0xbe857ac7	-0.26070234
87	0xbe6364a9	-0.22206368
88	0x3dc6eb20	0.09712815
89	0xbe92c8dc	-0.2866887
90	0xbdaddb2e	-0.08489071
91	0x3e384315	0.1799434
92	0xbea1a7b6	-0.31573266
93	0xbe6d6134	-0.23181611
94	0xbe363442	-0.17793372
95	0xbdc11b69	-0.09429056
96	0xbe98ad80	-0.2981987
97	0x3e04ec0b	0.12980668
98	0x3d88734f	0.06662618
99	0xbe05cb09	-0.13065733
100	0xbe3d1534	-0.1846512
101	0x3c9e716e	0.019341197
102	0x3d64d374	0.05586572
103	0xbdba5ff3	-0.09100332
104	0xbe6678bb	-0.22506993
105	0xbdf95c44	-0.121758014
106	0xbe37c99d	-0.17948003
107	0xbe76ebf4	-0.24113446
108	0x3df0f535	0.117655195
109	0x3e6f365b	0.23360579
110	0x3e368260	0.17823172
111	0x3dee2324	0.11627796
112	0x3e4931a3	0.19647841
113	0xbd7da92c	-0.061928913
114	0x3e853a77	0.26021168
115	0xbe85e85d	-0.26153842
116	0xbe5a506d	-0.21319743
117	0xbda43669	-0.080181904
118	0x3da673cf	0.081275575
119	0xbcb7f1b7	-0.022454126
120	0xbd8b0c84	-0.067894965
121	0x3d850817	0.06495684
122	0x3e0ad24a	0.13556781
123	0xbe00a7ad	-0.12563963
124	0x3cf105bb	0.029421678
125	0x3ceb31c4	0.028710254
126	0xbd1e7b96	-0.03869208
127	0x3e01a47b	0.126604
128	0xbb0b9cb2	-0.0021303114
129	0xbd83b0fc	-0.064302415
130	0x3d6c3d9c	0.057675943
131	0x3e1af7b6	0.15133557
132	0xbe824cbd	-0.25449172
133	0x3e13b87e	0.14425847
134	0x3e7fedc7	0.24993049
135	0xbe219f13	-0.15783338
136	0xbd220784	-0.03955795
137	0x3e398934	0.18118745
138	0x3e9c00bb	0.30469307
139	0x3db7c4cf	0.08973085
140	0xbe898eda	-0.268668
141	0x3e8d4a40	0.2759571
142	0x3e50b20c	0.2038042
143	0xbd81270e	-0.06306277
144	0x3e6c73e2	0.23091081
145	0xbe1540ee	-0.1457555
146	0x3e3c5969	0.18393482
147	0x3e8dd415	0.27700868
148	0xbd2c53b6	-0.04207202
149	0xbe10be3c	-0.14135069
150	0xbe40c42f	-0.18824838
151	0xbd08b2f3	-0.033373784
152	0x3d61ad5a	0.05509696
153	0xbe2db770	-0.16964507
154	0xbc4f66a4	-0.012658749
155	0xbd6f269b	-0.058386426
156	0xbdfe530c	-0.12418184
157	0x3c90439c	0.017610364
158	0xbe458ecf	-0.19292758
159	0x3e1e0195	0.15430291
160	0x3e1c66fb	0.15273659
161	0x3d1197f3	0.0355453
162	0xbdaab092	-0.08334459
163	0xbe925d47	-0.2858679
164	0xbdea8062	-0.11450268
165	0xbdaf40bc	-0.08557269
166	0xbe247570	-0.16060424
167	0x3e401358	0.18757379
168	0x3e8c7566	0.27433318
169	0x3e10c9b0	0.14139438
170	0x3e29bb3a	0.16575328
171	0xbd51607d	-0.05111741
172	0x3e9ee94f	0.31037375
173	0x3e9b4a09	0.30329922
174	0x3e9e686c	0.30939043
175	0x3e950114	0.29102385
176	0x3d5ae445	0.05344035
177	0xbe3e5109	-0.185856
178	0xbe50a5f4	-0.20375806
179	0x3e3d2404	0.1847077
180	0xbdb7afff	-0.089691155
181	0x3e83fe0c	0.2577976
182	0x3e697494	0.22798377
183	0xbe946390	-0.2898221
184	0xbe52574b	-0.20541112
185	0x3c9aa73e	0.018878575
186	0xbd59c463	-0.053165805
187	0x3d80e446	0.0629354
188	0x3da7a82c	0.08186373
189	0x3d61080b	0.05493931
190	0xbdd0cb0d	-0.10194979
191	0xbd6c0b69	-0.05762807
192	0xbe445bc3	-0.1917563
193	0x3e6acf4a	0.22930637
194	0x3dc8e396	0.098090336
195	0xbe91861c	-0.2842263
196	0xbe023a37	-0.1271752
197	0x3e669445	0.22517498
198	0x3d980307	0.074224524
199	0x3daa7718	0.083234966
200	0xbe1f5784	-0.15560728
201	0x3dd6a2bf	0.1048026
202	0x3e9f7b89	0.31148937
203	0xbd91f050	-0.07125914
204	0x3e1876bd	0.14889045
205	0x3d66200c	0.056182906
206	0xbe8f56d0	-0.2799592
207	0x3e9578e1	0.29193786
208	0xbb7aab78	-0.0038249176
209	0xbe8c67e3	-0.2742301
210	0xbdb8ed04	-0.09029582
211	0x3e3ed70e	0.18636724
212	0xbe8fb693	-0.2806898
213	0xbdd83831	-0.10557593
214	0x3e50a4f7	0.20375429
215	0xbe5afd3c	-0.21385664
216	0xbd9b625f	-0.07587122
217	0xbe198c47	-0.14994918
218	0xbd4853ce	-0.048908047
219	0x3e8a8438	0.27054
220	0xbea08490	-0.31351137
221	0xbe61e740	-0.22060871
222	0xbe697eec	-0.22802323
223	0x3caf936e	0.021432605
224	0xbdcdfc6c	-0.10057911
225	0xbe9452cb	-0.28969416
226	0x3e9dd943	0.3082982
227	0x3e808ec8	0.25108933
228	0xbe94c200	-0.2905426
229	0xbdc8fa05	-0.098133124
230	0x3cce720a	0.025200862
231	0xbd19b6a2	-0.037527688
232	0xbe60aa73	-0.21940021
233	0x3e1fdc7d	0.15611453
234	0xbe905c9a	-0.2819565
235	0xbdaf10e3	-0.08548143
236	0x3e96ae7e	0.29430002
237	0xbe7f8595	-0.24953301
238	0x3e3b0b2b	0.18265979
239	0x3db747e1	0.08949257
240	0x3e03f816	0.12887606
241	0x3e274892	0.16336277
242	0x3e885bf9	0.2663267
243	0x3b5ccdb6	0.003369195
244	0x3cf97f4a	0.030456204
245	0x3e2d0189	0.16895117
246	0x3d2b583b	0.04183219
247	0xbdc96b45	-0.09834913
248	0xbba2a6f9	-0.0049637523
249	0xbd160dc5	-0.036634225
250	0xbcffa435	-0.03120623
251	0x3d682056	0.056671463
252	0x3d501117	0.05079755
253	0xbe1a4c6a	-0.15068212
254	0xbdd5c0e7	-0.10437184
255	0x3e79a1bf	0.24378107

lstm.weight_hh_l0 f4 [40, 10]
0	0x3c057008	0.008144386
1	0x3cf41e83	0.029799705
2	0x3dff0da4	0.124537736
3	0x3e709bfd	0.23497005
4	0xbe25243e	-0.16127107
5	0xbe0f20fa	-0.13977423
6	0xbe24eaeb	-0.16105239
7	0xbe61d4dc	-0.22053856
8	0x3c4d37de	0.012525527
9	0xbe4420e0	-0.19153166
10	0x3e2d6ada	0.16935292
11	0xbc16a1ec	-0.009193879
12	0xbe053c86	-0.13011369
13	0xbd8bcd6f	-0.06826293
14	0xbd8c7f27	-0.0686019
15	0x3e4a94d9	0.19783343
16	0xbe2384f0	-0.1596868
17	0xbe83d7e0	-0.25750637
18	0xbe173caf	-0.14769243
19	0xbe697698	-0.22799146
20	0x3e033cc5	0.1281615
21	0x3e2fed6a	0.1718041
22	0xbd3bd213	-0.04585464
23	0x3dc02faa	0.09384091
24	0x3e57f8f0	0.21091056
25	0xbdc0f73e	-0.09422158
26	0xbe0ba0e2	-0.1363559
27	0xbcc029e5	-0.023457477
28	0xbcec934f	-0.028878836
29	0x3e10c365	0.14137037
30	0x3e217693	0.15767889
31	0xbe0b9d4c	-0.13634223
32	0x3db17f57	0.08666866
33	0xbe0d43a6	-0.13795337
34	0xbc27ba5b	-0.010237302
35	0xbe8d5d5d	-0.27610293
36	0x3e5ab8a7	0.21359502
37	0xbe1d26cb	-0.1534683
38	0x3e706eac	0.23479718
39	0x3e3e46d6	0.1858171
40	0xbda1b81b	-0.078964435
41	0x3ce97a4a	0.028500695
42	0x3dc15c3d	0.09441421
43	0x3c8e5400	0.017374039
44	0x3e9c7465	0.30557552
45	0x3ea0f44a	0.31436378
46	0xbe08628a	-0.1331884
47	0xbd7f7eee	-0.06237691
48	0xbe970d5c	-0.2950238
49	0xbdfd635e	-0.123724684
50	0x3d162bb1	0.03666276
51	0xbe058500	-0.13039017
52	0x3e887261	0.26649764
53	0x3d0f4adb	0.034983497
54	0xbe21864a	-0.15773883
55	0xbe1994bc	-0.14998144
56	0xbe54008f	-0.20703338
57	0xbe4f8acf	-0.20267795
58	0xbdfb9e45	-0.12286047
59	0x3e3dd42a	0.18537965
60	0xbe761c69	-0.24034275
61	0xbcb41974	-0.021984793
62	0xbd9f86b3	-0.07789364
63	0xbe0d8d40	-0.13823414
64	0x3e802c00	0.2503357
65	0x3d7cc5f7	0.06171223
66	0xbe3b902f	-0.1831672
67	0xbe00b4e8	-0.1256901
68	0x3de63bcc	0.11241874
69	0xbe508a46	-0.20365247
70	0xbe760701	-0.2402611
71	0x3d040c83	0.032238495
72	0x3e9daf0b	0.3079761
73	0x3e193bdb	0.1496424
74	0x3e0931f5	0.13397963
75	0xbe22d286	-0.15900621
76	0x3e9b38d8	0.30316806
77	0xbdeff909	-0.117174216
78	0x3c5539f9	0.01301431
79	0x3e88af4b	0.26696238
80	0x3dc94b2c	0.09828791
81	0xbe8b97e3	-0.27264318
82	0xbe9edfb5	-0.3103005
83	0x3e0ae057	0.13562141
84	0xbdf27c80	-0.11840153
85	0xbe719dfe	-0.23595425
86	0xbea142a4	-0.31496155
87	0xbd48a851	-0.048988644
88	0xbe84cfda	-0.25939828
89	0xbe23668d	-0.15957089
90	0x3e54c08f	0.2077658
91	0x3d6d430d	0.057925273
92	0xbdb0e0f3	-0.08636656
93	0x3e31aceb	0.17351119
94	0x3e72c39a	0.23707429
95	0x3d00f10a	0.031479873
96	0xbc553b14	-0.013014574
97	0xbe79ea9c	-0.24405903
98	0xbdda3d11	-0.10656179
99	0xbe5ec940	-0.21756458
100	0xbd3f4d53	-0.0467046
101	0x3e4166c8	0.18886864
102	0xbe310f6a	-0.17291036
103	0x3e48ae16	0.19597659
104	0xbdd72a69	-0.10506136
105	0xbe90cf5b	-0.282832
106	0x3e761ce2	0.24034455
107	0x3dd2852d	0.102793075
108	0xbe8d0c23	-0.27548322
109	0xbd99336b	-0.0748051
110	0x3dc99114	0.098421246
111	0x3c2032a1	0.009777696
112	0xbbc96ea1	-0.006147221
113	0x3e4dc6a7	0.20095311
114	0xbdc5b0c1	-0.09652854
115	0xbc381bda	-0.011237109
116	0xbd4e2643	-0.050329458
117	0x3d3f23bd	0.046664942
118	0x3e170303	0.14747243
119	0xbe36f9b9	-0.17868699
120	0xbe65bfdb	-0.22436468
121	0x3decf0f9	0.115693994
122	0x3c621a7d	0.013800261
123	0x3dbbfe31	0.091793425
124	0x3e42283f	0.18960665
125	0x3e0ea126	0.13928661
126	0x3e907b5c	0.28219116
127	0x3ccefe35	0.0252677
128	0x3e7a1820	0.24423265
129	0x3d1c460e	0.038152747
130	0xbe5e16d6	-0.21688399
131	0x3e8c393a	0.2738741
132	0x3e3bfffa	0.18359366
133	0x3cc63963	0.024197286
134	0xbe930d36	-0.28721017
135	0x3e985b15	0.2975699
136	0x3e80c534	0.25150454
137	0x3d8440cf	0.06457674
138	0x3e61df49	0.22057833
139	0x3e214f37	0.15752874
140	0xbea0ac84	-0.3138162
141	0xbe4e192e	-0.20126793
142	0x3e64a0cc	0.22326964
143	0x3e80547b	0.25064453
144	0x3e330ddb	0.17485754
145	0x3e4495b1	0.19197728
146	0x3e390bf7	0.1807097
147	0x3cc582af	0.024110166
148	0xbe269832	-0.16268995
149	0x3dd828c7	0.10554653
150	0xbe00fad3	-0.12595682
151	0xbe84614e	-0.25855488
152	0x3e6e3d35	0.23265536
153	0x3db16356	0.08661525
154	0xbdf051d1	-0.11734355
155	0xbad7fa87	-0.0016477861
156	0x3d5fdea1	0.054655675
157	0x3e0198bd	0.12655921
158	0xbdef3249	-0.11679513
159	0x3e6f1f46	0.23351774
160	0x3e90f582	0.28312308
161	0xbc5945ef	-0.013261302
162	0x3cd119b1	0.025524946
163	0xbda29bab	-0.079398476
164	0x3e12c8b1	0.1433437
165	0x3df42157	0.119204216
166	0xbe8049e6	-0.2505638
167	0xbe3f2d7c	-0.18669695
168	0xbe87db72	-0.2653461
169	0x3db04128	0.086061776
170	0xbea190c2	-0.31555754
171	0xbe8e030a	-0.27736694
172	0x3d82565c	0.06364128
173	0x3e0ee906	0.13956079
174	0x3e5f1c91	0.21788241
175	0x3d8ced06	0.06881146
176	0x3c7350ce	0.014850808
177	0xbe5bd59a	-0.21468201
178	0x3c341f11	0.010993735
179	0xbe92d297	-0.28676292
180	0xbe87b09f	-0.2650194
181	0x3e5b2f8e	0.2140486
182	0x3e82bf5d	0.25536624
183	0xbe82c744	-0.25542653
184	0xbd8bf000	-0.06832886
185	0x3e06947e	0.13142583
186	0xbcce468f	-0.02518013
187	0xbe91bb86	-0.28463382
188	0x3e6b098c	0.2295286
189	0x3dd3c04c	0.10339412
190	0x3e1a8f35	0.15093692
191	0xbd42ff5c	-0.04760681
192	0xbe8c30f8	-0.2738111
193	0x3e9030c0	0.28162193
194	0x3daae969	0.08345301
195	0x3e0605dd	0.13088174
196	0xbe945bc3	-0.2897626
197	0xbe46b378	-0.194044
198	0x3dd54352	0.10413231
199	0x3e8026e5	0.25029674
200	0x3e4ac9b0	0.198035
201	0xbe1c041c	-0.15235943
202	0x3d81a8ca	0.06331022
203	0xbc0da09f	-0.008644252
204	0x3bfff9fb	0.0078117824
205	0x3e484a33	0.19559555
206	0x3e931139	0.28724077
207	0x3df26ef6	0.1183757
208	0xbe7eabae	-0.24870178
209	0xbd144a6e	-0.036203794
210	0xbde67911	-0.1125356
211	0xbdf3bb23	-0.11900928
212	0x3e9f9adf	0.31172845
213	0x3bc0758d	0.005873388
214	0xbe3a49bc	-0.1819219
215	0xbe7cd2c5	-0.24689777
216	0xbd1674bd	-0.036732424
217	0xbe0b9874	-0.13632375
218	0x3e78a2b6	0.2428082
219	0xbe9b3daf	-0.30320498
220	0x3d37e0ea	0.04489223
221	0xbd870a5b	-0.06593772
222	0x3d2c0ee4	0.04200639
223	0x3d4d7a79	0.050165627
224	0xbcf8dc6e	-0.030378547
225	0x3e336833	0.17520218
226	0x3e24c535	0.16090854
227	0x3e05662d	0.13027258
228	0xbd9dfaaa	-0.07713826
229	0x3e83b479	0.25723627
230	0x3e97e73b	0.29668602
231	0x3e578535	0.21046908
232	0x3cdbf05a	0.026848007
233	0xbd6fb65f	-0.058523532
234	0xbd6c6ea0	-0.057722688
235	0xbe984f32	-0.2974792
236	0xbdab17fa	-0.083541825
237	0x3defa1b7	0.117007665
238	0x3daffb9b	0.08592912
239	0x3db3e000	0.08782959
240	0x3e1829e5	0.14859731
241	0xbc44a2b7	-0.012001685
242	0x3d934679	0.07191176
243	0x3e32bd9d	0.17455144
244	0xbe1bbf1f	-0.15209626
245	0x3e6d35c5	0.23165043
246	0x3d19484f	0.037422474
247	0xbe23628f	-0.15955566
248	0x3dfc5cc2	0.1232238
249	0x3e91d505	0.28482834
250	0x3d39a418	0.045322508
251	0x3e372fc4	0.17889315
252	0xbe66474a	-0.22488132
253	0x3da75779	0.08170981
254	0x3e19081b	0.14944498
255	0x3dc0852a	0.09400399

lstm.bias_ih_l0 f4 [40]
0	0xbea0e70e	-0.3142628
1	0xbc778c5c	-0.015109148
2	0x3e79ba20	0.24387407
3	0x3e34f564	0.17671734
4	0x3d386b6c	0.04502432
5	0x3e79cd59	0.2439474
6	0xbe0abc40	-0.13548374
7	0xbe922013	-0.28540096
8	0xbe7ec9b6	-0.24881634
9	0xbe809877	-0.2511632
10	0x3dfb826c	0.122807354
11	0x3e198bb9	0.14994706
12	0x3e8b51af	0.27210757
13	0xbdb2ba6c	-0.087269634
14	0xbe9d9986	-0.30781192
15	0x3e8b80ed	0.272468
16	0xbe417a24	-0.18894249
17	0x3e072cea	0.13200727
18	0xbd25db1c	-0.040492162
19	0x3d8568ea	0.065141514
20	0x3dc62f0c	0.09676942
21	0x3da1ce6b	0.07900699
22	0xbe26a43b	-0.16273586
23	0x3b279741	0.0025572332
24	0x3e7e31af	0.2482364
25	0x3e0e61d1	0.13904501
26	0xbd6f1633	-0.05837078
27	0xbdb50b4f	-0.088400476
28	0xbe108815	-0.14114411
29	0xbe051ef8	-0.13000095
30	0xbda40361	-0.08008457
31	0xbe86da20	-0.2633829
32	0x3b6c633e	0.0036069895
33	0x3e139ed2	0.14416054
34	0x3b0a5d4e	0.0021112743
35	0x3dd44902	0.10365488
36	0xbd1edd6c	-0.038785383
37	0xbd9d8674	-0.076916605
38	0xbe31c7d3	-0.17361383
39	0xbc8d619d	-0.01725846

lstm.bias_hh_l0 f4 [40]
0	0x3e95e1c4	0.29273808
1	0x3e88b7c8	0.26702714
2	0x3dfdb850	0.123886704
3	0xbd93bbf9	-0.07213587
4	0xbd82b9d0	-0.06383097
5	0x3ea075c2	0.31339842
6	0x3da0cf48	0.07852036
7	0xbe98a96b	-0.29816756
8	0x3e93b566	0.28849334
9	0xbe2c464a	-0.16823688
10	0xbcb77741	-0.022395732
11	0xbde8673b	-0.11347815
12	0xbe04241c	-0.129044
13	0xbd18d950	-0.03731662
14	0xbd7fd00b	-0.062454265
15	0x3cf12cb4	0.029440261
16	0xbe3760bc	-0.17907995
17	0x3e3378af	0.17526506
18	0x3ceb13f6	0.028696042
19	0xbe9b066d	-0.3027834
20	0x3e2acc4d	0.16679497
21	0xbe9394ca	-0.28824455
22	0xbdc05b20	-0.09392381
23	0x3e65b44d	0.2243206
24	0xbe071329	-0.13190903
25	0xbe0351b6	-0.12824139
26	0xbdc086b5	-0.09400693
27	0xbda260da	-0.07928629
28	0xbddce2fb	-0.107854806
29	0x3e863aac	0.26216638
30	0xbe32c5e3	-0.174583
31	0xbe32ee1b	-0.17473643
32	0xbddb6296	-0.10712163
33	0x3e08f225	0.13373621
34	0x3c918a82	0.017766241
35	0x3e08b277	0.13349329
36	0x3d98fef1	0.07470501
37	0x3e278bd4	0.16361934
38	0xbe8460b9	-0.25855044
39	0xbc853350	-0.01625982

lstm.weight_ih_l1 f4 [40, 10]
0	0xbdb12f2d	-0.08651576
1	0xbd772c8b	-0.060345214
2	0x3e55b21c	0.20868725
3	0x3e8b43bf	0.27200124
4	0xbe23f2f2	-0.16010645
5	0xbe262b3c	-0.1622743
6	0x3db56005	0.08856205
7	0x3e580a8c	0.21097773
8	0xbe84af25	-0.25914875
9	0xbe8b1999	-0.27167967
10	0xbdc9ccc9	-0.09853513
11	0xbcd15159	-0.025551485
12	0x3dc0079f	0.093764536
13	0xbe9a5b29	-0.30147675
14	0x3e08663a	0.13320246
15	0x3dbb602d	0.091492034
16	0xbcd0ea1a	-0.025502253
17	0xbe98de05	-0.29856887
18	0x3e3dc902	0.1853371
19	0x3e8349b9	0.25642183
20	0xbc73cde0	-0.014880627
21	0x3d8f98c4	0.070115596
22	0x3ddd48bf	0.10804891
23	0xbe935ecd	-0.28783265
24	0xbe1ff12e	-0.15619346
25	0x3e280e50	0.1641171
26	0xbe915db8	-0.28391814
27	0x3e838486	0.25687045
28	0xbe9cecdb	-0.30649456
29	0x3ce212be	0.027596828
30	0xbda979ae	-0.08275162
31	0x3e8c37ff	0.27386472
32	0x3e5f89b6	0.21829876
33	0xbe863b82	-0.26217276
34	0xbe46f51e	-0.19429442
35	0x3d7e65af	0.06210869
36	0x3d123f50	0.03570491
37	0x3e57f3a9	0.21089043
38	0xbe348cde	-0.17631862
39	0x3df936ad	0.12168632
40	0x3d0e6dda	0.03477273
41	0x3e7c6d0e	0.24650976
42	0x3dbaee3c	0.09127471
43	0xbcd9dbfc	-0.026594155
44	0x3d8e8610	0.06959164
45	0xbd808b1e	-0.062765345
46	0x3e4886b5	0.19582637
47	0x3e29b7b0	0.16573977
48	0xbe1597db	-0.1460871
49	0x3e04ac9a	0.12956467
50	0xbd64fdac	-0.055905983
51	0x3e2cb7ce	0.16866991
52	0x3e86b8bc	0.26312816
53	0xbe903889	-0.28168133
54	0x3e495c29	0.19664063
55	0x3e2b63aa	0.16737238
56	0xbd1709b9	-0.036874507
57	0xbe0acfb6	-0.13555798
58	0x3e93a080	0.2883339
59	0xbe57fe3c	-0.21093076
60	0x3e3cf6f4	0.1845358
61	0x3e4128c8	0.18863213
62	0x3e7c8336	0.24659428
63	0x3e4b7314	0.19868118
64	0xbe822136	-0.25415963
65	0xbd8d154d	-0.068888284
66	0xbe089e5e	-0.13341662
67	0x3c460e89	0.012088426
68	0xbe7bd5fd	-0.24593349
69	0xbdb3b332	-0.08774413
70	0xbe092496	-0.13392863
71	0x3cf2d380	0.029641867
72	0x3e9e0faa	0.30871326
73	0x3e046d74	0.12932378
74	0x3e0363d3	0.12831049
75	0xbdc2ed56	-0.095179245
76	0x3de4c30d	0.111700155
77	0xbe455d09	-0.19273771
78	0xbe6cfa18	-0.23142278
79	0x3c997d83	0.018736606
80	0xbd2ce7d3	-0.042213272
81	0xbd88cf1d	-0.06680129
82	0x3e6b4a58	0.22977579
83	0xbd19a172	-0.037507482
84	0xbe7c6526	-0.2464796
85	0xbc3deb8b	-0.011591802
86	0x3dae4968	0.08510095
87	0x3e32f497	0.17476116
88	0xbe94ca51	-0.29060605
89	0x3e1857a9	0.1487719
90	0x3d452e87	0.048140075
91	0xbe1c82fd	-0.15284343
92	0xbda2f15e	-0.079561934
93	0x3e7edff2	0.24890116
94	0x3e283665	0.16427
95	0x3deee5e0	0.11664939
96	0x3e89dc89	0.26926067
97	0x3e4246af	0.18972276
98	0x3df7a242	0.12091495
99	0xbe62cc51	-0.22148253
100	0x3e0d69af	0.13809846
101	0xbd8b1749	-0.06791551
102	0xbcc17dae	-0.023619499
103	0x3e123f5a	0.14281979
104	0x3d5f9d87	0.05459359
105	0xbdaa2fab	-0.08309873
106	0xbe691f1b	-0.22765772
107	0x3e6de4ee	0.23231861
108	0x3e902486	0.28152865
109	0xbc2659eb	-0.010153274
110	0x3dcc3509	0.09971053
111	0xbdff3ca4	-0.12462738
112	0xbe318ffe	-0.17340085
113	0x3dc007b8	0.09376472
114	0xbe90c158	-0.2827251
115	0x3e95f9d3	0.29292163
116	0xbe52ec6a	-0.20597997
117	0xbe87a056	-0.26489514
118	0x3e0d2fe5	0.13787802
119	0xbe648dea	-0.22319761
120	0xbe6c4f29	-0.23077072
121	0xbd0b2c79	-0.03397796
122	0xbcd0ba6e	-0.025479522
123	0x3de7efe5	0.11325053
124	0xbe8147c9	-0.2525008
125	0x3da4b375	0.08042041
126	0xbe065435	-0.1311806
127	0xbe8847d5	-0.26617303
128	0xbe8b4761	-0.27202895
129	0xbe36c91f	-0.17850159
130	0x3de1938f	0.11014473
131	0x3b869c4a	0.0041079866
132	0x3da919e7	0.082568936
133	0xbcea8ed4	-0.028632559
134	0xbe80bbc5	-0.25143257
135	0x3c6f33ed	0.014599782
136	0x3e8453f2	0.25845295
137	0xbe8d1793	-0.27557048
138	0x3c9a1525	0.01880891
139	0x3db525c6	0.08845095
140	0xbdf5ffda	-0.120116904
141	0xbe169497	-0.1470512
142	0xbd5f626e	-0.05453723
143	0xbe788418	-0.2426914
144	0xbe799938	-0.24374855
145	0x3e81961e	0.25309843
146	0x3dcd3af3	0.10021009
147	0x3e9b5285	0.30336395
148	0x3d99da21	0.07512308
149	0xbe19a0f6	-0.15002808
150	0x3e1d8e60	0.15386343
151	0xbe512f4b	-0.20428197
152	0xbe3eea05	-0.18643959
153	0x3e9ba806	0.3040163
154	0xbe1039fc	-0.1408462
155	0xbe11fdf1	-0.14257027
156	0xbd642b57	-0.055705395
157	0xbdf6fc4c	-0.120598406
158	0xbe0c148e	-0.13679716
159	0xbdf76b65	-0.12081031
160	0xbe0b4e10	-0.13603997
161	0x3e8c9163	0.2745467
162	0xbe855432	-0.26040798
163	0xbe8f3348	-0.27968812
164	0xbe451e76	-0.19249901
165	0xbe327938	-0.17429054
166	0xbe0a977b	-0.13534348
167	0x3ccfcbfe	0.025365826
168	0x3dc2ce11	0.0951196
169	0xbe0ed1eb	-0.13947265
170	0x3cc4172e	0.023936834
171	0xbd67e31b	-0.05661307
172	0x3e4b9406	0.19880685
173	0x3e9f20d6	0.3107974
174	0x3e9c5280	0.30531693
175	0x3e1397c8	0.14413369
176	0x3e0f99f1	0.14023568
177	0xbe164574	-0.14674932
178	0x3aa8054d	0.0012818963
179	0x3cafbb1d	0.021451527
180	0xbda77144	-0.081759006
181	0xbd25bdc8	-0.040464193
182	0xbda8bf48	-0.08239609
183	0x3dba225e	0.09088586
184	0xbc918c3f	-0.01776707
185	0xbc039dc1	-0.008033217
186	0x3e87be0c	0.26512182
187	0x3cb5fe50	0.022215992
188	0xbe74751c	-0.23872799
189	0xbde567d8	-0.11201447
190	0xbd77ea15	-0.060525972
191	0xbe6ee303	-0.23328786
192	0xbd8b0682	-0.06788351
193	0x3c800328	0.015626505
194	0x3ccb7f20	0.024840891
195	0x3e7c088e	0.24612638
196	0x3e6698ea	0.2251927
197	0x3e6496cc	0.2232315
198	0xbe5a3894	-0.21310645
199	0xbc60b4d6	-0.01371499
200	0x3dc36f5d	0.09542725
201	0x3e724d5f	0.23662327
202	0x3e7d134d	0.24714394
203	0x3da2e221	0.07953287
204	0x3debd417	0.11515062
205	0xbe131c8b	-0.14366357
206	0x3e4e27e2	0.20132402
207	0x3e4849dd	0.19559427
208	0xbce1f555	-0.027582804
209	0x3e3fcbd6	0.18730101
210	0x3d5232bd	0.05131792
211	0xbe096dee	-0.13420841
212	0x3e1e82c3	0.15479569
213	0xbe839c73	-0.257053
214	0xbe8ea383	-0.27859125
215	0xbe95e526	-0.2927639
216	0xbdb6f2ea	-0.08933051
217	0x3e97cbfa	0.2964781
218	0xbe0e04dd	-0.13869043
219	0x3e2ad326	0.16682109
220	0xbd293e49	-0.041319165
221	0x3e2b59d5	0.16733487
222	0x3d5989c4	0.0531099
223	0x3c501f52	0.01270278
224	0x3e3caec8	0.18426049
225	0x3c6e3419	0.014538788
226	0xbe97c333	-0.29641113
227	0x3b124200	0.002231717
228	0x3e9f7224	0.3114177
229	0xbdebacfa	-0.11507602
230	0xbe72cc08	-0.23710644
231	0xbd77c80c	-0.060493514
232	0xbe3ac9a4	-0.18240982
233	0x3cc036dc	0.023463659
234	0x3e9bba5f	0.30415627
235	0xbe20341a	-0.15644875
236	0x3da240d0	0.07922518
237	0xbe586e0f	-0.21135734
238	0xbe9c0365	-0.3047134
239	0xbd1fefde	-0.039047115
240	0xbd7a2035	-0.06106587
241	0xbe60e526	-0.21962413
242	0xbe2a0f25	-0.1660734
243	0x3e2b6983	0.16739468
244	0xbd7da43c	-0.061924204
245	0xbe53c818	-0.20681798
246	0xbe14d10e	-0.14532873
247	0x3e123949	0.14279665
248	0x3e2675fc	0.16255945
249	0xbe9788e0	-0.29596615
250	0xbcf09d37	-0.02937184
251	0x3d62ec4e	0.05540114
252	0xbc741cee	-0.0148994755
253	0xbe5f4260	-0.21802664
254	0x3e284ec1	0.16436292
255	0x3e81c210	0.2534337

lstm.weight_hh_l1 f4 [40, 10]
0	0xbe2fb4f0	-0.17158866
1	0x3e2f756d	0.17134638
2	0x3e6592dc	0.22419304
3	0x3e316dd4	0.17327052
4	0xbe3c08b7	-0.183627
5	0x3e7590ba	0.2398099
6	0xbe7eef5d	-0.24895997
7	0x3e7d1d69	0.2471825
8	0x3dcf0928	0.10109168
9	0xbe4b6d7c	-0.19865984
10	0xbe6ec016	-0.23315462
11	0xbe85bd9d	-0.26121226
12	0xbda25e39	-0.07928128
13	0x3d1c0942	0.038094766
14	0xbe8535d8	-0.26017642
15	0x3e9a1076	0.30090684
16	0xbe8120d8	-0.2522037
17	0x3d519dc2	0.05117584
18	0xbd6ef4cc	-0.058338925
19	0x3e8d495a	0.27595025
20	0xbce9e5f7	-0.028552039
21	0xbdeeb824	-0.11656216
22	0x3d8da248	0.06915718
23	0xbe919c4d	-0.2843956
24	0xbddfe9f4	-0.10933295
25	0x3db85e4c	0.09002361
26	0x3e55c41b	0.2087559
27	0xbd95009e	-0.07275508
28	0x3e636ae5	0.22208746
29	0xbe4e810d	-0.20166416
30	0xbdb587ce	-0.08863793
31	0xbe0bd00d	-0.13653584
32	0xbce0e54c	-0.027453087
33	0xbe424b4f	-0.1897404
34	0x3e46b9f4	0.19406873
35	0xbd0996ac	-0.033590958
36	0x3d3e7f39	0.046508048
37	0xbe028fd7	-0.12750183
38	0xbe722295	-0.23646004
39	0x3e6e0384	0.23243529
40	0xbd93394f	-0.07188665
41	0xbc94be54	-0.018157162
42	0xbe300af9	-0.17191686
43	0xbd2c439f	-0.042056676
44	0xbe3d91a3	-0.18512587
45	0x3e9cb04b	0.3060325
46	0x3d806db0	0.06270921
47	0xbe079c7b	-0.13243286
48	0x3e90721e	0.28212065
49	0xbe4d2559	-0.20033778
50	0xbe22f999	-0.15915526
51	0x3d205180	0.039140224
52	0xbdc1d9f5	-0.094654
53	0xbe90f5f6	-0.28312653
54	0x3df47cde	0.11937879
55	0x3d9a1a67	0.07524567
56	0x3d7e7b12	0.062129088
57	0xbe3280d2	-0.17431954
58	0x3e8b35fc	0.27189624
59	0x3e22c5cc	0.15895766
60	0x3e863b82	0.26217276
61	0x3d57b7ce	0.052665524
62	0x3e91db46	0.28487605
63	0xbd3f7c85	-0.04674961
64	0x3e582496	0.21107706
65	0x3e3cf122	0.1845136
66	0x3e1941e8	0.14966547
67	0xbe04a54f	-0.12953685
68	0x3dfd425c	0.12366173
69	0xbd7f1df7	-0.062284436
70	0xbe846356	-0.25857037
71	0x3d9778ff	0.07396125
72	0xbd84a4c6	-0.064767405
73	0xbe83b3ed	-0.2572321
74	0xbe33b1cb	-0.17548291
75	0x3e6bf657	0.2304319
76	0xbe36d2d6	-0.17853865
77	0xbe14ae87	-0.14519702
78	0x3dbbf61b	0.091778
79	0x3e4b3a3a	0.1984643
80	0xbe36f472	-0.17866686
81	0xbd38b084	-0.045090213
82	0xbbb34766	-0.005471158
83	0xbe9cff29	-0.30663422
84	0x3e126bf0	0.14298987
85	0xbea18609	-0.31547573
86	0x3dec28e6	0.11531238
87	0xbe84ae50	-0.2591424
88	0x3e6b69ff	0.22989653
89	0x3ea0e31c	0.3142327
90	0xbe9c6574	-0.30546153
91	0xbe1b38b7	-0.15158354
92	0x3e477c8a	0.19481102
93	0x3cea6a12	0.028615031
94	0xbc823763	-0.015895551
95	0x3b38cbac	0.002819757
96	0x3d8f4f6c	0.069975704
97	0xbe801e2c	-0.2502302
98	0xbe977977	-0.29584858
99	0x3e86157f	0.26188275
100	0xbc5bce0b	-0.013415824
101	0xbd59183d	-0.05300163
102	0xbd63801a	-0.05554209
103	0xbd5a7c97	-0.053341474
104	0xbe3ccd3b	-0.18437664
105	0xbe8603e5	-0.26174846
106	0x3e264430	0.16236949
107	0xbdc48632	-0.09595908
108	0xbd906174	-0.07049838
109	0x3e2b7bb7	0.16746412
110	0xbde2e100	-0.110780716
111	0xbe995515	-0.29947725
112	0xbda7bcd8	-0.08190316
113	0x3e99dca2	0.30051142
114	0x3e992a19	0.2991493
115	0x3deb4d70	0.114893794
116	0xbe003f3b	-0.1252412
117	0xbded6bba	-0.11592813
118	0x3e95a84a	0.29229957
119	0x3e9ffbff	0.31246945
120	0x3dfd4701	0.123670585
121	0xbdd4cc8a	-0.10390575
122	0xbdf1d3c0	-0.11807966
123	0xbe371d4f	-0.17882274
124	0xbe468656	-0.19387183
125	0x3dcc0c2f	0.09963261
126	0x3deabfa6	0.11462335
127	0x3e248897	0.1606773
128	0xbe87aab4	-0.26497424
129	0xbe59ac2d	-0.21257086
130	0x3e2a9511	0.16658427
131	0xbc2758a4	-0.010214005
132	0x3e9e4067	0.3090851
133	0xbdb2ffc6	-0.08740191
134	0x3e5eb00d	0.21746846
135	0xbe08fe3b	-0.13378231
136	0x3ca90234	0.020630933
137	0xbddba1a2	-0.107241884
138	0x3e9a0047	0.30078337
139	0xbe91e4c2	-0.2849484
140	0xbdd2c3e3	-0.10291269
141	0x3d24e775	0.040259797
142	0x3e30fa12	0.17282894
143	0xbe681e9b	-0.22667925
144	0xbca72842	-0.020404939
145	0xbd82e15c	-0.0639064
146	0x3e3bf0fa	0.18353644
147	0xbe75ae5a	-0.23992291
148	0x3dce90ad	0.100861885
149	0x3e0d127a	0.1377658
150	0xbe306ba6	-0.17228565
151	0x3e75351e	0.23946044
152	0xbba6ab59	-0.005086344
153	0xbe7d858c	-0.24757975
154	0xbdb5eec7	-0.08883434
155	0xbe94b54f	-0.29044577
156	0xbe93cdb8	-0.28867888
157	0x3e9fca74	0.31209147
158	0x3e42c11a	0.19018975
159	0x3e7b66af	0.2455089
160	0xbe3fdb85	-0.18736084
161	0x3e2db479	0.16963376
162	0x3d53f3e7	0.051746275
163	0x3d63085f	0.055427905
164	0x3e5211a5	0.20514543
165	0x3d149ea1	0.036284093
166	0xbe8fd4c9	-0.2809203
167	0xbe065947	-0.13119994
168	0xbd3c3d47	-0.045956876
169	0x3e3bf297	0.1835426
170	0xbdacd1ab	-0.084384285
171	0xbd36be75	-0.044615228
172	0x3de235f6	0.110454485
173	0x3e17b035	0.14813311
174	0x3e5a77c4	0.2133475
175	0xbe194b01	-0.14970018
176	0xbe23a428	-0.1598059
177	0x3e13d09b	0.14435045
178	0xbe1fe161	-0.15613319
179	0xbde85f1b	-0.11346265
180	0xbdfa9eb3	-0.12237301
181	0xbc9e97ee	-0.019359555
182	0xbda1aec1	-0.0789466
183	0xbdceeed0	-0.101041436
184	0x3e1b6abd	0.15177436
185	0x3d01a999	0.03165588
186	0x3e524619	0.20534553
187	0x3e0b2d8a	0.1359159
188	0x3e807f72	0.25097233
189	0xbe157201	-0.1459427
190	0xbe5bff44	-0.21484095
191	0xbd766d95	-0.0601631
192	0x3e631762	0.22176889
193	0x3dfd8bd8	0.12380189
194	0xbc2a0152	-0.010376291
195	0x3c8a9ed8	0.016921446
196	0x3cb830cd	0.022484208
197	0xbe609298	-0.21930921
198	0x3e1d7329	0.15375961
199	0xbd01589b	-0.03157864
200	0x3e7d39da	0.247291
201	0xbe1da31c	-0.15394253
202	0x3dddc89a	0.10829277
203	0x3e96e1b8	0.29469085
204	0xbe0eabd8	-0.1393274
205	0xbc8b5e66	-0.017012786
206	0x3e2c5c45	0.16832073
207	0xbe49e134	-0.19714814
208	0x3e796848	0.24356186
209	0xbdb18cbe	-0.086694226
210	0xbe9ced04	-0.3064958
211	0xbd8a9968	-0.06767541
212	0xbe801f68	-0.2502396
213	0x3d991000	0.07473755
214	0x3e90b7ed	0.28265324
215	0x3e29c9a8	0.16580832
216	0xbe1de39a	-0.15418854
217	0x3d06c85d	0.032905925
218	0x3e1aa4b1	0.15101887
219	0x3e66647d	0.2249927
220	0x3d4468ed	0.047951628
221	0x3e56ae8f	0.20965026
222	0x3d0b9539	0.034077857
223	0xbe8c5dcc	-0.2741531
224	0x3e82f340	0.2557621
225	0x3d55e410	0.05221945
226	0xbe857ba7	-0.26070902
227	0x3cdd2dd9	0.0269994
228	0xbe6dc843	-0.23220925
229	0xbd6ee451	-0.05832321
230	0xbe8c1b2d	-0.27364483
231	0x392b2885	0.00016322926
232	0x3e4fb7b4	0.20284921
233	0xbc86ff81	-0.016479256
234	0x3e34e287	0.17664538
235	0x3c48a374	0.0122460015
236	0xbddf9ea2	-0.10918929
237	0x3e966430	0.29373312
238	0xbe6a055c	-0.22853607
239	0xbe4a39f4	-0.1974867
240	0x3e2613f4	0.16218549
241	0x3ae77bd1	0.0017660802
242	0xbdc8862f	-0.097912185
243	0xbdf8fefb	-0.12158009
244	0x3b39e338	0.0028364193
245	0xbdd3562f	-0.103191726
246	0x3cf3b0b4	0.029747345
247	0x3e1ab6e5	0.15108831
248	0x3d35f86c	0.044426367
249	0xbdecd974	-0.115649134
250	0x3ca03bb9	0.019559728
251	0x3de90b5a	0.11379118
252	0xbe3f4441	-0.1867838
253	0xbdaf3cb4	-0.085565
254	0x3d27b315	0.04094227
255	0x3c8c6293	0.017136848

lstm.bias_ih_l1 f4 [40]
0	0x3cb3e5e9	0.021960216
1	0xbe8982b7	-0.2685754
2	0xbe6480ca	-0.22314754
3	0x3d3ef01e	0.046615712
4	0x3cece902	0.0289197
5	0xbd85fe6e	-0.06542669
6	0x3e31c026	0.17358455
7	0x3e32c196	0.1745666
8	0x3e636ae5	0.22208746
9	0xbe4b0d20	-0.19829226
10	0x3dacfd3f	0.0844674
11	0x3e42f7ae	0.19039795
12	0xbe9d533e	-0.3072757
13	0x3e88ea3f	0.26741216
14	0x3be86a92	0.0070927823
15	0xbe746836	-0.23867878
16	0xbd07a63c	-0.033117518
17	0xbe6b9aaf	-0.23008226
18	0xbe86d4cf	-0.26334235
19	0x3e1c56d8	0.15267503
20	0xbdc6feda	-0.09716578
21	0xbd85bb3c	-0.06529853
22	0xbe08b59c	-0.13350528
23	0x3e7bdd7a	0.24596205
24	0xbdca342c	-0.09873232
25	0xbe25199f	-0.16123055
26	0xbe8eabcf	-0.27865455
27	0x3e88fe15	0.2675635
28	0xbdff6500	-0.12470436
29	0x3e3aa324	0.18226296
30	0xbe8d5499	-0.27603605
31	0x3e836b2c	0.25667703
32	0x3d06e806	0.03293612
33	0x3de09d83	0.10967543
34	0x3da15fe5	0.078796186
35	0xbe5b6270	-0.2142427
36	0x3e92d5c3	0.28678712
37	0x3e473dcd	0.19457169
38	0xbe4c2377	-0.19935404
39	0xbdeb038a	-0.114752844

lstm.bias_hh_l1 f4 [40]
0	0xbda6cfee	-0.08145128
1	0x3e5a5fbe	0.21325585
2	0x3c074b7a	0.008257741
3	0x3e2c4b06	0.16825494
4	0x3d39536a	0.045245565
5	0x3e901dd8	0.2814777
6	0x3ddfd11c	0.10928556
7	0x3e26dabb	0.16294377
8	0x3d0f24ac	0.034947082
9	0x3cb08400	0.021547318
10	0x3e9c31b9	0.30506685
11	0x3d111128	0.035416752
12	0xbcc73621	-0.024317803
13	0x3dce1dd8	0.10064286
14	0x3e6aa97b	0.22916214
15	0xbda3f42e	-0.08005558
16	0x3e092eda	0.13396779
17	0xbb769563	-0.0037625663
18	0x3e3a9eb4	0.18224603
19	0xbdeb661a	-0.11494084
20	0xbe81b123	-0.25330457
21	0xbe355ebc	-0.1771192
22	0x3dab798d	0.08372793
23	0x3c21f218	0.00988438
24	0x3e07ca7c	0.13260835
25	0x3e835bcc	0.25655973
26	0x3e59e15f	0.21277378
27	0x3c90f517	0.017694993
28	0xbd0f56fe	-0.03499507
29	0xbda48d79	-0.08034796
30	0xbe227297	-0.15864025
31	0xbda33084	-0.07968238
32	0x3e94d319	0.29067305
33	0x3e90f6dc	0.2831334
34	0xbd6adefe	-0.05734157
35	0xbe18d790	-0.1492598
36	0xbd1b4908	-0.037911445
37	0xbdf7937a	-0.12088676
38	0xbe5f7000	-0.21820068
39	0xbdbbcfb9	-0.09170479

fc.weight f4 [1, 7200]
0	0x3b32c369	0.0027277118
1	0xbaebdd98	-0.0017995117
2	0x3bcbde78	0.0062215887
3	0x3b93991d	0.0045043365
4	0xbbf206fc	-0.0073860865
5	0xbb2bdc90	-0.0026223995
6	0x3be30735	0.0069283494
7	0x3c2ba961	0.010477395
8	0xbc15d8a6	-0.009145891
9	0x3be59fe9	0.007007588
10	0xbc0c3d34	-0.008559514
11	0x3c0a9ae4	0.00845978
12	0x3c00b217	0.00785496
13	0x3c3a6f62	0.011379095
14	0x3b1eb8db	0.002421907
15	0x3b93ae84	0.004506888
16	0xbbd2069c	-0.0064094793
17	0xbbf8c77f	-0.007592141
18	0x3c2d1768	0.0105646625
19	0x3ba94019	0.0051651117
20	0xbc0d8e86	-0.008639937
21	0x3b10d056	0.0022096834
22	0xbb1ffb9a	-0.002441144
23	0xbbb6a7ff	-0.005574226
24	0x3a79cd9b	0.0009529234
25	0x3b35c96f	0.0027738472
26	0xbb864e11	-0.0040986617
27	0xbb9c0f83	-0.0047625913
28	0x3b31293e	0.002703264
29	0xbb4e1aa3	-0.0031448982
30	0xba376a88	-0.00069967704
31	0xbb58a87e	-0.0033059414
32	0xbb8901aa	-0.0041811066
33	0xbb821cfc	-0.0039707404
34	0xbb909a68	-0.004412938
35	0xbbcaf748	-0.006194029
36	0x3c0ee95d	0.00872263
37	0xb9d5625b	-0.00040699806
38	0xbc1c3dfc	-0.009536263
39	0xba0e34f8	-0.0005424763
40	0xbbb0be1d	-0.005393757
41	0xb9130977	-0.00014022538
42	0x3c2648d5	0.0101492
43	0x3c27b102	0.010235073
44	0x3ac29f1f	0.0014848447
45	0x3a10eb89	0.00055282615
46	0x3b268462	0.0025408496
47	0xbb71694d	-0.0036836446
48	0xbbf8e25d	-0.007595344
49	0x3c2d702e	0.010585828
50	0x39df0e5d	0.00042544576
51	0x3c0d40ce	0.008621408
52	0xba828b00	-0.0009959638
53	0x3a6b91a6	0.0008986242
54	0x3c0f9729	0.008764067
55	0xbc0befbf	-0.008541047
56	0x3c1868d7	0.0093023395
57	0x3b9c071c	0.0047615897
58	0xbab2876c	-0.0013620681
59	0x3bcc5e7d	0.00623685
60	0xbbab4c07	-0.005227569
61	0x3b7eebfe	0.0038897987
62	0x39ee6e06	0.0004547687
63	0xbc33b17b	-0.010967608
64	0x3bdb5437	0.006693389
65	0xbad9e8d5	-0.0016625175
66	0x3a8e75e2	0.0010868872
67	0x3b045650	0.0020193048
68	0x3c0efbfc	0.00872707
69	0x3a729b8c	0.00092547457
70	0x3b0fa169	0.0021916276
71	0xbbdb6bb1	-0.0066961874
72	0xbbf5304e	-0.007482565
73	0xbb9ffad0	-0.004882194
74	0x3c240768	0.010011531
75	0x3ba568f9	0.005047914
76	0x3c39c7ed	0.01133917
77	0xbbd10c18	-0.0063796155
78	0x3c0b3899	0.008497381
79	0x3bf3c85d	0.0074396566
80	0xba9f2699	-0.001214224
81	0x3acf3d30	0.0015811082
82	0x3bb03a6d	0.0053780586
83	0xbbe41e2f	-0.006961606
84	0xbaa2923b	-0.0012403199
85	0x3c20386d	0.009779078
86	0x3b976cc9	0.0046211225
87	0x3ba7cb80	0.0051206946
88	0xbbcd422e	-0.0062639927
89	0x3c01a2dc	0.007912364
90	0x3c14dc52	0.009085732
91	0x3c32c626	0.0109115
92	0xb9f78541	-0.00047210793
93	0x3b78c9cb	0.0037962075
94	0x3c152c30	0.009104773
95	0xbb8f9b67	-0.004382539
96	0xbc2d324a	-0.010571072
97	0xbaed80a0	-0.0018119998
98	0x3a9f72c7	0.0012164944
99	0x3b9f793f	0.0048667486
100	0xbad49e4d	-0.0016221494
101	0x3c2c330c	0.010510217
102	0xbc1078ca	-0.008817861
103	0x3b5663fb	0.0032713402
104	0xbbff699d	-0.0077945725
105	0x3b083017	0.0020780617
106	0xba96e3e1	-0.0011512005
107	0x3b8c09fc	0.004273651
108	0xbc04c7fb	-0.00810432
109	0x3c1917d5	0.009344061
110	0x3bc3b6e4	0.00597273
111	0x3bf6d2e6	0.0075324653
112	0x3c31c793	0.010850805
113	0xbbaae71a	-0.0052155377
114	0x3aa3595a	0.0012462542
115	0xbb3f529a	-0.0029193521
116	0x3b7979dd	0.003806702
117	0x3bede0b2	0.007259452
118	0x3c3350b5	0.010944535
119	0xbb707dc9	-0.0036696068
120	0x39ff3f44	0.00048684527
121	0x3bc7a0e2	0.006092177
122	0xbc3847cf	-0.011247589
123	0xbc2dc342	-0.010605635
124	0xbc096649	-0.008386203
125	0x3911e34f	0.00013912957
126	0x3b451d61	0.0030077326
127	0x3b95eb3c	0.0045751613
128	0x3bbdfef4	0.005798215
129	0xbc1e4fb1	-0.009662555
130	0x39466eee	0.00018924076
131	0x3c1d9890	0.009618893
132	0xbafe036d	-0.0019379683
133	0x3beb52cd	0.0071815015
134	0x3afa285a	0.0019085512
135	0xbc3dfaf8	-0.01159548
136	0x3c31726a	0.010830501
137	0x3ba2958b	0.0049616746
138	0xbc04bca4	-0.008101616
139	0x3b8ccaac	0.0042966213
140	0xbc3d5fdb	-0.011558498
141	0xbb84461b	-0.0040366775
142	0x3a52e69f	0.00080452295
143	0x3b99c92f	0.0046931724
144	0xb9d86ea0	-0.00041281153
145	0x3b96498d	0.0045864047
146	0x3c2a7a03	0.010405066
147	0xbbbe083e	-0.0057993224
148	0xbbf3271b	-0.007420433
149	0x3bf7f1e1	0.007566676
150	0x3c38c152	0.01127656
151	0xbb83039f	-0.0039982344
152	0x3badeb07	0.0053075585
153	0xbbffab5f	-0.0078024114
154	0x3a2388df	0.0006238352
155	0xbbe81843	-0.0070829703
156	0xbc22d332	-0.009938048
157	0xbc255b99	-0.010092639
158	0xbb8a4da3	-0.004220681
159	0xbb45678e	-0.0030121538
160	0x3c1dfc7b	0.009642716
161	0xb7e39b1c	-2.7132737e-05
162	0x3c0022c7	0.007820792
163	0x3bcaf0a8	0.0061932392
164	0x3c26efba	0.010188991
165	0xbc0f7153	-0.008755046
166	0xbc028410	-0.0079660565
167	0x3c076066	0.008262729
168	0x3c3daffe	0.011577604
169	0xbbb1d94f	-0.0054275165
170	0x3ae7174a	0.0017630842
171	0x39b4afe9	0.0003446334
172	0x3c2b56a6	0.01045767
173	0x3c0efeb0	0.008727714
174	0xbabddd27	-0.0014485464
175	0xba962cb0	-0.001145741
176	0xbb13e9aa	-0.0022569695
177	0xba83d3e6	-0.0010057657
178	0x3c3ba4b3	0.011452842
179	0x3c35b714	0.0110910125
180	0xbb036aea	-0.002005274
181	0xbb2c248c	-0.00262669
182	0xbc046778	-0.0080813095
183	0x3b9672d0	0.0045913234
184	0xba85acdc	-0.0010198611
185	0xbc16fdb3	-0.00921576
186	0x3be4ffff	0.006988525
187	0xbc2a0889	-0.0103780115
188	0xbb3f4469	-0.0029185063
189	0x3bc7b77d	0.0060948716
190	0x3bfb2628	0.0076644607
191	0x3bd0fa6a	0.006377508
192	0xbb16b706	-0.0022997274
193	0x3ba9abda	0.005177957
194	0x3c401b09	0.011725196
195	0xbbd5dde6	-0.0065266965
196	0xba67f1ed	-0.00088480004
197	0xbbb13f87	-0.0054091844
198	0x3c2f9156	0.010715803
199	0xba8e24fd	-0.0010844764
200	0x37f6e5eb	2.943255e-05
201	0xbab3454e	-0.0013677271
202	0x3c0c65c9	0.008569189
203	0x3a3ef629	0.00072846055
204	0x3a098149	0.00052454
205	0x3c003e1f	0.007827311
206	0xbc1b13ce	-0.009465171
207	0x3c15da9d	0.00914636
208	0xbc0acac0	-0.008471191
209	0xbc211c82	-0.009833457
210	0x3b95787c	0.004561482
211	0x3c029a9a	0.00797143
212	0xbc0431a1	-0.008068473
213	0x3c109611	0.008824841
214	0x3c2dc9bd	0.01060718
215	0xbb6eedba	-0.0036457614
216	0xba96d8e5	-0.0011508731
217	0xbbed322c	-0.007238647
218	0xba277e1c	-0.0006389336
219	0x3b8c1717	0.0042752135
220	0x3ae801d0	0.0017700735
221	0x3b68c38f	0.0035516953
222	0x3a3ebe58	0.0007276288
223	0x3c0ef14d	0.008724523
224	0x3c0ebd86	0.008712178
225	0x3b40a438	0.0029394757
226	0xbb9391fb	-0.004503486
227	0xbc35c8c3	-0.011095229
228	0x3c00f30d	0.007870448
229	0x3c05f3de	0.008175818
230	0xba8630c2	-0.001023792
231	0xbb0264e3	-0.001989656
232	0xbb0e4d9a	-0.0021713735
233	0x3bfdd483	0.0077462806
234	0xbbd7ccf5	-0.006585712
235	0xbc059f7b	-0.008155699
236	0x3b27e863	0.002562069
237	0xbb2febd8	-0.0026843455
238	0x397cf203	0.00024122749
239	0x3c08a1b0	0.008339331
240	0xbbffd5d3	-0.0078074723
241	0xbba7d956	-0.005122344
242	0x3b734328	0.0037118886
243	0x3c3fd972	0.011709558
244	0xbb70b746	-0.0036730333
245	0x3b696d38	0.0035618078
246	0xbbc03a2e	-0.0058663106
247	0xbbd5f50f	-0.0065294574
248	0x3be426b7	0.006962623
249	0xbc042ebe	-0.008067785
250	0xbb9b46c9	-0.004738663
251	0x3c3b4bb7	0.011431626
252	0x3b2692b0	0.0025417022
253	0xbb76537a	-0.0037586377
254	0x3a474888	0.00076020556
255	0xbbe24c0f	-0.0069060395
