DeepLearning/timeSerise/.lr_find_43eeac0b-4c1a-4713-8318-2ef9e58d0dde.ckpt (torch, 47861 bytes, 9 tensors)

lstm.weight_ih_l0 f4 [40, 50]
0	0xbc98e94b	-0.01866593
1	0xbdf35a37	-0.118824415
2	0x3dcdd092	0.10049547
3	0x3e42ba09	0.1901628
4	0xbe2d6f60	-0.16937017
5	0x3de689f6	0.11256783
6	0x3d4ce8d3	0.050026726
7	0x3d10292d	0.03519552
8	0xbe2d9def	-0.16954778
9	0x3e3a0ae2	0.18168214
10	0x3d31175a	0.04323516
11	0x3e2abc0b	0.16673295
12	0x3e67bfa0	0.22631693
13	0x3db4019d	0.0878937
14	0xbdfd3042	-0.1236272
15	0xbd1a7448	-0.03770855
16	0x3e12f5f2	0.14351633
17	0x3e5c2b12	0.21500805
18	0x3e8993ba	0.2687052
19	0xbdc4d892	-0.0961162
20	0xbe1eba69	-0.15500797
21	0x3e87baff	0.26509854
22	0xbd5bf90d	-0.05370431
23	0xbe832a79	-0.25618342
24	0x3e7c8c56	0.24662909
25	0x3bbfb692	0.0058506215
26	0xbd73e562	-0.05954493
27	0xbe7d1042	-0.24713233
28	0x3e229c9e	0.15880057
29	0xbdea530f	-0.114416234
30	0xbe50670a	-0.20351806
31	0x3e6f3bbf	0.23362635
32	0x3e9d8020	0.30761814
33	0xbd80a32f	-0.06281125
34	0x3d623776	0.055228673
35	0xbdb725ec	-0.0894278
36	0x3e58b9ad	0.2116458
37	0x3ebea2da	0.3723362
38	0x3e8995ca	0.26872092
39	0x3e83f08b	0.25769457
40	0xbe262da2	-0.16228345
41	0x3e36ba17	0.17844425
42	0x3d84c476	0.064827845
43	0xbe4e8a2a	-0.20169893
44	0x3e26faca	0.16306606
45	0xbe1a68fe	-0.15079114
46	0x3e380428	0.17970335
47	0xbe8b1c91	-0.27170232
48	0xbea37d31	-0.3193145
49	0xbe15fd6d	-0.14647456
50	0x3dfd6595	0.12372891
51	0x3db85dc2	0.09002258
52	0xbe56acc4	-0.20964342
53	0xbdb0b408	-0.08628088
54	0xbe8ea1e5	-0.2785789
55	0x3e49921a	0.1968464
56	0xbe785d3b	-0.24254315
57	0xbe459e56	-0.19298682
58	0xbe9053e3	-0.28189
59	0xbddbc0ec	-0.10730156
60	0x3d9f1572	0.07767762
61	0x3a811b64	0.0009850082
62	0x3e8e2afa	0.27767164
63	0x3a8f0e54	0.0010914304
64	0xbd954cdd	-0.07290051
65	0x3e847374	0.25869334
66	0xbca415cb	-0.020029923
67	0xbe81fd0e	-0.25388378
68	0xbe962250	-0.29323053
69	0x3e39ad90	0.18132615
70	0xbe2894e3	-0.16463046
71	0x3e850a12	0.25984246
72	0xbe5b740f	-0.21430992
73	0x3e9332e9	0.2874978
74	0xbae24213	-0.0017262123
75	0xbd1840c6	-0.037171148
76	0xbd8d4177	-0.06897252
77	0xbe0d5fab	-0.13806026
78	0x3c6ef876	0.014585605
79	0x3cb7ae9c	0.022422127
80	0xbe4b0c20	-0.19828844
81	0x3d896746	0.06709151
82	0x3da5bbe4	0.08092478
83	0xbeb71976	-0.35761613
84	0x3d916776	0.07099812
85	0xbe9c96d2	-0.30583817
86	0x3e0803f1	0.13282754
87	0xbe43199b	-0.19052736
88	0xbeab804f	-0.3349633
89	0xbe890050	-0.2675805
90	0xbc4baa5e	-0.012430755
91	0x3e81fb1c	0.25386894
92	0xbda2feb7	-0.07958739
93	0xbe205e3c	-0.15660948
94	0xbe394150	-0.18091321
95	0x3e75633c	0.23963636
96	0xbe8d5457	-0.2760341
97	0xbe34625a	-0.17615643
98	0x3ddf1cb3	0.10894146
99	0x3e3c9439	0.18415917
100	0x3e83921a	0.25697404
101	0x3d2e9ac4	0.042628065
102	0xbbbf2a73	-0.0058339178
103	0x3e9dafeb	0.30798277
104	0xbd248dcb	-0.040174287
105	0xbc046f7f	-0.008083223
106	0x3e1277aa	0.1430346
107	0xbdb4e891	-0.08833421
108	0xbe493364	-0.1964851
109	0x3e358654	0.17727023
110	0xbe829246	-0.25502223
111	0x3dabe0fa	0.0839252
112	0x3dbb34ea	0.09140952
113	0x3e3ba2a4	0.18323761
114	0x3e8b7bb1	0.27242807
115	0xbe3a0524	-0.18166023
116	0x3d817a33	0.06322136
117	0xbda2d4a3	-0.079507135
118	0xbea31cdc	-0.31857955
119	0x3d7790a8	0.06044069
120	0x3d50e15d	0.050996173
121	0x3e8c286a	0.27374583
122	0xbe0901fe	-0.13379666
123	0x3e9e4a6a	0.30916148
124	0xbe8b773b	-0.27239403
125	0x3dc277fe	0.09495543
126	0xbe9507fd	-0.29107657
127	0x3e1bf6e6	0.15230903
128	0x3db9c1c1	0.09070159
129	0xbe5bc00c	-0.21459979
130	0x3e223cde	0.15843531
131	0x3e14d146	0.14532956
132	0xbe5d4a75	-0.21610434
133	0xbc814bf6	-0.015783291
134	0xbe976622	-0.2957011
135	0xbd560d96	-0.05225905
136	0x3db7b8f2	0.089708224
137	0x3dfefbf0	0.12450397
138	0x3e3271b1	0.17426182
139	0x3e7cdbcb	0.2469322
140	0xbe3b6585	-0.18300445
141	0x3e88a154	0.26685584
142	0xbe806872	-0.25079685
143	0xbe96da67	-0.29463503
144	0xbe484ba1	-0.195601
145	0xbdfe31f7	-0.12411874
146	0xbe3cc51c	-0.18434566
147	0x3e0a0ab1	0.13480641
148	0xbe5a1f61	-0.21301033
149	0x3d188eb3	0.037245464
150	0x3e187cd6	0.14891371
151	0x3e86dcea	0.2634042
152	0xbc9b0f79	-0.018928276
153	0xbaae629b	-0.0013304533
154	0x3c01e771	0.007928715
155	0x3e8462fb	0.25856766
156	0xbe398c4b	-0.18119924
157	0xbe80fdc6	-0.25193614
158	0x3e96b7f9	0.29437235
159	0xbe4d3901	-0.20041277
160	0xbdd93820	-0.10606408
161	0xbe228ea6	-0.15874729
162	0x3e81e1da	0.25367624
163	0x3c542c26	0.012949979
164	0x3e6be857	0.2303785
165	0x3dc7ecd9	0.09761972
166	0xbe5f25ec	-0.2179181
167	0xbd606b99	-0.054790113
168	0x3cb0afa1	0.021568121
169	0xb9674cb4	-0.00022058451
170	0xbe9d3a77	-0.30708668
171	0xbdf29f87	-0.11846834
172	0xbe5a3974	-0.21310979
173	0xbea69fc4	-0.32543766
174	0xbdf9b5f9	-0.12192912
175	0x3dccd02f	0.10000645
176	0x3d89675f	0.067091696
177	0xbe80c7b7	-0.2515237
178	0xbd89e5dc	-0.06733295
179	0x3e92ce5b	0.28673062
180	0x3d2b0c4b	0.04175977
181	0xbe5a23a0	-0.21302652
182	0xbe4edcba	-0.20201388
183	0xbc5c4ba5	-0.013445769
184	0x3e845542	0.25846297
185	0xbe2493b0	-0.16071963
186	0x3e85a365	0.26101223
187	0x3e36dee7	0.17858468
188	0xbd775e9f	-0.060392972
189	0xbe149ca8	-0.14512885
190	0xbe8ba113	-0.27271327
191	0xbe95d445	-0.2926351
192	0xbe33f3ea	-0.17573515
193	0x3e6676b4	0.22506219
194	0x3e836b5e	0.25667852
195	0xbe22dca7	-0.15904485
196	0xbd4bed94	-0.04978712
197	0xbe7f0e78	-0.24907863
198	0x3c31c714	0.010850687
199	0x3e8d9f44	0.27660573
200	0x3e3c9f34	0.18420106
201	0x3d7f448b	0.062321227
202	0xbe97e38e	-0.29665798
203	0xbdb4446e	-0.088021144
204	0x3dbb1816	0.091354534
205	0xbe5a1b8d	-0.21299572
206	0x3dce3680	0.10068989
207	0x3db23ab7	0.08702605
208	0x3e841001	0.2579346
209	0x3d8b4a09	0.068012305
210	0x3e8e2813	0.2776495
211	0x3e534d65	0.20634992
212	0xbdc2f665	-0.09519652
213	0xbe84dab3	-0.25948104
214	0x3e5190f4	0.20465451
215	0xbe8a5b9d	-0.2702302
216	0xbe8cbc7d	-0.27487555
217	0x3e8c2a0a	0.27375823
218	0xbe16ccd5	-0.14726575
219	0x3eac9052	0.33703858
220	0xbe9d8a44	-0.3076955
221	0xbe83f481	-0.2577248
222	0xbd790c07	-0.060802486
223	0xbe8897a1	-0.26678184
224	0x3e3eb109	0.18622221
225	0x3e2ba878	0.16763484
226	0xbe402f10	-0.18767953
227	0x3eb39684	0.35075772
228	0x3e8f71c3	0.2801648
229	0xbd781619	-0.06056795
230	0x3e92acc9	0.2864745
231	0x3e0879d4	0.13327724
232	0xbe823b44	-0.2543584
233	0x3e791dcd	0.24327774
234	0xbe8358ed	-0.25653782
235	0x3e447206	0.19184121
236	0x3e702b91	0.2345412
237	0x3e364f3e	0.17803666
238	0xbe35aa37	-0.17740713
239	0x3e2b486d	0.16726847
240	0x3e2ad94d	0.16684456
241	0x3d65d29f	0.056109067
242	0xbde6337c	-0.112402886
243	0xbe1d59f7	-0.1536635
244	0x3e9b7d7d	0.30369177
245	0x3e04305e	0.12909076
246	0xbe73d3c8	-0.23811257
247	0x3e48056c	0.19533318
248	0x3e9a84d9	0.3017948
249	0x3e3bd731	0.18343808
250	0x3ded324a	0.115818575
251	0x3e52107d	0.20514102
252	0x3b824626	0.0039756475
253	0xbe2f7bdb	-0.17137091
254	0xbeafc781	-0.34331897
255	0x3e5a430e	0.21314642

lstm.weight_hh_l0 f4 [40, 10]
0	0x3ce36f96	0.02776317
1	0x3e0cba68	0.13742983
2	0x3e221e06	0.15831766
3	0xbd09d63b	-0.03365157
4	0x3d9d39ae	0.07677017
5	0x3bb5c845	0.0055475556
6	0xbe39250a	-0.18080536
7	0x3e12485b	0.14285414
8	0xbd62742a	-0.055286564
9	0xbea9b3ab	-0.33144888
10	0x3b12dba0	0.0022408739
11	0x3e30e40d	0.17274494
12	0x3e3e8e8a	0.18609062
13	0x3e889e20	0.2668314
14	0xbe86e6f7	-0.26348087
15	0xbd15f611	-0.03661162
16	0xbe0c1379	-0.13679303
17	0xbe4b2acf	-0.19840549
18	0x3e5c4e3d	0.2151422
19	0xbe907d7a	-0.2822073
20	0x3db57e16	0.088619396
21	0xbe794373	-0.24342136
22	0x3d96fec3	0.07372811
23	0x3dc9f87e	0.09861849
24	0xbe4ba190	-0.1988585
25	0x3e8caa64	0.27473748
26	0xbd61c2c7	-0.055117395
27	0x3d822031	0.06353796
28	0x3e0eb837	0.1393746
29	0xbe51998c	-0.2046873
30	0xbe40d2a7	-0.18830357
31	0x3e01f5d5	0.12691434
32	0xbdc2e691	-0.09516633
33	0x3e694cca	0.22783199
34	0x3e2f7521	0.17134525
35	0xbe8ec890	-0.27887392
36	0x3e321ebb	0.17394535
37	0x3e12a328	0.14320052
38	0x3e338f62	0.17535165
39	0x3e91dc46	0.28488368
40	0x3e5d2640	0.21596622
41	0xbe173009	-0.14764418
42	0x3d8d1131	0.068880446
43	0x3eb404dd	0.3515996
44	0x3e12fb66	0.14353713
45	0x3e852c11	0.26010182
46	0x3de1d01a	0.1102602
47	0x3ddd870c	0.10816774
48	0x3cef9cf5	0.029249648
49	0xbe716d0e	-0.23576757
50	0xbde185d1	-0.110118516
51	0xbe9fa3e7	-0.31179735
52	0x3e784fdb	0.24249212
53	0x3e743ec8	0.23852074
54	0x3e14f667	0.1454712
55	0xbe0b2e21	-0.13591816
56	0x3cc42c28	0.023946837
57	0xbddb135e	-0.106970534
58	0xbe426fab	-0.1898791
59	0xbbedf352	-0.007261672
60	0x3cd5b1e7	0.026085807
61	0x3e2a1728	0.16610396
62	0x3a1b98b1	0.00059355336
63	0x3e710ffe	0.23541257
64	0xbe36517a	-0.17804518
65	0xbe6dbf2e	-0.2321746
66	0x3e2311df	0.15924786
67	0x3e34bac5	0.17649372
68	0x3e0e2504	0.13881308
69	0xbdcbfb90	-0.09960091
70	0xbe6630fa	-0.2247962
71	0xbdb91748	-0.09037644
72	0x3e9c8820	0.30572605
73	0x3e1ab46a	0.15107885
74	0xbdd89fcf	-0.10577356
75	0x3e37f7e0	0.1796565
76	0x3de5b1d4	0.11215559
77	0x3bc45641	0.0059917276
78	0x3e655393	0.22395162
79	0x3e91cc59	0.28476217
80	0xbd2d6fc6	-0.042342924
81	0xbcace329	-0.021104412
82	0xbe4c26f2	-0.19936731
83	0x3e831a16	0.2560584
84	0x3dc20943	0.09474423
85	0xbd20eb13	-0.039286684
86	0xbdf21dc5	-0.11822084
87	0xbe61b645	-0.22042187
88	0xbdca8fd5	-0.09890715
89	0x3e7165e0	0.23574018
90	0xbe6a062b	-0.22853915
91	0xbdc4791e	-0.09593414
92	0xbea2df53	-0.31811008
93	0xbccf2af0	-0.025289029
94	0xbdbcd88a	-0.09220989
95	0xbe4f8372	-0.20264986
96	0xbe3b08e3	-0.18265109
97	0xbe712c9a	-0.2355217
98	0x3d8425c3	0.06452515
99	0x3e39e325	0.18153055
100	0xbd9ddfd9	-0.07708711
101	0xbe90c08d	-0.28271905
102	0x3da8c99e	0.082415804
103	0x3e1f583b	0.15561001
104	0x3e4f7105	0.20257957
105	0x3cf61e3b	0.030043712
106	0x3e9fffa7	0.31249735
107	0xbdd43737	-0.10362094
108	0x3d809c24	0.062797815
109	0x3e267a18	0.16257513
110	0x3d910211	0.07080472
111	0x3d6af2c5	0.05736043
112	0x3e3f73ca	0.18696514
113	0xbe81eb10	-0.2537465
114	0xbcd46874	-0.025928713
115	0xbe31902b	-0.17340152
116	0x3e8eae1d	0.27867213
117	0xbe04578b	-0.1292402
118	0xbe6ae440	-0.22938633
119	0xbe39d117	-0.18146168
120	0xbe0c0261	-0.13672782
121	0xbd73c70e	-0.059516005
122	0xbd2b1753	-0.04177029
123	0xbd3df1ef	-0.046373304
124	0xbd93af0c	-0.07211122
125	0x3c96a332	0.018388364
126	0xbd659a88	-0.056055576
127	0xbe9bbeec	-0.304191
128	0xbcf1571d	-0.029460484
129	0x3e85bc8d	0.26120415
130	0xbb3ff49a	-0.002929008
131	0xbe37276a	-0.17886129
132	0xbde5d899	-0.11222953
133	0x3e0987ef	0.13430761
134	0x3e969d88	0.29417062
135	0xbdef7189	-0.11691577
136	0xbe7826ba	-0.24233523
137	0xbe146cc6	-0.14494619
138	0x3dab4bb9	0.08364052
139	0x3d9c9970	0.076464534
140	0xbd6e2cf0	-0.058148324
141	0x3eb458a2	0.3522387
142	0xbe894127	-0.2680752
143	0xbe21be3f	-0.1579523
144	0x3a301002	0.00067162525
145	0x3e35279f	0.17690895
146	0x3ce8072a	0.028323729
147	0x3d2e78a2	0.042595513
148	0xbe96b8b5	-0.29437795
149	0x3eae808c	0.34082448
150	0x3ca95a1c	0.02067285
151	0x3e6221bf	0.22083186
152	0x3e1df72a	0.15426317
153	0x3d0a975c	0.033835754
154	0x3c853ae0	0.016263425
155	0x3e320806	0.17385873
156	0x3db96c7d	0.090538956
157	0x3eb08b3c	0.34481227
158	0x3e77d8dc	0.24203819
159	0x3dcd6ef5	0.10030929
160	0xbc12fab4	-0.008970905
161	0xbebeba3b	-0.37251458
162	0xbd3f9226	-0.046770237
163	0xbdc7e6b2	-0.097607985
164	0x3e827308	0.25478387
165	0x3cf0be69	0.02938767
166	0x3e460cfc	0.1934089
167	0x3dcf1a8f	0.101124875
168	0x3e9323e8	0.28738332
169	0x3d1addd3	0.037809204
170	0xbe8a38df	-0.26996514
171	0xbe53c04f	-0.20678829
172	0xbc8f0f3e	-0.017463323
173	0x3e2af17c	0.16693681
174	0x3e324ce8	0.1741215
175	0x3bed0b78	0.007234033
176	0xbe82f73d	-0.25579253
177	0xbe887c20	-0.266572
178	0x3dfa0a04	0.122089416
179	0x3d28976f	0.041160043
180	0x3e75b9ab	0.23996608
181	0xbe57f6bd	-0.21090217
182	0x3c842c6e	0.016134467
183	0xbdb4ad76	-0.088221475
184	0x3dc1c9ba	0.094623044
185	0xbd5a6cab	-0.05332629
186	0xbca32dc1	-0.019919278
187	0xbe7e5550	-0.24837232
188	0xbd40a4a3	-0.04703201
189	0xbcd0fd67	-0.025511457
190	0x3deb5dd3	0.11492505
191	0xbd710c0c	-0.05884938
192	0xbeaec8b4	-0.341375
193	0xbe81d00d	-0.25354043
194	0x3e407768	0.1879555
195	0x3d968398	0.07349318
196	0x3e166822	0.14688161
197	0x3e990353	0.2988535
198	0x3d75558b	0.059896033
199	0x3e93245b	0.28738675
200	0xbe7a06ad	-0.24416609
201	0xbd49bbe8	-0.049251467
202	0x3dfddeed	0.12396035
203	0xbde1fe6a	-0.11034854
204	0xbeb1ce20	-0.34727573
205	0xbe722b79	-0.23649396
206	0x3e924c98	0.2857406
207	0x3e71adc3	0.23601441
208	0x3e3a69f9	0.18204488
209	0xbe1b4608	-0.15163434
210	0xbe334c9b	-0.17509691
211	0xbe525c71	-0.20543076
212	0xbcfb7312	-0.030694518
213	0xbce8f397	-0.028436465
214	0x3e797059	0.24359263
215	0xbe137b84	-0.14402586
216	0xbe48934f	-0.19587444
217	0xbe4504f8	-0.19240177
218	0xbd59f3db	-0.053211074
219	0xbced5845	-0.028972754
220	0xbd68998b	-0.056787055
221	0xbdccc0c9	-0.09997708
222	0x3e8ea608	0.27861047
223	0x3e871362	0.26381975
224	0x3e3798f3	0.17929439
225	0xbb3d91c2	-0.002892599
226	0xbd59f14d	-0.053208638
227	0x3e1533f9	0.14570607
228	0xbe13f5af	-0.1444919
229	0xbdbc612e	-0.09198223
230	0xbd70b0ba	-0.05876229
231	0x3d447fa3	0.047973286
232	0xbdec783e	-0.11546372
233	0xbdb19d6f	-0.08672606
234	0x3e7b196f	0.24521421
235	0x3df1e373	0.118109606
236	0xbe20c490	-0.15699983
237	0x3e6a851c	0.2290234
238	0xbd630df3	-0.055433225
239	0xbe71d30a	-0.23615661
240	0xbda7d014	-0.08193985
241	0x3dbc73df	0.09201788
242	0xbe22002b	-0.15820377
243	0xbe517ac9	-0.20456995
244	0xbe7c1c54	-0.24620181
245	0xbe5f675d	-0.21816774
246	0xbbc37d65	-0.005965876
247	0xbe80afe3	-0.2513419
248	0x3d580d9b	0.05274735
249	0x3e3aa7fe	0.18228146
250	0xbd5c338a	-0.05376009
251	0x3c5d6132	0.013511943
252	0xbe2fd6f9	-0.1717185
253	0x3e978835	0.29596105
254	0x3da519c1	0.08061553
255	0xbe495fda	-0.1966547

lstm.bias_ih_l0 f4 [40]
0	0x3d2bb7ea	0.04192344
1	0x3e42b197	0.19013058
2	0xbd136aa5	-0.035990376
3	0x3e8385be	0.25687975
4	0x3d82af80	0.0638113
5	0x3c350b25	0.01105002
6	0x3e7d66e6	0.24746284
7	0x3e06f466	0.13179168
8	0x3ea838bd	0.32855788
9	0x3cf2ac76	0.029623251
10	0xbd5d6012	-0.054046698
11	0x3bf04129	0.0073319864
12	0x3e93631c	0.28786552
13	0x3e81f685	0.25383392
14	0xbdeeae40	-0.11654329
15	0xbd12091d	-0.035653222
16	0x3c3a8ce0	0.011386126
17	0xbe6153f1	-0.22004677
18	0x3e7fd6c0	0.24984264
19	0x3d01fee2	0.031737216
20	0x3de56bf2	0.112022296
21	0x3e8c9e3a	0.27464467
22	0xbe29ce3a	-0.16582575
23	0xbe127880	-0.1430378
24	0x3d89702f	0.067108504
25	0x3e9ffca1	0.31247428
26	0xbe320ac1	-0.17386915
27	0x3e3d149a	0.1846489
28	0x3e0fb818	0.1403507
29	0x3e5c8563	0.21535258
30	0x3e1bd199	0.15216674
31	0x3e931a0b	0.28730807
32	0xbe1af802	-0.1513367
33	0xbe855b5a	-0.26046258
34	0xbe74dd2c	-0.23912495
35	0x3e8b73ab	0.27236685
36	0xbe2a96ad	-0.16659041
37	0xbea1844b	-0.31546244
38	0x3eac2f6f	0.3362994
39	0x3e9769c7	0.2957289

lstm.bias_hh_l0 f4 [40]
0	0x3e66fdb8	0.22557724
1	0xbe637805	-0.22213753
2	0x3e12df75	0.14343055
3	0x3df3219d	0.118716456
4	0x3ea71637	0.32634136
5	0x3d9c62cd	0.07636032
6	0xbe819a00	-0.25312805
7	0x3e92814b	0.28614268
8	0xbe80295c	-0.25031555
9	0x3dc5de7b	0.096615754
10	0xbdea9d0c	-0.114557356
11	0xbe51b98e	-0.2048094
12	0x3e91b022	0.2845469
13	0xbe9fed6d	-0.3123583
14	0xbe39864c	-0.18117636
15	0x3e07ca91	0.13260867
16	0x3e3e12a2	0.18561795
17	0x3e5452b2	0.20734671
18	0xbe485a59	-0.19565715
19	0x3b5a2b5d	0.0033290007
20	0x3e3993fc	0.18122858
21	0x3e51f331	0.20502926
22	0x3dd7a851	0.10530151
23	0x3e9f243e	0.31082338
24	0xbe7b0dba	-0.24516955
25	0x3d6d3e3e	0.057920687
26	0xbd6e9131	-0.058243934
27	0x3dff1678	0.124554574
28	0x3de7661d	0.112987734
29	0x3d6f8756	0.058478676
30	0x3e951fd1	0.29125836
31	0xbe9f1af5	-0.31075254
32	0x3e3a3d76	0.18187508
33	0x3cd9c5c7	0.026583565
34	0x3e4af787	0.19820987
35	0x3d731169	0.059342775
36	0xbe3bdf69	-0.18346943
37	0xbe1f812e	-0.15576622
38	0x3da567d7	0.080764465
39	0x3e8b84c9	0.27249745

lstm.weight_ih_l1 f4 [40, 10]
0	0xbe8dd44c	-0.27701032
1	0xbe08e278	-0.13367641
2	0xbd59cd82	-0.053174503
3	0xbd98c56d	-0.07459531
4	0xbdcf32f5	-0.10117141
5	0xbe4ee0cc	-0.2020294
6	0xbdc69162	-0.09695698
7	0xbd12e3d9	-0.035861824
8	0x3c8fd51e	0.017557677
9	0xbe71543b	-0.23567288
10	0xbe8f6a5d	-0.28010836
11	0xbe9326fd	-0.28740683
12	0xbe821c3f	-0.25412175
13	0x3cc263d6	0.023729246
14	0xbdce63fc	-0.10077664
15	0xbea96602	-0.33085638
16	0x3ea0e81b	0.31427082
17	0xbd982f25	-0.07430867
18	0xbe5b4b9c	-0.21415561
19	0xbe85ba1c	-0.26118553
20	0xbd044ee1	-0.032301787
21	0x3d94a56e	0.07258116
22	0xbe410bed	-0.18852206
23	0x3e29ca69	0.1658112
24	0xbc1802c2	-0.009278001
25	0x3da36544	0.07978299
26	0x3dd659f1	0.10466374
27	0xbe965919	-0.2936485
28	0x3e48401a	0.19555703
29	0x3d753c4d	0.05987196
30	0x3e09f2f6	0.13471588
31	0xbcae9bf6	-0.021314602
32	0x3e9743b2	0.29543835
33	0xbe6056cc	-0.2190811
34	0x3e9dddbf	0.3083324
35	0xbda59e06	-0.08086781
36	0xbe6f5c8d	-0.23375149
37	0x3d8c291e	0.0684378
38	0xbe0037cf	-0.1252129
39	0x3bc96885	0.006146493
40	0xbbadbed5	-0.00530229
41	0xbdd402ea	-0.10352118
42	0xbd72e02a	-0.05929581
43	0xbe926482	-0.28592306
44	0x3dba90d9	0.09109659
45	0xbdd9d4ed	-0.106363155
46	0x3e6c9306	0.2310296
47	0x3e90d74c	0.28289258
48	0x3e288889	0.16458334
49	0xbdb3f9ed	-0.08787904
50	0x3d945776	0.07243244
51	0xbe7d531b	-0.24738733
52	0x3e875965	0.2643539
53	0x3e5796e3	0.21053652
54	0xbe9a1ed8	-0.30101657
55	0xbdf5c66c	-0.120007366
56	0x3dac3141	0.08407832
57	0x3ea48adc	0.3213719
58	0x3c766601	0.015038968
59	0x3b623af5	0.0034520004
60	0x3d3af460	0.04564321
61	0xbe4425cf	-0.19155048
62	0x3de799f5	0.11308662
63	0xbea79d45	-0.32737175
64	0xbe3caded	-0.18425722
65	0xbe8780e2	-0.26465517
66	0xbe5d22c0	-0.21595287
67	0xbe269529	-0.16267838
68	0xbe9f5c30	-0.3112502
69	0xbce30088	-0.027710214
70	0x3e223705	0.15841301
71	0xbe9a9ffa	-0.30200177
72	0xbd61a066	-0.05508461
73	0x3e931bf4	0.28732264
74	0x3e9280a7	0.2861378
75	0x3e4dd362	0.20100167
76	0x3e6d2ee6	0.23162422
77	0xbe879ae9	-0.26485375
78	0xbe3ec248	-0.186288
79	0x3c52d71f	0.012868672
80	0xbe891098	-0.26770473
81	0x3e55ffd4	0.20898372
82	0x3d98a57b	0.07453438
83	0x3d6377bd	0.055534113
84	0x3e780425	0.24220331
85	0x3d8ba0c5	0.06817774
86	0xbea432e2	-0.3207007
87	0xbe293bd0	-0.16526723
88	0x3e834222	0.25636393
89	0x3dcb7197	0.09933775
90	0xbeade026	-0.33960074
91	0x3bf9c15c	0.007621927
92	0xbbf70a3b	-0.0075390614
93	0x3e687502	0.22700885
94	0x3d56e37f	0.05246305
95	0x3d619f27	0.05508342
96	0xbe1d486b	-0.15359657
97	0xbeac4386	-0.33645266
98	0x3db1574a	0.08659227
99	0xbcb8ed20	-0.022574008
100	0xbc8cd80d	-0.017192865
101	0xbcf63ae1	-0.030057373
102	0x3e37d43e	0.17952058
103	0x3e87a971	0.2649646
104	0xbe8fd038	-0.28088546
105	0x3e6bb3d2	0.23017815
106	0x3dae9c89	0.085259505
107	0x3e20dfb3	0.15710334
108	0x3e62d0e8	0.22150004
109	0xbea16c44	-0.31527913
110	0x3d4e9a77	0.050440278
111	0xbe06d431	-0.13166882
112	0x3e0c308b	0.13690393
113	0x3e3b71b8	0.18305099
114	0x3d4521ea	0.048128046
115	0xbea5389a	-0.32269746
116	0x3ddfc07e	0.10925387
117	0xbe786a43	-0.24259286
118	0x3e82b6be	0.25530046
119	0x3e592cb4	0.21208459
120	0x3e52a804	0.20571905
121	0xbb31a0a6	-0.002710381
122	0xbe3dcd85	-0.1853543
123	0x3e0d0235	0.13770373
124	0x3e4bdab9	0.19907655
125	0xb8f6f4c6	-0.00011775787
126	0xbe5e829a	-0.21729508
127	0x3dc75488	0.0973292
128	0xbe670588	-0.22560704
129	0xbdc488ee	-0.0959643
130	0x3e36cfd3	0.17852716
131	0x3d278781	0.04090071
132	0xbde3f871	-0.11131371
133	0xbd4cd892	-0.050011225
134	0xbce630b2	-0.028099392
135	0x3e6d3605	0.23165138
136	0xbddede18	-0.10882205
137	0x3cf934b8	0.030420646
138	0xbe2048fe	-0.15652844
139	0xbe8702e6	-0.263694
140	0xbe582771	-0.21108796
141	0x3e6f9900	0.23398209
142	0x3bea8b00	0.0071576834
143	0xbdf274bb	-0.11838671
144	0x3e827682	0.2548104
145	0x3c927ebf	0.017882703
146	0x3cc5dcf2	0.024153206
147	0x3d55ce76	0.05219885
148	0x3e035ced	0.12828417
149	0xbd874867	-0.066056065
150	0x3e06bc41	0.1315775
151	0x3e831540	0.2560215
152	0xbda5d630	-0.08097494
153	0xbe1b46e7	-0.15163766
154	0xbd9fc83c	-0.078018636
155	0xbe645975	-0.2229975
156	0xbe872d71	-0.26401857
157	0x3e979e1b	0.29612812
158	0x3e9e4c94	0.309178
159	0x3e3b7c72	0.18309191
160	0x3e5c56e4	0.21517521
161	0x3e0f396e	0.13986751
162	0x3e12ed94	0.14348441
163	0xbcc5a6b7	-0.024127347
164	0x3da933cf	0.08261835
165	0x3e139504	0.14412314
166	0x3dab0d01	0.0835209
167	0xbcbf842b	-0.023378452
168	0x3e7e2846	0.2482005
169	0xbce08b78	-0.027410254
170	0x3e36413d	0.17798324
171	0xbceffc4c	-0.02929511
172	0xbe6a3074	-0.22870046
173	0x3e832e23	0.25621137
174	0xbca4882f	-0.020084469
175	0xbe04d1d0	-0.12970662
176	0x3ea29812	0.31756645
177	0xbea3e626	-0.32011527
178	0x3dfe65e9	0.124217816
179	0xbea58a1b	-0.3233193
180	0xbe2b9403	-0.1675568
181	0x3e7e50c0	0.24835491
182	0xbd5995dd	-0.053121436
183	0xbe74e2c7	-0.23914634
184	0x3eb449d6	0.35212582
185	0x3dfa2cd1	0.12215579
186	0x3e86b41d	0.2630929
187	0xbeaa5b07	-0.33272573
188	0xbe9d22b0	-0.30690527
189	0xbea0474d	-0.31304398
190	0xbe636fcd	-0.22210617
191	0x3e61f8a8	0.22067511
192	0xbd331077	-0.043716874
193	0x3d0bd09c	0.034134492
194	0x3e081f68	0.1329323
195	0xbe25832f	-0.16163324
196	0x3d9930e7	0.074800305
197	0x3e4edc12	0.20201138
198	0xbea42a93	-0.32063732
199	0x3d388488	0.045048267
200	0xbe3c9573	-0.18416385
201	0xbc80825c	-0.01568716
202	0xbe2dd29f	-0.16974877
203	0xbd056fa9	-0.03257719
204	0x3e59c935	0.2126816
205	0x3e584e4a	0.21123615
206	0x3e37f0af	0.17962907
207	0x3e85bda2	0.2612124
208	0x3e4a85fc	0.19777673
209	0xbd93753b	-0.07200094
210	0xbe7d280a	-0.24722305
211	0x3d257f04	0.040404335
212	0xbdf01490	-0.11722672
213	0x3e91439e	0.283719
214	0x3e8ad642	0.2711659
215	0x3a2fc30a	0.00067047833
216	0x3d52ebf1	0.051494543
217	0xbe13e29f	-0.14441918
218	0x3ea06c04	0.3133241
219	0x3e96c756	0.29448956
220	0xbe06d9b3	-0.13168983
221	0x3e84d16c	0.25941026
222	0xbd353836	-0.04424306
223	0xbe199b64	-0.15000683
224	0x3d2c6c40	0.042095423
225	0x3e80c6ac	0.25151575
226	0x3d8a5b59	0.067557044
227	0xbea30451	-0.3183923
228	0xbe7239f0	-0.23654914
229	0xbdc53b75	-0.09630481
230	0xbe0c9416	-0.13728365
231	0x3ccc9e4e	0.02497783
232	0xbe2b5680	-0.16732216
233	0x3e8b2d94	0.2718321
234	0x3e9d196f	0.30683467
235	0xbe3883b6	-0.18018994
236	0x3dabe0af	0.08392464
237	0xbea70464	-0.32620537
238	0x3d929ccd	0.071588136
239	0xbe058f21	-0.1304288
240	0xbe2dff2c	-0.16991872
241	0xbd42f1f5	-0.04759403
242	0xbc95c221	-0.018281044
243	0xbbd41197	-0.0064718234
244	0xbdee0397	-0.116217785
245	0xbe826926	-0.25470847
246	0xbe19c933	-0.15018158
247	0x3d009bc1	0.03139854
248	0x3e823bd1	0.2543626
249	0xbe8c9e21	-0.27464393
250	0x3e1de3bd	0.15418907
251	0xbde8385b	-0.11338874
252	0xbd5c73f3	-0.053821515
253	0x3e75d899	0.24008407
254	0x3d17e276	0.037081204
255	0xbe1187e7	-0.14211999

lstm.weight_hh_l1 f4 [40, 10]
0	0x3df7e36f	0.121039264
1	0xbce819a3	-0.028332537
2	0xbe5ba955	-0.21451314
3	0x3e42cfdf	0.19024609
4	0x3c5ba063	0.013404938
5	0xbe668af9	-0.22513951
6	0x3e0f2190	0.13977647
7	0x3e57e349	0.21082796
8	0xbcfbeab4	-0.030751564
9	0xbe59cf8c	-0.21270579
10	0xbe42298b	-0.1896116
11	0x3e3a21a9	0.18176903
12	0xbea02810	-0.31280565
13	0x3d949a16	0.07255952
14	0xbb7f45c7	-0.0038951503
15	0x3e06d28e	0.13166258
16	0xbd381f3f	-0.044951674
17	0xbe4b5e29	-0.19860138
18	0xbda40015	-0.08007828
19	0x3d243427	0.0400888
20	0xbe6b8c3c	-0.23002714
21	0x3d25a258	0.040438026
22	0xbeb422a9	-0.35182694
23	0x3e846e2d	0.25865307
24	0xbc914f56	-0.017738026
25	0xbdb3bf37	-0.08776706
26	0xbd941b9e	-0.0723183
27	0xbe1b2d43	-0.15153985
28	0x3eac7a69	0.33687142
29	0x3ea32084	0.31860745
30	0xbe74986a	-0.23886266
31	0x3eb1ef7a	0.3475302
32	0xbcde41b6	-0.027130943
33	0xbe04e17c	-0.1297664
34	0x3dad5960	0.084643126
35	0x3dd5bdc7	0.10436588
36	0xbd8e4d77	-0.06948369
37	0x3dbe5f63	0.09295537
38	0xbb22403f	-0.0024757532
39	0x3ccd9968	0.025097564
40	0xbe90af23	-0.2825862
41	0x3e6cb31d	0.23115201
42	0xbe244350	-0.16041303
43	0xbe2c79a5	-0.16843279
44	0xbe426398	-0.18983305
45	0x3dd97923	0.10618808
46	0xbe374b97	-0.17899929
47	0xbde69f24	-0.112608224
48	0xbe86cc1e	-0.26327604
49	0xbe82b104	-0.25525677
50	0xbe34c8ab	-0.17654674
51	0x3e9d118d	0.30677453
52	0xbe53db84	-0.20689207
53	0xbd227382	-0.039660938
54	0xbce29868	-0.027660564
55	0x3dff3f0d	0.12463198
56	0xbe3fad3e	-0.1871843
57	0x3e18ea2c	0.1493308
58	0x3e09febf	0.13476084
59	0x3e761639	0.24031915
60	0x3ca932f3	0.020654177
61	0xbdd62e75	-0.1045808
62	0x3e8b4f3a	0.27208883
63	0xbe312886	-0.17300615
64	0x3e286ad6	0.16447005
65	0x3c2aa7f9	0.010416024
66	0x3d3e9530	0.046528995
67	0x3d946672	0.072461024
68	0xbe929599	-0.2862976
69	0x3de0b487	0.10971933
70	0x3e7fb6fa	0.24972144
71	0xbd05c7fb	-0.03266142
72	0x3e6497ac	0.22323483
73	0x3e940bcd	0.28915253
74	0xbe2a0db6	-0.16606793
75	0xbe33e0c2	-0.17566207
76	0x3e750461	0.23927452
77	0x3d80ae61	0.0628326
78	0x3b9dce09	0.004815821
79	0x3d66c1f0	0.056337297
80	0xbe230128	-0.1591841
81	0xbd97ff76	-0.07421772
82	0xbde15438	-0.110023916
83	0xbe7af9f5	-0.24509414
84	0xbe962cd7	-0.29331085
85	0xbd128fb7	-0.03578159
86	0xbd0b2534	-0.033971027
87	0xbe85797a	-0.26069242
88	0xbe3f54d0	-0.18684697
89	0xbe7541e7	-0.23950921
90	0xbe71f898	-0.23629987
91	0xbe5b76a8	-0.21431983
92	0xbd95c078	-0.07312101
93	0xbe9b7a9f	-0.3036699
94	0xbd186323	-0.03720392
95	0x3e788cb1	0.2427242
96	0xbe38d586	-0.18050203
97	0xbddc6fb2	-0.10763492
98	0x3dda6729	0.106642075
99	0xba320ccb	-0.00067920674
100	0xbe2af7f9	-0.16696157
101	0xbcb52eb9	-0.022117006
102	0x3e5828a2	0.2110925
103	0xbe1b5cee	-0.15172169
104	0x3e01ee15	0.12688477
105	0xbe6d2b04	-0.2316094
106	0x3cad3b7d	0.02114653
107	0x3e54d42a	0.20784059
108	0x3e387ba4	0.18015915
109	0x3de41088	0.111359656
110	0xbe9ca121	-0.30591682
111	0xbe78aafc	-0.24283975
112	0x3e207ac1	0.15671827
113	0xbc263909	-0.010145434
114	0x3e087e78	0.13329494
115	0x3e5e4471	0.21705796
116	0xbe08513c	-0.13312238
117	0xbe2ee894	-0.17080909
118	0x3e84c184	0.2592889
119	0xbda0336e	-0.078223094
120	0x3e1feb36	0.1561707
121	0x3cee525b	0.029092005
122	0xbd51f011	-0.051254336
123	0x3bd3608e	0.006450719
124	0x3e20ea26	0.1571432
125	0xbe4963a3	-0.19666915
126	0xbe144ffa	-0.14483634
127	0x3e92596d	0.2858385
128	0xbe0b20a3	-0.13586669
129	0x3e80d8fb	0.25165543
130	0x3e21c474	0.15797597
131	0x3e83004f	0.25586173
132	0x3e827775	0.25481763
133	0xbe864707	-0.26226065
134	0x3d4743a1	0.04864848
135	0xbdbc4323	-0.09192493
136	0xbd9f8b40	-0.07790232
137	0x3dc50c3c	0.09621474
138	0x3dc782a8	0.097417176
139	0x3e4c8273	0.19971637
140	0x3e8b0b2b	0.27156958
141	0x3e2b493b	0.16727154
142	0x3de54a3f	0.11195802
143	0xbdc0c2cc	-0.094121546
144	0xbe9e533f	-0.30922887
145	0x3d98eaf8	0.07466692
146	0x3e573bb2	0.21018866
147	0x3c964145	0.01834167
148	0x3e9a1cb3	0.3010002
149	0xbe052f72	-0.1300638
150	0x3ea045c4	0.31303227
151	0x3e5e0fbb	0.21685688
152	0xbd306913	-0.043068957
153	0x3c8421cb	0.016129395
154	0xbd418f71	-0.047255937
155	0xbe30532e	-0.1721923
156	0x3d258c83	0.040417206
157	0xbe8ff71e	-0.28118223
158	0x3dfba296	0.1228687
159	0xbd6b257c	-0.057408795
160	0xbd7f2951	-0.06229526
161	0x3e986b22	0.29769236
162	0xbdc38cd7	-0.095483474
163	0xbd42aedc	-0.04753004
164	0x3e9aa2f0	0.30202436
165	0xbe83d4c7	-0.25748274
166	0xbda3e1a0	-0.08002019
167	0xbd9a758e	-0.07541953
168	0xbe5474e5	-0.20747717
169	0xbde7049e	-0.112801775
170	0xbdb6c0d5	-0.089234985
171	0x3d84f038	0.064911306
172	0xbe8b4aeb	-0.27205595
173	0xbea33a4d	-0.31880417
174	0x3e76472b	0.24050586
175	0x3e3691d8	0.17829072
176	0x3e182a45	0.14859875
177	0x3e4dbec6	0.20092306
178	0xbe1ec501	-0.15504839
179	0x3e181614	0.14852172
180	0xbe3d9558	-0.18514001
181	0x3e2d096e	0.16898128
182	0xbe887573	-0.26652107
183	0xbe474f6e	-0.19463894
184	0x3e2df569	0.16988148
185	0x3bad258c	0.005284017
186	0x3d5f3fd1	0.05450422
187	0xbe8482d4	-0.25881064
188	0x3de72476	0.11286251
189	0xbcef6757	-0.029224081
190	0xbe9d7e28	-0.30760312
191	0x3d0f1f23	0.034941804
192	0xbbf4cf72	-0.0074710185
193	0xbe011968	-0.12607348
194	0x3e634307	0.22193538
195	0xbd7f1e94	-0.06228502
196	0xbce891b7	-0.028389795
197	0x3de824a4	0.11335114
198	0x3ea0e9c8	0.3142836
199	0xbe6b07e7	-0.22952233
200	0x3e914f57	0.28380844
201	0x3e87d34d	0.26528397
202	0xbe5dec6a	-0.21672216
203	0x3e0a4a47	0.13504897
204	0xbd542a9f	-0.05179846
205	0xbe432a18	-0.19059026
206	0x3e2f9814	0.17147857
207	0x3d281e2b	0.041044395
208	0x3df998de	0.1218736
209	0xbe1e1a56	-0.15439734
210	0x3e8ee3da	0.27908212
211	0xbcd18d04	-0.025579937
212	0x3ea49181	0.3214226
213	0x3e23fa47	0.16013442
214	0xbd978dc7	-0.07400089
215	0x3e3b8db7	0.18315779
216	0x3e8be019	0.2731941
217	0x3e78abfd	0.24284358
218	0xbded2669	-0.11579592
219	0xbe781b7e	-0.24229237
220	0xbe838ecc	-0.25694883
221	0xbe1804cd	-0.14845581
222	0xbdbf8773	-0.09352007
223	0x3e66987c	0.22519106
224	0x3e56ac61	0.20964195
225	0x3e97d9a6	0.2965824
226	0x3eb9701f	0.36218354
227	0x3e124449	0.14283861
228	0xbe615dc9	-0.22008432
229	0x3e891eff	0.2678146
230	0x3e509634	0.20369798
231	0xbd5d55ed	-0.054037023
232	0xbe409a4b	-0.18808858
233	0x3c30b45e	0.01078519
234	0xbde5d07d	-0.112214066
235	0xbe335209	-0.17511763
236	0x3d98e851	0.07466186
237	0x3ea451b7	0.32093593
238	0x3ea3ff49	0.32030705
239	0xbcf2d26b	-0.02964135
240	0xbe27185e	-0.16317889
241	0x3e8a125f	0.2696714
242	0xbe89787b	-0.26849732
243	0xbe932898	-0.28741908
244	0xbe1dc12b	-0.15405719
245	0x3e15cbfe	0.14628598
246	0x3e8e5c4b	0.2780479
247	0xbe51168d	-0.20418759
248	0xbe71c5c9	-0.23610605
249	0x3daa5c74	0.08318415
250	0x3e9294d7	0.2862918
251	0xbe360c08	-0.17778027
252	0x3dbdc826	0.09266691
253	0x3cb5ae68	0.02217789
254	0x3e01a07c	0.12658876
255	0xbdb01ff8	-0.085998476

lstm.bias_ih_l1 f4 [40]
0	0xbd999097	-0.074982814
1	0xbdb1a6e6	-0.086744115
2	0x3e6fc5a9	0.23415245
3	0xbd2e49d4	-0.042550877
4	0xbcdf6f98	-0.027274892
5	0xbe96157f	-0.29313275
6	0x3c889e4c	0.016677044
7	0xbe0c3079	-0.13690366
8	0xbd744c50	-0.05964309
9	0x3d6446a0	0.055731416
10	0xbd92778e	-0.071517095
11	0xbe374543	-0.17897515
12	0xbe89776b	-0.2684892
13	0xbdee3308	-0.11630827
14	0x3d4d8bd4	0.05018218
15	0xbe14d0c4	-0.14532763
16	0x3e0cd3d9	0.13752688
17	0x3e82b7b3	0.25530776
18	0xbe6f68a2	-0.23379758
19	0x3e7a90f8	0.24469364
20	0x3ab69588	0.0013930062
21	0xbe27d13d	-0.16388412
22	0xbdb06d9a	-0.08614655
23	0xbd812b45	-0.06307081
24	0xbe069d40	-0.13145924
25	0x3e429aeb	0.19004409
26	0xbe811c00	-0.25216675
27	0x3e778b49	0.24174227
28	0xbe4fec60	-0.20305014
29	0xbd8f81ed	-0.07007203
30	0xbe4f143a	-0.2022256
31	0xbea3f738	-0.3202455
32	0xbce8c7a5	-0.02841551
33	0x3dc1a2e8	0.094549
34	0x3e6b7170	0.22992492
35	0x3dc90e00	0.098171234
36	0xbe8befc9	-0.2733138
37	0xbe885f89	-0.26635388
38	0x3d719fd0	0.0589903
39	0x3e885f9f	0.26635453

lstm.bias_hh_l1 f4 [40]
0	0x3e37dafd	0.17954631
1	0x3e77820f	0.24170707
2	0x3e84ea04	0.2595979
3	0xbdcf125e	-0.10110925
4	0x3d394ebf	0.045241114
5	0x3e91db4f	0.28487632
6	0xbe6abfc7	-0.2292472
7	0xbe4f29c1	-0.20230772
8	0x3e13289e	0.14370963
9	0xbeb00173	-0.34376106
10	0xbdc5d026	-0.09658842
11	0x3e370a99	0.17875136
12	0x3e3bdbbb	0.1834554
13	0x3e569eff	0.2095909
14	0x3dae9208	0.08523947
15	0x3e5569b4	0.20841104
16	0x3d8e45c6	0.06946902
17	0xbd20c4f7	-0.03925034
18	0xbe16e432	-0.14735487
19	0x3a8a97cd	0.0010573805
20	0x3ccd26b1	0.025042864
21	0xbd63dfdb	-0.055633407
22	0x3e83a4cf	0.25711676
23	0x3e77a8b1	0.24185444
24	0x3e4e3312	0.2013667
25	0xbe601cce	-0.21885988
26	0x3db163f6	0.08661644
27	0xbe87822b	-0.26466498
28	0xbe4fc9be	-0.20291802
29	0xbe32a28c	-0.17444819
30	0x3e852bf0	0.26010084
31	0xbe207df6	-0.1567305
32	0x3e1552e8	0.14582407
33	0xbe5a55a2	-0.21321729
34	0xbdc1c75b	-0.09461852
35	0x3e9bc741	0.30425456
36	0xbe2f404e	-0.17114374
37	0xbe84ac19	-0.2591255
38	0xbe91a79d	-0.2844819
39	0x3e26d177	0.16290842

fc.weight f4 [1, 7200]
0	0x3bee844f	0.007278956
1	0xbb2cfea1	-0.0026396888
2	0x3c661e10	0.014045253
3	0x3c78d818	0.0151882395
4	0xba0bed63	-0.00053378026
5	0xbc19e5d2	-0.009393172
6	0xbc0d17d9	-0.008611643
7	0x3a05e179	0.00051071454
8	0x3b6ce435	0.0036146764
9	0xbc834ac0	-0.016026855
10	0x3bc5dcf6	0.0060383035
11	0xbc542896	-0.01294913
12	0x3abe3245	0.0014510831
13	0x3c593708	0.013257749
14	0x3becf123	0.007230894
15	0xbc3fac9e	-0.01169887
16	0xbbc7d997	-0.006098937
17	0x3ba185f0	0.0049292967
18	0x3ba6aa1e	0.0050861975
19	0xbc3ee600	-0.011651516
20	0x3c53cb63	0.012926909
21	0x3add4812	0.001688244
22	0xba18ce05	-0.0005829039
23	0x3bf3fd80	0.007445991
24	0x3b9f4143	0.0048600747
25	0xbc8eb6ef	-0.017421214
26	0x3a8f01f6	0.0010910619
27	0x3b5a9529	0.0033353067
28	0x3b7ce6cb	0.0038589712
29	0xbc466155	-0.012108167
30	0x3b027770	0.0019907616
31	0x3bafcd9a	0.005365086
32	0x3bc24ab5	0.005929316
33	0xbba7c879	-0.0051203337
34	0x3c853804	0.016262062
35	0x3bcc404e	0.0062332517
36	0xbc437089	-0.011928686
37	0xbc0da8df	-0.008646219
38	0xbc6b1237	-0.0143476045
39	0xbb64cff9	-0.0034914
40	0x3a89d2c7	0.0010515087
41	0x3c075928	0.008261003
42	0xbc7dcd89	-0.015490898
43	0xbbb7bb71	-0.0056070616
44	0x3c89afc8	0.016807452
45	0xbc42dba1	-0.011893184
46	0x3bb4ba6d	0.0055153877
47	0x3b028e91	0.0019921402
48	0xbbf43e58	-0.007453721
49	0x3bc7c270	0.006096177
50	0x3c9b7176	0.018975
51	0x3c2f79d0	0.010710195
52	0xbc42a81e	-0.011880903
53	0x3c1e3d70	0.0096582025
54	0x3b0dd2ac	0.0021640463
55	0xbb5df101	-0.0033865573
56	0xbbc76022	-0.006084458
57	0x3c44f220	0.012020618
58	0xbc52a5ba	-0.012856895
59	0x3be685de	0.007035001
60	0x3c0bee18	0.008540653
61	0x3aa0685b	0.0012238132
62	0xbc038c5a	-0.008029068
63	0xbbd737e4	-0.006567942
64	0x3c8eda19	0.017437981
65	0xbbc33908	-0.0059577264
66	0x3bdf0cf0	0.006806962
67	0xbbd649b2	-0.006539547
68	0x3b6786e0	0.0035328194
69	0xbbb029be	-0.00537607
70	0xba1368fc	-0.0005623249
71	0x3bf86801	0.0075807576
72	0xbc01db31	-0.007925794
73	0xbc258e5d	-0.010104743
74	0x3c715591	0.014729873
75	0xbc57970f	-0.013158574
76	0xba66b24e	-0.0008800373
77	0x3c4da43f	0.012551366
78	0x3b9cceb5	0.0047853836
79	0x3a88e7e7	0.0010445089
80	0x3c0115a1	0.007878692
81	0x3ad80d69	0.0016483489
82	0xbc0f5c7f	-0.00875008
83	0x3ac8204b	0.0015268413
84	0x3bf9be3d	0.007621555
85	0xbbc8b65f	-0.006125256
86	0xbafbc62e	-0.0019208842
87	0xbbf656b4	-0.00751766
88	0x3b7942a2	0.00380341
89	0x3bfe35a0	0.0077578574
90	0x3ba69d5e	0.0050846776
91	0xbc6dc9a3	-0.014513406
92	0x3a03f910	0.00050343666
93	0xb82175d6	-3.8495135e-05
94	0x3be3104e	0.006929434
95	0x3a5dad36	0.00084562914
96	0xbb9cf438	-0.0047898553
97	0x3c210f46	0.009830302
98	0xbbdaf1e2	-0.0066816667
99	0xbbabf104	-0.005247237
100	0xbc165fd7	-0.009178123
101	0xbb8ddf37	-0.004329588
102	0x3c117c8c	0.008879792
103	0xbb8307f5	-0.0039987513
104	0xbc1504dc	-0.009095397
105	0x3c138e80	0.009006143
106	0x3b216ba6	0.0024630814
107	0xba28539d	-0.0006421151
108	0x38a33903	7.783065e-05
109	0x3bad2aef	0.005284659
110	0xbb3d6ad3	-0.0028902784
111	0xbc7e8ace	-0.015536023
112	0x3c724915	0.014787932
113	0x3bd2498a	0.006417458
114	0x3a0e0984	0.0005418288
115	0x3c00eca3	0.007868919
116	0x3823ed4e	3.9083236e-05
117	0xb8d9583b	-0.000103638005
118	0x3b803cbf	0.0039134915
119	0xbc19741c	-0.009366062
120	0xbb88c122	-0.004173414
121	0x3b50af8a	0.003184291
122	0xbba1405c	-0.0049210023
123	0xbb92d427	-0.004480857
124	0xba3a9920	-0.00071181543
125	0xbba9926a	-0.0051749246
126	0x3b494679	0.003071217
127	0xbb926701	-0.0044678454
128	0xbc426500	-0.011864901
129	0xbc31d150	-0.010853127
130	0x3c1c00e9	0.009521701
131	0xbbb3bae0	-0.0054849237
132	0x3bb426b5	0.0054977783
133	0x3b9d9668	0.0048091896
134	0xbc0a9da5	-0.008460437
135	0x3c0f5b23	0.008749756
136	0x3b5e0360	0.0033876523
137	0x3c1a21fb	0.009407516
138	0xbba2e897	-0.0049715745
139	0xbb37c159	-0.0028038828
140	0x3c657f0d	0.014007342
141	0xbbb0f305	-0.005400064
142	0xbc00834e	-0.0078438055
143	0x3c4727f1	0.012155519
144	0x3bc81010	0.0061054304
145	0xbbf5fce5	-0.007506954
146	0x3c76ca96	0.015062949
147	0x3c08271f	0.008310108
148	0xbc83fb53	-0.016111052
149	0xbbf9e71d	-0.007626428
150	0x3c7257a4	0.014791403
151	0x3c483104	0.0122187175
152	0x3c2eefc8	0.0106772855
153	0x3c9d326f	0.019189088
154	0xbbf4513b	-0.0074559725
155	0xbc0fe733	-0.0087831495
156	0x3bcecb96	0.0063108904
157	0x3c8a911d	0.016914899
158	0x3bc99203	0.006151439
159	0xbc84f7ce	-0.016231444
160	0x3c657418	0.01400473
161	0x3be48c56	0.006974737
162	0xbb020a6f	-0.0019842645
163	0x3ca15698	0.019694611
164	0x3bb3f570	0.005491905
165	0xbc11cb48	-0.008898564
166	0x3b08dcb3	0.00208835
167	0x3ba511b9	0.005037513
168	0xba7c3e4b	-0.00096223195
169	0xbbdab4ec	-0.0066743996
170	0x3a0b860a	0.00053224026
171	0xbbc7a137	-0.0060922164
172	0x3b466de5	0.0030277905
173	0x3c923357	0.017846746
174	0xbb14ecf9	-0.0022724255
175	0xbbe5b5e4	-0.0070102084
176	0x3cabd248	0.020974293
177	0x3c7fd393	0.015614408
178	0x3ae610d9	0.0017552628
179	0xbc182eea	-0.009288529
180	0xba7f2e24	-0.00097343535
181	0x3c13ef58	0.009029232
182	0xbb0d69c1	-0.0021577927
183	0x3c5f00ba	0.013611013
184	0x3aaa65ae	0.0013000274
185	0xbc3bb074	-0.011455644
186	0x3a80c2ee	0.0009823719
187	0x3b0b0d65	0.00212177
188	0xbb9ff191	-0.004881092
189	0x3b8d14f0	0.0043054745
190	0x3bf13842	0.007361443
191	0x3c5c724c	0.013454985
192	0x3b0cf493	0.0021508082
193	0xbb9a7406	-0.004713538
194	0x3c1e12aa	0.009648005
195	0xbb28f3fa	-0.0025780187
196	0x3b873aab	0.004126867
197	0x3b00f284	0.00196758
198	0xbb9e807d	-0.0048370943
199	0xbc33467c	-0.010942098
200	0x3a02793a	0.00049771706
201	0xbc07b790	-0.008283511
202	0x3c87669d	0.016528422
203	0x3bd0df83	0.006374301
204	0x3a64014a	0.0008697702
205	0xbc895aef	-0.016766993
206	0x3b0ca187	0.0021458582
207	0x3c2012b9	0.009770089
208	0x3bc58814	0.0060281847
209	0x3c1fb7c2	0.009748401
210	0x3c9f7abb	0.019467702
211	0xba39f68e	-0.00070939295
212	0x3be620cc	0.0070229527
213	0xbc110ad0	-0.008852676
214	0xbbc51801	-0.0060148244
215	0xbbe5221f	-0.006992593
216	0x3bc41d94	0.0059849713
217	0xbb14469c	-0.0022625094
218	0x3a4270da	0.0007417329
219	0xbbcaf16b	-0.00619333
220	0x3c4756aa	0.012166658
221	0xbb88aa77	-0.0041707116
222	0xbbb11718	-0.0054043643
223	0x3a71d15e	0.00092246186
224	0xbba195fc	-0.0049312096
225	0x3b37f803	0.002807141
226	0x3c244c12	0.010027902
227	0x3c7dd5a7	0.015492833
228	0x3b497eb4	0.0030745687
229	0xbc4fa3c6	-0.012673324
230	0x3a685b32	0.0008863687
231	0xbba7bc58	-0.005118888
232	0x3c6d6ba4	0.014490996
233	0xbb90e62a	-0.004421969
234	0x3c32ed21	0.010920794
235	0x3b0ce444	0.0021498362
236	0x3c9376e7	0.018001033
237	0x3c10e79b	0.008844282
238	0xbc33085f	-0.010927289
239	0x3834531b	4.2992742e-05
240	0x3c6ac2bb	0.014328654
241	0xbc371dcb	-0.011176537
242	0x3c6c19fa	0.01441049
243	0x3c138a97	0.00900521
244	0x3be547ee	0.0069971
245	0x39207662	0.0001530289
246	0x3c555fe9	0.013023355
247	0xbab52a6e	-0.0013821849
248	0xbc1a5b58	-0.009421192
249	0x3a92999f	0.0011184699
250	0x3a31705d	0.00067687576
251	0x3c0614bc	0.008183654
252	0x3c72ad3c	0.01481181
253	0x3ade2f5a	0.0016951368
254	0x3c7f9ae9	0.015600898
255	0xbc83d0d9	-0.016090797
