DeepLearning/timeSerise/.lr_find_988c8c69-b3d0-4b14-b484-a53d6e4c654a.ckpt (torch, 47861 bytes, 9 tensors)

lstm.weight_ih_l0 f4 [40, 50]
000000 fa 97 44 3e 5a df 4a be 57 94 69 bd 7f 79 cc 3b
       0.191986 -0.19811764 -0.057026234 0.0062400694
000010 ad 83 02 bd c0 2c f2 3d 25 4c 85 be fd 32 a7 3d
       -0.031863857 0.11824942 -0.26034656 0.08164022
000020 26 7b a0 be d2 1d c4 3c 87 39 80 3d e5 5f 97 3d
       -0.31343955 0.02394 0.062609725 0.07391337
000030 ad 63 84 3e 59 0f c6 bd ea 0a ab 3d e9 8f 6c 3d
       0.25857297 -0.09670896 0.08351691 0.05775443
000040 f8 de e6 3c 5c b4 21 3e f5 68 1f bd 5c 1f 18 be
       0.028182492 0.15791458 -0.038918454 -0.14855713
000050 80 e8 38 be c8 f1 91 3e 03 c1 87 be f7 9d 0f be
       -0.18057442 0.28504777 -0.26514444 -0.14025103
000060 90 c8 9d 3e 04 df f7 bd dc db e8 bc ea 2c 07 3e
       0.3081708 -0.12103084 -0.02842515 0.13200727
000070 9d 8e 8d be 48 ba 40 3e 01 9d 54 3d 0b 60 97 be
       -0.27647868 0.1882106 0.051907543 -0.29565462
000080 d0 46 e4 3d b4 39 f0 3d 8c ca 28 bd c0 01 e3 3d
       0.11146319 0.11729756 -0.04120879 0.11084318
000090 89 cc 91 3e ba a6 64 be 7c be 32 3e dd e5 7c bd
       0.2847636 -0.22329226 0.17455477 -0.061742652
0000a0 f2 d8 43 be 8f c9 d2 3d 71 bb a7 bd 86 2e 2f 3e
       -0.19125727 0.102923505 -0.081900485 0.17107591
0000b0 0d e7 87 3e 09 ff 98 3e 92 19 f1 bd 1f d9 16 be
       0.26543465 0.29882076 -0.11772455 -0.14731263
0000c0 36 7f 66 be a7 2a 2e bd f5 d0 17 be 1f f7 4c 3e
       -0.22509465 -0.042521145 -0.14825805 0.20016144
0000d0 38 dd 02 be e7 0a 70 be d2 1a 0c 3e 27 60 24 bd
       -0.12779701 -0.23441659 0.13682106 -0.04013076
0000e0 8a c9 35 be 1a f5 35 3e a7 c7 cd 3d 29 cf 11 3e
       -0.17752662 0.1776928 0.10047846 0.14239182
0000f0 ea 03 ce 3c 01 99 02 be c7 b1 24 3d f1 f8 43 3d
       0.02514835 -0.12753679 0.040208604 0.04784483
000100 b0 57 10 3e 07 70 7a 3e 42 4d b4 3d 79 fe 8c 3e
       0.1409595 0.24456798 0.08803798 0.27537897
000110 40 e8 11 3e d2 8a 77 3e 57 9b ed bd 8a c5 b7 bd
       0.14248753 0.2417405 -0.11601894 -0.089732245
000120 70 1a 50 be f0 8b 74 3e b9 ad 2d be bc 2e 2e be
       -0.20322585 0.23881507 -0.16960801 -0.17010015
000130 6f f2 00 3e 3e 20 82 3d 70 4f 8b 3e fb 14 9e be
       0.12592481 0.06353806 0.27209044 -0.30875382
000140 b9 07 4d 3d 44 3e 7e be 44 ec 77 3e e7 24 5a be
       0.050056193 -0.2482844 0.24211222 -0.2130314
000150 4c 0d 67 be 0a 82 8c 3c d3 7a 02 3d 62 77 84 3e
       -0.22563666 0.017151851 0.031855416 0.25872332
000160 2d 86 59 3e d3 09 e5 bd 36 80 19 3e 79 9a 8e be
       0.2124259 -0.111835144 0.14990315 -0.27852228
000170 9c cb 49 be 20 b9 52 be d3 21 9c 3d ba 28 62 3e
       -0.19706577 -0.20578432 0.07623639 0.22085848
000180 ad 60 36 3e 68 74 aa 3d b5 7b 81 bc d8 cf 82 be
       0.17810316 0.08322984 -0.015806058 -0.25549197
000190 f0 ad 7a 3e 29 d4 4e 3e ff 13 9b 3e 22 45 a0 3e
       0.24480414 0.2019812 0.30288693 0.31302744
0001a0 d5 d2 6c 3d ab b4 9b bc ef da 92 3d 0e 57 58 3e
       0.057818253 -0.019007048 0.071706645 0.21126959
0001b0 0d 45 13 be 6f b8 96 be b4 3a d5 bd 94 5a c4 bd
       -0.1438181 -0.29437587 -0.10411587 -0.09587589
0001c0 5f 1a 8c be 16 0f 4f 3d a4 ba 92 bd 0e d9 50 3e
       -0.2736387 0.050551496 -0.07164505 0.203953
0001d0 d9 8d 68 3e 37 01 02 3e 98 97 db 3d 14 fa 78 3d
       0.2271036 0.12695776 0.107222736 0.060785368
0001e0 43 3b 21 3e c0 b0 3e 3e 63 6f 5c be 09 21 e6 bd
       0.15745263 0.18622112 -0.21526866 -0.1123677
0001f0 e4 5a cd 3c 4d c3 fd bc 12 64 99 be 3b 54 f4 bd
       0.025067754 -0.030976916 -0.2995916 -0.11930128
000200 cb 0a 8e 3d cb f7 ac 3b 4e 49 e1 bc 79 e2 52 3e
       0.06935652 0.0052785627 -0.027500775 0.20594205
000210 44 07 1e be 55 1a 85 3c ff c5 83 3e ef a3 f0 3d
       -0.15432459 0.016247908 0.25736997 0.11750018
000220 aa 6b 0f 3e 1a ef a0 bc 84 9c 8e 3e e8 06 0f bd
       0.14005914 -0.019645263 0.27853787 -0.034918696
000230 9f 0d 8e bd 24 f9 03 3d 8b 3d 57 3d b3 d2 2b 3e
       -0.06936192 0.03222002 0.052548926 0.16779594
000240 de 0e 2a 3e 66 e8 9c 3d 6f 08 d7 3d 3e 16 8f bb
       0.16607234 0.07661514 0.104996555 -0.004366665
000250 d2 67 7b 3d dd 24 1e be 30 43 69 3c 7a e0 52 3e
       0.061378308 -0.1544375 0.01423721 0.20593444
000260 d1 dc ed 3c ae 84 75 3e 03 eb 7c 3e 1b 20 c9 bd
       0.029035958 0.23976395 0.24699025 -0.09820577
000270 0b 90 48 3d c9 40 3f 3e 7c 0c 3b 3e 1f ca 86 3d
       0.048965495 0.18677057 0.18266481 0.0658152
000280 aa f3 50 3d ba 0f 2a 3e 80 af 80 bc f6 4b 83 be
       0.051013626 0.16607562 -0.015708685 -0.2564389
000290 b8 ea 24 3e fc e0 8c 3e dc ad 0b 3e 31 86 3b 3e
       0.16105163 0.275154 0.13640541 0.18312909
0002a0 59 bf 60 3e ed e0 9c 3d 52 45 5c 3e 78 b4 01 3e
       0.21947993 0.07660089 0.21510819 0.126665
0002b0 ba 80 91 3e 4c b4 4f be e9 71 b6 bd 33 41 ba bd
       0.28418523 -0.20283622 -0.089084454 -0.09094467
0002c0 e2 90 9a be cc bb 97 bd 30 02 1b be 7f d8 c4 3d
       -0.30188662 -0.07408866 -0.15137553 0.09611606
0002d0 09 cc e3 bc af 6a 59 be c5 66 0d 3e 05 ee a4 3d
       -0.027807252 -0.21232103 0.13808735 0.08053211
0002e0 b0 b0 83 3d c2 67 3a be 87 5a 27 3e 6a b6 0c be
       0.06430185 -0.18203643 0.16343127 -0.1374146
0002f0 ab 75 7a bd 4a fc 9a 3e 7f 81 96 be 05 95 82 be
       -0.061147373 0.30270606 -0.29395673 -0.25504318
000300 e9 e4 db 3d f4 48 1e bc f3 84 4a be 5c cc f1 3d
       0.107370205 -0.009660948 -0.19777279 0.118065566
000310 21 a2 e5 bd 83 2b 2e 3e 6e 27 78 3e b3 e8 08 3e
       -0.11212564 0.17008786 0.24233791 0.13370018
000320 26 6d 1e be 29 b3 98 be f7 e3 9c be 0c 3c 06 3e
       -0.15471324 -0.29824188 -0.30642673 0.13108844
000330 71 5d 00 bc 2d 49 82 37 8b df 44 3e 46 ae 6d 3e
       -0.007834778 1.5531283e-05 0.192259 0.23211011
000340 97 a1 9a bd a5 08 05 be 1e ef 5b be 64 f6 2c be
       -0.07550352 -0.12991579 -0.21477935 -0.16890866
000350 b6 f4 f3 bd f6 df 9e be 88 87 8e be 2f bf 9c 3e
       -0.11911909 -0.31030244 -0.27837777 0.30614612
000360 6c 96 74 3e 88 3e 9d bd 2a 7c 5f 3e 00 6a 6f 3b
       0.23885506 -0.076779425 0.21824709 0.0036531687
000370 be 8d 9c 3e 72 25 c6 3d b5 0e 45 3d ce fe 86 3e
       0.3057689 0.09675111 0.04810973 0.26366276
000380 1f a9 6b be 7f e9 33 be f1 49 83 be ce c4 65 be
       -0.23013733 -0.1756954 -0.2564235 -0.22438356
000390 93 b9 24 be 7f 79 71 3e 8d 7d 59 bd a2 5e 0e 3d
       -0.16086416 0.23581503 -0.05309825 0.034758218
0003a0 5e db 45 be a7 16 75 3e 77 cd 8e be 33 d6 a0 bd
       -0.19321963 0.23934422 -0.27891132 -0.07853355
0003b0 01 82 95 be 1e ef 5b 3e 19 9a 3d be 86 c1 c6 3c
       -0.29200748 0.21477935 -0.18515815 0.024262201
0003c0 2f ba a0 3e d9 13 48 bd 0d f0 03 be f0 79 28 3e
       0.31392047 -0.048847053 -0.12884541 0.16452765
0003d0 4d 5f 1a 3e e2 ac 95 3e 69 28 fa bd 0b 7a 87 3c
       0.15075417 0.29233462 -0.12214739 0.016537687
0003e0 75 ce 76 be ea 3c ab 3c f0 6c 80 3d 7c 8f 02 be
       -0.24102195 0.02090307 0.06270778 -0.12750047
0003f0 63 8f 87 3c fc c3 7f be 95 e5 94 3e 55 d5 8f 3e
       0.016547864 -0.24977106 0.29081407 0.28092447

lstm.weight_hh_l0 f4 [40, 10]
000000 15 7b c6 bd 5c 5c 01 3e 2a 42 77 3e 72 ff 83 be
       -0.09691445 0.12632889 0.24146333 -0.25780827
000010 a9 b7 1c bc ea a6 45 be 14 c1 a1 bd a4 71 c7 bd
       -0.009565272 -0.19301954 -0.07898155 -0.09738472
000020 54 74 3f be 12 11 9f 3e f8 2f bb bc ef 59 4c be
       -0.1869672 0.3106771 -0.022850022 -0.19956182
000030 dd fd 2b 3e fc 4b 68 3e 66 67 5d bc de a2 14 be
       0.1679606 0.22685236 -0.013513422 -0.14515254
000040 58 1f 87 3d ce ef dc 3d 7d c9 dd 3d 00 d5 9e 3e
       0.06597775 0.107879266 0.108294465 0.3102188
000050 3d 86 7e be f2 1e cd 3d c1 72 35 3e 62 12 9e 3d
       -0.24855895 0.10015668 0.17719556 0.0771835
000060 c3 3e 90 be 41 7e b4 3d e7 e9 cd ba 89 19 84 be
       -0.28172883 0.088131435 -0.0015709967 -0.25800732
000070 bc 40 00 3e c3 c8 37 3e 17 ee 04 3e 15 f9 82 be
       0.12524694 0.17947678 0.12981449 -0.2558066
000080 bc 4c 36 bd b6 de 1c bc a6 ca 8e 3e 7a 69 67 bb
       -0.044506773 -0.009574583 0.27888983 -0.0035310672
000090 85 ad 27 be 7b 6b 77 be 4c 20 0b 3d 88 bb 6b 3e
       -0.16374786 -0.24162094 0.033966348 0.23020756
0000a0 6d d9 87 3e de 9b 02 3d 3b f6 02 3e b2 f5 12 3d
       0.2653307 0.031886928 0.12789242 0.035878845
0000b0 cf 17 16 3d 60 80 85 3e 9d 25 81 3e 81 65 98 3e
       0.0366438 0.26074505 0.2522401 0.2976494
0000c0 f3 3a 53 ba 73 73 35 3e 65 37 94 3e c6 ff 90 be
       -0.00080577953 0.17719822 0.28948513 -0.2832014
0000d0 4d 5b 60 3d 40 40 8a bd 8a c1 f3 bd 19 f0 3e be
       0.05477457 -0.06750536 -0.11902149 -0.18646277
0000e0 69 f1 d3 3b e3 28 89 3e 4c 89 8d bc 31 ed 01 3e
       0.0064679873 0.26789007 -0.017277382 0.12688138
0000f0 96 3b aa 3c 52 75 6e be d2 f6 0b 3c ee 9f 37 be
       0.020780366 -0.23286942 0.008542733 -0.17932102
000100 24 f2 41 3e 45 77 11 be 68 e7 2c be 10 f9 38 3e
       0.18940026 -0.14205654 -0.1688515 0.1806376
000110 39 f9 8d 3d 7b 01 61 3e 9a 19 25 3e bc 00 1e 3e
       0.06932301 0.21973221 0.16123047 0.15429968
000120 8d 67 a1 be 49 02 03 be 87 03 19 3d 46 21 c3 3d
       -0.31524315 -0.1279384 0.03735688 0.09527831
000130 f7 09 5d be 3e e6 5b 3e 28 60 7d be 86 3e 9f bd
       -0.21585833 0.21474549 -0.24743712 -0.07775597
000140 c4 a6 ea 3d 25 dd 70 be 47 86 8a 3e 6b f1 76 3e
       0.11457589 -0.2352186 0.2705557 0.24115531
000150 23 1a 59 3d 68 b8 7f be 8f 0c 49 3e 47 bb 73 be
       0.05300344 -0.24972689 0.19633697 -0.2380191
000160 dc a7 8a be da ba 2e bd 44 b1 9a be df 88 83 be
       -0.27081192 -0.042658664 -0.30213368 -0.25690362
000170 dc 2d 25 3e 7b a1 15 3e 8a e8 28 3e 6f 90 88 be
       0.16130775 0.14612381 0.16494957 -0.26672694
000180 df 2a 9b 3d ca 80 20 3e cf 88 db bd 88 32 4f be
       0.075765364 0.15674129 -0.107194535 -0.2023412
000190 fd 47 7c be 83 85 32 3e 7a 45 4f bd e0 e4 fc 3d
       -0.24636836 0.17433743 -0.050603367 0.12348342
0001a0 67 04 aa 3d ef ce 03 be 20 00 7c 3e 3b cd 7b be
       0.08301621 -0.12871908 0.24609423 -0.24590008
0001b0 b8 89 48 bd af c3 96 be bd 68 7e 3e 46 07 81 be
       -0.048959464 -0.2944617 0.24844642 -0.25200862
0001c0 de 28 38 be 54 ce 02 be f1 f1 76 3e a7 57 73 3e
       -0.1798434 -0.1277402 0.24115731 0.23763905
0001d0 68 91 98 3e 1c 9b e8 bc f0 eb 72 be eb ec 6f be
       0.29798436 -0.028394274 -0.23722816 -0.23430221
0001e0 15 36 5c bd 78 9a 86 be 8a 12 ae 3d 60 34 49 3e
       -0.053762514 -0.26289725 0.0849963 0.19648886
0001f0 d4 ef 59 be 2c a8 51 3e d2 28 97 3e cf b3 10 3e
       -0.21282893 0.20474309 0.2952333 0.14131092
000200 a4 aa 9f be 71 f2 60 be 32 30 9d be b3 60 70 bd
       -0.31184876 -0.21967484 -0.30700833 -0.05868597
000210 da bf 49 3e c9 e3 01 be a4 3d 62 3e 6e f8 3d be
       0.19702092 -0.1268455 0.22093827 -0.185518
000220 e6 4a 95 3e d0 4f 15 be 9f 78 87 3e b9 30 1b be
       0.29158705 -0.14581227 0.26459214 -0.15155305
000230 88 19 54 be ab 8e 4b be b1 01 a6 3c 2d 8f 15 be
       -0.20712864 -0.19878642 0.020264478 -0.14605398
000240 16 3b 73 3e 64 50 60 be 06 27 61 be e1 fa 23 be
       0.23753008 -0.21905667 -0.21987543 -0.16013671
000250 ed cc 36 be 0e ea 81 be c1 f7 09 3e 95 ec 6a 3e
       -0.1785161 -0.25373882 0.13473417 0.22941811
000260 81 bb 68 3e cd 9d ff 3c 6e 30 66 be f1 01 fc 3b
       0.22727777 0.031203175 -0.22479412 0.007690661
000270 18 71 1e be 77 ea 92 3e be 5f a8 bb 99 5e 0a be
       -0.1547283 0.28694507 -0.0051383665 -0.13512649
000280 f2 87 00 be 02 85 9f 3e d5 e5 ea bd ca c8 5d be
       -0.12551859 0.31156164 -0.11469618 -0.21658626
000290 32 a9 90 be da ad 9c be ff 30 89 be 46 ee 9d 3d
       -0.28254086 -0.30601388 -0.26795194 0.07711463
0002a0 2e 42 14 be 26 1e cc bd b6 bc 96 be 84 f1 9a bd
       -0.1447837 -0.09966688 -0.2944085 -0.07565597
0002b0 93 1f 8e be ed 01 44 be 27 83 08 3e 13 a3 14 3e
       -0.27758464 -0.1914136 0.1333128 0.14515333
0002c0 62 7a 9a 3e d3 21 87 3e 05 4f ab bc d5 27 59 be
       0.30171496 0.26392993 -0.020911703 -0.21206601
0002d0 a2 b8 32 be 1c db 67 3e ea 9d 73 3e 8b f5 95 3e
       -0.17453244 0.22642177 0.23790708 0.29288897
0002e0 15 34 52 bd 29 30 8d 3d 71 4d 2f be 19 db 9a be
       -0.0513192 0.068939514 -0.17119385 -0.30245283
0002f0 05 48 8f 3e cc 87 5c be 2b 34 9a be af 8a 31 3e
       0.27984634 -0.21536177 -0.30117926 0.1733806
000300 d0 7b 1c bd 03 d0 c3 bd b1 57 7c be 8c 15 20 3e
       -0.038204014 -0.095611595 -0.24642827 0.1563322
000310 bb 4c 96 3e 8a 2b 5e 3d 9c f0 24 be b4 e4 63 3c
       0.29355416 0.05424074 -0.1610741 0.013909508
000320 34 12 5e be c0 bb 9f 3d ec 57 16 3c 2d 64 a9 3d
       -0.21686631 0.07799482 0.009176236 0.0827106
000330 58 fb 63 3e c8 07 86 be b1 06 11 be f7 81 28 3e
       0.22263849 -0.26177812 -0.14162709 0.16455828
000340 34 8a 55 be fd dd c7 bd f9 e9 9b 3d 8d 01 3c 3e
       -0.20853502 -0.09759138 0.07612986 0.18359967
000350 d3 c3 ae 3c a9 03 67 3e 80 31 49 3e ce 58 42 3e
       0.02133361 0.2255999 0.19647789 0.18979189
000360 fc 9b 25 be 88 a1 eb bd da 92 67 be 56 2f 06 3e
       -0.16172785 -0.11505419 -0.22614613 0.13103995
000370 26 54 33 3e 19 c1 3e 3e b3 16 93 3e 32 96 dc 3d
       0.17512569 0.18628348 0.28728256 0.10770835
000380 8c 09 50 3e 00 ee 4e bd fc d8 60 be 34 bd f5 bd
       0.20316142 -0.050519943 -0.21957773 -0.11998978
000390 3d f3 7b 3e 2b cd 8e 3e b8 4c 3d 3d 31 80 89 3e
       0.24604507 0.27890906 0.046215743 0.26855615
0003a0 0d c3 81 3e 00 ea 5d bd 3d fe 8c 3b e7 25 23 be
       0.25344124 -0.054178238 0.0043027685 -0.15932427
0003b0 e5 36 8c be 38 7e 74 be e9 d9 e6 bd bb b9 85 be
       -0.2738563 -0.23876274 -0.11272032 -0.26118264
0003c0 bd 25 92 3e 11 a9 a5 bd 36 99 94 bd 26 4e 4b 3d
       0.28544417 -0.080888875 -0.07255785 0.049635075
0003d0 0d ba 66 3d a7 f5 72 3d 84 92 c8 3d ae de 64 b9
       0.056329776 0.059316304 0.09793571 -0.00021826729
0003e0 44 51 4a be fb be 90 be df ff 60 3e 1d 2c 61 be
       -0.19757563 -0.28270707 0.21972607 -0.21989484
0003f0 3b 51 ae bd dc 59 fa bd ea a1 79 be 42 cb 9b bd
       -0.08511587 -0.122241706 -0.24378172 -0.07607128

lstm.bias_ih_l0 f4 [40]
000000 2f 4a 93 be 29 05 84 be 20 c8 16 3e 24 bc b2 bd
       -0.28767535 -0.25785187 0.14724779 -0.08727291
000010 13 70 dd 3d 35 82 2e 3d 84 c1 1d 3e 5a 6f 8b be
       0.10812392 0.042604644 0.15405852 -0.27233392
000020 e3 79 8d 3e b9 ce 86 3e 6b c2 8b 3e 0a 02 86 3e
       0.27632055 0.26329592 0.27296767 0.2617343
000030 d9 7e ab 3b 6c 1a fe bc e1 38 91 3e a2 07 42 bc
       0.0052336273 -0.031018458 0.28363708 -0.01184264
000040 08 d5 4b 3e 4d fa 7e 3e 69 58 a1 3e 61 86 81 ba
       0.19905484 0.2490017 0.31512764 -0.0009881967
000050 7b d7 fd 3d fd 77 8d be 04 b6 ac 3b b5 64 82 bd
       0.12394615 -0.27630606 0.0052707214 -0.063668646
000060 7a c0 70 3e b0 bd b9 3d ed 6b 7f 3e 9e 9e c6 bd
       0.23510924 0.09069383 0.24943514 -0.096982226
000070 3a 68 88 be b9 6b 9e 3e 55 0f 35 3e 39 3b 02 3e
       -0.2664202 0.3094156 0.1768163 0.12717904
000080 82 f4 15 bd af 40 89 be e8 40 88 3e e4 30 82 3e
       -0.036610134 -0.26807162 0.2661202 0.25427926
000090 87 4a 3c 3e a8 ae 84 3c cd e0 4b 3e ad 81 e2 3d
       0.18387805 0.016196564 0.19909973 0.1105989

lstm.bias_hh_l0 f4 [40]
000000 ed 13 a5 bd 26 6f f4 bc e9 e3 63 bd f8 f7 6c be
       -0.08060441 -0.029838156 -0.055637274 -0.23141468
000010 25 38 9c be 31 48 a0 3d f1 5a 4c 3d 8a 52 00 3e
       -0.30511585 0.078262694 0.049891416 0.12531486
000020 24 fc 5c be 5e 76 27 be dd f5 17 be a3 d1 ba 3d
       -0.21580559 -0.16353747 -0.14839883 0.09122016
000030 c9 7e c7 ba 29 fe 48 be e4 40 3a be 5e 3b 1a 3d
       -0.001522028 -0.19628204 -0.18188816 0.037654273
000040 a9 a4 06 be d4 dc 91 bd f0 4a 92 be 74 9e 92 be
       -0.1314875 -0.07122198 -0.28572798 -0.28636515
000050 b7 86 7d 3e 2f 17 f8 bd c2 6b 62 be 43 cb 97 3e
       0.24758421 -0.12113797 -0.22111419 0.29647264
000060 c0 87 3c 3d 82 40 1f 3e 46 46 1e be 7a 94 8d be
       0.0460279 0.15551952 -0.15456495 -0.2765234
000070 56 94 9c be c3 1d 87 3d 31 13 39 be 42 a4 4c be
       -0.3058192 0.065974735 -0.18073727 -0.19984534
000080 bd f4 14 be 55 7f 36 bc 70 69 9c 3e 74 f0 6b 3e
       -0.14546485 -0.011138757 0.30549192 0.23040944
000090 20 43 c5 bd 84 48 83 3e 7a ad 80 3e 20 75 87 be
       -0.09631944 0.25641263 0.25132352 -0.26456547

lstm.weight_ih_l1 f4 [40, 10]
000000 76 3d 9d bd 70 01 dd bd 43 cb 8e be 92 ed 0d be
       -0.07677738 -0.1079129 -0.2788945 -0.13860157
000010 95 43 1a be 7f 72 80 3e 3f d5 b6 3d e9 8b 6b be
       -0.15064843 0.25087354 0.08927392 -0.2300259
000020 8b 29 54 be 8f 12 58 3a 38 f1 6f 3e eb 19 9d 3e
       -0.20718972 0.00082425115 0.23431861 0.30683836
000030 65 63 78 bc e6 2c 5a be 33 3a 6f be 88 e9 2a be
       -0.015160416 -0.2130619 -0.23362045 -0.16690648
000040 06 c2 d1 3d 15 43 8e 3d 56 a6 b4 3c bb 96 0c be
       0.10242085 0.06946389 0.022051971 -0.13729374
000050 64 e6 83 3e 05 09 59 3d 6f b2 11 3d 49 c0 1f 3e
       0.25761712 0.052987117 0.03557056 0.15600695
000060 19 ab 7e 3d 1c 5d 92 be 8d b6 3f bc 37 0e 32 bd
       0.06217489 -0.28586662 -0.011701238 -0.043470588
000070 4a 61 a1 3e b8 55 1e 3e d3 2a 92 3e a6 60 2e be
       0.31519538 0.15462387 0.28548297 -0.17029056
000080 46 34 e1 3d ed 24 7c 3e c6 81 09 be 5c 90 01 3e
       0.109962985 0.24623461 -0.13428411 0.12652725
000090 27 82 cf bd e5 04 7d 3e a9 2d c5 bd 7c 1e 82 be
       -0.101322465 0.24708898 -0.096278496 -0.25413883
0000a0 ac 33 82 3a c9 c5 7a be 3a 26 30 3e c6 61 59 3e
       0.0009933612 -0.24489512 0.17202082 0.21228704
0000b0 89 ab 26 be 3b 6b 3e be 38 c3 8f 3c 69 5d 52 3e
       -0.16276373 -0.18595593 0.017549142 0.20543446
0000c0 4f fe 40 be 9c 86 9a bd 6c 79 49 bd 2c 6e df 3c
       -0.18847011 -0.07545206 -0.049188063 0.027274214
0000d0 10 19 26 3e 04 da 8a be f6 34 86 3c 03 7f 1a be
       0.16220498 -0.27119458 0.016382676 -0.15087514
0000e0 89 53 33 3e b7 72 5a 3e bf 60 d8 3d 36 bf 13 3e
       0.17512335 0.21332823 0.10565328 0.1442841
0000f0 6c ab 3c 3e 63 42 51 3e 80 4d c5 bd 7a fd 19 3e
       0.18424767 0.20435481 -0.096339226 0.150381
000100 e2 4e df 3d 9f cf 61 be d2 5c d9 3d 71 ba 8b 3e
       0.109037176 -0.22051857 0.10613407 0.2729068
000110 cb 08 7b bd 0a 3d 8b be bd 2a 8e be 54 05 a6 3d
       -0.061287683 -0.27195007 -0.27766982 0.08106485
000120 bb ad 96 3e 83 80 28 3d c8 d2 45 be 35 42 9a be
       0.2942942 0.041138183 -0.19318688 -0.30128637
000130 f3 c9 88 3e c6 18 8f 3b 09 4e 86 3e 4a 94 61 bd
       0.26716575 0.004366967 0.2623141 -0.05507306
000140 5c ba 83 be 6e 18 19 be 63 af 9c 3e 27 a7 4f 3b
       -0.25728118 -0.14950725 0.3060256 0.0031685324
000150 7f cd 76 be 53 6e 7b 3e da 42 e9 3d 8c 57 88 be
       -0.24101828 0.24553804 0.11389704 -0.26629293
000160 24 e2 96 be a3 b5 2b 3d b7 02 1a be d7 4c 2f 3e
       -0.29469407 0.04192127 -0.15040098 0.17119156
000170 6d b6 5b be 1c 81 97 3e 5e e5 83 3e a7 8e 5d 3d
       -0.21456309 0.2959069 0.2576093 0.054091122
000180 2b 36 ba 3d 93 91 29 be 76 d7 11 3e fe cd bc 3d
       0.09092363 -0.16559438 0.14242348 0.092189774
000190 1c 21 65 3e 61 ea e4 3c 96 28 99 3d d1 fd d5 3d
       0.22375911 0.027943792 0.07478444 0.10448802
0001a0 89 85 9b 3e 2d 3b 48 be 23 e2 03 be 07 d6 89 be
       0.30375317 -0.19553824 -0.12879233 -0.26921102
0001b0 58 89 8e bd 04 02 8c be c8 74 83 be 7b 3b 4e 3e
       -0.0695979 -0.27345288 -0.25675035 0.20139877
0001c0 0a 06 43 3a 36 75 07 3e 76 e7 9d be bd b0 37 3e
       0.00074395596 0.13228306 -0.30840653 0.17938514
0001d0 2a 0b 9f 3e 64 4e a0 3e 9c 86 9d 3d 4f b2 74 bd
       0.31063205 0.31309807 0.0769169 -0.05974036
0001e0 21 f5 13 bb 98 56 49 bd 78 76 65 bc 56 29 ac 3d
       -0.0022576528 -0.049154848 -0.014005296 0.08406322
0001f0 2a 4f d6 3d 18 fa 22 3e 1b 7d de bd 25 9f 9b bd
       0.10464318 0.15915716 -0.10863706 -0.07598714
000200 4d 88 bc 3d 65 b0 46 3e f0 c9 4f 3c 46 ab 99 3e
       0.09205685 0.19403227 0.012682423 0.30013484
000210 a3 3f 98 3e 39 9f 63 3e cc e7 28 3e f4 3a 8d 3e
       0.2973605 0.22228707 0.16494673 0.2758404
000220 16 f8 6c 3e 05 b2 81 3e 87 7f 07 be 4a 10 9d 3e
       0.23141512 0.2533113 -0.13232242 0.3067649
000230 b1 23 02 be e6 da f6 bd 31 58 2b 3e 87 31 98 3e
       -0.12708928 -0.1205347 0.16732861 0.29725286
000240 73 01 71 3e c3 d7 99 be cf a9 3a bb ce 5c 97 3e
       0.23535709 -0.30047426 -0.0028482561 0.29562992
000250 28 0c 97 3e 23 54 4e be 60 0f eb 3d 3f fd 99 be
       0.29501462 -0.20149283 0.11477542 -0.30076024
000260 74 16 c8 3d 4f 34 f0 bd 32 75 23 3d 8f 1f 10 3b
       0.097699076 -0.11728727 0.039906688 0.0021991467
000270 c2 77 97 3e c6 37 73 be 97 d2 4d be 28 b1 5b 3e
       0.29583555 -0.23751745 -0.20099865 0.21454298
000280 4e cc 8e bd b6 3b 58 be ec ba 09 bc 21 c0 9a 3e
       -0.06972562 -0.21116528 -0.008406382 0.30224708
000290 08 e9 33 be a3 90 f8 bd ee ae aa 3d d3 50 69 3e
       -0.17569363 -0.12136962 0.083341464 0.22784738
0002a0 d1 5f 5e 3e 9a 26 38 3d 65 c5 8d 3e 59 3d 46 3e
       0.21716239 0.04495869 0.27689663 0.1935934
0002b0 bc 77 96 be 5f 69 54 3e f6 be 29 3e 4a 4c 9f 3e
       -0.29388225 0.20743321 0.16576752 0.3111289
0002c0 5a a6 9d 3e f7 6d e7 3d c2 0d 60 be df 7c 29 3e
       0.3079098 0.11300271 -0.21880248 0.16551541
0002d0 a1 33 25 3d ad 05 8e bd 68 74 3a bd 3b 56 1c be
       0.04033244 -0.06934676 -0.04552117 -0.1526727
0002e0 86 32 92 be 3f f4 94 be 2a 59 90 3e 18 64 6c be
       -0.2855417 -0.29092595 0.28193027 -0.23085058
0002f0 c3 f2 f4 bd 76 3b 8c 3d 19 c7 7d bd 81 65 80 bd
       -0.119603656 0.06847279 -0.061957452 -0.0626936
000300 e7 a3 0a be 11 c4 5a be 2d 62 69 3b d4 42 62 be
       -0.13539086 -0.21363856 0.0035611496 -0.22095805
000310 ca e7 90 bd cb d9 1c 3e 7f d6 08 be 53 2b c8 3d
       -0.0707546 0.15317456 -0.13363074 0.097738884
000320 b8 63 92 be 05 db 9c 3e f1 42 66 3e 3f da 36 3c
       -0.28591704 0.3063585 0.22486474 0.011160432
000330 42 e3 36 bd cc 99 7a 3d 48 78 1d 3e 57 db 4f 3e
       -0.044650324 0.06118183 0.15377915 0.20298515
000340 46 5d e9 3d 3b 69 e2 3d bb e2 ba bc 45 9c 93 bb
       0.113947436 0.11055227 -0.022813192 -0.0045047128
000350 fd 6e 8a be 9f d5 82 bd 0c ba 82 be 67 53 d7 bc
       -0.27037802 -0.06388401 -0.25532568 -0.026284887
000360 b5 49 85 bd 98 8d d8 bd 6b 6c 7d be 65 dd a1 3e
       -0.06508199 -0.10573882 -0.2474839 0.31614223
000370 2c 09 a1 be d0 f9 da 3d c2 2e 37 be c5 a0 34 be
       -0.3145231 0.10692179 -0.1788893 -0.17639454
000380 ef 1d 96 3d e2 50 f3 bc ec a8 aa bc b4 9d 1b 3e
       0.07329928 -0.029701654 -0.020832501 0.15196878
000390 ec 86 5b be 8a 92 6e be a4 c2 60 3e 46 4a 78 be
       -0.21438187 -0.23298088 0.2194925 -0.24247083
0003a0 a5 f1 a2 3d f4 fc 98 3e c2 33 4d 3a bb c4 8d 3e
       0.07956246 0.29880488 0.0007827842 0.27689156
0003b0 56 00 58 bd 6e 8f 84 bd 64 7a 16 3d 75 f5 95 3e
       -0.052734695 -0.064726695 0.036737815 0.2928883
0003c0 87 08 4c 3d 55 32 53 3e b5 99 ae bd b9 2d ac bb
       0.04981282 0.20624669 -0.08525411 -0.005254474
0003d0 fe 78 85 3e 3d 68 f2 3d b3 e5 53 3e 57 c3 68 be
       0.26068872 0.11836288 0.20693092 -0.22730766
0003e0 d5 09 78 be 25 fb 2c 3e 26 37 79 3d 0b d7 31 be
       -0.242225 0.16892679 0.06084361 -0.17367189
0003f0 8e 72 1e 3e c2 a8 95 be f0 a0 47 be 6c ab cf 3d
       0.15473387 -0.29230314 -0.19494987 0.10140118

lstm.weight_hh_l1 f4 [40, 10]
000000 ec d4 e8 3d 90 33 c1 bd 4e 67 0f be 76 85 2d bc
       0.113687366 -0.09433663 -0.14004251 -0.010590902
000010 b7 ab 3d 3e 39 ea 61 3e f7 e7 16 3d 70 40 9f bd
       0.18522535 0.22062005 0.036842313 -0.07775962
000020 ab f4 ef 3d 6f 08 9c 3e ec 46 73 be 5f ed 6d 3e
       0.117165886 0.30475184 -0.23757523 0.23235081
000030 30 16 58 be 88 5f 86 3e 32 9f aa bd 69 71 65 3d
       -0.21102214 0.2624476 -0.08331145 0.05601636
000040 ce dc 39 3e 1b d9 9a 3d 87 c1 35 be ba 9a 96 3c
       0.18150637 0.07560941 -0.17749606 0.018384326
000050 df 3d 98 be 16 f3 5f be 39 61 72 be 16 10 b1 3d
       -0.29734704 -0.21870074 -0.236699 0.08645646
000060 0b 4f 2f bd b5 eb 96 3e 08 72 23 3e 9a 0f b9 3d
       -0.04279999 0.29476705 0.15961468 0.09036179
000070 46 04 06 3e b7 4b 05 be 8f 5e 2d 3e 95 44 ce 3c
       0.13087568 -0.13017164 0.16930602 0.025179187
000080 44 26 8b 3c da 41 9d bc d6 15 27 bd 18 44 6c 3d
       0.01698602 -0.01919644 -0.04079231 0.057682127
000090 6c 5a 4b be e5 bb 54 be 73 e5 9d 3e d1 1b a9 3d
       -0.19858712 -0.20774801 0.30839118 0.08257259
0000a0 51 d9 8b be 7b e3 95 3e ab 59 d4 3d 37 d4 27 be
       -0.27314237 0.29275116 0.10368665 -0.16389547
0000b0 d1 8e 4b bd b7 7b 46 bd 45 c7 32 3e d4 38 e9 3c
       -0.049696747 -0.048457827 0.17458828 0.02846948
0000c0 5f d1 7b be bd 55 6b 3d b7 50 32 be 3a 91 db 3d
       -0.24591587 0.057454813 -0.17413603 0.10721059
0000d0 22 cb 5c be e7 4d 46 be 40 40 93 be 2c 3e 83 3c
       -0.21561864 -0.19365655 -0.28759956 0.016020857
0000e0 c5 84 23 3e a2 ac 30 bd 8d 0b 5c 3e 5a 07 6b 3d
       0.15968616 -0.043133385 0.21488781 0.057380058
0000f0 b1 f3 88 3e fd 5a c0 ba 32 1f 98 3e 82 53 42 3e
       0.26748422 -0.0014675554 0.297113 0.18977168
000100 8b 4b 38 be 95 7e 30 bd 38 b0 9e 3e 62 09 4d 3e
       -0.17997567 -0.043089468 0.3099382 0.2002311
000110 fa 6e eb bd e6 86 05 be d7 83 18 be e9 cd 4a 3e
       -0.114957765 -0.13039741 -0.14894043 0.19805111
000120 0a 8b 24 3e 89 ae 7e 3e f0 eb 48 3e 8e 37 27 be
       0.16068664 0.24871267 0.19621253 -0.16329786
000130 25 4e 92 be 18 c8 2e 3d 59 7d e5 3c 5d 32 c2 3d
       -0.28575245 0.042671293 0.028013872 0.09482262
000140 3b 44 13 be a1 d8 58 be 84 6e 8b 3e 38 70 91 3e
       -0.14381497 -0.21176387 0.27232754 0.2840593
000150 e7 80 41 3e c0 59 9c 3e 56 2f 41 3d 0f 31 c2 bd
       0.18896829 0.30537224 0.047164284 -0.094820134
000160 20 19 03 3e 62 a2 26 3e c0 0c 1b 3d e3 6c 52 bd
       0.12802553 0.16272882 0.037853956 -0.051373374
000170 cb d7 d9 3c 5d 9b 2d be f3 35 da 3d 3f c8 55 3e
       0.026592156 -0.16953798 0.10654821 0.20877169
000180 54 e1 10 3d fb 6d b3 bd 66 7d 57 be d5 98 99 3e
       0.03537114 -0.087612115 -0.2104393 0.29999414
000190 39 09 50 3d 12 db e2 bd e8 cb 19 be 61 d5 32 3e
       0.050790045 -0.110769406 -0.1501919 0.1746421
0001a0 e3 10 9f bd 86 ac 04 3d 38 39 01 bd 5c 0b 1b 3e
       -0.07766893 0.032391094 -0.03154871 0.15141052
0001b0 ef 33 7a bc 4f 8b c9 3d 70 c6 7f 3e 6d 9c 70 be
       -0.015271171 0.09841024 0.24978042 -0.23497172
0001c0 77 5f c5 3d 45 dc c4 3b 92 a3 6b 3e 73 cc 9a be
       0.09637349 0.0060077035 0.23011616 -0.30234107
0001d0 61 0b 87 3e c7 66 6d be 31 64 b2 3d 29 c0 33 bd
       0.2637587 -0.23183738 0.08710516 -0.04388443
0001e0 f0 29 9c 3e 51 65 0b bd 18 95 09 bd 4b 8c 1f be
       0.30500746 -0.03403217 -0.033589453 -0.15580861
0001f0 78 cc 4c bd 88 2b 70 bd de 25 02 be 21 f1 62 3e
       -0.049999684 -0.058635265 -0.12709758 0.22162296
000200 15 b4 53 3e 07 4f 8f bd a7 b2 ef 3c 36 37 5e be
       0.20674165 -0.06997495 0.029259993 -0.21700749
000210 85 73 8d 3d 60 17 6a bd 06 b8 3c 3e 25 53 92 3e
       0.06906799 -0.0571512 0.18429574 0.2857906
000220 6f 4b 50 3c fa c7 75 be 2f d1 d1 38 7c 27 f7 3d
       0.012713297 -0.24002066 0.0001000486 0.12068078
000230 af 6d 26 be 37 46 83 3d 84 00 06 be 7a d5 8c be
       -0.16252778 0.06409877 -0.13086134 -0.2750662
000240 0e 56 81 bd 5f c8 36 3e 1d 32 43 3d fa be 72 3e
       -0.06315242 0.17849873 0.047655214 0.23705664
000250 cd f7 a7 bd 1e c1 de bc 64 a5 a8 3c 40 b3 07 be
       -0.08201561 -0.027191695 0.020586677 -0.13251972
000260 f3 9b 9c 3e 51 2b ad 3d 76 3d 3d 3b 09 df a7 3b
       0.3058773 0.084555276 0.0028875745 0.0051230234
000270 ff e0 90 3e d6 9d 86 be 56 d2 a2 3d 9a 70 89 3e
       0.28296658 -0.26292294 0.07950275 0.2684372
000280 f4 ff 54 3e 67 87 85 be cd 7f af 3d 5f 11 4c be
       0.20800763 -0.26079866 0.08569298 -0.19928502
000290 c6 a9 8c 3e 14 b0 b4 3d 44 7e a9 bd 41 62 61 be
       0.27473277 0.08822647 -0.082760364 -0.22010137
0002a0 81 fd 73 bd 90 5d 63 be 88 1a 3c 3b 13 47 65 be
       -0.059567932 -0.2220366 0.0028702337 -0.22390394
0002b0 f4 50 2c be 34 ac a4 bd 2d 8e 8e 3e d3 7d 7c 3d
       -0.16827756 -0.08040658 0.27842847 0.061643433
0002c0 08 12 64 3e 99 98 c4 bd f8 84 03 3e a1 ca 96 3e
       0.22272503 -0.09599418 0.12843692 0.2945147
0002d0 49 26 84 3c 63 99 02 3e c1 68 a8 bd 89 a2 5d bd
       0.016131537 0.12753825 -0.08223105 -0.054110084
0002e0 72 95 af bd 9c 15 15 be 81 b2 2d 3e 06 71 c6 3d
       -0.08573426 -0.14559025 0.16962625 0.09689526
0002f0 51 d1 81 be 65 7d 21 be e7 5f 2a be 7e 53 46 be
       -0.25355008 -0.1577049 -0.16638146 -0.19367787
000300 f1 1e 6e be 9d b9 61 be be 39 53 be 4e 6b 94 3e
       -0.2325399 -0.22043462 -0.20627496 0.28988117
000310 4d a9 eb 3b c8 a9 c2 bc 5c fe 83 bc ae ee 49 3e
       0.007191813 -0.023762599 -0.016112499 0.19719955
000320 b5 de 30 be d8 d3 b6 3c e8 50 89 3d 59 de fb 3d
       -0.17272456 0.022317812 0.06704885 0.12298269
000330 20 2a cc 3a cc c9 23 3e 1e f8 37 3e 94 15 37 bd
       0.0015576519 0.15994948 0.17965743 -0.044698313
000340 42 f1 0a bd 06 4d 9a 3e a1 df 3f 3e 67 e2 a0 3e
       -0.033921488 0.3013689 0.18737651 0.3142273
000350 bb 66 e4 3d b3 b9 c0 3d 76 84 4e 3d ce bd 90 be
       0.11152407 0.09410419 0.050419293 -0.2826981
000360 b2 31 2f be 17 84 6f bd ee a3 80 3e 45 3a 98 3d
       -0.17108801 -0.05847558 0.25125068 0.07432989
000370 c6 c0 5a 3e bf 90 b0 3d c8 46 a0 be 73 e7 0c 3e
       0.213626 0.08621358 -0.31304002 0.13760166
000380 a5 1c 5f 3e fd 83 d2 bd 62 b4 23 3e f8 13 47 be
       0.21788271 -0.10279081 0.1598678 -0.19441211
000390 90 32 1d 3e b7 b9 b9 bc 9b ae 73 be 2c 84 0f 3e
       0.1535132 -0.022671564 -0.23797075 0.14015263
0003a0 c7 cd 86 3c 47 cb e5 bd fa 2f e3 3b dd c7 a2 3b
       0.016455544 -0.11220413 0.0069332095 0.004967673
0003b0 b1 a9 1a 3d 6f 7d 26 be 6c 81 85 bd 24 48 9a be
       0.037759487 -0.16258787 -0.06518826 -0.30133164
0003c0 82 67 8d 3e be 65 52 be d6 d3 93 be 12 49 72 3e
       0.27618033 -0.20546624 -0.28872555 0.23660687
0003d0 d3 f7 95 be e7 5b 80 be 11 ab 57 be 1f 2c 64 be
       -0.29290637 -0.25070116 -0.2106135 -0.22282456
0003e0 04 e3 50 3e 74 26 40 bd ef 63 12 3e b9 92 9e be
       0.203991 -0.04691167 0.14295934 -0.30971316
0003f0 7b de 03 be 64 7d 3f bd 11 5f 94 3e 73 ed 28 3d
       -0.12877838 -0.04675044 0.2897878 0.041242074

lstm.bias_ih_l1 f4 [40]
000000 1d fe 2a be e2 18 07 3d 57 e5 00 be dd 38 f2 bd
       -0.16698499 0.032982714 -0.12587486 -0.11827252
000010 f7 92 d4 3d af b7 77 3d 4f ca 45 3d 2b 1b 70 bd
       0.10379594 0.06047791 0.04828864 -0.05861966
000020 d8 3c d9 bd 3e f1 ae bd b4 80 a7 3d 6e aa 35 3d
       -0.10607308 -0.08542107 0.08178845 0.044351988
000030 88 56 8b 3e 18 84 31 3e 0d f5 45 be 3d 5e 86 3e
       0.27214456 0.17335546 -0.1933176 0.26243773
000040 df f2 a0 3e ae bd 55 be 64 30 d6 bd dd 1c 87 be
       0.31435296 -0.20873138 -0.104584485 -0.26389208
000050 07 47 03 be f3 d9 27 be 1f 17 4c 3e 36 ee a6 bd
       -0.12820064 -0.16391735 0.19930695 -0.08150904
000060 d2 23 5e 3e 57 71 58 be 16 26 07 bd 20 b1 f1 bc
       0.21693352 -0.21136986 -0.032995306 -0.029503405
000070 cc 12 eb 3d 64 b8 3b be c0 83 4b 3e 9b 99 9a be
       0.114781946 -0.18332058 0.19874477 -0.30195317
000080 78 ce 84 3e 54 58 bb bd ca 26 f0 bd 6b e2 39 3e
       0.25938773 -0.09147707 -0.117261484 0.18152778
000090 48 d7 99 be 9b 57 78 be 70 5e 7f 3d 2d 92 e8 bd
       -0.3004706 -0.24252169 0.062345922 -0.11356006

lstm.bias_hh_l1 f4 [40]
000000 4c ba ce bd da f6 a7 bd bc e4 58 bd 75 3e 8b 3d
       -0.10094127 -0.0820138 -0.052952513 0.06799022
000010 98 ce 66 be 8e ff 6a 3e ed 6c 3d be 09 48 9c be
       -0.22539747 0.22949049 -0.18498583 -0.30523708
000020 dd 49 9b be a5 3e 33 3e ef 03 de 3b 4f dd c9 3b
       -0.3032979 0.17504366 0.0067753713 0.0061604152
000030 3b f8 19 3e 0b a8 05 bd 09 41 70 3a 17 ea e8 3d
       0.15036099 -0.03263096 0.00091649644 0.11372774
000040 38 5e 55 bd 45 d8 a0 3e db bf 10 be 42 0c 65 bd
       -0.052091807 0.31415 -0.14135687 -0.055919893
000050 e5 f3 5f 3e 53 71 9b be 5c 20 2d 3e a4 b0 69 3d
       0.21870382 -0.30359897 0.16906875 0.057053223
000060 10 83 52 bd b4 cc 4d 3e 0e b4 4d be a3 44 64 be
       -0.051394522 0.2009762 -0.20088217 -0.22291808
000070 5b b1 8e be a5 f1 47 be 0f 6b 8d bd ad 3a 83 be
       -0.27869686 -0.19525774 -0.069051854 -0.25630704
000080 73 e3 28 3d 3e b3 78 3d b6 12 89 be 23 b6 56 be
       0.041232537 0.060717814 -0.26772088 -0.20967917
000090 61 88 27 3e b7 73 80 be b3 c9 85 3d 9e 07 83 3e
       0.16360618 -0.25088283 0.06532612 0.2559175

fc.weight f4 [1, 7200]
000000 ae f3 de 3a 5e a8 59 3b e9 1c 2a 3c c0 a1 0b 3c
       0.0017009878 0.0033211927 0.010382869 0.008522451
000010 88 9b 1d bc b2 8d 98 bb ae be cf ba b8 d2 89 3b
       -0.009619601 -0.0046555633 -0.0015849674 0.004206028
000020 fb 26 14 3c c5 4f c0 bb 88 55 97 3b 8d 19 10 bb
       0.009042497 -0.0058688843 0.0046183504 -0.0021987886
000030 b7 08 38 3c 1a 3b 8a bb 88 b7 a8 bb 64 e2 fa bb
       0.0112325465 -0.0042184712 -0.0051488318 -0.0076563824
000040 11 0d 81 3a 3e 9d 02 3c bb e5 70 3b c0 08 02 bb
       0.0009845813 0.00797206 0.0036758024 -0.0019841641
000050 78 af 27 3c 77 e1 57 3b e4 ba 89 ba 55 fb 1d 3c
       0.010234706 0.0032940784 -0.0010507968 0.009642442
000060 40 fe 68 3a 2a 45 b3 3a 8b ef 18 bc be 91 fe ba
       0.0008887984 0.0013677229 -0.009334455 -0.0019422097
000070 35 47 19 bc 73 1c 2a 3c a6 c4 2a bc 25 8c 2a bb
       -0.009355356 0.010382759 -0.010422861 -0.0026023474
000080 83 38 a8 3b 7b 64 22 3b ff 42 28 3c 9c 96 19 bc
       0.00513369 0.002477913 0.010269879 -0.009374287
000090 c9 f1 32 3c 30 4e b7 3b 1c 4f ba 3a 91 35 be bb
       0.010921904 0.0055940375 0.001421425 -0.0058047255
0000a0 08 5a f6 3b 58 2d d6 3a 83 a2 03 3c 1d 19 c2 bb
       0.007518057 0.0016340418 0.008034351 -0.005923404
0000b0 26 fc c3 3a 35 d7 99 39 86 16 95 3b 62 ef e0 3a
       0.0014952465 0.00029342776 0.004549804 0.0017161185
0000c0 db 16 8c 3a 90 01 c6 b9 0d 47 26 bc 56 ad 05 bc
       0.0010687964 -0.00037766667 -0.010148776 -0.008159002
0000d0 d6 e9 d9 3b 3a 10 93 bb b5 32 22 3c 7b c3 32 3c
       0.00665019 -0.0044880183 0.009899785 0.010910864
0000e0 60 a7 89 b9 5e 13 3f bc db 69 da bb 14 17 0f bc
       -0.0002625538 -0.011662332 -0.006665451 -0.00873353
0000f0 a6 bc e6 3b 09 55 6f 3b 2c 99 2c bb af b1 03 3c
       0.0070415316 0.003651919 -0.0026336415 0.008037969
000100 d4 70 0d bc ae aa 07 bc f3 e2 f9 bb 3b 4d 19 3b
       -0.008632857 -0.008280439 -0.0076259314 0.002339198
000110 41 29 46 bb 27 f7 85 bb 42 b3 31 bc 78 3d a6 bb
       -0.0030236992 -0.0040883007 -0.010845961 -0.0050732456
000120 fd 0f 22 3c 40 31 cb 3b 48 18 8f bb f7 5b 50 bb
       0.009891507 0.0062009394 -0.004366908 -0.0031793097
000130 91 e8 04 3b 94 d4 c2 bb c0 92 b8 3b 50 27 a6 3b
       0.0020280222 -0.0059457514 0.0056327283 0.0050706044
000140 5c 94 94 3a 93 26 a5 38 8a 1a 10 bc b1 a3 3d 3a
       0.0011335718 7.874998e-05 -0.00879539 0.000723417
000150 ae a5 1b bb 55 b5 38 bc 34 38 71 3a 14 24 f6 b8
       -0.0023749876 -0.011273702 0.00092017953 -0.00011736914
000160 65 0c c3 3b 5a f7 e6 bb 00 90 97 bb 87 8b 15 3c
       0.0059524053 -0.0070485296 -0.0046253204 0.009127504
000170 95 a5 6d 39 a0 ec 1e bc 87 8c a2 3a 00 be 6d bb
       0.00022663765 -0.0096999705 0.00124015 -0.003627658
000180 65 cc 31 3c d4 ad c2 3b 71 09 d7 3b 50 f3 ee bb
       0.010851954 0.005941132 0.006562405 -0.0072921887
000190 e7 b0 65 bb 80 c3 07 3c 4b d7 d1 bb cc 1e 22 3c
       -0.003504807 0.008286357 -0.0064038387 0.009895038
0001a0 64 61 84 bb 05 8f 49 bb 1d ca cc bb 7a a8 8a 3a
       -0.00403993 -0.0030755412 -0.0062496797 0.0010578774
0001b0 98 a1 2b 3c 38 85 06 3c c8 b5 1d bc 39 64 22 bb
       0.010475539 0.008210473 -0.00962586 -0.0024778976
0001c0 cb c0 99 bb 4d ae 10 3b 45 77 fc 3b 2d f1 53 3b
       -0.004692172 0.0022076548 0.0077046477 0.0032339797
0001d0 36 fd 84 ba cf 4d b4 3b c5 06 1d bc c7 f4 03 3c
       -0.0010146264 0.0055024396 -0.0095841335 0.008053965
0001e0 25 80 21 3c ff 05 c6 bb 52 ce 5e 3b 0e 3f 08 bc
       0.009857212 -0.0060431953 0.0033997488 -0.008315815
0001f0 b8 e9 b0 3a 41 16 15 3b ba 9e 37 bc d4 82 1f 3b
       0.0013497388 0.002274886 -0.011207277 0.0024339454
000200 d9 26 0d bc f9 ef 01 bc 86 ea 10 bc 38 d9 3d 3c
       -0.008615219 -0.007930749 -0.008844977 0.0115874335
000210 b7 df 39 bb e8 a2 0e 3c b4 6e 3d 3a 73 85 ad bb
       -0.0028362104 0.008705832 0.0007226274 -0.0052954494
000220 9c ba c7 b9 51 5c ab bb 13 2a ce ba 31 c8 52 bb
       -0.00038095273 -0.005229511 -0.0015729092 -0.003216278
000230 58 ea 59 3b 40 8d 1e ba 18 9d 07 3c 2f a2 11 bc
       0.0033251252 -0.00060482696 0.0082772 -0.008888765
000240 4d ef 25 3c 50 fe 0c bb 85 bf 9c 3b b6 b1 63 3b
       0.0101278545 -0.0021513887 0.004783573 0.0034743375
000250 1c 68 ce bb 34 55 1d 3c fb f0 29 bc 51 5d c1 bb
       -0.006299032 0.009602834 -0.010372396 -0.0059010168
000260 c1 e1 96 39 80 09 3a 3c 00 7d 14 bc b5 45 d8 39
       0.0002877843 0.011354804 -0.009063005 0.00041250666
000270 b1 59 14 3c 15 f6 b9 bb f2 4a be b9 af fc 84 3b
       0.009054587 -0.005675087 -0.00036295463 0.0040584425
000280 6a 51 e0 bb 76 45 67 3b 8b 98 cc 3b 56 24 2d bc
       -0.006845643 0.0035289205 0.0062437705 -0.010567745
000290 d5 b3 98 ba 05 9e 2e bb ea d6 96 bb 59 77 b9 3a
       -0.0011650274 -0.002664448 -0.0046032565 0.0014149948
0002a0 80 d8 d3 ba ec 70 91 3b a7 c2 84 3b 74 4f 18 bc
       -0.0016162544 0.00443851 0.0040515247 -0.009296287
0002b0 a5 b8 2f bc 15 9b 57 bb ba 95 8e 3b ea 3b 5b 39
       -0.010725175 -0.0032898833 0.004351345 0.00020907787
0002c0 b3 4b fc bb 31 3a 07 3c eb c9 c1 3b 2d cd 26 3c
       -0.0076994537 0.00825362 0.005913963 0.010180754
0002d0 97 c4 12 bb 95 85 78 3b cc d8 05 bc 9a 93 1b bb
       -0.0022395009 0.0037921418 -0.008169364 -0.00237391
0002e0 6b da 34 bc 00 56 12 bb fb 12 b7 bb cb c4 82 3a
       -0.011038403 -0.0022329092 -0.0055869794 0.0009976862
0002f0 1b 64 f9 3b 5a ef 9d bb b9 c9 11 bc bf a7 d9 bb
       0.0076108105 -0.0048197927 -0.008898192 -0.0066423113
000300 d9 b8 52 bb 55 cc 03 bc 51 50 a2 bb 8d 01 05 3c
       -0.0032153635 -0.008044322 -0.004953422 0.0081180455
000310 ef a4 16 3c 62 5e aa 3b 75 3d 87 38 3a 2b 0b 3c
       0.009194597 0.0051992396 6.448749e-05 0.008494193
000320 02 a5 36 bc 8a f9 bb b9 5d 1a a9 3b ab d1 19 bc
       -0.011147739 -0.0003585334 0.0051606135 -0.009388368
000330 33 c5 cf 3b 98 31 c8 b8 eb d4 28 bc 59 f1 e4 39
       0.0063406467 -9.545981e-05 -0.01030467 0.00043667367
000340 c0 45 2e 3c 05 3e 2d bb 66 54 44 bb 4f 8a 04 bc
       0.010636747 -0.0026434672 -0.0029957532 -0.008089616
000350 f1 15 c9 b9 65 c2 52 3b 25 48 9a 3b e0 8f 25 3c
       -0.00038354055 0.0032159325 0.0047083073 0.010105103
000360 d0 3a a4 bb 60 6b 1b bc 45 3d 87 b9 2a 74 97 3b
       -0.005011894 -0.009486049 -0.00025794856 0.004622002
000370 28 ff 06 bc ba 1d d0 3b fc d6 03 3b 6b 6f da ba
       -0.008239545 0.0063512 0.0020117154 -0.0016665285
000380 5e c2 1c 3c fd 9e d3 3b 55 5a a0 ba 87 9c e2 3b
       0.009567825 0.006458162 -0.0012233952 0.006915632
000390 30 0d 2c bb 67 b2 03 bc 65 1c 4a 3b 7d 2d 1d 3a
       -0.0026252978 -0.00803814 0.0030839678 0.0005995853
0003a0 e3 0e 0c bc 73 5d 3a 3c 8c 2d d2 ba 80 ce f4 ba
       -0.008548471 0.011374819 -0.0016035303 -0.0018677264
0003b0 0f fa 20 bc f4 42 0b bc 32 09 c1 3a b1 47 06 3b
       -0.009825244 -0.00849985 0.0014727472 0.0020489509
0003c0 ef c7 8d 3b 52 8f 3d 3c 7f d7 bd 3b 8e d4 b9 bb
       0.0043268125 0.011569815 0.0057935114 -0.0056710904
0003d0 b5 5c 35 3c 4f 04 f8 3b b1 87 0a 3c f4 2e 86 bb
       0.011069466 0.007568873 0.008455203 -0.0040949527
0003e0 d7 c9 6b bb f8 21 bb ba 57 5e d1 bb 1f 4a d6 3b
       -0.003597846 -0.0014277091 -0.00638942 0.0065395976
0003f0 14 02 88 3b 81 0c 06 bb e9 b4 0f 3c 6c bc ed bb
       0.0041506384 -0.002045423 0.00877116 -0.0072551277
