DeepLearning/timeSerise/.scale_batch_size_b3867699-7fcf-4926-a577-b9a292bc8ce6.ckpt (torch, 47861 bytes, 9 tensors)

lstm.weight_ih_l0 f4 [40, 50]
00000000: 10d3 a1bd b177 413e c65f 523e c4b2 8c3e
00000010: ba46 893d d463 3e3e fdd9 273e baae 393b
00000020: c2fc 86be 293a 5abe 9952 33be 6070 693e
00000030: 2f30 b1bc 9ca8 21bd fc0e 133e d635 96be
00000040: 26f9 943d 9a49 e83d 1135 c43d f6ed d13d
00000050: 125a dcbd c662 e03d 93fb 833e 6e04 483d
00000060: d110 51be 63d8 5c3d c02d 8ebe 7a62 6bbe
00000070: e5c2 703e 873d 82be b4b4 7bbd 89c1 863e
00000080: 7aad 4a3e abda 85be 23ed 453d b749 063d
00000090: 2f9e 2e3e 0a4a 85be 32ff dbbd 1075 7ebe
000000a0: 060e 06be 0419 8a3e 03ee 8a3e be54 0ebe
000000b0: 8395 98be dcf4 9cbe dc63 b93d 0b7c 853e
000000c0: 7489 4bbe da4e b33d a3c8 46be e04f 2c3b
000000d0: ee9f 393e 3778 613e 9832 7c3e 03be 86be
000000e0: 88e8 643e 8aab 9dbe 989c 503e f01e 953c
000000f0: fa6a 8ebe a5da f03c fd1a 883e 39b8 8e3e
00000100: 7281 f3bd 94ac 02be e4a9 debd 7225 a33d
00000110: f943 f5bc 0649 99be 2d60 583e 5a27 1cbe
00000120: 0d4f 86be 88d3 473c a40f 49be 5c85 0c3d
00000130: a91b 8dbe 392d b8bd 1641 553d d98f 40be
00000140: ac3e 8c3e f2b4 153e 0324 60be 72b8 ff3d
00000150: a943 ecbd 8654 433e 5328 a8bc f5ea 3b3e
00000160: fb2f 16be f980 a63a 0519 4ebc fae4 76be
00000170: 9022 8d3e 0ff8 74be d8c2 d63d 678b 903e
00000180: 2b2d cc3d cbb8 053e 0fa2 53be 5023 87be
00000190: 4aab 303e cf2d 99be a898 9dbb cbc1 983e
000001a0: c968 a03e 5f83 29be fe2f b8bd cd35 7fbd
000001b0: c515 043e b257 7d3e db17 3b3c 851d a63d
000001c0: 50d5 37be e415 863e 1fc8 8a3e 0a31 523e
000001d0: 64da 793e 2383 9d3e 28b7 3b3d e381 9dbb
000001e0: befc fe3d d8b8 633e 5f6c 72be 7b18 35be
000001f0: bcd3 413e 455c 91be 7af0 873e 0c0b 633e
00000200: 183b b7bd 00ad 873e 7184 38be e502 d9bd
00000210: 24bf 2b3e 0aa1 e83c 1cc9 8bbe a6fb 6e3e
00000220: 712a 4cbe e0cf 10be 4524 58ba 4d0d 073e
00000230: a399 86be 3c7d 02be 70ba 553e fa2b f8bc
00000240: 92c9 67be b4d1 773e 2154 96bd 500a 79be
00000250: 4cd7 90be 055c 513e de1a af3d 4a8d 6a3e
00000260: c088 633e c6dd 0abd 49c1 603d a586 363e
00000270: 11b4 4abd 922d 87be 410d 4dbd dc01 9dbe
00000280: a750 83bd 3644 1bbe 144f f8bc 6cea 863e
00000290: d51d 8d3e 65af 053d a4e0 a03e 9b91 013c
000002a0: 36fd b03d 50bc 84bd 7a8d 823e 7ac4 78bd
000002b0: f23e a13e 23e0 e3bd d9ac 63bd c083 8dbe
000002c0: 92f0 84bd efaf 783e e5ab d53c 4ee2 9bbd
000002d0: fbba c6bd 04b6 92be ca17 c03d 9363 833e
000002e0: 084c 8a3e b645 8bbe 30c7 d83d de84 303d
000002f0: 40b2 423e 97cc 953e 31c0 23be ae9c 943e
00000300: 42fb 32be 4f44 0bbc a764 013e 8c49 25be
00000310: 6388 9dbd ac71 493e d10e f73c 2aaf a3bd
00000320: 68b5 913e 6b57 013c 5195 2fbe 37e0 a1be
00000330: 1746 523e 6519 b73d 5ddd e23d 3674 f43d
00000340: a0d4 90be 6055 23be c3a0 f83d 91ed 243e
00000350: 80f6 8bbe bb3e 513d a590 533c ed12 ddbd
00000360: 82a4 26be d4d8 833d b04d 403e 37c6 213d
00000370: 949b 80bd 736d 673e 4819 8abe ec7c 96bc
00000380: df11 7fbd 0bb2 893e 2fc8 c63d 0623 ae3d
00000390: 29b1 9d3e f73b 463e 4ccb 1ebe 5cb5 8bbb
000003a0: 9207 243c c0de cc3d 7f62 1bbe 9294 383e
000003b0: 00b2 183e 8558 2d3e 23d4 053e 9666 90be
000003c0: 1665 b03d c7bc 693c 964e 87be eb7d 9e3e
000003d0: 28c8 083e 4210 1e3e 4353 ca3c b96a 1a3e
000003e0: 0fc2 863e 2324 373e 5bde 443e 5162 9cbd
000003f0: f51e 1abe 09e2 8cbe e4a3 b5bd c209 bd3d
-0.07901585 0.18893315 0.20544347 0.27480137 0.06702943 0.18592769 0.1639175 0.0028332905
-0.26364714 -0.21311249 -0.17511977 0.22796774 -0.021629421 -0.03946744 0.14361185 -0.2933795
0.07274084 0.113421634 0.09580434 0.102504656 -0.10759367 0.109563395 0.25777873 0.04883235
-0.20416571 0.0539173 -0.2776928 -0.22986785 0.23511846 -0.25437567 -0.06145163 0.2631953
0.19792739 -0.26143393 0.048321854 0.032785144 0.1705253 -0.2603305 -0.10742034 -0.24849343
-0.13091287 0.2697221 0.27134714 -0.13899514 -0.29801568 -0.30655563 0.0905225 0.260712
-0.19876653 0.08755274 -0.19412474 0.0026292726 0.18127415 0.22018515 0.24628675 -0.26316842
0.22354329 -0.30794936 0.20372236 0.018203229 -0.27815992 0.029401133 0.2658309 0.27874926
-0.11889924 -0.12761146 -0.10872248 0.079661265 -0.029939638 -0.29938525 0.21130438 -0.15249386
-0.26232186 0.012196429 -0.19634873 0.03430687 -0.27560166 -0.089930005 0.052064024 -0.18804874
0.27391565 0.14619806 -0.21888737 0.12486352 -0.11536343 0.19075212 -0.02052704 0.18351348
-0.1466674 0.0012703232 -0.012579207 -0.24110785 0.27565432 -0.23922752 0.10486382 0.28231356
0.099695526 0.13058774 -0.20667289 -0.2639413 0.17252842 -0.29917762 -0.004809458 0.29835352
0.31329945 -0.1655402 -0.08993529 -0.062307168 0.1289893 0.24740484 0.011419262 0.08111099
-0.17952466 0.26188576 0.27105805 0.2052652 0.24399716 0.30764112 0.04582897 -0.0048067435
0.124505505 0.22238481 -0.23674153 -0.1768512 0.18928427 -0.2839071 0.26550657 0.22172183
-0.08946818 0.26499176 -0.18019272 -0.10596255 0.16772133 0.028397102 -0.27301872 0.23338184
-0.19938065 -0.14141798 -0.00082451507 0.13188668 -0.2628909 -0.12743086 0.20871902 -0.030294407
-0.22635487 0.24201089 -0.07340265 -0.2432034 -0.28289258 0.20445259 0.085500464 0.2290546
0.22220135 -0.033902906 0.05487183 0.178248 -0.04948813 -0.26401955 -0.050061468 -0.3066548
-0.064118676 -0.15162739 -0.030311145 0.26350725 0.27561823 0.032637972 0.31421387 0.00790825
0.08642046 -0.0648123 0.25498563 -0.06073425 0.31493336 -0.11126735 -0.055584762 -0.2763958
-0.06491198 0.24285863 0.026082942 -0.076115236 -0.097036324 -0.28654492 0.093795374 0.25661907
0.27011132 -0.27201623 0.10584867 0.043095462 0.1901331 0.29257652 -0.15991284 0.29025787
-0.1747866 -0.008500173 0.12636052 -0.16141337 -0.07692029 0.19672269 0.030158432 -0.07992394
0.28458714 0.007894377 -0.17146803 -0.31616375 0.2053455 0.089403905 0.11077378 0.11936228
-0.2828722 -0.15950537 0.12140038 0.1610625 -0.27336502 0.051085215 0.012912904 -0.107946254
-0.16273692 0.06437841 0.18779635 0.039495673 -0.06279674 0.22600345 -0.26972413 -0.018370114
-0.062272903 0.26893649 0.09706151 0.08502774 0.30799225 0.19358812 -0.15507239 -0.004263563
0.0100115705 0.10003424 -0.15174292 0.18025425 0.14911652 0.16928299 0.13069205 -0.28203267
0.086130306 0.014266199 -0.26427144 0.30955443 0.13357604 0.1543589 0.024697905 0.15079774
0.2631993 0.17884879 0.19225447 -0.0763594 -0.15050872 -0.275162 -0.0886915 0.09230377

lstm.weight_hh_l0 f4 [40, 10]
00000000: a88c 74be fd21 993e a543 093e cb2f 8f3e
00000010: 673f 273e dcfa c33d ac15 16be 98ac 483e
00000020: 85a6 4c3d 2abc 1f3d 2043 3f3d e98c 4bbe
00000030: a8e0 e7bd ec86 53bd 96ef 823e 5909 69be
00000040: 7aff 7fbe 8fdf 993e 19d4 39be 0255 e8bd
00000050: 8937 713d 92c4 773e d027 fcbc cbb6 8f3e
00000060: cc42 15be b170 81be 6937 983e 402a 9fbe
00000070: 2173 723e 6ea6 283e 4385 7abe e335 5e3e
00000080: f3a7 23be 103c 953e 2958 fdbd 0187 7a3e
00000090: 0dd2 93be be95 2c3e ff72 763d 63d4 6ebd
000000a0: 846c 5b3e 5b41 0d3d 331f 8cbd 8d78 a9bb
000000b0: 9b5f 08be 98ea 3dbe 1779 93be 7063 8e3e
000000c0: ba3b b43d 2454 6c3d 36f9 7f3e a19b cf3d
000000d0: 7a94 c9bd 3833 8c3e 15c4 043e 23ef 173e
000000e0: c573 fd3d 4b7f 2ebe 78a9 21be e021 973e
000000f0: cf84 433d d2c0 24be f521 a0be e7e8 0ebe
00000100: 5b66 2abc 08f0 40be 43a8 2cbc acd7 223b
00000110: 3dec 22be 2715 32be 5ebb ab3d 14d4 64be
00000120: 9ea1 b2bd 40e3 82be cb5d 4b3e 7ec3 1bbd
00000130: aeeb 6bbe 2c63 5abc 831b dbbd b0bf 50bd
00000140: 6263 2fbe 8f19 0b3e c260 8a3e e188 09be
00000150: 9073 753d 5c39 e53d 6590 793e d694 503d
00000160: 7a97 3b3e 0a9a 0fbe 7e3b 5dbe 24b6 9ebe
00000170: 8ba5 9e3e d0f8 073d 317b 4bbe 616f ac3d
00000180: d8a9 973e 46b1 7b3e 4c4d 24bd ef48 c23d
00000190: 82d1 6cbe a56d 78be deed 723e 6846 153e
000001a0: 6c48 82bd 8f39 bf3c 763d 423e feaa 8ebe
000001b0: ee6a 2d3e b604 9f3c cedb 44be aa9b 81bd
000001c0: d69b 033e 5c5e 62be 29dc 8abe bc8b b13c
000001d0: e496 48be 4126 7d3d 9653 3bbe 5470 12be
000001e0: af19 8d3e d664 993e 7713 c4bd 04eb 873e
000001f0: 76fd c8bd f495 043e dbcb 4cbe 464a 4e3e
00000200: d904 0b3e b796 433c 4183 4bbe 8daa 6cbc
00000210: eda6 2abe 2b9a ecbd 7b6d cc3d 36fd 383e
00000220: 622b 53be 2980 b93c 8658 693e 7a66 24be
00000230: d939 c13d 1d18 85be 32ce b03d 2532 9bbd
00000240: 3b2c 9abc 0598 c03d dfab 4e3d c2d1 07bd
00000250: 6c9c 8d3e 0dfb 0dbe 21eb d73d 475c c13d
00000260: 4dee 55bd ef4c 1bbe e25c a03e 50ed 403e
00000270: e716 ea3d 777d 653e e92b 33be 38cd 2abe
00000280: e507 993e 7ba1 bc3c 615c 403e 4890 c83d
00000290: 5744 353e 94bc 31be 4bd0 87be 2dfa c1bd
000002a0: 0bc4 6bbe fa59 24be 9a27 d73c c2a9 ffbd
000002b0: c338 7b3e 9d56 8fbd fcf3 83bd 0eae 4b3e
000002c0: 9b70 4cbd ab8a 653e 3c87 dcbd 0f02 9ebe
000002d0: 6161 9cbe dc4b 85bd 5492 403d 8174 90bd
000002e0: 172f 5b3e 5ee3 173c f23d 8fbe 5151 2f3e
000002f0: 77cd f13d e386 f7bd e1af 803d 8947 0a3e
00000300: 4169 8fbd 2171 a43d dd88 47be ae01 3ebe
00000310: 2e39 21bd a3e0 86be 17c2 a8bc e725 98be
00000320: db64 1cbe 9969 7ebd d921 90be 27bf 45be
00000330: 6a2c 72bd fe73 1abe d8c4 9b3e 428a 15be
00000340: b96d ddbc 4eef 6ebc e2e2 1c3e ea53 8dbe
00000350: 9e76 26bd 2ff3 ff3c 442c bdbd 1450 96bd
00000360: f2c0 69be 3c8c 0abe 3f00 70be 68a4 2fbe
00000370: 3255 363d a247 5cbc ab94 683e d40b 1cbd
00000380: 366c 883e db00 d23d 7bc2 94be 5e38 99be
00000390: f5a2 6bbe 60b8 4a3e c65d 163a a857 8ebe
000003a0: be73 683e 0409 87be c2a1 3c3d c479 793e
000003b0: 4745 863e 9f21 81bd af4c 3cbe 84ba bebd
000003c0: 287c 5cbe eff0 ccbd 8a9b 08be a185 823e
000003d0: 3c9e 033e 0c1a 8a3d e663 99bd 45a1 b3bd
000003e0: 017d 993e 8234 2a3e c90d f03d 35bc 6d3d
000003f0: 2c30 f9bd fa09 f43d e966 fb3c 8200 863e
-0.23881781 0.29908744 0.1340471 0.2796615 0.1633278 0.09569332 -0.14656705 0.1959709
0.049963493 0.038997807 0.046694875 -0.19877972 -0.11322147 -0.051642343 0.25573415 -0.22757472
-0.249998 0.30053374 -0.18147315 -0.11344339 0.058890853 0.2419608 -0.030780703 0.28069147
-0.14576262 -0.2528129 0.29729775 -0.31086922 0.2367673 0.16469738 -0.24464898 0.21700244
-0.15982036 0.29147387 -0.12370331 0.24465562 -0.28871194 0.16853997 0.060168263 -0.058308017
0.21428114 0.034486156 -0.06841888 -0.0051718415 -0.1331772 -0.18546522 -0.28803322 0.2781024
0.088004544 0.05769743 0.2499741 0.10137106 -0.09842773 0.27382827 0.12965424 0.14837317
0.12375597 -0.17040746 -0.15787303 0.29518032 0.047734078 -0.1608918 -0.31275907 -0.13956033
-0.01040038 -0.18841565 -0.010538164 0.0024847789 -0.1591043 -0.17390881 0.08385347 -0.22346526
-0.08722232 -0.25564003 0.19859998 -0.038028233 -0.23039123 -0.0133293085 -0.10698607 -0.050964057
-0.17127755 0.13583969 0.27026945 -0.13431121 0.059924662 0.11192581 0.24371488 0.05092319
0.18319502 -0.14023605 -0.21604726 -0.30998337 0.30985674 0.03319627 -0.19871213 0.08419681
0.29621768 0.24579343 -0.04011278 0.09486567 -0.23126796 -0.24260576 0.23723552 0.14577639
-0.063614696 0.023342876 0.18968758 -0.27864832 0.16935322 0.019411426 -0.19224474 -0.06328519
0.12852415 -0.22106308 -0.27121094 0.021673076 -0.1958881 0.06180406 -0.18293604 -0.14300662
0.27558658 0.29959744 -0.09574025 0.2654649 -0.09813969 0.12947828 -0.1999964 0.2014552
0.13576068 0.011937789 -0.19874288 -0.014444959 -0.1666524 -0.11552843 0.09981819 0.18065342
-0.20622018 0.02264412 0.22787675 -0.16054717 0.09434862 -0.2599496 0.08633079 -0.07577924
-0.018819919 0.094039954 0.050456878 -0.033159025 0.27658403 -0.138653 0.10542894 0.09441429
-0.052229214 -0.15166067 0.31320864 0.18840528 0.114301495 0.22411142 -0.17497219 -0.16679847
0.29888836 0.023026219 0.1878524 0.097931445 0.17701851 -0.17357093 -0.26526102 -0.09471545
-0.23024003 -0.16049948 0.026264 -0.124835506 0.24533372 -0.06998942 -0.06443021 0.19890615
-0.049912076 0.22416179 -0.107679814 -0.30860946 -0.30543044 -0.0650861 0.04701455 -0.07053471
0.21404682 0.009270517 -0.27976948 0.17120863 0.118067674 -0.120862745 0.06283546 0.13503851
-0.070024975 0.0802939 -0.19485803 -0.18555328 -0.03936117 -0.2634326 -0.020600362 -0.29716417
-0.15272848 -0.062112425 -0.28150824 -0.193112 -0.059124388 -0.1508331 0.30423617 -0.14603522
-0.027029859 -0.014583422 0.15320924 -0.27603084 -0.040640466 0.031243889 -0.092369586 -0.073394924
-0.22827509 -0.13530058 -0.23437594 -0.1715256 0.044514842 -0.013444813 0.22712962 -0.038097218
0.26645058 0.102540694 -0.29054627 -0.29925817 -0.23011382 0.19796896 0.0005736019 -0.2780125
0.22700402 -0.26374066 0.0460527 0.24362856 0.2622473 -0.06305241 -0.18388627 -0.09312919
-0.21531737 -0.10006892 -0.13340583 0.25492576 0.1285333 0.06743249 -0.07489757 -0.08770994
0.29978183 0.16621593 0.11721379 0.058040816 -0.12167391 0.119159654 0.03068872 0.26172262

lstm.bias_ih_l0 f4 [40]
00000000: 531c 48be 9c30 4b3e eabd 5bbc 3125 1d3d
00000010: 3897 d2bc ab5c 003e 8e79 8f3e e86e 943e
00000020: 5728 9b3e e28b b33d 0a46 5dbd 341e 8abe
00000030: a03e c0bd 0d02 a0bd 4157 9a3e 63ed 9b3e
00000040: 34cd 823e 717d fbbd c012 f7bd f0e8 67be
00000050: 4836 66be 12e6 eabd 0b87 2b3e cb8e 0abd
00000060: 83dd 83be 4c17 2a3a a29d 903d a832 07be
00000070: 9b4c 76be 1f5d 863e 5f63 973e 1db5 5dbe
00000080: 958c a1be 1196 0d3e f4d4 d03d c70c 6e3e
00000090: d15f 7ebe 30ce 223c b1da a1bc 1a27 5e3e
-0.19542055 0.19842762 -0.013411978 0.038365547 -0.025706872 0.1253535 0.28022426 0.28990865
0.30304214 0.08766915 -0.054021873 -0.26976168 -0.09386945 -0.07812891 0.30144694 0.3045455
0.25547183 -0.122797854 -0.12064123 -0.22647452 -0.22481644 -0.11469664 0.16750734 -0.033827584
-0.25754938 0.0006488457 0.07061316 -0.13202918 -0.2405266 0.2624292 0.29568002 -0.2165112
-0.31552568 0.13826777 0.101968676 0.23247062 -0.24841239 0.009936854 -0.0197576 0.21694604

lstm.bias_hh_l0 f4 [40]
00000000: e0b0 90be 2319 993e eafe 933d 8f75 2e3d
00000010: 4773 6a3e 11c6 99bd 3682 30be 61fe a03e
00000020: 0377 26bc b349 713e 1670 94be 40c5 9cbe
00000030: d795 32bd ea73 d1bd b069 02be d9c2 8b3e
00000040: c5d9 afbd 9472 ef3d e872 713e 9a9d 163e
00000050: 637e 25be dfaf d3bc 1cd8 02bb f242 033e
00000060: 0bd1 3cbe e683 23bd 495e 51be 219b a73d
00000070: 58ba 053d c445 9abc c9ae 603d 7704 17be
00000080: 9280 6a3e 2239 f7bd b832 7fbe 06df 233e
00000090: 161a 1a3d a683 593e bee7 023e 06e7 9f3e
-0.28259945 0.2990199 0.072263554 0.04259258 0.22895537 -0.07508481 -0.17237172 0.31444076
-0.010160211 0.2356327 -0.28991765 -0.3061924 -0.04359993 -0.10227187 -0.12735629 0.27297094
-0.08586458 0.11691776 0.2357899 0.14708558 -0.16161494 -0.025840698 -0.0019965237 0.12818506
-0.18439119 -0.03992071 -0.20446123 0.08183885 0.032648414 -0.018832095 0.054854188 -0.14747797
0.22900608 -0.12071444 -0.24921691 0.16003045 0.037622534 0.21241626 0.12783715 0.31230944

lstm.weight_ih_l1 f4 [40, 10]
00000000: d95a 73bd c265 68be f854 963e d4b1 7e3e
00000010: c8ed b7bd 4274 35be d70d 3f3d 886d 9abc
00000020: e4d9 903e ace3 2f3d 6f2f 913d d510 1e3e
00000030: 0563 70be 0a1d 883d 4da7 0fbe 6d0a f0bd
00000040: 4b5c 45be 8850 993d dc98 28bd c66b 3c3e
00000050: 0b4a 08bd 833a 9fbe 0712 36be a446 7f3e
00000060: fc04 9c3e a6f3 0d3e 0ce2 b83d 7d43 a1be
00000070: e6fd 073e 736a a13d 6cdc 39bd 5015 47be
00000080: d673 a7bb b775 44be 59fa 983e e043 3abe
00000090: 0288 313e 9e11 793e aecd 933d c4cd 703e
000000a0: cdc6 20be 35a1 36bd a1d4 453d c799 28be
000000b0: c49b 93be b873 5e3c a09e 873d 6fb7 96be
000000c0: a72a 53be 084f 30be 74f6 8b3e d2bf acbd
000000d0: 65a0 0c3d 7c3d a4bd c3d6 823e 8311 243e
000000e0: aa89 153d 9af4 143d b5b2 94be 731b 8a3c
000000f0: 4c6d 8c3e 866a 8c3e d8d9 f53d 7b63 413e
00000100: 53a0 9bbe 19aa 25bc 76d3 98be e10c fa3c
00000110: 13e7 91be 51c2 3a3e 0bfe da3d f4ba 813d
00000120: 8eb8 9d3e 1166 d2bd dfda 3e3e 1ce8 4ebd
00000130: 7ba3 a9bc 467b e23d 6e17 29be 1b62 713e
00000140: 59c8 073e 40a6 3dbe 5041 8abe cc8b 65be
00000150: c299 533e 67a2 173e dfe1 5f3d 5f78 8a3e
00000160: 296e 883e 68dd 85be a542 953e de07 31bc
00000170: 0fb7 be3d 9cdc 3bbe f4e1 b93a 9ff8 00be
00000180: 76fe 7ebd aed9 2abe 286c 17be 855c 353d
00000190: a6cc 3ebe cd94 3dbe 1f7c 5bbe 6efb 63be
000001a0: 7450 963d 87e1 863e 4738 41be ca5b 10be
000001b0: 136a 343e e7ae 293d bc1d 2e3e 48c2 6ebe
000001c0: eb09 713d a05e 003e 190e ec3c 00a6 d8bc
000001d0: a14b 8abe 570c 22bd cadc 9e3d 6e55 5b3e
000001e0: c4c1 6c3e 4ed3 80be 9f63 733b 94e2 313e
000001f0: d837 393e 130f a03e 6f9a 813e 133e 6abd
00000200: b6b2 b83d 7649 9d3d c8d6 9c3e eeec 42be
00000210: a4d4 64bd b500 f43c acac 333e 9cb9 9f3e
00000220: e13e 8bbe 1288 10bc 6224 05be 75ae a4bc
00000230: ba08 c63d ff38 74be 7bc2 a03e 2d07 46be
00000240: 0ea0 97be 42f5 42be 228a 3b3d d953 85be
00000250: 4f48 edbd 69da a7bd f501 7b3d 8547 16be
00000260: 9b7b 603e 90de 273d f5ab 123e 7596 0b3e
00000270: 7f14 5b3d 139b a03e f85a 9dbe e909 56be
00000280: a1dd 773c 4c9b 53be 5d7f 683d 7483 bb3d
00000290: b016 9cbe a646 fabd eecd 6cbd 60ff d5bc
000002a0: 08ef ff3d 4268 bbbc 0207 8fbe 85e3 9bbe
000002b0: 29a4 613e afc0 8abe 87ff f7bd 18fa 8abd
000002c0: 25b4 b0bc 7f9b 9fbe 118f 863d 37d3 473d
000002d0: 5073 0a3e d366 36bd ef7c 95be f18a 51be
000002e0: 412b 513e e0f8 953e 43a7 47bc a002 9bbe
000002f0: 6e45 c1bd 9cfd babc 183a 843e de26 803e
00000300: 657c 8e3e e681 793d 782c 733e d1da 85be
00000310: 974b c0bd 6d25 20bd 2f0b 743e 85af b33d
00000320: e29c 8c3e 2dee 743e c930 9bbe 4e6f 89bd
00000330: edfc 8dbe 4a6f 6fbe 6190 bb3d 43cf 503e
00000340: e937 f13d 6a46 803d a04f d73d 451d 413d
00000350: fb3b 853e a8f7 56be 9aa2 50be 5284 cebd
00000360: 905e 9c3d fb53 9bbe 91c8 9f3e f4e3 36be
00000370: d3dd 163e 7085 1c3e bc22 8b3e 1ecf 54be
00000380: be0a 8e3e 8ccf 3bbd 8948 84be 0d22 f1bd
00000390: 1361 45be b3d3 a13e e950 f73d e75b 5bbe
000003a0: 5a2c 1ebe ea32 84be 0815 23be 7db2 74be
000003b0: 1960 623d 60fc bf3d 59a5 56be ff87 7b3d
000003c0: e614 313e b6a9 9cbe e292 7cbe 914f 803e
000003d0: 99df cf3c 3f57 c23c 5679 3dbe c39b 1e3e
000003e0: 063e 383e 5f94 3bbd 2672 5b3e 7800 c7bd
000003f0: a471 353e 8ebc d5bd 16b4 8a3e d430 68be
-0.05941281 -0.22695068 0.293617 0.24872524 -0.089809 -0.1772013 0.046644058 -0.018851057
0.28291237 0.042941734 0.07089125 0.15436108 -0.23475273 0.06646164 -0.14028664 -0.117207386
-0.19273488 0.07486063 -0.041161403 0.18400487 -0.033273738 -0.31099328 -0.17780314 0.24929291
0.30472553 0.13862476 0.0902749 -0.31496802 0.13280448 0.07881632 -0.045376226 -0.19441724
-0.0051102443 -0.1918553 0.298785 -0.18189955 0.17337039 0.24323127 0.07216965 0.23515993
-0.15700836 -0.044587333 0.04829848 -0.16464911 -0.28829777 0.013577394 0.06622052 -0.29436824
-0.2062174 -0.17217648 0.27336466 -0.08435024 0.03433265 -0.0801954 0.25554475 0.16022305
0.03650824 0.036366083 -0.29042593 0.016858792 0.27427137 0.2742502 0.12004441 0.18885605
-0.30395755 -0.010111355 -0.29848832 0.03052372 -0.28496608 0.18238188 0.10692986 0.063344866
0.30804867 -0.10273374 0.1863818 -0.050514325 -0.020707836 0.11058669 -0.16512844 0.2357258
0.1326002 -0.1852045 -0.27002954 -0.2241661 0.20664123 0.14808045 0.054658767 0.2704496
0.26646546 -0.26145482 0.29152408 -0.010805098 0.093122594 -0.18345875 0.0014181719 -0.12594841
-0.06225439 -0.166846 -0.14787352 0.044277687 -0.18632755 -0.18513794 -0.21434067 -0.22263882
0.07339564 0.2634394 -0.18869124 -0.14097515 0.17618589 0.041426565 0.1700353 -0.233163
0.05884735 0.12536097 0.028815316 -0.026446342 -0.27010825 -0.03956255 0.07756956 0.21419308
0.2312079 -0.25161213 0.0037138236 0.17371589 0.18087709 0.312615 0.25313136 -0.057188105
0.090184614 0.07680027 0.30632615 -0.19035694 -0.055866852 0.029785493 0.17546338 0.31196296
-0.2719641 -0.008821504 -0.1300216 -0.020102719 0.09669633 -0.23849867 0.31398377 -0.19338675
-0.296143 -0.19038871 0.04578603 -0.26040533 -0.115860574 -0.08195955 0.061281163 -0.1467572
0.21922152 0.040983737 0.14323409 0.13631614 0.053486343 0.31368312 -0.30733466 -0.20902218
0.015128524 -0.2066471 0.056762088 0.09155932 -0.3048606 -0.12220506 -0.057813577 -0.026122749
0.124967635 -0.022876862 -0.27935034 -0.3044702 0.22035278 -0.2710013 -0.12109285 -0.06785983
-0.021570275 -0.31173322 0.065702565 0.048785415 0.1352055 -0.044531655 -0.2919688 -0.20463158
0.20426656 0.2929144 -0.012185874 -0.3027544 -0.09437071 -0.022826008 0.25825572 0.25029653
0.2782928 0.060914896 0.23747432 -0.26143506 -0.093894176 -0.039098192 0.23832391 0.08773712
0.27463442 0.23918982 -0.30310658 -0.06710683 -0.2773203 -0.23382297 0.091583975 0.20391564
0.11778242 0.062634304 0.10513234 0.047147054 0.26022324 -0.20992911 -0.20374528 -0.10083832
0.07635224 -0.3033751 0.31207708 -0.17860395 0.14733057 0.15285277 0.27174938 -0.20782134
0.2774257 -0.04585223 -0.2583659 -0.11774073 -0.19275312 0.31606826 0.12075979 -0.21421777
-0.15446606 -0.25820094 -0.15925992 -0.23896213 0.055267427 0.093743086 -0.20961513 0.061408993
0.17293128 -0.3059823 -0.24665406 0.25060704 0.025375174 0.023723243 -0.18503317 0.15489106
0.1799241 -0.045795795 0.21430263 -0.09716886 0.17719132 -0.104363546 0.2709052 -0.22674876

lstm.weight_hh_l1 f4 [40, 10]
00000000: e016 2fbe b569 9b3e b650 423e e2ac 92be
00000010: ff40 823e c76e 1c3e 7098 18be f67f a03e
00000020: 8ed1 813e afab 703e aa93 053e 85a2 043d
00000030: e7ba 5d3e c4f3 3b3e a965 55be c618 633e
00000040: 6799 b3bd 6a45 9bbe 848d 7fbc 7eee 0abe
00000050: 9ad0 11be f5ee 713e de4c 153e b1e8 493c
00000060: 159e 56bd c18b 733e 104c 243e 47f2 993e
00000070: 9261 edbd 768f f03c f939 b2bd 90be 5abe
00000080: 4a0c 893e 7bd4 103d 4fe5 1dbe 81a3 873e
00000090: 4f91 193e 0ee5 2fbd 0fe7 15be 0cc6 39bd
000000a0: fcf1 f03d 4b94 cb3d 13ec 09be 172f 68be
000000b0: 6b27 a9bd 7b72 7c3d dc91 97bc 889f 083e
000000c0: 5716 dfbd 9106 a2bd fdaf 9cbd 6004 24be
000000d0: d28b 39be 246b 043d e181 713e 5142 8ebe
000000e0: 2098 99be 4bcd e8bd 1293 6fbd 8033 3d3d
000000f0: 61df f2bd d755 42be c280 0e3e cbc4 f83b
00000100: b1bf 44be 76ea 413d 0642 e0bd 78f9 98bd
00000110: 86d8 37be 54b7 aabd c552 74bd 6aba 143d
00000120: 3055 253d d6dd e8bc ccb0 8a3e d00f 9d3e
00000130: 2dce 9c3e fa7b adbd ac98 adbc 9a38 fe3d
00000140: f7d2 70be 74f1 adbd 49c6 96bc 35f7 543e
00000150: 9f51 743d f668 753e 1d69 ccbd 2cd9 a8bc
00000160: 760d 013d 6dda 813e e3cb 46be 6f3c bdbc
00000170: bf43 3abe 3958 9e3e 3132 963d f107 08be
00000180: 4b03 bd3d 67f2 45be 03c6 65be 08f9 9bbe
00000190: 473b a23d 94f3 a53d c9dd e03d 4c0b dd3d
000001a0: d83e cabd 1ceb 6a3e c6f6 91be c621 61be
000001b0: 50bd d33c 0b30 2a3d 71f1 91be 50ee 803d
000001c0: de9e 973e 31b3 9bbe fbcd d7bd d980 95be
000001d0: cf95 babd 0844 abbd 35f1 823e 7c33 97be
000001e0: b419 5ebe 8656 20bd 2435 57be 16a4 833e
000001f0: 510e bfbb eabb 053e dc06 6bbe fa79 403e
00000200: 0b43 d23d 9e98 983e 7449 d3bd dfc7 08be
00000210: b1c7 c0bc 0b27 c6bb 19ff de3c 5b8e 8cbe
00000220: d3aa f53c 4eaf 1dbd 557f 56be d37a 76be
00000230: 80ab 95bd c047 82be d4a0 993e 77d1 9fbe
00000240: 9649 fcbd de5c a1be 8816 683d c748 95bd
00000250: f709 e5bd 0f85 1fbd 3625 153e d1fb 84bd
00000260: 5e1e 533e 8cae 2f3b 9eed 16bd 71d6 703e
00000270: 7a72 8abe 4279 103e 8b16 1e3e b069 63bc
00000280: 12dc 5abe 8e49 783e a0c0 6dbe 2028 86be
00000290: e3d0 84be e8b4 1dbe 65cd ffbb 2085 0bbe
000002a0: c399 373e 6ff7 963e 966c 70be 3a71 9fbe
000002b0: c352 613e ea47 093e 5f4e cfbc 315f bfbc
000002c0: 9dfc f63d 224e b23c 09c7 04be a9c3 7cbe
000002d0: c56c 8d3e e1f0 8abe f453 803b 6a27 e5bd
000002e0: 6448 cabd 4d42 263e b10d 2d3d cde8 643b
000002f0: 6b78 4f3e 33ba 913d 0e55 693c 9e9d 79be
00000300: 739d 57be 40b7 da3d 1750 523e 89bf 01bd
00000310: 478d 823e 0ba2 1dbe 3dfc 8dbe ed7c 1a3e
00000320: f5c1 70be 761d 8a3e 43da a83d 61a9 95be
00000330: 39ff 823e 59c7 62be db6a 763d 3cbf 3a3d
00000340: 5077 6fbe efe7 84bd 4fa1 0b3e 6c91 05be
00000350: cf3d 523e 8e00 b13d 5da5 0abd 7eab 8bbe
00000360: ce11 89be 4cff 013e aa71 893e 2f69 9abe
00000370: 5a8e 873e 12c1 86bd 5845 233e a8db 15be
00000380: 5ba2 45be 5989 9fbe cf36 9fbe 8f1e 033e
00000390: ef8f f0bd 2778 85be 9745 7bbd 665b 953e
000003a0: ec82 0ebe 9679 f4bc 217f 1abe c0f1 00be
000003b0: 7bf3 98be 3f44 b13d 156d 4a3e cfe5 893e
000003c0: 139d 513e 8cfa 9ebe 7760 e7bd eb29 87bd
000003d0: be4f 1d3e 26be 9abe e96f 083e 2a84 753b
000003e0: 979e 48be f845 0ebe 2100 9cbe 7174 363e
000003f0: 2e86 9e3e 3caf 32be c40b 693e f5fa 29be
-0.1709857 0.30354086 0.18976101 -0.28647524 0.25440213 0.15276633 -0.149019 0.31347626
0.2535519 0.23502992 0.1304461 0.032381553 0.21653329 0.18354708 -0.20839562 0.22177419
-0.087694936 -0.30326396 -0.015597705 -0.1356754 -0.14239731 0.23626311 0.14580104 0.012323544
-0.052396853 0.2378378 0.1604464 0.30067655 -0.11590876 0.029365283 -0.08702464 -0.21361756
0.26767188 0.035358887 -0.15419506 0.2649193 0.14996837 -0.042943053 -0.14638923 -0.045354888
0.11764905 0.09940394 -0.13468961 -0.22674213 -0.082594715 0.061632615 -0.018502168 0.13342106
-0.10892933 -0.07911409 -0.076507546 -0.16017294 -0.18119743 0.03232874 0.23584701 -0.2778497
-0.29998875 -0.113672815 -0.058489867 0.046191692 -0.118590124 -0.18978058 0.13916305 0.007591819
-0.1921375 0.04734274 -0.10950093 -0.074694574 -0.17953691 -0.08335748 -0.059649248 0.03631059
0.040364444 -0.028426092 0.2708801 0.30676126 0.3062605 -0.08470912 -0.021190964 0.1241314
-0.23517977 -0.08493319 -0.018405097 0.20797427 0.059648152 0.2396582 -0.09980986 -0.020611368
0.031506978 0.25361958 -0.19413714 -0.023100106 -0.18189906 0.30926684 0.07333792 -0.1328428
0.09229144 -0.1933075 -0.22438817 -0.30463433 0.079214625 0.081030995 0.10979802 0.1079317
-0.09875268 0.2294125 -0.28508586 -0.2198554 0.025847107 0.041549724 -0.28504518 0.062954545
0.29613394 -0.3041015 -0.105373345 -0.29199865 -0.09110605 -0.08362585 0.2557465 -0.29531467
-0.21689492 -0.039145015 -0.21016365 0.25711125 -0.005830564 0.13059965 -0.22951835 0.1879653
0.10266694 0.29803938 -0.103167444 -0.13357495 -0.02353272 -0.0060471348 0.02722125 -0.2745236
0.029988682 -0.03849726 -0.20947011 -0.24070291 -0.07308102 -0.25445366 0.30005515 -0.31214496
-0.12318723 -0.31516165 0.056662112 -0.07289272 -0.11183541 -0.038945254 0.14564976 -0.06493343
0.20617053 0.002680692 -0.036847703 0.23519303 -0.27040464 0.14108756 0.15438287 -0.013880178
-0.21373013 0.24246809 -0.23218012 -0.26202488 -0.25940618 -0.15401042 -0.0078064674 -0.13625002
0.17929749 0.29485652 -0.23478922 -0.31141073 0.22004227 0.1340634 -0.025305925 -0.02336082
0.12059901 0.021765772 -0.12966551 -0.24684013 0.27622047 -0.271369 0.003916258 -0.11189158
-0.09877089 0.16236229 0.042249385 0.00349288 0.2026078 0.07115593 0.01424147 -0.24376532
-0.21056156 0.106794834 0.20538364 -0.031676803 0.2549841 -0.15393846 -0.27731505 0.15086718
-0.23511489 0.26975602 0.08244755 -0.29230788 0.25585344 -0.22146358 0.0601605 0.04559253
-0.23385358 -0.0648955 0.13635753 -0.13043755 0.2053139 0.08642684 -0.03384911 -0.27279276
-0.26771396 0.12695044 0.2684453 -0.30158374 0.26475793 -0.06579794 0.15944421 -0.14634573
-0.19300215 -0.31159475 -0.31096503 0.12804626 -0.11746203 -0.2606823 -0.061345663 0.29171294
-0.1391713 -0.029843133 -0.15087558 -0.1259222 -0.2987326 0.08655595 0.19768174 0.26933143
0.20470075 -0.31050527 -0.11297696 -0.06599792 0.1536245 -0.30223197 0.1332394 0.003746281
-0.19591747 -0.13893878 -0.30468848 0.17817856 0.30961746 -0.17449659 0.22758394 -0.16599639

lstm.bias_ih_l1 f4 [40]
00000000: e28c 963e d072 1e3d 4843 8ebe 7c8f 8a3d
00000010: 0b9e a9bd af34 0b3e b353 02be e4e9 c13d
00000020: fc8a 7a3e 5cfe 8b3e 8afa d6bd 637e 5a3e
00000030: 3042 343e b7f8 2ebe ea03 7dbe c41c 363e
00000040: 4f3f 98be 020e ca3b 71b8 a1be 8b78 39be
00000050: c4f1 413e 8cde 9ebe 68fa 97be b011 1abe
00000060: b18f 8e3e 1aa4 27bd 8161 873e ac6f d23d
00000070: 1172 863e dc9b 73be 191d 853e a31e 6dbe
00000080: 9dd0 1ebc 0659 bf3c 2014 dc3d 1d5c 503e
00000090: e325 ce3d e754 ad3d 326e 093e a4a5 0dbd
0.2940436 0.038683712 -0.27785707 0.06765649 -0.082820974 0.13594316 -0.12727241 0.09468439
0.24467081 0.27342498 -0.10497005 0.21337275 0.17603374 -0.17087065 -0.24708524 0.1778441
-0.297358 0.0061662206 -0.3158603 -0.1811239 0.18939883 -0.31029165 -0.29683232 -0.1504581
0.27844003 -0.040927984 0.26441577 0.10275206 0.262589 -0.23789924 0.25998762 -0.23156218
-0.009693292 0.02335788 0.10746026 0.20347638 0.1006582 0.084634595 0.13420942 -0.034581795

lstm.bias_hh_l1 f4 [40]
00000000: 53b9 9cbe b03e 96be 1a3d 993e ad1a 5dbd
00000010: f086 3f3e 0b5e 323e 21f4 603e 7314 93bd
00000020: 1146 95be afe0 efbd 7ca5 3cbe 7cf0 35be
00000030: 5594 8cbe fa15 243e e7c6 1d3e b4b3 8bbe
00000040: b490 d33d 2d20 1fbe f4fa 1fbe a8c6 ec3d
00000050: 8a3a 0d3e 2689 f23d 0539 83be 474a 883d
00000060: fe9a cebc 992b 27be e6b9 99be 32de 8abe
00000070: fedd 113e efca 873e c91b 373e d003 7e3e
00000080: 0bee 7abe 869a f9bd 9112 31be fdf2 8d3e
00000090: f1d3 593e d024 fdbd 1e97 68be 0b29 703d
-0.3061014 -0.29344702 0.2992943 -0.053980518 0.18703818 0.17418687 0.21968128 -0.07181635
-0.2915502 -0.11712777 -0.18422502 -0.17767519 -0.27456918 0.16024008 0.15407906 -0.2728554
0.10330334 -0.15539618 -0.15623075 0.11561328 0.13791862 0.11842565 -0.2562944 0.06654792
-0.02522039 -0.16325225 -0.30024642 -0.27122647 0.1424484 0.26522014 0.17881693 0.24806142
-0.24504869 -0.12187676 -0.17292239 0.27724448 0.21272255 -0.12360537 -0.22713897 0.05863289

fc.weight f4 [1, 7200]
00000000: dd57 5dbb 09ac 0ebc 2d17 403c e8dc 78bb
00000010: ecfe f4bb 32f4 f23b 34e9 0abb d3cc 343c
00000020: 87ee f5b8 927d 1f3a 3d8c 8bbb a1d2 72bb
00000030: bb51 d8bb 1a57 87b9 2b10 cbbb 3a28 82bb
00000040: 74a0 a638 603e 153c e7e8 98bb 7653 87bb
00000050: f8eb 9abb 434d b9bb 7c8a df3b 06eb da39
00000060: 6c28 f4bb b966 d4ba 9b95 f2ba 5ace 3f3c
00000070: 3c03 3abc 9b9e a8bb f8d0 103c c3ed 5f3b
00000080: b62e 213c e400 623a e61f 16bc 381b 7bbb
00000090: 8b95 f33b 4e26 a5bb 54bc 22bc 6658 933b
000000a0: 9c39 f6bb 16d2 5abb 4788 5c3b 7129 8e3b
000000b0: c154 a43a d8e8 243b 2b16 263b 2dd1 173c
000000c0: 78ab bd3a 5825 bc3b 7778 2b3c a430 863b
000000d0: e0c6 f0ba e63f 2ebc fcfd 0cbc 891f b6bb
000000e0: 3e61 223c c093 bc3b 21e3 0bbc 9b37 09bb
000000f0: 15f5 5bb7 bef8 d0bb bab7 eebb b886 2b3b
00000100: 574d f23b 526a 50bb 5ae9 e33b 1218 b43a
00000110: 0874 d63b 60ef 363b 1c80 f23a a6e8 453b
00000120: 947b 32bc 42e1 a03b d4dc 3d3c cdeb c4bb
00000130: a5d5 2e3c fbd1 923b 25dd 813b db81 2d3c
00000140: c000 0fbc b5d5 e53b ec99 653a e75d e1bb
00000150: e81b e1bb c6a8 873b 631c d2ba 8995 263c
00000160: a9a0 ddbb ee74 6ebb 55f9 163c c562 a0b9
00000170: 2cc8 b5bb 2725 2abc c32b 3b3c 1c66 1f3c
00000180: cc71 153c b4f3 003c c416 393c 7886 40bc
00000190: 8844 89bb 2e03 3b3c df96 9d3b b7b2 a1bb
000001a0: ec45 833b 1820 073c fc07 00bc ba5a 36bc
000001b0: 6302 bd3b e101 3abc 9015 043b 7a45 0fbc
000001c0: 8691 a23b 167c e1bb b51c fa3a fc3c 2d3a
000001d0: dc2f 1ebc 557e 94bb c35f ad3b f7ca 033b
000001e0: b6b6 a43b f9ce 79bb fc7d 96bb 35ef 703b
000001f0: e8df f0ba 6581 3cbc 96a5 0b3c 2a5b 9b3b
00000200: 1a4a ad3b 7928 19bc 424b 1dbb 6365 6b3b
00000210: ebcf 21ba 3394 063b 9f0e 46bb 45af 99bb
00000220: 3042 32bc 522e 663a cb77 e5bb 5ed4 b53a
00000230: e69a 24bb c584 5bbb ac40 753b 0a02 fdb9
00000240: df93 253c cadf 9c3b 653f 353c ba0f 983b
00000250: 1832 19bc 27e8 02bc 80b5 fb3b c775 43bb
00000260: d05d c13a b22a 0a3c 3fd6 01bc 456d f83b
00000270: 5cbb 86bb db5a f6ba 69af c23b 5a77 3b3c
00000280: 893a fe3a 81a4 27bc f0a5 c7bb 35c3 213c
00000290: e6f1 233b 0187 693b 561a 07bb f238 2e3c
000002a0: 9f0a 2e3c 8929 c7bb 7a53 8c3a 0ed3 91bb
000002b0: 973e 1e3c bf7a 29bc 06dc 2c3c 0fc5 96bb
000002c0: dc32 3abc 5e8d ab39 4b3c d53b 9547 a03b
000002d0: 11e2 153c 51a4 22bc 87cd b0bb cbcc ea3a
000002e0: a4c5 2b3c 5dfc 173b 3264 423b 1f55 e53b
000002f0: c1fb b2bb 37bc 2a3c eeb2 b9bb dec7 70bb
00000300: 4c33 33bc 9049 393c 03bb 0a3c 082f 203b
00000310: 2de8 81bb 517d 3a3c 7f01 4539 7459 47bb
00000320: b95b f7ba aa17 103c 258f ed3b 3b24 6d39
00000330: 0c12 c4bb ea2d 043c 6a97 133c 525a c838
00000340: 3df9 ec39 d5f7 20bc 9ee8 e3bb 73c8 a7ba
00000350: eb3e 34bc 4edf 8dbb 41b8 8eba eed1 93bb
00000360: 6613 0dbc 2703 31bc 4cbc f53b f5c2 27bc
00000370: 5110 2ebc 459a 12bc beec a5bb 4670 91bb
00000380: d759 04bc d31f 343b c19e 253c 9dd9 eab9
00000390: 16e5 b03b 36ee db3b f797 c63b a2b6 583b
000003a0: 2689 ec3b b3c9 c6bb 1e0d 273c 2924 6dbb
000003b0: 30b9 bdbb 068d 26bc 625a 6a3b 9f5d 003c
000003c0: 2ccb 25bc b130 c33b 73a4 0a3c 6d5d 10bc
000003d0: e836 e43b 0e05 393c 8c47 07ba 1672 ecbb
000003e0: f2db a63a 8fee da3a 6bb4 fd39 c7ce ecbb
000003f0: 7c99 fb3b 0542 0ebc 6ad5 15bc 2e23 8cbb
-0.0033774294 -0.008708009 0.011724276 -0.0037973467 -0.007476678 0.0074143643 -0.0021196129 0.011035162
-0.000117269396 0.000608408 -0.004258661 -0.0037051814 -0.00660154 -0.00025814102 -0.0061969957 -0.0039720805
7.9453835e-05 0.00910911 -0.004666436 -0.0041298224 -0.0047278367 -0.0056549623 0.0068219285 0.00041755306
-0.0074511077 -0.001620493 -0.0018507721 0.011706913 -0.01135331 -0.0051458604 0.0088388845 0.0034168817
0.009837797 0.00086213485 -0.009162879 -0.0038315784 0.0074335984 -0.0050399667 -0.009932596 0.004496622
-0.007514192 -0.003338938 0.0033650564 0.0043384363 0.0012537466 0.00251632 0.0025342803 0.00926618
0.0014470657 0.0057417564 0.010465733 0.004095154 -0.0018369816 -0.010635352 -0.0086054765 -0.0055579585
0.00991088 0.005754918 -0.0085380385 -0.0020937684 -1.311048e-05 -0.0063773086 -0.0072850855 0.0026172828
0.0073944735 -0.0031801653 0.006955308 0.0013740084 0.0065445937 0.0027913675 0.0018501314 0.0030198484
-0.010893721 0.0049096653 0.011588294 -0.006009555 0.010671054 0.004480598 0.00396313 0.010590042
-0.008728206 0.0070140013 0.0008758593 -0.006877649 -0.0068697818 0.0041399924 -0.0016030188 0.010167488
-0.006763537 -0.0036385613 0.009214719 -0.00030591167 -0.005547544 -0.010384834 0.011424008 0.009728935
0.00912137 0.007870603 0.011296932 -0.01175081 -0.0041890778 0.011414332 0.004809245 -0.0049346345
0.004006138 0.008247398 -0.007814404 -0.011130029 0.005768107 -0.011352987 0.0020154454 -0.008744592
0.0049611954 -0.0068812473 0.0019082042 0.00066085136 -0.009654965 -0.0045316615 0.0052909567 0.002010999
0.0050266637 -0.003811775 -0.004592655 0.0036763672 -0.0018377276 -0.011505459 0.0085233655 0.004741092
0.0052883746 -0.009348028 -0.0024001156 0.0035918585 -0.0006172645 0.002053511 -0.0030221117 -0.004690083
-0.010880038 0.0008780706 -0.007002806 0.0013872494 -0.002511674 -0.0033495885 0.003742258 -0.0004825744
0.010106056 0.00478742 0.011062478 0.0046405466 -0.009350322 -0.00798992 0.0076815486 -0.002982484
0.001475269 0.008433031 -0.007924615 0.0075813853 -0.0041116904 -0.0018795388 0.0059413207 0.01144203
0.0019396107 -0.010232092 -0.0060927793 0.009873201 0.002501601 0.0035633447 -0.0020615063 0.010633694
0.010622649 -0.0060779494 0.001070603 -0.0044502085 0.009658477 -0.010344206 0.010550505 -0.004601128
-0.011364665 0.00032720988 0.0065074316 0.0048913457 0.009148137 -0.009926871 -0.0053955945 0.0017913816
0.010484133 0.0023191192 0.0029661772 0.0069986726 -0.0054621403 0.0104208505 -0.005667082 -0.0036740224
-0.010937523 0.011309043 0.008467439 0.0024442095 -0.003964445 0.011382417 0.00018787941 -0.0030418308
-0.001887194 0.008794704 0.00724973 0.00022615578 -0.0059835967 0.008067587 0.009008268 9.5535666e-05
0.00045199125 -0.009824713 -0.0069552204 -0.0012800827 -0.011001329 -0.0043295985 -0.0010888652 -0.0045111096
-0.008610582 -0.010803974 0.0074992534 -0.0102393525 -0.010624007 -0.008947914 -0.0050636223 -0.004438433
-0.00807806 0.002748479 0.010108651 -0.00044794093 0.005398403 0.0067117466 0.006060596 0.0033067842
0.007218498 -0.006066525 0.0101959985 -0.0036184883 -0.0057898983 -0.010165459 0.0035759439 0.007834821
-0.010119241 0.005956732 0.008462059 -0.008811337 0.006964553 0.011292709 -0.00051605026 -0.0072157485
0.0012730344 0.0016703176 0.00048390342 -0.007226798 0.007678209 -0.0086827325 -0.00914512 -0.0042766547
