DeepLearning/timeSerise/.scale_batch_size_9523f185-a598-4bdb-9e9f-c7f01a961380.ckpt (torch, 47861 bytes, 9 tensors)

lstm.weight_ih_l0 f4 [40, 50]
-0.08326615 0.08819133 0.25803003 -0.19490731 -0.116988815 0.2733464 0.04342015 0.25098747
-0.030709831 -0.014859667 0.24251023 -0.24201176 -0.015843378 -0.21004552 -0.042748988 -0.20643683
-0.16958423 -0.12488188 -0.17988534 0.2701342 0.21288204 -0.30700245 -0.13048336 -0.21654204
0.12245786 0.1299047 -0.20486489 -0.21738163 -0.30118406 -0.22023155 -0.2098142 0.049381107
0.2645456 0.2728038 0.0659197 0.09703191 0.08493919 -0.20524363 0.1680274 -0.07986306
-0.090756446 0.23416601 -0.31546634 0.032347098 -0.08266254 -0.040271334 0.029050699 -0.15795691
0.056859158 -0.19687314 -0.11165262 0.23839976 -0.19593734 0.2795249 0.11410158 0.083688766
-0.1879948 -0.3027087 0.117675364 -0.08505662 0.07781768 -0.26523694 -0.012027169 0.2712327
0.06166477 -0.17923677 -0.083620876 0.22767334 0.078820616 -0.08095843 0.06964476 0.0010574089
-0.13109736 -0.0938356 -0.15117766 0.09190026 0.058249395 0.02855773 0.27498972 0.010481768
-0.20998083 0.021989431 0.10034471 0.03983838 -0.15963829 0.21745616 0.041246712 -0.108427994
-0.00086617057 -0.11117243 -0.20856197 0.2766399 -0.22141095 -0.1302286 -0.1464013 -0.16341981
-0.064271614 0.2042983 0.17921422 0.30969694 0.15129998 0.10670839 -0.27756158 -0.03853428
-0.20061934 0.039338138 -0.24849994 0.21979271 -0.08953788 -0.21491367 -0.028060278 -0.08206635
0.27938783 0.022207322 -0.10201561 0.066846676 0.29715437 0.15307134 0.03190623 -0.12624843
-0.11317057 0.24006157 0.09013821 -0.055558186 -0.16443975 0.13972239 0.2716949 -0.25088885
-0.23726767 -0.18182336 -0.01590588 -0.07160547 -0.20138283 0.18508302 -0.12536722 -0.117763385
0.1917229 -0.107596315 -0.06786571 0.2951313 0.13555394 0.085353784 -0.20848812 0.019780708
0.08561634 -0.037356276 -0.166977 0.025649386 0.054704342 0.18618366 0.16107644 0.13765395
0.3101452 -0.2933539 -0.00447316 0.042404924 0.10076327 0.22766395 0.015479524 -0.1773939
0.12065062 -0.08438862 0.17182612 0.1321581 -0.039657846 -0.029748626 0.03824778 -0.07656922
0.18215469 0.21446107 0.12246296 0.28583157 -0.23763528 -0.043198302 -0.20875928 -0.24881254
-0.12872262 0.2537394 0.03330559 0.2095625 0.31048265 0.09862225 -0.315797 0.20292182
-0.19558634 -0.06685588 0.2381393 0.12658326 0.204641 -0.010070717 0.31208768 -0.2989876
-0.13808508 0.05738628 -0.048728306 0.26699013 0.06664277 0.2708776 0.19123514 0.26625335
0.2666803 -0.14872153 -0.046062805 0.036780376 0.069829136 0.31249607 0.03384651 0.22928421
-0.07815243 0.1571106 -0.24425796 0.30831683 -0.0876425 0.25414014 0.27606198 0.20429581
0.31476268 -0.27949268 0.21236318 0.13772795 0.10156739 -0.23959687 0.0022622142 0.083461605
-0.1835851 -0.14612758 -0.2821145 -0.25617793 0.31482807 0.23990527 -0.21641666 0.116589904
0.0075008175 -0.14944738 0.2964996 -0.027150415 -0.26238605 -0.11218317 0.0038536051 -0.078580715
-0.2278864 -0.05108925 -0.24631901 0.21980843 0.25685057 0.18196623 -0.015356517 0.026768466
0.02595115 -0.0794269 0.2948189 0.17601074 0.16069758 0.10585821 -0.23223707 0.044796288
00000000: 7187 aabd a89d b43d 831c 843e c895 47be
00000010: d597 efbd 0ff4 8b3e 54d9 313d 6e81 803e
00000020: 2f93 fbbc f675 73bc 9a54 783e eed1 77be
00000030: f9c9 81bc 2c16 57be 9019 2fbd 2d64 53be
00000040: 7da7 2dbe 12c2 ffbd dd33 38be 084f 8a3e
00000050: c0fd 593e 6d2f 9dbe 6e9d 05be 32bd 5dbe
00000060: 30cb fa3d bd05 053e 1ac8 51be 4a99 5ebe
00000070: cc34 9abe 6184 61be 89d9 56be d843 4a3d
00000080: 8572 873e f1ac 8b3e e800 873d abb8 c63d
00000090: 99f4 ad3d 632b 52be 600f 2c3e 3e8f a3bd
000000a0: 84de b9bd 37c9 6f3e ce84 a1be 647e 043d
000000b0: fa4a a9bd 8ef3 24bd bbfb ed3c 75bf 21be
000000c0: 26e5 683d 1d99 49be 21aa e4bd 111f 743e
000000d0: cca3 48be e31d 8f3e 17ae e93d 0465 ab3d
000000e0: b581 40be a2fc 9abe c8ff f03d 2a32 aebd
000000f0: e05e 9f3d 23cd 87be 9a0d 45bc 03df 8a3e
00000100: 3394 7c3d d889 37be 6c41 abbd 3323 693e
00000110: b46c a13d 89cd a5bd e9a1 8e3d c198 8a3a
00000120: 633e 06be e12c c0bd 51ce 1abe 3436 bc3d
00000130: eb96 6e3d e7f1 e93c 74cb 8c3e b9bb 2b3c
00000140: 3705 57be 2e23 b43c 8781 cd3d 922d 233d
00000150: 3878 23be d4ac 5e3e 50f2 283d 7f0f debd
00000160: b90f 63ba 5fae e3bd 4591 55be bfa3 8d3e
00000170: 8db9 62be a55a 05be 39ea 15be 8657 27be
00000180: d6a0 83bd 9333 513e ef83 373e 9990 9e3e
00000190: 62ee 1a3e ee89 da3d 8d1c 8ebe 1fd6 1dbd
000001a0: 286f 4dbe 0721 213d c576 7ebe 5711 613e
000001b0: a35f b7bd 5412 5cbe abde e5bc 6712 a8bd
000001c0: ec0b 8f3e 21ec b53c 8fed d0bd e9e6 883d
000001d0: 9e24 983e bcbe 1c3e 1bb0 023d 4547 01be
000001e0: f9c5 e7bd b3d2 753e 629a b83d fb90 63bd
000001f0: e562 28be 6313 0f3e 981b 8b3e 8174 80be
00000200: 4cf6 72be e72f 3abe 0c4d 82bc e3a5 92bd
00000210: 4d37 4ebe 6786 3d3e 4460 00be ee2d f1bd
00000220: 0253 443e 755b dcbd 2dfd 8abd 731b 973e
00000230: a7ce 0a3e f7cd ae3d e97d 55be 270b a23c
00000240: 9f57 af3d e502 19bd 05fc 2abe a91e d23c
00000250: a911 603d eea6 3e3e 39f1 243e 28f5 0c3e
00000260: 5acb 9e3e 7b32 96be 9693 92bb c9b0 2d3d
00000270: f95c ce3d bd20 693e d49d 7d3c bfa6 35be
00000280: ac17 f73d f1d3 acbd 30f3 2f3e 7454 073e
00000290: 4470 22bd 64b3 f3bc b4a9 1c3d 53d0 9cbd
000002a0: c286 3a3e af9b 5b3e dccd fa3d 8458 923e
000002b0: aa56 73be b4f0 30bd fec4 55be b7c8 7ebe
000002c0: ddcf 03be 21ea 813e 716b 083d 8d97 563e
000002d0: 95f7 9e3e 76fa c93d 25b0 a1be bdca 4f3e
000002e0: c947 48be bceb 88bd cada 733e 0b9f 013e
000002f0: 698d 513e a6ff 24bc f5c9 9f3e e714 99be
00000300: 2d66 0dbe e00d 6b3d 5597 47bd eeb2 883e
00000310: 017c 883d 78b0 8a3e 25d3 433e 5c52 883e
00000320: 528a 883e 754a 18be 5aac 3cbd 05a7 163d
00000330: 9402 8f3d 7cff 9f3e a3a2 0a3d 7bc9 6a3e
00000340: 620e a0bd 9ae1 203e c21e 7abe b4db 9d3e
00000350: e97d b3bd a81e 823e ff57 8d3e ec32 513e
00000360: 9328 a13e aa19 8fbe bc75 593e 8e08 0d3e
00000370: 9002 d03d e258 75be a841 143b ebed aa3d
00000380: bcfd 3bbe 78a2 15be 5071 90be c129 83be
00000390: 2531 a13e baa9 753e 549c 5dbe b0c6 ee3d
000003a0: 6bc9 f53b bc08 19be ccce 973e 8c6a debc
000003b0: 7757 86be 4ac0 e5bd c48c 7c3b edee a0bd
000003c0: 0d5b 69be f642 51bd 0d3b 7cbe 7615 613e
000003d0: eb81 833e 5b55 3a3e e799 7bbc 8b49 db3c
000003e0: 8297 d43c 92aa a2bd 81f2 963e 293c 343e
000003f0: e88d 243e 30cc d83d 8ecf 6dbe 507c 373d

lstm.weight_hh_l0 f4 [40, 10]
0.06585856 0.119015954 0.022499777 0.07111819 0.00061906484 -0.072783016 -0.23213197 0.0016226043
0.17278382 -0.17426671 0.3092467 0.29824102 0.2539789 -0.0038583174 -0.074250236 -0.10407101
0.31349617 -0.17619023 0.23176473 -0.1153454 0.2768748 0.1448369 -0.16700166 0.026605163
-0.024239581 0.06869433 -0.24571435 -0.08427926 0.11729974 -0.032524467 -0.12972967 0.1724335
-0.03963813 -0.11027029 0.05887449 0.020404939 0.0997111 -0.16543858 -0.30216464 0.14936537
0.20113494 0.09718711 0.10798245 0.2447689 -0.09393497 0.039724346 0.1637998 -0.18610106
-0.06317726 0.06008028 -0.07367234 0.16814558 -0.15970536 0.22992477 0.02574653 0.03319114
0.0031720381 -0.24476965 -0.05938073 0.20995405 0.10305307 0.16498995 -0.022578262 0.24506934
-0.13055761 -0.17358768 -0.1484293 0.15296553 0.16107413 0.06039433 -0.12498004 0.0990359
-0.2454822 -0.22167498 0.08719292 0.0040854057 0.17330667 -0.273048 -0.25952867 -0.14918536
0.24858542 0.26989615 -0.016522005 0.032498304 0.121773586 0.24686947 -0.061380945 0.2037852
0.27809134 -0.1259533 0.17606774 0.28396288 0.082215935 -0.26884413 -0.22852035 -0.13873884
-0.14060956 -0.13485892 -0.04090231 0.21974951 -0.13932155 0.033680115 -0.09969364 -0.082367934
0.29094052 0.024778502 0.19367139 -0.18768126 -0.1319316 0.30117905 -0.065450296 -0.25034997
0.28816617 -0.13345367 0.043903165 -0.30493963 0.16590561 0.22491664 0.104856625 0.03619196
-0.14949918 0.12481828 0.25952166 0.091370985 -0.20146078 -0.29483908 0.2544507 -0.104372896
-0.28170535 -0.104118735 -0.19204657 -0.19583613 0.07313801 0.01102344 -0.28015926 0.13330665
0.03766355 -0.20043036 -0.024248365 0.26124954 0.10063457 0.28241104 -0.1896143 -0.23963554
0.21211231 0.05424666 -0.10610644 0.16162516 -0.2827608 -0.23400433 -0.21246022 0.12368193
-0.038464237 -0.061881453 0.10841645 -0.11773813 -0.10395377 0.1670956 0.06804602 -0.250354
-0.2866876 -0.26666427 -0.2255037 0.2366676 0.14894587 -0.10500621 0.0017495311 -0.017137563
0.19648802 0.28380278 -0.28117758 0.04000881 -0.086265266 0.05117007 -0.08224334 -0.025886124
0.20751692 -0.27190316 -0.15831797 0.24229516 0.0034919751 -0.18343338 -0.005289985 -0.102759264
0.16005853 0.23078999 0.012332027 0.26970878 0.1278309 -0.122058615 -0.216383 0.010679528
-0.05265915 0.16369188 0.2424927 0.06684871 0.24672279 0.15336184 -0.31101072 -0.19846268
-0.08279798 0.27149853 0.18625638 0.30387083 0.24957892 -0.31174365 -0.006881979 0.25434458
-0.1447312 -0.128274 0.08425514 -0.0922335 -0.21972787 -0.19929568 0.06216618 -0.14869201
-0.2807443 0.07472545 0.04454315 0.19889304 -0.06567267 -0.12892774 0.17804545 0.29094273
0.07946434 0.07385528 0.07572665 0.17038642 0.0865446 -0.16218945 0.095385484 -0.014347022
-0.02433488 0.1887937 -0.29663962 0.20810351 -0.090690024 0.23237129 -0.09191665 0.17685723
-0.0056141815 -0.020656832 0.010777013 0.1142097 0.016346674 0.2796192 0.1765724 0.26883993
-0.07213904 0.042166565 0.2999649 0.16109936 -0.07132568 0.15402316 0.19990325 -0.2709496
00000000: dae0 863d a3be f33d 7451 b83c 6aa6 913d
00000010: bd48 223a 430f 95bd 01b4 6dbe 91ad d43a
00000020: 3eee 303e f972 32be 9555 9e3e 0cb3 983e
00000030: 8609 823e d3db 7cbb 8210 98bd 2f23 d5bd
00000040: 9282 a03e 366b 34be bc53 6d3e 363a ecbd
00000050: 89c2 8d3e 2050 143e 7c02 2bbe 12f3 d93c
00000060: 1692 c6bc 9daf 8c3d 8b9c 7bbe 9b9a acbd
00000070: d93a f03d 6038 05bd dbd7 04be 6892 303e
00000080: 985b 22bd 64d5 e1bd 6126 713d 4228 a73c
00000090: 5535 cc3d bb68 29be 53b5 9abe 3cf3 183e
000000a0: 51f6 4d3e 090a c73d e725 dd3d b3a4 7a3e
000000b0: fa60 c0bd ffb5 223d 23bb 273e 4791 3ebe
000000c0: 1463 81bd bd16 763d 86e1 96bd 5b2e 2c3e
000000d0: cd89 23be 6671 6b3e 63ea d23c 6ff3 073d
000000e0: f8e1 4f3b e5a4 7abe 3539 73bd 32fe 563e
000000f0: 7d0d d33d 20f3 283e 0cf6 b8bc 75f3 7a3e
00000100: e5b0 05be f8c0 31be dafd 17be ffa2 1c3e
00000110: 9ef0 243e 0c60 773d 89f5 ffbd 55d3 ca3d
00000120: b05f 7bbe c4fe 62be 3492 b23d dede 853b
00000130: 4e77 313e f3cc 8bbe f1e0 84be 0cc4 18be
00000140: 2d8d 7e3e d42f 8a3e 2859 87bc f11c 053d
00000150: 6e64 f93d 5acb 7c3e 966a 7bbd 11ad 503e
00000160: fd61 8e3e e7f9 00be 1a4b 343e 9563 913e
00000170: d460 a83d f0a5 89be 3d01 6abe 8e11 0ebe
00000180: f4fb 0fbe 7518 0abe 2e89 27bd 0406 613e
00000190: 4faa 0ebe 29f4 093d 2e2c ccbd 85b0 a8bd
000001a0: 28f6 943e 49fc ca3c cb51 463e 842f 40be
000001b0: 1419 07be 2434 9a3e ce0a 86bd df2d 80be
000001c0: 848a 933e 14a8 08be ced3 333d 0c21 9cbe
000001d0: 29e3 293e 8c50 663e 12bf d63d 053e 143d
000001e0: 5016 19be baa0 ff3d 06e0 843e b620 bb3d
000001f0: bc4b 4ebe 26f5 96be 5d47 823e 75c1 d5bd
00000200: af3b 90be 343c d5bd dba7 44be 4489 48be
00000210: 62c9 953d a99b 343c 0971 8fbe 8a81 083e
00000220: 1845 1a3d 9e3d 4dbe 82a4 c6bc 80c2 853e
00000230: 7f19 ce3d 2e98 903e 402a 42be 0563 75be
00000240: f833 593e bf31 5e3d 554e d9bd 1181 253e
00000250: 06c6 90be d59e 6fbe 2c8f 59be f44c fd3d
00000260: ad8c 1dbd 6877 7dbd 7209 de3d b020 f1bd
00000270: b7e5 d4bd 1c1b 2b3e b65b 8b3d 662e 80be
00000280: b8c8 92be 3888 88be 71ea 66be fe58 723e
00000290: 4485 183e 7f0d d7bd 8650 e53a 1364 8cbc
000002a0: 2834 493e 994e 913e 82f6 8fbe 47e0 233d
000002b0: d8ab b0bd b597 513d 326f a8bd 230f d4bc
000002c0: 517f 543e e436 8bbe 1b1e 22be 391c 783e
000002d0: 9fd9 643b f6d5 3bbe 9c57 adbb 7373 d2bd
000002e0: 62e6 233e 3654 6c3e 450c 4a3c 4517 8a3e
000002f0: 1ae6 023e def9 f9bd 8193 5dbe 30f9 2e3c
00000300: 1fb1 57bd d89e 273e 0250 783e fae7 883d
00000310: e6a4 7c3e e30a 1d3e cc3c 9fbe cd39 4bbe
00000320: fd91 a9bd db01 8b3e feb9 3e3e f594 9b3e
00000330: 9e91 7f3e dd9c 9fbe 3982 e1bb 7439 823e
00000340: 6a34 14be 425a 03be f58d ac3d ebe4 bcbd
00000350: 5800 61be 2b14 4cbe f7a1 7e3d b842 18be
00000360: b8bd 8fbe a809 993d e172 363d 9eaa 4b3e
00000370: 657f 86bd a205 04be 8c51 363e 72f6 943e
00000380: 33be a23d 7041 973d 9316 9b3d c779 2e3e
00000390: 4c3e b13d fe14 26be 7759 c33d c60f 6bbc
000003a0: f159 c7bc 2353 413e 26e1 97be 1619 553e
000003b0: b1bb b9bd bdf2 6d3e cc3e bcbd 101a 353e
000003c0: 2bf7 b7bb 8438 a9bc 1292 303c c6e6 e93d
000003d0: 76e9 853c 3f2a 8f3e 65cf 343e 63a5 893e
000003e0: a2bd 93bd d9b6 2c3d 0095 993e 3bf7 243e
000003f0: 3313 92bd 3fb8 1d3e 70b3 4c3e e8b9 8abe

lstm.bias_ih_l0 f4 [40]
-0.024093127 0.29128546 0.21549827 -0.13094956 -0.2661743 0.14422488 0.27550083 0.15641487
-0.21043387 0.29041567 0.26173344 -0.18735379 0.01618518 -0.10762881 -0.083988234 -0.01105963
0.2308229 -0.07107688 0.29064396 0.00017955218 -0.25831714 -0.0012916975 -0.18095294 0.040846292
-0.085996255 -0.28215212 0.008388023 0.28041738 -0.19973187 0.21652405 -0.11573666 -0.19574724
-0.12061903 -0.04095931 -0.05112932 0.06436902 0.13461788 -0.024332091 0.14001605 -0.008526712
00000000: f35e c5bc 5e23 953e 94ab 5c3e a417 06be
00000010: ff47 88be b0af 133e 720e 8d3e 382b 203e
00000020: fa7b 57be 5db1 943e ed01 863e acd9 3fbe
00000030: c896 843c 7e6c dcbd 0602 acbd 7333 35bc
00000040: d75c 6c3e c190 91bd 49cf 943e 2c46 3c39
00000050: 2542 84be 2d4e a9ba ba4b 39be 714e 273d
00000060: ce1e b0bd 3e76 90be eb6d 093c de92 8f3e
00000070: 8386 4cbe 7bb8 5d3e 5807 edbd f771 48be
00000080: 1c07 f7bd f3c4 27bd fa6c 51bd e8d3 833d
00000090: 45d9 093e 1854 c7bc 5e60 0f3e 9fb3 0bbc

lstm.bias_hh_l0 f4 [40]
0.20310713 0.045752253 0.18531387 -0.1487976 -0.122241065 0.22459127 -0.22009124 0.19632834
0.26500928 -0.26686558 0.033689197 0.029944086 -0.16516954 -0.13025555 -0.045230146 0.00074731105
0.09627389 0.07382087 0.1394913 0.2672825 0.30865765 -0.3111367 0.22701257 -0.12085343
-0.061348036 0.243872 0.06897993 -0.048316084 0.25614902 0.2975085 0.07486519 -0.047500204
0.024471683 0.043884996 -0.2911326 0.14990032 -0.018208884 -0.21526621 -0.23817486 0.07833998
00000000: 51fb 4f3e b766 3b3d ebc2 3d3e 665e 18be
00000010: 8659 fabd 41fb 653e 995f 61be 4c0a 493e
00000020: 4caf 873e 9ba2 88be affd 093d 4d4d f53c
00000030: 3422 29be b661 05be 3f43 39bd 32e7 433a
00000040: 3f2b c53d 652f 973d cfd6 0e3e 40d9 883e
00000050: 6008 9e3e 4f4d 9fbe fc75 683e 0182 f7bd
00000060: 1448 7bbd 95b9 793e 5945 8d3d 16e7 45bd
00000070: f725 833e 0953 983e ec52 993d 938f 42bd
00000080: d778 c83c c1c0 333d 550f 95be 787f 193e
00000090: cc2a 95bc bf6e 5cbe 1ce4 73be b670 a03d

lstm.weight_ih_l1 f4 [40, 10]
0.120824404 0.20470102 0.09567458 -0.3052867 0.10567055 -0.17875944 -0.24614142 0.15250969
-0.24119984 -0.20774975 -0.1074963 0.15082578 -0.11981242 -0.020552976 0.3074156 -0.040098906
-0.10607048 -0.13304116 -0.13174696 0.11942757 -0.25638825 -0.31510356 0.30522132 0.29616934
0.058828842 0.20420831 0.057641715 0.14438148 -0.04083668 0.17253359 0.25301594 0.09143669
-0.29315203 -0.049349368 -0.116475455 -0.28471744 -0.31135777 -0.31031337 -0.09689055 -0.19524665
-0.30507642 -0.19154285 0.041807346 0.040117905 0.2008059 0.025715582 -0.31040168 0.25712878
-0.07680626 -0.31287682 -0.23585854 0.20089065 0.039165936 0.17438765 -0.20037238 0.058116212
0.14743714 -0.23176715 0.19418181 0.14255556 -0.30424926 0.047322273 -0.18599875 0.0016980366
-0.25174776 -0.1394533 -0.045914806 0.009214838 -0.013963075 -0.059424758 0.112595655 -0.18581808
-0.043110203 -0.29929656 -0.1548341 -0.1926083 -0.107340425 -0.1709054 -0.0012183763 -0.08620039
0.14028849 -0.100215785 -0.04883367 -0.098578855 -0.20502432 -0.12858398 -0.21387172 0.18206662
0.19045445 0.18210813 -0.062445443 -0.18795426 0.27569857 0.04404849 -0.0060144514 -0.29499218
-0.017781772 0.043652818 0.26367965 0.153661 0.18636465 0.036213182 0.02124408 0.17333442
-0.16237828 0.0053816647 0.1432394 -0.045713127 -0.050293006 -0.09513721 -0.04389717 -0.04499228
-0.0063573457 -0.20162055 0.021448437 -0.14855015 0.29119983 -0.18364301 0.114834346 -0.22207008
-0.052825097 -0.31281525 -0.05921897 0.25214905 0.20095079 -0.15176995 0.09120983 0.26736042
-0.15367831 -0.0025620207 -0.30007792 0.2162331 0.03131374 -0.03361011 -0.060560316 -0.20886491
-0.006347507 -0.1173996 0.06793662 0.2845025 0.053074047 -0.10012339 0.11860558 -0.23799078
-0.15183774 0.070246026 0.22597797 -0.061508402 0.22305156 0.10340279 0.21506272 0.03383765
0.28573474 0.27367777 0.03832276 -0.21462467 -0.04877573 -0.09823743 -0.2670308 0.25022152
-0.059502378 -0.004067047 0.22891511 0.11375661 -0.14113492 0.14470601 -0.08009456 -0.102449805
0.10168206 -0.086908795 0.0126631595 -0.30052546 -0.2041822 0.12378677 0.30424866 -0.2652776
0.20537685 -0.10287205 0.078106664 0.114028566 0.00651771 -0.2884219 -0.118235804 -0.04431158
-0.26884386 -0.12769903 0.16028284 -0.23768513 0.2900646 0.18003768 -0.04847645 0.15235491
-0.037094958 0.22906534 -0.30759674 0.17544995 0.18047056 0.08931833 0.008569988 -0.15420102
-0.29044983 -0.025263967 0.1512646 0.067650795 0.13972597 0.0700445 0.15549275 0.008784146
-0.11178354 0.20182239 0.26083988 0.18582422 0.07604342 -0.0025981348 -0.039416585 -0.061031982
0.26750427 -0.089380264 0.284227 -0.04549203 -0.050486997 0.1952301 -0.2833837 -0.28207418
0.09053844 -0.1607182 -0.03942729 -0.1342501 -0.25749162 0.10948325 -0.08489814 -0.16017114
0.008697631 0.27293608 0.050337076 -0.18790296 0.24167557 0.23663537 -0.31146777 -0.18817838
-0.05824985 0.10249425 -0.24330372 0.006215265 -0.030645708 0.24334481 0.25185794 0.043723274
-0.15779465 0.15402678 -0.197286 0.28171453 -0.14983696 0.06433939 0.0979541 -0.096936315
00000000: c972 f73d 259d 513e 09f1 c33d 8a4e 9cbe
00000010: cd69 d83d b70c 37be 7f0c 7cbe 802b 1c3e
00000020: 17fd 76be 5abc 54be 0527 dcbd 1372 1a3e
00000030: 3760 f5bd b75e a8bc 9465 9d3e c03e 24bd
00000040: 7b3b d9bd f13b 08be ade8 06be 7196 f43d
00000050: 5245 83be 4155 a1be f845 9c3e 82a3 973e
00000060: 83f6 703d fc1b 513e b819 6c3d bdd8 133e
00000070: 5d44 27bd a5ac 303e 4e8b 813e 2943 bb3d
00000080: 0618 96be 9022 4abd af8a eebd 7cc6 91be
00000090: 496a 9fbe 65e1 9ebe 8d6e c6bd bdee 47be
000000a0: fa32 9cbe cf23 44be 2e3e 2b3d ac52 243d
000000b0: 10a0 4d3e 7ca9 d23c f8ec 9ebe 62a6 833e
000000c0: 9a4c 9dbd 6431 a0be e784 71be 47b6 4d3e
000000d0: 766c 203d ad92 323e 6b2e 4dbe 440b 6e3d
000000e0: c3f9 163e 5e54 6dbe 99d7 463e 16fa 113e
000000f0: 8fc6 9bbe 00d5 413d 7576 3ebe a790 de3a
00000100: 15e5 80be d9cc 0ebe 2a11 3cbd d5f9 163c
00000110: 62c5 64bc 6067 73bd 8d98 e63d 1847 3ebe
00000120: 5394 30bd 663d 99be d58c 1ebe 1c3b 45be
00000130: 4cd5 dbbd d301 2fbe edb1 9fba d489 b0bd
00000140: c9a7 0f3e ef3d cdbd d005 48bd b6e3 c9bd
00000150: e5f1 51be 85ab 03be 3001 5bbe ac6f 3a3e
00000160: 7e06 433e 8e7a 3a3e cbc6 7fbd 1577 40be
00000170: 5d28 8d3e 306c 343d e014 c5bb 3709 97be
00000180: 14ab 91bc 4ccd 323d 0501 873e 4f59 1d3e
00000190: 60d6 3e3e 4654 143d 1108 ae3c 947e 313e
000001a0: 7e46 26be ad58 b03b 59ad 123e b03d 3bbd
000001b0: 0a00 4ebd 4cd7 c2bd 85cd 33bd d349 38bd
000001c0: 4851 d0bb 9e75 4ebe a2b4 af3c 881d 18be
000001d0: 2518 953e ea0c 3cbe 452e eb3d 5766 63be
000001e0: 215f 58bd 5229 a0be 978f 72bd ae19 813e
000001f0: 0bc6 4d3e 9569 1bbe 38cc ba3d 77e3 883e
00000200: d95d 1dbe 93e7 27bb d0a3 99be 366c 5d3e
00000210: d642 003d c1aa 09bd 180e 78bd afe0 55be
00000220: bffe cfbb 346f f0bd 5b22 8b3d 50aa 913e
00000230: 2c64 593d 7e0d cdbd 7be7 f23d dbb3 73be
00000240: 5a7b 1bbe 26dd 8f3d c566 673e 3cf0 7bbd
00000250: a167 643e d8c4 d33d 6739 5c3e 5999 0a3d
00000260: d34b 923e 7e1f 8c3e 54f8 1c3d 92c6 5bbe
00000270: 0fc9 47bd b530 c9bd 43b8 88be 091d 803e
00000280: c4b8 73bd dd44 85bb b968 6a3e 3af9 e83d
00000290: ac85 10be d02d 143e 9e08 a4bd 34d1 d1bd
000002a0: af3e d03d 3dfd b1bd 2479 4f3c 79de 99be
000002b0: 2315 51be eb83 fd3d 7bc6 9b3e 77d2 87be
000002c0: 4f4e 523e 95ae d2bd 63f6 9f3d cf87 e93d
000002d0: 8492 d53b 09ac 93be 9d25 f2bd 0f80 35bd
000002e0: e7a5 89be 89c3 02be 2f21 243e bb63 73be
000002f0: 5983 943e cc5b 383e 3e8f 46bd ed02 1c3e
00000300: e2f0 17bd 1b90 6a3e 527d 9dbe 27a9 333e
00000310: 46cd 383e 87ec b63d 2369 0c3c dfe6 1dbe
00000320: d7b5 94be 61f6 cebc 1be5 1a3e 808c 8a3d
00000330: 5314 0f3e 7e73 8f3d 7e39 1f3e 61eb 0f3c
00000340: c5ee e4bd 87aa 4e3e ce8c 853e b448 3e3e
00000350: a7bc 9b3d 7845 2abb 4973 21bd acfc 79bd
00000360: 52f6 883e 000d b7bd 3486 913e da55 3abd
00000370: 74cb 4ebd 66ea 473e ab17 91be 076c 90be
00000380: 386c b93d 5093 24be 837e 21bd dc78 09be
00000390: f1d5 83be c138 e03d 13df adbd e703 24be
000003a0: 8280 0e3c 47be 8b3e 402e 4e3d a269 40be
000003b0: cd79 773e 8b50 723e b478 9fbe d5b1 40be
000003c0: 6597 6ebd 81e8 d13d 9c24 79be 6ca9 cb3b
000003d0: b50c fbbc 622f 793e 86f3 803e 2d17 333d
000003e0: ec94 21be 32b9 1d3e 5705 4abe e33c 903e
000003f0: dc6e 19be 5fc4 833d 299c c83d 8c86 c6bd

lstm.weight_hh_l1 f4 [40, 10]
0.19216935 0.2960632 -0.11072553 0.16535018 -0.083938286 0.051709294 0.020553352 0.16691816
0.028113695 0.2039896 -0.20971374 -0.31318098 -0.0026683647 -0.19259457 -0.19985557 -0.047458284
-0.11307991 0.09543536 0.17565073 -0.1860502 0.04654077 -0.19513997 -0.29052234 0.09361013
-0.2656831 -0.031894732 0.30192417 0.18251123 -0.16621028 0.11858601 -0.30449155 -0.17167458
-0.22646491 0.23612069 -0.30681166 0.14521365 0.099220544 -0.22395977 0.31226125 -0.2890182
-0.18336892 0.14412807 -0.20355129 -0.19135249 0.004305407 0.19370337 -0.13344048 -0.004250784
-0.13730618 -0.0009971686 0.22171105 0.22498876 -0.04549938 -0.017054781 -0.008033593 -0.04033606
0.023479642 0.17720458 0.28629732 0.2722474 -0.12692416 0.24845977 -0.031651698 -0.26505554
-0.10465487 -0.08582862 -0.13133606 -0.01886112 -0.18599227 -0.25155222 -0.23773424 0.09460134
-0.27656674 0.17261203 0.06486576 0.31312576 0.07237969 -0.035651192 -0.03466639 0.28795117
-0.11604413 -0.08821097 -0.2159071 0.20614468 0.2871214 0.17281078 0.29132584 0.16684404
-0.007638639 0.19579323 -0.17295082 0.19597308 0.099171914 -0.14476682 -0.1959104 -0.059826687
-0.17792057 0.07894615 -0.13940245 -0.23455463 0.00652393 0.21307804 -0.31606963 0.13027142
-0.025030056 -0.31013387 -0.1847011 -0.12248271 0.2501224 -0.14366096 -0.033044837 -0.28487518
-0.10803443 -0.2484724 0.25737762 0.08850844 0.05645968 0.053548392 -0.20895542 0.21912049
0.072037295 0.20857343 0.25689137 -0.18648757 0.18215442 0.18112212 0.3065372 0.10498694
0.026378036 -0.06641836 0.03816021 -0.065850526 -0.0036407663 -0.24792013 0.10887365 0.15006623
0.09119366 0.29866016 -0.03782821 0.18393822 0.26871717 -0.23885578 -0.0246037 0.12819181
-0.22569329 -0.2606625 -0.27890933 -0.1101606 -0.13924496 0.06622705 -0.07574018 0.23820637
0.20104963 -0.2541733 -0.22959122 -0.13984819 0.13224359 0.107318185 0.042194046 0.021291766
0.2084015 0.24001211 -0.23362264 0.036699288 -0.07847195 0.30751148 0.25898546 -0.27537453
0.17152835 -0.07449259 -0.3091214 0.24705027 -0.20365258 0.16138153 0.2315638 0.31620556
0.28383368 0.17274351 -0.11850229 0.30372852 -0.04446561 -0.24249776 0.13863584 0.12096023
-0.27396065 0.1557532 0.13630627 -0.17536654 -0.29122716 0.20486782 -0.05035626 0.2675653
0.19331773 0.15766875 0.2972255 0.019730119 0.25316748 -0.30640852 0.100838356 0.20089522
0.18216309 -0.087932274 -0.031107122 0.13422568 0.033702694 -0.2626777 -0.010712589 0.21203902
-0.0060213124 0.18235362 -0.29582968 -0.099047884 -0.29295543 -0.113569334 -0.28810996 -0.071192235
0.30209866 -0.05492736 -0.21364667 -0.04674603 -0.10982494 0.15521432 0.066328034 -0.12682652
-0.17397211 -0.02797297 0.11806779 0.13860293 0.2919322 -0.24873096 -0.006758596 0.23771475
0.2796847 0.31344306 0.20425099 0.03673623 -0.11196686 0.30988255 0.2612773 0.1644327
0.15110445 0.07770436 0.05589961 0.13644077 -0.029721068 -0.22428729 -0.095642954 -0.18530159
-0.096790195 0.21365589 -0.03273063 0.2670862 0.06388028 0.05540604 -0.024895817 0.25952667
00000000: 0bc8 443e 9995 973e 11c4 e2bd 8f51 293e
00000010: d6e7 abbd 20cd 533d 815f a83c 98ec 2a3e
00000020: b14e e63c a6e2 503e 33bf 56be 4259 a0be
00000030: bbdf 2ebb 8337 45be f0a6 4cbe 9e63 42bd
00000040: 7196 e7bd 9d73 c33d c9dd 333e f283 3ebe
00000050: 89a1 3e3d c6d2 47be 58bf 94be abb6 bf3d
00000060: 9e07 88be 0da4 02bd ce95 9a3e 39e4 3a3e
00000070: 0733 2abe 39dd f23d 51e6 9bbe 76cb 2fbe
00000080: 6be6 67be 9fc9 713e 6b16 9dbe e3b2 143e
00000090: 2434 cb3d b655 65be b5e0 9f3e 32fa 93be
000000a0: 10c5 3bbe 4f96 133e c06f 50be e8f1 43be
000000b0: 5f14 8d3b 2d5a 463e 9fa4 08be 294a 8bbb
000000c0: fe99 0cbe 6db3 82ba 3908 633e 7463 663e
000000d0: 8f5d 3abd 78b6 8bbc 559f 03bc 6d37 25bd
000000e0: 6158 c03c 1e75 353e 9095 923e 0364 8b3e
000000f0: 68f8 01be 3d6c 7e3e 36a5 01bd 5cb5 87be
00000100: 4b55 d6bd eac6 afbd f67c 06be a382 9abc
00000110: c274 3ebe 74cb 80be 9b70 73be 59be c13d
00000120: 289a 8dbe 35c1 303e 57d8 843d 0552 a03e
00000130: ce3b 943d fc06 12bd 58fe 0dbd 566e 933e
00000140: 8ba8 edbd f4a7 b4bd c016 5dbe 9717 533e
00000150: 9301 933e 4ff5 303e a928 953e 2ad9 2a3e
00000160: 8c4d fabb 057e 483e 051a 31be 2bad 483e
00000170: a51a cb3d c13d 14be bc9c 48be d40c 75bd
00000180: cf30 36be 85ae a13d 84bf 0ebe 172f 70be
00000190: b1c6 d53b 2131 5a3e e1d3 a1be df65 053e
000001a0: d50b cdbc dec9 9ebe 4922 3dbe 37d8 fabd
000001b0: 0b10 803e dc1b 13be 065a 07bd 29db 91be
000001c0: 2841 ddbd 8c6f 7ebe 00c7 833e ea43 b53d
000001d0: 4442 673d 8f55 5b3d 69f8 55be 1f61 603e
000001e0: 4a88 933d 4694 553e 4487 833e 99f6 3ebe
000001f0: b086 3a3e 1478 393e 72f2 9c3e 6503 d73d
00000200: c016 d83c 5906 88bd e14d 1c3d a4dc 86bd
00000210: ec99 6ebb c6de 7dbe 26f9 de3d f6aa 193e
00000220: bec3 ba3d fce9 983e c1f1 1abd 4d5a 3c3e
00000230: 4c95 893e 9c96 74be b38d c9bc b744 033e
00000240: 241c 67be 8e75 85be 34cd 8ebe e19b e1bd
00000250: 3b96 0ebe 0ca2 873d ab1d 9bbd 5fec 733e
00000260: f4df 4d3e 0123 82be f619 6bbe 5d34 0fbe
00000270: dd6a 073e a3c9 db3d aad3 2c3d 126c ae3c
00000280: 3467 553e bcc5 753e c63a 6fbe fe51 163d
00000290: e7b5 a0bd 2572 9d3e be99 843e e4fd 8cbe
000002a0: 21a5 2f3e 928f 98bd 2945 9ebe bffa 7c3e
000002b0: 4d8a 50be 3341 253e 101f 6d3e b2e5 a13e
000002c0: a652 913e ade3 303e 54b1 f2bd 4e82 9b3e
000002d0: 9221 36bd 5551 78be 8ef6 0d3e ffb9 f73d
000002e0: 9244 8cbe c47d 1f3e df93 0b3e 4993 33be
000002f0: ba1b 95be dfc8 513e 5e42 4ebd 52fe 883e
00000300: 15f5 453e eb73 213e f12d 983e 0fa1 a13c
00000310: 2b9f 813e 94e1 9cbe 5784 ce3d 7ab7 4d3e
00000320: f688 3a3e d615 b4bd 5dd4 febc 7572 093e
00000330: d60b 0a3d b17d 86be db83 2fbc c220 593e
00000340: 6e4e c5bb e8ba 3a3e fd76 97be 9ed9 cabd
00000350: 41fe 95be 0a97 e8bd 2683 93be 3ccd 91bd
00000360: adac 9a3e 83fb 60bd 31c6 5abe c478 3fbd
00000370: e6eb e0bd 81f0 1e3e fed6 873d d0de 01be
00000380: bf25 32be 9227 e5bc 87cd f13d eded 0d3e
00000390: 2378 953e 54b3 7ebe 3677 ddbb 7f6b 733e
000003a0: d532 8f3e 9c7b a03e 2c27 513e bb78 163d
000003b0: e24e e5bd eda8 9e3e 23c6 853e 0c61 283e
000003c0: 20bb 1a3e 7723 9f3d fdf6 643d 21b7 0b3e
000003d0: 9979 f3bc 91ab 65be 74e0 c3bd b3bf 3dbe
000003e0: f039 c6bd 9cc8 5a3e 8e10 06bd 86bf 883e
000003f0: aad3 823d 72f1 623d 50f2 cbbc aee0 843e

lstm.bias_ih_l1 f4 [40]
-0.21217157 -0.14119753 -0.022891752 0.035469867 0.09334233 0.09602486 -0.06283406 0.06342945
-0.21183372 -0.08781202 -0.13083485 0.07914877 0.31177676 0.1689244 0.2130516 -0.11660713
0.1635066 -0.09669652 -0.27016518 0.027615525 0.28018945 0.114548974 -0.20724645 -0.040112328
-0.30487078 -0.20737301 0.15937494 0.08922789 -0.188115 -0.06305271 -0.18657145 -0.045303997
0.19423117 -0.09110111 -0.26165575 0.30486026 -0.105886556 -0.31314993 0.130728 -0.038110185
00000000: 8143 59be 1696 10be 7c87 bbbc da48 113d
00000010: 432a bf3d afa8 c43d 25af 80bd 4de7 813d
00000020: f0ea 58be cad6 b3bd 92f9 05be c018 a23d
00000030: 34a1 9f3e 85fa 2c3e 332a 5a3e b8cf eebd
00000040: 466e 273e d308 c6bd 1753 8abe f439 e23c
00000050: fe74 8f3e a798 ea3d 6a38 54be d34c 24bd
00000060: 0618 9cbe 9759 54be 2f33 233e 1dbd b63d
00000070: 38a1 40be c721 81bd 960c 3fbe af90 39bd
00000080: 89e4 463e 3893 babd bef7 85be a516 9c3e
00000090: 0ddb d8bd 3055 a0be 90dd 053e 6d19 1cbd

lstm.bias_hh_l1 f4 [40]
-0.2636379 -0.13764882 0.0660107 0.26894024 -0.23668385 0.036867946 -0.29404107 -0.07944251
-0.27494088 -0.21574675 0.11681198 -0.20232579 0.007647347 0.004945884 -0.16002615 0.19170164
0.07071212 0.12798749 -0.28269485 -0.073548384 0.22446032 0.28968024 -0.2949272 -0.27973917
-0.1417024 0.14791378 0.10898323 0.15864274 0.024997221 -0.27935413 0.27715102 0.29469174
0.050404817 0.20545109 -0.090395644 -0.23484755 0.12335649 0.27638257 -0.31302044 -0.15919738
00000000: 8cfb 86be d0f3 0cbe 9e30 873d 89b2 893e
00000010: 405d 72be d802 173d 8d8c 96be c1b2 a2bd
00000020: 0dc5 8cbe b7ec 5cbe 1f3b ef3d 7e2e 4fbe
00000030: 9996 fa3b 1511 a23b e5dd 23be 6f4d 443e
00000040: 84d1 903d 270f 033e 61bd 90be 89a0 96bd
00000050: edd8 653e f850 943e b300 97be f939 8fbe
00000060: 6f1a 11be b676 173e 9a32 df3d 3e73 223e
00000070: f9c6 cc3c 8107 8fbe bde6 8d3e d6e1 963e
00000080: 4875 4e3d c561 523e 5a21 b9bd e07b 70be
00000090: 54a2 fc3d 0482 8d3e 3744 a0be a304 23be

fc.weight f4 [1, 7200]
0.009326087 0.0066048116 0.010719984 0.0020675068 -0.004114568 -0.0048171575 -8.926703e-05 -0.008825549
-0.008548278 -0.005655103 -0.007763163 0.0019028262 0.010326698 -0.002790342 -0.010475579 0.0103532905
-0.008364781 -0.0022399027 0.0100289425 0.0010025302 0.011663198 -0.0061031375 -0.0022657823 -0.008074797
-0.007628691 -0.005945399 0.008185268 0.0023481287 -0.01071028 0.004931811 -0.0020508277 -0.008179779
0.0064001577 -0.0032663892 -0.004296367 -0.0076440615 0.0018576926 -0.00068560423 0.0070381304 0.0020284464
0.0029935094 0.00584775 0.010637098 0.006890351 0.011671099 0.0035937831 -0.009332942 0.0005892762
-0.009889634 0.009549077 0.00014898911 0.010814693 -0.009389389 0.0060054315 0.004498217 -0.007332987
-0.004525324 0.0007423128 0.009154218 -0.0052106627 0.004070873 0.00939758 -0.009790095 -0.008897551
0.0074614156 0.010691685 -0.010079412 0.005272211 0.01025128 0.009461187 -0.004265937 0.008441653
-0.0030442993 0.0076864376 -0.0053212126 0.0041187825 0.0047160694 0.011342328 -0.010151132 0.010802608
-0.000904869 -0.0020993163 0.0091534695 0.011339709 0.0034675084 0.004681697 -0.0063963886 0.009268843
-1.9580022e-05 0.0024700174 -0.011202469 -0.005165949 0.004342134 -0.009971911 -0.0065675597 -0.0037445496
-0.005162215 -0.0020765949 -0.0001473791 -0.008992644 0.0059684827 0.006841219 -0.009076894 9.13547e-05
0.004301773 -0.010531019 -0.0076473956 -0.004764638 -0.0031141154 -0.009069464 0.0076903095 -0.0074251676
0.0030580645 0.00085240736 0.0034127948 0.006212665 0.008064798 -0.0035598986 0.004821465 0.0051513384
0.004277533 -0.0072076423 -0.008962421 -0.0023825446 0.005848187 0.00869848 -0.00033383537 0.008690673
-0.0081235645 0.0037756397 -0.010766013 0.008067892 -0.008475931 -0.007258556 -0.0006911212 0.0055782576
0.008320971 -0.005528169 0.0032412668 0.009635976 0.010379247 0.0034479285 -0.01037224 -0.007865638
-0.004339819 -0.0035679822 0.00015043335 -0.004043993 0.007519054 0.011203414 0.009053125 0.0074579427
0.0044461032 -0.010313753 -0.00039309805 0.008075518 0.0045018145 -0.0052833026 0.011480691 -0.00023085796
0.0021255498 0.006108874 0.00072099775 -0.0064091296 0.007577547 -0.009044602 -0.009072819 -0.008612345
-0.007693531 -0.0011549192 -0.008633741 -0.0062300223 -0.0030392136 0.009629519 -0.0075309086 0.0017548234
-0.007405578 0.010542339 -0.011621734 -0.0068952413 0.00075768656 -0.011168497 0.01070701 -0.0008318187
-0.008981263 -0.0041801315 -0.0040458012 -0.011076704 0.0018833601 0.00037015893 -0.003675128 -0.00019877437
0.010982355 0.0050533004 0.008507101 -0.0022176506 0.0048346356 0.008785124 -0.0011329523 -0.0049187704
-0.0048874384 0.009616072 0.010964351 -0.0058802203 -0.009131157 0.0032883717 -0.008203709 -0.0006739
-0.005375023 0.0012927984 0.0059467168 0.0020368828 0.0010328001 -0.0112339845 -0.007516486 0.0031279917
0.003311579 0.0060251984 0.00821954 0.0044073113 0.009370411 -0.0048871646 -0.0035254012 -0.006307505
0.00950526 -0.0004658927 0.005344628 0.0037492362 -0.002311433 0.0023631472 -0.011372556 0.0033224544
-0.0052631707 0.006338813 0.010990177 -0.008219175 0.00236671 0.00027649035 0.006327914 -0.007823123
-0.001293741 -0.010167034 -0.0055859354 0.0061358903 0.0046214387 -0.006753864 0.007421633 0.009809555
-0.0092004575 -0.006770443 0.009262471 0.008287893 0.009237675 0.009333781 -0.0043141246 -0.00074665534
00000000: 72cc 183c 2d6d d83b dfa2 2f3c 027f 073b
00000010: 7fd3 86bb 3fd9 9dbb df34 bbb8 0999 10bc
00000020: 140e 0cbc 714e b9bb 2262 febb 4168 f93a
00000030: 5031 293c 2cde 36bb c3a1 2bbc d9a0 293c
00000040: 6f0c 09bc 55cb 12bb 6f50 243c 5567 833a
00000050: ff16 3f3c d4fc c7bb 857d 14bb 274c 04bc
00000060: 19fa f9bb 9fd1 c2bb 811b 063c 10e3 193b
00000070: 2c7a 2fbc 079b a13b 2e67 06bb 7b04 06bc
00000080: 6ab8 d13b eb10 56bb 8ac8 8cbb 097b fabb
00000090: d27d f33a 1fba 33ba 1ea0 e63b afef 043b
000000a0: c12e 443b 7c9e bf3b 3947 2e3c 74c8 e13b
000000b0: 2338 3f3c ad85 6b3b 32e9 18bc a879 1a3a
000000c0: 2208 22bc bb73 1c3c f639 1c39 1c30 313c
000000d0: f4d5 19bc 36c9 c43b c765 933b 8e49 f0bb
000000e0: 2b49 94bb c597 423a 93fb 153c 35be aabb
000000f0: f564 853b 4ff8 193c a266 20bc 09c7 11bc
00000100: e47e f43b 2d2c 2f3c 1e24 25bc 83c2 ac3b
00000110: fcf4 273c 1803 1b3c 46c9 8bbb dc4e 0a3c
00000120: de82 47bb 83de fb3b 915d aebb daf6 863b
00000130: 4289 9a3b 2cd5 393c ef50 26bc 6cfd 303c
00000140: bb34 6dba af94 09bb 6ff8 153c 30ca 393c
00000150: 233f 633b ec68 993b cc98 d1bb 58dc 173c
00000160: c73f a4b7 04e0 213b 8f8a 37bc 1f47 a9bb
00000170: 7648 8e3b 3a61 23bc af34 d7bb 1e67 75bb
00000180: cc27 a9bb 7b17 08bb c789 1ab9 e255 13bc
00000190: 4393 c33b 4e2c e03b 41b7 14bc ae95 bf38
000001a0: e3f5 8c3b 4c8a 2cbc 0197 fabb ae20 9cbb
000001b0: 3016 4cbb 1798 14bc fefe fb3b d24e f3bb
000001c0: cf69 483b 1774 5f3a 32a9 5f3b 9c93 cb3b
000001d0: 3722 043c 304d 69bb 61fd 9d3b 8fcc a83b
000001e0: 8c2a 8c3b 162e ecbb 1ed7 12bc 7724 1cbb
000001f0: 26a2 bf3b 1284 0e3c a006 afb9 5363 0e3c
00000200: b318 05bc b970 773b ee63 30bc 312f 043c
00000210: a2de 0abc 2ed9 edbb 5c2c 35ba d1c9 b63b
00000220: af54 083c a525 b5bb 6f6b 543b 36e0 1d3c
00000230: b80d 2a3c a4f6 613b 54f0 29bc e0de 00bc
00000240: 0a35 8ebb cfd4 69bb a5bd 1d39 7983 84bb
00000250: 6662 f63b 868e 373c 8f53 143c c261 f43b
00000260: 9eb0 913b 04fb 28bc ba18 ceb9 2d4f 043c
00000270: f583 933b 8e1f adbb 8219 3c3c 7612 72b9
00000280: cf4c 0b3b f32c c83b 5701 3d3a ad03 d2bb
00000290: 124d f83b cf2f 14bc 29a6 14bc cb1a 0dbc
000002a0: 041a fcbb a860 97ba 8974 0dbc 3725 ccbb
000002b0: 8b2d 47bb 21c5 1d3c d7c5 f6bb 1a02 e63a
000002c0: 7eaa f2bb c6b9 2c3c 1669 3ebc 7af1 e1bb
000002d0: 7c9f 463a 12fc 36bc 746c 2f3c 680e 5aba
000002e0: 2626 13bc 7cf9 88bb a492 84bb 107b 35bc
000002f0: 14db f63a e411 c239 6bda 70bb 176e 50b9
00000300: 56ef 333c 2896 a53b 5e61 0b3c 0156 11bb
00000310: dd6b 9e3b 7bef 0f3c 927f 94ba a32d a1bb
00000320: ce26 a0bb bb8c 1d3c d2a3 333c ddae c0bb
00000330: d99a 15bc b981 573b d968 06bc aaa8 30ba
00000340: f620 b0bb 1e73 a93a addc c23b 397d 053b
00000350: 055f 873a bf0e 38bc db4c f6bb fefe 4c3b
00000360: 1407 593b 076f c53b 40ab 063c 356b 903b
00000370: 5a86 193c 8224 a0bb 6b0a 67bb 30af cebb
00000380: f3bb 1b3c 0f43 f4b9 fd21 af3b bfb5 753b
00000390: 697b 17bb 08df 1a3b f553 3abc 89bd 593b
000003a0: ad76 acbb d1b5 cf3b 2510 343c b8a9 06bc
000003b0: ce1a 1b3b e8f5 9039 645a cf3b 8e2c 00bc
000003c0: bf92 a9ba a293 26bc 390a b7bb 940f c93b
000003d0: 706f 973b 854f ddbb 2c31 f33b 41b8 203c
000003e0: 84bd 16bc 98da ddbb 9fc1 173c f1c9 073c
000003f0: 9e59 173c b7ec 183c 805d 8dbb 31bb 43ba
