DeepLearning/timeSerise/.scale_batch_size_9ace891d-1347-4958-b33d-236b1463facd.ckpt (torch, 47861 bytes, 9 tensors)

lstm.weight_ih_l0 f4 [40, 50]
0	0x3e02cfc0	0.12774563
1	0xbe936ef6	-0.28795594
2	0xbd170139	-0.0368664
3	0x3e3630d4	0.17792064
4	0xbe208b2a	-0.15678087
5	0xbda83ba2	-0.08214499
6	0x3e8cab4c	0.2747444
7	0xbd2ee530	-0.04269904
8	0xbe58034d	-0.21095009
9	0xbd96a01a	-0.07354756
10	0x3e4e6494	0.20155555
11	0xbd236b8d	-0.03989749
12	0xbe9d1492	-0.30679756
13	0xbe8e2fbc	-0.27770793
14	0xbe4a4a06	-0.197548
15	0xbe4ef032	-0.20208815
16	0xbe4c9a38	-0.19980705
17	0x3d18b75b	0.037284236
18	0xbb7d697e	-0.0038667615
19	0xbe5aa145	-0.21350582
20	0xbe1728bb	-0.14761631
21	0x3e2852b2	0.16437796
22	0x3e5d54da	0.216144
23	0xbb1388fb	-0.0022512067
24	0xbdda3538	-0.10654682
25	0x3e40181b	0.18759196
26	0xbe18abf7	-0.1490935
27	0x3e35a639	0.1773919
28	0x3c9ad541	0.018900516
29	0x3e19c325	0.15015848
30	0x3e535a62	0.20639947
31	0xbdc118e7	-0.09428578
32	0x3d0014ca	0.031269826
33	0x3e0b28d4	0.13589793
34	0x3e9c029f	0.3047075
35	0xbe5303fe	-0.20606992
36	0x3e62d19b	0.2215027
37	0x3e8a25ee	0.26982063
38	0xbe8c2364	-0.2737075
39	0x3e81fb36	0.2538697
40	0xbe39e9b6	-0.1815556
41	0xbd40442e	-0.04694002
42	0xbe3b545e	-0.18293902
43	0x3dfc915f	0.12332415
44	0x3b49e76e	0.003080811
45	0xbd884292	-0.06653322
46	0xbd583391	-0.052783553
47	0x3dc69db5	0.09698049
48	0x3e64f8b8	0.22360504
49	0xbdec6a10	-0.11543667
50	0x3e49b0ac	0.19696301
51	0x3e7286e2	0.23684266
52	0x3e95bfd6	0.29247922
53	0x3be761e3	0.0070612296
54	0x3e26417b	0.16235916
55	0x3e9907b2	0.29888684
56	0x3e38d8de	0.18051478
57	0xbdfb4e67	-0.122708134
58	0xbe200ba8	-0.15629447
59	0xbe233a4c	-0.15940207
60	0xbda3d7cc	-0.08000144
61	0x3e0c51da	0.13703099
62	0x3e8fe275	0.2810246
63	0xbc658856	-0.014009556
64	0xbd1855cd	-0.0371912
65	0xbe5c2ed4	-0.21502239
66	0xbdbe7d49	-0.0930124
67	0x3e346d2a	0.17619768
68	0x3e3f3f73	0.18676548
69	0xbe99de3b	-0.3005236
70	0x3e9fd010	0.31213427
71	0xbe46e43a	-0.19422999
72	0xbd8f3db6	-0.06994192
73	0x3c957ae1	0.01824707
74	0xbd20fe0b	-0.039304774
75	0x3e51a09d	0.20471425
76	0x3e258f12	0.16167858
77	0x3e01a1df	0.12659405
78	0xbdfd0735	-0.1235489
79	0xbe4f07a8	-0.20217764
80	0x3c1cb9df	0.0095657995
81	0xbe3142be	-0.17310616
82	0x3d686f46	0.056746744
83	0xbe1c2236	-0.15247425
84	0xbdac1218	-0.084018886
85	0xbe82d134	-0.25550234
86	0x3e883850	0.26605463
87	0x3cc5dca7	0.024153067
88	0x3daf3ea4	0.085568696
89	0xbdd2e37e	-0.10297297
90	0x3db38335	0.0876526
91	0xbe7d60d9	-0.24743976
92	0x3dbcab9a	0.09212418
93	0xbe8c6475	-0.27420393
94	0xbc6a26b6	-0.014291456
95	0x3e4afe99	0.19823684
96	0x3c118d1e	0.008883743
97	0x3e582033	0.21106033
98	0xbd3ad9ff	-0.045618054
99	0xbe87a5b4	-0.2649361
100	0x3e7f8d54	0.24956256
101	0x3e0ca01c	0.13732952
102	0x3e86a27b	0.26295838
103	0x3e85e45f	0.26150796
104	0x3e4a7908	0.19772732
105	0xbdbe5317	-0.09293192
106	0x3e344636	0.17604908
107	0xbdcc1699	-0.09965248
108	0x3d17fc63	0.03710593
109	0x3e98047b	0.29690918
110	0x3e8359a0	0.25654316
111	0xbe9913b0	-0.29897833
112	0x3e1744a9	0.14772286
113	0xbe14711c	-0.14496273
114	0xbdd0b64c	-0.1019102
115	0x3e58f0a7	0.21185552
116	0xbe78a223	-0.242806
117	0xbe848b44	-0.258875
118	0x3de5dabc	0.11223361
119	0xbe9c7a32	-0.30561978
120	0x3c81225f	0.01576346
121	0x3e5f42cc	0.21802825
122	0x3bd0ced3	0.0063723116
123	0x3ea1a38b	0.31570086
124	0x3e4ef88b	0.20211999
125	0xbd90f638	-0.070782125
126	0xbe8bf90a	-0.2733844
127	0x3e559446	0.20857343
128	0x3de74aa0	0.112935305
129	0xbe6d87ee	-0.23196384
130	0xbe23d410	-0.15998864
131	0x3e92fa74	0.28706706
132	0x3e198645	0.14992626
133	0x3e907516	0.2821433
134	0x3d6d8f76	0.057998143
135	0xbe85c6ba	-0.2612818
136	0x3da198b3	0.07890453
137	0xbe238daf	-0.15972017
138	0xbe9d88ae	-0.3076834
139	0xbe4856e0	-0.1956439
140	0xbd435e1c	-0.04769717
141	0x3e6c7445	0.23091228
142	0x3e9ca0dc	0.30591476
143	0x3d12ce90	0.035841525
144	0xbe1362dd	-0.14393182
145	0xbe91b083	-0.2845498
146	0x3e745168	0.23859179
147	0xbe024689	-0.1272222
148	0xbe94aeee	-0.2903971
149	0xbe8891cc	-0.26673734
150	0xbe411526	-0.18855724
151	0x3d8dbdcb	0.06920966
152	0x3e7f46c3	0.24929337
153	0xbdc41034	-0.09573403
154	0xbe15f33c	-0.14643568
155	0xbc845a9e	-0.01615649
156	0xbe23c2f5	-0.15992339
157	0x3e9b75a8	0.30363202
158	0xbdb70d0b	-0.089380346
159	0xbbe56d9d	-0.0070015923
160	0xbd224df5	-0.039625127
161	0xbe56a0f1	-0.20959832
162	0xbe511aff	-0.20420454
163	0x3e14ae73	0.14519672
164	0xbe3b9e92	-0.18322209
165	0xbdf870c6	-0.12130885
166	0x3e441a80	0.19150734
167	0xbe8b3a2d	-0.27192822
168	0x3e518517	0.20460926
169	0xbdd22200	-0.10260391
170	0xbe1549dd	-0.14578958
171	0x3d7e60f1	0.06210417
172	0xbe1c607d	-0.15271182
173	0x3e3f1879	0.1866168
174	0x3e67997e	0.22617146
175	0xbd2e486b	-0.042549532
176	0x3e20bdf5	0.15697463
177	0x3ea069f4	0.31330836
178	0x3d8cfab3	0.068837546
179	0xbe99bda1	-0.30027488
180	0x3e0ae428	0.13563597
181	0x3e20a0f9	0.15686406
182	0x3caf7db0	0.021422237
183	0xbe5041b8	-0.2033757
184	0x3e2cfbfc	0.16893
185	0x3e702776	0.23452553
186	0x3e5a1c51	0.21299864
187	0x3ad9f98d	0.0016630158
188	0x3dbc7286	0.09201531
189	0x3d843d17	0.064569645
190	0xbbc570e6	-0.0060254214
191	0xbe293266	-0.16523132
192	0xbe0fc82c	-0.14041203
193	0xbdb3d11e	-0.0878012
194	0xbddd75f2	-0.10813512
195	0xbdfda362	-0.123846784
196	0x3dea156b	0.114298664
197	0x3b53fe60	0.0032347664
198	0xbdeec1a1	-0.116580255
199	0x3e908337	0.2822511
200	0x3e2f2414	0.17103606
201	0xbdff34e5	-0.12461261
202	0xbdd732b6	-0.10507719
203	0xbe535055	-0.20636113
204	0x3dd0d4e5	0.101968564
205	0x3e81a6fd	0.25322714
206	0x3e6e9fec	0.23303193
207	0x3e55dca2	0.20884946
208	0xbe2c985c	-0.16854995
209	0x3e128093	0.1430686
210	0xbdcc82ca	-0.099858835
211	0xbd47ffc4	-0.0488279
212	0xbdc55d96	-0.09636991
213	0x3d8f3d38	0.069940984
214	0x3e8ad9e1	0.27119353
215	0xbe909661	-0.2823973
216	0x3d2c5dca	0.04208163
217	0xbe81b8ed	-0.253364
218	0xbe3f0f1e	-0.1865811
219	0xbe4f85d9	-0.20265903
220	0x3e8c3926	0.2738735
221	0x3e3ec7e3	0.18630938
222	0x3e1df8f5	0.15427001
223	0xbc55eae7	-0.013056493
224	0xbe7c45a8	-0.24635947
225	0xbde2f529	-0.11081917
226	0x3e34a839	0.17642297
227	0x3d7fa323	0.06241144
228	0xbe1901b3	-0.14942054
229	0xbe53e044	-0.2069102
230	0xbe40db2e	-0.1883361
231	0xbe958be4	-0.2920829
232	0x3de9d483	0.114174865
233	0x3e249964	0.16074139
234	0xbd483b23	-0.048884522
235	0xbd8bcc44	-0.0682607
236	0xbd7e0f0a	-0.06202606
237	0xbd835ad0	-0.064138055
238	0x3dbbc628	0.09168655
239	0xbe352012	-0.17688015
240	0xbdaf6987	-0.085650496
241	0x3e89f8a3	0.26947507
242	0xbe7a3966	-0.24435958
243	0x3db12a83	0.086506866
244	0xbe88dfb9	-0.26733187
245	0xbc947a1a	-0.018124629
246	0x3e756a6a	0.23966375
247	0xbdedcc92	-0.11611284
248	0xbe18a916	-0.14908251
249	0xbd881e85	-0.06646446
250	0x3d67afb8	0.056564063
251	0x3e310b76	0.17289528
252	0x3e55e015	0.20886262
253	0x3d9ee752	0.077589646
254	0x3cdd25c8	0.026995555
255	0x3e40bcbb	0.18821995

lstm.weight_hh_l0 f4 [40, 10]
0	0x3d404f90	0.046950877
1	0x3d683c8f	0.05669838
2	0x3e1e29c1	0.15445615
3	0x3e980093	0.29687938
4	0x3c70ba77	0.014692894
5	0xbe3b3440	-0.1828165
6	0x3e916ed5	0.2840487
7	0x3e0d462b	0.13796298
8	0x3e55fdab	0.20897548
9	0xbddfe36a	-0.10932048
10	0xbdb5ebf8	-0.08882898
11	0xbe74ab2f	-0.23893426
12	0xbe1c4ba8	-0.15263236
13	0x3e9d4ea9	0.30724075
14	0xbd97fc72	-0.07421197
15	0xbe7e4eae	-0.24834701
16	0x3d77c094	0.06048639
17	0xbdfc1ace	-0.123098
18	0xbe4af765	-0.19820936
19	0x3e75b3cc	0.23994368
20	0xbda30a45	-0.07960943
21	0xbd247afe	-0.040156357
22	0xbd89b0a5	-0.067231454
23	0x3e5360ab	0.20642345
24	0xbe53dc09	-0.20689406
25	0x3ea16383	0.31521234
26	0xbdc0045c	-0.093758315
27	0x3c749634	0.014928389
28	0x3e004a0d	0.12528248
29	0x3e8eb18d	0.27869835
30	0xbcb3a645	-0.02192987
31	0xbe646db0	-0.22307467
32	0xbdad0ad3	-0.0844933
33	0x3bfc0988	0.007691566
34	0x3d90145f	0.070351355
35	0x3e5ade71	0.21373917
36	0x3e91b042	0.28454787
37	0x3ddeb348	0.10874039
38	0xbe725a4e	-0.23667261
39	0xbe21a13f	-0.15784167
40	0xbe318485	-0.17335708
41	0x3e54b0a9	0.20770516
42	0x3e20cbf6	0.15702805
43	0x3e0004bd	0.12501808
44	0x3e64eb08	0.22355282
45	0xbbcc8167	-0.006241012
46	0xbccf7b97	-0.025327487
47	0x3da26357	0.07929104
48	0xbd5d8d63	-0.054089915
49	0x3e8067aa	0.2507909
50	0xbd041a1c	-0.032251462
51	0x3ea0f35c	0.31435668
52	0x3daee5a9	0.08539898
53	0xbe2798ad	-0.16366835
54	0xbde63c54	-0.112419754
55	0x3c750fa3	0.014957341
56	0xbdded5fd	-0.10880659
57	0xbd26251c	-0.040562734
58	0xbdf49519	-0.119425006
59	0x3dfb8660	0.12281489
60	0xbdd33d94	-0.103144795
61	0x3df2739b	0.11838456
62	0xbcab6435	-0.020921806
63	0x3e9daa34	0.30793917
64	0x3df3515c	0.118807524
65	0x3e862ce3	0.2620612
66	0x3e068745	0.13137539
67	0x3e1c36b2	0.1525524
68	0xbe032663	-0.12807612
69	0xbe41ffe8	-0.18945277
70	0x3dc42050	0.095764756
71	0xbe0410d4	-0.12897044
72	0xbd761aed	-0.060084272
73	0x3e4c308f	0.19940399
74	0xbd2ef403	-0.042713176
75	0xbdf053f3	-0.11734762
76	0xbe232c65	-0.15934904
77	0x3e1e241a	0.15443459
78	0xbdc14b52	-0.09438194
79	0xbdce10eb	-0.100618206
80	0xbe81f965	-0.25385585
81	0xbde6fd90	-0.11278832
82	0xbe82618e	-0.25465053
83	0xbd720e23	-0.059095513
84	0x3e546a12	0.20743588
85	0x3e24101b	0.16021769
86	0xbdd39f0e	-0.10333072
87	0xbe24f127	-0.16107617
88	0xbe135975	-0.14389594
89	0x3e1addb1	0.15123631
90	0x3e18408b	0.14868371
91	0xbe9a9e25	-0.3019878
92	0x3dcb132c	0.09915766
93	0xbe8485bd	-0.25883284
94	0xbe648d80	-0.22319603
95	0xbe221166	-0.1582695
96	0xbe820cd3	-0.2540041
97	0xbbc01385	-0.005861702
98	0x3e93838e	0.28811306
99	0xbe7296cb	-0.23690335
100	0xbe4dda15	-0.20102723
101	0x3df2079d	0.11817858
102	0x3ddae5ee	0.10688387
103	0x3d8bf042	0.06832935
104	0x3e7505d5	0.23928006
105	0x3e901f73	0.28148994
106	0xbd8f4187	-0.0699492
107	0xbdac2ff0	-0.08407581
108	0x3dd76bac	0.10518584
109	0x3e5d0319	0.21583213
110	0x3dc691d0	0.0969578
111	0x3cff61a4	0.031174488
112	0x3e9b069c	0.3027848
113	0x3e11d602	0.14241794
114	0x3dfe7593	0.12424769
115	0xbd9dc7cb	-0.07704123
116	0x3e9eaacf	0.30989692
117	0x3deadf13	0.11468329
118	0xbe661ccc	-0.22471923
119	0x3e328794	0.17434531
120	0xbd9db351	-0.077002175
121	0xbe97d66d	-0.2965578
122	0xbe90b133	-0.28260192
123	0x3d53f137	0.051743712
124	0xbcf56e6d	-0.029959882
125	0x3c92e763	0.0179326
126	0x3d023268	0.031786352
127	0xbe146f4d	-0.14495583
128	0xbe4ecd57	-0.20195518
129	0xbe3752cd	-0.1790268
130	0x3e984a4c	0.29744184
131	0xbdf90f53	-0.12161126
132	0xbe40c1ac	-0.1882388
133	0x3e225c1e	0.15855452
134	0xbe93cfa7	-0.28869364
135	0x3e8332cf	0.256247
136	0xbe6a5a6a	-0.22886053
137	0x3e226737	0.15859686
138	0x3e06f855	0.13180669
139	0xbd248b5b	-0.040171962
140	0x3e8f7a54	0.28023016
141	0x3e9db127	0.3079922
142	0x3e77f589	0.24214758
143	0x3e0fdbab	0.1404864
144	0x3e185fa7	0.14880238
145	0xbe34a0f8	-0.1763953
146	0x3ea18dfa	0.31553632
147	0x3dd95f64	0.106138974
148	0x3e050c22	0.1299291
149	0x3d666f57	0.056258526
150	0x39bcd3d7	0.00036015987
151	0x3e90e6f2	0.28301197
152	0x3e873e37	0.26414654
153	0xbe6e3701	-0.2326317
154	0xbdbe4af7	-0.09291642
155	0xbd2a0977	-0.041512933
156	0x3d5e835f	0.054324504
157	0x3e964d7e	0.29355997
158	0xbdf9863a	-0.12183805
159	0xbe3ab727	-0.1823393
160	0xbe813a1c	-0.25239646
161	0x3e1338fc	0.14377207
162	0xbce8b2fc	-0.028405659
163	0xbe8de013	-0.27710018
164	0xbe719be3	-0.23594622
165	0xbc2a1a25	-0.01038221
166	0xbcac55e2	-0.021037046
167	0xbd6854c0	-0.05672145
168	0xbdc57c70	-0.09642875
169	0x3d10e997	0.03537902
170	0x3e978e26	0.29600638
171	0x3e803ded	0.25047246
172	0xbe843bd4	-0.25826895
173	0x3e8cd807	0.27508566
174	0xbe22b02a	-0.15887514
175	0xbdee4513	-0.116342686
176	0x3e85d1ef	0.2613673
177	0x3c889799	0.01667385
178	0xbcfb4bf4	-0.030675866
179	0xbe9a9a1e	-0.30195707
180	0xbe727a67	-0.23679505
181	0xbe58aa5f	-0.21158741
182	0xbe4b71c6	-0.1986762
183	0xbe3c7225	-0.18402918
184	0xba308dcd	-0.0006734997
185	0xbe37471e	-0.17898223
186	0xbd786a1d	-0.060648073
187	0xbd41928d	-0.047258902
188	0x3e6ca62d	0.23110266
189	0xbd7fb9ca	-0.06243304
190	0xbb400823	-0.0029301725
191	0x3e211852	0.15731934
192	0xbe9bd765	-0.3043777
193	0xbe8452d0	-0.2584443
194	0xbda1ecc2	-0.07906486
195	0xbe1c1ca8	-0.15245306
196	0x3dae15c8	0.08500248
197	0xbc83654e	-0.016039517
198	0x3ca28c18	0.019842193
199	0x3e363f5b	0.17797606
200	0xbccdb60b	-0.025111219
201	0x3e90c4aa	0.28275043
202	0x3e71620a	0.23572555
203	0xbe4f09b3	-0.20218544
204	0xbe6650bf	-0.2249174
205	0xbd4b20b1	-0.049591724
206	0xbe3ce01b	-0.18444864
207	0xbd85e7f6	-0.06538384
208	0x3e7f5060	0.24933004
209	0x3d9ee52b	0.07758554
210	0xbe1d5d18	-0.15367544
211	0xbe145dd7	-0.14488922
212	0xbe674cb6	-0.22587857
213	0xbe24d261	-0.16095878
214	0xbe30b376	-0.17255959
215	0xbe0b626b	-0.13611762
216	0xbe8a5217	-0.27015755
217	0x3d9041bb	0.07043787
218	0xbd19d78f	-0.03755909
219	0x3e3c8570	0.18410277
220	0xbe2254d3	-0.1585267
221	0xbe2ec5ac	-0.17067593
222	0xbe8bd1a8	-0.27308393
223	0xbd10b0bf	-0.03532481
224	0x3e8e8a96	0.27840108
225	0xbe3716d8	-0.17879808
226	0x3c2a5f66	0.010398721
227	0xbea004e3	-0.31253728
228	0x3e9c1b87	0.30489752
229	0x3dd0775e	0.101790175
230	0xbd971d03	-0.073785804
231	0x3db82737	0.08991855
232	0x3e1ed82a	0.15512148
233	0xbd2ddd56	-0.04244741
234	0xbe9dc068	-0.30810857
235	0x3ddc3573	0.10752382
236	0x3e3a045d	0.18165727
237	0xbe4849fd	-0.19559474
238	0xbdcd459f	-0.10023045
239	0xbe484095	-0.19555886
240	0xbe03dc3d	-0.12876983
241	0x3e59725b	0.2123503
242	0xbe488b48	-0.19584382
243	0x3d66a7fc	0.056312546
244	0xbe822537	-0.25419018
245	0xbdb9bca4	-0.090691835
246	0x3ca53dca	0.020171065
247	0xbde7f0f6	-0.113252565
248	0xbc07d9f0	-0.008291706
249	0xbbda8044	-0.0066681225
250	0x3c91898f	0.017765788
251	0xbe200a2a	-0.15628877
252	0xbd442ea9	-0.04789606
253	0xbe0379af	-0.12839387
254	0xbd456ba4	-0.048198357
255	0x3e30a881	0.17251779

lstm.bias_ih_l0 f4 [40]
0	0xbe8e931d	-0.27846614
1	0xbe3a6228	-0.18201506
2	0x3e16fe21	0.1474538
3	0x3e17b12a	0.14813676
4	0x3e932454	0.28738654
5	0xbd7b33f6	-0.06132885
6	0x3e6bd70b	0.23031251
7	0xbd87c8fb	-0.06630131
8	0xbc399af6	-0.0113284495
9	0xbe00dfdb	-0.12585394
10	0xbdc4ce5b	-0.09609672
11	0x3e1c5c38	0.15269554
12	0xbdb62db0	-0.08895433
13	0x3d9a0e0d	0.07522211
14	0x3e85d0a6	0.2613575
15	0xbe7a61f4	-0.24451429
16	0xbe6abb91	-0.22923113
17	0xbe91e2a3	-0.28493223
18	0xbd8186d5	-0.06324545
19	0xbe98f7f0	-0.2987666
20	0xbe2fe5c7	-0.17177497
21	0x3d5e9306	0.05433943
22	0x3e368272	0.17823198
23	0x3e4f10bf	0.20221232
24	0xbe45c5fb	-0.19313805
25	0x3df6c7c9	0.12049825
26	0x3e603456	0.21894965
27	0x3e078de8	0.13237727
28	0x3d8e9d26	0.069635674
29	0x3df30a86	0.118672416
30	0xbe1fd93d	-0.15610214
31	0xbe8bb1cc	-0.27284086
32	0x3e3ba557	0.18324791
33	0xbd7586c6	-0.059942983
34	0x3ea0c8b2	0.31403118
35	0xbe99c239	-0.30030993
36	0xbd9b9381	-0.075964935
37	0xbe8e1214	-0.27748168
38	0xbd0f6506	-0.035008453
39	0x3da5a360	0.08087802

lstm.bias_hh_l0 f4 [40]
0	0x3db2a875	0.08723537
1	0x3d1a986b	0.037743013
2	0xbdef6c5a	-0.11690588
3	0x3d9f104b	0.077667795
4	0x3e551075	0.20807059
5	0x3e8cc217	0.2749183
6	0x3e502a12	0.20328549
7	0xbdcff6d7	-0.10154503
8	0xbe29dfda	-0.16589299
9	0x3dfd7f50	0.123777986
10	0x3db2d8cd	0.08732758
11	0xbd01ee89	-0.031721625
12	0x3db5cb2e	0.08876644
13	0xbe5b934e	-0.21442911
14	0x3e98d09b	0.29846653
15	0x3e268c0d	0.16264363
16	0x3d846629	0.06464798
17	0xbdf6441e	-0.12024711
18	0xbe9d415e	-0.30713934
19	0x3e6a36ac	0.22872418
20	0xbe6b05fb	-0.229515
21	0xbd0feb80	-0.0351367
22	0x3e7a07d4	0.24417049
23	0xbda57fa4	-0.08080986
24	0xbe578a12	-0.21048763
25	0x3e917f08	0.2841723
26	0x3c50d526	0.012746131
27	0x3d95e717	0.073194675
28	0x3e610c9b	0.21977465
29	0x3e1d79b4	0.15378457
30	0xbdb70c22	-0.08937861
31	0xbda3fc1b	-0.0800707
32	0x3e1bf0cd	0.15228577
33	0x3ea0ae69	0.31383064
34	0xbe5be12d	-0.21472616
35	0xbde639a4	-0.11241463
36	0xbd97b236	-0.07407038
37	0x3e3ce1a0	0.18445444
38	0xbe9bc06d	-0.30420247
39	0x3c47fccd	0.0122062685

lstm.weight_ih_l1 f4 [40, 10]
0	0xbe96117d	-0.29310217
1	0x3e86d2ae	0.2633261
2	0xbe4e6e02	-0.20159152
3	0xbe8aec9c	-0.27133644
4	0xbe58682b	-0.21133487
5	0x3e449f08	0.1920129
6	0x3e07960c	0.13240832
7	0xbe46bbc0	-0.19407558
8	0x3e33a73a	0.1754426
9	0x3e47e1a2	0.19519666
10	0x3e82d15b	0.2555035
11	0x3da94757	0.0826556
12	0x3cf8527a	0.030312765
13	0xbe44f04d	-0.19232292
14	0xbe0c5609	-0.13704695
15	0x3df0014c	0.11718997
16	0x3e9b0613	0.30278072
17	0xbb49e80f	-0.0030808484
18	0xbd9b7fff	-0.07592773
19	0x3dd011c3	0.10159638
20	0xbe71a57c	-0.23598284
21	0xbdb4ad73	-0.08822145
22	0xbe6b91b4	-0.230048
23	0x3ddd298f	0.10798942
24	0x3e3945f2	0.18093088
25	0x3dadd0b5	0.08487073
26	0x3df89ac6	0.12138896
27	0xbdf67e10	-0.12035763
28	0x3d8b7368	0.06809121
29	0xbe017c75	-0.12645133
30	0xbe1a2bf9	-0.15055837
31	0x3e465f9c	0.1937241
32	0xbd79e907	-0.061013248
33	0xbc87c2c6	-0.016572367
34	0xbe2815f4	-0.16414624
35	0x3db37b8a	0.087637976
36	0x3e1384c8	0.14406121
37	0xbe89b841	-0.26898387
38	0xbe65597f	-0.22397421
39	0xbea05f51	-0.3132272
40	0x3d0e58d3	0.034752678
41	0x3e481aa5	0.19541414
42	0xbdfd0c49	-0.12355859
43	0x3d0b00cb	0.033936303
44	0x3e4cb270	0.19989944
45	0xbda895b8	-0.082316816
46	0xbe1b422c	-0.15161961
47	0xbe08ee76	-0.13372216
48	0x3e89d976	0.26923722
49	0x3e6fb471	0.23408677
50	0xbe94f199	-0.29090574
51	0xbe6b8268	-0.22998965
52	0x3e8c293d	0.27375212
53	0x3d3dc3bd	0.04632925
54	0x3e904eeb	0.2818521
55	0x3e901ac0	0.2814541
56	0xbd504451	-0.0508464
57	0x3dffd4b5	0.124917425
58	0xbe63a5cd	-0.22231217
59	0x3e7b9307	0.24567805
60	0xbe6de6bd	-0.23232551
61	0xbdc11623	-0.0942805
62	0x3d8f766a	0.070050076
63	0xbe34e124	-0.1766401
64	0x3e77e0b7	0.24206816
65	0x3e6b3b52	0.22971848
66	0xbd9155e5	-0.07096461
67	0xbe7195dc	-0.23592323
68	0x3e1e4cf9	0.1545905
69	0xbd93cba5	-0.072165765
70	0xbce0eedd	-0.027457649
71	0xbba8f5a2	-0.005156235
72	0x3d890ead	0.06692252
73	0x3e05864e	0.13039514
74	0x3d22669f	0.03964865
75	0x3da21b4d	0.079153635
76	0x3dd8f899	0.10594291
77	0x3e4a4e8f	0.1975653
78	0xbe7c524e	-0.24640772
79	0x3e045f37	0.12926947
80	0xbe115d66	-0.14195785
81	0x3e8591f5	0.2608792
82	0x3d7b4791	0.061347548
83	0x3cc71381	0.024301292
84	0xbdc6fd45	-0.09716276
85	0xbc539d4b	-0.01291592
86	0xbe008bc5	-0.12553318
87	0x3e61ba74	0.22043782
88	0xbe84b3a2	-0.259183
89	0x3e719b37	0.23594366
90	0x3d88be41	0.06676913
91	0xbe0885d7	-0.13332306
92	0xbe8241ec	-0.2544092
93	0xbd5f2cd5	-0.054486115
94	0x3e02b986	0.12766084
95	0xbe7d2827	-0.24722348
96	0x3e1e34ec	0.15449876
97	0x3e42ed28	0.1903578
98	0x3d21e1ba	0.03952191
99	0xbe28de31	-0.1649101
100	0xbe28700f	-0.16448997
101	0x3e6b0af0	0.22953391
102	0xbe365bb7	-0.17808424
103	0x3df9c3b1	0.12195528
104	0x3d4a0814	0.04932411
105	0xbe7a383e	-0.24435517
106	0xbd9cf233	-0.07663383
107	0x3e95af9a	0.29235536
108	0xbe8db880	-0.27679825
109	0x3e7c8852	0.24661377
110	0xbe340998	-0.17581785
111	0x3cdc766f	0.026911942
112	0x3e0e13ab	0.1387469
113	0xbe591935	-0.21201022
114	0xbe800bd7	-0.25009033
115	0x3e977998	0.29584956
116	0xbdfb0c37	-0.12258189
117	0x3e57380c	0.21017474
118	0xbd1e1f68	-0.03860417
119	0xbe8478bc	-0.25873363
120	0xbdacb6fc	-0.08433339
121	0x3e62da52	0.22153595
122	0x3dc57c06	0.09642796
123	0xbe1a605b	-0.15075819
124	0x3e0cf131	0.13763882
125	0x3e97926b	0.29603896
126	0xbd2ac7a2	-0.04169429
127	0x3e544151	0.20728041
128	0x3d94416b	0.0723904
129	0x3dded3f3	0.1088027
130	0xbe93c404	-0.28860486
131	0x3e563f88	0.20922673
132	0x3ddb5af5	0.10710708
133	0x3e4ae638	0.19814384
134	0xbe95cb31	-0.29256585
135	0xbe5b9fec	-0.21447724
136	0x3e7f01d5	0.24903043
137	0x3e2b5088	0.16729939
138	0xbda22678	-0.079174936
139	0xbb9efcba	-0.0048519047
140	0x3c95f3c2	0.01830471
141	0xbd995314	-0.07486549
142	0xbe96a446	-0.29422206
143	0x3e8b11bb	0.27161965
144	0x3e4bf787	0.19918643
145	0xbe9b24fd	-0.30301657
146	0xbe92f0bc	-0.2869929
147	0xbd2494ce	-0.040180974
148	0x3e5c87a6	0.21536121
149	0xbe4dd232	-0.20099714
150	0xbe8d63e4	-0.27615273
151	0x3e948bc7	0.29012892
152	0xbe1b87dd	-0.15188546
153	0x3dea3ff8	0.11437982
154	0x3af16906	0.001841814
155	0x3e457794	0.19283897
156	0x3e3f19bd	0.18662162
157	0x3e214898	0.15750349
158	0xbce6e9cd	-0.028187657
159	0x3e2f386a	0.17111364
160	0xbe9d6696	-0.3074233
161	0x3e3e3cd1	0.18577887
162	0xbc3e0c1e	-0.011599569
163	0xbdfc5e99	-0.123227306
164	0x3e3e397f	0.1857662
165	0xbc9afc4f	-0.018919138
166	0xbdfaa802	-0.12239076
167	0x3de73d6c	0.11291012
168	0xbe349c3f	-0.17637728
169	0x3e510eb4	0.20415765
170	0x3e92fb3a	0.28707296
171	0x3d00f37e	0.031482212
172	0x3e3ef340	0.1864748
173	0x3e8d39dc	0.27583206
174	0xbc54108f	-0.012943401
175	0x3ea06b41	0.31331828
176	0xbe554db5	-0.20830424
177	0xbe6c8ca9	-0.23100533
178	0xbe9d78f1	-0.30756333
179	0x3d14d218	0.036333174
180	0x3e90cba4	0.28280365
181	0xbd7c787d	-0.061638344
182	0xbe383ecb	-0.17992704
183	0x3e8d075c	0.27544677
184	0xbd2d7412	-0.04234702
185	0x3e865301	0.26235202
186	0x3e91d48a	0.28482467
187	0x3e87c24a	0.26515418
188	0x3e733a41	0.23752691
189	0xbe8b7e09	-0.27244595
190	0xbe8eca09	-0.27888516
191	0x3e8e1cb8	0.27756286
192	0x3d30bad3	0.04314692
193	0xbe5ff6be	-0.21871468
194	0xbe66a55e	-0.2252402
195	0x3e7b8aa3	0.24564604
196	0x3e59ab6f	0.21256803
197	0xbe7dbeed	-0.24779864
198	0x3e7eb1ff	0.24872588
199	0xbe99b46b	-0.3002046
200	0xbdad8387	-0.084723525
201	0xbe91c277	-0.28468677
202	0x3e106866	0.14102325
203	0xbd73ff53	-0.059569668
204	0xbb409ea9	-0.0029391444
205	0x3db848d1	0.089982636
206	0xbd3998bf	-0.045311686
207	0x3e55e5d5	0.20888455
208	0xbe778f14	-0.24175674
209	0xbe3ca65d	-0.18422838
210	0x3d73ba95	0.05950411
211	0xbe9ce2e7	-0.30641863
212	0xbe39a114	-0.18127853
213	0xbe8fcd8d	-0.2808651
214	0xbe95cde5	-0.29258648
215	0x3d439c9a	0.04775677
216	0xbe91eff3	-0.2850338
217	0x3e94a57e	0.2903251
218	0xbe519228	-0.2046591
219	0xbe93c23a	-0.2885912
220	0xbe69519b	-0.22785036
221	0xbd28b31b	-0.041186433
222	0xbe89d8fd	-0.2692336
223	0x3e88514f	0.26624534
224	0xbd100295	-0.035158712
225	0x3d385646	0.04500415
226	0xbe9f3a0a	-0.31098968
227	0x3c7799a4	0.015112314
228	0x3c89e560	0.016833007
229	0x3e34b5f0	0.17647529
230	0xbe901742	-0.28142744
231	0x3ddbad8d	0.107264616
232	0x3d791356	0.060809456
233	0xbe862d60	-0.26206493
234	0xbe5dd7fd	-0.21664424
235	0x3e1297d3	0.14315729
236	0xbe08be23	-0.13353781
237	0xbe8cff36	-0.2753846
238	0x3e6d901d	0.23199506
239	0xbe919fab	-0.2844213
240	0xbe8dccc6	-0.27695292
241	0x3e3c8a66	0.1841217
242	0xbcd02cae	-0.02541193
243	0x3d0d8d36	0.034558497
244	0xbdf6f798	-0.120589435
245	0x3e9e6c15	0.30941835
246	0xbe392d82	-0.18083766
247	0xbd59fc3d	-0.05321907
248	0x3e8575da	0.26066476
249	0x3e662947	0.22476684
250	0xbe04bb42	-0.12962058
251	0xbde42847	-0.11140495
252	0x3e001826	0.12509212
253	0xbe84994c	-0.25898206
254	0x3e3d7ae6	0.18503913
255	0x3d87b12f	0.06625592

lstm.weight_hh_l1 f4 [40, 10]
0	0xbe524f17	-0.20537983
1	0xbdc4ce0f	-0.09609615
2	0x3e45479c	0.19265598
3	0x3e69bbbf	0.22825526
4	0x3e9eb085	0.3099405
5	0xbea11324	-0.31459916
6	0xbe6c190f	-0.23056434
7	0xbdd28351	-0.10278953
8	0xbe24e89d	-0.1610436
9	0xbe822f7a	-0.25426847
10	0x3df3fd9b	0.11913606
11	0xbcdaec05	-0.026723871
12	0xbc0b0d9a	-0.00848713
13	0xbcf34ed4	-0.029700674
14	0xbe8910c5	-0.26770607
15	0x3cc49533	0.023996925
16	0x3de6a375	0.11261646
17	0xbe231250	-0.15924954
18	0xbe6d542e	-0.23176643
19	0x3e19db28	0.15025008
20	0xbe9d9d11	-0.30783895
21	0xbe4e080b	-0.20120256
22	0xbe80d64d	-0.251635
23	0x3c8940b3	0.016754484
24	0xbdb2f20a	-0.087375715
25	0x3e83aeb6	0.2571923
26	0x3d9ff567	0.07810479
27	0x3e2ce3a7	0.16883717
28	0xbe1bc461	-0.15211631
29	0x3e9fa484	0.31180203
30	0xbe1e5f71	-0.15466096
31	0x3d6970f6	0.056992494
32	0xbdd90a30	-0.10597646
33	0xbe812ac7	-0.2522795
34	0x3e76cd57	0.24101768
35	0xbd3ddcf5	-0.0463533
36	0xbd990f4a	-0.07473619
37	0x3da60e4d	0.081081964
38	0xbdb286b8	-0.08717102
39	0x3dc3f882	0.095688835
40	0x3e202f45	0.15643032
41	0xbe05a24d	-0.13050194
42	0x3d047205	0.0323353
43	0xbe3f08cb	-0.18655698
44	0xbe1ea311	-0.15491892
45	0xbdf8a8d4	-0.121415764
46	0x3e1e86f9	0.15481175
47	0xbdfe43de	-0.124152884
48	0x3e9a2046	0.30102748
49	0xbe34d007	-0.17657481
50	0xbcec3cbe	-0.028837558
51	0x3b097675	0.0020975147
52	0x3d97f036	0.074188635
53	0x3e01f9c3	0.12692933
54	0xbdf570e0	-0.1198442
55	0xbe9f98c4	-0.31171238
56	0x3cb00bfe	0.021490093
57	0x3e65bcc5	0.22435291
58	0xbe26c776	-0.16287026
59	0xbe506479	-0.20350827
60	0xbd116f50	-0.035506546
61	0x3d770dc0	0.060315847
62	0x3bdf6945	0.006817969
63	0xbd7ad63d	-0.06123947
64	0xbe8c09bc	-0.27351177
65	0x3e5445ef	0.20729803
66	0xbe263cb0	-0.16234088
67	0x3e9a3722	0.30120188
68	0x3e82f9ab	0.25581107
69	0x3e6f3a06	0.23361978
70	0xbd65548e	-0.05598884
71	0xbe530ca4	-0.20610291
72	0xbe021e56	-0.12706885
73	0xbe6484ec	-0.2231633
74	0x3e3241dc	0.17407936
75	0xbbf72af6	-0.007542963
76	0x3d8af138	0.0678429
77	0xbda213b1	-0.07913912
78	0x3d1cc03c	0.038269266
79	0x3df2da61	0.11858059
80	0x3e661b80	0.22471428
81	0x3e39136b	0.18073814
82	0xbd8187f6	-0.063247606
83	0xbe926dc1	-0.2859936
84	0x3e645d7e	0.2230129
85	0x3d63c658	0.055609077
86	0xbe4cb287	-0.19989978
87	0xbe3c732f	-0.18403314
88	0x3e1440f4	0.14477903
89	0xbe69e624	-0.22841698
90	0x3c30432c	0.0107582025
91	0x3e83bc55	0.25729623
92	0x3e0c4e74	0.13701802
93	0x3e922e0d	0.2855076
94	0x3c4d9b01	0.012549163
95	0x3e04dc43	0.12974648
96	0xbd70a1af	-0.058747943
97	0xbe616142	-0.22009757
98	0xbe9b680c	-0.3035282
99	0xbe08eb77	-0.13371073
100	0x3e59f6b2	0.21285513
101	0x3cda082d	0.026615227
102	0xbe73d945	-0.2381335
103	0x3e71abf2	0.23600748
104	0xbe70647e	-0.23475835
105	0x3e8b776e	0.27239555
106	0x3cc55ad7	0.024091167
107	0xbe21bf6d	-0.1579568
108	0xbe480fba	-0.19537249
109	0x3ea0581f	0.3131723
110	0xbcc9be8e	-0.024626996
111	0x3e2e0fb9	0.16998185
112	0x3e97dfeb	0.29663023
113	0xbd490873	-0.049080323
114	0xbc777088	-0.015102513
115	0x3e90aba7	0.2825596
116	0xbd9218c0	-0.07133627
117	0x3e9d7c75	0.30759016
118	0x3d0a1330	0.033709705
119	0xbe29da51	-0.16587187
120	0x3e9b3ac3	0.3031827
121	0x3d60611d	0.054780114
122	0x3db4daca	0.08830793
123	0xbdb5348a	-0.08847912
124	0x3e84e239	0.25953844
125	0x3e1b1144	0.15143305
126	0x3e77a02c	0.24182194
127	0xbe90212f	-0.28150317
128	0x3e48d801	0.19613649
129	0x3b77c26f	0.00378051
130	0xbe2a1a64	-0.1661163
131	0x3e135ddb	0.14391272
132	0x3cd4ef80	0.025993109
133	0xbe2a4286	-0.16626939
134	0x3e909aee	0.28243202
135	0xbdfd1788	-0.12358004
136	0x3c46cf1f	0.012134342
137	0x3e9d5653	0.30729923
138	0xbe279d18	-0.1636852
139	0x3e98d141	0.29847148
140	0xbd6e4eb3	-0.058180522
141	0xbd09014c	-0.033448502
142	0xbe6e1743	-0.23251061
143	0x3e18bf3e	0.14916703
144	0xbc048907	-0.0080893105
145	0x3e06759a	0.13130799
146	0x3e9f7804	0.31146252
147	0x3c9d3339	0.019189464
148	0x3dc46999	0.09590454
149	0x3df5353a	0.11973043
150	0xbe169971	-0.14706971
151	0x3d3a7190	0.045518458
152	0xbe68eac5	-0.22745807
153	0x3d830d83	0.063990615
154	0xbd0481b6	-0.032350264
155	0x3c2569e7	0.01009605
156	0xbd8678b6	-0.065659925
157	0xbe05c7fb	-0.13064568
158	0xbe8b61cd	-0.27223054
159	0xbe3a473c	-0.18191236
160	0x3dd80334	0.10547486
161	0xbe9ef940	-0.31049538
162	0x3e247fa5	0.16064318
163	0xbdcc9c85	-0.09990791
164	0x3e8ac84f	0.27105948
165	0xbde51749	-0.11186082
166	0xbe009c66	-0.12559661
167	0x3ea18a5d	0.31550875
168	0xbe909da7	-0.2824528
169	0x3d80710c	0.06271562
170	0xbce91c22	-0.028455798
171	0x3e386ff8	0.18011463
172	0xbea16741	-0.3152409
173	0xbe323c65	-0.17405851
174	0x3e90016f	0.28126094
175	0x3e930582	0.2871514
176	0xbe96ab74	-0.29427683
177	0xbe9cdf99	-0.3063934
178	0x3c3a706a	0.011379341
179	0xbe876697	-0.26445457
180	0x3d69bcdb	0.057064872
181	0x3dcdde2f	0.10052144
182	0xbe48e9a0	-0.19620371
183	0xbda9f8be	-0.08299397
184	0x3e74b98b	0.23898904
185	0x3e176f45	0.1478854
186	0xbe686f37	-0.22698675
187	0x3e70e6cc	0.23525542
188	0x3defda1a	0.117115214
189	0xbe956efb	-0.29186234
190	0x3d9757e4	0.07389811
191	0x3e18463a	0.1487054
192	0xbe5f4f5e	-0.2180762
193	0xbe1723bb	-0.14759724
194	0xbe4df4e4	-0.2011295
195	0xbe919554	-0.2843424
196	0x3e094c61	0.13408042
197	0x3ea0daed	0.31417027
198	0xbe8ed139	-0.27894
199	0xbdf4cabd	-0.11952732
200	0xbd0ffcee	-0.035153322
201	0x3e1658fe	0.14682385
202	0x3d4b3feb	0.049621504
203	0xbe51888f	-0.20462249
204	0xbd9de8c2	-0.07710411
205	0x3ddc9970	0.107714534
206	0x3e4e5d84	0.20152861
207	0x3e85e167	0.2614853
208	0xbe18c5ab	-0.14919154
209	0x3e8e3f64	0.27782738
210	0x3e8f71af	0.2801642
211	0x3e72ace7	0.2369877
212	0x3e21163f	0.15731142
213	0x3e8f7074	0.28015482
214	0x3e43e7ed	0.19131441
215	0xbe75f912	-0.24020794
216	0xbe773728	-0.24142134
217	0xbe38289e	-0.17984244
218	0x3d35c4ae	0.04437702
219	0x3e1de8e3	0.1542087
220	0xbe8cb8ff	-0.2748489
221	0x3e4e6a39	0.20157708
222	0x3e02ea88	0.12784779
223	0xbd7a12ed	-0.061053205
224	0x3e0eb8a9	0.1393763
225	0xbdd20a57	-0.102558784
226	0xbe547693	-0.20748357
227	0x3e3ab747	0.18233977
228	0x3e08b5e3	0.13350634
229	0x3e359525	0.17732675
230	0xbdea3cfc	-0.11437413
231	0x3d278f1c	0.040907964
232	0x3e5cd6f4	0.21566373
233	0x3e74b0f2	0.23895624
234	0xbd210472	-0.03931088
235	0xbe08fc14	-0.1337741
236	0x3cee1479	0.029062496
237	0x3e9892e3	0.29799566
238	0x3d8f40ef	0.06994807
239	0x3e8ead3e	0.27866548
240	0x3e45e807	0.19326793
241	0xbe2fc4e3	-0.1716495
242	0xbe160214	-0.1464923
243	0xbd9931cc	-0.07480201
244	0xbcc714d9	-0.024301933
245	0xbe5a34f1	-0.21309258
246	0x3e4979c4	0.19675356
247	0x3e0a305f	0.13495015
248	0x3da7af44	0.08187726
249	0x3cedc69a	0.029025365
250	0x3e359ad6	0.17734846
251	0x3dffb669	0.12485964
252	0xbe24ed0b	-0.1610605
253	0xbe07d601	-0.1326523
254	0x3e4ad828	0.1980902
255	0xbe234ad4	-0.15946513

lstm.bias_ih_l1 f4 [40]
0	0xbe583514	-0.21113998
1	0xbe4f2d3d	-0.20232101
2	0x3d961797	0.07328718
3	0x3e1974ab	0.14985912
4	0x3dc92520	0.09821534
5	0x39fc3b2e	0.00048109278
6	0xbd9724cd	-0.07380066
7	0xbd774780	-0.060370922
8	0xbe9f320c	-0.3109287
9	0xbe42902f	-0.19000314
10	0xbe8976a5	-0.2684833
11	0x3e721012	0.23638943
12	0xbe8cb9c2	-0.27485472
13	0x3e156487	0.1458913
14	0xbe98b14f	-0.29822776
15	0xbe8ec2e8	-0.27883077
16	0xbe60a11a	-0.21936455
17	0xbe82323e	-0.25428957
18	0x3d022d4f	0.03178149
19	0xbe89b503	-0.26895913
20	0x3e620f1b	0.22076075
21	0xbe93760a	-0.28800994
22	0xbe4e51cb	-0.20148389
23	0xbe3fb472	-0.18721178
24	0xbe140d5f	-0.14458226
25	0x3e241ed0	0.16027379
26	0xbd16fe4c	-0.03686361
27	0xbe8e3b51	-0.2777963
28	0xbe5226ac	-0.20522565
29	0xbdb724a9	-0.08942539
30	0x3d1430f0	0.036179483
31	0xbe4526df	-0.1925311
32	0xbcc77cf7	-0.02435158
33	0x3e8c3082	0.2738076
34	0x3e8b865c	0.27250946
35	0x3e5d3135	0.21600802
36	0x3dd6a75f	0.10481142
37	0x3e5cd673	0.21566181
38	0x3d56daff	0.052454945
39	0xbe3eee2b	-0.18645541

lstm.bias_hh_l1 f4 [40]
0	0xbe3564c3	-0.17714219
1	0xbe1dbf9f	-0.15405129
2	0xbe776637	-0.24160086
3	0x3de1cfb3	0.110259436
4	0x3d8681a0	0.06567693
5	0x3e6560f2	0.22400263
6	0xbaf8cfdc	-0.0018982845
7	0x3e09b73f	0.13448809
8	0x3e2f049d	0.17091604
9	0xbdfc362e	-0.123150215
10	0x3e9bb54c	0.30411756
11	0x3d67b7f1	0.056571905
12	0xbe16beb2	-0.14721182
13	0xbcdb2a3d	-0.02675354
14	0x3e86b9a0	0.26313496
15	0xbdb2ac0e	-0.08724223
16	0xbe8057f6	-0.2506711
17	0xbe06862f	-0.13137124
18	0xbe4edcce	-0.20201418
19	0xbe7a437a	-0.24439803
20	0x3ccef72c	0.025264345
21	0x3cb53a40	0.022122502
22	0x3e651c2b	0.22374026
23	0xbca44bf4	-0.020055749
24	0x3e86856a	0.26273662
25	0xbe0c25b3	-0.13686256
26	0xbd627549	-0.055287633
27	0xbd548e1a	-0.05189333
28	0x3ea1ca3e	0.3159961
29	0x3e2b6009	0.16735853
30	0x3e07b86e	0.13253948
31	0x3e06712c	0.13129109
32	0x3e9b735b	0.30361447
33	0x3dbd202c	0.09234652
34	0xbe4101cc	-0.18848342
35	0x3e25cc77	0.16191278
36	0x3e249e27	0.16075955
37	0x3e47893b	0.19485943
38	0x3e84fe3f	0.25975224
39	0x3e2a3029	0.16619934

fc.weight f4 [1, 7200]
0	0x3bfd483e	0.007729559
1	0x399e58d4	0.0003020229
2	0xbc32a536	-0.010903647
3	0xbbe8b051	-0.0071010967
4	0xbc194038	-0.00935369
5	0xbb24c08a	-0.0025139176
6	0x3c1b827c	0.009491559
7	0x3b3c1aa2	0.0028702398
8	0x3c14e518	0.009087823
9	0xba992b56	-0.0011685889
10	0x3aa2238c	0.0012370213
11	0x3c17b178	0.00925862
12	0x3c1e9c13	0.009680766
13	0x3c3b3ee2	0.011428567
14	0xbc35fb98	-0.011107348
15	0xbc3fc0e6	-0.011703705
16	0xb979536b	-0.00023777566
17	0x39c72c6f	0.00037989343
18	0xbbb8648d	-0.005627221
19	0xbb687c36	-0.0035474426
20	0x3bb84aaf	0.0056241374
21	0x39568883	0.00020459485
22	0xbc07f577	-0.0082982695
23	0xbbae39a8	-0.0053169318
24	0x3b6716b9	0.0035261346
25	0x3b0924f0	0.0020926557
26	0xbc2d7c69	-0.010588744
27	0xba9185c8	-0.0011102492
28	0xbbc5ad62	-0.0060326317
29	0x3baad58b	0.0052134446
30	0xba79295f	-0.0009504761
31	0xbbd81b54	-0.0065950546
32	0xbb4b4b76	-0.003102032
33	0xbb90f128	-0.0044232793
34	0x3c276480	0.010216832
35	0xbb3c81f1	-0.0028763975
36	0x3c183384	0.009289626
37	0x3beadf73	0.0071677505
38	0xbc0b1eed	-0.00849126
39	0x3c34d831	0.011037872
40	0xbb9b30a7	-0.0047360244
41	0x39524e8c	0.00020056422
42	0xbbddae21	-0.0067651425
43	0xbc0549f5	-0.0081353085
44	0xbb0eb263	-0.0021773807
45	0x3bf74588	0.0075461306
46	0xbb88e8cf	-0.0041781436
47	0x3c07d1f0	0.008289799
48	0x3c3bd79e	0.011464981
49	0x3c0de18b	0.008659731
50	0xb9ef8336	-0.00045683392
51	0xbc175de5	-0.009238695
52	0xbc1977c6	-0.009366935
53	0xbc01b0ef	-0.007915719
54	0xbc36e3b6	-0.011162689
55	0xbc39db09	-0.011343726
56	0xbb8d3eaf	-0.004310451
57	0xbc253ecd	-0.010085774
58	0xbc23d71b	-0.010000016
59	0xbc3fa999	-0.01169815
60	0xbc28f1b4	-0.010311533
61	0xbb5faffc	-0.0034131994
62	0x3bad3979	0.0052863923
63	0xbc26455c	-0.0101483725
64	0xbb9ef151	-0.0048505445
65	0xbbbe6f2c	-0.0058115926
66	0xbc031931	-0.008001612
67	0x3a507b4a	0.0007952942
68	0x3b3c305d	0.002871535
69	0xbada9a82	-0.0016678127
70	0x3bb7e65e	0.0056121787
71	0x3be65f74	0.007030422
72	0x3c02818a	0.007965455
73	0x3c177f7e	0.009246705
74	0x3af07d26	0.0018347844
75	0xbbd61b47	-0.0065340134
76	0xbc380a56	-0.011232933
77	0x3a3f89e5	0.00073066197
78	0xbb8ea9fc	-0.00435376
79	0x3c167341	0.009182752
80	0xbba6ed1e	-0.0050941845
81	0xbc3239a9	-0.010878005
82	0xbbfd37ec	-0.0077276137
83	0x3c14f957	0.00909265
84	0x3c19ca99	0.009386682
85	0xbb73cc67	-0.003720069
86	0x3bb9ac1c	0.005666269
87	0x3b80d3c7	0.003931496
88	0xbb285b0e	-0.0025689038
89	0x3bfa6fd1	0.007642724
90	0x3a85c8e8	0.001020697
91	0x3acf164b	0.001579949
92	0x3a897580	0.0010487288
93	0x3b74135a	0.003724298
94	0xbc1608b4	-0.009157348
95	0x3b0008e0	0.001953654
96	0x3b572840	0.0032830387
97	0x3b9b5c15	0.0047412016
98	0x3aaa993a	0.0013015636
99	0xbb80e523	-0.003933565
100	0x3bad15b1	0.005282127
101	0xbbbe5986	-0.005809012
102	0xbbc72cab	-0.006078323
103	0xbc0710d4	-0.008243758
104	0x3bcfd655	0.006342689
105	0xbc1c055a	-0.00952276
106	0x3bd92a02	0.006627322
107	0xbb73f8bd	-0.0037227117
108	0x3c2da518	0.010598443
109	0x3baa4107	0.00519574
110	0xbbc059ff	-0.0058701034
111	0xbc169313	-0.009190339
112	0x3c3f830d	0.01168896
113	0x3988a3ea	0.00026062067
114	0x34955749	2.781692e-07
115	0x3c27b569	0.010236123
116	0xbbc3edd8	-0.005979281
117	0xbc13ec57	-0.009028516
118	0xbb6ecd94	-0.0036438452
119	0xbc1ef80c	-0.009702694
120	0xba9363e1	-0.0011244976
121	0x3ac2e240	0.0014868453
122	0x3bfe1603	0.007754089
123	0x3c101597	0.00879421
124	0xbbbdf40d	-0.0057969154
125	0xbc3c2502	-0.011483433
126	0x3adc1371	0.0016790462
127	0xbc0ab1c7	-0.008465237
128	0xbb58698f	-0.0033021902
129	0xbbbba550	-0.005726494
130	0x3ab46ca4	0.0013765288
131	0xbb6087c5	-0.0034260612
132	0xbc24c955	-0.010057767
133	0xbb4a9537	-0.0030911693
134	0xbba33c6f	-0.0049815695
135	0xbb8d5bbf	-0.0043139155
136	0xbaa82727	-0.0012829051
137	0xbb8d774d	-0.0043172003
138	0x3c1b2979	0.009470337
139	0x3bb09712	0.0053891027
140	0x3c1d9381	0.009617687
141	0xbc38ba65	-0.011274909
142	0x3b45b9fb	0.0030170667
143	0xbbb0aa3f	-0.0053913887
144	0xbc2812ee	-0.010258419
145	0xbbc20ad4	-0.005921701
146	0x3b3092bf	0.0026942936
147	0xbc2ffc40	-0.010741293
148	0x3c3b926c	0.011448484
149	0x3c1c027e	0.009522079
150	0x3c2805b3	0.010255265
151	0x3b9bc112	0.0047532404
152	0xbb5ac1f0	-0.0033379756
153	0xbb638640	-0.003471747
154	0xbb754c08	-0.0037429351
155	0xbb91e08d	-0.0044518174
156	0x3c3fdd39	0.011710458
157	0x3b31c382	0.0027124588
158	0x3c191618	0.0093436465
159	0x3bbd400f	0.0057754586
160	0xbc16dbbf	-0.009207665
161	0xbb674ef0	-0.0035294853
162	0x3afd2249	0.0019312586
163	0xbae59249	-0.001751491
164	0x39a43263	0.0003131806
165	0xbb71152d	-0.0036786303
166	0x3c284397	0.010270021
167	0x3c008ccb	0.007846068
168	0x3b3a5f53	0.0028438165
169	0xba36d488	-0.00069744186
170	0xbc1015ea	-0.008794287
171	0x3ad51646	0.0016257248
172	0x3a914e40	0.0011085942
173	0x3c0961b0	0.008385107
174	0x3a8b02c1	0.0010605679
175	0xbba79cbd	-0.00511512
176	0xbb594e2a	-0.0033158162
177	0x3b98f2a0	0.004667595
178	0xbb284f69	-0.0025682098
179	0x3c06d45d	0.008229342
180	0x3bccbc71	0.00624805
181	0x3b4d6f42	0.0031346832
182	0xbc008bff	-0.007845878
183	0xbc0149b0	-0.007891104
184	0xbc2d1cf7	-0.010565988
185	0xbb848b25	-0.0040449076
186	0x3bcf8d9b	0.0063340194
187	0xbbdaf66e	-0.0066822087
188	0x3bda3570	0.0066592023
189	0xbc0c7ef2	-0.008575188
190	0xbc029c24	-0.007971797
191	0x3aa4bc22	0.0012568275
192	0xbc030c7b	-0.007998581
193	0xbbcba178	-0.006214317
194	0xbb705411	-0.0036671201
195	0xbc3a14f7	-0.0113575375
196	0x3b051b3e	0.0020310427
197	0x3af9dcee	0.0019063035
198	0x3bb07f31	0.005386256
199	0x3bab77a2	0.005232767
200	0x3bb0fa92	0.005400964
201	0x3c09b97d	0.00840604
202	0xbac0609f	-0.0014677233
203	0x3c0638e2	0.008192273
204	0xbaf905e0	-0.0018998943
205	0x3c012e00	0.007884502
206	0x3c1a5955	0.0094207125
207	0xbbe1b71e	-0.0068882843
208	0xbb2b0497	-0.0026095265
209	0x3c2be2f3	0.010491121
210	0xbc276c8f	-0.0102187535
211	0x3ba93a3e	0.0051644137
212	0xbbbe87fb	-0.00581455
213	0xbb0c9e7a	-0.0021456764
214	0x3bd7cd16	0.0065857274
215	0xb8dbabec	-0.00010474757
216	0xbc0f8cd9	-0.008761608
217	0x3b89774a	0.0041951286
218	0xbc377177	-0.011196486
219	0xbb2e0e2b	-0.0026558738
220	0xb87a6f04	-5.9708036e-05
221	0x3b5fbe6f	0.0034140607
222	0xbb8634bd	-0.0040956424
223	0x3c230af5	0.009951343
224	0x3c12957b	0.008946772
225	0x3c1d7a48	0.009611674
226	0x39f2e729	0.00046330065
227	0x3a535914	0.0008062285
228	0x3c2c90b4	0.010532547
229	0x3c09e28c	0.008415829
230	0xbc2e4641	-0.010636867
231	0xbbd82e93	-0.006597349
232	0x3b7eecfc	0.0038898578
233	0x3a55943b	0.0008147393
234	0xbc0ad822	-0.008474382
235	0x3b685c7d	0.0035455518
236	0xb9c844a3	-0.0003819811
237	0x3bc97fed	0.006149283
238	0xbb490857	-0.0030675137
239	0x3c154e7d	0.009112951
240	0x3be8eb62	0.007108138
241	0x3c2ed22c	0.010670226
242	0xba70383b	-0.00091636524
243	0x3c2686b8	0.010163955
244	0xbc2d8ef5	-0.010593166
245	0x3c099873	0.008398163
246	0x3bfb2510	0.0076643303
247	0xbc0d4913	-0.008623379
248	0x3c2a7ebf	0.010406195
249	0x3aed1026	0.0018086478
250	0xbbf47159	-0.007459801
251	0x3aa49a0d	0.0012558118
252	0x3b4df2b5	0.0031425182
253	0x3b1fccac	0.0024383469
254	0x3c1b002f	0.009460493
255	0x3be6b80e	0.007040984
