DeepLearning/timeSerise/.scale_batch_size_cb1ee5c4-5b8c-450f-b115-6a0a28596fe1.ckpt (torch, 48242 bytes, 9 tensors)

lstm.weight_ih_l0 f4 [40, 50]
00000000: 7790 2f3d 4a01 9b3c 11b7 ac3d ffa7 dbbd
00000010: bd20 023e b9ed 94bd 24c4 5ebe 3c23 13bd
00000020: f54b 35bd a4c7 01bd 20c2 95be cfa7 7b3e
00000030: c22e 953e eb59 d6bd 2918 31be fd3f 9f3e
00000040: d976 ecbb 5414 d63d 9aa2 b13d c343 333d
00000050: c13c 39be 70c9 16be 4c30 2b3e 6b74 05be
00000060: f6c2 5cbb 2cd3 29be e596 133b 03de 563e
00000070: 7501 eabd 3a53 69be 8df9 22bd c633 33be
00000080: 281d 48be f305 1e3d ccef 7e3d 2291 083e
00000090: bd85 b0bc 95cb 70be 4a6a 443e a995 79be
000000a0: fa3a 53be 33df 9bbc 6539 31be 3b8b 0ebe
000000b0: 444a 463e e4ba b43c cdc2 6c3e 8480 443e
000000c0: 3dab 2ebd 12d2 90bd 10e3 4b3e 291e 513d
000000d0: 83a5 18be 0a92 913d 2d4e bf3d 50ea 12bd
000000e0: 2a5e 1cbe f7b7 69be c257 28bd 23fc d5bc
000000f0: a777 4ebd 7f6e 2abd 6799 4d3e 6c57 9e3e
00000100: 9222 3b3d 0564 433e 1509 92be e80a 803d
00000110: c7a8 2ebe e188 e33d 86cd 353e b668 4e3e
00000120: 1b79 19be 2a69 c43d 14c0 683e 988e 833e
00000130: c884 1dbe f04a 1e3e 35de 0abd eaaf 58be
00000140: 2932 a03e 33e6 83be a1ae 40be 6c9c 2f3e
00000150: 6511 e8bd b77c 38be c4e0 05bc c7b9 fabd
00000160: b40b 18be 637d 963e 5467 70be f77d bf3d
00000170: 66d0 13be 7b0a a03e f971 60be e014 983e
00000180: ff40 b33c 3ada 113e 513c 373d 781a 553e
00000190: 350b 5bbe e77b a4bd 3ca3 d8bd 7f4b 8abe
000001a0: 54f4 1e3e 512f 85be 786e 273e c9b5 10be
000001b0: 3da1 6b3c 9720 c43c ded4 1d3e 7f2a 4bbe
000001c0: 1e35 96be 389a 82be 2f69 7ebe a01f 163e
000001d0: 507f 963d f134 13bd 229f fdbd 8ef5 303e
000001e0: 442d 10be 23c7 7dbd bda7 2c3e 6717 503e
000001f0: 5bab 633e 99c4 98be 28f0 0e3e 858e 81bc
00000200: 2d35 90be 958e 5dbe 6189 89be 3ec1 153e
00000210: a56a 8f3e 91ac 353c e6b2 503e dc2f 26bc
00000220: 489d 0f3e a421 f8bd a3b9 d0bb c85d 433e
00000230: 480e 703c 0195 7a3e 7f61 21be f269 97be
00000240: 72f0 8bbe a8cc c13b a76b 103e c0a9 9e3e
00000250: 899f 313e 70fa 083e 3e46 943c 5107 8ebe
00000260: 8597 61be 8e37 64bc baad 6b3b 633c 92be
00000270: 88b1 34be 42d3 44bc beed 073d c14a a53c
00000280: edca e9bd bf58 5dbe 26ba 393d 7b4a 9fbe
00000290: 22c6 8abe add7 a0be 3195 86be 784b 593e
000002a0: 6a75 c03d 61ff 5a3e bbdf eebd 5719 623e
000002b0: 2b9d 2d3e 29c1 9b3e 23dc e5bc 2355 bd3d
000002c0: 1825 febd ef09 d3bb 408f b43d c0c0 f03d
000002d0: fc8f 403e a215 363d ae8c 59be c1b8 963e
000002e0: 4ca0 a9bd ec55 883d 66d9 293e 96c9 903e
000002f0: ec3a 7a3e 2471 c6bd 9489 2c3e 768d 123e
00000300: 8882 acbd 7cf0 65be 0edd 9dbe 8cdf eabb
00000310: 541a 43be eeae 903d bffa 473b 580f 69be
00000320: 0523 833e 8148 513e 32fa 5bbd e867 8dbe
00000330: 608f a53c 657d 8cbe 72e4 d33a 3355 67be
00000340: 7f60 3cbe f05c 7ebe 5764 27bc 8a09 10be
00000350: d0cc 053e 8486 de3d d6dc 89bc b2e9 c53c
00000360: 756f 253e 8bf1 8f3e 2c30 32bd e047 60be
00000370: 18f3 96be a153 81be cd34 43be 26ec 85be
00000380: c0d3 713e 8197 0cbd 662e f0bd daf5 32be
00000390: d13c 8dbe 7730 553e ffd6 653d e42d 8abd
000003a0: d359 693e 1083 203e e05d 3a3e a3a9 7bbe
000003b0: fb2d 9c3d 750d 59be b3ed 91be 4a53 623d
000003c0: 8b83 033d 49d2 403d 74ac 9cbe 8781 98be
000003d0: 1170 4a3e f48c 74be 1a0e bc3d 8573 8bbe
000003e0: 44bd 773e 707e 02be 0aca 4e3e be9b 98be
000003f0: dc6e 4b3e 069a db3c 0d96 843d 002f a13d
0.04286238 0.018921513 0.08433355 -0.10725402 0.12707801 -0.072719045 -0.21754509 -0.035922274
-0.04426189 -0.031684533 -0.29249668 0.24575733 0.29137236 -0.10466369 -0.17294373 0.31103507
-0.007216316 0.10453096 0.08673592 0.043765794 -0.18089582 -0.1472528 0.16717643 -0.13032691
-0.0033685542 -0.16584462 0.002252036 0.20983128 -0.11426059 -0.22785655 -0.03978877 -0.17500219
-0.19542372 0.038579892 0.062240407 0.13336614 -0.021548146 -0.2351516 0.19181171 -0.24373497
-0.20627967 -0.019027328 -0.1730705 -0.139203 0.19364268 0.022061773 0.23121186 0.1918965
-0.042643774 -0.07071318 0.19910836 0.051054154 -0.14906888 0.07107933 0.09341083 -0.03586799
-0.15270296 -0.22824083 -0.041099317 -0.026121205 -0.050407078 -0.041609284 0.2007805 0.30926073
0.045687266 0.19081123 -0.28522554 0.0625208 -0.17056571 0.11110092 0.17754182 0.20157132
-0.14987604 0.09590371 0.22729522 0.25694728 -0.15382683 0.15458274 -0.03390332 -0.21160856
0.3128827 -0.25761566 -0.18816616 0.17149514 -0.11331443 -0.18016325 -0.008171264 -0.122424655
-0.14848214 0.29392537 -0.23476917 0.09350198 -0.14434966 0.31257996 -0.21918477 0.29703426
0.021881578 0.14243403 0.044735257 0.20810878 -0.21390994 -0.08031445 -0.105780095 -0.27010724
0.15522891 -0.26012662 0.16350734 -0.14131846 0.014381704 0.023941321 0.15413234 -0.1984043
-0.293374 -0.25508285 -0.24844812 0.14660501 0.07348502 -0.03593916 -0.12383868 0.17281172
-0.14079767 -0.06195749 0.16860862 0.20321427 0.22233336 -0.29837492 0.139588 -0.015815029
-0.2816557 -0.21636422 -0.26862624 0.14624497 0.2801105 0.011088506 0.20380744 -0.0101432465
0.14024842 -0.121157914 -0.006369786 0.19078743 0.014651842 0.24470903 -0.15759848 -0.29573017
-0.27331883 0.0059142895 0.14103566 0.30988884 0.17346014 0.13376784 0.0180999 -0.27739957
-0.22030456 -0.013929261 0.0035961703 -0.28561696 -0.17645848 -0.012013258 0.033185713 0.020177247
-0.11415658 -0.21615885 0.04534354 -0.31111512 -0.27104288 -0.31414548 -0.262857 0.21220195
0.09397395 0.21386482 -0.11663767 0.22079979 0.16954486 0.30420807 -0.02805907 0.09244754
-0.12409419 -0.006440393 0.08816385 0.11755514 0.18804926 0.044454224 -0.21245071 0.2943783
-0.08282527 0.06657013 0.16586837 0.28278798 0.2443654 -0.096895486 0.16849357 0.14311776
-0.08423334 -0.22455019 -0.30832714 -0.007167762 -0.19053012 0.07064615 0.0030514447 -0.2275976
0.25612655 0.20437814 -0.0537054 -0.27618337 0.020209968 -0.27439418 0.0016166104 -0.22591095
-0.18396185 -0.2484014 -0.010216794 -0.14066139 0.13066411 0.108655006 -0.016828936 0.024159286
0.16155799 0.2811397 -0.04350297 -0.21902418 -0.2948234 -0.25259116 -0.1906311 -0.2615673
0.23615932 -0.034324173 -0.117276 -0.17476597 -0.27585462 0.20819269 0.05611324 -0.06747034
0.22788171 0.15674996 0.18199873 -0.2457643 0.076259576 -0.2119654 -0.28501663 0.055255212
0.03210787 0.047075544 -0.3060032 -0.29786322 0.19769312 -0.23881894 0.09182377 -0.27236572
0.24193293 -0.12743545 0.2019426 -0.29806322 0.19866508 0.026806843 0.064739324 0.07870293

lstm.weight_hh_l0 f4 [40, 10]
00000000: 854f 2fbe e73d 8dbe 7ee9 91be 45a3 7cbe
00000010: 9bb5 93bd 3f85 743d 2d16 84bd 65d5 a4bd
00000020: eade b33d 8cc6 d7bd bd08 2bbd 5f50 acbd
00000030: 3e4b 7ebd 730c 543c 8991 60bd cb01 97be
00000040: b75f 0d3e 826f 71bd ffc7 583e efd0 153d
00000050: 3746 3d3e 1b0d 2e3e f5ec 0b3e ea58 cabd
00000060: 7260 4cbe 3761 9bbe a72b 2d3d 9f04 4a3e
00000070: 174d 613e e41b 583c 209a a53c df7b 12bc
00000080: 96f5 88be 0344 cb3d 886d 5ebe f4ef 3f3e
00000090: 65a2 c63d 784e 953d 7d71 9ebe 75cc c73d
000000a0: 951c 58be b048 87be 67db dbbd 6ec4 dabd
000000b0: dbf6 8bbe 894e 813e 1319 183e 3675 19bd
000000c0: 98c5 603d 5814 ccbd 5b2a 813d f498 54be
000000d0: 208a 6a3e 4543 9ebe ec40 ca3b 170b 01bd
000000e0: 4b66 a63d fa98 46be 4a00 bd3d 7a34 8e3d
000000f0: 9efd 783e 6d9e 253e 80c3 c0bc fb94 d4bd
00000100: 42c6 9f3e 8e37 073c ea68 1abe 5f60 14bd
00000110: 5890 a23d 268d 03be 96d9 ae3d 9d86 be3d
00000120: 3050 38bc 4363 a2bd efad 21be 5f92 873d
00000130: b530 273e 4728 9cbe af86 83be 333c 513e
00000140: a859 c2bd 39ad 8cbe 0d7c 29be 3139 3a3d
00000150: 2426 223e c3f1 5c3c 57f5 97be ceb6 9dbe
00000160: e6d9 f43d 5843 3cbe bd1c 26be dbc4 063e
00000170: 1104 0bbe 300c 7dbe 3a45 d0bd e858 59bb
00000180: 9888 e8bd 7b7a 11be 7fd0 013d 2757 09bd
00000190: 0030 96be e8d2 a83d 66b5 a03e 9294 1b3d
000001a0: 44c1 63be cc14 053d 8e7e 5a3e f77d 493d
000001b0: 1265 2fbe b0a7 1c3c 05cf 563e ae7c 3cbd
000001c0: 2e01 28be abdb 5c3e e025 913e 484f 223e
000001d0: dc11 19be 8b74 603e 4713 85be a41d 2dbe
000001e0: 1a73 183e c790 893e 68cb 16be 45f8 7dbc
000001f0: 7222 4fbe 7b72 3abe 17de 71be 8b2f e0ba
00000200: f106 7a3e 4558 a03e d5a9 1f3e 7f22 6c3d
00000210: fee2 60be b268 efbd 8ac1 273e 5352 af3d
00000220: 0e90 dabd ccd3 e23c 501f 86be 916d 8cbe
00000230: 4353 643e c0e7 0dbe 7a20 323e 6089 483e
00000240: a180 a53d 1eca 543e 9513 923e db41 4ebe
00000250: c3d6 7fbe 0392 083e ddf6 22bd 3b71 0ebe
00000260: 5dd4 4abe a200 873e 4c0b a13e 5cdb 963e
00000270: 6d26 083e d90f 543e 0165 3c3e 0e2b d93b
00000280: caee 373e 2b49 5bbe efbf 833e f0d4 8f3e
00000290: 6540 33be 7044 ea3d daea 33bd d8da 233e
000002a0: a2e6 3abe 1be8 9dbe f5f5 143e 02a5 e13b
000002b0: 7e35 493e 01e4 523e 793e 4ebe 25ac 373d
000002c0: fd11 28be 58d3 a5bd 3704 953c aad6 ecbb
000002d0: e235 64be 17de a73c 3b03 69be b681 1cbe
000002e0: d81c bc3d 3ae1 433d 279f a93d 0c60 d33d
000002f0: f3b5 4ebe 4ac5 01be 9bd1 8cbe 521b 90be
00000300: 38f1 f43d 7b12 363e b298 1a3c fd99 79be
00000310: 5988 4abe 35e2 89be 71ff 8f3e 3310 9a3e
00000320: 0226 7a3e 6700 343e 2444 a1be 4c9f b7bd
00000330: e90c 88be 09f4 0dbe ab60 c8bd 8de0 683e
00000340: 8f42 82be 1245 403e 5e45 bdbb 46d3 fd3c
00000350: fcea 9c3d ae3e 0d3e f1e2 9d3e 85f4 9dbe
00000360: b65d 9f3d d632 4d3e 1565 82be eed8 1f3e
00000370: f94e 743e 3126 fc3d 1e00 ce3d fc59 97be
00000380: a901 11bd da3a 00be 82df 773e 058e 183e
00000390: cb3f ca3d fe78 cd3d fba3 613d 1b93 a4bc
000003a0: 9ec9 cb3d faf9 663e 98d3 de3d 6224 8a3d
000003b0: fb5d 433e 63c6 48be b90b 403e fe29 523e
000003c0: 11da 693d 9547 f4bd 8e12 993e 489e 4b3e
000003d0: cbf3 363e 6504 7c3d 331c ba3d a965 3bbe
000003e0: c810 703e 3d2c b2bd 2d79 43be a9c6 f03d
000003f0: e20b 233e 21e8 86be 892b 08be ee66 de3d
-0.17120178 -0.2758629 -0.28498453 -0.24671657 -0.07212373 0.059697386 -0.06449542 -0.08048514
0.08782752 -0.10535917 -0.04175638 -0.08413767 -0.062083475 0.012942421 -0.054826293 -0.29493555
0.13806044 -0.058944233 0.21170042 0.036576208 0.18483816 0.16997187 0.1366461 -0.0988024
-0.19958666 -0.30347607 0.04227796 0.19728325 0.22002064 0.013190243 0.020215094 -0.008940666
-0.26749867 0.099250816 -0.2172147 0.18743879 0.09698943 0.07290357 -0.3094596 0.09755794
-0.21104653 -0.26422644 -0.10735207 -0.10681997 -0.27336773 0.2525523 0.14853315 -0.037465297
0.05487594 -0.09964818 0.06306907 -0.20761472 0.22904253 -0.30910698 0.00617229 -0.031504717
0.081249796 -0.19394293 0.09228571 0.06943603 0.24315497 0.16173716 -0.023530722 -0.10379978
0.31205946 0.008252991 -0.15079084 -0.03622472 0.07937688 -0.12846813 0.08537595 0.09303019
-0.011249587 -0.07929089 -0.15789007 0.06619715 0.16327174 -0.3049948 -0.25688693 0.2043312
-0.09489757 -0.27475908 -0.16551228 0.0454647 0.15834862 0.013485375 -0.29679367 -0.3080353
0.11955623 -0.18385065 -0.162219 0.13161032 -0.1357577 -0.2471168 -0.10169454 -0.0033164565
-0.11354178 -0.14206879 0.031692978 -0.03353038 -0.29333496 0.08243352 0.31388396 0.037983485
-0.22241694 0.032490537 0.2133734 0.049192395 -0.17128399 0.009561464 0.20977409 -0.04601734
-0.164067 0.21568172 0.2834921 0.15850556 -0.14948219 0.21919458 -0.2599127 -0.16905838
0.14887658 0.2686827 -0.14726031 -0.015501087 -0.20227984 -0.18207733 -0.23619877 -0.0017104013
0.2441671 0.31317344 0.1559213 0.057650086 -0.2196159 -0.11689891 0.16382423 0.08560624
-0.106720075 0.027688883 -0.26195765 -0.27427343 0.22297387 -0.13857937 0.17395201 0.19583654
0.08081175 0.20780227 0.28530565 -0.2014231 -0.24984269 0.13336949 -0.03978621 -0.13910381
-0.19807573 0.2636767 0.3145393 0.29464233 0.13295908 0.2070917 0.18397905 0.006627447
0.17962185 -0.2141463 0.2573237 0.28092146 -0.17505033 0.11438835 -0.043925144 0.16001451
-0.18252042 -0.30841145 0.1454695 0.0068861255 0.19649312 0.20594789 -0.20141019 0.044841904
-0.16413112 -0.08096951 0.018190486 -0.0072277384 -0.2228618 0.020491643 -0.22755139 -0.15283856
0.09185189 0.047822215 0.08282309 0.10321054 -0.20186596 -0.12672916 -0.27503666 -0.28145844
0.11960071 0.17780487 0.009435819 -0.24375148 -0.19778575 -0.26930395 0.28124574 0.30090484
0.24428561 0.17578278 -0.314973 -0.0896593 -0.2657235 -0.13862623 -0.09784063 0.2274191
-0.25441405 0.18776348 -0.0057760915 0.030984532 0.07662007 0.13793442 0.30837205 -0.30850616
0.07781546 0.20038924 -0.25467744 0.15610096 0.2385825 0.12311972 0.10058616 -0.2956084
-0.035401974 -0.1252245 0.24206355 0.14897926 0.09875449 0.10032843 0.055088025 -0.020089677
0.09950565 0.22556296 0.10880202 0.06745221 0.1907882 -0.19606929 0.18754472 0.20523831
0.05709273 -0.11927716 0.2989697 0.19884598 0.17866437 0.06152763 0.0908741 -0.18300499
0.23443902 -0.08699844 -0.19089194 0.117566414 0.15922502 -0.26348975 -0.13297857 0.10859476

lstm.bias_ih_l0 f4 [40]
00000000: 3953 79be bda4 9ebd 385a 9a3e cede 8abe
00000010: 2c18 9dbe 4403 ecbd e3b2 3bbd 1812 83be
00000020: c0dd 80be e07d 7cbe dc2e 843d d056 79bd
00000030: a860 e3bd 498b 0d3e 107e 95bd e736 1abd
00000040: 5d19 6c3e af75 6e3e eff0 51be 5718 70be
00000050: 5a5c 94be b713 11be 5a6a 8dbe b7bb 95be
00000060: a363 6cbe d8c6 9cbe d7a5 54be e855 b63c
00000070: f742 e2bd cd9e 8fbe 6740 b93d d346 8cbb
00000080: e3b3 0ebe 6391 68bd 967d 03be 8337 b0bd
00000090: 0f06 21be 5e12 9b3e 90a6 563e 6a5e 9e3e
-0.24348153 -0.07746265 0.30146956 -0.2712311 -0.30682504 -0.1152406 -0.045824897 -0.25599742
-0.25169182 -0.24657393 0.0645425 -0.060873806 -0.1110242 0.13822664 -0.07299435 -0.037650015
0.2305655 0.2328708 -0.20502065 -0.23446785 -0.2897671 -0.14167677 -0.27620202 -0.29244778
-0.23084883 -0.30620456 -0.20766388 0.02225776 -0.11047929 -0.28050843 0.09045487 -0.004280904
-0.13935809 -0.056779277 -0.12840876 -0.08604338 -0.15724967 0.3028745 0.20961976 0.30931407

lstm.bias_hh_l0 f4 [40]
00000000: dc94 80bc e815 823e a72f a13e cf88 14bc
00000010: b6f7 2f3e 66e7 143d f728 103e 739f 1b3e
00000020: 482f 8bbc 7a06 97be 32e9 8a3d 4822 88be
00000030: 4b2b 1f3d a052 16be 1658 993e 0bf7 16be
00000040: 36d0 38be 446c 5cbe 188b 833c 2678 8dbe
00000050: 7c8f 84be 5357 923e d99d 483e 44da 633c
00000060: 61cf 52be 0ce3 bdbd a8f3 f53d 659b 71be
00000070: 1861 8a3e 26ed fbbd be4a 183e bf8c df3d
00000080: b439 e3bc 5cda b2bd b24c 0ebe 016c 9dbe
00000090: 6461 9ebe 3d33 813e 5811 113e 0b74 0f3d
-0.015695982 0.25407338 0.31481668 -0.009065821 0.17184338 0.03635349 0.14078127 0.15197544
-0.016990319 -0.2949713 0.0678276 -0.26588655 0.038859647 -0.14679956 0.29950017 -0.14742677
-0.18048176 -0.21525675 0.016057536 -0.27630728 -0.2589072 0.28582248 0.19591464 0.013907019
-0.20586921 -0.092718214 0.12009364 -0.23594435 0.27027202 -0.12301092 0.14872262 0.10915517
-0.027737476 -0.08733055 -0.13896444 -0.30746463 -0.30933678 0.25234404 0.14166772 0.035022777

lstm.weight_ih_l1 f4 [40, 10]
00000000: 89ed 933e e2f9 883e f40d 763e 9623 8ebe
00000010: d08c bdbd 973a 563d c500 5ebd 2314 44be
00000020: 80ba 203e ee11 c5bd 18ca 573e 8d91 a23c
00000030: a231 5abe 86df e6bc 4d6b 0c3e 1ba1 8fbe
00000040: ea6f 99bd 39a3 b63b d7f8 9f3e f085 223e
00000050: 8aaa 863e 7a96 84be a4aa 47be 74b2 f83b
00000060: 86cb 893c b434 8f3e 9f0b 01be 6344 783e
00000070: 8280 113e 7cf6 72be 866a 15be e031 a93d
00000080: 4b8b 20be ba68 223e eefa 65be 42a9 54be
00000090: 9652 333d c684 8f3e c06e d03d 38b7 1dbe
000000a0: 7241 9c3e aee3 20be c119 be3d fe33 7d3e
000000b0: 8a66 603e 94fd 10be 6e3f 913e 14b0 3e3d
000000c0: c743 9f3e eeae 8abe ec4e 18bd 293b 003e
000000d0: 8437 02be 1d26 9f3e 159f 763e 63ba 393d
000000e0: 063c 53be f7cb 94bd cdac 8bbd aef4 24be
000000f0: eb39 1f3c 4504 53be eeae 54be 457d e2bd
00000100: d3e4 bd3c 3705 d1bd f2a0 88bd 4a68 77be
00000110: 7c18 4abd 1caa 66be b2a1 d5bb ae70 723e
00000120: b8f9 243d f818 34be a6ea 0dbe dfad 0b3e
00000130: f7e2 533e ed9c debd afde 433e 091c 24be
00000140: cf67 dfbd cf41 75be 5902 9dbd d5f6 2f3e
00000150: 8ea1 893e 53f4 46be 5371 5f3e 88ae 9f3e
00000160: 04b9 723e 24a5 86bd eb8e 203e 0c7b bd3d
00000170: 4054 b73d ead2 703e 8e98 a1be a054 40be
00000180: 2187 6dbe ab21 4ebe 9a9a fc3c 4dfe c0bd
00000190: 9295 38be ecb1 89be d125 1cbe cee1 8abc
000001a0: 3f3f 0c3e d6cb 61be dcc6 89bc 3219 6cbe
000001b0: 594f 623e 146e 9fbe 2a9a 8bbd 4ebc ed3d
000001c0: 5ca8 223d b587 643e 672a a23d 4236 cf3d
000001d0: 48f5 663e 405e 7abe 7ce0 2e3d f088 91be
000001e0: c9a7 953e a5f4 77be d36e 67be d9ce 12be
000001f0: 4a7e dabc 27ad 7ebd 8ef4 70be be83 423e
00000200: 51c2 6abe 723d 543e 5df3 273e 3ea1 053d
00000210: f507 38be b3ea 763e 34eb 953e e98d ab3d
00000220: 5f4a 663e e8b7 013e b565 4e3c 4507 99be
00000230: 3346 99be 34bf 253d f87d 60bb 1135 be3b
00000240: cbdd 973d 8edd 89be 1c5c 1a3e 8e8e 523e
00000250: 95da 2c3d c221 b13d 452f 48be 50fb 293c
00000260: 0704 743d 5f5a cc3d fca7 af3c 3f48 053e
00000270: 695f 63bd a5f2 f8bb 8246 173e 95c0 69be
00000280: 14aa 573e a34c 633d 03c8 3c3e b71c 643d
00000290: cf85 6c3e ef50 9dbe 0828 463d 9242 c53c
000002a0: 498a 083e c642 413e 7571 1cbe 3560 3f3e
000002b0: 7159 663d 2343 8bbe cab9 42be 0e15 c23d
000002c0: a24d c43d 62ae e53d 1554 dcbd c64e a03a
000002d0: e324 853e 1dbe 0ebe 20b8 8c3e 912b bcbd
000002e0: bc1a 16bc 76a3 983e 220d 8fbe 45d4 4bbd
000002f0: deaf 13be 6007 93be ad0f a0be 7a96 82be
00000300: c416 a03e 60b5 56be 0444 b23d fac6 29bd
00000310: b17d 9cbd d19a 233e 823f 12bd 835b 253c
00000320: 10b2 cc3d 7978 4ebe cdad 843e 6783 87be
00000330: bd86 953d 6f2b 753e b84c 1b3e 4811 393e
00000340: c465 023e 9502 90be e754 f7bd ec51 a1be
00000350: a15e 8dbe 39d6 b7bd 3feb 993b 7c93 42be
00000360: 9912 7b3e 04f6 b33d aa01 b8bd 0b6b ebbd
00000370: d688 98be 68eb 30be 794c 913e 2c64 57be
00000380: 31ef 18be 7b01 46be 0f9a 42be 2c83 c4bd
00000390: 29e0 93be 6770 583d 4e81 76bc 8f63 90be
000003a0: c7bd 2b3e d6c6 b9bd c18d 3f3e b502 983e
000003b0: f12f a0bc b590 8fbe 2be9 99bd bb84 86be
000003c0: 05d9 66be bda7 863e cc3e 27be 464e 47be
000003d0: 0a5b 0b3e ef32 013e 1499 303e 0d83 103e
000003e0: 7999 5dbe 95f0 87be b1f4 6b3e 99c5 5cbe
000003f0: 16a5 543e 6e84 29be 943d a33d 005b 9d3e
0.28892162 0.26753145 0.2402876 -0.27761525 -0.092553735 0.05230197 -0.054199953 -0.19148307
0.15696144 -0.096225604 0.21073186 0.019844795 -0.21307996 -0.028182756 0.13712807 -0.280526
-0.07492049 0.005573657 0.31244537 0.15871406 0.26301986 -0.25896055 -0.19498688 0.0075896326
0.01682068 0.27969897 -0.1260209 0.24244837 0.14209178 -0.23726839 -0.14591417 0.08261466
-0.15678136 0.15860263 -0.22459003 -0.20767692 0.043779932 0.28030986 0.10177374 -0.15401924
0.3051868 -0.15711853 0.09282256 0.24726865 0.21914116 -0.14159232 0.28368706 0.04655464
0.31106398 -0.27086586 -0.03718464 0.12522568 -0.1271649 0.31083766 0.24084122 0.045343768
-0.20628366 -0.07265466 -0.068200685 -0.16108963 0.009718399 -0.20607097 -0.20769855 -0.110590495
0.023180401 -0.10206073 -0.06671323 -0.24160877 -0.049339756 -0.22525829 -0.0065195197 0.23675796
0.040277213 -0.1758765 -0.13859043 0.13640545 0.20692049 -0.10869775 0.19127916 -0.1602632
-0.10908472 -0.23950885 -0.076664634 0.17184003 0.2688107 -0.1942914 0.21820574 0.31187844
0.2370339 -0.06574467 0.15679519 0.09251985 0.08951616 0.23517957 -0.31561702 -0.18782282
-0.23196079 -0.20130031 0.030835439 -0.09423504 -0.18025807 -0.26893556 -0.15248801 -0.016953375
0.13696001 -0.22050413 -0.016818456 -0.23056486 0.22100581 -0.3113867 -0.06816514 0.11608182
0.03971134 0.22317393 0.07918244 0.10117771 0.22554505 -0.24450016 0.042694554 -0.28424788
0.29229572 -0.24214418 -0.2260087 -0.14336719 -0.026671547 -0.06217685 -0.2353079 0.18995568
-0.22925688 0.20726565 0.1640143 0.032624476 -0.17971785 0.24112968 0.29281008 0.083766766
0.22489308 0.12667811 0.012597491 -0.2988836 -0.2993637 0.04046555 -0.003425477 0.005804666
0.074153505 -0.26926845 0.150742 0.20562193 0.042200644 0.08649017 -0.19549282 0.010374859
0.059574153 0.099781744 0.021442406 0.13015841 -0.055510912 -0.007597285 0.1477299 -0.2282737
0.21060973 0.05549301 0.18435673 0.055691447 0.23097919 -0.3072581 0.04837802 0.024079595
0.13334002 0.18873128 -0.15277655 0.18689044 0.05623764 -0.2719966 -0.19016185 0.09476672
0.0958512 0.112149015 -0.10758225 0.0012230508 0.26004705 -0.1393971 0.27484226 -0.09187997
-0.009161647 0.2981221 -0.27939707 -0.049762983 -0.14422557 -0.28716564 -0.3126196 -0.2550543
0.3126737 -0.20967627 0.08704379 -0.041449524 -0.07641161 0.15977027 -0.035705097 0.010092619
0.099949 -0.20163144 0.2591385 -0.2646744 0.0730109 0.2394235 0.15165985 0.18072999
0.12734133 -0.2812697 -0.12076741 -0.31507814 -0.2761126 -0.089764066 0.004697233 -0.19001573
0.24518813 0.08787158 -0.089846924 -0.11495026 -0.29791898 -0.172773 0.28378657 -0.21034306
-0.14934994 -0.19336502 -0.19004081 -0.095953315 -0.28881958 0.05284157 -0.015045477 -0.28200957
0.16771613 -0.09071128 0.18706419 0.29689565 -0.01955411 -0.2804009 -0.075151764 -0.2627314
-0.22543724 0.2629985 -0.16332549 -0.19463453 0.13608947 0.12617086 0.17245895 0.14112492
-0.21640576 -0.26550737 0.23042561 -0.21559753 0.207661 -0.16554424 0.079707295 0.3073349

lstm.weight_hh_l1 f4 [40, 10]
00000000: da86 7b3e 98c5 26bc 912a 9c3e 78aa bb3d
00000010: 1df2 2b3d fe78 123e 6525 813d 2f02 1cbe
00000020: cb22 8abe c1d4 8e3e a61e 9bbe bc3f 903d
00000030: bd83 d33d 80b7 93be 54ca 1bbd 31cc 3f3e
00000040: 1790 8cbe dac9 463e c138 73be 5dc8 a3bd
00000050: 6621 1fbe e0ba 0dbe 4f6a 3f3e 3a9b 9cbe
00000060: c8ce b9bd a830 923e 7c0d 6a3e d1e7 2b3e
00000070: 110a 123e 1a27 f6bd a01d 213e d348 33bd
00000080: 4578 983d 8de3 2d3e ab77 4cbe 9c14 05be
00000090: fc04 003e 1f3e 873e f510 a0be 81cb 3ebe
000000a0: e43e 5b3e 47e4 903e 5cd2 123d ef87 22be
000000b0: 7e01 29be ee7c 913d 8124 363e d49e a03e
000000c0: f006 f8bd 0a15 95be 9563 8fbe ca18 4abe
000000d0: 1a0a 93be 9732 72be 1789 8c3e 8de1 16be
000000e0: 3276 57be aead 75be 7bc4 20be 48d1 123e
000000f0: f201 903e 3f22 473e e77f 8fbe 1b98 84bd
00000100: 8bc7 25bd 0c68 173e 4600 8abd 4633 323e
00000110: 689c 603e 033f 03be 8a65 7bbe b7f7 5b3e
00000120: fa4e a4bd 47ea 9f3e 6cb6 973d 0897 1bbe
00000130: 2f06 2f3e 0292 5ebe dd21 8f3c f6bc 453e
00000140: e2f8 703d a7ba 8cbe 5cf1 173e ad88 a53d
00000150: 5103 993e f643 3b3e f21f 7c3e 33b1 973e
00000160: 7677 5c3e 525c 723e 9bcf 9b3d cdf7 253e
00000170: 9e34 b53d eba0 983e cef1 9c3d d557 853e
00000180: 832a 413e 4044 d5bd dfd1 7fbe 339e 473e
00000190: 47e0 94be a8a3 8cbd 7b57 653c 14b6 943e
000001a0: 4067 8c3e e97d 0bbe b634 dbbd 1823 403d
000001b0: 9aad 0e3e 598c 4d3e 14bd 133d 6fab fbbd
000001c0: d220 923e 0fbb 833e 5f22 863e fd0b 01be
000001d0: 193a 863d a454 6ebe c6b7 883b bbb4 79be
000001e0: daba 4e3e 748d 07bd 1427 74be da6e f43d
000001f0: 3cbd 213e 9f6c 123e 6ae8 54be e2b7 f43d
00000200: ed6d 023e 1006 80be eef2 85be 6c17 4b3e
00000210: be16 7dbe a909 873e 1e5e 84be 0c5f f83c
00000220: 2def d93d 262a 8dbe 9bbd acbc cb47 9bbe
00000230: c3c6 3dbe bd1f 913e a578 42be 13f9 08bd
00000240: 9390 8ebe 122c 9d3d 0739 493d 1e43 b4bd
00000250: 50c6 933e 8d72 5c3e ba7d 3f3e 84fc 1fbe
00000260: 5002 58be 55de 8a3e ff09 da3b 3dc6 7f3e
00000270: eedd 8d3e 38ff 553d 1398 1f3d 9404 77be
00000280: 0917 8c3e 6b29 8fbe a5c2 dcbc 71a5 0d3e
00000290: e7b2 80be bf2b 663e c809 a4ba 470f 3ebc
000002a0: fd18 84be 9af5 603e 7ea3 cb3d 3aba 39bd
000002b0: c879 863d 10b3 4cbe 4f90 a1be 88bc aebd
000002c0: 372c 203e 7d88 173e 146d 09be 84da 5bbe
000002d0: 9e5c 5b3e 4f9d 553d 353b 8abe 3a8a 1d3d
000002e0: a51e 263e 3d67 81be 9c8a b8bd fce8 45be
000002f0: 5a6f 943c cd6f 5a3e d302 c13d 74a2 e3bd
00000300: ed1b 463e 11b1 613d 4454 9e3e 3a37 4abe
00000310: db0e 5dbb 15f3 7dbe 7ce8 41bd ed80 333e
00000320: f30e 8f3e 5583 1cbe e760 f1bd 4789 903d
00000330: 289b df3c 242e 6d3d 5773 45be 24aa 16bc
00000340: 0cef 0cbe 7582 8c3e bee5 453e e9f6 3dbe
00000350: 8327 18be e539 55bd 7652 b23d 909e 4a3e
00000360: 1c0d a53d 1a29 0e3e fe36 7b3e 004e 8d3e
00000370: ea02 923c 4316 1fbd 8c4f 4a3d f2db 703d
00000380: 5d4a 1ebe e23e fdbd 4338 8b3e efca 7a3d
00000390: f3e7 4cbe e031 3bbe d390 3bbe b951 7e3d
000003a0: 1654 bcba dcd6 3bbe 80de 5f3e 289f 9abd
000003b0: bacd 8d3e f534 d63d 9ceb 0cbe a46c 57be
000003c0: 19e6 09be 4508 9cbd 466d 173e b7d0 ef3d
000003d0: 927a 8fbe 85b0 dfbd 36ae 0cbe b837 75be
000003e0: 9d28 943d dc4a b0bd 95cb f33c 052f 24bd
000003f0: 365a fc3d 0be0 7cbe 0700 e63c 2799 2ebe
0.2456316 -0.010178946 0.30501226 0.09163374 0.041978944 0.14303967 0.063059606 -0.15235208
-0.2697967 0.27896693 -0.3029682 0.07043406 0.103278615 -0.28850937 -0.038034752 0.18730237
-0.27453682 0.19412938 -0.23752119 -0.07997201 -0.15540084 -0.13840818 0.18692897 -0.30587178
-0.090726435 0.28552747 0.22856706 0.1678765 0.14261653 -0.12019177 0.15733957 -0.043770622
0.074448146 0.16981335 -0.19967525 -0.12996143 0.12501901 0.26414582 -0.31262937 -0.18632318
0.2141071 0.28299162 0.035845146 -0.15872167 -0.16504475 0.071039066 0.17787363 0.31371176
-0.12110698 -0.29117614 -0.28005663 -0.19736019 -0.28718644 -0.23652111 0.2744834 -0.14734478
-0.21041182 -0.23992035 -0.15699951 0.14337647 0.28126484 0.19446658 -0.2802727 -0.06474324
-0.040473502 0.14785784 -0.067383334 0.17402372 0.21934664 -0.12817006 -0.24550453 0.21481214
-0.08022876 0.31233427 0.07407841 -0.15194333 0.17092203 -0.21735385 0.017472202 0.19310364
0.058831103 -0.27486154 0.14838165 0.080827095 0.29885343 0.18287644 0.24621561 0.2962738
0.21529946 0.2366803 0.07607957 0.1620781 0.088479266 0.2981027 0.07663308 0.26043573
0.18863873 -0.10413408 -0.24982403 0.19493942 -0.2907736 -0.068671525 0.013997908 0.29045165
0.27422523 -0.1362225 -0.10703413 0.046908468 0.13933411 0.2007307 0.03606899 -0.12288558
0.28540665 0.25728652 0.26198098 -0.1260223 0.0655405 -0.23274475 0.004172298 -0.2438535
0.20188466 -0.033093885 -0.23843032 0.11935206 0.15794843 0.14299248 -0.20791784 0.11949135
0.12737246 -0.25004625 -0.26161903 0.19833153 -0.24715707 0.26374558 -0.25853056 0.03031876
0.10641322 -0.2757122 -0.021086505 -0.3032821 -0.18532853 0.28344527 -0.18991335 -0.03344066
-0.27844676 0.07674421 0.04912665 -0.08801864 0.28862238 0.21528073 0.18700305 -0.15623671
-0.21094632 0.2712275 0.0066540237 0.24977966 0.2770838 0.05224535 0.03896339 -0.2412284
0.27361324 -0.27961287 -0.026948282 0.13832642 -0.25136492 0.22477625 -0.0012515122 -0.011600322
-0.25800315 0.2196869 0.09943293 -0.045343615 0.06566197 -0.19990182 -0.3155541 -0.08532053
0.15641867 0.1479816 -0.13420516 -0.21470076 0.2142205 0.052151974 -0.26998296 0.0384619
0.16222627 -0.25274077 -0.09010813 -0.19327158 0.018119503 0.21331711 0.09424367 -0.1111497
0.1934659 0.055100504 0.30923665 -0.1974763 -0.0033730778 -0.2479976 -0.047340855 0.1752965
0.27941093 -0.15284474 -0.11786061 0.070574336 0.027295664 0.05790533 -0.1928228 -0.009195838
-0.13763064 0.2744328 0.19325921 -0.1855122 -0.14858823 -0.052057166 0.087071344 0.1978705
0.08059141 0.13882867 0.24532697 0.27598572 0.017823655 -0.03883959 0.049392268 0.058803506
-0.15458055 -0.123655096 0.27191362 0.06122869 -0.20010357 -0.18280745 -0.18316965 0.062089656
-0.0014368321 -0.18343681 0.21862221 -0.07549888 0.2769602 0.104593195 -0.13761753 -0.21037537
-0.13466682 -0.07618765 0.14787778 0.11709731 -0.280232 -0.1092234 -0.13738331 -0.23947036
0.07234309 -0.08608028 0.029760161 -0.040083904 0.12321894 -0.2469484 0.028076185 -0.1705061

lstm.bias_ih_l1 f4 [40]
00000000: bbf7 1a3e b2f6 8c3e 9f9c 97be a3b7 1d3e
00000010: 3740 853e 20c0 c43c 5298 c43d e5c2 49be
00000020: 7624 25be fb4e 0bbe 31dc 393e fe43 603e
00000030: 234c 453d a1a2 93be d9b6 93be 8747 3ebe
00000040: ce0a b0bc 2371 08bd efbd 7ebe 01c3 583e
00000050: f27a 703d ce99 68be 8631 903e 1aae 0a3d
00000060: 7aa9 0abd 3a3b 94be 029e f03d 4385 edbd
00000070: 51f4 50be 88b4 dfbd 63f1 1f3e e52f 6cbd
00000080: 1a23 8b3e abc5 e23d 6b1d 04be 5dc1 903e
00000090: ee7d 96bd eceb 7cbe 800c 993d 506b 1b3e
0.15133564 0.27531964 -0.2961168 0.15402083 0.26025555 0.024017394 0.09599365 -0.19703253
-0.1612719 -0.13604347 0.18150403 0.21900937 0.048168313 -0.28835014 -0.2885044 -0.18581973
-0.021489527 -0.03331102 -0.24877141 0.21168138 0.058711 -0.22714922 0.28162783 0.033857442
-0.03385303 -0.28951436 0.117488876 -0.11597683 -0.204057 -0.109231055 0.15619425 -0.057662863
0.27175218 0.110728584 -0.12901847 0.28272524 -0.07348238 -0.24699372 0.07473087 0.15177655

lstm.bias_hh_l1 f4 [40]
00000000: 93f2 d9bd 9943 9b3e d65f 87be 32b4 6c3e
00000010: 80a4 7d3e 5583 273c a7ed 02be 2553 823e
00000020: 7c68 3b3e 68e2 a13e 1403 d7bc f3a4 173e
00000030: 1155 433e 1308 8d3e 789d 66be 4652 cdbd
00000040: de3b 263e a17c 833d b83f 8abd db6c d7ba
00000050: 391e 9abe 30d7 80bd f5d9 863e a7b2 40be
00000060: 5e52 3cbe b52c 433e e115 9e3c 7201 43be
00000070: 9aba 6c3d 9a10 783e a768 58be bf6c 903e
00000080: f2a3 debc e804 5d3e 30b1 533e 5a37 6bbe
00000090: 840b 333e 297e c5bd 3b22 4ebe 73b7 793e
-0.106419705 0.3032501 -0.26440305 0.23115614 0.24769783 0.010224183 -0.1278597 0.2545406
0.18301576 0.31618047 -0.026246585 0.14809017 0.19075419 0.27545223 -0.22521007 -0.10025458
0.16233775 0.064202555 -0.06750435 -0.001643564 -0.30101183 -0.06291044 0.26338163 -0.1881815
-0.18390796 0.19060023 0.019297542 -0.1904352 0.057795145 0.24225083 -0.21133672 0.28207967
-0.027177785 0.21583903 0.2067306 -0.22970334 0.17484862 -0.09643204 -0.20130245 0.24386387

fc.weight f4 [1, 7200]
00000000: 2e26 25bc 09a9 22bc 16c7 053c b616 e43b
00000010: 96c2 2abc 94c2 37bc 2a1e a4bb b4f1 f03b
00000020: cc88 a13b c06e bd3b b3e4 38bc afd0 053c
00000030: 2b27 e93b 1274 71b8 128f 1dbb b55c 4d3b
00000040: 1805 1fbc 5366 023a b567 683b 8843 15bb
00000050: 6b73 adbb 653b 0a3c 2e01 8f3a d58f 14bb
00000060: bcee 9b3b eae8 c43b 2b79 bdbb 7598 b4bb
00000070: 7fa0 ecbb 34b4 d83b a1d5 32bc 08ec 0a3c
00000080: bc74 14bc 22e6 1bbc 7ddc 02bc 5fbc 09bc
00000090: d928 353c 976a e03b ab83 15bb 4698 9d3b
000000a0: bf16 963b 947f 1b3c d7ec 083c 48a1 cbbb
000000b0: 666e d63b 7f66 0e3c 6ac2 46bb 6f55 313c
000000c0: 4bd5 78bb baca e8bb d612 34b9 ec3c 00bc
000000d0: 9d6e 5bbb 34ec 193c b1cb 843b 9e9a ee3b
000000e0: 7189 ab3b a0c7 1dbc 251b 0a3c e467 503b
000000f0: bb4f 2bbc 80f7 db3b d781 e63b e64d bcbb
00000100: 286f fdbb 8107 b33b cd95 45bb 626c 6c3b
00000110: 0fec 2abc bea0 23bc 87f7 aebb f070 3f3b
00000120: e0bb 7bbb e894 323b 4cd7 cdba 8564 31bb
00000130: b6d2 7c3b 8372 aa3b 35d1 a03b 1dc0 a8bb
00000140: 7949 2b3c 19bd 503b 5c6f 7dbb ec11 f83b
00000150: 0142 013c d76c 313c 6bda a4bb 3874 ff3b
00000160: 0f48 e9bb 6b13 49bb 166f bcbb 40bb 113c
00000170: acc2 abbb 340b 8e3b d44c 40bc 954b a53a
00000180: 6a40 b63a c132 f5bb f995 30bc 9c52 bd3b
00000190: 4258 0db8 67c2 883b ed3d b33b 170a ce3b
000001a0: 353b bcbb 6b09 00bb 50e6 463b cd8b ba3b
000001b0: dba3 3e3c f59a 1fbc d528 e5bb b3a4 6a3b
000001c0: d734 a1bb e554 e2bb 5167 1f3c f1dc adbb
000001d0: 5061 28bc 8644 e3bb bf81 173c dd7e 463a
000001e0: c9f9 023c d63b 383b 0fd1 443b e0cc aeba
000001f0: 5f2a 98bb 7e02 18bb edcc 343b f2e4 c63b
00000200: 7e40 edbb 3404 e5ba 1b34 0fbc 2fe8 8b38
00000210: c010 063b 54de 863b 6388 8dbb 3864 a9bb
00000220: 8988 923b ffe0 a4ba 2656 e139 84a2 90bb
00000230: 07cd 003c bda7 32bb e81b 23bb e925 febb
00000240: 09e5 0abc 4cf6 b5bb 3071 733a aeea 203c
00000250: a896 a4ba 4a4e f4bb 7178 973b 1df4 39bc
00000260: 2476 d6bb 90dd 03bb 85d7 e9bb e843 1c3c
00000270: a039 03bc d949 edba 6a2c aa3b 80a2 e9bb
00000280: dacb 85bb c0c1 d43a 2d52 013b e613 cd3b
00000290: c2de 22bc 0753 35bc 1d8f e6bb a981 933b
000002a0: 03f6 fe3a 9769 35bc 9cb9 8b39 9daf ed3b
000002b0: d7cc d73b 92c9 a93b cd5b 823b ffc7 73bb
000002c0: 1ee1 01bc 4d19 373c 44d0 3f3c f3f9 de3a
000002d0: 2cf7 953b d183 2ebc 4cc8 55bb 08cb 43bb
000002e0: 5f4f 333c b297 2a3b 6ece 1d3c 4cd2 f3bb
000002f0: a469 f43b ef1e 1b3c 40c2 ba3b e78e 203c
00000300: fbcc 0ebc 4dbc 2bbc 7b00 fb3b beb1 f4b8
00000310: b2cd 37bc e0a8 a43b 1408 29bc 7a32 c53b
00000320: 3be0 d3ba a68b 2dbc c8ef 543b 1956 cf3b
00000330: 48b0 903a ab2b 05bc 491b 333c 89f1 263b
00000340: c763 8fbb ba34 2ebc 2ec1 c2bb 3a9a 06bc
00000350: ef11 3c3c 27c5 5e3b a27c dd3b ebc8 e3bb
00000360: 887a eaba 16d9 0f3c fc3a 2fbc 802f 1bbb
00000370: 2a1e 263c f1f9 bebb 817d 7c3b 7262 2f3c
00000380: 6f45 d6bb c164 d739 56b7 16bc 5f67 923b
00000390: 5dcf abba e025 f1bb dea5 bbba 817c df3b
000003a0: d803 01bc b59b cebb 29ed 3d3c 8cec 1cbc
000003b0: 3c0a 263c ee8a 53bb 45e5 923b 4ecf 2c3c
000003c0: 3274 85ba 0e1d 92bb 68da 1a3c 93f0 a8bb
000003d0: 99f5 df3b 270e 87bb 94d5 1d3c 7e76 20bc
000003e0: 0a10 2f3c ed49 3e3c 73d3 9cb9 9311 cb3b
000003f0: 797c f7bb ac08 e23a ac8e b83b 6cac 59bb
-0.0100799035 -0.009927996 0.008165142 0.006960715 -0.010422369 -0.011215825 -0.0050084786 0.007353032
0.0049296375 0.0057810247 -0.011284995 0.00816743 0.007115265 -5.7566976e-05 -0.0024041575 0.0031335775
-0.009705804 0.0004974354 0.0035462205 -0.0022775847 -0.0052933 0.008437012 0.0010910386 -0.0022668738
0.004758684 0.006009211 -0.0057822666 -0.0055113384 -0.007221281 0.0066132788 -0.010915191 0.008479126
-0.009061035 -0.009515317 -0.007987139 -0.008406728 0.011057102 0.006848644 -0.0022814076 0.004809412
0.0045803483 0.009490866 0.008357248 -0.0062142946 0.0065439222 0.008691429 -0.0030328282 0.010823592
-0.003796893 -0.007104245 -0.00017173155 -0.007827025 -0.0033482679 0.009394694 0.004052602 0.0072816154
0.00523489 -0.009630114 0.008429323 0.0031800205 -0.010456021 0.006712854 0.007034521 -0.005746591
-0.007734198 0.005463541 -0.0030149103 0.0036075343 -0.010432257 -0.009987054 -0.005339566 0.0029211603
-0.0038411543 0.00272494 -0.0015704422 -0.002706797 0.0038577742 0.005201639 0.004907752 -0.005149855
0.010454529 0.0031850992 -0.0038671112 0.007570496 0.007889272 0.010829172 -0.0050309203 0.007795837
-0.0071191858 -0.003068174 -0.005750547 0.008894742 -0.0052417126 0.0043348316 -0.011737067 0.0012611026
0.0013904695 -0.007482857 -0.010777944 0.00577767 -3.3699216e-05 0.004173565 0.0054700286 0.006287824
-0.0057443627 -0.0019536864 0.003034968 0.005692935 0.011635746 -0.0097415345 -0.006993393 0.0035803735
-0.004919629 -0.006907093 0.009729222 -0.0053058793 -0.010277107 -0.006935659 0.0092472425 0.00075720047
0.007994124 0.0028111837 0.0030031835 -0.0013336204 -0.004643723 -0.0023194845 0.0027587966 0.006069773
-0.007240354 -0.0017472566 -0.00874045 6.671284e-05 0.002045676 0.004115859 -0.004319237 -0.0051694177
0.0044718427 -0.0012579261 0.0004297953 -0.0044139046 0.007861382 -0.0027260624 -0.002488846 -0.007755984
-0.008477458 -0.0055530425 0.00092865806 0.009821577 -0.0012557106 -0.007455622 0.004622512 -0.011349705
-0.006544845 -0.0020121075 -0.0071362876 0.0095376745 -0.008009344 -0.0018103673 0.005193283 -0.007129967
-0.004083139 0.0016232058 0.0019732818 0.0062584756 -0.009940805 -0.011067159 -0.0070361034 0.0045015407
0.0019451979 -0.011072538 0.00026650436 0.0072536008 0.006585698 0.0051814998 0.0039782287 -0.0037198064
-0.007927207 0.011175466 0.011707369 0.0017011747 0.0045765843 -0.010651545 -0.0032620607 -0.0029875655
0.0109442165 0.002603036 0.009631736 -0.007440841 0.0074588824 0.009467824 0.005699426 0.009799696
-0.008715863 -0.010481906 0.0076599694 -0.00011667934 -0.011218475 0.0050250143 -0.010316867 0.00601798
-0.0016164848 -0.010592377 0.0032491554 0.0063274023 0.0011038864 -0.008128087 0.010931798 0.0025473556
-0.004375908 -0.010632688 -0.005943439 -0.008215481 0.011478885 0.0033992024 0.006759242 -0.0069514415
-0.00178893 0.008779785 -0.010695215 -0.0023679435 0.010139028 -0.005828135 0.0038526955 0.010704624
-0.006539039 0.00041083063 -0.009198984 0.004467889 -0.0013108064 -0.0073592514 -0.00143164 0.006820262
-0.007874452 -0.006305183 0.011592188 -0.009577882 0.010134276 -0.0032278853 0.0044828975 0.010547472
-0.0010181724 -0.00445903 0.009451486 -0.005155632 0.0068346974 -0.00412156 0.0096334405 -0.009793876
0.010684976 0.011614305 -0.0002991218 0.0061971634 -0.00755268 0.0017245016 0.005632242 -0.0033214344
