DeepLearning/timeSerise/.scale_batch_size_18c6bc93-0620-49b6-a6f1-89d3437bc0c7.ckpt (torch, 47861 bytes, 9 tensors)

lstm.weight_ih_l0 f4 [40, 50]
00000000: 85ae 65bd aa48 6d3c d146 433e 86d4 21bc
00000010: d96a c83c e29e 6e3e 0e77 57be bb47 cfbc
00000020: 1961 0dbd 14d2 89be f3d1 fabd 1799 273e
00000030: 43c0 74bc d305 23be fcc8 86be f13f a53d
00000040: c558 663e 1e7e 4b3e 948d 37be 83d5 04bd
00000050: 0171 dd3d cbe6 4cbd fdbd fabd c2df 543e
00000060: 0989 81be 6f7e 9bbe c948 a1be f8b1 46be
00000070: 80b0 1abe e800 99be 2854 9c3e f89a 89be
00000080: 3372 783e 701a 263e 33b9 763e df60 8c3e
00000090: c47c 74be c04c 3a3e d2f9 2cbe c044 21be
000000a0: d9b0 ee3c 2c19 33be 53cc 9bbd 3636 3f3e
000000b0: 7d26 6c3d 18b8 7b3e 1d75 2ebe 76c1 a9bd
000000c0: 5d67 67be 2288 1f3e 02a9 2bbe 3270 f7bd
000000d0: c77a 0e3e 7536 efbc b92f 6d3d d566 54be
000000e0: dd67 83be 76cf 2f3e a1c1 443d 6af3 973e
000000f0: b550 d3bd f6bf 233e 4c58 a9bd 5f73 853e
00000100: d282 433e 7cc5 043e 335d c0bb 7122 603e
00000110: 2741 7e3e eb86 99be 6ce2 0e3d 0f42 6e3e
00000120: 94c1 7cbc 730d 1e3e 6489 4e3e 40cb 3abd
00000130: 7b40 993a 6f79 96be dc3a eb3d 9053 683e
00000140: 145d 9d3e a14d 9abd 4f3e 2e3e 45f5 b73c
00000150: 9f75 6a3e 68d9 84bd fc36 0f3e ddad 07be
00000160: 1359 cabd 0224 713e 9d26 9f3e 7699 0b3e
00000170: b9c5 8ebd 6999 debd a73f d33d ad0b 0dbe
00000180: 993b 46bb bad7 68be d547 e6bd 8093 31be
00000190: cf95 2fbe 9436 9c3e 32c1 bb3d 1426 30be
000001a0: 6889 4cbe fcda 1dbd 6991 183d 44c8 ad3d
000001b0: 11bb f13d ed70 813e bccb c53d ff2a 46bc
000001c0: 46ba 843e e072 543e 2c59 5a3d 9041 203e
000001d0: 61ce 65bc 8999 a23d a806 c43c d95e 783d
000001e0: 374f 3bbe 5e97 f03b 932e 903e fef8 01be
000001f0: 0efb d33d 0e3e 8d3e 7732 cfbc 7063 03be
00000200: 5f03 9a3e c342 563e fd39 683e e6c8 ca3b
00000210: 8f98 463e b877 9fbe 4ed6 383e 9500 293e
00000220: 3c2a 8c3e 52a4 833e 7c66 e63c a0aa 293e
00000230: 4527 893e 8e84 42be 63fc 763e bf12 0fbe
00000240: a40c 38be 02f0 6bbe 12b2 e7bd 3e17 b4bd
00000250: e654 7a3d 1876 cb3d 09e4 903d db9c 593e
00000260: c114 9f3e 3a10 de3d 67c7 4e3e 9155 ecbd
00000270: 4c33 6e3e a876 9abe 1102 1cbe 730d 613e
00000280: dea0 373e d91f 9cbd 4f92 25be c823 bfbd
00000290: e8bd c63d 24b7 883e 78a3 903e 18bf 303e
000002a0: 4f74 84be 1188 763e 10e2 833e 189f 013e
000002b0: 0daa 94bd 1340 9dbe 2835 333e 7cf5 7fbe
000002c0: 5936 3d3e fb23 e6bd 3343 5ebe 03c4 4e3e
000002d0: 397c ecbd 9e64 8d3e 8732 58be 0c8f 16be
000002e0: efb8 09be d02f d5bd f5b5 663e 9b4f 123e
000002f0: 46f6 9fbe c4fb 36be 11fa 89bd 8ae9 053d
00000300: 27a2 bfbd a4b3 3dbe 8df9 2a3e 5469 6cbe
00000310: 18b7 f13d a4c5 1c3e 79b4 2abe 652f 91bd
00000320: ffc2 87be 07a9 483d 4aee 653e 8290 dd3b
00000330: 65bc 4d3e 4709 053e a789 3a3e 76ed 803d
00000340: b826 733e e849 963e 876a 14be 5406 843e
00000350: 6528 1f3e 5e1e 1fbe 1d90 93be b400 753e
00000360: cab3 a03e e189 183e 1694 363e dd60 d43d
00000370: b785 963d e647 71be 3427 a6bd 8a51 a33d
00000380: 883f 3cbc 43d4 97be 4587 303e 1676 723e
00000390: 3b27 943d 5552 40bd 984f b5bd b8df 2f3d
000003a0: 729c 3ebe 0c37 993e 1e92 6bbe d074 273e
000003b0: 8436 ccbd 8b58 5b3e fbf3 04be 2a48 3a3e
000003c0: 95ff 23bd d87e 5c3e a16d e73d 4ebd 89be
000003d0: 42b2 353d 921d 8c3e f875 8d3e 1336 513d
000003e0: 7cf2 2a3d 6958 883e e20c 9abd c1b5 433e
000003f0: fba5 b13d bcfe 933e ff61 64be 3788 143d
-0.056074638 0.0144826565 0.19069983 -0.00987733 0.024465011 0.23302796 -0.2104151 -0.025302758
-0.034516428 -0.2691809 -0.12247076 0.16366993 -0.014938417 -0.1592019 -0.26325214 0.080688365
0.224948 0.19872329 -0.17925102 -0.032430183 0.108125694 -0.05002479 -0.12243269 0.20788482
-0.25299862 -0.303699 -0.31500843 -0.19403827 -0.15106392 -0.29883504 0.30532956 -0.26876044
0.24262314 0.16221023 0.24094085 0.27417657 -0.2387572 0.1819334 -0.16892174 -0.15748882
0.029137062 -0.17490071 -0.07607331 0.18673024 0.057653893 0.24581945 -0.17036863 -0.08288853
-0.22598024 0.15579274 -0.1676369 -0.120819464 0.13914023 -0.029200772 0.05790684 -0.20742352
-0.2566518 0.17168984 0.04803622 0.29677898 -0.10318128 0.15991196 -0.082687944 0.26064584
0.19092873 0.1296596 -0.005870485 0.21888138 0.24829541 -0.29985747 0.0348839 0.23267387
-0.015427012 0.15434818 0.20169598 -0.04560399 0.001169219 -0.2938952 0.11485836 0.22688127
0.30735075 -0.07534338 0.17015956 0.02245582 0.22896431 -0.064867795 0.13985819 -0.13249917
-0.09880271 0.23548892 0.31084147 0.1363276 -0.06971306 -0.108691044 0.10314875 -0.13773985
-0.0030247925 -0.22738543 -0.112441696 -0.17341423 -0.17146991 0.3051039 0.091677085 -0.17202026
-0.19974291 -0.038538918 0.03724805 0.08485463 0.11803258 0.25281468 0.09658 -0.012095212
0.25923365 0.20746946 0.053307697 0.1565001 -0.014026255 0.07939441 0.023928955 0.06063733
-0.18291937 0.007342263 0.28160533 -0.12692639 0.10350619 0.27586406 -0.025292618 -0.12830901
0.30080697 0.20923905 0.22678371 0.0061884997 0.19394134 -0.31146026 0.18050501 0.16504128
0.27375972 0.25711304 0.02812504 0.16568995 0.26787773 -0.18995878 0.24119715 -0.13971995
-0.17973572 -0.23040774 -0.11313261 -0.087934956 0.06111612 0.09934634 0.07074744 0.21251242
0.3107052 0.10842939 0.20193253 -0.11539758 0.23261756 -0.30168653 -0.15235163 0.21977787
0.1793246 -0.07623262 -0.16169094 -0.093329966 0.097041905 0.26702225 0.28249717 0.17260396
-0.25869986 0.24075343 0.2575841 0.12658346 -0.07258997 -0.30712947 0.17500746 -0.24995989
0.18477763 -0.112373315 -0.21705322 0.2019196 -0.11547131 0.27615827 -0.21113025 -0.14703006
-0.13449453 -0.1040951 0.22530349 0.1428818 -0.3124258 -0.17869478 -0.067371495 0.032693423
-0.093571 -0.18525559 0.16696759 -0.23087054 0.118025005 0.15309769 -0.16670407 -0.07089118
-0.26515958 0.048989322 0.22454181 0.0067616114 0.20091398 0.1299182 0.18216573 0.06295292
0.23745239 0.2935326 -0.14493762 0.25786078 0.15542753 -0.15538928 -0.28820887 0.2392605
0.31387168 0.14896347 0.17829928 0.10370038 0.07349723 -0.23562583 -0.08112946 0.07974537
-0.011489756 -0.2965413 0.17239101 0.23677859 0.07234045 -0.046953518 -0.08853072 0.042937964
-0.18614367 0.2992481 -0.23004958 0.16353154 -0.099713355 0.21420495 -0.12983696 0.18191591
-0.040038664 0.21532762 0.11300207 -0.2690224 0.044359453 0.2736631 0.27629066 0.05107696
0.041735157 0.26629952 -0.075219885 0.19112302 0.086742364 0.28905284 -0.22303008 0.036262717

lstm.weight_hh_l0 f4 [40, 10]
00000000: ff19 98bc 69bd 0cbe ac27 9d3e 14af 8ebe
00000010: 1fad 923c 2a74 343e 3637 17be b28f 663e
00000020: 0632 bb3c 5d43 5f3e 4ee1 263e 29db adbb
00000030: 968b c3bd 9358 56be bac6 c13c cfdc e23c
00000040: f0f1 8e3e da28 a7bd 6810 993e f997 98bd
00000050: 43e3 983e 5597 4fbe 02a9 92be 00be 15be
00000060: 305e 14be 88bc 1eba 06bf 333e b080 85be
00000070: 16e4 3f3c c02c 843e 0b93 953e 705c 7b3e
00000080: 1d41 363d 980e 8ebe 40e3 3e3e c55d 2cbe
00000090: 0668 42be f1b1 d23d 952c 9dbd 98f7 2fbe
000000a0: 7cd2 a0be 263a 753e b339 923c 2176 833e
000000b0: 2590 52be 2328 e43d 218e 9fbe f951 60bd
000000c0: 5d67 8cbe f24e 493e 094c ae3d e52f 853e
000000d0: 96b6 653d 09c4 80be 156b 9d3e 5c9f 633e
000000e0: 5be7 803d 6535 43be d696 20be c1c6 983d
000000f0: 12e6 9d3e e341 5a3d c832 ec3d 1ba6 963e
00000100: 53f0 953e 1b74 4ebe cad3 85be 2f64 973d
00000110: 46bd 823e 04ad ce3b e87f e33d 4b7e 87bd
00000120: 0829 46be 199c 56be 22e8 e5bd 0ee6 bebd
00000130: a610 82be 451b 20be c9dc 61bd bac6 87bc
00000140: 1123 45be c325 933d 2c46 3c3e df7f 8dbd
00000150: 330b 653e 42ba 313d 5453 2e3c a9fd 5fbe
00000160: 86dc 233e 38ab 16be 9753 85be 753d c63d
00000170: 2e07 92bc 4204 afbd a1b8 a63c a113 30be
00000180: 55ea 02be 2d9b 51be 0ee9 5c3e c852 693e
00000190: fe08 9fbe d9de 353a 0c47 72be d03d a93c
000001a0: 4976 023e c1bd d73d 9c75 983e 05bb 163e
000001b0: 030f 96be 2972 a83c 73f0 64be d012 973c
000001c0: 00bc f5bd 47e2 823e 52c9 d8bd e84c 58be
000001d0: edd7 653e 795d dc3d e7f3 99bd 505d 623e
000001e0: 47b1 0ebe 5629 4cbe 7cd6 16be 9dc1 8d3e
000001f0: a61b 87bd fa12 d23d d04a 85be 1114 83be
00000200: 24a1 8bbd 7ac1 933e 0cb6 4e3e 5b11 953e
00000210: d5aa 21be a409 893e 2603 ff3d 9b3b a13e
00000220: 8f12 14be d71b 6d3d 5853 a43d 1a3c 44bd
00000230: 2014 c23b e99a 1fbe 9aca 3f3e 28ad e5bd
00000240: 9b71 cb3c c9e9 57be 1519 eb3d e31c 93be
00000250: 97a3 703e 8599 c3bd 6d8b 34be 39fa 1abe
00000260: 0abf ce3c e6f8 023e 2776 e53c 55fb 903e
00000270: 345c 383c bdbb 98be 958e f5bd 4e37 2abe
00000280: cbcb 4fbe 4608 383e 8ec5 e33b 9d84 00be
00000290: e9a0 ac3c 579d 8d3d 5507 5b3d 6055 163e
000002a0: 5d69 75be cf9d 363d db13 283e 9b8b 94be
000002b0: 22e8 4dbe 0d2c 32be 40a2 32bd ecaa 8ebd
000002c0: 89ea 9b3e deb3 433e 09dc 3b3d 0571 1fbe
000002d0: 64b3 7d3e b151 6fbd d9e0 88be ce66 433b
000002e0: 3e29 e73d 6020 1b3e 0089 f4bd 880b 12be
000002f0: c9df da3d 03e3 9b3e 062d 80be 06b9 433b
00000300: 512a 9b3b b93c a23c 2553 473c ee5b d2bd
00000310: b91a 8cbe 1afa 67be 709d 283e e6ed 64be
00000320: 4efb 58ba dd18 de3d 0601 4c3e 323b 55bd
00000330: 2743 96be 3384 e13c ccd4 87be 433e 1bbe
00000340: db89 87be 1a60 2c3e 50e0 92bd fc09 133e
00000350: 1c46 83be f794 75be 4958 04bd 4cf1 cdbd
00000360: 1a16 81be de78 173e 0556 083e 3f1d c73d
00000370: 2199 b73d 7c11 5dbe d83c 66be 176b 7cbd
00000380: 44cb 11be db87 3abe 76a4 383b 9eb5 d53c
00000390: 2be4 1cbe f9d3 3b3e cd23 4c3b ec0a 723e
000003a0: d77b 003d 952c 6dbe 420f 01be b340 0e3e
000003b0: 1e42 d2bd ea4f 123c cf99 9f3e 1824 6a3e
000003c0: 2001 e1bd e42c 08be 5cd1 083e e869 63be
000003d0: e008 7bbe 0aeb 2ebd 4073 a5bd f30a 763e
000003e0: 5e09 f13d cd9b 213e 1f74 4fbd 854a e6bd
000003f0: 487c 95be d36d 3a3e c62a abbd 95c4 763d
-0.018567083 -0.13744129 0.3069433 -0.2786795 0.017904816 0.17622438 -0.14767155 0.22515753
0.022851001 0.21803041 0.16296884 -0.005305667 -0.09548108 -0.20932226 0.02365433 0.02769318
0.2791896 -0.08162089 0.2989533 -0.074508615 0.29860887 -0.20272572 -0.28644568 -0.1462326
-0.14489055 -0.0006055315 0.17553338 -0.26074743 0.011712095 0.25815392 0.29213747 0.24546981
0.04449569 -0.2774551 0.18641376 -0.16832645 -0.18984994 0.10287846 -0.07674519 -0.17184293
-0.31410587 0.23947963 0.017849779 0.25676063 -0.205628 0.11140468 -0.31163123 -0.054765675
-0.2742261 0.19659021 0.08510596 0.26013103 0.05608233 -0.25149563 0.3074576 0.2222876
0.062941276 -0.19063337 -0.1568254 0.07459784 0.30839592 0.05328549 0.11533123 0.29423603
0.29284915 -0.20161478 -0.26138145 0.073921554 0.2553503 0.006307246 0.111083806 -0.06615885
-0.1935159 -0.20957984 -0.112259164 -0.09321223 -0.25403327 -0.15635403 -0.055142198 -0.016574252
-0.19251658 0.07184937 0.18386143 -0.06909155 0.22367553 0.04339052 0.010639984 -0.21874107
0.16002092 -0.14713752 -0.26040336 0.09679691 -0.01782569 -0.08545734 0.02035171 -0.17194988
-0.12784703 -0.20469351 0.21573278 0.22785485 -0.31061548 0.0006937809 -0.23659915 0.020659357
0.12740435 0.105342396 0.2977723 0.1471978 -0.29308328 0.020562248 -0.22357349 0.018441588
-0.11998749 0.2556326 -0.10585274 -0.21123087 0.2244565 0.10760016 -0.07517224 0.22105908
-0.13934813 -0.19937643 -0.14730257 0.27686778 -0.065970704 0.10257526 -0.2603364 -0.25601247
-0.068178445 0.28858548 0.20186633 0.29114804 -0.15787823 0.26765168 0.124517724 0.31490788
-0.14460205 0.05788788 0.08023709 -0.04790888 0.0059228092 -0.15586437 0.1872963 -0.112146676
0.024834445 -0.21085276 0.114793934 -0.28732976 0.23499905 -0.09550766 -0.17631312 -0.15134515
0.025237579 0.1279026 0.028010441 0.2831675 0.011252452 -0.29830733 -0.11990086 -0.1662266
-0.20292585 0.17971906 0.0069510406 -0.12550588 0.021072822 0.06914776 0.05347379 0.14681005
-0.23965974 0.04458409 0.16413824 -0.2901276 -0.20108083 -0.17399617 -0.043611765 -0.069661945
0.30452374 0.19111583 0.04586414 -0.15570457 0.24775463 -0.058427516 -0.26734045 0.0029815915
0.11287163 0.15149069 -0.11940193 -0.14262211 0.10687215 0.30446634 -0.2503435 0.0029864921
0.004735269 0.019804345 0.012165819 -0.102714404 -0.27364138 -0.22654 0.16466308 -0.22356376
-0.00082771934 0.10844586 0.19922265 -0.052058406 -0.29348108 0.027528858 -0.2652954 -0.1516047
-0.26472363 0.16833535 -0.071716905 0.14359277 -0.25639427 -0.23982607 -0.032310758 -0.10055789
-0.25212175 0.14792201 0.13314064 0.09722375 0.08964754 -0.21588701 -0.22484148 -0.061625566
-0.14237696 -0.18215887 0.0028174198 0.026087578 -0.15321414 0.1834258 0.0031149269 0.23636979
0.031368103 -0.23161538 -0.12603477 0.13891868 -0.10266517 0.008930186 0.31172034 0.22865331
-0.10986543 -0.13298374 0.13361114 -0.22208369 -0.24515104 -0.04270462 -0.08078623 0.24027614
0.11769365 0.1578209 -0.05064785 -0.11244682 -0.29196382 0.18205957 -0.08357768 0.06024607

lstm.bias_ih_l0 f4 [40]
00000000: 546a 1dbd b5db 3f3e 309b 1fbe 089d 4fbe
00000010: 44c7 2b3b ee86 8abe cb05 5bbe ca79 eb3d
00000020: 3692 e7bd bc14 04be 904b 5d3e 878e 323d
00000030: 8a22 81be 405c 5ebe d07f 27be f4af 6abe
00000040: d4c5 49bd 774e 313e 4eb1 87bd 2be5 ce3d
00000050: f59f 96be b332 653e 482b 833e b305 e9bd
00000060: 3a6c 49be e87f 963d 4c2f ae3d 07b0 51be
00000070: e179 a0bd a993 9ebc 047b 97be 35c7 bbbd
00000080: d47c 17bd f8a0 afbd e713 9e3c da2b 85be
00000090: 6d70 2a3e b249 67bd fdcb 46be 0f3c bd3d
-0.03843148 0.18736155 -0.15586543 -0.20274746 0.00262113 -0.27056068 -0.21388929 0.11497839
-0.113071844 -0.12898535 0.21610856 0.043592956 -0.25221664 -0.21714878 -0.1635735 -0.22918683
-0.04926093 0.17315088 -0.06625615 0.10102304 -0.29418913 0.22382621 0.25618958 -0.1137804
-0.19670191 0.07348615 0.08505115 -0.20477305 -0.078357466 -0.01935752 -0.2958604 -0.09168855
-0.03698428 -0.08575624 0.0192966 -0.2601002 0.1664445 -0.056466766 -0.19413753 0.09239971

lstm.bias_hh_l0 f4 [40]
00000000: b4d0 77bd d2d0 363e 8104 febd d7ef 733e
00000010: ad53 573d dc8f 9dbd 5e6f 983e 174c 49be
00000020: 41b3 6abe 5d12 873e fac0 9c3e 83cc 533e
00000030: 9587 9c3e b284 71bd 22d6 bf3d fa1e 8e3e
00000040: 1762 24be 6a68 dbbd f746 13be 3221 fa3c
00000050: 04e3 62bd 395a 3e3c 8472 8f3e c2b9 67bd
00000060: 1894 01bd f6ff 7abe 9fdc 963e 77d3 cfbd
00000070: 3f73 f83d 39be a13e a32d 3b3d ac30 86bd
00000080: 4000 183e ecd0 7fbe 0adc 283e c323 9bbe
00000090: 79f4 9fbd 04b6 15bd bfc3 383e f3b1 833d
-0.06050177 0.17853096 -0.12403203 0.2382196 0.052570034 -0.076934546 0.29772466 -0.19657932
-0.22919942 0.26381198 0.3061598 0.20683484 0.3057219 -0.05896444 0.093670145 0.27758008
-0.16053043 -0.10713275 -0.1438254 0.030533407 -0.05539228 0.01161819 0.28017056 -0.056573637
-0.031635374 -0.24511704 0.29465196 -0.101477556 0.121313564 0.3159044 0.04569782 -0.06552252
0.14843845 -0.24982041 0.16490188 -0.30300722 -0.07810301 -0.036550537 0.18043421 0.064304255

lstm.weight_ih_l1 f4 [40, 10]
00000000: 46e1 11be da7a 6c3e 37a8 3e3d 0d5e b03c
00000010: e444 7abd 54a0 533e 65f5 4b3e 03cb 5a3e
00000020: 693f 95be dc25 70be 9298 293e c47b b8bd
00000030: dd0f 303e 8244 1d3e 362e 89be d7c8 1a3e
00000040: 6954 6c3e d9c3 323e d8dc 933e fd69 903e
00000050: f633 de3d ef1a 7abe 254d a53d 5c89 b43d
00000060: e23e 9c3e 0c0a f9bc a85e dc3d 9d46 83bd
00000070: d657 0b3e 15d5 983d 1575 b1bd b5dc a4bc
00000080: 2d13 5dbe 79c7 b03d b466 633e 017b 1bbe
00000090: 24cc bd3d 67a7 59be 4c5f 903d eac8 f03d
000000a0: 2fbc 9f3e b04b 8a3e b70f 0ebe b359 363d
000000b0: 172d 6cbe f9e8 46be e584 813e 8d88 be3d
000000c0: 6045 01be c27c 3d3e 21d8 713e 83da b13d
000000d0: bd28 9bbb b73b 853e f9b4 9fbe 7827 91bd
000000e0: df5c 563e 6fd8 543e 119c d63d b0e0 8a3e
000000f0: 1390 60bd c7d4 353e b6c6 193e 253f 8dbd
00000100: bd7c 35bd b15c e1bd 29d6 7a3c 64c6 51bd
00000110: 9948 38be 0ddd 9f3d bc0f 2e3d 5834 92be
00000120: 202d 7a3e 29ff 983d 1838 893e 24b0 84bd
00000130: dc39 e6bd c6cd 8cbe bddf 1abe cbdf 81be
00000140: 5100 cebd 7006 bdb9 d3b0 a03e 0900 88be
00000150: 1614 a2bc 0ce3 a13e 0f54 3ebc a93d 003d
00000160: 28ab 273e 54d0 9ebe d291 4bbe d2da 09be
00000170: 5003 99be 5b6e 5d3d 1977 a03e 95d0 d3bd
00000180: 4b1f 953e 4dfc 8c3e e41c 423e 36d1 4abe
00000190: 8b64 9bbe 4c41 803c 8462 96bd c105 783d
000001a0: 9a6b 25bd 4ccc 88be 1e81 a73c 5fc6 0f3e
000001b0: 2f5c 5a3e e143 833e b113 c2bd 7290 59be
000001c0: f4ec 98be 21a4 123e ca52 513e 9e03 90be
000001d0: 7cae bf3d 297d 08be fda4 08be 9f48 1f3c
000001e0: 297e 8fbe 7a94 94be df28 d43d b103 283e
000001f0: 297b 0fbe 6f3b 653e fc81 ba3d ba71 c8bd
00000200: d21d e1bc 024a 413e 4bea 593d b991 40be
00000210: 03d3 9f3e 43d5 81be cb1a bdbd dc05 f33d
00000220: 792b 81be 7ded bb3d 49d9 963e 228b 62be
00000230: 5778 9e3e 3da6 163e ce90 20be b1e3 e9bd
00000240: d428 32be ec80 8bbe 8a3c 8abe 2cad 94ba
00000250: bfa2 02be 85b5 1bbe f2a9 333e 33ef fabd
00000260: 6d98 5dbe 8c62 383e b19a 87bc 9b8f 443e
00000270: cc7a 5b3e d879 07be 48d8 9bbe b004 20be
00000280: 53b5 823b 443f 19be 8322 88bc 6436 eb3d
00000290: bb8c 70be 8296 553d 1468 61be a140 73be
000002a0: 47a0 80be d5b2 bf3d a0fa 9d3e 8b7b 0abd
000002b0: 5314 76be d851 5b3d a65b bebb d607 803e
000002c0: 3b4a 1abe 1576 f0bd 5821 633e 9def 84be
000002d0: 9114 753e 5505 003e 9550 483e 3695 1ebe
000002e0: a876 96bd c9f1 663c 3b6a 313e 69db 8ebe
000002f0: fdeb a8bc f992 9c3e a534 8fbe fd16 f5bd
00000300: 6783 8cbe c0af efbd 81ab 8c3d 3de2 85be
00000310: b4ec 4abe fc0d 86bc 7cdb 89be 422c 8dbe
00000320: 3be5 6c3e 3459 24be c400 0dbe 1db7 2abe
00000330: 592c 8dbd 18fc 11be 2417 123e 7a7e 77be
00000340: 67bf 3dbe 4bab 8a3d 158b 313e cbf7 e63c
00000350: 7d3b 883e fa29 5e3e 5832 4d3e dd42 1ebd
00000360: f777 ba3d 8a90 2bbe 9069 30be e815 bfbd
00000370: 4763 92be 38e0 cd3d 5bc4 643e ffe2 88bd
00000380: fe59 08be 9dc8 5fbc eb06 88be 65e9 bebd
00000390: 84df d83d 8810 e6bd 0ece ed3d 7a17 3fbe
000003a0: f39e 4abe 1dca 5d3e 3c22 e5bd 70d8 b1bd
000003b0: 55e1 983e eae0 9dbd 324d 97bd d245 62be
000003c0: f8f2 15bd b8f9 7bbe 0766 5fbd 44f8 9abe
000003d0: c76d 49be 8c73 8b3e ea0a 62bd 1b1b 17be
000003e0: f5fa 90be 5db0 873e 97ad 1c3e 36d8 7bbe
000003f0: 0d0e 903e 8c7d 843e 2a01 883e deb8 b63d
-0.14246091 0.23093739 0.04654714 0.021529222 -0.061100855 0.20666629 0.1991783 0.21366505
-0.2914994 -0.23451942 0.16562107 -0.090079814 0.17193551 0.15358165 -0.2679307 0.15115677
0.23079075 0.17457522 0.28879428 0.28205863 0.108497545 -0.24424337 0.08071355 0.08815262
0.30516726 -0.030400299 0.10760242 -0.06409953 0.13607726 0.07462517 -0.0866491 -0.020124773
-0.21589346 0.086317964 0.22207147 -0.15183641 0.09267452 -0.21255265 0.070494264 0.11757071
0.3119826 0.2701087 -0.13873182 0.044519138 -0.23064075 -0.1942481 0.25296703 0.09303389
-0.1262412 0.18504623 0.23617603 0.08684256 -0.004735081 0.2602212 -0.3119276 -0.07087606
0.20933865 0.20785688 0.10478986 0.27124548 -0.0548249 0.1775695 0.15017208 -0.068968095
-0.044308413 -0.110040076 0.015309849 -0.05121459 -0.17996444 0.07805834 0.042495474 -0.2855556
0.24431276 0.07470543 0.2680061 -0.06478909 -0.112415045 -0.27500743 -0.15124412 -0.25366053
-0.10058654 -0.00036053685 0.31384906 -0.26562527 -0.019784968 0.31618536 -0.011616721 0.031308804
0.16373885 -0.31018317 -0.19879845 -0.1346238 -0.2988534 0.05406032 0.31340864 -0.10342518
0.29125437 0.2753624 0.18956333 -0.1980637 -0.30350146 0.015656136 -0.07343009 0.060552362
-0.04038582 -0.26718366 0.02044731 0.14040516 0.21324228 0.25637725 -0.09476412 -0.21246508
-0.2986828 0.14320423 0.20441738 -0.2812776 0.09359452 -0.13328995 -0.13344188 0.009721904
-0.2802594 -0.2901953 0.10359358 0.16407658 -0.14011826 0.22385953 0.09106824 -0.097873166
-0.02748004 0.18875888 0.053201955 -0.18805589 0.31215677 -0.25358018 -0.09233626 0.11866352
-0.2522848 0.09176157 0.2946265 -0.22123387 0.30951187 0.14711852 -0.15680239 -0.11420382
-0.17398387 -0.27246797 -0.26999313 -0.0011343113 -0.12757395 -0.15205963 0.17545298 -0.12252655
-0.21640177 0.18006343 -0.016553255 0.19195406 0.21433562 -0.13230073 -0.30438447 -0.15626788
0.0039889007 -0.1496554 -0.016618019 0.114849836 -0.23491184 0.05214549 -0.22012359 -0.23755123
-0.25122282 0.093602814 0.30855274 -0.033809226 -0.2403119 0.05354485 -0.005809265 0.25005978
-0.15067379 -0.11741272 0.22180688 -0.2596406 0.23933627 0.12502034 0.1956199 -0.15486607
-0.07346851 0.014095732 0.1732568 -0.27901772 -0.02062034 0.3058088 -0.27969852 -0.11967275
-0.27444002 -0.117034435 0.06868649 -0.2614917 -0.19816858 -0.01636409 -0.26925266 -0.2757283
0.2313432 -0.16049653 -0.13769823 -0.16671415 -0.06893224 -0.14256322 0.1426664 -0.2416934
-0.18530045 0.06770953 0.17338212 0.028194329 0.26607886 0.216957 0.20038736 -0.038637985
0.09104913 -0.16754356 -0.17227769 -0.0933035 -0.28591368 0.10052532 0.22340529 -0.06683921
-0.1331558 -0.01365867 -0.26567778 -0.0932186 0.10589507 -0.11233622 0.116115674 -0.186613
-0.19787197 0.21659131 -0.1118817 -0.0868386 0.29859415 -0.077089146 -0.07387771 -0.22096947
-0.036608666 -0.24606979 -0.05454066 -0.30267537 -0.19670783 0.27236593 -0.05518619 -0.14756434
-0.28316465 0.26501742 0.15300594 -0.24594197 0.2813572 0.25877035 0.26563388 0.08921979

lstm.weight_hh_l1 f4 [40, 10]
00000000: 5651 fcbd 127e 90bd 3c53 4c3d 07a3 7a3e
00000010: d3f3 30bd 29a5 49be 9ef5 513e a465 48be
00000020: 73d5 28be 5528 ddbd 66d6 3c3e dbd3 f53c
00000030: ed72 ee3d 48c3 563d 9251 3bbe b561 ed3d
00000040: 33cd 243e 33ce 5b3c 4e14 613e fc3f b23c
00000050: 4514 68be 2c4d 50bc 9b6e 15be 0140 873e
00000060: 1392 843e bc49 d0bd f7a1 87bd 1055 57be
00000070: bc42 e33d d1c9 6dbe 623d 12be dfe5 723e
00000080: 1105 44be 465c 863e 29e1 9d3e 016b 943d
00000090: a54e 75bd 296d 853e dba3 b6bb ff8d 963d
000000a0: 286d a73d 762e 7cbe 14a2 5bbe 8fcd 703d
000000b0: 3aa2 eb3d 7855 213e 4e54 f3bd 21be e13d
000000c0: 03d8 2f3e 07c4 22be b5be e53d c7a7 54be
000000d0: 3799 813d 32e3 9c3e 3658 a03e 2999 8b3e
000000e0: 76cd 36be 0728 9c3e a67f 86bd 0bc2 273e
000000f0: 961c 3cbc 7697 d9bd 3925 7ebe 088d 6abe
00000100: e445 c83d b0ac 853e 36e6 34bd 6102 07be
00000110: f032 8fbe 5514 4a3a f5bd 35bd 122f 63be
00000120: 7755 ec3d 2bd2 773d d8db 323d d9a3 9b3d
00000130: 5605 83be 3316 67be 0d39 19be 3bfd 78be
00000140: cb3a 1d3e f212 70bd 8f4f 2cbd 104d 213d
00000150: 0741 88bd 5278 033e cb5c 3e3d 556c cfbb
00000160: 4847 213e cc85 dd3d 8d88 5bbd b182 0ebe
00000170: 6419 f73d 8683 eabb 18b7 313e a2a1 debd
00000180: 1e5a 783e 923d 9a3e e3c5 05bc ad5d 653e
00000190: b8dd fcbc bb1c 773b bc21 8fbe b1ac fdbd
000001a0: b448 19be 9ca1 4cbe 5a59 4f3e fa54 09bd
000001b0: 66f8 a13d 2b7c 1fbc e367 4cbe 5bc3 ffbd
000001c0: 181c acbc 1dfd 9a3e 7236 9cbe 50cf 853e
000001d0: c25e 643e 1b26 903e 0166 bebd 1a13 e93d
000001e0: 0df5 7a3e 1996 793e 3348 9dbe 270f a63d
000001f0: ebf1 99be 2b47 9f3e 9971 2bbe d4be a8bd
00000200: 8018 953e a1be 2e3e bc87 3a3d 2b61 bc3d
00000210: 0bb9 143e 57d9 16be f6d2 5e3e 4733 6ebe
00000220: a6ff 59be 82a1 913e ce9f 163e 53e7 7cbd
00000230: c4f2 c83d f652 60ba 4d3f 963e 194e 49bd
00000240: 198d f83d 5f1b 7ebe 669f 63be 1ade 3e3e
00000250: 5e3a 873e b2dc 923d d9d1 7dbd d35d 033e
00000260: 569f 1abe d433 b5bd 0a25 11be b54b b6bc
00000270: 9cd1 95be 75d3 5b3e 95b2 a3bd 8a7d 613e
00000280: 8f61 583e 3fb4 ad3d a40c 993d c8d4 39be
00000290: d418 303e 6623 823e 3a16 8abe 859e 313e
000002a0: ff1a 94be 68d4 a4bd 1b1d dd3d 1954 9c3e
000002b0: a769 523e 21bd 1dbe 0770 ef3d 658b 223e
000002c0: 495e 8bbe a4cc 4b3d c5fc 053e 4a1b 873e
000002d0: a0e4 093e 4bac 973e f949 b03d a769 c3bb
000002e0: 8c2f 06bd 6650 2fbe 7a69 103e 74f0 333e
000002f0: 9632 023e d1b8 73be 5133 1cbc a8fd 783e
00000300: 3a85 bd3d 28cd 333e 0f0d 72be db66 653e
00000310: dcdc 0b3e f636 17be 43fc 86bd 742b 93bd
00000320: 484a a03e ee94 94be 7be4 d23d 7e0f 89be
00000330: a7ae 25be acdc 8dbe a520 86be 810a 2cbe
00000340: 3f64 89be 90ef 393e 2fdf 9cbe 48c8 733e
00000350: fd50 dd3d acd5 413d 5765 d6bd a1d1 0f3e
00000360: 234e 4c3e 59cc 523d 257a e5bd fb86 82be
00000370: d109 e73d 771a b13d e01d 91be 3c70 7a3e
00000380: 245d 8c3e 3211 873e c359 853e 46b9 9cbe
00000390: f87c 8b3e 2aa0 f4bb 8068 8bbe 5b92 82be
000003a0: 5b4a 8e3e 4537 1c3d 942f 853d d18b 0dbe
000003b0: 3f86 dcbb 1b6e ee3d 587d 90be 8cfe 88bd
000003c0: cdb5 8d3e 3ac2 8bbd f5e1 553e d997 a13d
000003d0: 8973 7a3d 0840 933d 29de 75be 63ee c93b
000003e0: 8028 abbd 155f 973e e8d8 8a3e 0118 393d
000003f0: fd04 93be 168b 8b3e 9de7 8ebe d41a 0f3e
-0.12320201 -0.07055296 0.049884066 0.24476252 -0.04320128 -0.1969191 0.20503852 -0.19570023
-0.16487674 -0.10798708 0.18441162 0.030008247 0.11643014 0.05243233 -0.18292835 0.11590902
0.16093902 0.013415861 0.21980402 0.021759026 -0.22663982 -0.012713712 -0.14592974 0.2641602
0.25892696 -0.10170314 -0.06622689 -0.21028543 0.11096713 -0.23221518 -0.14281228 0.23720501
-0.19142558 0.26242274 0.30835846 0.07246972 -0.059889454 0.26059845 -0.0055737323 0.07351302
0.08175117 -0.24627098 -0.21448547 0.058789786 0.11505552 0.1575526 -0.11881314 0.11022592
0.17172246 -0.15895091 0.11218015 -0.20767127 0.063280515 0.30642086 0.313173 0.2726529
-0.17851815 0.30499288 -0.06567316 0.16382615 -0.011481425 -0.10624592 -0.24818887 -0.22905362
0.097789556 0.26108313 -0.04416486 -0.13184501 -0.2796855 0.0007708718 -0.04437061 -0.22185925
0.115397386 0.060503166 0.04366669 0.07599611 -0.25590008 -0.22567062 -0.1496317 -0.2431535
0.15354459 -0.058611818 -0.04206806 0.039380133 -0.06653028 0.12838867 0.046475213 -0.006330053
0.15749848 0.10816535 -0.05359702 -0.13917042 0.1206539 -0.007156792 0.17355001 -0.10870673
0.24253127 0.301251 -0.008164856 0.22399016 -0.030867442 0.0037706334 -0.27955425 -0.12386454
-0.1496914 -0.19983524 0.20248929 -0.033528306 0.07908706 -0.009734194 -0.19961505 -0.12488433
-0.02100949 0.30271235 -0.30510288 0.2613473 0.22301772 0.28154072 -0.092967995 0.113805965
0.24507542 0.24373664 -0.30719146 0.08108359 -0.3006738 0.31108984 -0.16742553 -0.082395226
0.29120255 0.17064907 0.045539603 0.09198221 0.14523713 -0.14731346 0.21760163 -0.23261748
-0.21288928 0.28443533 0.14709398 -0.061744045 0.09811929 -0.0008557284 0.2934517 -0.049146745
0.12136287 -0.24815129 -0.22228774 0.18639413 0.26411718 0.071710005 -0.061967704 0.1282876
-0.15099844 -0.08847776 -0.14174286 -0.022252897 -0.29261482 0.21467383 -0.07993046 0.22020546
0.21130966 0.08481645 0.07473114 -0.18147576 0.17196971 0.25417632 -0.26970083 0.17345627
-0.28926846 -0.08048326 0.10796567 0.3053291 0.20548116 -0.15404178 0.116912894 0.15873487
-0.2722037 0.049755707 0.13084705 0.26388007 0.1346612 0.29623637 0.08607859 -0.0059635225
-0.032760188 -0.17120513 0.14102736 0.17572194 0.1271461 -0.2380097 -0.009533719 0.24315512
0.092539266 0.1755873 -0.23637794 0.22402517 0.1365847 -0.1476706 -0.06591084 -0.071860224
0.31306672 -0.29019874 0.102974854 -0.26769632 -0.16179906 -0.27707422 -0.2619678 -0.16800882
-0.26834294 0.18157792 -0.30639026 0.2380687 0.10806463 0.047322914 -0.10468548 0.14044811
0.19951682 0.051464412 -0.11204938 -0.25493607 0.11281169 0.08647626 -0.28343105 0.24456877
0.2741481 0.26380306 0.26045045 -0.30610102 0.2724378 -0.007465382 -0.27228165 -0.25502285
0.27791104 0.038138647 0.065032154 -0.13822867 -0.0067298706 0.11642095 -0.2822063 -0.06689176
0.27677765 -0.06824155 0.20886977 0.07890291 0.06114534 0.07189947 -0.24010529 0.006162451
-0.08357334 0.2956473 0.2711861 0.045188908 -0.28714743 0.27254552 -0.27911082 0.13975078

lstm.bias_ih_l1 f4 [40]
00000000: e9e3 c9bd dd1f 8ebd 100d 1a3e 04cf 203e
00000010: 71ec 703e e8de 923e bf63 183e 57d2 193e
00000020: 8860 c8bd 22f4 5c3d 0f0f 373e 0fe2 3fbe
00000030: 9bd8 29bd abbe 9b3d a4c4 3abe 56d9 1a3e
00000040: eecc e7bd e4c0 95be 72f0 23be bc21 64bd
00000050: 3803 2cbe 0e65 343e 2bc3 a73d 9edd 19be
00000060: 0d49 8bbc b128 9d3d 357a 94be 6e49 ef3b
00000070: 48e8 1bbe e23c 9fbd 7a15 7a3e da17 0dbe
00000080: e0d4 323e ab24 ff3d bbba 693e eb07 a3bd
00000090: b05b e8bd 042c 8d3e 6272 3fbe 7118 a63d
-0.098579235 -0.06939671 0.15044045 0.1570397 0.23527695 0.2868569 0.148818 0.15021645
-0.09784037 0.05394376 0.17876838 -0.18738578 -0.041466337 0.076047264 -0.18239075 0.1512197
-0.11318384 -0.29248726 -0.16009691 -0.055696234 -0.16798103 0.17616674 0.08191522 -0.15025946
-0.017002607 0.07673777 -0.28999487 0.0073024547 -0.15225327 -0.07775284 0.24422255 -0.1377863
0.17464018 0.12458166 0.22825138 -0.079604946 -0.11345613 0.27572644 -0.18695977 0.081101306

lstm.bias_hh_l1 f4 [40]
00000000: 2b2d fc3d 44d2 943e ef11 343e 5537 75be
00000010: 0b27 ccbd d053 19be 89eb 953d 55f9 47be
00000020: 45aa 29be e364 363d c2f3 323c c0e0 31be
00000030: 5596 95bd bea9 f9bc 3793 193d 06db 373c
00000040: e371 f93d 32e0 3e3e 4a7d 003e ff53 5ebe
00000050: 2b2e a0be c3c9 8cbd 6773 44be 7ad4 53be
00000060: cc65 973e 06a0 7fbe 2036 a33d fe03 9abe
00000070: fd27 1abe d163 343e 75d7 3abe f430 9e3e
00000080: 9cb1 7b3e bb8e 7dbe ccc2 58be ded2 113e
00000090: 633c 613e ed47 fc3d 5878 7b3d 5f71 753e
0.123133026 0.2906667 0.17584966 -0.23946889 -0.09968384 -0.14973378 0.073203154 -0.19528706
-0.16568859 0.044529807 0.010922374 -0.17370892 -0.07304064 -0.030476447 0.03749391 0.011221653
0.12179925 0.18640211 0.12547794 -0.2171173 -0.31285223 -0.068744205 -0.19184648 -0.20686522
0.29569852 -0.24963388 0.07969308 -0.3008117 -0.15054317 0.17616202 -0.18246253 0.30896723
0.24579471 -0.24761479 -0.21168059 0.14240596 0.21995692 0.12318406 0.061394066 0.23969029

fc.weight f4 [1, 7200]
00000000: b76a 243c e7e2 703b 7792 83ba fc81 8bb9
00000010: 962b 123c f001 153b 9900 c03a 9745 4cbb
00000020: 8ea7 3d3a 69f5 9abb 524e a7bb e52d 983b
00000030: ef4c 19bc b8ca 893b fa48 f63b db9d 66ba
00000040: afc3 3b3c 39f8 ab3b a548 16b8 f99c e9bb
00000050: 06f5 64ba a5b9 aa3b 7775 033c 6569 193c
00000060: 0c3b 30bc 394d 3f3c dd25 1e3c b7f1 da3a
00000070: 7ef4 15bc 1bcf 883b d5f0 d1ba a2e7 11bc
00000080: e093 babb 44c2 06bc 35e4 183c c2b8 1a3c
00000090: 77a3 9e3b 71ca 363c 1da9 753b f247 1a3b
000000a0: 8347 fabb ab1d d3bb fc55 c2bb ec11 1f3c
000000b0: dae3 153c 25a4 1c3c 5cfa 0b3c 5060 cd3a
000000c0: 0275 e9bb 45e1 b6bb 533e ffbb 363d a6bb
000000d0: 2943 2a3c 9363 3a3c 3323 ad3a 236c 4fbb
000000e0: b8c8 b7ba 0a61 803b 7ec3 223c a663 07bc
000000f0: 47d1 2d3c 4b70 47bb f142 f3ba 21d6 dd3b
00000100: a7dc cbbb b8d0 95ba bd23 8b3b f9c5 53ba
00000110: 4b3f 9ebb dd5a 35bc b220 17bc 182b 143b
00000120: 0268 ab3b 6259 233c 48e9 3dbc d49b 153b
00000130: 44f2 0bbc 0e49 96bb 9a74 133c 37da c13b
00000140: d121 1b3c d18f 9fba 58f6 9c3b 7104 903b
00000150: b2e3 783a f86b f9bb 967a 1fbc 2456 383c
00000160: 3cf4 16b9 1124 b13b f55f edba 81a4 b03b
00000170: 83df ecbb 7371 b1bb d267 373b d96e 6e3b
00000180: ade2 4e3a 0d4c 2c3b 4be7 8d3b e268 1e3c
00000190: 8be6 3c3c 2f76 2a3c 20f9 b2b9 cdc5 c5bb
000001a0: 96bc 6d3a fa9d 203a 7801 dfbb 1c74 ddbb
000001b0: 9227 17bb ff5a fcbb 2d9a 98bb 4553 7bba
000001c0: 6695 2e3c f9e4 19ba 3cde 513b 6c76 3a3a
000001d0: 982b 29bc 293a b2ba ba93 2d3c 95bd 403c
000001e0: 089d 023b cf95 97bb 0090 973b 7187 213b
000001f0: b628 3fbc 3980 023c fead 5cbb 2b62 493b
00000200: b03f db3a cc2a 053b 39b5 82bb fcfa d53b
00000210: d83d ec3b d0a2 11bc 066d 13b8 8067 3e3c
00000220: 26f3 233c efcc 803b 6b25 2cbc d1a5 1f3c
00000230: 6c6e a13b b980 3abb 9304 cebb 2ddb 9dbb
00000240: d8e4 3abc 4698 ebbb 8de3 5abb a39e e5b9
00000250: 7c2a 2c3b 0465 053b 0118 bcbb 66ce 15bc
00000260: 8d64 1c3b 2d0c 363c 5234 2abc f7e9 723b
00000270: e5da cfbb e0ed 073c 3611 88ba f983 e33b
00000280: 1c40 29ba 5472 debb f722 1a3b 4174 003c
00000290: e0b6 b73b 3312 0f3c 11bb a53b d796 243c
000002a0: 0a3f 833b 4596 ad3b fc6e 07bc 991a 8abb
000002b0: 25d6 fe3b 1bcf 2abb f06b f4bb bd76 023c
000002c0: fc2c 89bb 2b43 e0bb f3cf 063c 7390 bc3b
000002d0: c3b7 87bb 4eab e5bb 1c0f 013c 95f1 e43b
000002e0: 73d7 373c 1305 f53b 7fab 19bc c5ed 203c
000002f0: d4c3 3bbc 5842 353c 3e8f f83b 6c3b 14bc
00000300: 7cc1 fb3a 89c2 a9bb 8abe 3fbc d734 753b
00000310: e8ef 063c 41a3 88ba 3903 443a 836c fcbb
00000320: fe81 24bc ad40 05bc e3d5 b33b 9b1f 553a
00000330: 673b ba39 d53e a43b 29e1 9ebb ffc6 5d3b
00000340: 7646 a3bb bc32 15bc 3868 95bb 37b7 e639
00000350: 7cde 6cbb e486 e8ba 6a25 d9bb 66fa 35bc
00000360: e349 cabb 4e84 ffbb b1c1 fc3b 4ad1 123c
00000370: 1b84 1f3c d243 c6bb 945a 68b9 6820 2339
00000380: 1f13 cabb 2235 aabb b0b3 26ba 0ddf 72bb
00000390: be3e bcba cd4b 29bc 0e38 2eba e4b5 8a3b
000003a0: ffeb 1d3c b05f 763b 9651 f8bb f3b6 1fbc
000003b0: d1d4 35bb 703f c5bb 4a11 133b 5a5c 7fbb
000003c0: 3ca7 153c 73ab 48bb 27ba a43a 3b56 19bb
000003d0: 046f 383c 6645 81ba 661e 85bb a61f 2e3c
000003e0: fa17 a4bb d92c e03b 25eb 15bc 1bd9 903a
000003f0: 2698 c73a 8941 313c 8af7 0d3c 4270 ef3b
0.010035208 0.0036756338 -0.0010038157 -0.00026608992 0.0089215245 0.002273675 0.0014648616 -0.0031169408
0.00072347454 -0.004728962 -0.005105772 0.004644143 -0.009356721 0.004205074 0.0075160237 -0.0008797326
0.011460229 0.0052480963 -3.5830442e-05 -0.0071293083 -0.0008734021 0.005210119 0.008023611 0.009363507
-0.010756265 0.011676126 0.009652582 0.0016704117 -0.00915253 0.0041750795 -0.0016017208 -0.008905323
-0.0056938976 -0.0082250275 0.009331753 0.009443464 0.004841264 0.011156664 0.0037484833 0.0023541418
-0.0076379194 -0.0064427457 -0.0059306603 0.009708863 0.009148562 0.0095606195 0.008543577 0.0015668962
-0.007124544 -0.0055810534 -0.007789412 -0.005073215 0.010391989 0.011376279 0.0013209343 -0.0031650148
-0.0014021611 0.003917818 0.009934304 -0.008263504 0.010608978 -0.0030431922 -0.0018559379 0.006769911
-0.006221372 -0.0011430001 0.0042462037 -0.00080785115 -0.0048293225 -0.011069027 -0.009224104 0.0022608694
0.0052309046 0.009970041 -0.011591263 0.0022828477 -0.008541647 -0.0045863455 0.008999968 0.005915906
0.009468512 -0.0012173598 0.0047901087 0.0043950607 0.00094943785 -0.007611748 -0.009733817 0.011251006
-0.00014396099 0.005405911 -0.0018110262 0.005390704 -0.007228793 -0.0054151355 0.0027985466 0.0036381988
0.00078920537 0.0026290447 0.004330551 0.009668561 0.011529575 0.010404154 -0.00034136418 -0.0060355426
0.0009068934 0.0006127056 -0.006805595 -0.006758226 -0.0023064357 -0.0077012773 -0.004657051 -0.0009587298
0.010655737 -0.00058706064 0.003202333 0.0007112983 -0.010325335 -0.0013597655 0.010594303 0.01176395
0.0019930024 -0.004626013 0.0046253204 0.002464738 -0.011667421 0.007965141 -0.0033673043 0.0030728679
0.0016727354 0.0020319698 -0.0039888886 0.006530164 0.007209521 -0.008888915 -3.5149067e-05 0.011621356
0.010006702 0.00393068 -0.010506968 0.009744124 0.0049264934 -0.0028458072 -0.0062871664 -0.0048173876
-0.0114071 -0.0071897833 -0.003339979 -0.00043796477 0.002627044 0.00203544 -0.005740166 -0.0091434475
0.0023863644 0.011111301 -0.010388451 0.0037065723 -0.006343233 0.00829646 -0.0010381106 0.0069432226
-0.00064563914 -0.0067885313 0.0023519376 0.007840217 0.005606517 0.008732366 0.0050577004 0.010045729
0.0040053176 0.0052974545 -0.008266207 -0.0042145965 0.007776993 -0.0026063386 -0.007459156 0.00796288
-0.0041862708 -0.0068439445 0.00822829 0.0057545244 -0.004141779 -0.0070089465 0.0078771375 0.0069868066
0.011220801 0.0074774115 -0.009379267 0.009822314 -0.011460263 0.011063181 0.007585435 -0.00904737
0.0019207443 -0.005180661 -0.011703143 0.0037415528 0.008235909 -0.001042463 0.0007477287 -0.0077033653
-0.010040758 -0.008133096 0.005488144 0.0008130015 0.00035520943 0.005012373 -0.0048486185 0.0033840535
-0.004982765 -0.009106334 -0.004559543 0.00044005524 -0.0036143353 -0.0017740396 -0.0066267746 -0.011107063
-0.0061733588 -0.0077977544 0.0077135195 0.008961031 0.009736086 -0.0060505653 -0.00022158987 0.00015556964
-0.00616683 -0.005194322 -0.0006359173 -0.0037059218 -0.001436196 -0.010333014 -0.0006645926 0.004233109
0.009638785 0.0037593655 -0.007578085 -0.009748208 -0.0027745257 -0.006019525 0.0022440725 -0.0038964958
0.00913411 -0.003061977 0.0012567685 -0.0023397345 0.011256937 -0.0009862601 -0.0040624617 0.010627663
-0.005007741 0.0068412838 -0.009150301 0.0011051031 0.0015227839 0.010818847 0.008664975 0.0073070833
