DeepLearning/timeSerise/.scale_batch_size_1f795bd9-00f7-44a6-8849-fa95870d7dcf.ckpt (torch, 47861 bytes, 9 tensors)

lstm.weight_ih_l0 f4 [40, 50]
-0.2876458 0.04485472 -0.068574004 -0.16622856 -0.061692365 0.24385941 0.18521266 0.1525544
0.04394761 -0.028857274 -0.11937453 -0.021493522 -0.09803225 -0.22894357 0.024844887 -0.053919297
-0.08848986 -0.15758537 -0.19808978 -0.13723332 -0.027905868 0.27010962 0.24268582 -0.07045231
0.012900615 -0.19784912 0.12203272 0.012932545 0.18108302 0.24296671 0.08495762 0.072481476
-0.11430922 -0.1081237 0.03848026 -0.100543186 -0.14313471 -0.030553501 0.14050055 0.0025225517
-0.16254644 0.23461491 -0.21939975 -0.010337237 -0.31496495 -0.102529116 -0.28651178 -0.3041097
-0.043291036 0.01598233 0.07206311 -0.1977341 -0.30355337 -0.16564532 0.20364621 0.19477619
0.25694263 -0.09257255 0.18273248 -0.17178571 -0.24318817 0.24250604 0.14444047 0.06388883
-0.09807884 0.12888193 0.15460676 0.11245599 -0.18819843 -0.18725505 -0.08629682 -0.20081137
0.10923234 -0.26696178 -0.13159911 -0.24019621 -0.3086341 0.21041226 -0.18751422 -0.16887344
0.10924625 -0.0043075182 -0.13258 -0.29965693 -0.056080632 -0.1803379 -0.2020852 0.10374855
0.09154975 0.25002694 0.10507071 0.11700823 0.30364543 0.011707684 -0.24854277 -0.08638654
-0.20422374 -0.11804193 -0.17550017 -0.0761573 0.06554487 0.091406725 0.05108857 0.091408044
-0.054487545 -0.27588508 0.058130234 -0.20281816 -0.2855774 0.10893623 0.10529617 -0.26583973
0.28180024 -0.15731624 -0.12601261 -0.2531032 0.19215196 -0.18568058 -0.25739828 0.049782474
0.05442429 -0.28911883 -0.06959812 -0.009508651 0.0035011733 0.086135924 -0.010693137 0.060795885
-0.29100966 -0.2880722 0.06946358 -0.20707916 -0.11114751 -0.31372032 0.23183146 -0.05560572
0.24688643 -0.2964032 0.08554811 0.12879229 0.23806037 0.29891366 -0.13154408 -0.25869358
-0.023759808 -0.3090282 0.063812196 -0.009683453 -0.018060807 -0.13808939 0.18368764 -0.21145216
-0.29091096 0.17666996 0.19226322 -0.29449898 0.22728674 -0.10583027 0.3004945 -0.3068313
0.28815866 0.07912664 -0.1101776 -0.20616476 -0.26213893 0.099207915 0.24572207 -0.003969336
0.22518802 0.029802835 0.18367872 -0.055087008 0.13652423 -0.063588575 0.06586941 0.23249361
0.22129627 0.10962627 0.20131746 0.012160806 0.075348206 -0.07410691 0.12965843 -0.18808804
-0.28307846 0.27582186 0.2051587 0.13211316 0.18984886 0.16820122 0.27525538 0.19694988
0.15146008 0.16183566 0.25058585 0.16644841 0.073808685 -0.15659362 -0.13172947 -0.21654849
0.16412838 0.2558428 0.22258416 -0.18079543 0.06231663 -0.25942987 -0.08051349 0.30358264
0.30256373 -0.2960195 0.19302775 0.16278093 -0.09421389 0.22385727 -0.23886433 -0.295246
0.31296375 0.06424621 -0.18639247 0.24794592 -0.28234616 0.19975205 0.06742966 -0.04371106
0.07999108 -0.050066482 0.10427635 -0.05324199 0.21274878 0.15378118 0.07504957 0.09072339
0.30887586 0.11937992 -0.03113189 -0.16992448 0.039128803 0.099280596 -0.14177196 -0.1972834
-0.010160927 0.20562996 0.021268846 -0.20398715 0.15262504 0.14778988 -0.08302311 0.21086581
-0.17232044 -0.28640962 -0.062056333 0.07053034 -0.1231754 -0.15475242 -0.27196243 -0.16281565
00000000: 4f46 93be 95b9 373d 8770 8cbd d237 2abe
00000010: 22b1 7cbd 48b6 793e 63a8 3d3e 3837 1c3e
00000020: 6902 343d 1766 ecbc a27a f4bd 2f13 b0bc
00000030: 22c5 c8bd 2f70 6abe 8187 cb3c 7bda 5cbd
00000040: 2c3a b5bd 0f5e 21be 0cd8 4abe e486 0cbe
00000050: d99a e4bc cf4b 8a3e a282 783e 4d49 90bd
00000060: 1a5d 533c f698 4abe 4aec f93d 06e3 533c
00000070: d46d 393e 44cc 783e 43fe ad3d 2b71 943d
00000080: f41a eabd f56f ddbd 7a9d 1d3d 96e9 cdbd
00000090: e891 12be 564b fabc 60df 0f3e 6551 253b
000000a0: 9372 26be e43e 703e 54aa 60be 845d 29bc
000000b0: 1643 a1be c9fa d1bd acb1 92be 44b4 9bbe
000000c0: f151 31bd 60ed 823c d395 933d cf7a 4abe
000000d0: 596b 9bbe ed9e 29be a288 503e 6973 473e
000000e0: fc8d 833e ad96 bdbd 391e 3b3e 98e8 2fbe
000000f0: 5206 79be 8153 783e 34e8 133e 26d8 823d
00000100: 8fdd c8bd a0f9 033e 3c51 1e3e 534f e63d
00000110: 17b7 40be cabf 3fbe 63bc b0bd 7fa1 4dbe
00000120: 34b5 df3d 37af 88be ebc1 06be fff5 75be
00000130: 4a05 9ebe 5076 573e ba03 40be 29ed 2cbe
00000140: 7fbc df3d 1526 8dbb 0dc3 07be a26c 99be
00000150: ceb4 65bd 80aa 38be 6cef 4ebe 1f7a d43d
00000160: 6f7e bb3d 8803 803e 502f d73d 03a2 ef3d
00000170: 6a77 9b3e 96d1 3f3c ff81 7ebe 6deb b0bd
00000180: 0720 51be f8bf f1bd 51b6 33be 5cf8 9bbd
00000190: 643c 863d 7333 bb3d 4042 513d 2434 bb3d
000001a0: 552e 5fbd cf40 8dbe f819 6e3d 90af 4fbe
000001b0: 3337 92be f519 df3d 85a5 d73d 251c 88be
000001c0: 1f48 903e 8217 21be 7309 01be be96 81be
000001d0: 7cc3 443e 0d23 3ebe b5c9 83be b5e8 4b3d
000001e0: 01ec 5e3d 6207 94be 7689 8ebd 2cca 1bbc
000001f0: f173 653b 0868 b03d 4432 2fbc 1b05 793d
00000200: 38ff 94be 337e 93be ec42 8e3d 8f0c 54be
00000210: 4ea1 e3bd f39f a0be 3a65 6d3e d3c2 63bd
00000220: cccf 7c3e 29c2 97be d933 af3d 20e2 033e
00000230: 19c6 733e 360b 993e 7eb3 06be 7c73 84be
00000240: eea3 c2bc f238 9ebe f8af 823d 58a7 1ebc
00000250: 42f4 93bc 4e67 0dbe 9d18 3c3e ea86 58be
00000260: 48f2 94be f8e8 343e a6e0 443e 92c8 96be
00000270: dbbd 683e 8abd d8bd 6ada 993e fe18 9dbe
00000280: 8889 933e 260d a23d cba4 e1bd db1c 53be
00000290: 1337 86be 852d cb3d 919e 7b3e 3411 82bb
000002a0: b097 663e 1325 f43c 4616 3c3e eaa2 61bd
000002b0: 02cd 0b3e ba3a 82bd 8be6 863d ce12 6e3e
000002c0: 7d9b 623e bd83 e03d 2a26 4e3e 1e3e 473c
000002d0: 2950 9a3d 5dc5 97bd 2ec5 043e 279a 40be
000002e0: a9ef 90be 8638 8d3e 1f15 523e ac48 073e
000002f0: bd67 423e f13c 2c3e 46ee 8c3e 3bad 493e
00000300: 5a18 1b3e 3fb8 253e ca4c 803e 7471 2a3e
00000310: 0229 973d 145a 20be 17e4 06be e3be 5dbe
00000320: 4511 283e d4fd 823e 1aed 633e 7022 39be
00000330: b93f 7f3d fed3 84be 42e4 a4bd 2f6f 9b3e
00000340: a2e9 9a3e de8f 97be 11a9 453e 0bb0 263e
00000350: 36f3 c0bd d73a 653e da98 74be 7c2a 97be
00000360: c93c a03e 8493 833d abdd 3ebe 89e5 7d3e
00000370: ad8f 90be cd8b 4c3e 9018 8a3d 5e0a 33bd
00000380: 5dd2 a33d 8312 4dbd d78e d53d 4614 5abd
00000390: d1da 593e d078 1d3e 97b3 993d 2fcd b93d
000003a0: fa24 9e3e 767d f43d 4e08 ffbc af00 2ebe
000003b0: 8645 203d a053 cb3d ab2c 11be a904 4abe
000003c0: 047a 26bc a990 523e 013c ae3c 02e2 50be
000003d0: bd49 1c3e 3b56 173e 0508 aabd 35ed 573e
000003e0: c574 30be 48a4 92be c82e 7ebd 3672 903d
000003f0: 6243 fcbd 6b77 1ebe a93e 8bbe 25b9 26be

lstm.weight_hh_l0 f4 [40, 10]
-0.18137096 -0.08600478 -0.072604485 -0.30791634 -0.17597045 0.2563257 0.27351752 0.112974435
0.2579827 -0.27329615 -0.15511578 -0.026558379 -0.06856544 0.24055664 -0.07738179 0.12974934
-0.09807503 -0.15852252 0.3013528 -0.17735255 -0.0427966 0.23016362 0.05395786 -0.12037192
0.12867019 0.11002296 0.1435757 0.31331298 0.109000236 0.02532975 0.050135393 0.20616473
0.24552032 0.28702223 -0.29063842 -0.060459476 0.26342514 0.04515728 0.13256304 -0.086326525
0.24260229 0.23036458 0.26508003 0.13575739 0.1328066 -0.20208095 0.2719187 -0.10127866
-0.30055693 -0.09558362 -0.17650197 0.048635006 -0.16009726 -0.03263933 -0.23804155 -0.1150378
0.19079226 0.14065816 0.13747518 0.037486482 -0.15736066 0.0905159 0.22616296 -0.19551347
0.2953567 -0.27425978 -0.229323 -0.14803751 -0.15744188 -0.2825408 -0.01078493 0.02983318
0.132715 0.20786345 0.095796645 0.07436943 -0.2444833 0.16154855 -0.009487992 -0.05663256
0.2703861 -0.12652898 0.24692647 0.14657214 -0.30875334 0.08231655 -0.18120761 -0.13292426
0.1947771 0.2595323 0.23082305 -0.037297092 0.16054729 -0.24370298 -0.23122317 0.2410202
0.30351013 0.22651629 0.1974158 0.11362188 0.035927474 -0.07467086 -0.19360855 -0.016692886
-0.1065936 -0.11161454 0.057635684 -0.02974938 -0.16126274 0.2622551 -0.08526018 0.06454371
-0.2973465 -0.2102997 -0.29852542 0.14448918 0.1840777 0.21661162 0.1980439 0.07693918
-0.20966643 0.21453963 0.11842999 0.057508193 -0.14308307 -0.09130535 -0.029447312 -0.19725871
0.18429103 -0.15222695 0.3115606 -0.18298742 -0.2843418 -0.13941482 -0.05164758 0.1690686
0.23706236 -0.29745233 0.115196764 0.22969843 -0.12745257 0.29289356 0.112468764 -0.020595498
-0.09642419 -0.051574603 -0.092546575 -0.09631329 0.23921752 0.1671558 -0.10797065 -0.21300991
0.15261155 -0.2564648 -0.21838984 -0.15180528 0.0865103 -0.2190117 0.13980514 0.013931032
0.046147436 0.14057134 -0.1087428 -0.18352486 0.11127165 -0.21999763 -0.21439688 -0.23034082
0.0563939 0.2987154 0.2634727 0.10532139 -0.2623449 0.2762524 0.18884772 0.18055384
-0.22484384 -0.1056618 0.23769666 0.15535136 -0.24718216 -0.01880548 -0.095106184 0.24503663
0.22959107 -0.061140966 0.27704713 -0.22843967 0.2713391 0.2921482 -0.26588032 0.1362176
-0.28116247 0.016258614 0.07337253 0.21291609 -0.286569 0.013656069 0.056935683 -0.18153091
0.09538635 -0.09053577 0.0105521865 0.3141352 0.12440339 0.31492454 0.014065725 0.2653804
-0.18963213 0.012625274 0.25382075 0.13227868 -0.09666048 -0.22774236 0.2165206 0.27144587
0.0058929906 0.049219087 -0.08161738 -0.073564634 -0.060304087 0.19222714 -0.25686625 0.12636998
-0.09403973 0.030211661 0.28724495 0.23617399 -0.28958943 -0.29023176 -0.27537057 0.044099644
0.19777949 -0.05161166 -0.051541127 0.2091464 -0.13651171 -0.043151066 0.008712785 0.10515839
-0.13103871 0.23686013 0.08080164 0.23602924 0.1952891 0.12980247 -0.22230595 0.24572618
-0.105180785 -0.2701651 -0.30039856 0.16516338 0.07274295 0.06364633 0.2292096 -0.06725464
00000000: 4fb9 39be 4623 b0bd a9b1 94bd 36a7 9dbe
00000010: 9931 34be 1f3d 833e 7d0a 8c3e 245f e73d
00000020: 4f16 843e 79ed 8bbe acd6 1ebe f590 d9bc
00000030: 0a6c 8cbd 7b54 763e 587a 9ebd 03dd 043e
00000040: 90db c8bd ba53 22be ea4a 9a3e e89b 35be
00000050: 7d4b 2fbd 03b0 6b3e eb02 5d3d 8e85 f6bd
00000060: 1ec2 033e b853 e13d 8205 133e 8f6a a03e
00000070: 843b df3d 5680 cf3c c55a 4d3d d91c 533e
00000080: ae69 7b3e 94f4 923e 8fce 94be 5ba4 77bd
00000090: a9df 863e d7f6 383d 9bbe 073e f6cb b0bd
000000a0: bc6c 783e b1e4 6b3e 92b8 873e fc03 0b3e
000000b0: 74fe 073e 4fee 4ebe ee38 8b3e 306b cfbd
000000c0: 99e2 99be 58c1 c3bd efbc 34be 8035 473d
000000d0: 89f0 23be d1b0 05bd 2ac1 73be f098 ebbd
000000e0: 0c5f 433e b108 103e 4bc6 0c3e 6d8b 193d
000000f0: 2723 21be 6660 b93d 4397 673e af34 48be
00000100: fe38 973e c76b 8cbe a6d3 6abe 2597 17be
00000110: 7238 21be 30a9 90be 46b3 30bc b764 f43c
00000120: 71e6 073e 28da 543e 0831 c43d 004f 983d
00000130: d559 7abe fc6c 253e 8673 1bbc 8bf7 67bd
00000140: 0c70 8a3e d090 01be 4bda 7c3e 0217 163e
00000150: eb14 9ebe 9495 a83d 7d8e 39be 4c1d 08be
00000160: a673 473e 6be1 843e e15c 6c3e d6c4 18bd
00000170: 8266 243e 468d 79be c4c5 6cbe 00ce 763e
00000180: ae65 9b3e e3f3 673e 5e27 4a3e 97b2 e83d
00000190: b028 133d 09ed 98bd 5241 46be 85bf 88bc
000001a0: bf4d dabd 2a96 e4bd 6513 6c3d f9b4 f3bc
000001b0: 0f22 25be 4d46 863e e49c aebd 7e2f 843d
000001c0: cd3d 98be ce58 57be 53d8 98be f9f4 133e
000001d0: dd7e 3c3e 70cf 5d3e 05cc 4a3e 4a92 9d3d
000001e0: ccb2 56be 47b0 5b3e 6c8b f23d b68d 6b3d
000001f0: 5e84 12be 4dfe babd 7d3b f1bc 30fe 49be
00000200: cab6 3c3e 62e1 1bbe df84 9f3e 0e61 3bbe
00000210: 4095 91be c2c2 0ebe 6a8c 53bd 5220 2d3e
00000220: 7ac0 723e ac4b 98be 48ec eb3d 1136 6b3e
00000230: ed82 02be 25f6 953e 0656 e63d e4b7 a8bc
00000240: 0c7a c5bd e43f 53bd 0f89 bdbd e73f c5bd
00000250: 70f5 743e e42a 2b3e b71f ddbd 451f 5abe
00000260: 3446 1c3e 5b4f 83be 96a1 5fbe d872 1bbe
00000270: 502c b13d 9a44 60be 1429 0f3e fc3e 643c
00000280: 1805 3d3d eff1 0f3e 8cb4 debd f1ed 3bbe
00000290: 64e2 e33d 0f47 61be db8a 5bbe 77de 6bbe
000002a0: 4afd 663d 3af1 983e e5e5 863e beb2 d73d
000002b0: 1252 86be f470 8d3e 4c61 413e 1be3 383e
000002c0: 773d 66be 3765 d8bd c166 733e 6d14 1f3e
000002d0: 521d 7dbe f30d 9abc 08c7 c2bd e2ea 7a3e
000002e0: ec19 6b3e f36e 7abd 1fd9 8d3e 17ec 69be
000002f0: f5ec 8a3e 7394 953e 7721 88be a07c 0b3e
00000300: 87f4 8fbe c930 853c 5644 963d ad06 5a3e
00000310: 2cb9 92be b4bd 5f3c 6435 693d 3de3 39be
00000320: eb59 c33d d16a b9bd 14e3 2c3c 54d6 a03e
00000330: 34c7 fe3d ca3d a13e ed73 663c f1df 873e
00000340: ed2e 42be 3dda 4e3c cbf4 813e 1074 073e
00000350: eef5 c5bd 4b35 69be 93b7 5d3e f4fa 8a3e
00000360: fd19 c13b f499 493d 0327 a7bd 0ea9 96bd
00000370: 6b01 77bd 31d7 443e f983 83be 2267 013e
00000380: e797 c0bd 727e f73c c511 933e 98d7 713e
00000390: 1145 94be 4299 94be 5ffd 8cbe d4a1 343d
000003a0: b586 4a3e bf66 53bd ca1c 53bd 792a 563e
000003b0: bac9 0bbe 2cbf 30bd 12c0 0e3c 485d d73d
000003c0: 032f 06be 768b 723e 557b a53d a6b1 713e
000003d0: def9 473e f0ea 043e 2ca4 63be a59f 7b3e
000003e0: 0669 d7bd 1453 8abe d7cd 99be 9720 293e
000003f0: 41fa 943d 0259 823d ecb5 6a3e cdbc 89bd

lstm.bias_ih_l0 f4 [40]
-0.28356132 0.23970762 0.16045767 -0.27583748 -0.07960853 0.18190502 0.17722377 -0.20815428
-0.2108255 0.11472374 -0.22102895 -0.050708167 0.09980135 -0.21733165 0.05402421 -0.035198674
-0.023798637 -0.14971972 -0.21840048 -0.011046323 0.03989093 -0.28261274 -0.24867938 -0.24182421
-0.18319109 0.17656124 -0.24424505 0.0032454724 -0.104758985 0.20561907 0.3130714 0.28472
0.0285831 0.08403871 -0.10647553 0.31420934 0.077818625 -0.30955657 -0.22074792 0.040515233
00000000: f32e 91be ea75 753e 044f 243e 923a 8dbe
00000010: cc09 a3bd 4f45 3a3e 267a 353e 6526 55be
00000020: a4e2 57be 48f4 ea3d 6a55 62be 5eb3 4fbd
00000030: a664 cc3d 308c 5ebe 7d48 5d3d 7c2c 10bd
00000040: 5cf5 c2bc 2050 19be 60a4 5fbe a3fb 34bc
00000050: ac64 233d 9eb2 90be cfa5 7ebe c4a0 77be
00000060: 7296 3bbe 78cc 343e 601b 7abe feb1 543b
00000070: e18b d6bd ce8d 523e e54a a03e d2c6 913e
00000080: 1b27 ea3c 7d1c ac3d d80f dabd 0ce0 a03e
00000090: 5f5f 9f3d 337e 9ebe be0b 62be 4df3 253d

lstm.bias_hh_l0 f4 [40]
-0.13935575 -0.054401446 -0.21280119 -0.07035471 0.13152245 -0.25666553 0.06627914 -0.029902581
0.19066402 -0.032526914 -0.20556794 0.0854069 -0.21689266 -0.08297395 0.20158432 0.19899851
-0.090854004 0.2604423 0.037767667 -0.16961528 0.08630553 0.21014039 -0.095921956 -0.24792665
0.261007 0.27895185 -0.15646376 -0.09105316 -0.12782867 -0.13212082 -0.19986513 -0.03706107
0.1870916 -0.14565511 -0.25881815 -0.16570069 0.27418977 0.0077714087 0.046628304 0.012744661
00000000: 46b3 0ebe 0dd4 5ebd 8ee8 59be 2116 90bd
00000010: d2ad 063e aa69 83be 5cbd 873d 42f6 f4bc
00000020: 6e3d 433e f13a 05bd 6780 52be d0e9 ae3d
00000030: 1c19 5ebe 3fee a9bd 1f6c 4e3e 44c6 4b3e
00000040: aa11 babd b158 853e 45b2 1a3d a1af 2dbe
00000050: f4c0 b03d 0b2f 573e bb72 c4bd 7ce0 7dbe
00000060: b6a2 853e c7d2 8e3e 0938 20be 147a babd
00000070: 85e5 02be ae4a 07be 72a9 4cbe 59cd 17bd
00000080: f194 3f3e 9d26 15be d083 84be 71ad 29be
00000090: 9a62 8c3e 4da7 fe3b 52fd 3e3d fcce 503c

lstm.weight_ih_l1 f4 [40, 10]
0.029523497 -0.06427764 -0.19437094 -0.3127052 -0.037724316 0.23210672 -0.31325123 -0.02807871
0.12009786 -0.2612038 0.10270509 -0.2982539 0.23219956 0.28415555 0.21395186 -0.007363147
0.06367324 0.24036106 -0.28851834 -0.1551171 0.25807804 0.28403795 0.14457664 -0.080337934
-0.2574381 -0.2816624 0.10019739 -0.28341013 -0.051917836 -0.17971583 0.041010085 0.13593853
-0.1849658 -0.3051174 -0.30480787 0.12700672 -0.11574975 -0.07318126 0.067760274 0.021303566
-0.12754643 0.27414235 -0.069432594 -0.049049336 0.04314726 0.30660883 0.1074453 -0.13940193
-0.11119678 0.14726105 -0.1451986 0.013709071 0.058108896 0.241871 -0.2470926 -0.17835431
-0.21371557 0.23492406 0.2682814 -0.039398678 0.0775777 0.31119782 0.13346936 0.16556595
0.28513423 -0.105261415 0.08871144 0.28849775 0.076720275 0.20916381 0.14539824 0.21481766
-0.03547424 -0.12894447 -0.13266991 -0.06436122 -0.28382853 0.20435368 -0.29869774 -0.0020411573
0.24237633 -0.09235025 0.16332132 0.23406446 -0.23950918 -0.30557284 -0.040655203 -0.09116912
-0.26514697 -0.30380195 0.2457987 0.088052906 -0.11289059 0.18775035 0.03326695 0.1957849
-0.017475331 -0.044878468 0.11256022 -0.23013297 0.20002106 -0.22393543 -0.05669427 0.012237482
0.071074575 0.22256166 0.2878572 -0.1988257 0.14937305 0.25517014 0.19347186 0.16205668
-0.025227137 -0.2243885 0.26254144 0.22056872 0.034152877 -0.3119141 0.009985069 0.24175406
-0.054425232 -0.1915844 -0.15659736 -0.008918612 -0.26842633 0.15652803 0.107250325 -0.18938796
-0.17480582 0.30589393 -0.30114853 0.12503022 -0.09411606 -0.08803169 -0.12074795 0.2504232
-0.2475533 -0.20256871 0.19712526 -0.07865155 0.09605374 -0.15880015 -0.29285613 -0.12647109
-0.15592253 0.12357182 -0.097810514 0.20970896 0.17629479 0.17133436 -0.25294638 -0.264568
-0.11497069 -0.31264025 -0.005228689 -0.2032548 -0.12652352 -0.19869542 0.30613428 -0.09704281
-0.031971823 -0.015714115 -0.02897093 0.27976763 -0.27238622 0.13917533 0.11940894 -0.023461245
-0.0035352893 -0.21502891 -0.110572174 0.086145386 -0.12502825 -0.19686908 -0.24607266 0.13351998
0.17564896 -0.113483876 -0.0016108805 0.21597412 0.30482802 0.30900878 -0.14307666 -0.023697985
-0.05780223 -0.11347204 -0.24250104 -0.07566784 0.14534558 0.06120445 -0.16062286 -0.047956
0.064718135 0.2470728 -0.05607102 -0.038685523 -0.09390632 0.012218671 -0.17840083 0.20815873
-0.27242732 0.18903953 0.19927491 -0.09484076 0.13299079 -0.167258 0.088418536 -0.3026418
0.31141928 -0.14377244 0.104527414 -0.222992 0.1584757 -0.004703264 0.23595938 0.059864838
0.09973594 0.25755048 0.025911985 0.105799966 0.11378549 0.012213544 0.100933805 -0.1325469
0.28514272 0.22677025 -0.111801185 -0.097863965 -0.24208188 -0.1342161 -0.029716318 0.18319438
-0.026044037 0.00076491566 -0.12386013 -0.16360076 -0.030484702 0.17400359 -0.1489698 0.05581027
-0.18583316 -0.22151642 -0.03231694 0.015772318 -0.303826 -0.23749931 0.16003335 -0.1442308
0.2282038 -0.042747818 -0.23694216 0.15481424 -0.2229254 -0.23280518 -0.0048422543 0.2093745
00000000: 43db f13c ffa3 83bd 2d09 47be e51a a0be
00000010: d084 1abd 62ad 6d3e 7762 a0be 5305 e6bc
00000020: def5 f53d 81bc 85be 0c57 d23d bcb4 98be
00000030: b9c5 6d3e d67c 913e 3216 5b3e 8e46 f1bb
00000040: 1e67 823d 3621 763e adb8 93be 04d7 1ebe
00000050: ce22 843e 6c6d 913e e60b 143e 3788 a4bd
00000060: edce 83be 0e36 90be 4a34 cd3d 221b 91be
00000070: cca7 54bd 6d07 38be 31fa 273d 7833 0b3e
00000080: ad67 3dbe 5938 9cbe c70f 9cbe 0d0e 023e
00000090: 340e edbd 0ee0 95bd e6c5 8a3d d184 ae3c
000000a0: 889b 02be 635c 8c3e ad32 8ebd f5e7 48bd
000000b0: 2ebb 303d d5fb 9c3e 480c dc3d 61bf 0ebe
000000c0: 23bb e3bd 9acb 163e f1ae 14be 039c 603c
000000d0: 9803 6e3d 08ad 773e d805 7dbe 83a2 36be
000000e0: 41d8 5abe ef8f 703e 2e5c 893e 8260 21bd
000000f0: 0fe1 9e3d 5255 9f3e 31ac 083e 1f8a 293e
00000100: 1dfd 913e 4c93 d7bd 58ae b53d fab5 933e
00000110: 851f 9d3d 0a2f 563e 47e3 143e 29f9 5b3e
00000120: 704d 11bd 050a 04be 9fda 07be d1cf 83bd
00000130: f951 91be 1742 513e e9ee 98be f0c4 05bb
00000140: 8031 783e 2122 bdbd b43d 273e 98ae 6f3e
00000150: e541 75be 0b74 9cbe 1286 26bd e0b6 babd
00000160: 58c1 87be ee8b 9bbe a8b2 7b3e 1555 b43d
00000170: 2f33 e7bd a141 403e ed42 083d d67b 483e
00000180: 6d28 8fbc 7cd2 37bd f985 e63d faa7 6bbe
00000190: 52d2 4c3e 544f 65be 4038 68bd b87f 483c
000001a0: 8c8f 913d 34e7 633e 0562 933e f798 4bbe
000001b0: 40f5 183e a9a5 823e 7d1d 463e 30f2 253e
000001c0: 24a9 cebc 19c6 65be d56b 863e c4dc 613e
000001d0: e3e3 0b3d 34b3 9fbe 6a98 233c 608e 773e
000001e0: feec 5ebd b32e 44be 0f5b 20be 5f1f 12bc
000001f0: 2d6f 89be e248 203e 0fa6 db3d ebee 41be
00000200: 4c00 33be 219e 9c3e 2430 9abe ec07 003e
00000210: ecbf c0bd f549 b4bd b44a f7bd 7837 803e
00000220: 9d7e 7dbe 2c6e 4fbe 34db 493e 1014 a1bd
00000230: d3b7 c43d 829c 22be 3df1 95be a381 01be
00000240: 28aa 1fbe 3913 fd3d e150 c8bd f2bd 563e
00000250: 9f86 343e 4672 2f3e 3082 81be 7575 87be
00000260: c175 ebbd 6212 a0be 6c55 abbb 0722 50be
00000270: 628f 01be d076 4bbe a2bd 9c3e 61be c6bd
00000280: e3f4 02bd e3ba 80bc 7254 edbc b43d 8f3e
00000290: 3576 8bbe fa83 0e3e ad8c f43d cc31 c0bc
000002a0: 50b0 67bb 8a30 5cbe aa73 e2bd fe6c b03d
000002b0: 6807 00be 0c98 49be 79fa 7bbe 76b9 083e
000002c0: 52dd 333e 3c6a e8bd 2e24 d3ba 5228 5d3e
000002d0: 6b12 9c3e 6636 9e3e b082 12be 4722 c2bc
000002e0: 08c2 6cbd 0764 e8bd 3152 78be bef7 9abd
000002f0: 79d5 143e 84b1 7a3d 527a 24be 836d 44bd
00000300: f18a 843d a700 7d3e baaa 65bd b674 1ebd
00000310: f551 c0bd d230 483c b5ae 36be 9027 553e
00000320: 987b 8bbe 9493 413e b90e 4c3e df3b c2bd
00000330: bd2e 083e ae45 2bbe c714 b53d def3 9abe
00000340: 5972 9f3e 1539 13be 7812 d63d 0458 64be
00000350: 7447 223e d71d 9abb 569f 713e d534 753d
00000360: 5b42 cc3d a8dd 833e 5f45 d43c a7ad d83d
00000370: 5e08 e93d 511b 483c 62b6 ce3d 60ba 07be
00000380: 3afe 913e 7636 683e 05f8 e4bd e76c c8bd
00000390: 50e4 77be f26f 09be a36f f3bc 4f97 3b3e
000003a0: 4e5a d5bc 9f84 483a 61aa fdbd f586 27be
000003b0: 0ebb f9bc ff2d 323e 8a8b 18be 4f99 643d
000003c0: 0c4b 3ebe 33d5 62be c55e 04bd f334 813c
000003d0: 158f 9bbe 0533 73be c8df 233e 3db1 13be
000003e0: 42ae 693e 5618 2fbd f7a0 72be a087 1e3e
000003f0: 8e46 64be 7b64 6ebe c6ab 9ebb 4566 563e

lstm.weight_hh_l1 f4 [40, 10]
0.023073869 -0.1461767 -0.12593457 -0.19960265 -0.2563676 -0.026123691 0.21680723 0.0040785824
-0.1589387 -0.05651483 0.26415205 0.30397972 0.2529296 -0.30556 -0.31483534 0.10687777
0.20979498 -0.024201658 0.18857208 0.26584232 0.14152044 -0.061539087 -0.13365962 -0.09153802
-0.24069914 -0.14669828 0.03998212 -0.28093866 0.25483823 0.26752815 0.22587822 -0.24127275
-0.29142547 0.22681926 0.15583818 -0.27834862 -0.21841145 -0.04488488 -0.22242051 0.28962004
-0.15700807 0.0152661195 -0.277853 0.19765416 -0.24003409 -0.1810563 0.21972373 -0.05005212
-0.31547529 0.1269386 0.28043595 -0.13934855 0.05859214 0.07369883 -0.22512586 0.13494313
-0.044732545 0.16024841 -0.27322337 -0.18078092 -0.2078395 0.02896064 0.039762683 -0.28412995
-0.027626494 0.25085455 0.30789644 -0.14640567 -0.17618087 -0.0006373857 0.097210675 0.04557376
-0.1524056 0.27010867 -0.22746901 0.15664554 -0.03932355 0.026798286 0.052061915 -0.18190739
0.24891466 -0.19273213 -0.22932953 0.14036253 -0.095374435 -0.000425527 -0.13409136 0.16660263
0.00042126718 -0.30098173 0.09354182 0.27689487 -0.06991033 0.24640062 -0.007978216 -0.042382985
-0.14704826 0.06293502 0.26617745 0.30250117 0.013081298 -0.05725479 -0.025535991 0.123657204
-0.18284497 0.13402757 0.041870754 0.061786983 0.08335982 0.27766174 -0.30561438 -0.25514376
0.24897146 0.046378255 0.18753281 0.056241486 0.21339732 0.31108722 -0.22225578 -0.120602176
-0.24788477 0.1319275 0.14091314 -0.06432786 0.13256684 0.27650183 0.24765821 -0.261758
0.28776884 0.18555441 0.16469058 -0.27034804 -0.31465417 0.22637914 0.21374433 0.30814195
0.3057685 -0.024371259 -0.21845129 0.22731592 -0.09604149 0.08568329 0.23144841 0.013782166
0.24459033 0.30167434 -0.21082589 0.1794066 0.09859673 0.058533635 -0.049497593 -0.088854805
-0.13908361 0.29977915 0.08347397 0.27952242 -0.3049168 0.07290196 -0.276212 0.101961926
0.31369993 0.27888197 0.03394011 -0.1553642 -0.23263165 0.0588829 -0.29936048 -0.20414314
0.23065017 0.20114674 0.03338924 0.0018722358 -0.25485817 -0.07832539 -0.10038671 0.18664643
-0.21005596 0.009777018 0.10506098 -0.1971962 -0.10262875 -0.29881027 -0.2710769 -0.038445577
-0.05575493 -0.21869332 -0.26492178 0.055351794 -0.05857212 -0.11216338 -0.29814833 -0.13832785
0.2646117 0.01743409 0.10812837 0.23926535 -0.15050423 0.012855529 0.31001687 0.070997715
-0.24777356 0.1627163 0.03135453 -0.0091277575 0.15906012 -0.3033011 0.19022831 0.10824923
-0.25215614 -0.3147229 0.31594458 -0.07373235 -0.2879079 0.13442577 0.13267918 0.305076
-0.022160651 -0.018847324 -0.23558663 -0.28830236 0.064526826 0.16709405 -0.14910552 -0.23264523
0.2697662 -0.21363659 -0.2238382 -0.014641325 0.17613892 0.12108463 0.088731684 0.19972672
-0.19107726 0.17332602 -0.103476 -0.09532871 0.084078066 -0.25158283 -0.24171945 0.094919205
0.21210285 -0.2039222 -0.28183746 -0.15572394 -0.29185784 0.23655899 0.30878338 -0.20854479
-0.061851297 0.0637941 0.07101589 0.043898452 0.077939555 -0.17863618 0.23970069 0.19029908
00000000: 6905 bd3c 58af 15be fef4 00be a364 4cbe
00000010: 9d42 83be 5a01 d6bc b702 5e3e a1a5 853b
00000020: d4c0 22be 187c 67bd f03e 873e 3ba3 9b3e
00000030: fd7f 813e 5c72 9cbe 1932 a1be bbe2 da3d
00000040: 7fd4 563e 8e42 c6bc 0a19 413e 7c1c 883e
00000050: bcea 103e 6910 7cbd 11de 08be 4978 bbbd
00000060: d679 76be 1338 16be 4bc4 233d 31d7 8fbe
00000070: 287a 823e 73f9 883e 9f4c 673e 3410 77be
00000080: b835 95be 4f43 683e 0b94 1f3e b683 8ebe
00000090: 40a7 5fbe 35d9 37bd 34c2 63be 1449 943e
000000a0: b9c6 20be bf1e 7a3c c042 8ebe da65 4a3e
000000b0: 7fcb 75be d366 39be 42ff 603e 7403 4dbd
000000c0: fa85 a1be 31fc 013e 4d95 8f3e 63b1 0ebe
000000d0: 50fe 6f3d 6aef 963d 6587 66be 882e 0a3e
000000e0: 7939 37bd 2918 243e efe3 8bbe a21e 39be
000000f0: e1d3 54be dd3e ed3c 32de 223d 7b79 91be
00000100: f550 e2bc 0270 803e 9aa4 9d3e 5eeb 15be
00000110: c268 34be 3b16 27ba 6416 c73d 8dab 3a3d
00000120: 3710 1cbe af4b 8a3e a3ed 68be b067 203e
00000130: bb11 21bd 1488 db3c e03e 553d ee45 3abe
00000140: 7ce3 7e3e 925b 45be 5cd5 6abe 32bb 0f3e
00000150: ac53 c3bd 4419 dfb9 3f4f 09be e199 2a3e
00000160: 86dd dc39 471a 9abe db92 bf3d 2ac5 8d3e
00000170: 262d 8fbd 7250 7c3e 10b7 02bc c899 2dbd
00000180: d293 16be 13e4 803d 6948 883e 6fe1 9a3e
00000190: f152 563c 0084 6abd db30 d1bc fd3f fd3d
000001a0: b63b 3bbe 863e 093e ab80 2b3d 5914 7d3d
000001b0: 8eb8 aa3d ae29 8e3e 7d79 9cbe 34a2 82be
000001c0: 60f2 7e3e 20f7 3d3d 9a08 403e 795d 663d
000001d0: d484 5a3e d346 9f3e 0597 63be 46fe f6bd
000001e0: 81d5 7dbe 0118 073e 894b 103e 53be 83bd
000001f0: 9abf 073e a691 8d3e 1d9a 7d3e 2505 86be
00000200: 7056 933e fa01 3e3e a6a4 283e 0f6b 8abe
00000210: 5a1a a1be efcf 673e cbdf 5a3e c8c4 9d3e
00000220: b08d 9c3e 3ca6 c7bc b2b1 5fbe 81c5 683e
00000230: 67b1 c4bd b97a af3d d000 6d3e 98ce 613c
00000240: e375 7a3e 0f75 9a3e bee2 57be 5db6 373e
00000250: 15ed c93d f7c0 6f3d fdbd 4abd 82f9 b5bd
00000260: ef6b 0ebe a77c 993e 67f4 aa3d 901d 8f3e
00000270: 0e1e 9cbe 9f4d 953d a96b 8dbe 6ad1 d03d
00000280: 479d a03e 9ec9 8e3e c904 0b3d cb17 1fbe
00000290: fe36 6ebe 322f 713d c745 99be e60a 51be
000002a0: 8f2f 6c3e 69f9 4d3e 28c3 083d cf65 f53a
000002b0: c57c 82be 1069 a0bd 8c97 cdbd 3e20 3f3e
000002c0: e918 57be c92f 203c 362a d73d cded 49be
000002d0: 062f d2bd a9fd 98be 97ca 8abe 1c79 1dbd
000002e0: 485f 64bd 24f1 5fbe d4a3 87be 90b8 623d
000002f0: 52e9 6fbd eab5 e5bd e6a6 98be d1a5 0dbe
00000300: 2f7b 873e f0d1 8e3c 6872 dd3d fa01 753e
00000310: c81d 1abe ff9f 523c 88ba 9e3e 4067 913d
00000320: 5ab8 7dbe 1a9f 263e 9c6d 003d 978c 15bc
00000330: a8e0 223e 484a 9bbe 36cb 423e c6b1 dd3d
00000340: 9c1a 81be 5c23 a1be 7dc3 a13e fc00 97bd
00000350: aa68 93be e9a6 093e 0ddd 073e ec32 9c3e
00000360: 418a b5bc b465 9abc 9f3d 71be 5e9c 93be
00000370: a426 843d b41a 2b3e 1eaf 18be 8d3a 6ebe
00000380: cc1e 8a3e 8dc3 5abe d735 65be 2be2 6fbc
00000390: c35d 343e 38fb f73d f5b8 b53d 2985 4c3e
000003a0: c2a9 43be 607c 313e 3aeb d3bd b33b c3bd
000003b0: 1f31 ac3d 77cf 80be 4e85 77be 0065 c23d
000003c0: 7d31 593e fbd0 50be 004d 90be 1976 1fbe
000003d0: 646e 95be 853c 723e db18 9e3e c48c 55be
000003e0: c957 7dbd 7ba6 823d c770 913d ddce 333d
000003f0: c69e 9f3d 67ec 36be 1974 753e c3dd 423e

lstm.bias_ih_l1 f4 [40]
0.22744775 -0.21606287 -0.22078103 0.1992175 -0.16042797 -0.15560143 -0.2922293 0.3017476
0.17152096 -0.08238531 0.040318456 0.13377531 -0.3053373 -0.12295479 0.034238636 -0.15699646
-0.033580896 0.03799306 -0.03649165 -0.2301859 0.10381139 0.23310061 0.108513825 0.07688976
0.101499416 -0.07897118 0.28235742 0.19567172 0.0067264778 -0.05629728 0.17757906 -0.1114247
-0.3126878 -0.188364 0.18027729 -0.31445864 0.16861562 0.3083218 0.17645466 -0.09165323
00000000: 10e8 683e 963f 5dbe 6c14 62be acff 4b3e
00000010: 3b47 24be fb55 1fbe 149f 95be a97e 9a3e
00000020: 31a3 2f3e a1b9 a8bd f724 253d 65fc 083e
00000030: 2c55 9cbe b9cf fbbd d03d 0c3d aec3 20be
00000040: 1f8c 09bd 9c9e 1b3d 4578 15bd dab5 6bbe
00000050: 119b d43d edb1 6e3e 7f3c de3d 6178 9d3d
00000060: edde cf3d a4bb a1bd 2791 903e 2b5e 483e
00000070: c969 dc3b fa97 66bd 49d7 353e a232 e4bd
00000080: 9e18 a0be 7ee2 40be 9c9a 383e b900 a1be
00000090: 93a9 2c3e 5bdc 9d3e 88b0 343e b0b4 bbbd

lstm.bias_hh_l1 f4 [40]
0.13961333 -0.1398077 -0.27475333 -0.10425283 0.30305427 0.20047949 0.112713076 0.25738272
-0.17683059 0.07247639 -0.016426405 0.08397395 -0.2160369 -0.1624718 0.21403325 0.043648634
0.1159981 -0.013873431 0.14659454 0.088681884 -0.16311756 -0.30356875 -0.31548637 -0.204385
-0.01619875 -0.19511946 0.13557619 -0.23644233 0.08723288 -0.18504485 0.047248308 0.19397889
0.0034957826 0.065684885 0.29870418 -0.28673315 0.07615625 0.20714463 -0.015964009 -0.1118817
00000000: ccf6 0e3e c029 0fbe 78ac 8cbe 8282 d5bd
00000010: ee29 9b3e 7f4a 4d3e 1dd6 e63d abc7 833e
00000020: 1413 35be 806e 943d ab90 86bc 89fa ab3d
00000030: c738 5dbe 025f 26be 882b 5b3e e9c8 323d
00000040: 6990 ed3d 634d 63bc e11c 163e d99e b53d
00000050: 4a08 27be 5d6d 9bbe 6e87 a1be 4d4a 51be
00000060: 3eb3 84bc 65cd 47be 7cd4 0a3e f01d 72be
00000070: 27a7 b23d 667c 3dbe 7187 413d 67a2 463e
00000080: 8019 653b cc85 863d c1ef 983e b0ce 92be
00000090: cff7 9b3d b91d 543e f4c6 82bc 3c22 e5bd

fc.weight f4 [1, 7200]
-0.0021941117 -0.007639341 0.0014290662 0.0054600076 -0.008554572 0.0065202527 0.006122771 -0.009886921
0.0017852844 0.005742133 -0.008691416 0.008160182 0.009483116 0.0039069764 0.0056555285 0.007991883
0.00036943398 0.010561357 -0.009332579 0.010363096 0.010103229 -0.0013095026 -0.008347531 -0.0057918467
-0.0017371738 -0.006501094 0.0057783946 -0.008773765 -0.00016222041 -0.005253085 -0.009413305 0.0025026673
0.005924067 -0.008474774 0.004691561 0.011498216 -0.00950625 0.0063252742 0.0075560617 0.008611055
-0.0031570322 0.0026615988 -0.0043146713 -0.0095538255 -0.009821154 0.0049195024 -0.009854689 0.00083767704
-0.002138069 0.0012240484 0.0020742966 0.004900365 -0.00970444 -0.0005266558 -0.009288409 0.008801393
0.011645269 -0.010010589 -0.0011609083 0.0011450611 0.0015645894 0.0015704787 0.0058740554 -0.01126009
0.009799532 0.0074238316 -0.0029563429 -0.0072472123 -0.005179901 0.0056814416 -0.009854176 -0.0091221
-0.007258092 -0.006004358 -0.0063877767 0.011189244 0.00839029 -0.008474075 -0.0103439 0.001993785
-0.010043171 -0.0082060015 0.007996752 -0.00711843 0.0071203182 -0.006751476 0.0116255805 -0.006824599
0.0038477713 0.00919093 0.0038565337 -0.010169478 0.0060454276 0.0015959915 0.0057029226 0.009961228
0.002386651 -0.0013121761 0.0003656478 -0.0016641276 0.0019165409 -0.011015596 0.0089799175 -0.010967931
0.0018071866 0.0023583395 -0.0019928394 -0.0014918608 0.005654444 0.010432528 -0.009027873 -0.005184293
-0.004594154 -0.008388757 0.0039929743 0.011162237 0.0031708705 0.009655573 0.0005065026 -0.010551767
0.0005499054 0.002245313 -0.010181556 -0.005361533 0.011184022 0.009673559 0.005712927 0.0071198167
0.0025950503 -0.004215892 0.011293187 0.0053480263 -0.0054687997 -0.008298471 0.0072824936 -0.00088770816
0.0034376038 0.0067474423 -0.0094727585 0.0038139555 0.009759423 -0.009427857 -0.011144392 -0.0071143783
-0.009764529 0.009947236 0.0053594215 0.0034931884 -0.003094482 -0.001174252 -0.007883453 0.010721954
-0.009618142 0.007593237 -0.010841055 0.009220717 0.010924601 -0.010295441 -0.005463038 0.0021701131
0.01047541 -0.006420369 0.011150929 0.009407265 -0.001350541 -0.007974445 -0.00044191533 -0.0037587937
0.0013724293 0.0012074187 -0.009666634 0.009850435 -0.0020813434 0.007067934 0.0048012035 -0.0023182398
-0.0075698397 0.0065507838 -0.006919057 -0.0061525367 -0.008469737 0.0008989066 0.0005329315 -0.011285412
0.006213956 -0.0025233936 0.0049757855 -0.008103815 -0.0049816677 0.011274676 -0.0010100689 -0.0028141479
-0.0051396494 -0.009725817 -0.006385956 -0.0012050739 -0.009515641 -0.006782239 -0.009965548 0.0028752259
-0.0074923625 -0.0069668433 0.0023101068 -0.009089556 0.003089763 -0.00338121 0.0013571777 -0.008457418
-0.0075968755 0.006578151 0.0002479457 -0.004131487 0.0098619675 -0.0066435826 0.011156686 0.005478398
0.006217714 -0.006504644 0.0070286896 -0.010939143 -0.008799015 0.0020610723 0.009052805 0.0046941238
0.0019328615 -0.00913209 -0.0015434106 0.0030912452 -0.0027269728 0.0071213283 -0.007013095 0.0021981183
0.011387538 0.011634947 -0.004679958 0.0010542542 0.010718273 -0.005204272 0.011467076 0.0029982214
-0.0067628105 0.008267271 -0.00043613138 0.0061785174 -0.0064494135 0.0054795654 -0.00793727 0.009145247
-0.0061270925 0.0039626677 -0.007514099 -0.0030030992 0.0046284604 0.009775028 0.0043338356 0.0026614317
00000000: 16cb 0fbb 7053 fabb 814f bb3a dde9 b23b
00000010: 7a28 0cbc d8a7 d53b 87a1 c83b c1fc 21bc
00000020: 3400 ea3a 8128 bc3b 7166 0ebc 49b2 053c
00000030: 125f 1b3c 1806 803b 0352 b93b 63f0 023c
00000040: 97b0 c139 8b09 2d3c ace7 18bc fac9 293c
00000050: 0488 253c 9ea3 abba 15c4 08bc 88c9 bdbb
00000060: e1b1 e3ba 2107 d5bb b058 bd3b d6bf 0fbc
00000070: b619 2ab9 1222 acbb 433a 1abc ca03 243b
00000080: ad1e c23b c7d9 0abc abbb 993b 0363 3c3c
00000090: 1ac0 1bbc 3f44 cf3b d798 f73b 6215 0d3c
000000a0: 36e6 4ebb 386e 2e3b 1662 8dbb a687 1cbc
000000b0: e8e8 20bc c733 a13b 9075 21bc 8e97 5b3a
000000c0: d81e 0cbb 4070 a03a ecf0 073b 3e93 a03b
000000d0: 5fff 1ebc 460f 0aba 692e 18bc b833 103c
000000e0: cccb 3e3c 7403 24bc 9e29 98ba e015 963a
000000f0: e912 cd3a 85d8 cd3a 267b c03b 3e7c 38bc
00000100: 378e 203c 9d43 f33b 34bf 41bb 067a edbb
00000110: 29bc a9bb 632b ba3b 6973 21bc dc74 15bc
00000120: 4ad5 edbb 35c0 c4bb 8e50 d1bb 1753 373c
00000130: 6d77 093c d9d6 0abc 7679 29bc 29aa 023b
00000140: 1d8c 24bc 7772 06bc cf04 033c b841 e9bb
00000150: 8f51 e93b 7c3b ddbb 3879 3e3c e3a0 dfbb
00000160: e42a 7c3b 8e95 163c e6bd 7c3b e29d 26bc
00000170: b918 c63b 9730 d13a 95df ba3b 6b34 233c
00000180: 5c69 1c3b 53fd abba 6bb4 bf39 db1e daba
00000190: 7134 fb3a c27a 34bc 8120 133c d6b2 33bc
000001a0: 1fdf ec3a 5f8e 1a3b 4c9a 02bb 8b8a c3ba
000001b0: ea48 b93b 32ed 2a3c a5e9 13bc 00e1 a9bb
000001c0: 8f8a 96bb ff70 09bc 7fd7 823b d1e1 363c
000001d0: 61ce 4f3b 6932 1e3c d0c6 043a 52e1 2cbc
000001e0: 8727 103a 1a26 133b 8bd0 26bc ccaf afbb
000001f0: 303d 373c d97d 1e3c 8133 bb3b 5a4d e93b
00000200: b811 2a3b 7725 8abb 0f07 393c 7f3e af3b
00000210: 9e33 b3bb 4ff6 07bc fca1 ee3b 16b5 68ba
00000220: 6c49 613b a619 dd3b a133 1bbc 8ef3 793b
00000230: fde5 1f3c 4c77 1abc f896 36bc bb1f e9bb
00000240: 67fb 1fbc bbf9 223c 169e af3b faed 643b
00000250: cbcc 4abb 5ce9 99ba 9929 01bc 22ab 2f3c
00000260: 6995 1dbc b0d0 f83b ae9e 31bc 7d12 173c
00000270: 19fd 323c 36ae 28bc 4903 b3bb 7538 0e3b
00000280: 0ea1 2b3c f561 d2bb 63b2 363c ee20 1a3c
00000290: a304 b1ba 3fa7 02bc dfb0 e7b9 1856 76bb
000002a0: 16e3 b33a 4042 9e3a cd60 1ebc b863 213c
000002b0: 2667 08bb 219a e73b 6a53 9d3b 9ced 17bb
000002c0: 6b0c f8bb f5a7 d63b 42b9 e2bb 389b c9bb
000002d0: a7c4 0abc 9aa4 6b3a 6db4 0b3a 73e6 38bc
000002e0: 719e cb3b 855f 25bb ea0b a33b ddc5 04bc
000002f0: 423d a3bb 6bb9 383c 4a64 84ba 916d 38bb
00000300: 816a a8bb 0859 1fbc 4841 d1bb 92f3 9dba
00000310: 7ee7 1bbc 8b3d debb 8a46 23bc 496e 3c3b
00000320: 7e82 f5bb 1e4a e4bb 2965 173b 5cec 14bc
00000330: 9f7d 4a3b 4a97 5dbb 54e3 b13a fb90 0abc
00000340: 36ef f8bb 888d d73b b5fe 8139 6d61 87bb
00000350: 1794 213c 69b2 d9bb 88ca 363c 2284 b33b
00000360: f7bd cb3b e924 d5bb ec50 e63b 173a 33bc
00000370: be29 10bc 0e13 073b 3752 143c 2ad1 993b
00000380: 1258 fd3a c39e 15bc 444c caba 7d96 4a3b
00000390: 03b7 32bb 085a e93b 1bce e5bb 4e0e 103b
000003a0: cc92 3a3c 81a0 3e3c 555a 99bb e72e 8a3a
000003b0: b29b 2f3c 9988 aabb 67e0 3b3c cf7d 443b
000003c0: 919a ddbb 7373 073c 90a8 e4b9 2975 ca3b
000003d0: 9a55 d3bb ed8d b33b 530b 02bc f2d5 153c
000003e0: c7c5 c8bb 44d9 813b d538 f6bb a5cf 44bb
000003f0: 57aa 973b 7027 203c d902 8e3b 6a6b 2e3b
