DeepLearning/timeSerise/.scale_batch_size_0a26d2c2-3ec0-4bff-91f2-58658b565501.ckpt (torch, 47605 bytes, 9 tensors)

lstm.weight_ih_l0 f4 [40, 50]
000000 e6 cc 6a be 3d 53 31 3e 50 5a 70 be 1e 25 6b 3c
       -0.22929725 0.17316909 -0.23471951 0.014352111
000010 7b 97 cf 3d 61 45 9e 3e 48 e4 18 be be fd b6 3c
       0.101363145 0.30912307 -0.14930832 0.02233779
000020 10 ce de bd 14 73 b3 3d a9 08 88 3e ea 13 2b be
       -0.10879147 0.08762184 0.26569107 -0.16706815
000030 c9 9d 3f be 53 8a 10 bd 8b 6a ba bd c1 9c 35 bc
       -0.18712534 -0.035288166 -0.09102353 -0.011084736
000040 0d e1 0d 3d e1 80 9a bd df 54 48 bd 8d 5d 1d be
       0.034638453 -0.07544113 -0.048909064 -0.15367718
000050 df 35 8b 3e df 38 61 3e 46 3b f5 bc ca 94 91 be
       0.27189538 0.21994351 -0.02993549 -0.2843383
000060 b9 32 f6 bb 84 6b 3c be 77 7e 58 be 0b 46 46 3e
       -0.007513371 -0.18400389 -0.21141993 0.19362657
000070 d4 aa a0 3e 68 d5 3e be 02 51 90 bd 10 06 ba bd
       0.31380332 -0.18636096 -0.07046701 -0.090831876
000080 c3 3f 85 be dc 08 62 bd 25 b3 1e be f2 5e 1c be
       -0.2602521 -0.05518423 -0.15498026 -0.15270594
000090 cb 5a 95 be 18 bc 7e bd 72 f1 83 be e8 fd ea bd
       -0.29170832 -0.0621911 -0.25770146 -0.1147421
0000a0 35 93 c8 bd 29 05 78 3d 34 43 42 3d 40 06 8f 3e
       -0.097937025 0.060551796 0.04742737 0.27934456
0000b0 68 c8 07 be 64 19 9a 3e 34 38 62 be 5a b3 6d 3e
       -0.13260043 0.30097497 -0.22091752 0.23212948
0000c0 ef 39 4d be f1 26 44 be d5 73 40 3e e6 25 9c 3e
       -0.20041631 -0.1915548 0.18794186 0.30497664
0000d0 6d f5 c0 bd 0d e7 9a 3e 81 04 d4 3d df 53 91 be
       -0.09421811 0.30254403 0.103524216 -0.283843
0000e0 64 b6 9f 3e 31 e6 7b 3e 72 2e 6b 3e 6b 28 8c 3e
       0.3119384 0.2459953 0.22966936 0.27374586
0000f0 53 95 ef 3b 40 0b cf bb cb 53 28 3e 50 6e 73 be
       0.007311502 -0.00631848 0.16438214 -0.2377255
000100 1d 28 09 3d 81 01 f2 bd fd a3 64 3e 1f cf 7d bd
       0.03348552 -0.11816693 0.22328182 -0.061965104
000110 ec e9 83 3e 44 6e 8e be 33 12 35 be 61 e3 5d 3e
       0.25764406 -0.278185 -0.17682724 0.2166877
000120 33 e4 9b 3e a4 3f 11 bc 76 d9 f7 3d d6 a8 0f be
       0.3044754 -0.008865271 0.12102024 -0.1402925
000130 39 91 03 be 3b cf 4d 3e b9 5e 96 bc ab 16 0a 3e
       -0.12848367 0.20098583 -0.018355714 0.1348521
000140 68 bf 01 3e 11 e8 18 3e 0e 24 8b 3c 4d 4f e9 bd
       0.12670672 0.14932276 0.016984966 -0.113920785
000150 1f 1e 8e be 58 2d 9c be 35 12 13 3e 23 92 2e bd
       -0.27757356 -0.30503345 0.14362414 -0.042619836
000160 29 4e 26 be 50 dd 23 3d 62 e1 46 3d e9 b7 8f 3e
       -0.16240753 0.040005982 0.048554786 0.2807
000170 36 0e 68 be b9 09 5e be 8d af a5 bc da 4f 88 3d
       -0.22661671 -0.21683396 -0.02022531 0.066558555
000180 2b be 51 bd 69 0e a1 bb ea 4d 5f be cb 49 8a be
       -0.05120675 -0.004915048 -0.21807066 -0.27009425
000190 13 2c 96 be 18 81 20 be c7 6d cf 3d 60 08 45 be
       -0.293305 -0.15674245 0.1012836 -0.19241476
0001a0 48 64 32 be 42 d3 8c 3e 95 67 61 3e 0a b9 1a be
       -0.17421067 0.27504927 0.2201217 -0.1510965
0001b0 70 a0 8c be ae 11 70 3e 48 a1 d2 bd 61 37 24 be
       -0.27466154 0.23444244 -0.10284668 -0.1603675
0001c0 7b a8 39 3e c2 2a f3 bd f3 b7 1e bd 75 38 70 be
       0.18130676 -0.1187339 -0.038749646 -0.23459037
0001d0 af bf 0c be 4b a6 37 bd 44 35 01 be 14 17 5d 3d
       -0.13744996 -0.044836324 -0.12617975 0.053977087
0001e0 39 d9 ed 3d 51 f0 06 be 9a 3d 5f 3e 78 58 8e 3e
       0.116136976 -0.13177611 0.21800843 0.2780187
0001f0 33 b2 87 3e 4c 4b e4 bd ec 3d 92 3e c4 3a 92 3e
       0.26503143 -0.11147174 0.28562868 0.2856046
000200 3e ee 7f be f2 32 7a bd 2a 71 9c 3e 93 6f 92 3d
       -0.24993226 -0.06108374 0.30555087 0.07150187
000210 f7 0f 00 bb 1e 69 9f be 17 f0 97 3e cb 03 8f 3e
       -0.0019540766 -0.31134886 0.29675362 0.2793258
000220 c2 49 8d be 6e 6c 26 3e be ba 70 3e 6e 45 5c be
       -0.27595335 0.162523 0.23508736 -0.2151086
000230 16 7a 36 be 44 84 d2 3d ae e6 97 3e 64 00 54 3e
       -0.1782001 0.10279134 0.29668182 0.20703274
000240 e6 da 11 be 00 10 89 bd 67 09 8c be 02 d5 0c 3e
       -0.1424366 -0.06692505 -0.27350923 0.13753131
000250 08 99 7c be 80 1d d0 bc e1 5c 3c 3e 80 12 e8 bd
       -0.24667752 -0.025404692 0.18394805 -0.113316536
000260 26 05 0f 3e 40 cd 96 be ab 8e 7e 3e d2 0b 84 be
       0.13966808 -0.29453468 0.24859111 -0.25790268
000270 35 35 33 3e 71 5f eb bd a8 a6 b8 bd 67 f7 9d bd
       0.17500766 -0.114928134 -0.09016162 -0.07713204
000280 b7 8b a1 be a2 5d f3 3d 09 e4 a0 3b dc d4 39 be
       -0.31551906 0.118830934 0.0049099964 -0.18147606
000290 47 93 2d be 0b d0 a2 bd c4 aa 45 bd ed fb 9e be
       -0.16950713 -0.07949837 -0.048258558 -0.3105158
0002a0 65 aa 0f 3e 52 b6 89 3e 56 ff 1b be ae bc 3b 3e
       0.14029844 0.26896912 -0.15234122 0.18333694
0002b0 49 42 54 3e b5 61 2e be 6e 3d 62 be 8b 62 04 be
       0.20728411 -0.1702946 -0.22093746 -0.12928216
0002c0 3c 72 41 be 0e 69 85 bd e4 e0 10 bd 64 69 59 bd
       -0.18891233 -0.06514178 -0.035370722 -0.053079024
0002d0 80 12 63 3e 00 13 4c 3e 71 d1 09 3e f3 34 81 3c
       0.22175026 0.19929123 0.13458802 0.015772318
0002e0 58 1e 32 be be bb f8 3d e7 59 0b 3e 54 3a 2b be
       -0.17394388 0.12145184 0.13608514 -0.16721469
0002f0 8d 9a 8b be b2 cd 82 bd 74 60 2b bd 49 93 86 be
       -0.2726635 -0.063868895 -0.04184003 -0.26284245
000300 8b 38 3a 3e c9 89 3e 3e 9f 60 fa bd df f8 46 be
       0.18185632 0.18607248 -0.1222546 -0.19430874
000310 e6 43 76 3e 60 7d 43 3e 3e a0 9d 3d cf d9 37 3e
       0.24049339 0.19090796 0.076965794 0.17954181
000320 a6 81 7a be b7 cf 7d be cd 79 33 3d 2c b5 0b 3e
       -0.2446352 -0.24786268 0.04381733 0.1364333
000330 74 7f 9f be 6a e6 c8 bd f3 d5 ae bd 21 1f 3b bc
       -0.31151927 -0.09809573 -0.08536901 -0.011420996
000340 c0 00 39 be bf 5d 8c 3e 97 03 5d bd b4 5a 55 be
       -0.18066692 0.27415273 -0.0539585 -0.20835382
000350 4b ed 9f 3e 94 4b 97 3c f7 47 38 3e ac 8a 5c 3c
       0.31235728 0.018468656 0.17996202 0.013460796
000360 25 c5 64 3e 20 c1 39 be 26 87 a0 be f0 3e dc bd
       0.2234083 -0.18140078 -0.3135311 -0.10754192
000370 d7 1e cc bd d4 cb 68 be 0c 81 95 bd 07 60 26 be
       -0.0996682 -0.22734004 -0.07300004 -0.16247569
000380 fe a4 1e be 07 ee c2 3d 22 fe e5 bc bc 50 a7 3b
       -0.15492627 0.09518056 -0.028075282 0.00510606
000390 e0 b1 80 3b 3b ba 99 3c 3a bd 08 3e 46 de 83 be
       0.0039274544 0.01876556 0.13353434 -0.2575552
0003a0 fa 9d 2e 3e 6f 82 7b be ac 42 91 3e 7e e1 1e 3d
       0.17052451 -0.24561475 0.2837118 0.038789265
0003b0 d0 4e 40 3c 40 9c a0 bc 81 6d 0c 3e 26 6b 96 3e
       0.01173754 -0.019605756 0.13713647 0.29378623
0003c0 70 43 99 be 81 f3 8c bd 5a a7 9e 3e 61 b8 64 3d
       -0.29934263 -0.06882382 0.30987054 0.0558399
0003d0 14 78 73 be b9 44 78 3b f0 1b 9d 3e bd 0f 91 3e
       -0.23776275 0.0037882759 0.30685377 0.2833232
0003e0 8e 18 59 bd 42 04 79 be 19 f7 5f 3e 4e b1 1f 3e
       -0.053001933 -0.2431803 0.21871604 0.1559498
0003f0 14 ad 75 3d 81 a7 6a 3e 8e eb e5 3c 60 fd 7e be
       0.059979513 0.2291546 0.028066423 -0.24901342

lstm.weight_hh_l0 f4 [40, 10]
000000 4f c6 00 3e 30 68 a9 bd 48 ca 1d 3e 1d ed d5 bc
       0.12575649 -0.08271825 0.15409195 -0.026114041
000010 7a 2e dd 3a 04 4e c2 3d 83 9f 47 bd a8 72 45 3e
       0.0016874813 0.094875365 -0.048736107 0.19282019
000020 b1 22 7f 3e ba 65 01 be b4 8f a4 bc 5f e4 52 be
       0.24915577 -0.12636462 -0.020088054 -0.20594929
000030 61 a3 82 be ed 8d 86 be 62 45 96 be 6b 6b 73 be
       -0.25515273 -0.26280156 -0.2934981 -0.23771445
000040 1e bf 1d be a2 f0 f2 3d 78 35 2d be 42 a8 7a 3e
       -0.15404937 0.11862303 -0.16914928 0.24478248
000050 f3 26 57 3e 7f ea 1d be b3 bb a1 3c f2 d8 13 3d
       0.21010952 -0.15421484 0.019742822 0.036095567
000060 fd 48 d1 3d d0 db 6f be 24 6d 6d be ad f0 85 3e
       0.102189995 -0.23423696 -0.23186165 0.26160184
000070 44 72 af 3d 59 05 95 3e 97 d0 8b be 64 86 3a bb
       0.08566716 0.29105642 -0.2730758 -0.002846145
000080 60 d7 c2 3d 79 2b 96 3d ba dd 70 bc e9 72 8e 3d
       0.09513736 0.073325105 -0.014701301 0.06955511
000090 a0 10 52 be 5e c2 45 be af 16 40 bc 25 2e d7 bd
       -0.20514154 -0.19312426 -0.011724158 -0.10506848
0000a0 09 a0 25 3e ca 65 55 3e b7 2a 72 bd 50 68 49 3e
       0.1617433 0.2083961 -0.059122767 0.19668698
0000b0 57 f8 81 bd b0 e4 ea bc 5b ee 6b 3e 6b 24 d3 bd
       -0.06346195 -0.0286735 0.23040144 -0.103096806
0000c0 3c 9b 79 3e 7c ca f8 3c c6 fd 4e bd 13 9a 26 3e
       0.24375623 0.03036999 -0.050534986 0.16269712
0000d0 69 1a 0b be 6c 15 02 3e 88 cd 5d 3e da 6c 9e be
       -0.13584293 0.12703484 0.21660435 -0.30942422
0000e0 08 70 2c 3e 0d d2 64 be 6c 08 13 3e 6b c5 13 bd
       0.16839612 -0.22345753 0.14358681 -0.036076944
0000f0 32 20 98 be 96 5b 46 3e e5 1c 11 3d 67 7b 2d 3e
       -0.29712063 0.19370875 0.035427947 0.16941606
000100 32 0c 5e 3e 7b 80 bd bd 5b ca 69 be 15 73 91 be
       0.2168434 -0.09253021 -0.22831099 -0.28408113
000110 9d 73 89 3d ef 2a dc bc e2 0c 1a be ba d2 96 be
       0.067115046 -0.026875941 -0.15043977 -0.29457647
000120 be 9b a4 3d c7 80 f7 3d a0 b1 90 3e 28 35 e6 3c
       0.08037518 0.12085109 0.28260517 0.028101519
000130 fe 0f 8b 3e f6 b2 bd 3d f9 50 41 3e db e6 29 be
       0.2716064 0.0926265 0.18878545 -0.1659197
000140 9c 9e 81 3e 58 d4 2f be 26 e5 e5 bb 43 be 3e be
       0.25316322 -0.17170846 -0.007015842 -0.18627267
000150 15 df 60 be 4e ac a4 3d bd fc a3 bc d5 b5 9f be
       -0.21960099 0.08040677 -0.020017976 -0.31193414
000160 66 91 4b 3e 19 62 0f 3d c2 31 26 be 0b ff 30 3e
       0.19879684 0.035005663 -0.16229919 0.17284791
000170 4b 99 0b bd fa 28 92 3d 56 05 a1 be fa cf 39 3e
       -0.03408174 0.07136722 -0.31449383 0.18145743
000180 6f 52 8a bd 36 58 33 be 12 e6 6a 3d 30 eb 6f 3e
       -0.06754004 -0.17514119 0.05734832 0.2342956
000190 2a f4 f1 39 57 75 4b 3e a6 25 fb bd b9 35 86 3e
       0.00046149018 0.1986898 -0.1226304 0.26212862
0001a0 4b 67 3d be a3 91 7c be 18 cc 76 bd c3 8a 1a be
       -0.18496434 -0.24664931 -0.060253233 -0.15091996
0001b0 52 d0 62 bc 52 c5 00 bd 85 a5 8f be f8 d8 3a 3e
       -0.013843613 -0.03143818 -0.2805597 0.1824683
0001c0 91 b5 8d 3e ee b7 86 be 90 60 15 be 29 2e 36 3e
       0.27677587 -0.26312202 -0.14587617 0.17791046
0001d0 67 e0 ce bc b0 bf 06 be 1a 99 59 be 9b 59 bd bc
       -0.025253488 -0.1315906 -0.2124981 -0.023114016
0001e0 02 50 96 be 02 f1 2b 3d 2a d6 4c 3e c3 0d 00 3e
       -0.29357916 0.04197789 0.20003572 0.1250525
0001f0 b8 1b 4b be 83 a3 0b 3e 2c 3f a2 3c 99 87 a0 3d
       -0.19834793 0.13636594 0.019805513 0.07838363
000200 93 b6 5b be 95 41 a1 3e 70 cb b8 3d de 89 c0 bd
       -0.21456365 0.31495348 0.090231776 -0.09401296
000210 69 f8 8a 3e 76 aa 67 bc 44 cc 58 3e b5 c5 87 be
       0.27142647 -0.014139762 0.21171671 -0.26518026
000220 c7 c5 ba 3d f7 92 6e 3a d0 79 52 bd 39 7d 1d 3d
       0.09119754 0.0009100879 -0.0513857 0.0384495
000230 ec b1 df 3c e9 bd 0d be d0 5a 90 be d5 98 83 3e
       0.02730652 -0.13841976 -0.28194284 0.2570254
000240 d6 d1 99 be 1f 17 37 3c 69 c3 85 3e a4 a8 30 3e
       -0.30042905 0.011174946 0.2612565 0.17251831
000250 ae 52 52 be 9c a9 52 be ce 9b ff bd 5f 52 3d be
       -0.20539352 -0.20572513 -0.12480889 -0.18488453
000260 6d 55 25 be dc ec 83 3e 30 3f d5 bc 11 23 ef 3d
       -0.16145869 0.25766647 -0.026031107 0.1167661
000270 25 b2 94 3e b7 63 86 be a5 7f 51 3e 48 71 72 be
       0.29042163 -0.2624795 0.20458849 -0.23676026
000280 49 1c ab 3d 1f 1b 9e be 63 3f e2 bd dd 15 06 be
       0.08355004 -0.30880067 -0.11047246 -0.13094278
000290 80 4a 8f 3d 05 b1 33 3d a9 65 dd 3c 62 f5 95 3e
       0.069966316 0.04386999 0.027026014 0.29288775
0002a0 69 59 4f be d9 2c 01 be d3 97 f1 3d b2 d5 5a be
       -0.20248951 -0.12614764 0.11796536 -0.21370581
0002b0 7d 0a 0e be 3c 45 29 be 37 ce 94 3e 85 59 f9 bd
       -0.13871188 -0.16530317 0.2906358 -0.121752776
0002c0 ab 1d 45 be 71 14 dc 3d 86 3d c4 bc 6c aa 2a 3e
       -0.19249599 0.107460864 -0.023955118 0.16666573
0002d0 3d 6d 5b 3e ec 83 8d bc bf 54 1a 3e ee 5d 73 bb
       0.2142839 -0.01727482 0.1507139 -0.0037134844
0002e0 77 38 31 3e 25 a1 2c bc 8a b4 01 be 6e 0e bb 3d
       0.17306696 -0.010536467 -0.12666526 0.091336116
0002f0 df 55 4f 3e 6d 0b 03 be f7 23 9f 3e 37 33 98 be
       0.20247601 -0.12797327 0.31082126 -0.29726574
000300 5e 9c 5d 3e f4 26 8b 3e 13 08 78 3e 46 c9 06 bd
       0.2164168 0.27178156 0.2422183 -0.032906793
000310 b7 a0 9a 3e 9d 85 d9 3d 89 9c 7d 3e a7 6b 25 3e
       0.3020074 0.10621188 0.24766745 0.16154347
000320 7b c9 45 3d 38 a6 c8 bc b2 34 2d 3e 41 aa 0d 3e
       0.04828785 -0.024493322 0.16914633 0.13834478
000330 43 6d ff 3b 59 e1 aa 3d f3 1d 3c be 27 72 fa 3c
       0.0077950074 0.08343763 -0.183708 0.03057201
000340 48 f7 f3 3d 4d 20 67 be 49 9f 88 3d 71 c4 94 be
       0.119123995 -0.22570916 0.06671006 -0.29056123
000350 61 13 51 be f0 5b 15 3e d2 c3 57 3e d4 b5 e1 bd
       -0.20417549 0.14585853 0.21070793 -0.11021009
000360 79 d1 8c 3d ed d3 7c be de 71 6f bd d0 60 e9 bd
       0.06875891 -0.24690218 -0.0584582 -0.11395419
000370 fa 94 5d 3e ff 4e 9e be e0 79 49 be f3 22 12 3e
       0.21638861 -0.30919644 -0.19675398 0.14271145
000380 6b 2b 2f 3e 29 7c 75 3e 50 a0 a2 bd d2 15 e8 bc
       0.17106406 0.23973145 -0.079407334 -0.028330717
000390 d5 8e c4 3d eb a3 01 3e 33 5c 91 3d 26 f6 0d be
       0.095975555 0.12660186 0.07097664 -0.1386343
0003a0 33 74 6c 3e 67 3d 98 3e de 8f 8a be a4 d1 38 bd
       0.23091201 0.29734346 -0.27062887 -0.045121804
0003b0 6e 07 9c be 7f f8 49 3e 1c c1 6a be 11 4b 0b 3e
       -0.30474418 0.197237 -0.22925228 0.13602854
0003c0 72 64 52 be 03 a6 a0 bd 9d a6 43 be 36 cd 8e be
       -0.2054613 -0.07844164 -0.19106527 -0.2789094
0003d0 11 f9 aa 3d 03 29 de bd c9 8e 02 3e ed de 98 3e
       0.08348287 -0.10847666 0.1274978 0.2985758
0003e0 90 3f 84 bd 51 a9 9e be b1 1d 05 3d c6 9c 1b be
       -0.06457436 -0.30988553 0.03249902 -0.15196523
0003f0 d9 aa 85 bc cf ca 49 3e f6 fe 06 3e 16 5b 96 be
       -0.016316818 0.19706272 0.13183197 -0.29366368

lstm.bias_ih_l0 f4 [40]
000000 e3 34 0f be 3f a3 08 3e 7b 4e 2a 3d 5c 04 99 be
       -0.13985018 0.13343523 0.04157875 -0.29886138
000010 a3 a9 90 be f0 41 ab bd 4c 48 93 3e de 6d fb 3c
       -0.28254423 -0.08362186 0.28766096 0.030692037
000020 75 26 a1 be ca e6 c8 bd 40 39 85 be 4b b4 48 3e
       -0.31474653 -0.098096445 -0.2602024 0.19600026
000030 07 bb 2c be f6 52 86 be 52 30 e1 3d 46 6d a7 3d
       -0.1686822 -0.2623517 0.109955445 0.08175139
000040 c8 a7 3d 3e 9a 60 bd bd 00 62 29 be 2c e5 18 bd
       0.18521035 -0.09246941 -0.1654129 -0.03732793
000050 de d0 db bd 3c 9d a0 be f3 34 0c 3e ce 90 55 be
       -0.10733198 -0.3136996 0.13692074 -0.2085602
000060 cc 18 b3 bd 35 71 ba 3c d2 94 3d be ef d4 1d 3d
       -0.08744964 0.02275906 -0.18513802 0.038533147
000070 f6 f4 7f bd 50 63 61 bd b2 13 8c be f4 10 7c be
       -0.062489472 -0.055026352 -0.27358776 -0.24615842
000080 c1 c5 48 be 61 fd 6d 3e 11 9e 65 be 2d 62 86 be
       -0.19606687 0.23241188 -0.22423579 -0.26246777
000090 ab a3 04 bd c3 59 03 3b 5d 32 80 3e 3c 2c 91 3e
       -0.03238265 0.0020042516 0.25038424 0.2835406

lstm.bias_hh_l0 f4 [40]
000000 f3 21 3a bd 2f 1c 9a be 8f 53 22 be 94 8a 40 3e
       -0.045442533 -0.30099627 -0.15852188 0.18802863
000010 03 a8 9f be fc 59 51 3e 5e 0e 5e 3d 81 5d 29 be
       -0.3118287 0.20444483 0.05421292 -0.16539575
000020 7f ef 82 3e 0d 2f 5b be 50 1a af bc 95 ce 95 be
       0.25573346 -0.21404667 -0.021374851 -0.29259172
000030 6b 0f c5 bc c4 a4 0e be 9c eb 8b 3e dc 3c 4f bd
       -0.024055203 -0.1393004 0.27328193 -0.05059515
000040 d4 91 02 bd d1 ed 90 3c 7c 60 71 3e d5 b7 f9 3d
       -0.031877354 0.017691525 0.23571962 0.12193266
000050 57 d4 9b be a0 27 a7 bc c4 f3 55 be 59 e7 12 3e
       -0.3043544 -0.020404637 -0.2089377 0.14346065
000060 b5 5b e8 bd 72 a2 72 bd 42 b3 86 be 71 d3 8b bd
       -0.11345617 -0.05923695 -0.26308638 -0.068274386
000070 6b c8 78 3e 23 9d 99 3b 0e 22 58 bd 9a 5a 0e 3d
       0.24295203 0.0046879216 -0.052766852 0.034754373
000080 e4 24 06 be 74 8e 9e be 39 8d 85 be 9f cc 9f 3e
       -0.1310001 -0.30968058 -0.26084307 0.312108
000090 0a 9e 57 be 3f fd 3f be 57 43 6a be 6b 2f 6f be
       -0.21056381 -0.1874895 -0.2287725 -0.23357932

lstm.weight_ih_l1 f4 [40, 10]
000000 1d eb 6c 3e b2 78 83 bd 8b 0f 97 be 66 b8 9c be
       0.23136564 -0.06419505 -0.29504046 -0.30609435
000010 fd d8 3c 3e b5 d0 8e be ce fd 9d 3e 3f 8e 75 3d
       0.1844215 -0.27893606 0.308577 0.05995011
000020 3a 5e e0 3d 5a 98 b9 bc d0 95 11 3e ff 90 5a be
       0.10955472 -0.022655655 0.14217305 -0.21344374
000030 8c 2d ac 3d 32 63 5c 3e 24 94 0f 3e 94 5c f2 bd
       0.08407125 0.21522215 0.14021355 -0.11834064
000040 57 71 48 be d5 95 4e be 04 99 ae bd 78 e5 82 bd
       -0.19574486 -0.20174344 -0.08525279 -0.06391424
000050 a4 27 6d 3e b5 32 48 be c1 8a 7e 3e f9 0e 9f 3e
       0.23159653 -0.19550593 0.24857618 0.3106611
000060 ba 2d 20 be a8 18 92 be a7 9b 56 be c7 b0 79 bd
       -0.15642443 -0.28534436 -0.20957814 -0.060959604
000070 e7 99 e4 3c 85 a0 7f 3e db d8 62 3e c8 d3 51 be
       0.027905418 0.24963577 0.22153036 -0.20490944
000080 2b aa c7 bd 8f a3 2e 3e d7 c1 45 be 9b b2 e1 ba
       -0.09749254 0.1705458 -0.19312225 -0.0017219366
000090 06 3f 90 3e 1b 66 3b 3e 16 5b 8e be b7 34 42 be
       0.28173083 0.18300669 -0.27803868 -0.18965422
0000a0 e7 60 a0 be 3c 8e 91 3e 29 bd 9f be f6 a4 27 be
       -0.3132393 0.2842883 -0.31199005 -0.16371521
0000b0 b4 a5 7e 3e ee c3 6c 3d 6c ec a1 bd d9 b5 27 bd
       0.24867898 0.05780404 -0.07906422 -0.040944908
0000c0 cd f6 4d be ec 3e a6 bd ec 8b 98 be cb dc 2a 3e
       -0.20113678 -0.0811747 -0.29794252 0.16685788
0000d0 2d 8a 13 be 2d c8 b8 bd 6b c8 61 3e d2 45 ca bc
       -0.14408179 -0.090225555 0.2204911 -0.024691496
0000e0 ab 24 1d be 65 96 90 be 4e cc b8 3d 47 11 98 3e
       -0.15346019 -0.28239742 0.09023343 0.29700682
0000f0 59 cd 47 3e f0 ab dc 3d bb c7 a0 3e 3f e6 86 bd
       0.19511928 0.10774982 0.31402382 -0.06586885
000100 86 ce c2 bd 6d 0d 6c be f4 22 01 be 88 b8 8a be
       -0.095120475 -0.23051997 -0.1261099 -0.2709391
000110 00 5c d4 bd f5 29 0d bd 15 1b 89 3e 65 8d 80 3e
       -0.1036911 -0.03446384 0.26778474 0.25107875
000120 4d ed 29 3e c9 76 3e 3e 3b d3 66 bd d0 a5 36 3e
       0.1659443 0.186 -0.05635379 0.1783669
000130 00 39 94 3d a4 ce ff 3d fb 1c d9 3d 03 6e ef bd
       0.072374344 0.124905854 0.10601231 -0.11690905
000140 e0 57 a0 3e 60 24 4c 3e b1 16 65 3d f5 41 38 bc
       0.31317043 0.19935751 0.055929843 -0.011246194
000150 19 8f 90 3e 32 95 2d 3e b5 51 48 3d 4d 4e 22 be
       0.28234175 0.16951445 0.048906047 -0.15850182
000160 05 04 4f be 58 04 e4 bd fb 4f ea 3c e3 8e fd bc
       -0.20216377 -0.11133641 0.02860259 -0.030951923
000170 da 40 8d be c9 d0 f4 bc fb ec 89 be cf 6e ac 3d
       -0.2758854 -0.029884713 -0.26938614 0.084195726
000180 8b 89 98 bc be ec 6c 3e a0 5c 9c 3e 25 07 99 bd
       -0.018620273 0.23137185 0.30539417 -0.07472066
000190 0e dd 6d bd 0a 6d 91 bd d6 2a df bd dd c1 4a 3d
       -0.058072142 -0.07100876 -0.10896842 0.04950129
0001a0 6e 4d 83 bd 1a c5 d3 3d 42 9f 51 bd 57 37 4b bd
       -0.06411253 0.103403285 -0.05117727 -0.049613323
0001b0 7e fd 2a be c1 e6 4c bd b5 2f 8d bd a7 33 0f 3c
       -0.16698262 -0.05002475 -0.06893865 0.008740342
0001c0 4b 8b 42 be 1d 4b 84 be ae 9e 1e be 54 bb 7f 3d
       -0.18998449 -0.25838557 -0.15490219 0.06243451
0001d0 28 04 9c be 12 4e 0c be c7 67 32 be 09 db 1c bd
       -0.3047192 -0.13701656 -0.174224 -0.038294826
0001e0 06 ce 80 3e de f9 24 3e 9a 43 6b 3e ad 67 53 3e
       0.25157183 0.16110942 0.22975007 0.20645018
0001f0 e5 d5 4a be 05 69 91 3e b6 e5 3b 3e a2 cf 1c be
       -0.19808157 0.28400436 0.18349347 -0.1531358
000200 f4 05 74 3e 0e 86 28 be a8 cc a0 be ae 08 c2 bd
       0.23830396 -0.16457388 -0.3140614 -0.09474312
000210 ce 1a d2 3d 93 fd 8c 3e 73 ef 35 3c 75 ea 7f 3e
       0.10259019 0.27537212 0.011104452 0.24991782
000220 4b 58 54 be ba 6e f6 3d 5c c1 05 3e d5 72 e5 3c
       -0.20736806 0.12032838 0.13062042 0.028008858
000230 42 a8 28 be 46 80 1d 3e f8 59 80 3e 4e 6d 19 be
       -0.16470435 0.15380964 0.2506864 -0.14983103
000240 cf 7f 90 3e 05 a5 9e be 69 e4 ad 3d a9 42 8d be
       0.2822251 -0.30985275 0.084908314 -0.2758992
000250 2b 2f 48 3e 48 31 41 3e 14 00 3c 3e fa e1 7f be
       0.19549243 0.18866456 0.18359405 -0.24988547
000260 9b e5 40 be 48 08 7b be db 40 2c 3e b4 3f 93 3e
       -0.18837588 -0.24514878 0.16821615 0.2875954
000270 ae 5a 90 be 50 72 71 bd 18 14 2b 3e e1 e7 18 3e
       -0.28194183 -0.058946908 0.16706884 0.14932205
000280 ac d6 58 be 77 85 a4 3d 8d a9 b0 3c 63 19 39 bd
       -0.21175641 0.08033269 0.021565223 -0.045190226
000290 9a 96 ee 3d 66 a3 2f bd 9c d3 67 3d f7 6f 9e bd
       0.11649819 -0.04288044 0.05659829 -0.07736199
0002a0 81 e9 d3 bd 07 8c 5c be 9f 95 77 be 05 8d bb bd
       -0.10347272 -0.21537791 -0.2417817 -0.09157757
0002b0 f1 72 81 3e ad 5c 7a be 66 bc 96 3e 4d 9a 1e be
       0.25283006 -0.24449416 0.29440612 -0.15488549
0002c0 76 0c a6 3d e2 94 d1 bd 54 94 15 3e df 28 fe bd
       0.081078455 -0.10233475 0.14607364 -0.12410139
0002d0 69 12 a0 3e 3a 23 9f 3e 1d 9c 8a 3d 18 ed db bd
       0.31264046 0.31081563 0.067680575 -0.107385814
0002e0 40 7e 3a be fa 34 3c be ac da 8b 3e e3 91 32 be
       -0.18212223 -0.18379584 0.2731527 -0.17438464
0002f0 99 09 4b 3e 97 b3 93 3d df e1 0b be 8e 14 3c 3e
       0.1982788 0.072119884 -0.13660382 0.18367216
000300 b1 6a 98 bd 3c 46 16 be 2c 99 14 be 7e 3b 2b 3d
       -0.07442225 -0.1467523 -0.14511555 0.041804783
000310 1e 2a c1 3d 9f 0f 02 be 44 d8 bf bd ea ea 54 bd
       0.09431861 -0.12701271 -0.09367421 -0.051981844
000320 53 63 8d be 8b 91 6e be 71 36 65 be 10 19 a1 3e
       -0.2761484 -0.23297708 -0.22384049 0.31464434
000330 2e f8 6b be 68 26 4f bd 67 d8 16 3e ce 2c 70 3e
       -0.23043892 -0.050573736 0.14730988 0.23454592
000340 e3 a8 c8 3d ad 88 2a 3e 28 90 8d bd 8e 98 65 3e
       0.097978376 0.166537 -0.06912261 0.22421476
000350 8b 18 1d 3e 49 7f 08 3d 14 74 c8 bd 09 43 8b be
       0.15341394 0.033324514 -0.09787765 -0.2719958
000360 c3 97 7d be a0 ef 2b bd 0c e0 3c be 75 09 7b 3e
       -0.24764924 -0.04197657 -0.18444842 0.24515326
000370 7e d9 e9 bd c2 6e 11 3e c4 73 08 be 48 b3 21 be
       -0.114184365 0.14202407 -0.13325411 -0.15791047
000380 ea e1 8b be a3 0f 43 be 96 c3 7e be 8a a3 19 be
       -0.27320796 -0.19048934 -0.24879298 -0.15003791
000390 ba b9 3e bc 85 09 a0 be f7 5c 6a be f8 73 30 be
       -0.01164096 -0.31257263 -0.22887026 -0.17231739
0003a0 05 5e 60 3e 2b 4c 47 be e5 ec 2e 3d ac 20 f8 bb
       0.21910866 -0.1946265 0.04270639 -0.007572254
0003b0 6d 07 40 3d cf af 52 3c 29 b9 a1 be b6 15 1c bd
       0.04688208 0.012859299 -0.31586578 -0.038106643
0003c0 32 d4 9b 3e 14 e4 24 3e ef 0a 03 be 96 10 06 3e
       0.3043533 0.1610263 -0.1279714 0.13092265
0003d0 50 60 8c be 92 29 37 3e a7 23 ee 3a ab e6 e1 3d
       -0.2741723 0.17886952 0.0018168584 0.110303245
0003e0 f0 72 88 be ed 68 7b bd 75 e8 87 be a9 a1 34 be
       -0.2665019 -0.061379362 -0.26544538 -0.17639793
0003f0 ec d4 60 be 4f ab 83 be fe 90 9b bd e7 16 c7 3d
       -0.21956223 -0.25716636 -0.075960144 0.09721165

lstm.weight_hh_l1 f4 [40, 10]
000000 04 53 cc 3d ca 92 91 3e 25 d3 03 3e d2 30 03 3e
       0.099767715 0.28432304 0.12873514 0.12811592
000010 ea 41 58 3d 35 ad 0e 3e bd fe aa 3d 43 b7 d9 3d
       0.052797236 0.1393326 0.08349369 0.106306575
000020 ee dc 91 be aa 9e 74 3e a8 ad 27 be 60 c8 7c 3e
       -0.28488868 0.2388865 -0.16374838 0.24685812
000030 89 57 de bd af 13 3f be 6a 4a f5 3d 6f 07 82 be
       -0.1085654 -0.18659852 0.11977084 -0.25396296
000040 21 f9 fb 3d 2e e6 5f 3e 1b ef 81 3e 40 28 d6 3c
       0.12303377 0.2186515 0.25377735 0.02614224
000050 47 41 00 3e 46 54 99 3e 64 9b 9b 3e c3 78 c5 3d
       0.12524901 0.29947108 0.3039199 0.09642174
000060 62 e9 12 be b7 ff 88 bd b6 33 51 be bf b2 b4 bd
       -0.14346841 -0.06689399 -0.20429882 -0.088231556
000070 da bf 90 3e 92 f8 85 3e c3 c0 04 3e 9b d5 8b be
       0.2827137 0.26166207 0.12964158 -0.27311406
000080 ef 78 9f be d0 50 3c be de 04 91 3e ee 33 80 be
       -0.31146953 -0.18390203 0.28324026 -0.2503962
000090 73 b4 55 3e 94 68 96 3e f8 da 9d 3e 6a 1b 8d be
       0.20869617 0.29376662 0.30831122 -0.27559978
0000a0 8f 40 36 bd 1a e6 17 3e 85 69 5e be 14 2d e7 bc
       -0.04449516 0.1483387 -0.2171994 -0.028219737
0000b0 5e 4c 8a bd 98 11 65 3c 5c d3 eb 3d a8 1b 35 bd
       -0.06752847 0.013981245 0.11514923 -0.04421583
0000c0 53 25 73 bd c5 ac a9 3d 2b 22 f1 bd 65 80 7c be
       -0.059361767 0.08284906 -0.11774095 -0.24658354
0000d0 8d c5 98 3e 2b 12 4d be 8d 0c 86 3e 64 4f d1 bd
       0.2983822 -0.20026462 0.2618145 -0.10220221
0000e0 40 97 d7 bd e5 15 8c 3e 1d b3 97 be fd 32 b4 3c
       -0.105268955 0.27360454 -0.2962884 0.02199697
0000f0 a8 5f 74 3c d7 35 38 3e a4 43 0f 3e 89 da 63 3e
       0.014915384 0.17989288 0.13990647 0.22251333
000100 86 df 9c bd 99 ad 94 be 68 01 e5 bd e2 9e 9a bd
       -0.07659821 -0.29038695 -0.11181909 -0.07549836
000110 72 de 19 be 0c 1f 95 be 78 9d af 3a 05 53 39 bd
       -0.15026262 -0.2912525 0.001339837 -0.04524519
000120 d3 c6 9d bb d6 05 ff 3d 28 32 6a be 8b 05 a0 be
       -0.0048149615 0.12452285 -0.22870696 -0.3125423
000130 6a db 96 3e 90 87 60 be b7 a6 8b 3e f2 ef 4c 3e
       0.29464275 -0.21926713 0.2727563 0.20013407
000140 15 90 21 3e 80 8d a9 bd 65 98 86 bd c1 71 26 3e
       0.15777619 -0.08278942 -0.06572036 0.16254331
000150 d1 9d 80 be 06 17 2f be 25 35 a4 3d 70 eb 42 3e
       -0.25120404 -0.17098626 0.08017949 0.19035125
000160 b8 52 0d 3e 2b 5e 93 bd 21 45 2b be b0 9c d4 bd
       0.13801086 -0.071956955 -0.1672559 -0.10381448
000170 95 2e c4 bd 0b 07 6c be 13 3c 40 be 4a 8f b7 bd
       -0.09579197 -0.23049562 -0.18772916 -0.08962877
000180 95 6f fd bd d6 a2 a4 b9 44 28 18 3e e6 65 90 be
       -0.12374798 -0.0003140184 0.1485911 -0.28202742
000190 8e 8f 2a 3e 85 5a 91 be 87 69 80 3e 0c 01 3e bd
       0.16656324 -0.28389373 0.2508051 -0.046387717
0001a0 ca 85 9c be b2 65 e9 bd 92 f6 65 be a2 27 62 3e
       -0.30570823 -0.1139635 -0.2245734 0.22085431
0001b0 ac 04 39 3d 91 8c 92 3e 6b e5 89 3e f1 24 4d 3e
       0.04517047 0.2862287 0.26932845 0.20033623
0001c0 88 02 01 be b7 59 1a 3e e1 f2 44 be e8 ae 90 3d
       -0.12598622 0.15073286 -0.19233276 0.07064611
0001d0 c5 67 66 3e 10 b6 15 be e8 bb cc bd df d3 9b be
       0.22500522 -0.14620233 -0.09996778 -0.30435082
0001e0 30 b5 82 3e 42 25 87 be 06 56 94 3e 49 a7 83 3e
       0.2552886 -0.26395613 0.2897188 0.25713566
0001f0 ad c4 e5 3d 71 d2 88 3e de 20 56 be a7 de 9a 3e
       0.112191536 0.26723054 -0.20910975 0.30247995
000200 66 eb 2a be ed 2e cc 3d 20 49 a4 3d 53 a9 f2 3d
       -0.1669136 0.09969888 0.0802176 0.11848702
000210 36 16 9c be 53 7c 59 39 90 53 63 be c5 5a 45 be
       -0.30485696 0.00020741047 -0.22199845 -0.19272907
000220 82 22 76 3e 09 b6 82 3c e7 47 01 3e 9e a7 12 be
       0.24036601 0.015955942 0.12625085 -0.14321753
000230 78 13 3b bd db 40 e6 3a c4 a6 67 3e d2 a7 3d 3e
       -0.045672864 0.0017566936 0.2262221 0.1852105
000240 f1 92 a0 be 67 d7 d3 3d d3 e2 14 be a8 48 c8 3d
       -0.31362107 0.10343819 -0.14539652 0.09779483
000250 92 af 83 be 50 81 ca 3d 01 3a f7 bd 57 80 2b be
       -0.25719887 0.09887946 -0.1207161 -0.16748177
000260 83 6c 54 be 79 32 f4 bd 7d d0 94 3e d4 c1 07 3e
       -0.20744519 -0.119236894 0.29065314 0.13257533
000270 1d 5a dc 3d d5 48 cb 3d 89 83 15 3e b6 7c c4 bd
       0.10759375 0.09926001 0.14600958 -0.09594099
000280 78 c2 0f be 42 c8 27 3e e4 35 06 3e 3d 29 89 be
       -0.14039028 0.16384986 0.13106495 -0.26789275
000290 a5 55 6f 3e 29 16 3d 3e 65 2b 9e be d8 b0 fa bb
       0.23372515 0.18465485 -0.30892482 -0.007650476
0002a0 22 a2 07 3e 11 a3 80 3e 39 dd 81 3e 6d fb ec bc
       0.13245443 0.2512441 0.25364092 -0.028928483
0002b0 a0 78 33 be a2 fc d9 bc d5 96 29 be 6d 83 03 be
       -0.17526484 -0.026609723 -0.16561444 -0.12843104
0002c0 ca 82 2e 3e e5 c5 3d be b4 bb 8d be 2b 92 65 be
       0.1704208 -0.18532522 -0.2768227 -0.2241904
0002d0 56 a6 31 bd 2a 87 81 3e 01 71 2b be fe 4e d7 bd
       -0.04337152 0.25298434 -0.16742326 -0.105131134
0002e0 9b 23 51 be 61 72 1b 3e e2 64 08 be 20 d8 d8 3d
       -0.20423739 0.15180351 -0.13319734 0.105880976
0002f0 39 3a 81 3e 7e 0d 13 3e 44 25 5e be 83 a9 f7 bd
       0.25239733 0.14360616 -0.21693903 -0.12092879
000300 30 94 22 be 5f dc ce 3c 65 32 1d bd f9 b7 f9 3d
       -0.15876842 0.025251566 -0.038378138 0.12193293
000310 6b f6 8a 3e 8d e0 ac 3d 74 33 66 be 50 44 4f be
       0.27141127 0.08441267 -0.22480565 -0.20240903
000320 c9 e2 49 3e 31 1e a1 be 2f da 69 be 5d 10 8a bd
       0.19715418 -0.31468347 -0.22837137 -0.06741402
000330 5a a6 6f be e6 7a 6a 3e f6 1d d1 bd f4 83 82 bd
       -0.23403302 0.22898445 -0.10210793 -0.06372824
000340 08 1f e5 bc 5b 68 91 bc 63 91 75 3e 9b 71 36 be
       -0.027968898 -0.017749956 0.23981242 -0.17816775
000350 03 78 a8 bd 24 d1 18 3e 84 9d 8d 3d a0 36 59 be
       -0.082260154 0.14923531 0.06914809 -0.21212244
000360 dd a3 24 be 3c 6c 25 bd 42 d1 7f 3e 40 2c 0d be
       -0.16078134 -0.040386423 0.2498217 -0.13786411
000370 ee 65 1d be 84 18 82 3e 8c ca 3d 3e 4d d8 26 be
       -0.15370914 0.2540933 0.18534297 -0.1629345
000380 db 31 07 3e 62 77 d9 3d 7d 0c 57 3d e1 ce 9d be
       0.13202612 0.106184736 0.052502144 -0.308219
000390 8f d7 e3 3d 55 62 72 3e c0 ec 2b 3e 73 7a 60 3e
       0.11125099 0.23670323 0.16789532 0.2192171
0003a0 4f f3 11 be f2 f1 58 be 03 11 0d 3d b7 81 e5 3d
       -0.14252971 -0.21186045 0.03444005 0.11206382
0003b0 53 94 82 be df 1c 81 be 13 a4 e0 bd a9 4a 66 3c
       -0.25503787 -0.2521734 -0.10968795 0.014055886
0003c0 74 9d 29 be ed 36 73 be 1f fe 95 be 17 4b 45 3e
       -0.1656397 -0.23751421 -0.29295442 0.19266926
0003d0 ae b6 87 bb 48 a4 4b 3e c9 3c 5e be 25 95 e5 3d
       -0.00414165 0.19886887 -0.21702875 0.11210088
0003e0 21 32 6e 3e 57 d3 96 3e 8f 8a 63 3e dc 66 7c be
       0.2326131 0.29458115 0.22220825 -0.24648613
0003f0 f5 b9 30 3e 42 17 91 be 6c 44 05 3e 17 dc d4 3d
       0.17258437 -0.28338057 0.13014382 0.10393541

lstm.bias_ih_l1 f4 [40]
000000 74 93 e3 3d 4d 71 93 bd f4 39 13 3e f9 73 fe 3d
       0.11112109 -0.07199345 0.14377576 0.12424464
000010 44 e5 24 be 55 23 fa bd 6f 2b 99 be c7 14 22 3e
       -0.16103083 -0.1221377 -0.2991595 0.15828238
000020 8b f6 84 3e 37 af 35 3e 99 77 8c be 5b 3a 81 be
       0.25969347 0.1774262 -0.27434996 -0.25239834
000030 3e f9 2a be 6b b6 97 be 3e d9 03 be c4 0c 24 3e
       -0.16696641 -0.2963136 -0.1287584 0.16020495
000040 88 37 80 3e 3b 9e 14 3d b3 f8 3a be 07 03 9b 3e
       0.25042367 0.036283713 -0.18258934 0.30275747
000050 61 c8 a1 3e 74 4b 06 be f8 78 40 3e f3 2e 82 bd
       0.3159819 -0.1311472 0.18796146 -0.06356611
000060 d5 53 11 3e 89 ae 81 3e 10 dc 44 be 6d bb 2e be
       0.14192136 0.25328472 -0.19224572 -0.17063685
000070 d1 09 d0 ba b0 82 96 be cc 05 85 3e 9c 7f 70 be
       -0.0015872066 -0.29396582 0.25980985 -0.23486179
000080 74 dc 70 be 3e 39 7a 3e 6c 8d c9 bd 44 e6 0e be
       -0.23521596 0.24435899 -0.09841427 -0.13955027
000090 9f 44 17 3e c8 2a 53 3d b4 3b 54 3e 56 75 20 be
       0.1477227 0.05155447 0.207259 -0.1566976

lstm.bias_hh_l1 f4 [40]
000000 77 d1 8e 3d a5 8f 39 be 3b 5c 3e be 52 72 7f bd
       0.06973546 -0.18121202 -0.1858987 -0.062364884
000010 f3 45 c8 bd f9 8f 68 3e 17 76 7b 3e ae 91 e1 3d
       -0.09778967 0.22711171 0.24556766 0.11014114
000020 07 87 88 3e 28 46 68 3e 86 cb 9a be a5 12 87 be
       0.26665518 0.22683012 -0.302334 -0.26381412
000030 da 74 5f be bf 6a c4 bc 81 ba 63 be 52 6b 3e 3e
       -0.21821919 -0.023976682 -0.22239114 0.18595627
000040 f0 e7 99 be 65 93 bd 3c d2 df e6 bd ef 2d 82 3e
       -0.30059767 0.023141572 -0.11273159 0.2542567
000050 a8 14 20 be 4f 85 78 3e 84 86 bb 3d b6 e4 84 be
       -0.1563288 0.24269603 0.09156516 -0.25955743
000060 1d 61 29 3d 50 6a 63 be de 1d ff 3d 54 81 89 bd
       0.04135238 -0.22208524 0.124568686 -0.067141205
000070 92 22 81 3e 9e 55 73 3e 2f 02 76 3c d6 8e 70 be
       0.25221688 0.23763129 0.015015169 -0.23491988
000080 50 ef 66 be b6 6c 5c bd 9a 97 99 bc 57 3d 4b 3e
       -0.22552228 -0.053814612 -0.018749047 0.19847618
000090 bb e3 a2 bd 4c 53 04 be d6 2d 92 3e f7 99 7d 3e
       -0.079535924 -0.129224 0.28550595 0.24765764

fc.weight f4 [1, 7200]
000000 c9 39 ce bb e7 35 5c bb a8 95 d8 ba bb 85 02 bc
       -0.0062935096 -0.0033601464 -0.0016524093 -0.007966454
000010 43 77 1d 3c 30 41 dd 3a 11 22 30 3c 34 46 77 3b
       0.009610954 0.0016880389 0.01075031 0.0037731053
000020 23 fe 0c 3c 5e 46 a9 3b 0b ed b6 3a 04 e1 7d ba
       0.008605513 0.005165859 0.0013956142 -0.0009684714
000030 e1 07 c9 bb cf 33 0e 3c 23 04 bc bb 07 30 83 bb
       -0.0061349724 0.008679344 -0.005737798 -0.004003528
000040 99 60 33 3c bf 57 24 bb b6 5d 22 bc df 62 4a 3b
       0.010948324 -0.0025076715 -0.009910038 0.0030881686
000050 c8 3f 1c 3c 93 2d 77 3a ee 72 05 bc 9d 94 11 bc
       0.009536691 0.00094290933 -0.008145077 -0.00888553
000060 21 5e b8 bb e4 e7 78 bb 12 d6 82 3b 44 7d b8 39
       -0.0056264554 -0.0037980014 0.0039928043 0.00035188545
000070 5c b1 26 3c 56 6d dc ba 88 40 8b bb f7 8e b2 b9
       0.010174122 -0.0016817253 -0.004249636 -0.00034057323
000080 3b 85 07 bb 55 96 f7 bb 34 31 9f 3a 1a 89 ec bb
       -0.0020678777 -0.007555763 0.0012145401 -0.007218492
000090 6b 38 cb 3b 2f d3 fc ba 0e 19 96 3b 28 4a cd 3b
       0.006201794 -0.0019289012 0.0045806235 0.0062649436
0000a0 b3 17 99 3b 78 17 3a bc ac 2c 00 bc d2 d4 08 3c
       0.0046720146 -0.011358134 -0.007823151 0.008351522
0000b0 ae 49 7a 3b 1e 5a c3 3b 9f d1 83 bb 86 07 08 bc
       0.003819089 0.0059616705 -0.0040227915 -0.008302575
0000c0 89 df 6f 3b 9a 68 f5 3b 4a c1 00 3c 60 a5 a4 3b
       0.0036601743 0.007489276 0.007858584 0.005024597
0000d0 93 a4 88 bb 97 de 1b 3c f8 a5 20 bb c1 2c a4 3b
       -0.0041700094 0.009513519 -0.0024512988 0.005010218
0000e0 95 d9 2e bc a6 03 85 3b a9 8b 0e bb 20 0f 34 3c
       -0.010671993 0.004059273 -0.0021750724 0.010989934
0000f0 63 df de bb b4 4d f3 3b c5 0e 3f 3c e0 bc e9 bb
       -0.006801532 0.0074250344 0.011661236 -0.0071331114
000100 2b e6 ca 3b 89 03 3c 39 b8 42 2d bc a4 ae 2d 3c
       0.006191989 0.00017930394 -0.010574989 0.01060072
000110 34 59 4b ba e8 45 cc bb f4 e4 f3 bb 4a bf a4 3a
       -0.0007757128 -0.0062339194 -0.007443065 0.0012569216
000120 11 e1 06 3c 5c e1 47 3b 21 02 d3 3b 63 e7 2e 3c
       0.008232371 0.0030499315 0.006439463 0.010675284
000130 ff 52 02 3a 78 72 ea 38 f3 c1 d4 3b 0c f5 a3 bb
       0.0004971474 0.00011179311 0.006492847 -0.005003577
000140 c3 5c c5 bb d5 d3 d6 bb 82 2e 60 3b 09 2a fe 3b
       -0.006023021 -0.006556014 0.0034207408 0.007756476
000150 d2 13 81 bb 12 bc a8 ba b5 e7 08 3c 9a 77 9b ba
       -0.0039391303 -0.0012873432 0.0083560245 -0.0011861206
000160 48 c7 69 3b bb be fa bb 00 5f 45 bb 57 97 dc 3a
       0.003567176 -0.0076521314 -0.003011644 0.0016829771
000170 9c 92 b5 ba 03 63 ba bb 31 0a 3e 3c 49 2c 3e 3c
       -0.0013852897 -0.0056880726 0.0115991095 0.011607238
000180 65 27 0e 3b 3f 54 1b 3b 0d b7 29 bc 48 e0 8a bb
       0.0021690961 0.0023701338 -0.010358584 -0.004238162
000190 27 0e 0c bc be 2b b0 3b 3b fa 52 ba 86 4c 9c 3b
       -0.008548296 0.005376308 -0.00080481515 0.0047698645
0001a0 6b c9 a9 bb 7f ea 68 bb f8 57 f6 3b 2c 76 c7 3b
       -0.0051814816 -0.0035540161 0.007517811 0.006087085
0001b0 a4 08 92 3a d6 fd 1c bc 2f 25 33 bc 81 6c 39 3c
       0.0011141491 -0.009582004 -0.010934158 0.011317373
0001c0 9a 04 f9 bb 90 b1 dc 3b ef d5 26 3c 65 6c b7 3b
       -0.0075994255 0.0067350343 0.010182842 0.0055976384
0001d0 17 64 29 bc 49 c6 77 bb 12 4d cc 3b f6 0e 9e ba
       -0.010338805 -0.0037807396 0.0062347734 -0.0012058902
0001e0 e2 6b ce b9 23 c1 be bb b3 d1 c3 3b 41 33 99 ba
       -0.0003937176 -0.0058213635 0.005975926 -0.0011688248
0001f0 6b 90 6d bb 24 d9 a3 3b a7 82 4e bb 92 c5 41 3b
       -0.003624941 0.0050002504 -0.003151098 0.0029567224
000200 e5 69 b1 3a a8 56 21 3c c8 0c fc bb 5f 11 38 3c
       0.0013535587 0.009847321 -0.0076919533 0.01123461
000210 a8 8f f8 bb 0c f7 e8 bb d1 c5 8f bb 05 c4 f1 38
       -0.0075854845 -0.0071095284 -0.004387595 0.00011528287
000220 5c 63 b9 bb 31 af ef 3a 74 96 1e bc 36 39 4d bb
       -0.0056575965 0.0018286464 -0.0096794255 -0.0031314618
000230 76 4d d2 ba d1 6d 6d bb 79 84 2e 3c 53 f3 40 3b
       -0.0016044814 -0.0036228786 0.010651701 0.0029441908
000240 c7 00 10 bc eb 34 a8 ba f9 fb 85 3b 83 e9 bb 39
       -0.008789248 -0.0012833154 0.0040888754 0.000358414
000250 62 80 36 3b 7d eb f7 bb ff 2c ce ba 83 59 bb 3b
       0.0027847518 -0.007565914 -0.0015729963 0.0057174577
000260 7f a3 27 bc 77 55 04 3c e2 c3 3b bc 29 2f 8b 3a
       -0.010231852 0.008077017 -0.011460276 0.0010618913
000270 ba 4e e7 3b 3c 88 68 3b 1b ca c7 3b b5 8f 83 3b
       0.0070589455 0.0035481593 0.006097091 0.004014934
000280 5c 0b 3c bc 21 99 b7 bb 1b ba 09 bc ed 02 60 b5
       -0.011477318 -0.005602971 -0.008406187 -8.345076e-07
000290 21 e8 eb 3b 28 7a 38 bc a4 c7 3e 3c ba 5e 02 bc
       0.007199303 -0.011259593 0.011644278 -0.007957155
0002a0 2e 56 21 3c 6d 5e 0f bb 91 29 2c 3b 8e ea a4 bb
       0.009847207 -0.002187635 0.0026269893 -0.005032844
0002b0 28 d2 a1 3b e6 97 f4 3b 34 e4 68 bb fb 07 24 bc
       0.0049383827 0.007464397 -0.003553641 -0.010011668
0002c0 dd 46 bf bb ae 74 5f 3b 91 eb 3c 3c 2a 41 ba 3b
       -0.005837305 0.0034096646 0.011530773 0.0056840377
0002d0 56 a3 98 ba bb 6a 41 ba 2c 2d 2c bc d7 ef b8 bb
       -0.0011645358 -0.000737827 -0.010508817 -0.0056438255
0002e0 2e 76 48 3b 5b 79 ae 3b 6d cb 03 3c 51 25 95 3a
       0.0030588019 0.0053245253 0.008044106 0.0011378919
0002f0 53 cf a9 3a 8f 09 70 3b 68 00 f2 3b ee f1 28 bb
       0.0012955464 0.003662679 0.0073853023 -0.0025778967
000300 21 74 0c 3c 96 c1 0a 3c ac 9b 0f 3c 42 c7 06 3c
       0.008572609 0.008469006 0.008765142 0.008226218
000310 68 64 1d 3c b9 98 29 3c ac 5a 14 3c 46 6f b9 bb
       0.009606458 0.010351353 0.009054821 -0.005659017
000320 a5 28 9a bb fa 84 76 3b 85 52 c2 ba 47 2c 13 bc
       -0.0047045522 0.0037615881 -0.0014825618 -0.0089827245
000330 8a a8 64 bb 80 91 0b bc 5e 5c ad 3b d8 02 70 3b
       -0.0034890496 -0.008518577 0.005290552 0.0036622789
000340 f2 16 34 3c c7 c4 77 bb fb 8f 51 bb 25 33 cc 3b
       0.010991799 -0.0037806497 -0.0031976688 0.006231683
000350 25 a9 b1 3b cd c9 f9 bb dc 16 68 3b 64 66 c8 bb
       0.005421775 -0.0076229335 0.0035414016 -0.0061157215
000360 19 52 b1 bb 04 23 64 bb 7d c3 81 3b 3c f9 2e ba
       -0.005411398 -0.003481091 0.0039600716 -0.0006674712
000370 84 7b fb 3b 7e 06 c8 3b c1 cb fd 3b 95 f4 26 bc
       0.0076746363 0.0061042896 0.0077452366 -0.010190149
000380 9c 65 ac 3b b5 55 aa bb f6 73 a7 3b f3 c5 85 3b
       0.005261136 -0.0051982054 0.005110259 0.0040824353
000390 40 da ac 3b af 52 03 bb 31 d9 38 3b b4 14 0a bc
       0.005275041 -0.0020038297 0.0028205628 -0.008427788
0003a0 be 9c af bb 93 59 7e 3b 62 8f 40 3c 87 60 38 bc
       -0.0053592613 0.0038810715 0.011752935 -0.011253483
0003b0 bf 32 40 3c 81 d4 10 bc bd d7 10 3b 69 1c 33 3c
       0.011730849 -0.008839727 0.0022101246 0.0109320665
0003c0 38 ca de 3b b1 a6 2e 3c 85 8f 86 3b 37 0c e3 bb
       0.0067990087 0.0106598595 0.0041064643 -0.0069289464
0003d0 23 04 11 bc 9c 5a 23 bc 33 ef b3 b9 56 a1 97 b9
       -0.008851084 -0.009970333 -0.00034319758 -0.0002892117
0003e0 4a 39 c5 3b 98 7f f8 bb e0 19 49 bb 07 00 ab bb
       0.0060187923 -0.0075835697 -0.0030685589 -0.005218509
0003f0 cd ad 95 bb 43 f9 0e 3b 9a 91 c0 b8 30 0f b3 bb
       -0.004567838 0.0021816052 -9.182394e-05 -0.005464457
