timeSerise/logs/lightning_logs/version_16/checkpoints/epoch=99-step=800.ckpt (torch, 87387 bytes, 27 tensors)

lstm.weight_ih_l0 f4 [40, 29]
000000 54 9f 7d 3e f6 6c 80 3e 01 d3 a2 3e 1a 59 72 3d
       0.2476781 0.2508313 0.31801608 0.059167005
000010 1f bc a2 bd 45 33 93 3e 0a 49 19 be 13 77 26 bd
       -0.079460375 0.28750053 -0.14969268 -0.0406409
000020 19 db b4 bd d2 0a 5e be d8 bb a8 bd 97 1b 84 3e
       -0.08830852 -0.21683815 -0.08238953 0.258023
000030 03 11 cc bc 74 4d f6 bd 90 d0 47 bb a9 93 31 be
       -0.024910456 -0.12026492 -0.0030489303 -0.17341484
000040 f4 ac 18 be 13 8a 84 be e1 a3 aa bd c4 e3 52 3d
       -0.14909726 -0.25886592 -0.08332039 0.051486745
000050 e0 cc 7d be 6c 21 a9 3e 18 32 4e be 34 5e e0 3d
       -0.24785185 0.3303331 -0.20136297 0.10955468
000060 77 fe 92 be 77 73 9a be ad 02 ce 3c 40 7b 85 be
       -0.28709766 -0.30166218 0.02514776 -0.26070595
000070 46 16 c4 3d 7c 37 b2 3c ab 78 cc 3b b9 47 f1 bc
       0.09574561 0.021754973 0.0062399707 -0.029453145
000080 e2 9d 0f 3d 87 eb db 3d aa 9a 57 be d3 aa 71 3d
       0.03506268 0.10738283 -0.21055093 0.0590008
000090 54 e7 86 3e d4 78 22 be b5 8a 44 3e 11 c5 b1 3c
       0.26348364 -0.15866405 0.19193538 0.021700414
0000a0 40 20 8c 3e 9e e7 49 be 9d 56 3e 3c 5f 00 65 be
       0.27368355 -0.19717261 0.01161733 -0.22363423
0000b0 cc 40 ee bd 5e 1e f4 3b 42 e6 50 be 8f e6 3c 3e
       -0.11633453 0.007449909 -0.20400336 0.18447326
0000c0 5b b5 67 be 47 44 68 be 17 41 7a be 14 c7 5a 3e
       -0.22627775 -0.22682296 -0.24438892 0.21365005
0000d0 d5 13 6b 3e 9d ec 29 be 60 49 d8 3d 6a 82 0e be
       0.22956784 -0.16594167 0.1056087 -0.13916937
0000e0 26 b6 94 be b3 b1 15 3e f7 34 a0 3e b7 dd 51 bc
       -0.29045218 0.14618568 0.3129041 -0.012809209
0000f0 66 5d 39 3d 62 5f 9b 3c 17 d0 c7 3c c8 8e 9a be
       0.045255087 0.01896638 0.024391217 -0.30187058
000100 6e 0c 57 3e f7 e3 54 be c8 9c 3e bd dd 80 8d 3e
       0.21000835 -0.20790087 -0.046536237 0.27637377
000110 20 c7 80 3e b6 25 da bd e1 93 72 3a 08 a7 db 3c
       0.2515192 -0.10651724 0.0009253603 0.026813045
000120 c1 52 4b be 35 62 dd bd ca 04 85 3e 1e b1 82 3e
       -0.19855787 -0.10809747 0.25980216 0.25525755
000130 28 a1 40 be ba 48 91 be 41 8f 6c be 85 48 95 be
       -0.18811476 -0.28375798 -0.23101522 -0.2915689
000140 f8 65 8b 3e ec 36 49 be b5 1c 51 be c8 37 11 be
       0.27226233 -0.19649857 -0.20421107 -0.14181435
000150 b6 39 3e be 18 13 30 bd 81 28 0b 3e 02 45 96 be
       -0.18576702 -0.04298696 0.1358967 -0.29349524
000160 6a 01 1c 3e e8 b4 97 bd 02 b1 49 3e 93 87 92 be
       0.15234914 -0.07407552 0.1969643 -0.2861906
000170 12 f6 87 3e 2c e2 84 be 3b 97 29 3d a6 1d 32 3d
       0.26554924 -0.25953805 0.04140399 0.043485306
000180 9c 15 6e 3e ad aa e0 bd bf 7e 9e be ea 82 5d 3c
       0.23250431 -0.10970054 -0.30956075 0.013519982
000190 b6 73 51 3e 41 60 e6 3d 6e c9 87 be 17 73 22 3e
       0.20454296 0.11248828 -0.26520866 0.15864216
0001a0 bd 2f a5 3e 2a cd 7e be 35 3e 53 3d bf a5 64 be
       0.32262984 -0.24882951 0.051572997 -0.22328852
0001b0 20 e8 1a bd e6 ec 82 3e 22 d3 14 be f9 60 91 bd
       -0.037819028 0.25571364 -0.14533666 -0.07098574
0001c0 54 a2 8d 3e 04 96 a3 3d 08 58 7d 3d 61 53 0d bc
       0.2766291 0.079875976 0.06185153 -0.008625836
0001d0 51 98 35 be 0c c1 4a 3d 4f 99 12 be 08 4d 63 3e
       -0.17733885 0.04950051 -0.14316295 0.22197354
0001e0 c3 98 9f 3d dc 09 c4 bd 0c cc a7 3d 8b b5 5e be
       0.07792809 -0.09572193 0.08193216 -0.2174894
0001f0 da a4 48 3c 71 1a b0 3d c7 f8 81 3d 80 b2 94 3e
       0.012246335 0.08598793 0.06346279 0.29042435
000200 2f 01 0e 3e 12 81 c5 3c a9 00 02 3d fe e7 e4 3d
       0.13867639 0.024109397 0.03173891 0.111770615
000210 9e d1 33 be 83 09 68 3e 40 5b 93 3d 8a dd 1b be
       -0.17560431 0.22659878 0.07195139 -0.15221229
000220 19 a5 fe bd 05 ce 09 bd 00 fe f7 3d 19 5d 98 be
       -0.12433834 -0.03364374 0.121089935 -0.29758528
000230 33 80 7f be d9 e0 44 3e e6 98 98 be 3c 8f 35 3e
       -0.24951248 0.19226398 -0.29804152 0.17730421
000240 c8 d1 d6 3c 0c dc 97 3e e3 7a c6 3d 95 49 43 be
       0.026223078 0.2966007 0.096914075 -0.19071038
000250 b0 60 05 3e 44 44 29 be 2a 1d 81 3c c7 b5 3c 3e
       0.13025165 -0.16529948 0.015760977 0.18428718
000260 d8 92 54 be 6a 6e fe 3b 79 ae 31 3d c0 0e 86 be
       -0.20759141 0.007764627 0.04337928 -0.26183128
000270 b0 7c 83 3e 60 45 42 be a5 05 72 be ea 05 bb bc
       0.25681067 -0.18971777 -0.23634966 -0.022829968
000280 4e 3c 03 3e cf fa 12 3e 19 00 86 be a1 9d b9 bd
       0.12815973 0.14353488 -0.2617195 -0.090632685
000290 b3 f7 8d 3e 4e 7b 2c 3e f4 2e 61 bd 0a 0b 92 3e
       0.27728042 0.16843912 -0.05497642 0.28524047
0002a0 74 41 4a be 7d 60 81 be a7 59 80 be 93 0d 64 3e
       -0.19751531 -0.25268927 -0.250684 0.22270803
0002b0 5e 7d 95 3d a8 2b ba 3b f6 23 3e 3e 49 98 d5 3d
       0.072993025 0.0056814738 0.18568406 0.10429437
0002c0 b1 c5 e1 3d e2 fb f6 bd 91 24 38 3c 2a 8a 28 3e
       0.11024035 -0.120597616 0.011239187 0.16458955
0002d0 0d cd 7f bc b5 2a b1 3d 99 d2 ae 3d c5 f3 94 3e
       -0.015612853 0.08650724 0.08536262 0.2909223
0002e0 ba fa 64 be ec 72 ef 3d b7 49 c4 3d 31 ad 88 3e
       -0.2236127 0.116918415 0.095843725 0.26694635
0002f0 d3 1d b7 bd 30 61 bd bd 5a 13 8e be a3 8f 48 be
       -0.089412354 -0.09247053 -0.2774914 -0.19586043
000300 a2 04 e5 3d d8 92 1b bc b3 9f a5 3e f1 fb 0f be
       0.11182524 -0.0094954595 0.32348403 -0.14060952
000310 c3 48 1f 3e 91 f4 a1 3e d3 46 86 3c e6 25 10 be
       0.155551 0.31631902 0.016391193 -0.14076957
000320 13 e4 3f 3e c7 f2 af bd 13 38 28 be 2d e0 87 3e
       0.18739347 -0.08591228 -0.1642764 0.2653822
000330 9a 49 99 bc 48 d6 41 bd 93 79 9e 3e bb 8e a1 3e
       -0.018711854 -0.047323495 0.3095213 0.31554207
000340 50 0a 19 3e c7 6a 23 3e f8 c4 26 bc 10 7d 9b be
       0.1494534 0.15958701 -0.010178797 -0.30368853
000350 3c e7 7b 3e ba 90 90 3e 4b ab 10 3d c8 29 96 3e
       0.24599928 0.28235418 0.035319608 0.29328752
000360 dd 64 80 3d 17 c7 e7 3d 78 76 0b 3e a5 74 9e be
       0.06269238 0.1131727 0.13619411 -0.30948368
000370 c3 03 b1 3c f4 37 2d 3e f1 1b 78 3e 06 49 17 be
       0.021608239 0.16915876 0.24229409 -0.1477395
000380 e5 a2 56 3e 8f eb 2d 3e 66 15 0f 3e 57 d0 d7 3d
       0.20960577 0.1698439 0.13973007 0.105377845
000390 92 62 15 3e 1a f4 26 3d c5 19 e1 3d f8 ce e0 bd
       0.14588383 0.040760137 0.10991243 -0.10976976
0003a0 61 d7 4b 3e c3 48 4c 3e 06 d2 15 be 68 4b 25 be
       0.1990638 0.19949631 -0.14630899 -0.16142046
0003b0 6f 15 60 be a5 ff 58 3d d3 9f 71 be f5 e0 83 be
       -0.21883176 0.052978177 -0.23596124 -0.25757566
0003c0 1a 39 60 3d e8 ee ef bd cd 9f 25 be 0e 36 96 3e
       0.054741956 -0.117154896 -0.1617424 0.29338115
0003d0 0a e9 1f bc 60 2a 0b 3e b2 b0 95 3e c2 cc aa bd
       -0.009760151 0.13590384 0.2923637 -0.08339836
0003e0 2a 76 af bd b6 84 cf 3d a3 b8 8a 3e 8b ae de 3d
       -0.0856746 0.101327345 0.27093992 0.10873135
0003f0 e8 30 71 be 11 66 a1 3d 6b a8 61 be 44 87 53 3d
       -0.23553813 0.07880796 -0.22036903 0.05164267

lstm.weight_hh_l0 f4 [40, 10]
000000 66 e7 7e be 55 8f d9 bb 91 f7 19 3d ea 5b 88 be
       -0.24892959 -0.006639401 0.037589613 -0.26632625
000010 3a b3 26 be 5d 4d a9 3e 56 ba 81 3e f1 bd 2e 3e
       -0.16279307 0.33066836 0.25337476 0.17064644
000020 86 46 72 bc e0 f2 a1 3e b6 d4 f2 bd 86 5c 59 3d
       -0.014787322 0.3163061 -0.11856978 0.053066753
000030 46 59 ab bd 00 c4 8c 3d 1a be 70 3e 4e 50 9c be
       -0.08366637 0.068733215 0.23510018 -0.30530018
000040 a0 5e f8 bc 3e db 37 3e 23 97 e5 3d 53 bc c6 3d
       -0.030318558 0.17954728 0.11210468 0.09703889
000050 e0 9c 88 3e 1d 1d 2f 3d 9f 09 50 3d 00 a1 55 be
       0.26682186 0.042752374 0.050790425 -0.20862198
000060 23 e7 47 3e 09 25 c8 bd 64 58 6c 3c 4e 17 2a 3e
       0.19521765 -0.09772689 0.014425371 0.16610453
000070 48 57 00 be 14 9e 75 be 46 62 65 be af 83 ff bd
       -0.12533295 -0.23986083 -0.2240077 -0.124762885
000080 48 2a 61 3e d3 ef 2f be 76 87 52 bd a8 b3 58 be
       0.21988785 -0.1718133 -0.051398717 -0.21162283
000090 90 e3 fd 3d 9f 1a 72 3d e6 73 8e be 18 f2 20 bd
       0.1239692 0.05910742 -0.27822798 -0.03929338
0000a0 5a d3 97 be 2a a7 00 3e 4e 51 e0 bc ec b9 91 3e
       -0.29653436 0.12563768 -0.02738252 0.2846216
0000b0 dd 47 5e 3e 0c 94 92 3e 34 7a 5f 3e 4c c7 43 3e
       0.21707101 0.28628576 0.2182396 0.19118994
0000c0 da ad ad bd c8 7c 86 bd 03 38 68 3e f8 b3 d4 3d
       -0.08480425 -0.06566769 0.22677617 0.10385889
0000d0 27 24 7e be 2e ff a1 bc b9 43 01 be 8c 10 a1 bd
       -0.24818479 -0.019775 -0.1262349 -0.07864484
0000e0 0b aa 9b 3e 47 d7 68 3e ff 07 84 be 84 3c 21 bd
       0.3040317 0.22738372 -0.2578735 -0.039364353
0000f0 bf ce 64 be 4a f2 0c bd b3 fc a9 3d 45 91 3f 3e
       -0.22344492 -0.034410752 0.08300152 0.1870776
000100 06 54 d7 3d f2 46 24 bd f9 ff 8f 3e 1b df 93 be
       0.10514073 -0.04010672 0.2812498 -0.28881153
000110 c2 e9 99 3d 38 87 8b 3e f4 69 5a 3e fc 9f 84 be
       0.07515289 0.272516 0.2132948 -0.25903308
000120 9c 9f 82 3e ce 49 07 3e 96 6a 71 be 2d f3 3e 3e
       0.25512397 0.13211748 -0.23575816 0.18647452
000130 44 58 90 bd 0a b7 89 3c 93 cd 1b 3e 3f 04 93 3e
       -0.07048085 0.016810913 0.15215139 0.28714177
000140 f8 e6 86 3e 71 48 25 bd 7e fa 9b 3e 31 72 6e 3e
       0.2634809 -0.04035229 0.30464548 0.23285748
000150 c8 c5 8f be f0 9c 1d 3e 1a 54 01 3e c2 e9 4f 3d
       -0.28080583 0.15391898 0.12629738 0.05076004
000160 eb 71 13 3e 8f d8 9a 3e d8 2a 05 3e 50 a5 fa bc
       0.14398925 0.30243346 0.13004625 -0.030596405
000170 d6 73 89 3e bc 50 44 be a5 9e 90 be 08 9a bd 3c
       0.26846188 -0.19171423 -0.28246036 0.023144737
000180 92 de 20 3d 6d 4c db bd 82 ec 71 be ea e9 86 3d
       0.03927476 -0.107079364 -0.23625377 0.06587584
000190 68 15 01 3c 09 df 18 be 6c 8e a3 bb 8c 53 42 bc
       0.007878639 -0.14928831 -0.0049913432 -0.011860739
0001a0 66 35 43 3d 84 56 1b 3e 5c 24 45 bd 87 44 a4 3e
       0.047658347 0.15169722 -0.048130378 0.32083532
0001b0 b4 3b 6c 3c 51 d9 7d be 60 ce 68 be d8 ee e0 bd
       0.014418531 -0.24789931 -0.22734976 -0.10983056
0001c0 4f 0d 3d 3e 30 9a 98 be a5 0f 21 bd dc e2 c1 3d
       0.18462108 -0.29805136 -0.03932156 0.09467098
0001d0 5b 9f 88 be a1 1a 5d be 87 d8 7c 3e 7d 8a 62 3e
       -0.2668408 -0.2159219 0.24691974 0.22123142
0001e0 b9 15 97 3d c5 30 cc bd c4 2c 55 3d f6 20 41 3c
       0.0737719 -0.099702395 0.052044645 0.011787644
0001f0 7c 16 8d 3e b8 79 17 3e 82 f8 35 3d 64 5e 41 be
       0.27556217 0.14792526 0.04442645 -0.18883663
000200 00 1e 32 3e d6 46 5e 3d b4 68 89 be d1 5e 97 be
       0.17394257 0.054266773 -0.26837695 -0.29564527
000210 6d 1b 95 3e 31 79 f7 bd 21 5a 0b 3e fa 35 98 bd
       0.29122487 -0.12083662 0.136086 -0.0743217
000220 77 09 8f 3e d0 08 9c 3c 5c b1 48 3e 11 c0 79 3d
       0.2793691 0.01904717 0.19598907 0.060974184
000230 d0 15 25 bd be 5a 60 be 4e b9 94 3e 22 aa 82 be
       -0.040304005 -0.21909615 0.29047626 -0.25520426
000240 6a c4 92 3e 77 6a 79 be 9c e3 82 3e 56 00 58 3e
       0.28665477 -0.2435702 0.25564277 0.21093878
000250 ef b2 6b 3e 6b 75 1d be 57 43 0b 3c 53 3f d2 3d
       0.23017476 -0.15376823 0.008499942 0.102659844
000260 72 af 8f 3e 16 72 91 be 15 74 44 bd 5d 98 63 be
       0.28063542 -0.28407353 -0.047962267 -0.2222609
000270 50 62 59 3e 72 7b 54 be 71 b7 95 be eb a5 84 3e
       0.2122891 -0.20750216 -0.29241517 0.25907835
000280 91 48 72 3e bb 92 a7 be fa 5f 85 be 7c 23 52 3d
       0.23660494 -0.32729134 -0.26049787 0.05130337
000290 b4 8b 0f be ff b6 6b 3e 46 bf 68 3e e9 3a 6e 3e
       -0.14018136 0.23019026 0.22729215 0.2326466
0002a0 62 0f 96 be 51 aa 6e be b0 76 fe 3d 21 d5 86 3e
       -0.2930861 -0.23307158 0.124249816 0.2633448
0002b0 18 09 41 be 72 7d 8c 3e a2 25 1b 3d ad 44 3b be
       -0.18851125 0.27439457 0.037877686 -0.18287916
0002c0 89 48 90 be 81 3f 90 3e 75 ee e4 3d 04 3d 8d be
       -0.2818034 0.2817345 0.111782946 -0.27585614
0002d0 b9 3c 0a bd 61 62 78 3c 51 ff c3 3d de 59 ae 3d
       -0.033749316 0.015160174 0.09570182 0.085132346
0002e0 c0 a5 ad bc 32 0f 33 3e b1 de 32 3d c7 fe 3f bd
       -0.0211972 0.17486265 0.043669406 -0.046873834
0002f0 b3 57 a6 3d 45 e5 1d 3e 60 ad 9a 3e 9a 17 47 3e
       0.08122196 0.1541949 0.302104 0.19442597
000300 88 5c d6 bd 14 36 9a be 00 2f 9e be 38 54 47 be
       -0.10466868 -0.30119383 -0.30895233 -0.1946572
000310 bd 7e 88 3e 9d 88 1f 3e 86 fe 08 be 87 fc 8d be
       0.26659194 0.15579458 -0.13378343 -0.27731726
000320 79 6c 60 3e 55 b8 4d 3e 91 81 bf 3d 39 4b 8c be
       0.21916379 0.20089848 0.09350885 -0.2740114
000330 4b f3 31 be eb 7d 8c bd 42 fb ea bd da 6d 98 bc
       -0.17377965 -0.068599544 -0.11473705 -0.018607069
000340 97 49 99 be 2c ea 3f 3e 83 7b 85 3e 17 95 8a bd
       -0.29938957 0.18741673 0.26070794 -0.06766718
000350 ad 02 8a 3e 2a 1d 24 3e 81 72 a0 be 65 3a 25 3e
       0.26955166 0.1602675 -0.3133736 0.16135557
000360 61 1f a8 3d ac 85 99 3e df f8 d0 bd a5 3a 87 3e
       0.0820911 0.29984796 -0.102037184 0.2641193
000370 48 7f 47 3e 0c 37 90 3e a8 fb 82 3e 44 73 41 3d
       0.19482148 0.28166997 0.25582623 0.047229066
000380 2e e1 32 3d 5e 34 36 3e a3 22 0a 3e 60 92 26 3e
       0.04367178 0.17793414 0.13489775 0.16266775
000390 c7 9f 9c 3e bb 23 51 3e 9b 29 bb bc 3f 7b 24 be
       0.3059065 0.20423786 -0.022846987 -0.1606264
0003a0 b2 57 6d be e3 fc 8d be c2 43 8d 3c 19 77 38 3e
       -0.23177984 -0.27732 0.017244224 0.18014182
0003b0 36 e3 e1 3d ef 94 14 3e a7 03 bb 3d 2f 10 53 3e
       0.11029665 0.14509939 0.09131556 0.20611642
0003c0 84 13 1f 3e 2b f7 1c be 1b 87 fc bd 59 b3 39 3e
       0.15534788 -0.15328662 -0.12330457 0.18134822
0003d0 a9 1d 3a be e7 47 de 3d 56 04 72 3e 76 dd 55 3d
       -0.18175377 0.10853558 0.23634467 0.052213155
0003e0 de 18 1a 3e 88 65 ec 3d 79 dd b7 bd 22 eb 49 be
       0.15048549 0.11542803 -0.089777894 -0.19718602
0003f0 2f 45 6b bd 3c 51 a5 be ef 71 14 be cf e3 33 be
       -0.057439025 -0.3228854 -0.14496587 -0.17567371

lstm.bias_ih_l0 f4 [40]
000000 7e 18 2e be 3c 83 93 bd 3a 8a 95 3e 80 3f 66 be
       -0.1700153 -0.07202765 0.2920702 -0.22485161
000010 72 47 a8 bc a0 09 51 3d 12 e1 65 3d 04 11 c8 3d
       -0.02054188 0.05103457 0.056122847 0.097688705
000020 83 f5 80 be 47 9f d7 bd b6 98 61 be 64 7e 02 3e
       -0.2518731 -0.105284266 -0.22030911 0.12743527
000030 6b 26 c6 3d 2f 1c 38 3e c4 a0 9e bd b3 7a 72 be
       0.096752964 0.17979501 -0.07745507 -0.23679619
000040 84 10 a4 3e 0f 16 4e be e2 8c 7d 3e 0e 3a d8 bd
       0.3204385 -0.20125602 0.24760774 -0.10557948
000050 d9 9d a0 be 41 14 0e be 46 a6 80 bd a9 9b 9f be
       -0.31370428 -0.13874914 -0.06281714 -0.31173447
000060 89 a1 fb bd c4 e1 64 3e 15 ff 91 3e 0f 57 93 be
       -0.1228667 0.22351748 0.28514925 -0.28777358
000070 57 97 9a 3e 4f 23 4c 3e 62 8f 6d 3e f5 23 80 3e
       0.30193588 0.19935344 0.23199227 0.25027433
000080 cb 7d 9a 3e f7 3f 6c 3e 79 bc d7 3d 38 2b 1d be
       0.30174097 0.23071276 0.10533995 -0.15348518
000090 0d c3 0d bd 19 0e 9b be 52 9c 82 be 09 4a 1a bd
       -0.034609843 -0.30284193 -0.25509888 -0.03766826

lstm.bias_hh_l0 f4 [40]
000000 49 e3 8f be 95 75 ec bb bf 82 2f be f6 ff 91 3e
       -0.28103092 -0.0072161653 -0.1713972 0.28515595
000010 d9 fd 8d be 15 32 cc bd 73 ae 86 be 0a d5 52 3d
       -0.27732733 -0.0997049 -0.2630497 0.0514727
000020 a9 47 f5 3d fd 8c 8e 3e ec 5f 06 3e 66 c5 f2 bd
       0.11976559 0.2784194 0.13122529 -0.11854057
000030 6a 0e 95 be 5c a0 06 bd 55 f3 0b bd 69 bf f1 bd
       -0.2911256 -0.032867774 -0.034167606 -0.11804087
000040 a4 73 5f 3e 5f ab 84 be 5e 2c 20 3e 54 c3 30 3e
       0.21821457 -0.25911996 0.15641925 0.17262012
000050 3e aa 65 be ee f3 a8 bd b0 3d 71 3e bc be 27 be
       -0.22428223 -0.08249651 0.23558688 -0.16381353
000060 25 50 97 bd 51 ea 92 3e 95 32 47 3e fe 53 2f 3e
       -0.07388333 0.28694394 0.1945289 0.17121884
000070 98 bb 6c 3d 7d e5 90 3e 93 33 b4 3b ef 0d 11 be
       0.05779609 0.28300086 0.005499312 -0.14165471
000080 b6 fd 07 bd 6c 36 e2 3d c2 6e bc bd cd 68 83 3e
       -0.033200942 0.110455364 -0.09200813 0.25665894
000090 e4 f2 ae 3d c0 63 3c be 08 15 7a be d2 39 1d 3e
       0.085424215 -0.18397427 -0.24422085 0.15354088

lstm.weight_ih_l1 f4 [40, 10]
000000 3d ff 3b be 0f f5 f6 3c 58 ab 9c be bd 31 98 3e
       -0.18359084 0.03014615 -0.30599475 0.29725447
000010 8b d4 88 3d 8d e5 08 3d 52 94 ec 3d b0 57 37 3d
       0.06681164 0.03342204 0.11551727 0.04476136
000020 18 da 0b be 94 ac b8 3d 5b 43 f7 3d 90 0d 8a bd
       -0.13657415 0.09017292 0.12073394 -0.06740868
000030 4f 83 20 3e eb 29 83 3c dc b5 08 be d7 60 9b be
       0.1567509 0.016011199 -0.13350624 -0.3034732
000040 88 5c 58 3e ac 30 92 3d ee e3 48 be ec d1 0a bd
       0.21129048 0.0713819 -0.19618198 -0.033891603
000050 2f 44 9b be 66 48 97 3e 36 fb 4c 3e 0e 41 0c be
       -0.30325457 0.29547423 0.20017704 -0.13696691
000060 15 fe 8d be ce 3a ba 3d 61 65 91 bc e1 36 9c be
       -0.27732912 0.09093247 -0.017748537 -0.3051062
000070 5a 66 53 3e 18 0f 85 3d c4 1d d0 bd 0d 79 6c bc
       0.20644513 0.064970195 -0.10161927 -0.014433158
000080 7c 49 26 bc 5c e0 4f be 49 0f 9e 3d cf d8 79 be
       -0.010149356 -0.2030043 0.07717759 -0.24399112
000090 d6 73 8a 3e b0 4c 2c be ff a5 59 bd 51 2f 3a bd
       0.270415 -0.16826129 -0.05313682 -0.04545528
0000a0 36 fe 52 be ee 7f a4 3c da 73 97 3e 59 b6 b8 3d
       -0.20604786 0.020080533 0.29580575 0.09019155
0000b0 9d 5b 15 3e da 16 99 3e 8b 62 00 be 89 d0 6c 3e
       0.14585729 0.29900247 -0.12537591 0.23126425
0000c0 15 d9 20 be 8b 42 8d bc 16 58 4a be 63 b8 37 3e
       -0.1570781 -0.017243644 -0.19760165 0.17941432
0000d0 3d 57 cf bd 25 8b 78 3e 9a 2b 32 3e de 57 69 be
       -0.10124061 0.2427183 0.17399445 -0.22787425
0000e0 28 0a ab bd ed 6f 7a be 91 49 79 be cf bf 24 be
       -0.083515465 -0.24456759 -0.2434447 -0.16088794
0000f0 f8 42 80 be ae 38 47 3e 86 b9 19 3e a3 be f6 3d
       -0.25051093 0.19455215 0.15012178 0.1204808
000100 ac 94 7d 3e 9d 4b 35 3e 12 c9 85 be f9 b1 c0 bc
       0.24763745 0.17704625 -0.26129967 -0.023522364
000110 36 8d 6b be 73 d6 ee 3d fb 46 76 be 52 68 6f be
       -0.23003086 0.11661997 -0.24050514 -0.23379639
000120 e7 10 56 bc d5 c8 32 bd 20 ae 2e 3e 5e ef e9 3d
       -0.013065553 -0.04364856 0.17058611 0.11422609
000130 f0 6e 4d 3e 92 67 02 3e 8a 91 13 be df 2f c7 bd
       0.2006185 0.12734821 -0.14410987 -0.097259276
000140 fa 7b 66 3e 4b 30 03 be d6 3f 94 3e 47 e5 43 be
       0.22508231 -0.12811391 0.28954953 -0.19130431
000150 a9 17 f0 3d bb cd 5d be d5 d3 52 3d 34 f7 2d be
       0.11723263 -0.21660511 0.05147155 -0.16988832
000160 02 c8 6c 3e 93 9c 98 bd 4a f7 54 3e a0 52 df bd
       0.23123172 -0.07451739 0.20797458 -0.10904431
000170 a1 1a 92 be 49 f8 d3 3d 4d 4f 5c 3e ab fd d3 ba
       -0.2853594 0.10350091 0.21514626 -0.0016173621
000180 5a d8 67 be dd 6e 63 be da c6 6f be d8 29 1a 3b
       -0.22641125 -0.2221026 -0.234157 0.0023523476
000190 2e e4 8e be a7 3b 68 be a3 5c 8c be 52 08 82 be
       -0.27908462 -0.22679006 -0.27414426 -0.25396973
0001a0 f5 18 8f be 2a 84 2b be 10 19 0c 3d c5 4b 5c bd
       -0.27948728 -0.16749635 0.03420359 -0.053783197
0001b0 f2 ed 3d 3e b1 f8 80 bc e9 81 b7 bd f4 47 13 3e
       0.185478 -0.015743585 -0.08960325 0.14382917
0001c0 f5 b9 a7 bd b3 54 24 be 82 06 dc bc b7 52 93 3e
       -0.08189765 -0.16047935 -0.026858572 0.28774044
0001d0 38 97 81 3c 63 35 20 3e f6 40 43 3e ee 21 76 be
       0.015819177 0.15645365 0.1906775 -0.2403638
0001e0 61 6c 93 3e 45 ba 64 3e 73 21 62 be 8c 4a a0 be
       0.28793624 0.22336681 -0.22083072 -0.31306875
0001f0 71 62 8e 3e 09 57 56 be 4d be 66 bd a2 11 b1 3d
       0.2780948 -0.20931639 -0.05633383 0.08645941
000200 54 df 64 3e 53 9f 1e be 8f 0f 16 be e3 f3 58 be
       0.22350818 -0.15490465 -0.14654373 -0.21186785
000210 3f 3b 97 be 87 97 34 bd 77 12 a6 3d e8 08 9e be
       -0.2953739 -0.04408982 0.08108991 -0.3086617
000220 50 8e 91 be 78 9e 5c be de e5 18 be 34 ee 74 be
       -0.28428888 -0.21544826 -0.14931437 -0.23918992
000230 1d b2 69 be 55 22 17 3e 2a a5 9b be 9c 76 96 3e
       -0.22821851 0.1475919 -0.30399448 0.29387367
000240 97 c0 1b 3d cc bd 34 3c 72 b8 61 bd dc 1d 74 3e
       0.038025465 0.011031579 -0.05510754 0.23839515
000250 5c 32 11 3e 97 a3 27 be 68 fa 5a 3e 79 0a 82 bd
       0.14179367 -0.16370998 0.21384585 -0.06349654
000260 78 1f b7 3d f5 72 97 be 93 9b aa bc 5a dd c0 3d
       0.08941549 -0.29579893 -0.020826137 0.094172195
000270 d3 fe 71 3e 69 01 e4 bd 3f b3 89 3e 96 a5 2e 3e
       0.23632364 -0.111330815 0.26894566 0.17055354
000280 3a 95 92 be 3f 56 88 3e 3b 12 40 be 1c d2 8d be
       -0.28629476 0.266283 -0.18756954 -0.27699363
000290 8f d4 73 be 8a 91 21 3e 9f a8 11 be 1f 66 4b 3e
       -0.23811553 0.15778175 -0.1422448 0.19863175
0002a0 7f 46 20 3e 54 ef 22 3c ac e7 98 3e 4a 07 5d be
       0.15651892 0.009944756 0.29864252 -0.21584812
0002b0 c4 5c 22 be f3 64 d2 3d e3 ce 5f be cd 6e 69 be
       -0.158557 0.10273161 -0.21856265 -0.22796173
0002c0 41 f4 54 bc 0f 19 9a 3e f3 d7 d9 bc 4e 4c a0 be
       -0.012997688 0.30097243 -0.02659223 -0.31308216
0002d0 f2 32 e3 3d 56 c7 47 3d ef b8 d2 bc db b5 bc 3d
       0.110937014 0.048774086 -0.025722949 0.09214374
0002e0 0f ca 9a 3e fb fe 8a 3e a9 97 2b 3e fb 0c 2a be
       0.30232283 0.2714766 0.16757073 -0.16606514
0002f0 75 b1 49 3e fc 95 8f be d0 c1 52 3d f4 17 e8 3c
       0.196966 -0.28044116 0.051454365 0.028331734
000300 e0 dc e7 bd 12 fe 78 3e 83 3c 85 3e 90 81 5f 3e
       -0.113214254 0.2431567 0.2602273 0.21826768
000310 99 d7 9e 3e 0c 6f 13 3e 8e b8 52 be 1a 65 1c 3e
       0.31023863 0.1439783 -0.20578215 0.15272942
000320 3a 17 64 be 14 1b 76 3e bf f8 85 3c 7e 65 47 3e
       -0.22274485 0.24033767 0.016353963 0.1947231
000330 71 47 dd bb eb 74 3a 3d b4 63 88 be f9 a0 98 3e
       -0.0067529012 0.045521658 -0.26638567 0.29810312
000340 84 19 61 3d e9 26 d6 bd 19 ef b3 bd 75 8d 70 3e
       0.054955974 -0.1045664 -0.08785839 0.23491462
000350 81 1f 54 3e 54 ca 93 3e bb 44 20 3d d9 b2 b6 bc
       0.20715143 0.28865302 0.039128046 -0.022302078
000360 ce 6c d7 3c cb cf 7b bb a4 5b 70 be d3 90 56 be
       0.026297 -0.0038423415 -0.23472458 -0.20953684
000370 da 21 fe 3d a6 66 d3 bd 43 8b 97 be 67 cc 03 3e
       0.124088004 -0.10322313 -0.29598436 0.12870942
000380 58 ce 9f 3e 99 4f 7b 3e 86 87 b6 bd 52 96 39 3d
       0.31212115 0.24542083 -0.08912568 0.045309372
000390 6b cf ef bd 53 2c 33 be 1c 83 a3 be 33 41 e4 3d
       -0.11709484 -0.17497377 -0.31935966 0.11145248
0003a0 fb e4 9f be e8 0a ff 3d 1f a8 8c 3e 1d f7 6c 3e
       -0.31229386 0.12453252 0.27472016 0.23141141
0003b0 d4 b4 48 3e 81 6b 3a 3d 42 fa 0e be cc 1e 7c 3e
       0.1960023 0.04551268 -0.13962653 0.24621123
0003c0 ef 59 17 3d 2f fb d4 3d 7a 7f c3 bc ba ca 1e 3e
       0.036951 0.10399472 -0.023864496 0.15507022
0003d0 76 33 48 be 81 c8 9a 3e 70 12 73 be ea 63 83 3e
       -0.19550881 0.30231097 -0.23737502 0.25662166
0003e0 2a 9a 15 3e dc 14 76 be ca a9 2f bd 3d 94 83 3e
       0.1460959 -0.24031395 -0.042886533 0.25699034
0003f0 e1 2c b8 3d 72 05 0e 3e ea e5 94 be af 6c 74 bd
       0.08992935 0.13869265 -0.2908166 -0.05967396

lstm.weight_hh_l1 f4 [40, 10]
000000 1f 7d 25 be ed ed 37 3e 45 00 9c 3d ef 83 80 be
       -0.16161011 0.17961855 0.07617239 -0.25100657
000010 fb cf 98 3e b6 98 2b 3c 08 87 be 3b 91 6d b6 3d
       0.29846177 0.010473421 0.005814437 0.08907617
000020 28 b1 b4 39 37 50 9e be 60 fd 88 be 14 ea 31 be
       0.00034464267 -0.30920574 -0.2675581 -0.1737445
000030 7f b9 9a 3d 5f a0 05 be 96 d4 8a 3e d3 3f ad 3c
       0.07554912 -0.13049458 0.27115315 0.021148598
000040 a2 be 2f be 0a e9 9f 3d 78 11 d6 3d 99 f3 ce 3d
       -0.17162564 0.078081205 0.10452551 0.10105056
000050 10 44 d4 3c a2 d2 c3 bd d2 51 82 be 8e 49 96 be
       0.025911361 -0.095616594 -0.2545305 -0.29352993
000060 92 00 e1 bd 0f 1f 30 bd c3 e1 9b be 47 e2 74 3e
       -0.10986437 -0.04299837 -0.3044568 0.23914443
000070 0e 72 ae bd fe 70 8b 3e 94 8f 23 3e bb f5 ce bc
       -0.08517848 0.27234644 0.1597274 -0.025263658
000080 d2 61 15 be 6a b0 83 3e a4 48 42 be bb cb 3d be
       -0.14588097 0.2572053 -0.18973023 -0.18534748
000090 3b 3e 82 bd 24 51 d2 3d d0 26 f9 bd ba cf 80 be
       -0.06359526 0.102693826 -0.12165606 -0.25158483
0000a0 83 03 6d 3e cf e1 83 3e 73 75 41 be 0c 29 f1 3c
       0.23145871 0.25758216 -0.1889246 0.029438518
0000b0 63 73 0d be db b5 27 bd 9d 63 9f 3e 14 15 84 be
       -0.13813548 -0.040944915 0.31130686 -0.2579733
0000c0 77 ee 83 be e6 23 7e 3d b1 3f 94 be 59 bc 15 3e
       -0.25767872 0.062045954 -0.28954843 0.1462263
0000d0 47 6c 84 3e bc e1 61 3e ba e8 80 3e a5 79 62 be
       0.2586386 0.22058767 0.25177556 -0.22116716
0000e0 35 29 14 3e b4 3e 30 be 9e 95 dc bd a3 98 10 3e
       0.14468844 -0.1721142 -0.10770725 0.14120726
0000f0 8b 92 86 3d 07 3e 27 be 67 bc d0 bd c3 65 99 3e
       0.065709196 -0.16332255 -0.10192185 0.2996045
000100 5e 86 5c bd e6 3a 23 be 78 19 48 3e 75 1e 14 be
       -0.05383908 -0.15940437 0.19540966 -0.14464743
000110 fc dc 69 3e e7 cd 90 3e 06 ee 65 3e e8 24 32 3c
       0.22838205 0.2828209 0.2245408 0.010873057
000120 fa 5f 6c 3e 98 8c 7e bd 62 0d ba 3d c6 e7 50 be
       0.23083487 -0.0621458 0.09084584 -0.20400915
000130 e8 24 70 bd 85 94 ba 3d 6e e8 19 bd 89 37 1b 3e
       -0.058628947 0.09110359 -0.037575178 0.15157904
000140 49 59 96 3e 92 69 88 bd 55 b7 1b be 45 cf 8c be
       0.29364994 -0.06660761 -0.15206654 -0.27501884
000150 ac b4 8f 3c f1 28 98 3e 0d 67 8c 3d f7 27 33 3e
       0.017542206 0.29718736 0.06855593 0.17495714
000160 b8 d9 5c 3d fd 29 94 be cb 88 9c bc 3a 6d 20 3e
       0.05391857 -0.28938285 -0.019108197 0.15666667
000170 83 b7 72 be f5 71 80 be 39 be 66 bc 89 3a dd 3d
       -0.23702817 -0.25086942 -0.014083439 0.1080218
000180 ce 23 ab 3c f1 f9 9c be 4b bb 58 be 17 04 92 bd
       0.020891096 -0.3065944 -0.21165197 -0.07129686
000190 cc ea 36 be 19 3c 38 3e de f8 a2 bd bb 8d 7a 3e
       -0.17863005 0.17991675 -0.07957624 0.24468128
0001a0 3e bc d5 3d 3a f2 91 be 8d eb a1 be 97 f9 db bc
       0.10436295 -0.28505117 -0.31625023 -0.026852412
0001b0 00 f0 97 be d0 a8 3d bd 06 c1 8b 3e db bf 81 3e
       -0.29675293 -0.04630357 0.27295703 0.25341687
0001c0 46 a9 a6 3d 06 1b 4e bc e4 26 8b be 0b 1e 97 3e
       0.08137755 -0.012579685 -0.2717811 0.29515108
0001d0 fb 89 8f be 91 07 01 be 9c b9 53 3e 72 24 82 3c
       -0.28034958 -0.12600543 0.20676273 0.01588652
0001e0 6b c8 ee 3b 2b 9c 9c bd 08 88 6c 3e a7 b0 59 3e
       0.0072870753 -0.07646974 0.23098767 0.21258794
0001f0 c9 13 45 3e 6a 48 a7 3d 0f 54 64 3e 95 71 5f be
       0.19245829 0.08168109 0.22297691 -0.21820672
000200 f5 d3 0e 3e 90 1b dc bc f8 09 a1 be 39 31 84 be
       0.13948043 -0.026868612 -0.31452918 -0.25818804
000210 77 51 56 3e 23 8e f6 3d b3 3b 41 be 05 f0 a7 bd
       0.20929514 0.12038829 -0.1887043 -0.08200077
000220 73 c0 18 3e 16 06 fa 3d 0b 55 3d 3e eb f7 a4 bd
       0.14917164 0.12208192 0.18489473 -0.08055099
000230 e9 fa de bc f0 07 88 3e f5 16 a3 3c e0 1f 36 be
       -0.027219253 0.26568556 0.019908408 -0.17785597
000240 f6 c3 24 3e 28 cc d8 3c 4a 19 16 3e c8 fb 3b be
       0.16090378 0.026464537 0.14658085 -0.18357766
000250 85 9c cd 3d df d5 a0 3e e0 a3 20 3d a0 46 57 3e
       0.10039619 0.3141317 0.039218783 0.21023035
000260 05 f2 65 3e 5e 91 86 3e e6 dd fd 3d 0b 81 35 be
       0.22455604 0.2628278 0.123958394 -0.17725007
000270 4f 50 32 be 2c c3 66 3e 19 1e 40 be eb d4 8b be
       -0.17413448 0.2253539 -0.18761481 -0.2731088
000280 12 a2 05 3d 8d 1a 4c be d5 34 09 3c 4c ba 8e 3e
       0.032625265 -0.19932003 0.008374413 0.27876508
000290 9d cb 74 be ef 03 c4 3d 50 46 23 3e 3d 5e 8b bd
       -0.23905797 0.09571063 0.15944791 -0.06805084
0002a0 b6 56 9b be 2e f3 5a 3e b5 ba 78 3d 37 95 30 be
       -0.30339593 0.21381828 0.060724933 -0.17244421
0002b0 73 16 4e 3e f8 93 9d be 74 77 58 3e fe 29 f7 bd
       0.20125751 -0.30776954 0.21139318 -0.12068556
0002c0 dd da 8b be 79 b6 50 be 93 2d ba bd d2 76 c7 3c
       -0.27315417 -0.20382108 -0.09090724 0.02434865
0002d0 b2 a2 de 3c 0a c1 98 be e5 15 0b 3e 26 62 98 3e
       0.027177189 -0.29834777 0.13582571 0.2976238
0002e0 e3 c8 bd 3d 84 ea d7 bd 70 fc 38 3e 55 8a 37 3e
       0.09266832 -0.10542777 0.18065047 0.17923863
0002f0 76 a8 10 3e dc a7 33 be 25 83 2c be 1b 49 85 bc
       0.14126763 -0.17544502 -0.16846903 -0.016270211
000300 3e b8 88 be 4c d7 8d 3e 0e 52 80 be a2 d6 65 3e
       -0.26703066 0.2770332 -0.25062603 0.22445157
000310 b1 ff e9 3d fb 7a a1 be 7f 6f db 3d 88 3e ab 3d
       0.114257224 -0.3153914 0.107146256 0.08361536
000320 cc de 26 be b2 a6 eb bd 57 dd 1f be 21 40 41 be
       -0.16295928 -0.11506404 -0.15611778 -0.1887212
000330 9e 5a 2b bb 75 95 28 bc 14 ec 84 be 76 22 a0 3e
       -0.0026146541 -0.01028954 -0.25961363 0.31276292
000340 67 9a 9a be 8e c7 b4 3d c4 8e 54 3e 9a 13 03 bd
       -0.30195925 0.088271245 0.20757586 -0.032001115
000350 71 e7 1c 3d f9 bb 10 bd 68 ba 80 be 1d bc f4 bd
       0.038306657 -0.035335515 -0.25142217 -0.11949942
000360 19 5a 51 3e e7 de ba bb 1c 44 67 3e d1 3a 74 3e
       0.20444526 -0.0057028416 0.22584575 0.23850562
000370 38 e2 14 3e 51 ec 8f 3e a9 30 8f 3e f2 9a 00 bd
       0.1453942 0.28109983 0.27966812 -0.031397767
000380 3a 3c 5f be 1e 41 27 be 48 42 c5 bd bc c0 27 be
       -0.21800318 -0.16333434 -0.09631783 -0.16382116
000390 d9 e0 83 3e 53 a7 c9 bd ae 47 4e be 06 ba 8c 3e
       0.25757483 -0.09846368 -0.20144531 0.27485675
0003a0 29 de 73 3e 41 79 a2 3e 7b f4 64 3e 6c 3e b8 bd
       0.23815216 0.31733134 0.22358887 -0.08996281
0003b0 0c 74 ad 3d 8e 75 44 3e 52 b8 4e 3e a5 b9 5a 3e
       0.084694 0.19185469 0.201875 0.2135988
0003c0 d1 74 8f be 2e 83 5c be 94 51 89 be 76 09 8f 3e
       -0.2801881 -0.21534416 -0.26820052 0.27936906
0003d0 cb 7e b5 3d 41 79 89 bd 6c 87 51 bd e7 33 6d be
       0.088620745 -0.067125805 -0.05115454 -0.2316433
0003e0 d3 a5 aa bd 96 79 24 3e 00 2f 81 bc c4 df 6f 3e
       -0.0833241 0.16062006 -0.015769482 0.23425204
0003f0 2e 56 9d be 89 58 97 be 72 00 c7 bd 04 b1 ee bd
       -0.30729812 -0.29559734 -0.09716882 -0.11654857

lstm.bias_ih_l1 f4 [40]
000000 0a 0b 7d bd de 76 7a 3e bc c3 d1 bd 04 99 d8 3d
       -0.061778106 0.24459407 -0.102424115 0.105760604
000010 8a 2c 9f 3e 43 06 6f bc f7 0e 1e be 33 ad 52 3e
       0.31088668 -0.014588895 -0.15435396 0.20573883
000020 92 7b 0a 3e 0a 8a 3e be 2a a1 9c 3e 46 2b 85 3c
       0.13523701 -0.18607345 0.30591708 0.016255986
000030 1e f2 0b 3e 12 7a 5d 3d 12 03 01 be 6e 71 97 3d
       0.13666579 0.054071493 -0.12598827 0.07394682
000040 6b 47 89 bd a9 32 7c 3e 6b 83 8b be bd 82 2f be
       -0.06703075 0.246287 -0.272487 -0.17139716
000050 8b cd 59 be 5f e3 5c 3e c7 dd 08 3e 24 74 89 be
       -0.21269815 0.2157111 0.13365851 -0.2684642
000060 c1 d1 78 be d6 2f 50 be 11 7e 40 be f5 1f 97 be
       -0.24298765 -0.20330748 -0.1879809 -0.2951657
000070 14 da 12 bd 2a 20 f3 3d 7a e1 82 be 99 aa 9c be
       -0.035852507 0.11871369 -0.2556265 -0.30598906
000080 94 ee a6 bd 78 cf 6e bd fb 33 bc 3d 3c b7 0f 3e
       -0.08150974 -0.058303326 0.09189602 0.14034742
000090 e0 25 8a 3d ce 5c 45 3e bc 10 8e 3e 38 16 99 3e
       0.06745505 0.19273683 0.27747142 0.29899764

lstm.bias_hh_l1 f4 [40]
000000 3e 5f b4 3d 3f 11 82 3b 67 59 84 3b 8f 10 3c be
       0.088072285 0.003969341 0.004038978 -0.18365692
000010 1c fe 4d bd 72 f7 12 3e b8 a8 09 be 7d 81 2d 3e
       -0.050291166 0.14352205 -0.13443267 0.16943927
000020 1b cb ec bd e3 15 8f be d0 54 93 be fd 5f 31 be
       -0.11562177 -0.27946386 -0.28775644 -0.17321773
000030 85 99 eb 3d aa 35 fe bd 1f fe 43 be 6b 6a 66 be
       0.11503891 -0.12412579 -0.19139908 -0.22501533
000040 e0 ad 28 bd 88 3c 9b 3e d6 e2 45 3e 4a b3 79 be
       -0.041181445 0.3031962 0.19324812 -0.243848
000050 13 59 e7 bd 5a be 9b 3e f8 90 f3 bb 29 ac 70 3d
       -0.112962864 0.30418664 -0.007433053 0.058757935
000060 74 c7 1c be a4 df 3b 3e e1 e3 d5 bb 86 00 90 3d
       -0.1531046 0.18347031 -0.0065274094 0.0703135
000070 1b 57 6e 3d e0 83 5c 3e 44 fe 11 3e ed 5e 5d be
       0.05818854 0.21534681 0.14257151 -0.21618243
000080 3e 8f 5f be ec 67 35 be 72 d2 8b 3d 6f a6 1a 3a
       -0.21831986 -0.17715424 0.06827249 0.00058994343
000090 34 62 98 be 39 07 30 be f2 ec 20 3e e8 b7 f5 bc
       -0.29762423 -0.17190255 0.15715387 -0.02999492

fc.weight f4 [1, 3600]
000000 ae ce 5c bc 06 8c d4 bb c5 b9 9b bc 1c b4 83 3b
       -0.013477011 -0.0064864187 -0.01900948 0.0040192734
000010 c0 2c 24 bc 4a a2 bc 3b ae 54 3b bc ff 7c 52 bc
       -0.010020435 0.005756651 -0.011433763 -0.012847184
000020 2f 55 3c 3c 17 cc 88 bb af 2e 7b 3b 4d 56 ae 3b
       0.011494919 -0.00417472 0.0038327386 0.0053203464
000030 ef 8e a9 bb 43 9f 0f bc 28 aa 67 bc a2 75 10 bc
       -0.0051745097 -0.008765998 -0.0141396895 -0.008817108
000040 fc 41 b9 3a 28 1a 89 bc 29 7a 84 3b 48 8c 47 bc
       0.0014134045 -0.016736105 0.004042883 -0.012179442
000050 35 e5 8f 3a 3b aa 8a bb 53 05 52 3c ba 05 89 bb
       0.0010978343 -0.004231719 0.012818652 -0.004181591
000060 0b d6 47 bc 32 c8 40 bc 50 b0 fd 3a 17 9a d3 3a
       -0.012197028 -0.01176648 0.0019354913 0.0016143945
000070 47 95 cd 3a 5f 55 6e 3c a8 c6 28 bc 30 85 1d bc
       0.0015684747 0.014546721 -0.01030127 -0.009614274
000080 6f 2c 26 3c 3f 2c 51 bc 2b 92 39 3c aa a9 43 3c
       0.01014243 -0.012766897 0.011326353 0.0119423065
000090 2f 61 f5 bb 78 2e 5e bb d7 d2 68 bb 2a 00 13 3c
       -0.007488392 -0.003390221 -0.003552606 0.008972207
0000a0 25 e0 13 3c 83 c0 04 bb d8 bb 3d bc 6a 16 47 bc
       0.009025608 -0.0020256347 -0.01158043 -0.01215134
0000b0 a6 8e 05 bb c3 fd 22 bc a7 65 44 bc c2 f7 65 3c
       -0.0020379215 -0.009948197 -0.011987126 0.014036121
0000c0 73 17 e5 3b 3b b3 f3 3b 6d 88 03 bc 10 9a 69 3c
       0.0069913208 0.0074371374 -0.008028132 0.014257923
0000d0 e4 ba 2d bc 1e 27 50 3b e5 f7 e2 bb 27 e7 8e bc
       -0.01060364 0.0031761597 -0.006926524 -0.017444206
0000e0 e5 1d ca 3b 3c 44 01 3c dd 84 a6 3c 3c da 2f bb
       0.0061681145 0.0078898035 0.020327026 -0.0026832959
0000f0 45 d8 52 3c 34 45 6b bb 36 66 57 bc 59 24 16 3c
       0.0128689455 -0.0035899403 -0.013146928 0.009163939
000100 5b 2a 2f 3c 87 ec 93 b9 48 fb e6 bb 8c cb 09 bc
       0.010691251 -0.00028214252 -0.007048998 -0.008410346
000110 ea fa f5 ba 1e f1 2d 3c 66 a3 e9 bb 99 f7 4d bb
       -0.0018766795 0.010616569 -0.0071300743 -0.0031428097
000120 50 e2 19 bb 7f 44 07 bc 0c 09 21 3b e7 8c 78 bc
       -0.002348084 -0.008256077 0.0024572043 -0.0151703125
000130 1a 04 30 3c b3 13 16 3c 92 57 00 bc 2e 3d 21 bb
       0.010743165 0.00915997 -0.007833378 -0.0024603116
000140 8c 05 6b 3c c1 89 17 3c 26 43 ef 3b db 12 7d bc
       0.014344584 0.009249152 0.007301706 -0.01544639
000150 73 ff f4 bb 9e 72 73 3b 55 09 12 3c 8d 5b 91 b9
       -0.007476741 0.0037147175 0.008913358 -0.00027724766
000160 22 1a e0 ba 10 ce 30 3c e6 45 1d 3b 3d 37 a4 ba
       -0.0017097632 0.010791317 0.0023997962 -0.0012528669
000170 0c d7 26 bb 19 ab 78 bc 0b 94 7c bb 66 28 34 3c
       -0.0025457768 -0.015177512 -0.003854039 0.01099596
000180 81 a7 8d 3c 42 88 1b bb 76 02 a8 3c 39 e6 b8 bb
       0.017291786 -0.002373234 0.020508986 -0.005642679
000190 32 d1 b9 3a e9 c6 a0 3b 9c 59 eb bb 80 0d d4 3b
       0.0014176725 0.0049065244 -0.007182313 0.006471336
0001a0 57 51 fa b9 93 64 6c b9 35 66 75 3b 37 00 43 bc
       -0.0004774432 -0.0002254418 0.0037444953 -0.011901907
0001b0 2d f7 14 bc 87 09 28 bb 47 d8 6e bc f6 36 ea 3a
       -0.009092134 -0.0025640444 -0.014577932 0.0017869163
0001c0 15 97 57 3c 81 e0 b8 bb 9f 8c 92 3b 8b fc b8 3c
       0.013158579 -0.0056419973 0.0044723297 0.02258136
0001d0 21 7b 73 3c 6b 94 ac bb cd 70 97 3c c2 8c a6 3b
       0.014860899 -0.0052667162 0.018486405 0.0050826976
0001e0 59 a5 f8 3b dc 78 8c 3c 2d e2 08 bb f0 ba 3c bb
       0.0075880704 0.017147474 -0.0020886764 -0.0028797947
0001f0 29 97 6c 39 a1 bb 49 3c b1 e6 d2 3b 15 84 45 bc
       0.00022563025 0.012312801 0.006436192 -0.012055417
000200 89 98 b2 3c 24 78 81 3c 15 a0 bf bb 82 e2 64 bc
       0.02180125 0.015804358 -0.0058479407 -0.013970019
000210 12 9a 17 3c 75 32 12 bc 9b 78 94 bb 50 a4 cb ba
       0.009253042 -0.008923163 -0.004530979 -0.001553664
000220 16 d8 60 bc de a5 c4 39 99 3d f0 3a 7a 69 b2 3b
       -0.013723394 0.00037507614 0.0018328904 0.0054447027
000230 ac cb e3 ba fc 61 21 3c d8 15 09 bc 20 a1 81 bc
       -0.0017379425 0.009850021 -0.008367024 -0.0158239
000240 38 4b 87 3b 65 bb ca bb 71 09 00 3b bb 49 d7 bb
       0.00412884 -0.00618689 0.0019536878 -0.0065700687
000250 c3 10 e6 ba e0 65 86 bc 38 de 7e 3c 73 bb aa bb
       -0.0017552603 -0.016406 0.015555911 -0.005210334
000260 00 0c a0 3c fa a9 56 bc 93 03 7c bc 3f 20 b0 3c
       0.019536972 -0.013102049 -0.015381712 0.021499751
000270 1d 69 96 3c d7 94 57 3c cf 7d 1a 3c 9b 33 7c bc
       0.018360669 0.013158045 0.009429409 -0.015393163
000280 b6 ab 26 bc 2c 3d 18 3c da 2e 36 3c e6 5b 37 bb
       -0.010172775 0.009291928 0.011119569 -0.002797836
000290 b8 55 42 3c 98 de 4c 3c a8 ef a9 3c fb 7d 38 3c
       0.011861257 0.012504242 0.02074416 0.011260505
0002a0 9b 5c 32 3c 24 d4 72 bc 7a d9 a6 bb 94 a1 15 ba
       0.010886337 -0.014821086 -0.005091843 -0.0005707976
0002b0 c3 e9 01 3b 2c 79 5d 3b 00 2f 79 bc 4a 1e f8 3b
       0.001982317 0.0033794148 -0.01520896 0.00757197
0002c0 90 5d 69 ba d8 79 10 bc e0 10 aa 3a 5c 6d 09 3b
       -0.00089021865 -0.008818112 0.0012975 0.0020969724
0002d0 9b 2b 0e bc 33 62 71 3c 48 3d ef 3b b7 aa d9 ba
       -0.008677389 0.014732885 0.0073010065 -0.0016606663
0002e0 d1 1c 8a 3c a9 b5 77 3c c6 a6 7e 3b ee d7 2a b8
       0.016859444 0.015118995 0.003885673 -4.073226e-05
0002f0 15 67 93 39 ac 04 1c 3c df 0b 7d 3b cf da ab 3b
       0.00028114827 0.009522598 0.0038611812 0.00524459
000300 b8 15 28 3b 90 3a d3 bb 9b ee ab bb 1f 1e 57 bb
       0.002564771 -0.00644619 -0.00524695 -0.003282435
000310 62 12 0d 39 c2 b9 20 bc 49 a4 85 3c 66 6e 77 bc
       0.00013453656 -0.009809913 0.016313689 -0.015102005
000320 21 c2 4b bc ef a4 fe ba 0a 28 40 bc 88 8c 0f 3c
       -0.012436421 -0.0019427816 -0.011728296 0.008761533
000330 d4 ef 66 3b 6d 1c 2b 3c 0b 45 ad ba 75 fe 54 bc
       0.0035238164 0.010443789 -0.0013219429 -0.01300012
000340 ca 29 3e 3b ad 96 aa 3a f4 1a 70 3c 8e 7e 1e bc
       0.0029016607 0.0013014876 0.014654864 -0.009673728
000350 98 2c dd 3b 6c 7e b1 bb 31 ed 41 3c 6b bc ad bb
       0.0067497008 -0.005416682 0.011836336 -0.005302002
000360 c1 aa 63 bc 93 b6 4d bc 16 ba b1 3c da 09 25 bb
       -0.013895691 -0.012555736 0.021695178 -0.0025182874
000370 7e d0 62 3c c1 a2 72 3c 90 bd 10 3c 15 1a 35 bc
       0.013843654 0.014809311 0.008834258 -0.011053582
000380 de d0 09 3a 08 36 bc bb 41 86 85 bb ae 2f 71 3c
       0.0005257259 -0.0057437457 -0.004074842 0.01472084
000390 68 73 4e 3b c7 fa 04 bb 5a 1c 0a 3c c0 1f 73 bb
       0.0031501893 -0.0020291077 0.008429611 -0.0037097782
0003a0 b6 39 8e 3c a6 9e 28 bb 24 19 8e bb e0 47 a4 3b
       0.017361503 -0.0025729327 -0.004336493 0.005013451
0003b0 1f 5c 83 bc d6 02 cf 3a 25 9c 7e 3c 9b 2e 05 bc
       -0.016035138 0.0015793692 0.015540157 -0.008128787
0003c0 ca f1 57 bc 50 aa 4c bc 2b df ab 3b bf bb 5d bc
       -0.013180206 -0.012491778 0.0052451096 -0.013533532
0003d0 fb 45 60 bc 97 38 a0 3c 7d c1 48 bb 66 8d 17 3c
       -0.01368856 0.019558234 -0.0030632906 0.009250021
0003e0 97 f8 ba 3c ff a3 8c 39 98 25 7a bb 02 4d 0d 3c
       0.022823615 0.00026825067 -0.003816938 0.008624317
0003f0 17 03 68 3c 54 f0 03 bc a0 b1 7a 3b 10 36 94 3c
       0.014160893 -0.008052904 0.0038252845 0.018092185

exp_avg f4 [40, 29]
000000 5b 85 04 b8 f5 c6 05 b9 8e 0f 64 b6 c7 19 a8 b8
       -3.159545e-05 -0.00012757986 -3.3983702e-06 -8.015666e-05
000010 3f 29 55 b8 96 5d f0 b7 4b 97 2b b7 a5 3b 84 b8
       -5.082157e-05 -2.8653809e-05 -1.022762e-05 -6.30536e-05
000020 da a1 f3 b7 50 87 70 b7 fe 1b cf b7 b5 f6 c2 b8
       -2.9043225e-05 -1.433662e-05 -2.4689358e-05 -9.2965936e-05
000030 64 0d 88 35 38 c8 e2 b7 b4 2e cd 37 ca 66 df b7
       1.0136687e-06 -2.7034534e-05 2.4459652e-05 -2.6631536e-05
000040 55 6e d5 b8 fd a5 23 b8 76 78 89 37 7e 1f 1d 37
       -0.000101771824 -3.9016817e-05 1.6387767e-05 9.365262e-06
000050 c8 93 16 b8 90 92 8d b7 d5 22 cc b7 a3 8b db b5
       -3.590042e-05 -1.6876758e-05 -2.4334915e-05 -1.6357411e-06
000060 e5 43 18 37 8e f9 86 b6 66 9a 8b b7 be a0 11 b7
       9.075714e-06 -4.022563e-06 -1.6641989e-05 -8.680099e-06
000070 f4 d8 9c b7 3a c0 97 b7 e0 31 bb b8 51 61 37 b7
       -1.8697676e-05 -1.8090115e-05 -8.926145e-05 -1.0930308e-05
000080 f6 28 41 b8 26 13 63 b8 3e 80 89 b7 ca 7e 26 36
       -4.6052934e-05 -5.413885e-05 -1.639139e-05 2.4809729e-06
000090 e9 72 8d b8 30 fc 9d b7 ba 2c ce b7 d2 76 91 b7
       -6.7448076e-05 -1.8833292e-05 -2.4577941e-05 -1.7340677e-05
0000a0 37 8d a4 b7 b8 23 22 b8 20 32 83 b7 48 7e 44 b5
       -1.9616082e-05 -3.8657075e-05 -1.5639758e-05 -7.3199453e-07
0000b0 2f f0 a7 b7 7b cc 85 b8 08 8a 60 b7 eb 00 86 36
       -2.0019796e-05 -6.380022e-05 -1.3383578e-05 3.993618e-06
0000c0 d6 36 4d 37 7c d1 82 b7 2e 15 da b7 bc 81 93 b7
       1.223172e-05 -1.5594756e-05 -2.5997488e-05 -1.7584178e-05
0000d0 78 fb ad b7 8e bd c1 36 3e eb 70 b7 9c bb 3a 36
       -2.0740306e-05 5.7739153e-06 -1.4359886e-05 2.7825363e-06
0000e0 14 cd 96 36 76 ef b6 b7 3f c0 8e b7 2b 19 c1 b8
       4.4942226e-06 -2.1807598e-05 -1.701724e-05 -9.207645e-05
0000f0 7f f5 57 33 40 40 c8 b7 1f ee 8e b8 3d 52 80 b7
       5.0281866e-08 -2.3871777e-05 -6.815441e-05 -1.5297084e-05
000100 f1 b0 3e b7 3a b7 72 b8 31 7e fb b6 ee 9d 70 36
       -1.136608e-05 -5.786794e-05 -7.4950735e-06 3.5854714e-06
000110 13 18 86 b7 da 1e 73 b8 ad b6 b5 b7 a5 6b c8 36
       -1.5985255e-05 -5.7964447e-05 -2.1661946e-05 5.972996e-06
000120 72 07 27 b6 52 19 f9 b7 57 06 8a b8 dc 38 94 b7
       -2.4889273e-06 -2.9694904e-05 -6.581534e-05 -1.7669452e-05
000130 36 4b b2 b6 a6 b6 c5 35 a6 14 b6 b7 0f 48 23 37
       -5.313569e-06 1.4730801e-06 -2.1705706e-05 9.732335e-06
000140 3b 0d bb b7 95 ac 40 b7 73 5a 20 37 af 9c 31 b7
       -2.2298298e-05 -1.1484274e-05 9.5578025e-06 -1.0586503e-05
000150 84 80 ea b7 90 90 bd 36 4f 6d bf b5 70 5f ed b6
       -2.7954819e-05 5.649468e-06 -1.4262422e-06 -7.074261e-06
000160 ca 49 f4 b7 90 20 32 b6 b0 39 e5 b6 70 3f d1 b7
       -2.9121427e-05 -2.654302e-06 -6.8314475e-06 -2.4944282e-05
000170 e5 38 cc 36 e4 5e 24 b7 31 42 3f 36 75 aa 01 b8
       6.086297e-06 -9.797255e-06 2.8499746e-06 -3.0914747e-05
000180 56 d4 dd b6 1e a5 81 37 68 8c e1 b7 fe 62 66 b7
       -6.6110324e-06 1.5454887e-05 -2.6887472e-05 -1.3732117e-05
000190 13 e5 3c b7 26 48 6c 36 94 e2 c6 37 73 43 48 b8
       -1.1259009e-05 3.5208736e-06 2.3708948e-05 -4.7746533e-05
0001a0 06 6d 92 b7 ee e0 64 36 f4 69 df b4 f5 ee 71 b7
       -1.7455324e-05 3.4105574e-06 -4.1614078e-07 -1.4420356e-05
0001b0 f6 af 25 37 4e 6c 0c b7 e2 ca ae 36 c2 cc 66 b7
       9.8757355e-06 -8.369867e-06 5.2092228e-06 -1.3756742e-05
0001c0 6f 9e c7 36 28 c3 2d b7 33 24 f9 b5 70 ac 2e 37
       5.9491063e-06 -1.0357042e-05 -1.8562481e-06 1.0411357e-05
0001d0 06 ff 85 b6 c0 74 ee b7 77 7b d2 b6 9c 9f 9c b6
       -3.9933975e-06 -2.8426177e-05 -6.272861e-06 -4.6677433e-06
0001e0 b6 eb fb b7 35 ba 61 b6 a2 18 b8 b6 76 63 a7 b7
       -3.0031293e-05 -3.3636e-06 -5.486495e-06 -1.9954266e-05
0001f0 09 cb c5 b6 b6 a1 72 b7 fc 58 c0 37 dc d4 34 b8
       -5.894694e-06 -1.4461975e-05 2.292962e-05 -4.3113585e-05
000200 00 12 64 b3 a8 50 8c b7 93 6c 02 37 f2 7c 1a 37
       -5.3101758e-08 -1.6726859e-05 7.773883e-06 9.208206e-06
000210 d7 9b 12 b8 52 dc 28 b7 69 42 40 35 6e d8 a4 36
       -3.495425e-05 -1.0064878e-05 7.1622213e-07 4.9127766e-06
000220 e1 46 d3 b7 b9 dc c9 37 f2 5b f4 b6 7c 8f b5 35
       -2.5186166e-05 2.406385e-05 -7.2824705e-06 1.352731e-06
000230 b4 2b 31 37 80 ac 70 36 c6 bf 09 b8 02 ce c0 35
       1.0560198e-05 3.5863195e-06 -3.284195e-05 1.4365071e-06
000240 dc b8 c7 b6 9d 89 d6 b5 64 e8 4d b7 2c b2 23 b6
       -5.9521826e-06 -1.5984293e-06 -1.227306e-05 -2.4392602e-06
000250 16 7d 09 b7 b2 af da b6 60 83 03 36 a4 26 8e 35
       -8.19496e-06 -6.51736e-06 1.9596991e-06 1.059107e-06
000260 a2 80 0c b7 fb f9 1c b7 dc 7c 19 35 ce 73 14 37
       -8.3746e-06 -9.356528e-06 5.7178636e-07 8.84845e-06
000270 de 67 60 b7 ac 78 34 b7 6e 69 88 b6 20 9d 8f 36
       -1.3375624e-05 -1.0756932e-05 -4.0653895e-06 4.280024e-06
000280 c1 57 2a 37 43 63 d2 b7 0f 68 e1 b6 37 86 a1 36
       1.0153221e-05 -2.5080173e-05 -6.7176366e-06 4.8137986e-06
000290 4b 79 ab 36 72 25 92 b5 5f f7 56 b5 d9 ff d1 35
       5.1103175e-06 -1.0888746e-06 -8.0081185e-07 1.5646175e-06
0002a0 4d 6a a3 b6 c4 63 95 34 5f 5e 83 b6 d5 ee 8a b6
       -4.8701536e-06 2.7826002e-07 -3.9150905e-06 -4.140524e-06
0002b0 a6 da 2b b6 c9 14 20 b6 7e f3 19 b7 8d a9 bf b8
       -2.5608256e-06 -2.3853956e-06 -9.176203e-06 -9.139171e-05
0002c0 69 34 e0 36 eb 99 2e b8 9d b2 34 b8 2a 41 a7 b7
       6.6818216e-06 -4.162818e-05 -4.308169e-05 -1.9938296e-05
0002d0 40 21 1e 37 ff ba 96 b7 bf d6 6b b8 7a c8 90 b7
       9.4252755e-06 -1.796847e-05 -5.6228364e-05 -1.7259492e-05
0002e0 86 e7 6e 36 d8 93 0c b8 e5 42 1d b8 82 31 8d b7
       3.5599528e-06 -3.351629e-05 -3.7494017e-05 -1.6831564e-05
0002f0 cc 0d 44 b6 dc b6 ff 36 e1 34 98 b8 7e a9 84 b5
       -2.9214307e-06 7.62088e-06 -7.257774e-05 -9.884095e-07
000300 bc 64 1b b7 0a 0e 96 36 fe b9 00 b8 cf a5 82 37
       -9.262174e-06 4.4719827e-06 -3.0690797e-05 1.5574418e-05
000310 6f 65 b7 b7 d7 1f 00 b7 a0 1e d2 b7 88 89 71 34
       -2.1862534e-05 -7.636808e-06 -2.5048212e-05 2.2494908e-07
000320 a4 fc 95 36 8f 93 a8 b6 8e f5 15 b7 60 5f 16 b7
       4.4699573e-06 -5.0239682e-06 -8.938265e-06 -8.962903e-06
000330 56 25 cb b7 23 0e 91 b4 bc 06 b4 b7 8f 16 4b b6
       -2.4216872e-05 -2.701864e-07 -2.1460808e-05 -3.0262488e-06
000340 2d 36 aa b7 f0 54 53 36 b2 1f 89 b6 7e b0 5a b6
       -2.0290807e-05 3.149089e-06 -4.086608e-06 -3.2587263e-06
000350 78 50 40 b7 c7 72 08 b7 6c ad 9a b6 8a 24 97 b4
       -1.1462827e-05 -8.132955e-06 -4.6097466e-06 -2.8152527e-07
000360 80 ef 58 b6 57 3c 31 b7 f4 88 cf b6 d1 2c 97 b6
       -3.2325916e-06 -1.0564071e-05 -6.185024e-06 -4.505368e-06
000370 a9 64 d0 b6 00 bf a5 36 6a 17 06 b5 74 dd 1d b6
       -6.2106014e-06 4.9396185e-06 -4.995296e-07 -2.3523726e-06
000380 3c a1 10 36 b3 08 ec 36 a0 71 05 b3 f3 01 06 36
       2.1551523e-06 7.034361e-06 -3.1069817e-08 1.996869e-06
000390 f2 fa ef b6 fe a5 0a b7 a3 8e ed b6 5e 64 17 b7
       -7.151969e-06 -8.264089e-06 -7.0797555e-06 -9.02367e-06
0003a0 ab 9e 15 b7 cb 23 45 b8 4b 03 b0 b5 0f a8 ac b7
       -8.918035e-06 -4.7001795e-05 -1.311398e-06 -2.0582256e-05
0003b0 b9 9f e8 b7 a2 9f 60 b7 7a d0 b6 b6 88 07 b8 b6
       -2.7730932e-05 -1.3388608e-05 -5.4482925e-06 -5.484504e-06
0003c0 f6 41 c9 b7 eb bf 14 b7 73 5e 58 36 8c f3 0f b7
       -2.3991783e-05 -8.866172e-06 3.2241485e-06 -8.580169e-06
0003d0 ed fc 0e b8 0d c3 82 b5 ee 76 13 b7 16 ec 06 b7
       -3.4090994e-05 -9.742522e-07 -8.789573e-06 -8.04199e-06
0003e0 17 ea ff b7 26 26 bf b6 7f 51 34 b7 1e 75 d9 36
       -3.0507375e-05 -5.6966846e-06 -1.0747811e-05 6.480738e-06
0003f0 58 8d 3c b7 94 fa 8e 37 b6 39 0e 37 3b e0 90 b7
       -1.1238582e-05 1.7044404e-05 8.477296e-06 -1.7270553e-05
