timeSerise/logs/lightning_logs/version_6/checkpoints/epoch=199-step=3000.ckpt (torch, 47451 bytes, 27 tensors)

lstm.weight_ih_l0 f4 [40, 31]
-0.23769797 0.18383668 0.24393876 0.19063815 0.07091548 0.07827888 0.194075 0.087162994
0.30506846 0.12005442 -0.14229414 -0.24225692 -0.205967 0.06906797 -0.24202198 0.12804475
-0.012271308 0.058904823 0.24568589 0.29404196 0.14293192 -0.11000138 0.324486 -0.1352491
0.078313656 0.28870285 -0.30814943 -0.30966517 -0.254864 -0.26628086 -0.07894997 -0.30041075
-0.22419377 -0.28869772 -0.15141395 -0.30690315 -0.100323066 -0.02887674 0.23203428 -0.19096935
0.25824642 -0.25718856 0.0022777596 -0.18288657 0.30758885 0.2633236 0.29765597 0.27279666
-0.14464876 -0.24390262 -0.2897848 -0.270291 -0.3037457 -0.19986749 -0.27976996 -0.28953624
-0.11043155 -0.058394272 -0.05838472 -0.29896706 -0.034398645 0.31489563 -0.19037573 -0.0016533313
-0.092858516 -0.2241967 0.057301987 -0.24539228 -0.101263985 -0.13923453 0.12313097 0.24366535
0.13936721 -0.2443031 0.30320087 0.23236272 0.08465697 0.008792462 0.2864986 0.10746929
-0.27186227 -0.14974532 0.16332427 0.06713828 -0.01269873 0.1558443 -0.24363744 0.114109114
-0.224143 0.13310431 0.0835344 -0.18905462 0.0015379363 -0.21561739 -0.08698799 -0.25915354
0.18148392 -0.29543415 0.06723455 -0.088736825 -0.3311033 0.2825795 0.19233066 0.13583478
-0.02594187 0.06497884 -0.047686625 -0.037685107 -0.2080762 0.04324549 -0.056188963 -0.19620469
0.07545434 0.14319313 0.3002169 -0.11518037 -0.13309927 -0.25940588 -0.34170327 0.26998037
-0.07003791 0.11684214 0.29372457 -0.048758946 -0.22098094 0.037645433 0.16848162 0.17554544
0.22504976 -0.067746475 0.06372584 -0.22017182 0.17784154 0.20342286 0.13366498 -0.15476674
-0.18539847 0.07072589 0.036560986 0.10618016 -0.19400729 0.16041023 0.27709836 -0.2669906
-0.07133676 -0.118616946 -0.22798567 -0.009436952 0.10272644 0.06521256 -0.009300884 -0.13354942
-0.114221804 0.083730936 0.24873589 -0.076175556 -0.12229941 0.19741179 -0.07034416 -0.026104007
0.29096305 0.24899177 -0.30028898 -0.22263949 -0.18623812 -0.06332716 0.15871935 -0.1028151
0.15165287 -0.12147866 0.08124113 -0.10477945 -0.17360623 0.2688962 0.09358183 0.123408414
0.32889616 0.08644131 -0.1389081 0.0113282595 -0.06435037 0.11627494 0.28214386 -0.011660391
-0.10734352 -0.31550026 0.04520013 0.18300079 -0.10285835 0.022827487 -0.05821905 -0.03399996
-0.11218267 0.29262614 0.20358978 -0.05228917 -0.2022433 0.2637723 0.2893538 0.11428575
-0.29132757 -0.051070053 0.10877412 -0.10296888 -0.009516913 0.3005794 0.22957174 -0.15698925
0.27902082 0.28937426 -0.14334458 -0.048984118 0.07738434 0.017504394 -0.055280518 -0.31199476
-0.075648345 -0.18054017 0.11665058 0.21586765 -0.19408894 0.19367568 -0.13114004 -0.22669257
0.02208038 0.19198279 0.18354964 -0.27312842 0.10735133 0.1600254 0.22748598 0.2650362
-0.22760014 -0.18499064 0.20810914 -0.07827161 -0.32874483 -0.21165515 -0.30410844 -0.23686741
0.22169563 0.22084959 0.007710795 0.17756417 0.2479823 -0.17048518 -0.13936578 -0.18426725
-0.09526556 -0.039211087 0.26279566 0.1727711 0.21919884 0.27030712 -0.059940085 -0.2664964
00000000: 1967 73be af3f 3c3e 15cb 793e a636 433e
00000010: 233c 913d ad50 a03d 99bb 463e 8382 b23d
00000020: ef31 9c3e 17df f53d 8eb5 11be 3312 78be
00000030: 03e9 52be 8273 8d3d 9cd4 77be 2a1e 033e
00000040: 990d 49bc 2f46 713d 1595 7b3e ab8c 963e
00000050: bf5c 123e 6748 e1bd 0723 a63e bd7e 0abe
00000060: e962 a03d dcd0 933e c3c5 9dbe 6f8c 9ebe
00000070: 897d 82be f755 88be 86b0 a1bd 70cf 99be
00000080: 0d93 65be 30d0 93be 420c 1bbe 6922 9dbe
00000090: 2e76 cdbd ea8e ecbc 659a 6d3e 788d 43be
000000a0: e038 843e 38ae 83be 7746 153b 9e46 3bbe
000000b0: 497c 9d3e 5ad2 863e 5d66 983e 01ac 8b3e
000000c0: ce1e 14be 9cc1 79be ac5e 94be 9563 8abe
000000d0: 8e84 9bbe 10aa 4cbe 023e 8fbe 183e 94be
000000e0: f029 e2bd d52e 6fbd d124 6fbd 3612 99be
000000f0: 98e5 0cbd 003a a13e dbf1 42be 98b4 d8ba
00000100: 9b2c bebd d293 65be 7db5 6a3d 1d48 7bbe
00000110: 7e63 cfbd 7f93 0ebe 172c fc3d 6983 793e
00000120: 47b6 0e3e 982a 7abe 253d 9b3e 7ef0 6d3e
00000130: a260 ad3d 420e 103c f2af 923e dc18 dc3d
00000140: 8831 8bbe d656 19be 7a3e 273e cb7f 893d
00000150: 560e 50bc a695 1f3e 187c 79be 0ab2 e93d
00000160: be85 65be 7f4c 083e 1514 ab3d 8997 41be
00000170: 9494 c93a ceca 5cbe c226 b2bd c6af 84be
00000180: ecd6 393e 2543 97be 45b2 893d a7bb b5bd
00000190: 5f86 a9be 43ae 903e 54f2 443e 4618 0b3e
000001a0: 0b84 d4bc a013 853d 0d53 43bd b35b 1abd
000001b0: ed11 55be 2f22 313d 6626 66bd e2e9 48be
000001c0: ce87 9a3d 38a1 123e 08b6 993e b0e3 ebbd
000001d0: 2d4b 08be d9d0 84be bbf3 aebe de3a 8a3e
000001e0: 0970 8fbd ef4a ef3d 1163 963e 76b7 47bd
000001f0: d448 62be 1932 1a3d 7286 2c3e 2fc2 333e
00000200: 7273 663e aabe 8abd b182 823d b974 61be
00000210: 181c 363e 154e 503e 79df 083e 2c7b 1ebe
00000220: 19d9 3dbe bcd8 903d f9c0 153d fc74 d93d
00000230: d9a9 46be 9442 243e d6df 8d3e feb2 88be
00000240: 0219 92bd 71ed f2bd 1375 69be 729d 1abc
00000250: 3d62 d23d 2a8e 853d bc62 18bc 2ec1 08be
00000260: 1fed e9bd 207b ab3d 9fb4 7e3e ee01 9cbd
00000270: 1d78 fabd 5126 4a3e 9910 90bd 12d8 d5bc
00000280: 1cf9 943e b3f7 7e3e 7abf 99be 9bfb 63be
00000290: 35b5 3ebe acb1 81bd 5387 223e b990 d2bd
000002a0: e44a 1b3e cec9 f8bd c061 a63d 9c96 d6bd
000002b0: d5c5 31be c3ac 893e d5a7 bf3d 8dbd fc3d
000002c0: 1465 a83e 2408 b13d ed3d 0ebe 2a9a 393c
000002d0: 20ca 83bd 8e21 ee3d 2975 903e 3a0b 3fbc
000002e0: ebd6 dbbd 4089 a1be c623 393d 8f64 3b3e
000002f0: 66a7 d2bd b600 bb3c 1977 6ebd 8b43 0bbd
00000300: 07c0 e5bd 18d3 953e d779 503e 2b2d 56bd
00000310: de18 4fbe 2a0d 873e 2e26 943e a60e ea3d
00000320: e328 95be d52e 51bd f7c4 de3d 59e1 d2bd
00000330: d4ec 1bbc 8be5 993e db14 6b3e cac1 20be
00000340: d1db 8e3e dd28 943e ecc8 12be 92a3 48bd
00000350: ae7b 9e3d 6065 8f3c d36d 62bd c7bd 9fbe
00000360: 85ed 9abd 86df 38be 80e6 ee3d 690c 5d3e
00000370: 40bf 46be eb52 463e 9349 06be 1922 68be
00000380: eae1 b43c 2397 443e 70f4 3b3e 7dd7 8bbe
00000390: 04db db3d b3dd 233e 16f2 683e d3b2 873e
000003a0: 0310 69be 306e 3dbe 901a 553e de4c a0bd
000003b0: 3e51 a8be 21bc 58be 1ab4 9bbe 5f8d 72be
000003c0: 2e04 633e 6526 623e d6aa fc3b 62d3 353e
000003d0: 12ef 7d3e ab93 2ebe e7b5 0ebe 8eb0 3cbe
000003e0: 971a c3bd ce9b 20bd 278d 863e e8ea 303e
000003f0: a975 603e b265 8a3e bc83 75bd 3772 88be

lstm.weight_hh_l0 f4 [40, 10]
-0.15112962 -0.31381208 0.009542818 0.2332694 0.27563906 -0.14464365 -0.20584123 0.10756531
-0.009275645 -0.21697667 -0.13354 -0.2940085 -0.32692868 -0.1400584 0.2423642 0.03316428
0.0069905417 0.2540809 0.046434797 0.12632217 0.273825 -0.22148962 0.18627161 -0.13408874
-0.25513378 0.024292184 -0.16473514 -0.26103133 0.28254262 -0.27024022 -0.10894065 -0.17864989
0.19117449 0.104910485 -0.091169186 0.2074206 -0.11296779 0.23061751 0.18842189 -0.14343537
0.09909667 0.019462997 -0.19660577 0.21202275 -0.26942188 0.061313912 -0.2620202 -0.10008717
-0.14130716 -0.09376386 0.06892662 0.10464654 0.18002987 -0.32301393 -0.011369422 0.06629836
0.118516654 -0.18989645 0.27933657 -0.10436595 -0.10737491 0.12019392 0.08056485 -0.26143387
0.22265232 0.24009235 0.08682775 -0.2711995 0.28527513 -0.13330787 0.17520435 -0.08646316
-0.15105388 -0.27071384 0.24214964 -0.20402582 -0.09981248 -0.047437232 -0.032884456 0.11222053
-0.16544713 0.1332042 0.00013066734 -0.25162303 0.3016132 -0.026580134 0.17751925 -0.26867837
0.14474835 0.28335622 0.107817955 -0.3058555 0.16836227 0.107057065 0.06639163 0.07099643
-0.07073072 -0.15343753 0.07681177 -0.0866194 -0.22916181 -0.16265613 0.26262814 -0.24618371
-0.13348725 0.2463303 0.14541835 -0.30488414 -0.0043831156 0.24940136 -0.020482816 -0.06566636
-0.1288339 0.18974037 -0.21685287 0.032893747 0.13468632 -0.12252308 -0.30013177 0.11878986
-0.22227596 -0.31536254 0.1824196 0.2902569 0.32399884 -0.23073591 0.09385918 -0.23891962
0.10257411 -0.024705514 -0.15966007 0.3123264 0.09557511 -0.1676909 0.16927445 -0.25466806
-0.30367666 -0.005693043 -0.24899074 0.19574165 0.037525963 -0.17922035 -0.15122262 -0.27315032
-0.29311973 -0.22626366 -0.18930963 0.03354603 -0.17099817 -0.29859012 -0.14523117 0.25014275
-0.06348292 0.105130546 0.13714239 -0.025149487 -0.16232418 -0.073418096 0.25004843 -0.33557323
-0.25725335 -0.2882566 -0.11717766 0.29285643 -0.10983464 -0.2950298 0.19195357 -0.0540291
0.2269969 -0.24645595 -0.2686223 0.08107344 0.15815733 0.3240334 -0.042739272 -0.027850553
0.15971632 0.18584548 -0.115929835 0.038335666 -0.31101567 -0.067054465 -0.21029899 0.045496862
-0.19500712 0.3143023 -0.028591787 -0.27683035 0.15991664 -0.09327464 -0.21062382 0.2689218
-0.046899557 0.047289025 0.16254358 -0.27178288 -0.2297541 0.20126571 -0.15638375 0.29820126
-0.07536509 -0.14259766 0.083349675 -0.06515849 0.29867628 -0.23470262 0.13303226 -0.2822529
0.01432629 -0.3086638 0.15468752 0.27844033 -0.028350994 0.27306777 -0.25842544 -0.30130786
0.31379843 -0.25325567 -0.10015601 -0.114325576 0.0017982298 0.2764937 0.30107516 -0.27033946
0.0010373188 0.3289929 -0.24943899 0.11124922 -0.15994273 0.22099651 0.22140455 0.26392213
0.25734124 0.22896457 0.1849276 0.09292619 -0.21904586 -0.070568606 -0.16140337 0.063044704
-0.27282906 -0.22934498 0.26468349 -0.16475613 0.036181804 0.17993696 -0.056788087 0.15952829
-0.14685623 0.06592761 -0.29090106 0.20895699 -0.25183335 0.30995107 0.2832764 0.29105267
00000000: b9c1 1abe faab a0be 7b59 1c3c 2cde 6e3e
00000010: 9020 8d3e 771d 14be 0bc8 52be 344b dc3d
00000020: e0f8 17bc 222f 5ebe b6be 08be 4888 96be
00000030: 3263 a7be 786b 0fbe 522e 783e 45d7 073d
00000040: ea10 e53b e416 823e 6a32 3e3d 995a 013e
00000050: ca32 8c3e 2dce 62be fcbd 3e3e 8f4e 09be
00000060: e5a0 82be 6700 c73c 54b0 28be e6a5 85be
00000070: 6da9 903e ed5c 8abe 471c dfbd ffef 36be
00000080: 3fc3 433e 4fdb d63d e9b6 babd 1166 543e
00000090: a85b e7bd ff26 6c3e abf1 403e b9e0 12be
000000a0: 32f3 ca3d dd70 9f3c 0653 49be 7e1c 593e
000000b0: aaf1 89be 4c24 7b3d 8327 86be 81fa ccbd
000000c0: d3b2 10be 4407 c0bd 6629 8d3d ed50 d63d
000000d0: c059 383e 1562 a5be d046 3abc 6fc7 873d
000000e0: dcb8 f23d 3774 42be 3405 8f3e d1bd d5bd
000000f0: 60e7 dbbd 3b28 f63d 2fff a43d a9da 85be
00000100: f8fe 633e c5da 753e bfd2 b13d a9da 8abe
00000110: 950f 923e dc81 08be c568 333e 9913 b1bd
00000120: dead 1abe 019b 8abe 13f6 773e 25ec 50be
00000130: 7c6a ccbd 8b4d 42bd dab1 06bd e1d3 e53d
00000140: f96a 29be af66 083e bf03 0939 bcd4 80be
00000150: 0c6d 9a3e 95be d9bc 9bc7 353e 3690 89be
00000160: e938 143e 1114 913e a9cf dc3d 1899 9cbe
00000170: 2967 2c3e bc40 db3d 56f8 873d 9466 913d
00000180: 45db 90bd ba1e 1dbe 7d4f 9d3d 8365 b1bd
00000190: 65a9 6abe 548f 26be 3277 863e 9517 7cbe
000001a0: e2b0 08be 033e 7c3e 8ce8 143e c619 9cbe
000001b0: 3da0 8fbb 1263 7f3e 94cb a7bc 167c 86bd
000001c0: 09ed 03be 4d4b 423e ae0e 5ebe 98bb 063d
000001d0: 36eb 093e 61ed fabd dfaa 99be 1948 f33d
000001e0: 4f9c 63be 3377 a1be 34cc 3a3e 8d9c 943e
000001f0: 2de3 a53e 0946 6cbe 3e39 c03d 58a7 74be
00000200: 6012 d23d 3863 cabc ee7d 23be 3fe9 9f3e
00000210: e2bc c33d 2ab7 2bbe 4856 2d3e da63 82be
00000220: 827b 9bbe b58c babb 6ef7 7ebe 8070 483e
00000230: d3b4 193d 8a85 37be 1ada 1abe 5cda 8bbe
00000240: ca13 96be a9b1 67be 62da 41be 9067 093d
00000250: 251a 2fbe cee0 98be 7bb7 14be b612 803e
00000260: 5503 82bd af4e d73d 0e6f 0c3e 4c06 cebc
00000270: 4f38 26be 3a5c 96bd 5906 803e 41d0 abbe
00000280: b6b6 83be 5e96 93be d7fa efbd 47f1 953e
00000290: fcf0 e0bd 250e 97be 7a8f 443e 9e4d 5dbd
000002a0: e071 683e f35e 7cbe dd88 89be d509 a63d
000002b0: fff3 213e b5e7 a53e 600f 2fbd d826 e4bc
000002c0: ad8c 233e 474e 3e3e 9f6c edbd dc05 1d3d
000002d0: 723d 9fbe da53 89bd 9e58 57be eb5a 3a3d
000002e0: f2af 47be 3bec a03e 5339 eabc b5bc 8dbe
000002f0: 30c1 233e c606 bfbd c5ad 57be 1eb0 893e
00000300: c019 40bd 23b2 413d d371 263e 2027 8bbe
00000310: a944 6bbe 9918 4e3e 1023 20be d6ad 983e
00000320: 0359 9abd 1f05 12be 3cb3 aa3d d071 85bd
00000330: 19ec 983e e255 70be 9c39 083e 7483 90be
00000340: d1b8 6a3c 2e09 9ebe 6866 1e3e bb8f 8e3e
00000350: 5840 e8bc 8acf 8b3e 5750 84be 0645 9abe
00000360: 30aa a03e baaa 81be 981e cdbd 8723 eabd
00000370: 94b2 eb3a 9590 8d3e 8626 9a3e ef69 8abe
00000380: a5f6 873a c271 a83e ef6c 7fbe a2d6 e33d
00000390: 07c8 23be e94c 623e e0b7 623e cd20 873e
000003a0: 3bc2 833e b075 6a3e a95d 3d3e 1650 be3d
000003b0: 8f4d 60be 4686 90bd ed46 25be 951d 813d
000003c0: 40b0 8bbe 69d9 6abe 9884 873e d5b5 28be
000003d0: 5f33 143d 6541 383e a09a 68bd 625b 233e
000003e0: 7b61 16be 0e05 873d fcf0 94be d2f8 553e
000003f0: 4df0 80be e8b1 9e3e 9b09 913e db04 953e

lstm.bias_ih_l0 f4 [40]
0.05076891 0.18794957 -0.30342647 0.25649023 -0.2850931 0.036915354 0.30434477 0.21229208
0.08149584 -0.33035338 -0.07116217 -0.16510463 -0.30655712 -0.24624681 -0.030826582 -0.038044598
0.11137711 0.2544938 0.036990978 0.25445467 -0.13625635 0.2886283 0.24408743 -0.19683446
-0.21000153 -0.21410443 0.27790606 0.19684179 -0.058573347 -0.28700852 -0.29532728 0.18687853
-0.27949885 0.036644988 0.12559368 0.043783307 -0.23820567 -0.19331929 0.24646182 0.21750277
00000000: 10f3 4f3d da75 403e b75a 9bbe b052 833e
00000010: b9f7 91be 8e34 173d 14d3 9b3e 1863 593e
00000020: 4ae7 a63d 1424 a9be 79bd 91bd 3011 29be
00000030: 0ef5 9cbe 2028 7cbe 0788 fcbc a7d4 1bbd
00000040: af19 e43d 034d 823e da83 173d e247 823e
00000050: c986 0bbe 17c7 933e 0ef2 793e f98e 49be
00000060: a40a 57be 313e 5bbe b449 8e3e e590 493e
00000070: 9bea 6fbd c8f2 92be 2335 97be 165d 3f3e
00000080: 791a 8fbe 0e19 163d a19b 003e 2056 333d
00000090: 30ec 73be 7ef5 45be 7d60 7c3e 0cb9 5e3e

lstm.bias_hh_l0 f4 [40]
-0.0008706859 -0.25305477 -0.17234479 -0.019903503 0.2222728 -0.14621712 0.05949376 0.16300668
-0.19648695 -0.2033665 0.041090827 -0.087304495 0.052312054 -0.29422703 0.0815514 0.016047742
-0.15986964 -0.16825353 -0.172966 0.29166228 0.32930535 -0.1108397 -0.24217546 0.13869008
0.05956287 -0.25115478 -0.25227338 -0.0719165 0.04487625 -0.025682872 0.20063509 -0.30614558
-0.28342378 0.2203768 -0.13580978 0.29399654 -0.2987355 -0.3301633 -0.06046663 -0.119280264
00000000: be3e 64ba 6590 81be 277b 30be ac0c a3bc
00000010: 7b9b 633e f1b9 15be bbaf 733d 39eb 263e
00000020: e033 49be 4f3f 50be db4e 283d b3cc b2bd
00000030: 2a45 563d eda4 96be 6c04 a73d 8e76 833c
00000040: deb4 23be a74a 2cbe 001e 31be c254 953e
00000050: b69a a83e edff e2bd d8fc 77be c604 0e3e
00000060: 32f8 733d 5c97 80be fa29 81be f548 93bd
00000070: 29d0 373d e364 d2bc 4973 4d3e 1dbf 9cbe
00000080: ec1c 91be 75aa 613e b811 0bbe b786 963e
00000090: dcf3 98be 2a0b a9be dbab 77bd 3649 f4bd

lstm.weight_ih_l1 f4 [40, 10]
-0.31900188 0.04823154 -0.0829387 -0.15119813 -0.15235624 0.09729785 0.22630847 -0.2978001
-0.10356992 0.19584736 -0.2548782 -0.14233208 -0.15345496 0.24935581 -0.004272211 -0.13378496
0.19644807 -0.26960316 0.039019108 -0.102570415 0.022352193 0.008103835 0.2536833 -0.088553436
0.2697741 -0.1861388 -0.30753776 -0.15335576 -0.07769168 0.06305068 0.08273546 -0.025898928
-0.26002687 0.2820692 0.21338727 0.3083314 0.25743875 -0.23297007 0.12090222 -0.19489816
-0.28247318 -0.25011364 -0.24275415 -0.091360755 0.23712215 0.07254081 -0.008783921 -0.14693685
0.18799002 -0.12221627 -0.12170894 -0.023103869 0.26617134 0.06883604 0.21447057 0.044372547
0.17190357 -0.07997498 -0.08397889 -0.2865285 0.039810013 0.26750284 0.26870084 -0.123457946
0.29151586 0.26624465 -0.008135593 0.047554296 0.17795226 0.22836785 -0.05614185 0.14032093
-0.3077998 0.30903763 -0.19647844 -0.0635513 -0.20096962 0.2987916 0.09560967 -0.29349405
0.1411563 0.11990305 0.17259112 -0.10488395 0.0379155 -0.13107184 0.27618575 0.17775507
-0.14420237 -0.14257021 -0.24473624 -0.22234671 -0.25844443 -0.27698562 -0.12032363 0.22522737
-0.21186686 -0.33807087 0.18428731 -0.32073614 0.028539294 -0.03008275 0.11151807 0.010199205
-0.18911439 -0.24985392 0.29566735 -0.22206782 -0.18401396 0.01528296 0.21017714 -0.007983571
0.33194733 0.19986694 0.002084366 0.24422354 0.14434578 -0.1568733 0.1099346 -0.15256904
0.16959706 -0.19879621 -0.10126535 0.069190204 0.08093524 -0.25126463 0.19121853 0.061340705
-0.17483348 -0.29990917 -0.21822692 -0.03702522 -0.15285209 -0.30818585 0.1367424 0.021522712
0.23493004 -0.19698611 0.034172934 0.2820016 0.047589 0.25264594 -0.26704985 -0.21176225
0.27925667 0.010652552 0.14752217 -0.11134641 -0.21325293 -0.02986824 -0.29050314 0.07814109
0.20075747 -0.078975454 0.3000098 -0.11585585 0.0870958 0.06603501 -0.13689274 -0.25853148
-0.104126364 0.0046000383 0.13477233 -0.2352669 -0.17781024 0.080455974 -0.2998576 -0.25277874
-0.14680654 -0.10640766 0.104565024 -0.14157097 0.27217898 0.050208453 -0.16214454 -0.24097915
-0.008321597 0.06317201 0.019065356 -0.015948165 0.204664 -0.01824172 0.109923474 -0.213768
0.04170583 0.27378327 0.029521441 0.07812308 0.11485223 -0.30603614 0.094915405 -0.224321
-0.12060536 -0.090738975 0.3555447 -0.08243154 -0.12690066 0.15099137 0.047963742 0.25776005
0.28742954 0.00014984679 0.11191077 0.21695562 -0.22029547 -0.25876346 -0.28896838 -0.0047978046
0.06440924 0.16283804 0.26202276 0.120349616 0.04723797 -0.2986361 0.0016211568 0.04688041
0.017167443 -0.027439442 -0.24950297 0.2838372 -0.27765697 0.2901399 0.014532635 0.21858501
-0.0852787 -0.1624488 0.30165875 0.1480563 -0.06855923 -0.028883902 0.08222639 -0.05619112
0.025140952 -0.07870877 -0.25650722 0.24836591 -0.18238471 -0.0004959107 0.30831447 -0.0012280463
-0.08808263 0.081713095 0.15168919 -0.27020186 -0.06101937 -0.13663884 -0.11181524 0.18051793
0.097076215 -0.15248737 0.105003774 0.20280288 0.24627148 0.011827293 0.17465 0.10815361
00000000: 3754 a3be 6f8e 453d c4db a9bd afd3 1abe
00000010: 4603 1cbe 1844 c73d 68bd 673e 4179 98be
00000020: 771c d4bd 368c 483e 657f 82be 80bf 11be
00000030: 4c23 1dbe 2157 7f3e e7fd 8bbb edfe 08be
00000040: af29 493e 6d09 8abe 80d2 1f3d 7010 d2bd
00000050: f21b b73c f3c5 043c c7e2 813e 815b b5bd
00000060: d51f 8a3e 2b9b 3ebe 9775 9dbe 4b09 1dbe
00000070: d11c 9fbd b720 813d 3571 a93d fd29 d4bc
00000080: 3e22 85be 606b 903e 3182 5a3e 9ddd 9d3e
00000090: 03cf 833e b58f 6ebe 959b f73d 6293 47be
000000a0: 53a0 90be e50e 80be 8b94 78be 591b bbbd
000000b0: 26d0 723e 4790 943d 6fea 0fbc 9d76 16be
000000c0: 7580 403e 864c fabd 8942 f9bd 5344 bdbc
000000d0: 9c47 883e e9f9 8c3d 2c9e 5b3e fdbf 353d
000000e0: 7d07 303e ecc9 a3bd 20fd abbd ddb3 92be
000000f0: d30f 233d 22f6 883e 2893 893e 85d7 fcbd
00000100: 9141 953e 3851 883e 264b 05bc 4bc8 423d
00000110: 1e39 363e 43d9 693e fff4 65bd 4ab0 0f3e
00000120: ef97 9dbe 2e3a 9e3e a531 49be 2f27 82bd
00000130: fbca 4dbe 36fb 983e 01cf c33d da44 96be
00000140: 478b 103e bb8f f53d babb 303e 65cd d6bd
00000150: 494d 1b3d b237 06be 3868 8d3e 6d05 363e
00000160: c9a9 13be edfd 11be 239c 7abe dbae 63be
00000170: d452 84be 0fd1 8dbe 3c6c f6bd 01a2 663e
00000180: a0f3 58be a017 adbe d0b5 3c3e 8737 a4be
00000190: 3dcb e93c 1970 f6bc 9663 e43d 911a 273c
000001a0: 34a7 41be b5d9 7fbe b661 973e bf65 63be
000001b0: 286e 3cbe 6165 7a3c ad38 573e 86cd 02bc
000001c0: 00f5 a93e eba9 4c3e dc99 083b bc15 7a3e
000001d0: 61cf 133e 65a3 20be 6425 e13d 0f3b 1cbe
000001e0: daaa 2d3e 3c91 4bbe 3564 cfbd 98b3 8d3d
000001f0: 60c1 a53d c2a5 80be cace 433e 6440 7b3d
00000200: 8c07 33be b28d 99be e176 5fbe c2a7 17bd
00000210: 4285 1cbe 89ca 9dbe 3306 0c3e 6650 b03c
00000220: 8091 703e bab6 49be ebf8 0b3d 8462 903e
00000230: afec 423d cf5a 813e c2ba 88be 34d8 58be
00000240: bbfa 8e3e 0b88 2e3c 0d10 173e 9609 e4bd
00000250: fa5e 5abe 3dae f4bc d4bc 94be 7008 a03d
00000260: 5e93 4d3e e2bd a1bd e29a 993e d545 edbd
00000270: 485f b23d 5d3d 873d 9c2d 0cbe 3d5e 84be
00000280: 3440 d5bd ebbb 963b c201 0a3e cee9 70be
00000290: e313 36be 1ac6 a43d ef86 99be 376c 81be
000002a0: 7454 16be 42ec d9bd 3026 d63d fbf7 10be
000002b0: 0b5b 8b3e 61a7 4d3d 3809 26be 3dc3 76be
000002c0: 4f57 08bc 5460 813d f32e 9c3c baa5 82bc
000002d0: 7193 513e a96f 95bc 8f1f e13d 00e6 5abe
000002e0: bbd3 2a3d 522d 8c3e f3d6 f13c fefe 9f3d
000002f0: a537 eb3d c5b0 9cbe 0263 c23d 67b4 65be
00000300: f1ff f6bd 5bd5 b9bd f409 b63e ded1 a8bd
00000310: 3ff2 01be 7b9d 1a3e a175 443d 20f9 833e
00000320: f729 933e 3120 1d39 7931 e53d 9d29 5e3e
00000330: 2395 61be a57c 84be aaf3 93be e736 9dbb
00000340: fee8 833d 04bf 263e d927 863e dc79 f63d
00000350: 9a7c 413d d5e6 98be ff7c d43a ac05 403d
00000360: bda2 8c3c aec8 e0bc b57d 7fbe 1c53 913e
00000370: 0e29 8ebe 388d 943e 4a1a 6e3c c0d4 5f3e
00000380: 99a6 aebd fa58 26be 0473 9a3e 129c 173e
00000390: c868 8cbd ef9d ecbc 4f66 a83d a928 66bd
000003a0: 66f4 cd3c 1032 a1bd ea54 83be a253 7e3e
000003b0: 0fc3 3abe 0100 02ba 65db 9d3e 65f6 a0ba
000003c0: aa64 b4bd 3259 a73d 6954 1b3e e657 8abe
000003d0: 72ef 79bd 0deb 0bbe 63ff e4bd b1d9 383e
000003e0: e5cf c63d a625 1cbe 380c d73d 8fab 4f3e
000003f0: 972e 7c3e 43c7 413c 73d7 323e a47f dd3d

lstm.weight_hh_l1 f4 [40, 10]
-0.20785369 0.14883599 -0.26156464 0.1239549 0.2706163 0.067012556 0.06182498 -0.067604154
-0.27594423 0.26689264 -0.23050885 0.021178324 -0.24370486 0.16816832 -0.14891952 0.16574763
-0.085343756 -0.2610847 -0.25779268 -0.25119197 -0.08771137 0.1365386 -0.2594561 -0.08864617
-0.06615664 0.17515711 -0.18114302 0.2712021 -0.1155994 -0.087675735 0.23514825 -0.045913775
0.29248 -0.05581404 0.30318335 -0.0072344937 -0.035114318 -0.31958526 -0.0011476967 -0.27569577
0.15581594 -0.20610295 0.24897078 0.24381687 0.29889122 0.047655303 0.26935387 0.22269164
-0.0951013 0.023633428 0.017519698 0.13827102 -0.27116463 0.28120536 -0.054950114 0.2741758
-0.11256356 -0.054579638 0.2749844 -0.11314155 -0.07830279 -0.12927015 0.18188964 0.28721112
-0.15571779 0.09917473 0.018637698 -0.13417102 -0.29233098 -0.03256864 -0.019214472 0.10874308
-0.077295795 -0.27176058 0.24151325 0.13228525 -0.2530771 -0.23815776 -0.1905365 -0.07475871
0.12980667 0.30442068 -0.07586248 0.17978096 -0.23009217 0.088611394 0.27140087 0.025521364
0.26474833 0.04342944 0.14965574 0.2151053 0.18733506 -0.1233547 0.2428252 -0.052624732
-0.25921258 0.13864546 0.26397264 -0.26894477 -0.17911232 -0.06809926 0.015380528 -0.110901184
-0.14532728 -0.029362436 0.10091513 0.24842961 0.14910434 0.086772494 0.05206579 0.12149781
-0.08698477 0.099574365 0.03776158 -0.1978301 -0.2438437 -0.13645665 -0.2672833 -0.021507366
0.01054075 0.10941401 -0.31161046 -0.12900987 0.22221652 0.176711 -0.26375002 -0.05460216
-0.074631274 -0.15768261 0.21799593 -0.0015113064 0.21038087 0.041635327 0.14366601 0.047985855
0.29383546 0.113610156 0.03562161 0.1704194 -0.13715725 0.04686796 -0.053589385 0.1768624
0.29533532 0.052208047 -0.050763212 -0.15242778 0.073159344 0.010599807 0.3022079 0.03554447
-0.077220224 0.071596645 -0.063333794 -0.22030453 0.0067260456 0.18362257 0.027344087 0.20708705
-0.26769492 -0.044395898 -0.2799741 0.03331033 0.09617801 0.2770567 0.27523792 -0.023506844
-0.29119384 -0.08818087 0.08809532 -0.14959598 0.14936297 0.24804477 -0.30312675 0.06498358
0.0052625053 0.18714064 0.16522062 0.13413592 -0.080192 0.03803295 0.17813137 0.21501619
0.079127826 -0.22363086 -0.13736533 -0.03537205 0.00039437093 -0.17158216 -0.05171952 -0.298189
-0.24055006 0.1974005 -0.23031867 0.24029203 -0.28575015 0.3042425 0.06634815 0.23718187
-0.24094436 0.10154414 0.09202975 -0.14958867 -0.1517393 -0.2441576 -0.11301694 0.24234785
0.23693068 0.09903117 0.2841065 0.2112569 -0.23623772 -0.28710213 -0.13327733 0.15352105
0.041221492 0.25343573 0.2978062 -0.10799912 0.055548567 -0.3080961 -0.24623026 0.089632556
0.18281478 0.15136644 -0.23733012 0.27334434 -0.118830025 0.2519573 -0.022737363 -0.28881028
0.21665248 -0.07374905 -0.18199927 0.051874865 0.21896966 0.091250464 0.16973849 -0.11677917
-0.32086033 -0.10260077 0.04409448 -0.21614382 0.22017257 0.25071174 0.26465452 -0.2419085
-0.023483982 -0.050087687 0.1163373 -0.13934974 0.074818514 0.01056327 -0.3166651 0.29368857
00000000: 99d7 54be 7668 183e cdeb 85be 11dc fd3d
00000010: 388e 8a3e e13d 893d 313c 7d3d 0c74 8abd
00000020: 9048 8dbe 27a6 883e 830a 6cbe 2a7e ad3c
00000030: c48d 79be 5134 2c3e 5c7e 18be bfb9 293e
00000040: b5c8 aebd e5ac 85be 67fd 83be 3c9c 80be
00000050: 05a2 b3bd c6d0 0b3e 6ed7 84be 208c b5bd
00000060: 227d 87bd 635c 333e 8e7d 39be 00db 8a3e
00000070: 61bf ecbd 568f b3bd b4ca 703e 1510 3cbd
00000080: f0bf 953e 439d 64bd d93a 9b3e 550f edbb
00000090: 08d4 0fbd aea0 a3be 506e 96ba ff27 8dbe
000000a0: 378e 1f3e a70c 53be 32f2 7e3e 21ab 793e
000000b0: 4508 993e 3532 433d c0e8 893e 4709 643e
000000c0: 78c4 c2bd e49a c13c 7885 8f3c eb96 0d3e
000000d0: 17d6 8abe 26fa 8f3e 5f13 61bd c560 8c3e
000000e0: b987 e6bd e68e 5fbd c1ca 8c3e c2b6 e7bd
000000f0: 375d a0bd 655f 04be 4741 3a3e 560d 933e
00000100: 7c74 1fbe 1f1c cb3d 16ae 983c 2164 09be
00000110: 68ac 95be b266 05bd ab67 9dbc b1b4 de3d
00000120: 424d 9ebd 3424 8bbe 404f 773e c975 073e
00000130: 5293 81be a1df 73be 001c 43be 181b 99bd
00000140: 0aec 043e 07dd 9b3e ca5d 9bbd 8018 383e
00000150: 489d 6bbe e479 b53d 0ef5 8a3e 2e12 d13c
00000160: 188d 873e 12e3 313d 5b3f 193e 9044 5c3e
00000170: c3d4 3f3e 64a1 fcbd 2ba7 783e 088d 57bd
00000180: 83b7 84be 13f9 0d3e 6c27 873e 21b3 89be
00000190: 3869 37be a077 8bbd 9cfe 7b3c 2920 e3bd
000001a0: add0 14be 7e89 f0bc 97ac ce3d 5564 7e3e
000001b0: cfae 183e c7b5 b13d f042 553d d8d3 f83d
000001c0: 1225 b2bd a5ed cb3d e3ab 1a3d f993 4abe
000001d0: 2ab2 79be 4bbb 0bbe 5bd9 88be 3730 b0bc
000001e0: 1cb3 2c3c 7414 e03d 688b 9fbe 2a1b 04be
000001f0: ba8c 633e baf3 343e 3e0a 87be 84a6 5fbd
00000200: 48d8 98bd 8d77 21be 533a 5f3e 0717 c6ba
00000210: 156e 573e ce89 2a3d 2f1d 133e d18c 443d
00000220: 9a71 963e 71ac e83d f7e7 113d 6c82 2e3e
00000230: f372 0cbe 9ef8 3f3d 8b80 5bbd 6b1b 353e
00000240: 3136 973e 1bd8 553d 16ed 4fbd 0716 1cbe
00000250: 91d4 953d d0aa 2d3c feba 9a3e 1497 113d
00000260: a325 9ebd 43a1 923d 26b5 81bd 8397 61be
00000270: 2966 dc3b 8e07 3c3e b500 e03c a10e 543e
00000280: 4f0f 89be 79d8 35bd c458 8fbe 6a70 083d
00000290: faf8 c43d 60da 8d3e fceb 8c3e 6d91 c0bc
000002a0: 5c17 95be 2c98 b4bd 526b b43d b02f 19be
000002b0: 9bf2 183e 73ff 7d3e 6e33 9bbe 1c16 853d
000002c0: 1871 ac3b cca1 3f3e 982f 293e ed5a 093e
000002d0: b43b a4bd 70c8 1b3d 1268 363e 342d 5c3e
000002e0: c50d a23d 7dff 64be 7fa9 0cbe 48e2 10bd
000002f0: 92c3 ce39 3cb3 2fbe d9d7 53bd 3bac 98be
00000300: c152 76be 5b23 4a3e a8d8 6bbe 1d0f 763e
00000310: d84d 92be acc5 9b3e 8ae1 873d cedf 723e
00000320: 1eba 76be 60f6 cf3d 187a bc3d c62d 19be
00000330: 8c61 1bbe 7304 7abe 6d75 e7bd 092a 783e
00000340: f59d 723e dbd0 ca3d 6876 913e bb53 583e
00000350: 4de8 71be 0dff 92be da79 08be 9f34 1d3e
00000360: ded7 283d 54c2 813e 0e7a 983e a52e ddbd
00000370: e586 633d c6be 9dbe c923 7cbe 4691 b73d
00000380: cc33 3b3e ceff 1a3e ab06 73be caf3 8b3e
00000390: 285d f3bd 8c00 813e b543 babc f1de 93be
000003a0: 26da 5d3e be09 97bd 045e 3abe bd7a 543d
000003b0: 9539 603e 86e1 ba3d edcf 2d3e eb29 efbd
000003c0: ce47 a4be 5a20 d2bd 6a9c 343d ce54 5dbe
000003d0: eb74 613e 4a5d 803e cc80 873e ddb6 77be
000003e0: 7b61 c0bc bf28 4dbd 4042 ee3d b3b1 0ebe
000003f0: 733a 993d 9111 2d3c ee21 a2be 595e 963e

lstm.bias_ih_l1 f4 [40]
0.09450943 0.18937388 0.15404826 -0.040622 0.0483552 0.08032376 -0.1501837 0.2534616
-0.009829418 0.08311639 0.11555979 -0.04517735 0.19094773 -0.088044964 0.14829183 -0.021678388
0.0064278073 0.003696137 0.25357315 -0.2592368 0.12583032 0.039992753 -0.25365564 -0.19760661
0.2940664 -0.2989197 -0.319038 0.1446439 0.10759486 0.15875855 0.28500742 -0.22440319
0.21411404 -0.22632866 -0.107282214 -0.13633913 0.17530656 0.2183109 0.30190796 0.29357764
00000000: 298e c13d 3aeb 413e d4be 1d3e 4163 26bd
00000010: 1a10 463d c980 a43d c1c9 19be b8c5 813e
00000020: 910b 21bc ed38 aa3d 9caa ec3d e30b 39bd
00000030: cd87 433e eb50 b4bd d0d9 173e e096 b1bc
00000040: 5ba0 d23b e43a 723b 57d4 813e b0ba 84be
00000050: aad9 003e 71cf 233d 27df 81be 6359 4abe
00000060: df8f 963e 010c 99be f358 a3be 881d 143e
00000070: b25a dc3d 9a91 223e 7eec 913e f3c9 65be
00000080: b640 5b3e b3c2 67be c7b6 dbbd 7c9c 0bbe
00000090: 9083 333e e48c 5f3e ae93 9a3e cf4f 963e

lstm.bias_hh_l1 f4 [40]
0.016656382 0.30441347 -0.16749558 0.26203263 0.08832039 -0.046414725 -0.075934984 0.08718775
-0.08248968 -0.08226172 -0.06868893 0.19345227 -0.15906645 -0.22647534 0.2970007 0.086029746
-0.015578979 -0.11652044 0.29921088 0.22011629 -0.06552568 0.119101495 0.11514952 0.04974949
-0.21253733 0.2830464 -0.24547668 0.07711816 -0.2696922 0.022512704 -0.2655748 -0.16183655
-0.187103 -0.281663 0.2939687 -0.14375642 -0.1941482 -0.03298335 0.19865385 0.19139004
00000000: f772 883c 15dc 9b3e f683 2bbe 2429 863e
00000010: 52e1 b43d 5e1d 3ebd cd83 9bbd 7e8f b23d
00000020: 59f0 a8bd d578 a8bd c8ac 8cbd 5a18 463e
00000030: 51e2 22be 27e9 67be 7a10 983e 5d30 b03d
00000040: f93e 7fbc 45a2 eebd 2b32 993e 2a66 613e
00000050: 5432 86bd 7ceb f33d 83d3 eb3d 1fc6 4b3d
00000060: 63a3 59be 75eb 903e 3d5e 7bbe 20f0 9d3d
00000070: 1915 8abe 906c b83c 6cf9 87be 7bb8 25be
00000080: ee97 3fbe 2236 90be 1183 963e e234 13be
00000090: c9ce 46be 8d19 07bd ea6b 4b3e c0fb 433e

fc.weight f4 [1, 200]
0.068456545 0.020774897 0.037835415 0.0543868 -0.044287756 0.017549496 0.0701497 0.05433928
0.065522544 -0.07094789 -0.0454461 -0.030473806 -0.024458691 0.014065057 0.0005132977 0.06641755
-0.025839956 0.047927126 -0.0060118437 -0.07136096 -0.04388613 -0.041631963 -0.03186203 -0.009528457
-0.016920537 0.021892805 -0.029405659 0.03626073 -0.033577014 -0.020695858 0.05339761 -0.06549888
0.0017958075 -0.00920296 -0.025376577 -0.06083444 -0.0050880085 0.020837149 0.03676596 -0.04167674
-0.02494322 0.049241044 -0.021990912 -0.03473944 0.05501737 0.01233224 0.07803379 0.029397268
-0.048904657 0.05218342 0.058935672 -0.047154143 0.041348845 0.014325495 -0.05277523 0.024027716
0.05736493 -0.020256193 0.04028971 0.037516963 -0.05009513 -0.07948084 0.029154003 0.006608734
0.0035965154 0.017098127 0.08053135 -0.034916338 -0.018914806 -0.058717955 0.05427526 0.036164492
0.059858143 0.022117821 -0.026917584 0.007613892 0.046368655 -0.06353376 0.016511204 -0.021008955
-0.03174873 -0.057262044 -0.012995939 -0.005017345 0.044484362 -0.021728335 -0.011075207 0.037238255
-0.044479907 -0.06530675 -0.027301917 -0.023626635 -0.052180808 0.010776372 0.017911108 0.04044398
-0.05730931 0.0009418635 -0.009809899 0.019549657 0.048286013 -0.04973191 0.032190233 0.054303832
-0.009576049 -0.032672957 0.028895292 0.06604507 -0.053995244 -0.079313055 -0.018157903 -0.024182737
-0.053274423 -0.055595685 -0.017446466 -0.017252348 -0.0015407413 -0.047437858 0.07282109 -0.016904373
0.0333711 -0.067986846 -0.04957255 0.07659316 0.055716943 0.05442581 0.026321305 -0.031531543
-0.026058245 -0.07954769 0.035943132 0.0011671324 0.038392775 -0.017779429 0.020148236 -0.018965524
0.02532698 -0.051673368 0.055038597 -0.05317229 -0.014076066 0.047348287 0.0248588 -0.0012725007
0.004317014 0.021377966 0.014320111 -0.023044225 0.042077802 0.0074789585 0.03133477 0.029532818
-0.040238008 0.011044786 -0.04676827 0.014706003 -0.04867895 -0.035356943 -0.025707452 -0.041266803
-0.037926227 -0.035630237 0.04947528 0.014675598 0.05689675 -0.032661784 -0.017728407 -0.053602114
-0.048874013 0.027993634 0.0046243784 -0.02602504 -0.07395814 -0.012994684 -0.0701182 -0.048660018
-0.026310237 -0.062837295 0.07826939 -0.022904385 -0.03588996 0.025691014 0.04979816 -0.0238776
-0.0688603 0.04840398 -0.0005717532 0.038572676 -0.05267288 0.03200909 -0.033107292 0.04260264
-0.0047820094 -0.016291779 -0.04265432 -0.056625955 0.07250673 0.026203755 0.058752187 -0.020596435
00000000: f232 8c3d 1e30 aa3c 4ff9 1a3d b1c4 5e3d
00000010: 1467 35bd f6c3 8f3c a5aa 8f3d dd92 5e3d
00000020: af30 863d 214d 91bd b125 3abd 34a4 f9bc
00000030: 985d c8bc 2071 663c d38e 063a ed05 883d
00000040: 51ae d3bc 3c4f 443d 00ff c4bb b225 92bd
00000050: f1c1 33bd 4786 2abd c381 02bd 3f1d 1cbc
00000060: f09c 8abc 8a58 b33c 23e4 f0bc 2286 143d
00000070: 0d88 09bd 5c8a a9bc 74b7 5a3d 4724 86bd
00000080: 4d61 eb3a 03c8 16bc 8ae2 cfbc 892d 79bd
00000090: 4fb9 a6bb abb2 aa3c e797 163d 3bb5 2abd
000000a0: b955 ccbc fab0 493d 4926 b4bc f14a 0ebd
000000b0: e559 613d 2a0d 4a3c 2ed0 9f3d 8ad2 f03c
000000c0: 4050 48bd 48be 553d 8866 713d b424 41bd
000000d0: 685d 293d 7bb5 6a3c d72a 58bd c6d5 c43c
000000e0: 7df7 6a3d 51f0 a5bc d306 253d 63ab 193d
000000f0: 8d30 4dbd dac6 a2bd 60d4 ee3c 148e d83b
00000100: 84b3 6b3b 5f11 8c3c 9fed a43d 6f04 0fbd
00000110: 39f3 9abc 3d82 70bd bc4f 5e3d 3821 143d
00000120: d02d 753d 6f30 b53c 4482 dcbc f57d f93b
00000130: 0fed 3d3d fd1d 82bd 8142 873c f91a acbc
00000140: f50a 02bd 9b8b 6abd ebec 54bc 8a68 a4bb
00000150: 3c35 363d 9fff b1bc c974 35bc 2487 183d
00000160: 9030 36bd 8cbf 85bd 45a8 dfbc a58c c1bc
00000170: 8bbb 55bd 618f 303c 51ba 923c 96a8 253d
00000180: 2bbd 6abd 64e7 763a b3b9 20bc 9a26 a03c
00000190: 8ec7 453d b0b3 4bbd e8d9 033d b26d 5e3d
000001a0: dce4 1cbc 14d4 05bd d2b5 ec3c a342 873d
000001b0: 1e2a 5dbd e26e a2bd e2bf 94bc e01a c6bc
000001c0: 4836 5abd 4db8 63bd e4eb 8ebc cc54 8dbc
000001d0: b3f2 c9ba 334e 42bd 3923 953d 0a7b 8abc
000001e0: 22b0 083d b03c 8bbd 960c 4bbd e0dc 9c3d
000001f0: 7337 643d 99ed 5e3d c79f d73c 3827 01bd
00000200: 1a78 d5bc e6e9 a2bd 1b39 133d 77fa 983a
00000210: be41 1d3d 2aa6 91bc ea0d a53c 965d 9bbc
00000220: 877a cf3c 74a7 53bd 2770 613d 30cb 59bd
00000230: 4d9f 66bc 47f0 413d afa4 cb3c 0aca a6ba
00000240: bd75 8d3b d820 af3c e69e 6a3c 3ec7 bcbc
00000250: c659 2c3d 0d12 f53b e358 003d cfee f13c
00000260: 9cd0 24bd 31f5 343c 1690 3fbd 72f1 703c
00000270: 9463 47bd 71d2 10bd 6f98 d2bc 6107 29bd
00000280: 8858 1bbd 03f1 11bd 97a6 4a3d eb71 703c
00000290: 910c 693d 5dc8 05bd 2a3b 91bc e48d 5bbd
000002a0: 1e30 48bd e852 e53c 1988 973b 7732 d5bc
000002b0: 5e77 97bd a8e7 54bc 219a 8fbd ba4f 47bd
000002c0: 9188 d7bc d7b0 80bd b44b a03d faa1 bbbc
000002d0: 5a01 13bd f675 d23c 28f9 4b3d f59a c3bc
000002e0: a106 8dbd 4043 463d b5e1 15ba 62fe 1d3d
000002f0: 85bf 57bd f71b 033d 839b 07bd 1b80 2e3d
00000300: 67b2 9cbb 5676 85bc 4cb6 2ebd 9ef0 67bd
00000310: 697e 943d 42a9 d63c 22a6 703d dbb9 a8bc

exp_avg f4 [40, 31]
-3.217496e-07 -1.0882968e-07 -2.8601158e-07 1.0506017e-07 3.2414965e-07 -1.1619389e-06 1.5911472e-06 1.1089527e-06
-1.0155304e-08 1.2946045e-06 -1.964196e-06 3.5518457e-07 1.0512888e-06 8.524932e-07 -1.8297588e-06 1.2810038e-06
-5.708056e-07 9.2987375e-07 -1.210864e-06 1.2838195e-06 6.127289e-07 -1.999546e-06 -1.8072403e-07 2.079749e-06
-1.269453e-06 -1.1330278e-06 1.3183444e-07 2.3716498e-07 1.0933857e-06 -3.2705802e-07 -9.966644e-08 2.3305688e-06
5.921797e-07 -8.0655315e-07 -2.6751147e-06 3.7492686e-07 -1.3907262e-06 -9.0946185e-07 -4.07316e-07 -1.4870432e-06
4.138898e-07 -8.197177e-07 -3.9772772e-07 -5.649327e-07 -9.129156e-07 -4.2461124e-07 7.2595924e-07 -7.3440805e-07
-1.2849808e-06 -1.0067591e-06 1.4929811e-06 -5.9421843e-08 -2.9150365e-07 -9.524549e-07 -6.635268e-07 5.1165472e-08
-3.5591938e-07 -2.523347e-08 3.211327e-08 1.8433452e-07 -1.0211872e-06 -6.9153515e-07 8.0421955e-07 1.8892445e-07
-3.5919243e-07 -5.716622e-07 -1.57834e-07 -1.8264321e-06 1.0969352e-06 -3.1184223e-07 9.97901e-07 2.1038684e-06
-3.5194244e-06 -7.4178297e-07 7.907777e-07 2.3775644e-06 -3.1560558e-06 -2.1232364e-07 -3.1436232e-07 6.4605075e-07
-8.4886136e-07 7.5752354e-07 4.6197997e-07 -1.5749886e-06 9.585634e-07 1.1646054e-06 -7.7132074e-07 -1.7623443e-06
-3.4341068e-07 3.0317088e-07 7.8219114e-07 -8.2070494e-07 1.1523686e-07 -4.152897e-06 -1.0897584e-06 -1.0204665e-06
3.653081e-06 5.6081325e-07 2.5419122e-06 1.6719813e-06 4.4043122e-07 -5.549918e-07 2.2330098e-06 2.095442e-06
1.1479725e-06 -9.362459e-07 1.8536984e-06 2.1484693e-06 2.4481142e-06 -2.054804e-06 -4.8112446e-07 4.301707e-06
3.2345054e-06 5.8760793e-07 -1.7634202e-06 -1.4792707e-06 3.0657966e-06 -1.4255963e-06 2.9786552e-06 -8.865107e-08
2.9958161e-07 2.1708402e-06 -1.9750482e-06 -1.3911057e-06 -3.0822541e-06 -8.423104e-07 4.6877454e-07 2.9758762e-06
3.205219e-07 1.1089869e-06 2.1874102e-06 3.2782314e-06 -3.3327888e-07 2.2361398e-06 -1.8846948e-06 2.5108245e-06
1.1181495e-06 1.3480346e-06 -1.680611e-06 1.4476398e-06 1.956069e-06 5.5768055e-08 -1.6307843e-07 3.011285e-07
3.358568e-07 8.95454e-07 6.3951624e-08 1.0950264e-06 -4.8619867e-08 -1.4468806e-06 -3.533924e-07 5.111403e-07
5.120592e-07 8.985841e-07 5.3208964e-07 3.6749166e-06 9.606272e-07 -3.0665723e-07 -3.682077e-06 -4.2486732e-08
-2.6884447e-06 -1.0361199e-06 -1.2791406e-06 -1.625292e-06 1.6713531e-06 -2.4914848e-06 -1.5743115e-06 -9.589281e-07
5.1374286e-07 -1.705067e-06 -6.6226545e-07 -4.0440324e-07 -2.3978703e-06 -2.6002567e-07 2.9906124e-07 -4.853561e-07
-1.5271547e-07 -1.0051028e-06 5.7157354e-07 -4.937633e-07 -1.0805886e-06 -6.9458144e-07 9.7127995e-08 5.3481136e-07
-1.4727696e-06 1.577389e-07 2.8527072e-07 7.55893e-08 1.4391463e-07 -1.8302055e-07 -1.0940936e-07 2.26999e-08
-3.151292e-07 4.82403e-07 -3.1414305e-07 -7.918515e-07 3.3116197e-07 6.893567e-08 4.8965785e-07 -1.1129382e-06
2.619155e-07 -9.651125e-08 3.2009586e-07 2.6269055e-07 -7.78705e-07 -6.484e-07 4.4222496e-08 3.7968056e-07
2.7528162e-07 -4.5756667e-07 -4.903302e-09 1.910232e-07 6.92005e-08 -1.02319056e-07 -7.3149045e-07 6.967957e-07
-3.954483e-09 -1.23504e-06 -3.3326586e-07 5.8009572e-08 1.245451e-06 5.659914e-08 7.4999053e-07 5.5205953e-07
1.0813831e-06 8.13962e-08 4.3655893e-07 -2.9728767e-07 6.856493e-07 4.6976308e-07 1.1058813e-07 3.6049936e-08
1.3488611e-07 6.518834e-07 7.0837166e-07 -1.9309061e-07 2.4724136e-07 1.005407e-07 -1.5631758e-07 7.012638e-08
1.1146811e-07 -9.527729e-08 -7.754322e-08 9.652054e-08 8.637952e-09 6.5009225e-08 5.154797e-07 4.1616426e-07
-4.266828e-06 -1.1311045e-06 1.8722969e-07 4.5156025e-06 -9.606008e-08 2.5192642e-06 1.9002779e-06 3.2117605e-06
00000000: eebc acb4 c0b5 e9b3 228d 99b4 709d e133
00000010: ca06 ae34 ebf3 9bb5 678f d535 53d7 9435
00000020: 8077 2eb2 46c2 ad35 a1d0 03b6 32b0 be34
00000030: 021a 8d35 e3d6 6435 0996 f5b5 f5ee ab35
00000040: 7639 19b5 709c 7935 f884 a2b5 b44f ac35
00000050: 697a 2435 f02f 06b6 0b0d 42b4 d191 0b36
00000060: 1362 aab5 8a12 98b5 608e 0d34 6aa7 7e34
00000070: 72c0 9235 8396 afb4 3408 d6b3 de66 1c36
00000080: 47f6 1e35 e981 58b5 1f86 33b6 8e49 c934
00000090: fda8 bab5 be21 74b5 16ad dab4 6a96 c7b5
000000a0: 9534 de34 920a 5cb5 4887 d5b4 e1a5 17b5
000000b0: 150f 75b5 20f6 e3b4 8adf 4235 2324 45b5
000000c0: 9b77 acb5 fb1f 87b5 7162 c835 0237 7fb3
000000d0: f57f 9cb4 34ac 7fb5 371d 32b5 08c1 5b33
000000e0: 3015 bfb4 fdc0 d8b2 eaec 0933 7ded 4534
000000f0: ba0f 89b5 efa1 39b5 8ce1 5735 28db 4a34
00000100: 08d7 c0b4 5474 19b5 1479 29b4 bb23 f5b5
00000110: 683a 9335 456b a7b4 9eef 8535 2f30 0d36
00000120: 402f 6cb6 f01e 47b5 d445 5435 3f8e 1f36
00000130: a0cc 53b6 14fb 63b4 a1c5 a8b4 456c 2d35
00000140: 4fdd 63b5 9f58 4b35 0b06 f834 3264 d3b5
00000150: fda7 8035 894f 9c35 c20c 4fb5 b089 ecb5
00000160: 015e b8b4 7dc3 a234 c4f7 5135 6a4e 5cb5
00000170: 2278 f733 1d59 8bb6 d043 92b5 f6f6 88b5
00000180: 7427 7536 cb8a 1635 b895 2a36 d768 e035
00000190: 6874 ec34 bffa 14b5 d1da 1536 6b9f 0c36
000001a0: 0914 9a35 5452 7bb5 98cc f835 6c2e 1036
000001b0: 484a 2436 44e5 09b6 9f26 01b5 6257 9036
000001c0: 6110 5936 1cbc 1d35 a8ae ecb5 5b8b c6b5
000001d0: fcbd 4d36 1e57 bfb5 e8e4 4736 7160 beb3
000001e0: 2fd6 a034 c0ae 1136 128b 04b6 07b6 bab5
000001f0: b9d8 4eb6 211b 62b5 e2ab fb34 2ab5 4736
00000200: 3214 ac34 80d8 9435 6ccb 1236 96ff 5b36
00000210: 80ed b2b4 9710 1636 9ff5 fcb5 a37f 2836
00000220: 5313 9635 1eee b435 5b91 e1b5 864c c235
00000230: 0245 0336 a085 6f33 a81a 2fb4 c9aa a134
00000240: cf4f b434 215f 7035 c755 8933 d2f8 9235
00000250: 1cd2 50b3 7032 c2b5 e2b9 bdb4 4b35 0935
00000260: 7174 0935 3b36 7135 ecd4 0e35 969e 7636
00000270: e6ee 8035 a6a2 a4b4 9a19 77b6 a87a 36b3
00000280: 216b 34b6 cf10 8bb5 f0ae abb5 9c24 dab5
00000290: 4153 e035 6233 27b6 ee4c d3b5 85b4 80b5
000002a0: 24e8 0935 a8d9 e4b5 89c6 31b5 c21c d9b4
000002b0: 19eb 20b6 a899 8bb4 aa8e a034 6b49 02b5
000002c0: 1cfa 23b4 12e7 86b5 3c6e 1935 288b 04b5
000002d0: be08 91b5 4673 3ab5 ae94 d033 f58f 0f35
000002e0: faab c5b5 f05e 2934 4f27 9934 a853 a233
000002f0: f486 1a34 4e84 44b4 6ff4 eab3 9cfd c232
00000300: 072f a9b4 7b7e 0135 7ea7 a8b4 9f8f 54b5
00000310: 8eca b134 c909 9433 0871 0335 4460 95b5
00000320: 649d 8c34 9f41 cfb3 a4d9 ab34 ea07 8d34
00000330: 3308 51b5 b50d 2eb5 26ef 3d33 e6d6 cb34
00000340: 6bca 9334 7ca7 f5b4 e779 a8b1 0f1c 4d34
00000350: 619b 9433 7fba dbb3 a45b 44b5 700b 3b35
00000360: 00e0 87b1 a7c3 a5b5 b6eb b2b4 3326 7933
00000370: 5f29 a735 6a17 7333 f552 4935 3e31 1435
00000380: 0a24 9135 09cc ae33 3460 ea34 e89a 9fb4
00000390: 760d 3835 bf33 fc34 787c ed33 53d5 1a33
000003a0: 36d5 1034 16fd 2e35 ee26 3e35 5854 4fb4
000003b0: 98bc 8434 d6e8 d733 40d8 27b4 6398 9633
000003c0: 3e60 ef33 3e9b ccb3 d685 a6b3 ba46 cf33
000003d0: 1d66 1432 339b 8b33 7f5f 0a35 2e6d df34
000003e0: c62b 8fb6 74d0 97b5 4e09 4934 bb84 9736
000003f0: 9649 ceb3 a110 2936 0d0d ff35 a089 5736

exp_avg_sq f4 [40, 31]
9.680532e-09 6.7073375e-10 3.9684863e-11 9.532709e-09 6.662368e-11 3.5076497e-09 2.3751492e-09 1.794281e-09
1.2284386e-09 1.4816798e-09 9.162908e-10 3.2682164e-09 6.9213457e-10 1.4623504e-09 7.451741e-10 1.3240569e-09
4.808142e-10 1.2404472e-09 2.5165567e-09 7.1901457e-10 6.473239e-10 1.2643555e-09 1.2330482e-10 1.5111757e-09
1.0069046e-09 1.8975754e-10 3.3171002e-10 7.2086104e-10 4.62823e-10 1.4303309e-10 2.663046e-10 3.875084e-09
2.7778316e-10 6.714619e-11 3.9419183e-09 5.3848655e-11 4.2731899e-10 3.0138547e-09 2.8799167e-09 4.2759535e-10
2.1350466e-10 1.2407482e-10 1.0652218e-09 1.268206e-09 4.3700163e-10 2.966257e-10 4.1222678e-10 7.181315e-10
1.1245795e-09 5.8498084e-10 7.3964745e-10 2.561198e-11 2.8265937e-10 1.2084881e-09 1.9595818e-10 3.1770955e-10
3.5905848e-10 4.5461943e-11 3.860263e-11 9.932208e-12 8.993783e-10 1.1692621e-09 3.4975434e-09 2.3420607e-10
2.951094e-11 3.490186e-09 2.8417494e-12 1.5054941e-09 9.515245e-10 2.2824673e-10 2.410682e-10 8.747606e-10
1.1892837e-09 6.1100863e-10 3.937627e-10 8.4429475e-10 1.1769267e-09 1.1709751e-10 3.232908e-10 3.387787e-10
2.8350646e-09 1.0446652e-10 1.682247e-10 3.2208883e-10 1.4077392e-10 1.372856e-10 3.7815642e-10 3.553012e-10
5.284498e-10 3.7097517e-10 1.3198798e-10 1.07433645e-10 9.2397125e-11 3.4977625e-09 2.451262e-10 5.0799743e-11
3.4427317e-09 3.340933e-11 6.2512795e-10 1.9073276e-09 1.0844008e-09 3.71975e-10 5.3631477e-10 4.1306036e-10
8.410921e-10 6.045729e-10 4.286402e-10 5.725794e-10 4.2300738e-10 2.4410934e-10 6.619886e-10 6.68634e-10
7.516337e-10 1.5413752e-10 1.1687738e-10 2.9090566e-10 3.9714101e-10 7.596965e-11 3.392563e-10 1.4191323e-10
1.3759809e-10 2.0658869e-10 2.8337704e-10 3.7022155e-10 1.00021005e-08 7.011635e-10 8.6490794e-11 1.03360644e-08
3.3405702e-11 3.9780463e-09 2.4094329e-09 3.0801408e-09 9.47013e-10 1.7738789e-09 9.793953e-10 4.3452477e-09
1.3873913e-09 9.820853e-10 1.0961285e-09 2.0524518e-09 6.904971e-10 1.169797e-09 2.8461498e-09 2.1053076e-11
2.0766289e-09 1.2004451e-09 4.942113e-10 1.6115431e-09 5.057633e-10 8.768945e-10 3.1562433e-10 1.5269931e-09
1.5643287e-10 1.2189932e-09 2.3771665e-10 4.4599442e-08 3.07815e-09 3.02115e-10 4.590938e-08 4.4923874e-11
7.649883e-09 2.1036831e-08 7.636658e-09 6.8867942e-09 3.863958e-09 7.1632984e-09 8.04285e-09 4.4681254e-09
4.7655244e-09 5.187436e-09 1.316838e-09 5.3291327e-09 5.1247473e-09 1.4610815e-08 9.315133e-10 1.5111032e-09
1.6881279e-09 2.773373e-09 3.2767928e-09 1.8812252e-09 8.203279e-10 5.4355547e-09 1.7859476e-09 2.5223474e-09
2.3902205e-09 8.87765e-09 4.233311e-09 2.9257852e-10 3.7503844e-11 4.2897152e-09 8.659282e-12 1.3861159e-09
1.1388501e-09 8.663971e-10 4.777343e-10 3.9985468e-10 4.971431e-10 7.7941154e-10 4.42504e-10 4.6045817e-10
3.4440897e-10 2.668419e-10 2.7529315e-10 5.2948695e-10 1.2540288e-09 1.659042e-10 1.811924e-10 2.8677183e-10
1.949507e-10 2.0763126e-10 8.402617e-11 3.5733284e-11 1.2115797e-10 2.367807e-10 3.3710407e-10 3.6952771e-10
1.3993019e-10 2.2907462e-10 1.5978647e-11 5.642085e-12 2.3498345e-10 1.1216585e-12 1.208308e-10 7.601111e-11
1.3161827e-10 2.6542626e-11 6.5164825e-11 7.7704836e-11 1.214062e-10 4.894854e-11 4.5885785e-11 6.2407655e-11
4.2707723e-11 6.211446e-11 1.1972318e-10 9.614482e-11 4.7279826e-11 2.5238749e-11 2.9586243e-11 1.0156674e-11
1.2263208e-11 1.172309e-12 2.0385528e-11 2.9757627e-11 1.4544186e-11 1.5599508e-11 7.678212e-11 1.5875702e-11
2.321212e-08 1.5455253e-09 2.69559e-11 2.2913234e-08 2.352658e-11 7.2998207e-09 5.867471e-09 1.6388533e-09
00000000: 6e4f 2632 b15e 3830 2f89 2e2e 4cc5 2332
00000010: cc81 922e 3a0b 7131 1138 2331 a69a f630
00000020: d7d5 a830 f9a3 cb30 3cde 7b30 1297 6031
00000030: a440 3e30 e1fb c830 f7d4 4c30 1cfa b530
00000040: 4b2a 0430 5b7c aa30 bcef 2c31 27a4 4530
00000050: 5fef 3130 8ec5 ad30 3993 072f c5b1 cf30
00000060: 4e63 8a30 00a4 502f 095c b62f 1626 4630
00000070: 8c70 fe2f 3c44 1d2f 0a67 922f 9925 8531
00000080: 81b6 982f f2a7 932e 7b71 8731 32d4 6c2e
00000090: cdeb ea2f 4b1c 4f31 08e8 4531 b212 eb2f
000000a0: 38c0 6a2f f56b 082f 2967 9230 084d ae30
000000b0: 833e f02f 5b12 a32f c39f e22f 0366 4530
000000c0: a08f 9a30 5ecc 2030 1050 4b30 0d49 e12d
000000d0: c564 9b2f e517 a630 5375 572f a5a9 ae2f
000000e0: fd64 c52f 99f1 472e b3c6 292e b0ba 2e2d
000000f0: 1f38 7730 c1b3 a030 6f59 7031 93c1 802f
00000100: 5dca 012e 00d8 6f31 68f8 472c dde9 ce30
00000110: cbc6 8230 bef5 7a2f 5587 842f ce73 7030
00000120: 3374 a330 e9f3 2730 2c79 d82f f613 6830
00000130: 6dc1 a130 05c0 002f 23bb b12f dd3e ba2f
00000140: fcd2 4231 6cb9 e52e 0bf7 382f f911 b12f
00000150: 56c8 1a2f 76f2 162f c9e4 cf2f 3354 c32f
00000160: 5942 1130 1df2 cb2f 501f 112f c43f ec2e
00000170: f52e cb2e 4a5d 7031 72c2 862f 6d6b 5f2e
00000180: 2d95 6c31 90ef 122e 78d5 2b30 1012 0331
00000190: f609 9530 d47e cc2f cc6b 1330 1415 e32f
000001a0: 9832 6730 092f 2630 bfa5 eb2f b163 1d30
000001b0: ff8c e82f 5633 862f 4ef7 3530 efca 3730
000001c0: 859b 4e30 db79 292f 0f82 002f 55ed 9f2f
000001d0: a154 da2f 1c0f a72e 1482 ba2f 0609 1c2f
000001e0: 6b4a 172f 8c25 632f c6c9 9b2f 0d88 cb2f
000001f0: b4d5 2b32 ffbb 4030 fd31 be2e 7e92 3132
00000200: 7aeb 122e 44af 8831 3193 2531 69aa 5331
00000210: 0f28 8230 d1cc f330 699b 8630 344d 9531
00000220: 7eae be30 0efa 8630 98a6 9630 1d0b 0d31
00000230: 6acd 3d30 93c6 a030 ff95 4331 502f b92d
00000240: 71b4 0e31 e8fc a430 07d9 0730 227d dd30
00000250: ee05 0b30 f709 7130 2d84 ad2f 4bde d130
00000260: f0ff 2b2f 8389 a730 a5af 822f 9b8d 3f33
00000270: 6387 5331 e816 a62f e62d 4533 c993 452e
00000280: 8b6c 0332 7bb4 b432 6132 0332 e2a0 ec31
00000290: bcc3 8431 0a21 f631 d42c 0a32 0c86 9931
000002a0: ffbd a331 2b3d b231 1efc b430 8c1b b731
000002b0: c115 b031 0b03 7b32 b606 8030 38af cf30
000002c0: b803 e830 b295 3e31 f32d 6131 dd46 0131
000002d0: 727d 6130 a5c3 ba31 7275 f530 9b55 2d31
000002e0: 3441 2431 5184 1832 9974 9131 c4d8 a02f
000002f0: 93f1 242e bc64 9331 f055 182d 9e81 be30
00000300: ba85 9c30 4727 6e30 9051 0330 8bd2 db2f
00000310: 56a7 0830 363e 5630 e744 f32f ba23 fd2f
00000320: 4157 bd2f a9b2 922f 1158 972f 558b 1130
00000330: 375a ac30 e169 362f 2039 472f 8ca7 9d2f
00000340: be59 562f 014b 642f 87c6 b82e 1a28 1d2e
00000350: f036 052f ec2b 822f 2e53 b92f 6726 cb2f
00000360: d9da 192f c6de 7b2f b78c 8c2d 6283 c62c
00000370: fb2e 812f 02dc 9d2b d9da 042f 7326 a72e
00000380: 40b7 102f ae78 e92d 894c 8f2e efdf aa2e
00000390: cf7c 052f 2847 572e cdce 492e 633c 892e
000003a0: 9fd4 3b2e 5597 882e 14a3 032f b96c d32e
000003b0: 5af0 4f2e 9c00 de2d 261f 022e 98ad 322d
000003c0: 94bc 572d e2fc a42b 2150 b32d 1ce0 022e
000003d0: 31dd 7f2d f836 892d 7ed8 a82e e7a4 8b2d
000003e0: fe63 c732 566a d430 4a1b ed2d bcd2 c432
000003f0: 26f1 ce2d e7d1 fa31 d29a c931 063e e130
