timeSerise/lightning_logs/version_4/checkpoints/epoch=20-step=7182.ckpt (torch, 384027 bytes, 30 tensors)

lstm.weight_ih_l0 f4 [40, 17]
000000 cb a5 0c be 2a 8f 8d 3d e8 c5 7f 3d dd 68 c2 bc
       -0.1373512 0.06912072 0.062444597 -0.023731643
000010 b5 6c f7 bc 85 28 29 be 76 a7 55 3e 5e e0 a1 bd
       -0.030203203 -0.16519363 0.20864663 -0.07904123
000020 e7 46 84 3e cc 8b a4 be fa 09 d9 3d 27 53 79 3e
       0.25835344 -0.32137907 0.10597606 0.24348126
000030 1e 5e c5 3d 4e 17 3e be 9f 4b 7c bd ee c3 d2 3d
       0.09637092 -0.18563578 -0.061595555 0.10291277
000040 64 a1 b5 bb a1 48 25 3c 2e e9 21 3d 6c b8 14 be
       -0.005542921 0.010088117 0.039529018 -0.14523476
000050 6f cf 5c 3e 22 34 2f be e5 8d 20 be 7d de 50 3e
       0.21563505 -0.17109731 -0.15679128 0.20397373
000060 fc e5 fe 3d 3f 25 3c be f2 1d 08 3d 0e 49 7d 3c
       0.1244621 -0.18373583 0.033231683 0.015459312
000070 9f 6e 1c be 36 3c 6b be c0 cb 4c be 34 ba 76 be
       -0.15276574 -0.22972187 -0.199996 -0.24094468
000080 69 6c 9a be 11 43 5d be 20 19 02 be 2a 5a 40 3d
       -0.30160835 -0.21607615 -0.12704897 0.046960987
000090 78 75 a9 bd 92 5f ca bd 58 40 69 3e ed d2 01 3d
       -0.082743585 -0.0988151 0.22778451 0.031695295
0000a0 43 5a 49 3d cb 9e a6 3e bf 38 89 bd 14 c0 88 be
       0.049158346 0.32543024 -0.067002766 -0.26709044
0000b0 f2 e1 2b be 44 6e c4 3d ac 76 c1 bc 83 4b 86 be
       -0.1678541 0.09591344 -0.023616157 -0.26229486
0000c0 69 70 89 3e a3 52 8d 3e 7d a2 79 3c 9d 8e 9f bc
       0.26843575 0.2760211 0.015236494 -0.019477183
0000d0 3c 1b 03 3e 14 f7 aa 3d 5f 87 99 bc cc 71 33 be
       0.12803358 0.08347908 -0.018741308 -0.17523879
0000e0 f2 ee 71 3e 06 bd 87 be 43 61 91 bc cd 15 85 be
       0.23626307 -0.265114 -0.017746573 -0.25993195
0000f0 60 ec 01 be 83 3f 28 3e ca 6b 4f 3d 64 53 9f be
       -0.12687826 0.16430478 0.050639905 -0.3111831
000100 37 b7 58 bc 8a ae 17 be 7e 05 c8 bd fb da c9 3d
       -0.013227276 -0.14812675 -0.097666726 0.0985622
000110 8a dd 3e bd 03 e8 74 be 75 a2 b9 3d d8 ac 87 be
       -0.046597995 -0.2391663 0.09064189 -0.26499057
000120 65 dd 31 be 03 5d eb bd 68 08 80 3e 94 3f d0 bd
       -0.17369612 -0.1149235 0.25006413 -0.101683766
000130 62 68 66 3d 96 95 73 3c 4e 03 01 3e f0 72 86 be
       0.05625189 0.014867207 0.12598917 -0.26259565
000140 b5 0c 3c bd 73 78 f2 bd ac 9b 68 be d7 92 53 bd
       -0.045910556 -0.1183938 -0.22715634 -0.05165371
000150 31 13 e2 bd a4 b5 10 3e f6 b2 36 3e d8 69 3d be
       -0.11038817 0.1413179 0.17841706 -0.18497407
000160 99 5b 73 3e b3 65 f0 bd d3 3e 1e 3e 52 11 8d 3e
       0.2376541 -0.117381476 0.15453653 0.27552277
000170 f6 0c 90 3d 54 4e 93 3e 45 50 33 be 40 e8 b1 bd
       0.07033722 0.28770697 -0.17511089 -0.08686876
000180 39 3f 4f be 14 15 e1 bd 29 62 2f bd 4e e9 8f be
       -0.20238961 -0.109903485 -0.042818222 -0.28107685
000190 cc ec 09 3d e7 87 91 3e 32 36 48 be 52 b1 10 3e
       0.033673093 0.28423998 -0.19551924 0.14130142
0001a0 85 98 cb 3c ed 3f 38 be 8a 84 c2 bc 93 5b de bd
       0.024853 -0.17993136 -0.02374484 -0.1085731
0001b0 55 90 28 be 91 40 26 be a1 ad 73 be 00 29 43 be
       -0.16461308 -0.16235568 -0.23796703 -0.19058609
0001c0 8f e5 9c be 08 7e 1b be d7 8c 07 be e1 1a 92 3e
       -0.3064389 -0.15184796 -0.1323732 0.28536132
0001d0 73 a2 35 3e c7 00 25 3e 9a e2 bd bd 99 98 68 3e
       0.1773775 0.16113578 -0.092717364 0.22714461
0001e0 d8 fb 10 3e f2 e2 26 be 78 83 19 3e ce a3 5a be
       0.14158571 -0.1629751 0.14991558 -0.21351549
0001f0 b1 e0 3a 3d 4c ac f4 bd 0e dd 3f 3e eb 14 50 be
       0.04562444 -0.119469255 0.1873667 -0.2032048
000200 3b 85 85 be ae bb 81 be 2d 75 dc 3d 94 fd 66 3c
       -0.2607821 -0.253385 0.10764537 0.014098544
000210 56 67 e1 3d 53 91 60 be ab 43 19 3e 0e b2 e7 bd
       0.11006038 -0.21930437 0.1496722 -0.11313258
000220 56 27 20 be fc 73 8d 3e e1 fb 70 3e fd 59 e8 bd
       -0.15640005 0.27627552 0.23533584 -0.11345289
000230 6f 74 94 bd 6e a3 9f be 06 02 b8 3d cb 4b 3d be
       -0.072487704 -0.31179374 0.08984761 -0.18485944
000240 d6 1c 07 bd 6d e5 8f 3e a8 c4 14 3e 83 f7 29 3d
       -0.032986484 0.28104725 0.14528143 0.04149581
000250 eb 78 ae bd 87 03 a4 3e 87 76 01 be 03 32 cb bd
       -0.08519157 0.3203394 -0.12642871 -0.09921648
000260 88 ae 01 3d 7d 7c 8d be c4 21 41 3e 2a 9e 58 be
       0.031660587 -0.2763404 0.18860537 -0.21154085
000270 6c 8c e0 bd b0 4c dc 3d 7b 26 fc bc ed 50 58 be
       -0.10964283 0.107568145 -0.030780068 -0.2112462
000280 32 dd 8a be 94 9d f3 bc ca bc 3a be 03 ef 36 3e
       -0.27121884 -0.029738225 -0.1823608 0.17864613
000290 aa 91 67 3e 06 48 0c bd 75 8e 68 bd 72 6b 8b be
       0.2261416 -0.034248374 -0.056776483 -0.27230412
0002a0 88 c3 0c be 65 eb 5a 3e 49 00 7c 3e e0 ce cd bd
       -0.13746464 0.21378858 0.24609484 -0.10049224
0002b0 11 8e c9 3d 4f 04 62 bd e3 91 99 bd e6 6e 36 be
       0.0984155 -0.05517989 -0.07498529 -0.17815742
0002c0 be 7e d7 bd 53 70 a5 3d 26 fb f1 3d 1a 92 5d 3e
       -0.10522221 0.08078065 0.11815481 0.21637765
0002d0 14 26 98 3d 1c 37 73 be ed 0c 5d 3e 3f af a0 be
       0.07429138 -0.23751491 0.21586962 -0.31383702
0002e0 df 9f 54 3e 8a 20 06 be 0d e4 88 be 36 53 98 3e
       0.20764111 -0.1309835 -0.2673649 0.29750985
0002f0 70 4e 7a be 34 49 3c be 90 77 4f 3e 42 8f 0e be
       -0.24443984 -0.183873 0.20260453 -0.13921836
000300 ae 5b 1f bc 07 e7 36 3e 95 ba 9a 3e 3c 42 26 be
       -0.009726448 0.17861567 0.30220476 -0.16236204
000310 fa 37 65 be 61 d2 81 3d 07 df 11 3e 59 4c 76 3d
       -0.22384635 0.06338955 0.14245234 0.060131405
000320 39 d7 74 3e 66 f9 0c bb ee 71 ad 3d 24 00 95 bd
       0.23910226 -0.0021510958 0.08468996 -0.072754174
000330 cf 40 da 3d 70 90 42 3e b4 96 c5 be e8 eb a4 bc
       0.106568925 0.19000411 -0.3859154 -0.02013202
000340 6c ae 5f 3e 39 66 96 bd 71 f9 d5 3c 74 35 4a 3e
       0.2184388 -0.07343716 0.02611992 0.19746953
000350 61 57 ca bd dc e9 c0 3c be 39 86 3e 96 6f 3a 3e
       -0.098799475 0.023549013 0.2621593 0.18206629
000360 09 54 db bd 1c 95 ed bd fe 3f ff 3c 6c a5 08 be
       -0.10709388 -0.11600706 0.031158444 -0.13344353
000370 6a bf 2e be 79 9c e3 3d b5 72 10 be 9c 14 8d 3e
       -0.17065206 0.11113829 -0.14106257 0.27554786
000380 4a f8 8f bd 4a cd 37 3e 85 d0 ea 3c 42 a6 b0 bd
       -0.07029779 0.17949405 0.028663883 -0.08625461
000390 b8 d2 73 bd 20 18 ae 3d 3b a8 22 be 3e 75 0a bd
       -0.05952713 0.08500695 -0.15884487 -0.033803217
0003a0 6c 28 9d 3d 6f 64 38 be 69 ac 32 bd a8 d2 50 3e
       0.076737255 -0.18007062 -0.043621454 0.20392859
0003b0 a2 27 81 be f4 22 63 be 37 e0 78 bc 1d bf 43 3e
       -0.2522555 -0.22181302 -0.015190176 0.19115873
0003c0 a9 55 1a be f8 a1 b5 be da 7e 62 bc 61 64 58 3b
       -0.1507174 -0.35475135 -0.013824189 0.0033018815
0003d0 ba 96 f2 3d 1f 9b 60 3e 7d f2 c4 3d 93 b1 76 be
       0.11845155 0.21934174 0.096165635 -0.24091177
0003e0 17 7a d9 3c aa 56 8c 3e 89 3e 55 3e 03 5a 57 be
       0.026547475 0.2740987 0.20824637 -0.2103043
0003f0 a2 bb 91 3e 1a dc 91 3e 58 d7 e4 bc 07 ac 1c be
       0.28463465 0.28488237 -0.027934715 -0.15299998

lstm.weight_hh_l0 f4 [40, 10]
000000 d7 43 9b 3e 7f 79 8e bd 03 be 6d 3e b2 21 80 3d
       0.30325195 -0.06956767 0.23217015 0.06256427
000010 2c ec 79 be 19 60 9e be b7 c8 9d 3e a4 8a e9 3d
       -0.24406499 -0.30932692 0.30817196 0.11403397
000020 8c a7 d5 bd e9 7d e2 3d 59 13 8e 3e f1 d2 5e 3e
       -0.10432348 0.11059172 0.27749136 0.21760155
000030 0b 54 43 be 55 af 24 3e 3a b2 74 3e 53 fd bf 3d
       -0.19075029 0.16082509 0.23896113 0.0937449
000040 34 a1 c1 3d 14 f3 32 3e 55 06 a2 3d 4e 1d e7 bd
       0.09454575 0.1747554 0.07911364 -0.11284886
000050 79 63 a0 be 94 05 a9 3e 3c 3e 6d be 74 5a 3a 3d
       -0.31325892 0.33012068 -0.23168272 0.04549642
000060 95 e5 79 be 97 d6 32 be 2d 79 f8 bd ac 9e e0 bb
       -0.24403985 -0.17464672 -0.121324874 -0.0068548527
000070 83 58 93 be 69 52 18 3d da 2e 2a 3e de c0 1e bd
       -0.28778467 0.037187967 0.16619435 -0.03875815
000080 bc 39 18 3e 8c d5 33 be fd 38 c4 3c c6 81 3b 3e
       0.14865774 -0.1756193 0.023952955 0.18311223
000090 40 ec bf 3d 4b 86 a8 3e 2c e7 c3 39 03 3b 62 3e
       0.09371233 0.32914957 0.00037365535 0.22092824
0000a0 c7 6e 21 3e 06 14 c9 3d 67 fc 58 bd ba db 33 be
       0.15764914 0.09818272 -0.052975085 -0.17564288
0000b0 b3 3e 42 3e 9b ce 37 be df 7e a3 bd ec 0d 0d 3e
       0.1896923 -0.17949907 -0.07983183 0.13774842
0000c0 60 0a 96 bc 32 7e 24 bc 0f 1d 90 be dc 3d 0d 3e
       -0.018315494 -0.010039853 -0.2814717 0.13793129
0000d0 69 da 05 3e a8 8a 3a be c8 35 40 3e 1f 61 87 3e
       0.13071598 -0.18216956 0.18770516 0.26441285
0000e0 02 69 c1 3c bb 62 b3 3d 45 b1 87 3e 6e b9 51 3e
       0.023609642 0.08759066 0.26502433 0.20480892
0000f0 ee 60 49 3e 7c 49 a2 be 37 61 2b 3d a0 5b 8e be
       0.19665882 -0.3169669 0.04184076 -0.2780428
000100 02 f9 94 be f5 84 24 bd e6 8c 66 bd 11 32 1c 3e
       -0.29096228 -0.04016586 -0.056286715 0.15253474
000110 c2 5d 4e 3e 24 ef 20 be 3b 70 c5 3d 3f 68 88 3e
       0.20152953 -0.15716225 0.09640547 0.26642033
000120 82 97 9f 3d 76 49 35 3e 3c 66 3e be f1 48 55 3e
       0.0779257 0.17703804 -0.18593687 0.20828606
000130 1d 98 45 3d ef 36 8c b9 2b 55 c3 3c fa 9b d3 bd
       0.04824077 -0.0002674381 0.023844322 -0.103324845
000140 e6 98 0f be c4 c4 70 3e 31 01 71 3e 77 b6 ca bc
       -0.1402317 0.2351256 0.2353561 -0.02474521
000150 d6 a1 b4 3d f7 d3 8e be 32 4d cb bc ba ca 81 3e
       0.0881993 -0.2789609 -0.024817083 0.2534998
000160 39 a0 86 3e ec 9e 34 3e 52 db 7e be fd 0a eb 3d
       0.26294115 0.17638749 -0.24888352 0.11476705
000170 0c ac 0f 3e b0 5d 0e 3e 8d f4 9e be 6c 16 0f 3c
       0.14030474 0.13902926 -0.31045952 0.008733373
000180 6c e5 3a 3e 6e 53 9c 3d 3f b1 68 3e fd 1c a7 3d
       0.1825158 0.076331005 0.22723864 0.08159826
000190 38 9a d1 bd 74 9d 6a 3d e4 b1 8e be 28 d2 8d 3e
       -0.10234493 0.057279065 -0.27870095 0.276994
0001a0 fd 13 c8 bd 50 c8 cf bd 15 b8 7d be fe 5d 61 3e
       -0.097694375 -0.101456285 -0.24777253 0.22008511
0001b0 fb 03 59 3c 79 45 b3 3d 40 18 94 bd eb fe 1e be
       0.013245578 0.08753485 -0.07231188 -0.15526931
0001c0 16 15 7d be 68 54 c6 bb b1 91 2d 3e 4f bc 84 3d
       -0.24715075 -0.0060525425 0.16950108 0.064812295
0001d0 e9 03 4a be 6f 68 36 3e 6a 90 a7 3d 82 3b 8b 3e
       -0.19728054 0.17813276 0.08181842 0.27193838
0001e0 cd 85 0c 3e bd a9 03 3d b4 82 77 3d 20 00 6c 3e
       0.13722916 0.032144297 0.060427383 0.23046923
0001f0 5c 64 b5 be 21 21 b8 3d 3d f8 2d 3e d7 49 f8 3c
       -0.3542813 0.08990694 0.16989227 0.030308647
000200 e6 98 55 bd c0 6f fe 3d bf b7 df 3d 6c bc 5a 3e
       -0.05214777 0.12423658 0.10923719 0.2136094
000210 28 e9 aa 3e e8 65 53 3d a5 2d 8b 3e f7 b3 09 be
       0.3338101 0.051610857 0.27183262 -0.13447557
000220 3e d5 8c be 5a 9c 6a 3e 78 df 63 3e 15 6d da 3d
       -0.2750644 0.22911206 0.22253215 0.10665337
000230 12 f1 21 be a6 29 3f 3e 1c f0 82 be 8e 7b 8d bd
       -0.15814617 0.18668231 -0.25573814 -0.06908332
000240 8d 5d f0 bd 4a f9 e2 3d 6c 53 81 be c6 ae 3a 3e
       -0.117365934 0.11082704 -0.25258958 0.18230733
000250 71 ac 4e be 45 e9 1a 3e e9 92 03 3c 8b c3 c2 3d
       -0.20182969 0.15128048 0.008030632 0.09509953
000260 a0 60 a3 3d 70 dd a3 bd e4 68 8f be b9 34 43 be
       0.07977414 -0.0800122 -0.28009713 -0.19063081
000270 89 ba 57 be 4c 46 48 be 95 6f 86 3e 0c 63 93 be
       -0.21067251 -0.19558066 0.26257005 -0.28786504
000280 02 7a 8d bd 1a d6 a0 be 24 91 8d bd de c8 98 3e
       -0.06908037 -0.31413347 -0.06912449 0.2984075
000290 6a b2 ff bc c4 ec 03 3c 5f dd 97 3d 80 11 ea 3b
       -0.031213004 0.008052055 0.0741527 0.0071431994
0002a0 c9 68 92 be 22 59 7b 3e 17 74 c6 3d a0 f8 2f 3e
       -0.2859557 0.2454572 0.09690111 0.17184687
0002b0 58 6c 37 be 86 9c 37 3e 2c 40 b7 bd cd 97 92 3e
       -0.17912424 0.17930803 -0.08947787 0.2863144
0002c0 9b 74 84 3d b4 b8 d9 bd 48 95 69 bb 8e da 83 3e
       0.06467553 -0.106309325 -0.0035641957 0.25752681
0002d0 23 83 2c bd 21 40 65 bd d5 83 12 3d 4b e1 3b 3e
       -0.04211725 -0.05596936 0.035770256 0.18347661
0002e0 c4 69 25 be 0c 85 28 3e 84 06 1e 3e fe da 27 be
       -0.16153628 0.16457003 0.15432173 -0.16392133
0002f0 78 d6 a9 be 16 c4 4d 3d 90 1c 63 be 8a 9c 97 be
       -0.3317144 0.05023583 -0.22178864 -0.29611617
000300 ad e4 a1 3e 6a 56 4d 3e 80 22 a5 be 71 a4 93 3e
       0.31619778 0.20052496 -0.32252884 0.28836396
000310 aa 9e 84 3b af 47 a1 bd be 9a 35 be 27 5e 63 3e
       0.0040472345 -0.07875001 -0.1773481 0.22203885
000320 40 71 a5 3d 57 19 a4 3c 1c fb 92 3c 85 0d b6 bd
       0.08078241 0.020031614 0.017942004 -0.088892974
000330 e8 88 61 be b5 20 81 be 9c ab 00 3e a0 89 99 3e
       -0.22024882 -0.25220266 0.12565464 0.29987812
000340 31 bf 5f 3e 48 5a 94 3e ab 79 02 be b0 55 f3 bd
       0.21850277 0.2897513 -0.12741725 -0.11881578
000350 ff 90 37 be f7 8c 08 3e 25 69 8b 3e 04 70 05 be
       -0.17926405 0.13335024 0.27228656 -0.13031012
000360 b5 b5 95 be 64 63 86 3e 3d e1 0a be cb 17 8c be
       -0.29240194 0.26247704 -0.13562484 -0.27361903
000370 9e 02 7b 3e 4e 2d 14 be d2 25 c7 3d d7 7a 91 3d
       0.24512717 -0.14470407 0.097240105 0.07103508
000380 77 a8 da bc fb f1 40 3e 0a fa ae be e9 b8 1e 3e
       -0.026691658 0.18842308 -0.3417514 0.15500225
000390 ad df a9 be 7b 17 a3 be b5 44 5c 3e ec c6 b6 bd
       -0.33178464 -0.31853852 0.21510585 -0.0892466
0003a0 46 de e1 bd 16 0f 8d 3e 16 7b 8b 3e 80 44 f2 bc
       -0.110287234 0.27550572 0.27242345 -0.029573679
0003b0 4f 88 80 be 70 a0 fc bd c9 f8 85 be d1 7a 7d 3d
       -0.25103995 -0.123352885 -0.2616637 0.061884705
0003c0 e9 51 d6 bd 90 69 f9 bd c4 61 9d 3e 39 2f 1c 3e
       -0.10464842 -0.121783376 0.30738652 0.15252389
0003d0 5b 40 2e bc cf e5 9d 3e 38 c3 13 be 3f 33 65 3e
       -0.010635461 0.30839393 -0.14429939 0.2238283
0003e0 a1 e4 91 3e bd 9e d6 3d c5 be 64 3c c2 bb d9 3d
       0.28494743 0.10479496 0.013961499 0.10631515
0003f0 bf b1 39 be 5c f2 9e 3e 03 61 12 be 97 3f 25 3e
       -0.18134211 0.3104428 -0.1429482 0.16137539

lstm.bias_ih_l0 f4 [40]
000000 6f 07 46 be 06 f7 3c 3e 17 9c 7f be 24 a7 8d be
       -0.19338773 0.18453607 -0.24961887 -0.2766658
000010 49 28 2b be fd c5 ae 3d a3 99 63 be 4a 41 f7 3c
       -0.16714586 0.08533857 -0.22226577 0.0301825
000020 2d c4 89 be 7c 5f 27 bc d4 36 d5 bd 4c 1c 9c 3e
       -0.26907483 -0.010215636 -0.10410848 0.3049034
000030 6b a0 26 be c4 27 80 be 1c 63 d2 3d e8 28 74 3d
       -0.16272132 -0.2503034 0.1027281 0.059609324
000040 45 45 97 be e9 f7 90 3d a3 58 87 3e f5 dd 06 3e
       -0.29545036 0.07078535 0.26434812 0.13170607
000050 46 ad 7a 3e da 72 89 3c a4 58 59 3e 9c fb 80 3d
       0.24480161 0.016778398 0.2122522 0.06297991
000060 00 f8 20 be 44 00 5c 3e 1b 3f 63 be 45 89 00 be
       -0.15719604 0.21484476 -0.22192042 -0.12552364
000070 f4 a2 9f be 2e 19 9a be be f7 1a be 9a 6a 07 3e
       -0.3117901 -0.30097336 -0.15133569 0.13224259
000080 f0 e7 bd bd 0e 2a 58 3e 41 a6 64 be d7 47 03 bd
       -0.09272754 0.21109793 -0.22329046 -0.032050934
000090 58 a9 46 3e 2a af 82 be 53 28 9b 3e 63 3b 55 3c
       0.19400537 -0.25524265 0.30304202 0.013014647

lstm.bias_hh_l0 f4 [40]
000000 b0 6e 04 3e b3 2a d3 3c 54 c0 28 bb 98 d9 59 3e
       0.12932849 0.025777197 -0.0025749402 0.21274412
000010 4d f2 27 be f1 c3 81 3e 77 50 d9 bd d5 2b 16 3e
       -0.16401024 0.25344804 -0.106110506 0.14665158
000020 ba e6 00 3e 63 74 9d bc 07 88 91 3e d1 d6 6c 3e
       0.12588015 -0.019220537 0.28424093 0.23128821
000030 85 15 88 be ef 46 7c 3e 4e 7a 61 3e 8d ff 82 3d
       -0.26578918 0.24636434 0.22019312 0.06396399
000040 db 74 97 be 33 ec dc bd 7b b2 5d be cc f8 e0 3d
       -0.2958134 -0.10787239 -0.21650116 0.10984954
000050 f2 df 8f be 38 fd 9a 3e 70 79 30 3e af 4b 3f bd
       -0.28100544 0.30271316 0.17233825 -0.046703037
000060 76 56 11 3e 33 bd 8b 3e 2a 5d 7a 3e e0 1e 53 be
       0.14193138 0.27292785 0.24449602 -0.20617247
000070 09 6b 5d 3e 3d fe 08 3e 61 f6 59 3e 5a 4e e7 bc
       0.21622862 0.13378234 0.21285392 -0.028235603
000080 c6 dd 83 3e 2a 96 21 3e c8 f2 24 3e f9 55 82 be
       0.25755137 0.1577994 0.16108239 -0.25456217
000090 34 41 2e be 32 b5 6b 3e af 1d 30 be b4 84 51 be
       -0.1701706 0.2301834 -0.17198823 -0.20460778

lstm.weight_ih_l1 f4 [40, 10]
000000 65 54 e0 bc fe f2 6f 3e 6e ec 09 be 3b f6 86 3e
       -0.027383992 0.23432538 -0.13469097 0.26359734
000010 36 06 51 3e 72 93 fa 3d 9e ff d1 bc 73 99 70 bc
       0.20412526 0.12235154 -0.025634583 -0.014685023
000020 ef 40 61 be de c5 6e be 03 a0 8b bd cc a7 76 be
       -0.21997426 -0.23317668 -0.06817629 -0.24087447
000030 c2 de a3 bd dc 95 c8 3d 18 d3 6e be 35 ee 09 be
       -0.08001472 0.097942084 -0.23322713 -0.13469775
000040 c0 df 31 3d d1 3a 96 3d f6 44 51 be e6 aa 71 3e
       0.043426275 0.07335437 -0.20436463 0.23600349
000050 93 07 8e 3e 5d 4c 00 3e ce 05 80 3e 1c 58 69 be
       0.27740154 0.1252913 0.2500443 -0.22787517
000060 13 39 32 3d b2 6b 1f 3e f2 ab 6b bd 16 69 85 3e
       0.04351146 0.15568426 -0.057537027 0.26056737
000070 41 cd 99 3e 53 b2 35 bd ab 8a 85 be 41 f8 51 3e
       0.3003941 -0.044359516 -0.26082358 0.20504858
000080 ad bf 68 be c7 48 01 3e 9a 00 99 be 58 95 0b 3e
       -0.22729369 0.12625419 -0.2988327 0.13631189
000090 3c e8 5c 3d 6f 3a 93 be e2 43 fe bd 8a a1 84 3e
       0.053932413 -0.2875552 -0.12415291 0.25904495
0000a0 ed 62 96 bd 7c 6f 48 3e 7c b2 6e be 84 1d 33 be
       -0.07343087 0.19573778 -0.23310274 -0.17491728
0000b0 7a d8 88 be b7 d8 00 3e bb 58 d8 3c da 89 76 3e
       -0.2672766 0.1258267 0.026409497 0.24076024
0000c0 45 5a 98 bb 46 29 30 3d ef 55 a5 3e f4 bc 9d 3c
       -0.004649433 0.04300811 0.32292125 0.019255139
0000d0 27 4b 47 3d 9a 0e 86 3e ae c6 95 3e 5d 76 5e be
       0.048655655 0.26183015 0.29253143 -0.2172484
0000e0 92 12 ba 3d 53 21 ac bd 05 88 36 be fe bf 23 bc
       0.09085573 -0.084047936 -0.17825325 -0.009994505
0000f0 17 58 9c 3d 75 ba 59 be dc 6b 0d 3e 7d ef 93 be
       0.07633989 -0.21262534 0.13810676 -0.28893653
000100 9a 82 61 bc 36 db 4c be 7c 01 83 3d 39 b6 3b 3e
       -0.013764048 -0.20005497 0.063967675 0.18331231
000110 52 4b 34 be 75 0a 0a be bc e7 27 bd 57 99 02 be
       -0.17606857 -0.13480552 -0.040992483 -0.12753807
000120 f1 a9 80 be dc ee 13 3e b9 52 92 3e b5 4c 08 be
       -0.25129655 0.14446586 0.28578737 -0.13310511
000130 40 a4 95 3d 03 3a e0 bc d9 74 31 3e fd 06 84 3e
       0.07306719 -0.027371412 0.1732973 0.25786582
000140 90 ce ff 3c a3 df 93 3e dd 66 11 3e e0 de b3 3e
       0.031226426 0.2888156 0.14199395 0.35130978
000150 fa c9 8b bd b4 1d 44 be 37 bf 53 bd 04 e6 a3 3e
       -0.06825633 -0.19151956 -0.05169603 0.32011425
000160 1b 1b 13 be 25 6a 88 3e 21 f5 84 3e 16 65 83 be
       -0.14365809 0.26643482 0.2596827 -0.2566306
000170 d3 a2 87 3e 10 1b 72 3d 25 b5 14 3e 5b 53 53 3d
       0.26491413 0.05910784 0.14522226 0.051593166
000180 e0 27 55 3e 25 11 4e be a6 c9 7a be 39 4b 18 3d
       0.20815992 -0.20123728 -0.24490985 0.037181113
000190 d2 f5 e9 3b 19 2f a6 be 16 a5 c0 bc cf 32 8a 3b
       0.0071399 -0.32457808 -0.02351622 0.0042174826
0001a0 e0 3c 9b bd e7 0a 16 be 04 ba f7 bd 25 cb 9d 3e
       -0.0757997 -0.14652596 -0.120960265 0.3081905
0001b0 c1 f8 8d be a0 2d 98 be a6 6c 58 bd da 4f 31 3e
       -0.27728847 -0.2972231 -0.05283799 0.17315617
0001c0 12 17 36 3c 1f 7b 0f be 35 0c a6 3e 1f 64 1f bd
       0.011113899 -0.1401181 0.32431188 -0.038913842
0001d0 e6 6e 70 bc 6a ba 55 be 26 a3 0a 3e 68 bb 66 be
       -0.014674878 -0.20871893 0.13538799 -0.22532427
0001e0 78 ec ad 3e 30 84 e7 bc 20 8b b5 bd 13 9c 19 be
       0.33969474 -0.028261274 -0.088644266 -0.15000944
0001f0 27 1c 90 3e 6a 1d 3b b9 1b 6f 6e be da c8 48 be
       0.2814648 -0.00017844667 -0.23284571 -0.19607869
000200 aa 62 22 bd 78 21 77 3e d1 08 82 be 81 2c 66 3e
       -0.039644875 0.24133861 -0.2539735 0.22477914
000210 92 72 a8 3d 8a 40 99 3e 5c 54 4f bd a4 06 98 3e
       0.082249776 0.29932052 -0.05061756 0.29692566
000220 ed 8d 8d 3e 03 f4 81 be 26 79 1c be 65 5c 0d be
       0.27647343 -0.2538148 -0.1528059 -0.13804777
000230 a4 27 2c 3a cc e0 5b 3d b1 37 5a be 8d 7f 55 3e
       0.0006567186 0.05368118 -0.21310307 0.20849438
000240 91 3a 21 be 4a b1 96 be f2 cd 6e be 12 cd 8a 3e
       -0.15744998 -0.29432136 -0.2332075 0.2710958
000250 fd 34 35 3e 1d 7d 48 3e 44 82 3c 3e e0 df 5b be
       0.17695995 0.19578977 0.18409067 -0.2147212
000260 b4 44 d9 bd 35 14 31 bd 14 7e 41 be 37 9a 55 bc
       -0.10608807 -0.04323216 -0.18895751 -0.013037256
000270 92 5e 95 bd d0 4b a7 3c 4b 2f 0d be 17 a8 13 bd
       -0.072934285 0.020421892 -0.13787572 -0.036048975
000280 9a 53 ea 3d 93 33 36 3e 2f 3a b2 3c 1d ae c2 3d
       0.11441727 0.17793112 0.02175626 0.09505866
000290 a6 b6 1b 3e 39 2a d3 bd d2 1d 60 3e 08 f1 5f 3e
       0.15206394 -0.10310788 0.21886376 0.2186929
0002a0 4c 85 49 be 78 f7 ae bc e3 1e 05 3e 2d fb 58 be
       -0.19679755 -0.021358237 0.13000064 -0.21189566
0002b0 6a db f1 3d c7 b8 8a be 09 9e c8 3d fa fe 50 be
       0.11809428 -0.270941 0.09795768 -0.20409766
0002c0 dc 63 2a 3e 86 7e 82 3d 80 6b b9 bd 26 d6 9a 3d
       0.16639656 0.06371789 -0.09053707 0.07560377
0002d0 39 51 8b bc ee ef 4b 3d be 72 c0 bd 66 d2 45 3e
       -0.017006503 0.04978936 -0.09396885 0.19318542
0002e0 72 25 2d 3e 51 ee 1e be 99 04 36 3d 1e 6e a6 bd
       0.16908816 -0.15520598 0.04443798 -0.08126472
0002f0 0d a6 fb bd ce f7 55 bc 9f 6c 3e 3e 5e 0f 4f 3d
       -0.12287531 -0.0130595695 0.18596123 0.050551765
000300 4e 97 84 3e 83 7d 80 3e ec 95 92 bd 70 a7 fc 3d
       0.25896686 0.25095758 -0.071575016 0.12336624
000310 d6 bf a3 3e e5 57 c2 bd 84 7c 8d be 7c 1f 6b be
       0.31982297 -0.09489421 -0.2763406 -0.22961229
000320 b4 c4 99 be 0c 9b f5 3b 44 b2 05 bd 9a dd 4e 3e
       -0.30032885 0.0074952897 -0.03264071 0.20201722
000330 6c 0e 15 be fa bb 2f be 27 75 a2 bd db cc 70 be
       -0.14556283 -0.17161551 -0.07932501 -0.23515646
000340 94 28 11 3e d0 2c 4e 3e 7a b9 e0 bd 64 0c 1c 3d
       0.14175636 0.20134282 -0.10972877 0.038097754
000350 32 cf ca bd 3d e2 57 3e 5a 7e 14 3d ee 87 65 3e
       -0.099028006 0.21082397 0.03625331 0.22415134
000360 c2 b4 76 3d b8 73 58 be c4 53 b7 bd 7c 6a 36 3e
       0.060230978 -0.21137893 -0.08951524 0.17814058
000370 db b6 eb 3c bc cf 28 be 34 5c 07 be 29 bc d3 3c
       0.028773716 -0.16485494 -0.13218766 0.025846558
000380 be 5a 54 be f6 5a bc 3d 40 38 cd 3d d4 5d 66 be
       -0.2073774 0.09197037 0.100204945 -0.2249673
000390 04 3b 89 3d 81 c6 7f 3e 81 3e c1 3d 63 9d 84 3e
       0.067007095 0.24978067 0.0943575 0.25901327
0003a0 e5 b6 8d 3d 28 fb a8 bd 2a b2 d4 3c 49 1a 20 be
       0.0691965 -0.08251029 0.025963861 -0.15635027
0003b0 5c c1 55 be b9 07 93 bd c4 d6 9c 3e e3 8d 8d 3e
       -0.20874542 -0.07179207 0.30632603 0.27647313
0003c0 58 7f 0c 3c 4e b6 d7 bc 08 8f 47 be 2c cb 02 be
       0.008575283 -0.026332047 -0.19488156 -0.12772816
0003d0 51 a3 e4 3d 1d 9d 64 3e 18 bb c8 3d 04 ca bb bc
       0.11163963 0.22325559 0.0980131 -0.022923477
0003e0 2a 67 9d 3e 89 25 2d 3e c9 fb e1 bc 1d 50 a6 3e
       0.3074277 0.1690885 -0.02758588 0.32482997
0003f0 a7 28 ac 3d e9 63 8f 3e 6d 22 04 3d 93 bf d9 bd
       0.08406191 0.28005913 0.032259393 -0.10632243

lstm.weight_hh_l1 f4 [40, 10]
000000 9b 6f 5b be bd cf d2 3d fc 34 84 be ea ee 98 be
       -0.21429293 0.10293529 -0.25821674 -0.29869777
000010 cc 00 36 3e ce 71 1c 3e b0 2b 44 be 0c 78 67 bd
       0.17773741 0.15277788 -0.1915729 -0.05651097
000020 c3 9f 64 be 78 28 1d 3e 2f 65 7d bc 29 e2 45 3e
       -0.2232657 0.15347469 -0.015466019 0.19324555
000030 84 a6 22 be 0b 27 81 be f4 cb a5 be 3d cd 3f be
       -0.15883833 -0.252251 -0.32382166 -0.18730636
000040 cc 39 3e be dd 5d 30 be 41 72 74 3e 08 1e 49 be
       -0.18576735 -0.17223306 0.2387171 -0.19640362
000050 a4 84 eb 3d 8d ea 3b be 82 49 2f 3e f2 2f 8a 3e
       0.114999086 -0.18351193 0.17117885 0.26989704
000060 d7 bd 2c be 1a 12 6b 3e 68 5c 96 be cf 9f b7 3d
       -0.16869293 0.22956124 -0.29367375 0.08966028
000070 47 95 9f 3e 76 74 1e 3d 19 1a 88 be ec 37 6f 3e
       0.31168577 0.038685285 -0.2658241 0.23361176
000080 97 52 d4 bc 8d 14 04 be 7f c7 40 be f4 ca 15 3c
       -0.025918288 -0.12898465 -0.18826102 0.009142626
000090 17 95 87 3c fa 4d 95 3d 4d 65 15 3e f4 b7 3e 3e
       0.016550584 0.072902635 0.14589424 0.1862486
0000a0 ac 5a 4a bd ef 2a 0a 3e 4b 7d c2 3d 0d a2 f3 bb
       -0.049402878 0.1349294 0.09496554 -0.0074350894
0000b0 00 00 c0 bd 43 42 4c 3e a0 59 e2 bc 63 44 a7 be
       -0.09375 0.19947152 -0.027630627 -0.32669362
0000c0 e4 dc a6 be b4 3c 1c 3e 70 19 5e be 51 f9 26 3e
       -0.325904 0.15257531 -0.21689391 0.16306044
0000d0 a8 54 bf bd 32 37 8d be 7b 94 51 be 14 a3 6b be
       -0.09342319 -0.27581173 -0.20466797 -0.23011428
0000e0 0c 4f a0 3d 61 18 6b 3e cd c7 3e be fe 35 0f be
       0.07827577 0.22958519 -0.18630905 -0.1398544
0000f0 ae 7b 7c 3e 2a 4d d7 bd 1f a1 30 be 91 2d 57 be
       0.24656555 -0.10512765 -0.17248963 -0.21013476
000100 83 86 29 be 7e 2f 91 3e 67 07 e9 3d 28 1a 43 be
       -0.16555218 0.28356546 0.11378365 -0.19052947
000110 81 b2 6c bc e9 7c 8e 3e 87 63 29 3e c7 b8 9a 3d
       -0.0144468555 0.27829674 0.16541873 0.07554775
000120 d8 00 20 3d 95 27 af 3d 80 1e a3 be 11 4f c6 3d
       0.039063305 0.085524715 -0.31859207 0.096830495
000130 40 fe 92 3d 6f 91 2b be f0 eb 90 be df 08 fe 3c
       0.071774006 -0.16754697 -0.28305006 0.03101009
000140 80 6e c9 3d da 7e 44 3e 38 fc 67 3d 72 8f f8 3d
       0.09835529 0.19189015 0.05663702 0.12136735
000150 19 69 a7 bd cf 40 0a be 32 a4 0e 3e 43 44 88 bd
       -0.08174343 -0.13501285 0.13929823 -0.06653645
000160 22 1b 48 3e 08 2c 26 3e 28 19 8d 3e f7 1f ad bd
       0.195416 0.16227734 0.27558255 -0.084533624
000170 4e 0a 55 3e 5f 23 9b bc 67 14 89 3e 19 88 c1 3d
       0.20804712 -0.018937765 0.26773378 0.09449787
000180 17 e2 91 3d 1c 30 85 3d 2b 73 a5 bd 21 86 94 bd
       0.07123201 0.06503317 -0.08078607 -0.072521456
000190 5d 45 98 3e 20 36 08 be 4d b7 52 3e c6 b9 1b bd
       0.2974042 -0.13301897 0.20577736 -0.038018964
0001a0 f9 06 54 3c fc a0 19 3e a2 82 92 bd 16 85 32 be
       0.012941116 0.15002817 -0.071538225 -0.17433581
0001b0 46 b3 55 3e 1a 83 19 bd 78 eb e7 3d 40 d4 f2 bd
       0.20869169 -0.037478544 0.11324209 -0.1185689
0001c0 d9 8d e4 3d 35 91 4d 3e e3 9e e1 bd 3d 01 32 3e
       0.11159868 0.20074923 -0.11016633 0.17383285
0001d0 d6 de 89 bd f0 ee 78 be 8e e8 88 be c8 b0 b8 bd
       -0.06731956 -0.24309897 -0.26739925 -0.09018093
0001e0 18 d1 78 be fe 14 01 be 50 42 4a be ab d1 e3 3d
       -0.24298513 -0.12605664 -0.19751859 0.11123975
0001f0 eb 79 1f 3e 9e 40 b2 3e 31 d3 82 3e f4 70 60 3d
       0.15573852 0.34814924 0.2555175 0.05479522
000200 25 71 2a be 64 5a 9b be c1 ba 6d 3d 84 9c f2 3d
       -0.16644724 -0.303424 0.05803943 0.11846259
000210 7f 4b 1d be 3e b9 91 3e 4f d0 97 3e 27 f6 8b 3e
       -0.1536083 0.2846164 0.29651114 0.27336237
000220 a5 f1 94 3d 76 7f 34 be 46 f4 4c be c6 ed 7e bc
       0.072726525 -0.17626747 -0.20015058 -0.015559619
000230 e1 e4 b6 3d 8c dd 45 be 78 25 58 be 64 40 c6 3c
       0.08930374 -0.19322795 -0.21108043 0.024200626
000240 11 a6 10 be 37 a7 ae 3e 55 2a e0 3d c2 4b b0 bc
       -0.1412585 0.3411195 0.10945574 -0.0215205
000250 31 01 b3 3c 54 fb 63 be c1 e0 91 be 12 4b 61 3e
       0.021851154 -0.22263843 -0.28491786 0.22001293
000260 6d 8c d0 bd f6 94 35 be 2a 2c 8a 3e 90 92 e1 bd
       -0.10183034 -0.17732605 0.2698682 -0.11014283
000270 e3 98 68 3e 5f 3c 87 bd 27 05 73 3e 8d 96 f8 ba
       0.22714572 -0.06603312 0.23732434 -0.0018965766
000280 26 58 44 be e8 a4 9e 3c 6b 26 82 3e 0c 9c 06 be
       -0.19174251 0.019365743 0.25419936 -0.13145465
000290 7c 43 ba be 72 af af 3e e9 df db 3d 09 68 ae be
       -0.36379611 0.34313542 0.10736067 -0.34063748
0002a0 05 fa e5 3d 58 7d 92 be ae c7 c1 3b d4 11 7a 3e
       0.11229328 -0.28611255 0.0059136963 0.24420863
0002b0 d3 2b 5f 3e 0a e1 4b be 2e a6 82 be bf 15 62 be
       0.21794061 -0.19910064 -0.2551741 -0.22078608
0002c0 f7 38 59 3d 93 10 69 3e 04 d3 3a 3e 66 96 6d be
       0.05303284 0.22760229 0.18244559 -0.23201904
0002d0 1b 50 a5 3e 9b 45 f2 3a 43 31 8d be bf 35 a1 3d
       0.32287678 0.0018483879 -0.27576646 0.078715794
0002e0 70 11 74 bc 0f d9 80 be cd 8d 62 3e 9d 53 df bd
       -0.014896736 -0.25165603 0.22124405 -0.1090462
0002f0 c9 03 55 be fe cf b2 3d 8d 3b a9 be 7c 11 09 be
       -0.20802225 0.087310776 -0.33053246 -0.13385576
000300 db db ca 3d 14 8b 9d 3c 9d 71 88 bb 5e c5 84 be
       0.09905215 0.019231357 -0.0041639344 -0.2593183
000310 50 e0 0b be 23 c3 bb bd 88 5f 41 be fd fe 87 bc
       -0.13659787 -0.09168079 -0.18884099 -0.01660108
000320 27 dc 8f be 19 c2 72 3e 3c 26 78 3e 16 c5 4a 3d
       -0.2809765 0.23706855 0.24233335 0.049504362
000330 05 29 56 3c 5e 5f 45 bd e7 db 85 3e e5 ea 5c be
       0.013071303 -0.048186652 0.26144335 -0.2157398
000340 72 f5 8e be 02 b0 ac bd 37 7e fb 3d 5a 98 ca bd
       -0.27921635 -0.08432008 0.12279933 -0.0989234
000350 58 79 8c be ad ff 3f be cb 06 6d be 1b 3f 90 be
       -0.27436328 -0.18749876 -0.23147123 -0.28173146
000360 d0 a4 7b 3e a1 27 42 be e7 b7 31 bc d4 d4 9d 3e
       0.2457459 -0.1896043 -0.010847068 0.30826437
000370 9a 77 ed bd f7 99 fe bd 23 2b 97 3c 4c ff 32 bc
       -0.11595078 -0.1243171 0.018453186 -0.010925125
000380 9a a8 62 3e 03 81 fc bd 86 e7 95 be 25 46 3b be
       0.22134629 -0.123292945 -0.292782 -0.18288477
000390 4a ac 12 be 6f 44 2d be fb 32 16 3e 80 86 19 3e
       -0.14323536 -0.16920637 0.14667885 0.14992714
0003a0 f3 86 8a 3e cc 19 61 3e 89 60 3b 3e 70 32 94 be
       0.27056083 0.21982497 0.18298544 -0.2894473
0003b0 4d 6d 8f 3e a4 31 99 be c1 d5 96 be 14 73 05 be
       0.28013077 -0.29920685 -0.29459956 -0.1303218
0003c0 f3 be 99 3c 64 b3 e2 3d 58 1d e7 3a 59 5d a7 3e
       0.01876781 0.11069372 0.0017632646 0.32688406
0003d0 7e 51 1c 3d 3d 47 36 be a8 6b 7f 3e 05 3a 6f be
       0.038163655 -0.17800613 0.24943411 -0.23361976
0003e0 02 e1 50 3e 57 fa 05 3e 7b 0b 92 be 49 b0 72 be
       0.20398334 0.13083778 -0.28524384 -0.2370006
0003f0 34 c7 da bc 04 ed a7 3c c8 c6 4b be e6 ba 81 bd
       -0.026706316 0.02049876 -0.19900048 -0.06334476

lstm.bias_ih_l1 f4 [40]
000000 e3 f4 4a 3d 4e 3b bc bd 70 07 8b 3e 53 95 a3 be
       0.04954995 -0.09190999 0.27154112 -0.31949863
000010 b1 a6 87 3e a8 7a 1a bd d8 ed 3b 3e d1 16 1c be
       0.26494363 -0.03771463 0.18352449 -0.15243079
000020 b9 1d 78 be 2a 8b 45 be 1a d9 8f 3e 30 69 8a 3d
       -0.24230088 -0.19291368 0.28095323 0.06758344
000030 45 90 15 3e 4f cc 63 be cf f8 b7 3d 78 6e 1a be
       0.14605816 -0.22245906 0.08983003 -0.15081203
000040 83 2a af be 31 97 24 3d 53 01 9e bd b0 65 9f bd
       -0.3421212 0.04018325 -0.07715096 -0.07783067
000050 c7 ff ad 3d be 39 09 be cb 9f be bd 64 69 4a 3e
       0.08496051 -0.13400933 -0.09307822 0.19766766
000060 90 94 8c 3e 05 f6 7c be b2 9e 4b 3e 86 de 44 3e
       0.27457094 -0.24703224 0.19884756 0.19225511
000070 d2 2a 5b bd b6 7e 8d be 08 38 23 3e 45 00 57 3e
       -0.053507634 -0.27635735 0.15939343 0.20996197
000080 7b d4 b3 3c ba da a5 bc 14 b4 22 3e 3a 03 f2 3c
       0.021951905 -0.020245899 0.15889007 0.029542554
000090 ab 5c 9e be f8 3a 90 be a2 d7 94 3e e9 d4 3a 3d
       -0.30930075 -0.2816999 0.29070765 0.045613203

lstm.bias_hh_l1 f4 [40]
000000 6b 0e 9f 3d 9a 7a bb 3c 67 58 b9 3d 94 52 68 3d
       0.07766422 0.02288561 0.090500645 0.056719378
000010 69 1d 19 3c d5 39 ab 3d 75 0a 4e bd 30 54 92 3e
       0.009345391 0.0836064 -0.05030294 0.28579855
000020 7e 16 7d be 62 4f 0b 3d 80 9f 25 3c 18 ca 8a 3e
       -0.24715611 0.034011252 0.010108829 0.2710731
000030 c0 c4 8d 3e 62 7d 9b 3d d1 2e 66 3e ba 50 49 be
       0.2768917 0.07592274 0.22478797 -0.19659701
000040 9c 51 52 3e e2 b3 03 be c6 b4 78 be 23 bb fc bc
       0.20538944 -0.12861589 -0.2428771 -0.030850952
000050 7e 5b 46 bd c1 31 3e be f7 44 13 3e 7d 97 41 be
       -0.048427097 -0.18573667 0.14381777 -0.18905444
000060 75 94 8d 3e 64 aa 6e be 39 20 87 3d b1 26 23 3e
       0.27652326 -0.23307186 0.06597943 0.15932728
000070 ec 77 0e bd 74 92 5d 3e 73 f4 98 be f1 44 b7 3d
       -0.034782335 0.21637899 -0.29874 0.089486964
000080 82 57 df 3b 06 b9 95 3e 63 31 e6 3d ca 21 b1 be
       0.0068158517 0.29242724 0.112398885 -0.34596092
000090 30 0e 3a be c8 fd 23 3e 21 2f 9d 3e 35 61 1b bd
       -0.18169475 0.16014779 0.3070002 -0.0379345

fc.weight f4 [6, 4800]
000000 f9 b9 24 bc ec 7f e6 ba 9e 2e b6 3b d5 a0 96 38
       -0.010054105 -0.0017585731 0.0055597564 7.182515e-05
000010 6f 77 45 3b 13 43 09 3c 52 bf 7b bb 74 25 57 bc
       0.0030131002 0.008377808 -0.0038413596 -0.013131488
000020 06 ef 26 3c 71 6f 02 bd 4a f7 d6 ba 16 ad b4 bb
       0.010188824 -0.03184456 -0.0016400602 -0.0055137975
000030 60 7b f7 3b 25 65 0b bb ee f2 a8 38 b0 c3 34 bb
       0.0075525492 -0.0021270004 8.0561134e-05 -0.002758246
000040 23 e3 22 bc 8a 3f d3 3b da f8 92 bc b3 1b cd bc
       -0.009941849 0.0064467834 -0.017940927 -0.025037622
000050 ea cc 02 bb 1b 5e ee 39 fe c0 9a bb ac 24 9a 3c
       -0.0019958564 0.00045465011 -0.0047227135 0.018816315
000060 0d 51 18 3c 23 d6 18 3c 50 35 31 bb 16 29 1a 3c
       0.009296668 0.009328398 -0.0027039833 0.00940921
000070 59 b3 f4 bb c5 0e a5 bc ee 7f 91 bc 4f 64 de 3b
       -0.007467669 -0.020148644 -0.017761197 0.00678686
000080 6d 0e 5d bc 12 d3 2f bb d1 02 b5 ba 5f 17 6d bc
       -0.013492209 -0.0026828689 -0.0013810043 -0.014470904
000090 4b 5c 03 bc b7 d9 11 3c 66 51 29 bc a4 83 59 bc
       -0.00801761 0.008902005 -0.010334348 -0.0132760145
0000a0 0a 92 2c bc 79 96 28 3a 60 9c 02 3c 35 08 89 3c
       -0.010532865 0.00064311136 0.007971853 0.016727546
0000b0 14 5d c2 bb 86 95 89 3b 86 71 bf b9 f4 da d3 b9
       -0.005931506 0.004198733 -0.0003651494 -0.0004040819
0000c0 d4 33 3e bc 71 07 82 bc 7c dc 33 bb a5 5b e8 ba
       -0.0116090365 -0.015872689 -0.0027444651 -0.0017727508
0000d0 dd 5e 37 bc 52 32 e9 bb 05 9c da 3b 10 0d 48 bc
       -0.011192051 -0.0071165944 0.006671431 -0.012210146
0000e0 69 cd 05 3c 6b da 17 3c e9 4f 8c bc 92 44 85 bc
       0.008166649 0.0092683835 -0.017127948 -0.016268048
0000f0 df 67 4f bc 38 89 44 bc 80 d4 f8 3a ad a8 1f 3c
       -0.012659042 -0.011995606 0.0018984228 0.009744805
000100 20 a0 fd bb 88 51 9f 3b 72 d7 20 bc 23 6a b0 3b
       -0.0077400357 0.004862014 -0.009816991 0.0053837462
000110 59 74 85 ba aa 54 05 bc ec 91 67 bc 6b a4 56 3b
       -0.0010181769 -0.008137861 -0.014133912 0.003275181
000120 3f 57 0d bc cc 7d ca bb e4 0a 1e bc fc c4 26 3c
       -0.008626758 -0.006179547 -0.009646151 0.010178801
000130 79 ab f0 bb 7f 7e f3 3b 44 73 dd bb dc ab e8 bb
       -0.00734466 0.007430851 -0.0067581255 -0.0071005654
000140 51 98 2c bc b7 87 5c bc 90 c9 7f 3b 96 d0 0b bc
       -0.010534362 -0.013460091 0.0039030053 -0.0085336175
000150 a3 f3 e5 3b 5e f2 85 3a a8 71 bd 3b 5c fe dd bb
       0.007017569 0.0010219326 0.005781371 -0.0067747068
000160 b8 aa 5f bc ad f9 b2 3b 0f 13 4e bc 53 86 0d bc
       -0.013651542 0.0054618926 -0.012577786 -0.008637982
000170 01 65 cb bb 9d af 5a 3c 77 98 1b bc 87 5b 8c ba
       -0.006207109 0.0133475335 -0.0094968 -0.001070843
000180 85 17 c0 ba c9 4d 65 bc 0d 79 bc bb 0a 52 a0 bc
       -0.0014655447 -0.013995596 -0.005751735 -0.01957037
000190 b9 0f 8d bc 31 b9 0a bc 0d 88 75 3c 0c b5 05 3b
       -0.017219411 -0.008467005 0.01498605 0.0020402102
0001a0 0b f5 1b 3c e4 34 5e bc 0c c5 10 bb 0e 83 40 3c
       0.009518872 -0.013562415 -0.0022090105 0.011749996
0001b0 c5 0b 98 3a 22 d1 ee b9 c8 7f 0f bc 7f 99 39 bb
       0.0011600187 -0.00045550714 -0.008758493 -0.002832025
0001c0 f6 f4 4a bc 81 f6 30 3b 23 be 13 3c c5 2b 4b 3c
       -0.012387505 0.0027002397 0.0090175 0.012400572
0001d0 c5 e6 2d ba 4f a3 e7 bb 4f 38 e1 bb 91 8c 86 bc
       -0.00066338136 -0.0070690284 -0.0068731676 -0.01642445
0001e0 a9 fa 0f 3b 55 7b 5e 3c 2d 24 80 bb a2 88 2c bc
       0.0021969473 0.013579209 -0.0039105625 -0.010530623
0001f0 c3 b3 0a bb 8a 8e d2 3b 09 e5 e1 3b cb 84 af bb
       -0.0021164275 0.0064256834 0.006893758 -0.0053564063
000200 be 8b 14 3b 4d 8b 1d 3b 1b f7 70 bb 21 c1 7a 3b
       0.00226663 0.0024039329 -0.003676838 0.0038262086
000210 c7 d9 c8 ba 8a 1f 8c bb 04 fc 40 bc dd b1 0a bc
       -0.0015323692 -0.0042762207 -0.011778835 -0.0084652575
000220 a0 ea 20 bb b2 c0 0b bb de 7e 81 bc 92 25 c3 bb
       -0.002455391 -0.0021324572 -0.015807565 -0.0059554065
000230 48 94 a0 bb 62 51 a2 bb ef 16 bb bb 77 f3 12 bb
       -0.004900489 -0.0049535492 -0.005709521 -0.0022422948
000240 d5 cf 0a 3c f1 2b 34 bc 80 de e9 bb 33 fb d2 3a
       0.008472403 -0.010996805 -0.00713712 0.0016096592
000250 c8 09 28 3c b0 35 61 bb 11 14 27 bc 7e df 8b 39
       0.010256238 -0.0034364276 -0.010197655 0.0002667866
000260 05 34 ee bb 10 1b 63 3c e2 d5 47 bb 7c 41 0a 3c
       -0.007269385 0.013861433 -0.0030492474 0.008438464
000270 0c a9 ad 3b 39 71 b6 3a 4d b4 21 3a 0a 90 81 bc
       0.005299693 0.0013919241 0.00061685295 -0.015815753
000280 26 25 91 bc 0f 3a 34 bc df 33 7d 3b 0b da 43 bb
       -0.017717909 -0.01100017 0.0038635654 -0.0029884602
000290 1e 8c 26 bc aa 36 a5 ba 86 a6 54 bc 81 a3 38 3c
       -0.0101652425 -0.0012604792 -0.012979155 0.011269451
0002a0 f0 53 80 bc 5e 0d 43 bc f0 86 59 bc b2 9b 0d 3c
       -0.015665025 -0.011905042 -0.0132768005 0.008643078
0002b0 11 60 c7 3b 39 01 45 bb 94 8d 86 bb e0 a4 37 bc
       0.00608445 -0.0030060543 -0.004106233 -0.011208743
0002c0 59 8f 4b 3c 76 c1 f8 bb 6b 9e 64 b9 8b c8 3d 3b
       0.012424313 -0.0075914217 -0.0002180279 0.0028958644
0002d0 9a ca fb ba de fb 2f bc fb d0 13 3c 39 11 08 3a
       -0.001921016 -0.010741202 0.009021993 0.00051905547
0002e0 f8 fc d3 3b 34 bf 00 3c c0 e7 39 3a 05 64 a7 3a
       0.006469365 0.007858086 0.00070917234 0.0012770897
0002f0 e5 d7 c5 ba b6 38 2e 3b d0 84 42 bb 38 53 ec bb
       -0.0015094249 0.0026584095 -0.0029681213 -0.007212069
000300 a1 c5 3c 3c 8e ad f7 3a 9d 3e b5 3b b7 ae 72 bb
       0.011521728 0.0018896328 0.0055311457 -0.0037030408
000310 00 ec 5d bc e4 0e a3 3b cb 25 84 3b b0 4a 57 bc
       -0.013545036 0.0049761403 0.0040328256 -0.0131403655
000320 75 f8 92 bb 02 40 63 bc 80 4f 5d 3c cb 69 4d ba
       -0.004485185 -0.013870241 0.013507724 -0.0007835894
000330 c0 32 8f 3b f2 39 34 3b 84 5f 22 bc 41 e3 4a ba
       0.0043700635 0.0027500358 -0.009910468 -0.0007739552
000340 77 d8 3a bc a8 8f 23 3b 36 19 35 bc 59 53 78 bc
       -0.011404148 0.0024957452 -0.011053374 -0.01515659
000350 54 80 4a 3c dc ed 6c 3c 44 43 3a 3b f5 75 f7 bb
       0.012359697 0.014461007 0.002842144 -0.0075519034
000360 62 61 1e bc c1 f9 9c 3b b4 69 82 39 18 69 55 39
       -0.009666773 0.004790515 0.00024874287 0.00020352413
000370 7a e3 e2 3a ae 5d 00 bb e1 69 5d bc 24 fe 70 bb
       0.0017310225 -0.0019587087 -0.013514013 -0.0036772573
000380 7a 5a 06 bb f4 ed f9 3a 7b 00 3d 3c 9c 92 a3 bb
       -0.0020500706 0.0019068108 0.011535759 -0.0049918424
000390 fb 0d 24 bc ae 6a 55 bc 8c 92 85 3b f3 29 9b bb
       -0.010013099 -0.013025923 0.0040763076 -0.0047352253
0003a0 1e 70 22 bc b3 90 aa bb 2e d4 01 3b ba 65 91 3b
       -0.009914426 -0.005205238 0.0019810307 0.0044371756
0003b0 8d 8b 89 3b 48 e8 23 bb 32 0c 15 bb 8f 3d 04 3c
       0.004197544 -0.0025010277 -0.0022742865 0.008071317
0003c0 03 c8 25 3c d4 35 45 3c da a8 13 bc d5 81 54 bb
       0.010118487 0.012036759 -0.009012425 -0.0032426019
0003d0 b3 fb c5 3b ab b7 49 3c 61 62 0d bc da cf 22 bc
       0.006041968 0.012311856 -0.008629412 -0.009937251
0003e0 6b 5d 2e 3c 2b 40 03 bc b3 26 21 bc d2 b6 3c bb
       0.01064239 -0.008010904 -0.009835887 -0.0028795493
0003f0 31 a5 f6 bb 02 ca ee 3b 93 70 72 3c 8e 53 26 ba
       -0.0075270166 0.007287265 0.014797348 -0.0006344848

fc.bias f4 [6]
000000 a3 08 1d 3c a0 78 32 3c 28 75 29 3c 19 2a 81 3b
       0.009584579 0.010893017 0.010342874 0.003941786
000010 3f e3 15 bc 95 c8 5c 3c
       -0.009148418 0.013475557

exp_avg f4 [40, 17]
000000 10 76 01 b5 0d 8a c0 36 90 08 70 35 62 14 29 37
       -4.822805e-07 5.738117e-06 8.941943e-07 1.0077931e-05
000010 38 80 4f b7 32 b0 87 b6 87 89 59 37 20 03 46 36
       -1.2368015e-05 -4.0438254e-06 1.29662285e-05 2.9506118e-06
000020 dc dc a8 b6 84 ba 35 b6 80 ee d2 b6 e0 8f bc b5
       -5.0325016e-06 -2.7079668e-06 -6.2862528e-06 -1.4048965e-06
000030 a9 a7 f6 36 3e 57 45 37 8a d9 2e 36 6c 82 02 35
       7.3508895e-06 1.1762428e-05 2.6054645e-06 4.861856e-07
000040 61 9c 6d 36 13 7b cb b8 48 4b 57 b9 c7 e9 96 b8
       3.5406777e-06 -9.702719e-05 -0.00020532042 -7.196102e-05
000050 97 54 65 b9 da 06 3b b7 05 8f 59 b6 9f 53 39 b8
       -0.00021870654 -1.1147664e-05 -3.2418768e-06 -4.4185315e-05
000060 7c 0b 89 b8 a6 c5 82 b8 6d eb 5e b8 5e 3e 92 b7
       -6.534808e-05 -6.235698e-05 -5.3148182e-05 -1.7433598e-05
000070 dc f6 a7 b7 e3 1f c2 b7 72 48 16 b8 88 c8 2d b9
       -2.0022904e-05 -2.314145e-05 -3.5830257e-05 -0.0001657327
000080 db d4 22 b8 d7 84 98 b8 96 d3 a2 b9 b2 8b 2c ba
       -3.8822047e-05 -7.272668e-05 -0.00031056692 -0.00065820955
000090 af 13 68 38 36 62 af b9 56 8e a8 b8 c2 32 74 b6
       5.5331442e-05 -0.00033451774 -8.0373764e-05 -3.6388378e-06
0000a0 69 4d 41 b9 20 14 ad b8 b4 35 66 b8 da 66 e2 b8
       -0.00018434752 -8.2530314e-05 -5.4886288e-05 -0.000107956774
0000b0 21 af 02 b9 9a 7d a1 b8 97 88 4b b8 a0 1d e1 b8
       -0.00012463007 -7.700473e-05 -4.852618e-05 -0.00010734354
0000c0 07 66 98 b9 bc b3 23 b9 0c aa 23 b9 93 89 c2 b8
       -0.00029067716 -0.00015611848 -0.00015608239 -9.276266e-05
0000d0 53 83 04 b9 10 1a 06 b9 fd 28 12 b9 07 80 e7 b8
       -0.00012637423 -0.00012788945 -0.00013938914 -0.00011038785
0000e0 16 07 b4 36 d2 49 25 b7 55 d1 25 b9 06 99 1b b8
       5.365243e-06 -9.851954e-06 -0.00015813608 -3.7097394e-05
0000f0 70 bb a5 b6 9a 2e 2c b7 7e 75 34 b7 7b e8 60 b7
       -4.939204e-06 -1.0262849e-05 -1.0756192e-05 -1.3405569e-05
000100 50 f9 a4 b7 fd c7 3c b9 b9 bc f7 b7 46 77 3b b8
       -1.9666419e-05 -0.00018003579 -2.9532575e-05 -4.4695356e-05
000110 24 40 6f 38 84 c1 d2 38 bd f9 02 b8 a2 d3 93 38
       5.7041776e-05 0.000100496254 -3.1227002e-05 7.048926e-05
000120 d8 58 74 b7 d5 6f 0b 36 38 05 3d 37 b0 fc 51 b7
       -1.4564219e-05 2.077771e-06 1.1266493e-05 -1.2516204e-05
000130 a0 8a fe b6 ba f7 ca b7 5d bb 32 38 80 dc 2d 35
       -7.585928e-06 -2.4195633e-05 4.2613003e-05 6.476839e-07
000140 ee e7 1c 38 de fa 09 38 c4 bf 52 38 20 64 a9 b4
       3.74093e-05 3.2896984e-05 5.0246497e-05 -3.1551554e-07
000150 9f 38 a2 37 30 c5 23 36 88 70 c2 b6 ee 19 e3 b7
       1.9338271e-05 2.440367e-06 -5.794751e-06 -2.7072583e-05
000160 7d e2 f2 b8 48 58 36 38 7e d9 c9 b6 d4 cc 3e 38
       -0.00011581646 4.34744e-05 -6.015586e-06 4.549029e-05
000170 30 0f 0a 35 47 70 11 b8 ab 98 d3 37 b1 12 32 b7
       5.1431107e-07 -3.467526e-05 2.5224252e-05 -1.0613979e-05
000180 af c1 05 b8 4a 23 41 38 a0 78 e6 b7 f8 9e ad 37
       -3.1890053e-05 4.604765e-05 -2.7474307e-05 2.0697233e-05
000190 d5 8f fa b7 49 c5 c6 b7 a6 32 4c b8 b7 cc 02 b9
       -2.98693e-05 -2.3695307e-05 -4.868456e-05 -0.00012474028
0001a0 90 d8 47 b5 b4 88 1e b9 7c 79 19 38 d5 40 cb 35
       -7.4448417e-07 -0.0001511898 3.6591184e-05 1.5143547e-06
0001b0 82 0b 50 b7 9c a5 e9 b5 0d 7c dc b6 a2 fe 13 b8
       -1.24004455e-05 -1.7408051e-06 -6.5709523e-06 -3.5284676e-05
0001c0 5d 6f 66 b7 1a 86 61 b7 fe 6e 07 b8 16 15 bc b7
       -1.3734997e-05 -1.3442268e-05 -3.2289878e-05 -2.2421165e-05
0001d0 f1 8f 84 b8 06 19 e6 b7 d7 25 12 b8 13 99 e2 b7
       -6.321062e-05 -2.7429789e-05 -3.4844354e-05 -2.701258e-05
0001e0 1e 75 b6 b8 f0 5c 7b 35 31 01 83 b8 3e 08 94 b7
       -8.700251e-05 9.364003e-07 -6.246789e-05 -1.7646813e-05
0001f0 3f d4 2f b7 6e f5 97 36 bc 16 e8 b6 49 0c 3b b7
       -1.048023e-05 4.5287225e-06 -6.9167854e-06 -1.1148929e-05
000200 11 9b d6 b7 1d a0 30 37 b3 2f 9e b7 d5 00 3b b7
       -2.5582996e-05 1.0527697e-05 -1.885728e-05 -1.1146262e-05
000210 d8 72 c0 b7 ae 03 4e b8 fa 5e b9 b6 4e cd 03 b8
       -2.2941662e-05 -4.9117654e-05 -5.5244864e-06 -3.142404e-05
000220 58 0a 02 b9 d3 f2 c1 b8 bc be ad b8 c9 2b b8 b8
       -0.0001240162 -9.248187e-05 -8.28481e-05 -8.781959e-05
000230 94 d0 51 b9 f7 43 90 36 16 17 e3 38 4c 3b 14 b9
       -0.00020009495 4.2994466e-06 0.000108285036 -0.0001413647
000240 52 f4 4c b8 7c 5d a1 b7 bc fe a0 38 ef 44 75 b7
       -4.886493e-05 -1.9236228e-05 7.6768425e-05 -1.4619188e-05
000250 ac e4 8e b7 85 33 38 b7 b7 68 72 b9 14 68 a6 37
       -1.7034203e-05 -1.097925e-05 -0.00023117928 1.9837207e-05
000260 9d 0b 17 38 fe 96 8b b9 1c 98 dc b9 9c 6b f6 36
       3.601202e-05 -0.00026624644 -0.00042075 7.3438987e-06
000270 24 6b 93 38 d0 86 9b b9 92 4d 5e b7 e3 3f 36 b9
       7.029463e-05 -0.00029664347 -1.3250292e-05 -0.00017380672
000280 90 6a e0 b8 e0 90 9e 37 c4 0b 54 b8 f2 94 0b b9
       -0.00010701001 1.890253e-05 -5.0555696e-05 -0.0001331156
000290 19 52 43 b8 fa be 94 b8 0d 6e ca b7 4c 77 91 b9
       -4.6568082e-05 -7.092762e-05 -2.4131523e-05 -0.00027745438
0002a0 d2 85 a1 b8 41 2d 77 b8 95 15 0e 36 74 42 00 37
       -7.702004e-05 -5.8931535e-05 2.1172211e-06 7.644867e-06
0002b0 70 f8 91 35 d0 a7 3c 37 4f 40 64 b7 a4 16 1d b6
       1.0875647e-06 1.1244745e-05 -1.3604832e-05 -2.3408002e-06
0002c0 ad 5f 61 37 e8 a3 1f 36 38 49 7b b6 00 1e c4 b5
       1.3433321e-05 2.3788252e-06 -3.7444534e-06 -1.4611869e-06
0002d0 cc 6a a4 b6 d4 78 ca b5 b6 3f 1e 37 54 33 0f 37
       -4.9000137e-06 -1.5085338e-06 9.432368e-06 8.535415e-06
0002e0 94 e6 6c 36 58 5e 1e 36 da c0 3e 36 c7 83 07 b9
       3.5300955e-06 2.359875e-06 2.842446e-06 -0.00012923694
0002f0 00 c8 8c b9 48 cd b7 b8 df 6e 90 b9 e3 06 05 b8
       -0.00026851892 -8.7643566e-05 -0.00027548426 -3.1716085e-05
000300 3e df 87 b6 ba 60 3c b8 8a d4 b4 b8 5e 64 a4 b8
       -4.0493023e-06 -4.4912777e-05 -8.622657e-05 -7.838824e-05
000310 c3 44 81 b8 ec 52 c4 b7 a4 c3 0a b8 9f f2 ff b7
       -6.164007e-05 -2.3403634e-05 -3.308397e-05 -3.0511348e-05
000320 c0 f8 33 b8 9f e7 54 b9 d6 2a 9a b8 21 f3 a6 b8
       -4.2908592e-05 -0.00020304181 -7.351271e-05 -7.960783e-05
000330 16 f6 9a b9 9c 70 1b ba 5e 9d 42 38 ec 01 92 b9
       -0.00029556517 -0.0005929561 4.6399764e-05 -0.00027848722
000340 98 fd cf b8 20 93 ab b6 d1 bb 2b b9 b2 a9 e7 b8
       -9.917765e-05 -5.1133247e-06 -0.00016377798 -0.000110465466
000350 60 ae 38 b8 8f d6 b9 b8 1b 00 e5 b8 e8 0f 9a b8
       -4.4031418e-05 -8.861452e-05 -0.000109195906 -7.346255e-05
000360 76 f6 27 b8 77 53 a9 b8 34 d2 9a b9 d7 5d fe b8
       -4.0045437e-05 -8.0740945e-05 -0.00029529782 -0.00012129143
000370 bc 47 08 b9 cf 80 b3 b8 3a 93 de b8 99 59 08 b9
       -0.00012996694 -8.5593776e-05 -0.00010613208 -0.00013003348
000380 e0 ee 18 b9 2d 3e 9d b8 45 3f 46 35 df db 86 b7
       -0.00014584837 -7.4979245e-05 7.385282e-07 -1.607643e-05
000390 50 a5 22 b9 9e 13 16 b8 d8 93 52 b6 9a 51 71 b7
       -0.00015511108 -3.5781057e-05 -3.1378495e-06 -1.4383719e-05
0003a0 20 1c ee b4 4c f9 2f b7 80 17 8d b7 51 02 2c b9
       -4.4351418e-07 -1.0488857e-05 -1.6819453e-05 -0.00016404061
0003b0 ff ec 20 b8 92 96 0d b8 6e 3d 5d 38 1f 7d a0 38
       -3.8367692e-05 -3.375725e-05 5.2747717e-05 7.6527e-05
0003c0 4a dd e0 b7 58 94 2d 38 32 58 20 b7 fa fc 09 b6
       -2.6805927e-05 4.138457e-05 -9.557278e-06 -2.0561843e-06
0003d0 2f 5a a7 37 c6 37 70 b7 16 23 cc b6 3c 62 8d b7
       1.9949946e-05 -1.43181005e-05 -6.0837583e-06 -1.6854254e-05
0003e0 a7 a2 eb 37 6c 15 8a 35 10 cc 10 38 e0 c1 c3 37
       2.8089924e-05 1.0288036e-06 3.4522323e-05 2.3336092e-05
0003f0 31 2e 22 38 e2 18 cc 36 81 d1 a6 36 74 31 44 b7
       3.866683e-05 6.0825705e-06 4.971575e-06 -1.1694025e-05
