timeSerise/logs/lightning_logs/version_13/checkpoints/epoch=99-step=1400.ckpt (torch, 48987 bytes, 27 tensors)

lstm.weight_ih_l0 f4 [40, 29]
000000 c7 ea de 3d 87 94 17 3e 45 f8 bf 3d db 8a 2d be
       0.10884624 0.14802752 0.093735255 -0.169475
000010 1b ee 77 be 16 3b 9e 3c ea fd 92 be f3 99 28 be
       -0.24211924 0.019315284 -0.28709346 -0.16464977
000020 c5 cb 4b bd b6 5b 11 be 78 fa 4b be b8 29 04 3e
       -0.049754877 -0.14195141 -0.19919765 0.1290654
000030 2d 1d 50 bd 5c 66 af bd 54 34 3a 3e eb 1a 8f 3d
       -0.050809074 -0.085644454 0.18184024 0.06987556
000040 8e 82 7f 3e 4e 78 81 be 5c 1b 14 bd 3a 40 ab 3d
       0.24952146 -0.25287098 -0.036158904 0.083618596
000050 aa 3a 5a bc c5 a8 05 be e4 61 36 bd 38 6d 37 be
       -0.013319651 -0.13052662 -0.04452695 -0.17912757
000060 cd 40 b3 3d 54 4b 39 be 90 85 9c be 47 42 66 be
       0.08752594 -0.18095142 -0.3057065 -0.2248622
000070 9f 6c 8d 3e 1e 0b 2c be 25 cf 85 3e 05 08 00 3e
       0.27621934 -0.16801116 0.261346 0.12503059
000080 27 1e 8f 3e 0b 55 8a be 8f 23 31 bd 12 ed a2 bd
       0.27952692 -0.27018008 -0.043246802 -0.07955374
000090 07 a2 2d 3e dd ae 80 bd 57 7a e1 bd cd 14 fb bd
       0.1695634 -0.062833525 -0.110096626 -0.12259827
0000a0 ee 0e 5e 3d 82 08 9f bd 91 2f 4c be ce 03 fc 3d
       0.054213457 -0.077652946 -0.1994002 0.12305413
0000b0 da 9b 4d 3e 27 01 3e be 44 b9 2d be 88 98 fc 3d
       0.20078984 -0.18555127 -0.16965204 0.123337805
0000c0 ea ec ee bc 19 44 9b be 8a 8d 86 3d 96 43 6b 3e
       -0.029165704 -0.30325392 0.06569965 0.22975
0000d0 66 01 3d be 34 40 69 3e d8 fd 0e 3e 0f 24 58 3e
       -0.18457565 0.22778398 0.13964021 0.21107505
0000e0 7b 73 5a 3e 40 a8 7c 3e 83 b6 62 be 54 90 fb bc
       0.21333115 0.24673557 -0.22139935 -0.03070847
0000f0 56 87 0d be 99 ad 08 bd df a7 a5 bd fa 79 29 3e
       -0.13821158 -0.03336868 -0.080886595 0.16550437
000100 2d cb 4e 3d 40 d5 a6 3d e5 ec 91 3d f9 92 8d be
       0.050486732 0.08146143 0.07125262 -0.27651194
000110 72 37 61 be 87 0b 85 be 4f 8e dd 3d c6 fe 71 be
       -0.21993807 -0.25985357 0.10818159 -0.23632345
000120 fa ab 2b be bb 58 0d 3e 27 93 4c 3e 9e 48 15 be
       -0.16764823 0.13803379 0.19978009 -0.14578483
000130 f4 ca 07 be da 3d 91 3e 80 8f 07 be 7d df 09 3e
       -0.13261014 0.28367501 -0.13238335 0.1346416
000140 44 a8 04 3e 1a 79 bf bd 8a 46 ad 3d 2c 58 1f 3e
       0.12954813 -0.0934927 0.0846072 0.15560979
000150 70 fe 9d be 14 02 87 3e b2 e2 90 3e 37 98 38 bd
       -0.30858183 0.26368773 0.28297955 -0.04506704
000160 5c ac 82 be 60 ea e0 bd 37 ed 43 be 64 58 93 3e
       -0.25522125 -0.109822035 -0.19133459 0.28778374
000170 de 0b 9b 3c 55 80 f4 3d 75 d8 3c be d2 e6 93 3e
       0.018926557 0.1193854 -0.18441947 0.2888704
000180 23 63 62 3e 7c d2 bf bd 52 50 27 be a6 70 6b 3e
       0.2210813 -0.093663186 -0.16339234 0.2299219
000190 ea f2 98 3e a7 1f a2 3d 51 bb 9a 3d a6 8c 96 3d
       0.2987283 0.079161935 0.07555259 0.07351045
0001a0 59 2f 4f 3e 91 10 9f bd 3c 92 3d be e0 1e 76 bd
       0.20232905 -0.07766832 -0.18512815 -0.06008804
0001b0 93 cf 51 3e b1 7b 20 bd c0 b3 68 be 31 d8 03 bd
       0.2048934 -0.03918046 -0.22724819 -0.032188598
0001c0 f5 3b 1a be eb 9d 74 be 40 db e0 3d 53 59 a5 be
       -0.15061934 -0.23888366 0.109793186 -0.3229471
0001d0 14 43 75 3e 00 73 10 3e b5 9a 94 bd 3e 98 69 3e
       0.2395137 0.14106369 -0.072560705 0.22811982
0001e0 b5 a8 bd 3d 30 68 2c be 43 28 0c be 77 53 25 3e
       0.09260694 -0.1683662 -0.13687234 0.1614512
0001f0 66 2d 93 bd 1f 8f 9e bd fe 67 8b 3e ec 45 55 bc
       -0.071863934 -0.07742142 0.27227777 -0.013017159
000200 77 a9 51 3e 53 e0 c2 3d 39 44 fa bd 4c 34 06 be
       0.20474802 0.09515443 -0.12220044 -0.13105887
000210 ab 67 38 be 11 50 97 be 66 a2 24 3d f5 77 76 be
       -0.18008296 -0.29553273 0.040193938 -0.24069197
000220 ac 6b 79 bd 9d 00 98 3e 4f 42 56 be e3 d4 04 3e
       -0.0608937 0.29687968 -0.20923732 0.12971835
000230 ff 86 93 3d d6 1f 45 bc 2e bb ff 3d f8 6b f2 3d
       0.07203483 -0.012031516 0.124868736 0.11837
000240 ce d9 6f be 47 c3 93 3e 94 a4 27 3e 2b c6 ab 3d
       -0.2342293 0.28859922 0.16371375 0.08387407
000250 a7 5a 8f be d8 3f 94 3e e0 3c 84 3e 55 42 26 3e
       -0.2799885 0.2895496 0.25827694 0.16236241
000260 c6 c3 6e be 8c 3b 2d 3b 64 4f 85 3e 16 df a1 3c
       -0.23316869 0.0026433198 0.26037133 0.019759696
000270 79 82 de 3c f3 e6 a4 bd 5d a0 58 3d 42 c0 c6 bd
       0.027161824 -0.080518626 0.05288731 -0.09704639
000280 cf 05 66 be 89 0e ff bd 25 77 1a be 65 10 98 be
       -0.22463153 -0.12453944 -0.15084513 -0.29700008
000290 fc 89 80 3e 5b 52 97 bd af ec f7 3c 7f ec 54 bd
       0.25105274 -0.07388755 0.030264227 -0.051983353
0002a0 b2 40 c6 3d 80 76 fe 3d e8 fa 71 3e 73 cd df bd
       0.096803084 0.12424946 0.2363087 -0.10927858
0002b0 76 8e 2e bd 64 cf b9 3d 33 57 4f bc 05 e7 93 3e
       -0.04261633 0.0907276 -0.012655067 0.2888719
0002c0 cf 6a 8a 3d 9b 9c 60 3e b9 96 8e 3e ef d3 71 3e
       0.06758653 0.2193474 0.27849367 0.23616003
0002d0 c3 41 1b 3e d3 2a 9c bd 3d 36 85 3e 18 b6 f2 bc
       0.15161805 -0.076253556 0.26017943 -0.029627845
0002e0 96 b1 8f 3e 28 a0 d2 bd 4e 99 85 3e c2 43 85 be
       0.28065175 -0.10284454 0.26093525 -0.26028258
0002f0 13 b7 4b 3d 61 57 a0 be d7 99 98 3e 62 6f 93 3e
       0.04973514 -0.31316665 0.2980487 0.28795916
000300 b1 6d 15 be 67 aa 4b be f2 b5 70 bd 33 f7 9c 3e
       -0.14592625 -0.19889222 -0.058767267 0.30657348
000310 2f d4 79 3e 11 36 5b be d0 5a 2b be 0c d3 4e 3d
       0.24397348 -0.21407343 -0.16733861 0.05049424
000320 98 b5 94 3e 40 13 94 3d a1 c4 29 be ba 22 9c 3e
       0.29044795 0.07230234 -0.16578914 0.30495244
000330 ad e2 6e be ce 8b 70 bc 03 59 73 3e a2 c9 44 be
       -0.23328657 -0.01468177 0.23764424 -0.19217542
000340 1b ef b6 3d 8a f7 df 3d 9a 55 75 be 67 00 3e bd
       0.089323245 0.10935886 -0.23958436 -0.046387102
000350 f0 d0 80 3d 2e e9 61 bd 4a 28 36 3e 69 f5 8c bd
       0.06289852 -0.055154018 0.17788807 -0.06882746
000360 60 37 65 be 05 23 5d be fe b4 c3 3d 8c 59 bb 3d
       -0.22384405 -0.2159539 0.09556006 0.09147939
000370 11 42 f8 bd be 63 e4 bd 18 1c c8 bd 80 2b 9b 3d
       -0.12121976 -0.11151837 -0.097709835 0.07576656
000380 c4 61 32 be 6b 15 03 be cd 4d 6d 3e 83 4d 74 3d
       -0.17420107 -0.12801139 0.2317421 0.059644233
000390 6e 4e d0 3d 9a f3 d1 bd cc 8b 8e be 35 b9 88 3a
       0.10171209 -0.102515414 -0.27841032 0.0010431173
0003a0 60 75 79 3e da 1a 23 be 56 1b 9e 3e 9f c7 7e bd
       0.24361181 -0.15928212 0.3088023 -0.062202092
0003b0 ec 4b aa 3d 22 1c 67 be 3e 86 19 be e8 a3 75 be
       0.08315262 -0.22569326 -0.14992616 -0.23988307
0003c0 bf a1 56 3e 20 e3 be bd f7 24 08 be d2 b9 83 bd
       0.20960139 -0.093206644 -0.13295351 -0.06431927
0003d0 a2 b1 84 be a2 cb 5f 3e b2 fd 8b be 3a 57 b9 bd
       -0.25916773 0.21855024 -0.27341992 -0.0904984
0003e0 9d 7d a0 3e 11 05 23 3e 10 66 77 be 6e 72 8b be
       0.31345835 0.15919901 -0.24160028 -0.2723574
0003f0 03 1e 8c 3e ea 09 93 3e 0d 78 2e 3e 51 ec 1b be
       0.27366647 0.287185 0.17037983 -0.15226866

lstm.weight_hh_l0 f4 [40, 10]
000000 a1 3a a0 be 46 db 67 3e dc 8a 57 3e 08 ae 12 be
       -0.3129473 0.2264224 0.21049064 -0.143242
000010 bf 8d c6 bd d6 5d 31 be 6c 5b 8b bd 2b c1 35 bd
       -0.09695005 -0.17320952 -0.06804547 -0.044373672
000020 5d 61 55 be 5e b0 b3 bd 83 80 8a bd 00 c3 a6 3c
       -0.20837922 -0.08773874 -0.06762793 0.020356655
000030 fc 74 56 3e b3 61 94 3e aa 7f 51 be 0d 3e 7c 3e
       0.20943063 0.2898079 -0.20458856 0.24633045
000040 a1 26 9c 3e 56 57 5b 3e 53 90 42 be a9 51 71 3e
       0.30498222 0.21420035 -0.19000368 0.23566307
000050 09 ca 8b 3e 72 f4 83 3e 0b 02 18 be f7 1e 09 3e
       0.27302578 0.25772434 -0.1484453 0.13390718
000060 9e 62 45 be ae 57 82 3e 74 19 cc bd dd c5 24 be
       -0.192759 0.2545752 -0.09965792 -0.16091104
000070 e9 ae 68 3e 80 bf de 3d a5 df a1 3d 5c 8b f7 3d
       0.22722973 0.108763695 0.07903985 0.120871276
000080 e9 8c 84 3e b7 ef 56 be f8 bb 5b 3e 4b 6c 35 3e
       0.25888756 -0.20989881 0.21458423 0.17717092
000090 7e e5 c4 bd ad 77 79 be c1 b2 36 3e 76 b2 70 3e
       -0.09614085 -0.24362059 0.17841627 0.23505577
0000a0 12 63 80 3e 1a a0 8b be ff 7f 8e 3e 6b a8 59 be
       0.25075585 -0.27270585 0.27832028 -0.21255653
0000b0 c4 96 c9 bd 4b 66 63 3e c2 61 5f 3e 33 04 a3 3e
       -0.098432094 0.2220699 0.21814635 0.3183914
0000c0 9b 68 08 be 0e 06 47 3e cf 9f 46 3e c8 35 49 3e
       -0.13321154 0.19435903 0.193969 0.19649422
0000d0 fd 2f f5 bd dd ef e8 3c 8a b6 ad bd d2 d0 54 3e
       -0.11972044 0.028434688 -0.08482082 0.20782784
0000e0 99 63 d1 bd 4a 6f b8 3c 5e ac 71 be 17 a4 a1 3d
       -0.10224075 0.022514004 -0.23600909 0.07892626
0000f0 e7 d5 32 3e 32 b2 58 be 07 78 22 3e fb d8 32 be
       0.1746441 -0.21161726 0.158661 -0.17465584
000100 a0 6d 76 3e c9 7e 88 be fc 41 93 3e 60 a2 11 3e
       0.24065256 -0.2665923 0.2876128 0.14222097
000110 78 5b 5a be 39 8a 87 3e e1 e8 d5 bd c7 61 8a 3e
       -0.21323955 0.26472643 -0.10444809 0.27027723
000120 ff 33 48 be 9f 6d 1d be 52 01 8a bb 47 20 2a be
       -0.19551085 -0.15373848 -0.004211583 -0.16613875
000130 16 37 a3 3e 66 1b 20 3e f8 b4 74 3e 73 23 aa bd
       0.31877965 0.15635452 0.23897159 -0.08307543
000140 ff 1d 44 be 70 2b 82 bb 7e 7b de 3d ee 0b a3 bb
       -0.19152068 -0.0039724633 0.10863398 -0.0049757874
000150 dd b7 69 3e 41 4f 89 3e 66 94 25 be d9 cc 68 be
       0.22824045 0.26818278 -0.16169891 -0.22734393
000160 1f ca 98 3c 17 e6 59 3e 60 cc 89 be 2f d6 db 3d
       0.018651066 0.21279179 -0.26913738 0.10734212
000170 24 b5 f2 3d 4c 10 ae 3d fe 9d 88 3e e8 04 58 3b
       0.11850956 0.08499202 0.26683038 0.0032961909
000180 99 51 70 3e c4 79 96 be 4d a2 9a bd 65 51 21 3e
       0.23468627 -0.29389775 -0.07550488 0.15753706
000190 89 51 5f 3e ea 3d 3d 3e ce 46 62 be f4 32 76 bd
       0.21808447 0.1848065 -0.22097322 -0.060107186
0001a0 14 4e a1 be 73 66 6a 3e 5b fe bc 3d a4 08 87 bc
       -0.3150488 0.22890644 0.09228202 -0.016483612
0001b0 6e ac f9 bd dc 33 7e be 1b 58 34 be 9b dd 97 3e
       -0.121910915 -0.2482447 -0.17611735 0.2966126
0001c0 15 92 b2 3d 8f 05 01 be 5b 90 65 be e9 d4 51 be
       0.08719269 -0.12599777 -0.22418348 -0.20491375
0001d0 dc f3 74 3e 1a 20 3c bd 31 f6 44 3d 7d c5 96 3e
       0.2392115 -0.045929052 0.04808635 0.29447547
0001e0 5e 50 2c be b6 86 82 3d 8d 13 7c 3d cf 43 71 be
       -0.16827533 0.0637335 0.061542083 -0.23561023
0001f0 5e f8 13 3c 6a 41 89 bd 26 be 29 3e 51 c5 84 3e
       0.009031383 -0.0670193 0.16576442 0.2593179
000200 ef d6 5c 3e 0b 37 44 3d 42 e0 95 be a7 f6 28 3e
       0.21566366 0.047904056 -0.29272658 0.1650034
000210 be e1 95 bd f4 e4 2c be 97 a5 f6 bd 1e 80 81 3e
       -0.073184475 -0.16884214 -0.120433025 0.25293058
000220 fc a5 75 3e bd 67 c0 bd c6 0a 0e be b7 49 62 be
       0.239891 -0.093947865 -0.13871297 -0.22098432
000230 02 0e ec 3d e9 35 05 be d5 6d 8c 3e 0d 7e 65 3e
       0.11526109 -0.13008846 0.27427545 0.22411366
000240 13 ba 22 be f8 a8 89 bb 83 00 75 bd b9 8f e1 3c
       -0.15891294 -0.004201051 -0.05981494 0.027534353
000250 65 a2 89 3e 44 5e bc bd 13 c7 32 be 4f 8e b4 3d
       0.2688171 -0.09197667 -0.17458753 0.08816206
000260 b8 5d 99 be 07 31 8a 3e 29 23 6e bd 4a 4c 99 3e
       -0.29954314 0.2699053 -0.058139 0.29941016
000270 2e a1 46 3e 22 c7 05 be 7e 60 d2 bd b5 d5 4b be
       0.19397423 -0.13064244 -0.10272311 -0.19905742
000280 ff 57 4c bd c0 54 41 be c9 81 4f 3e ac 4b d9 bd
       -0.049888607 -0.18879986 0.20264353 -0.106101364
000290 7d 3b 87 be 68 2e 16 3e 3c 3a df bd 06 f4 78 3e
       -0.26412573 0.1466614 -0.10899779 0.24311838
0002a0 f8 0a 1c be e9 41 95 3e 14 09 68 be 73 82 6e be
       -0.15238559 0.29151848 -0.22659713 -0.2329195
0002b0 0f 45 1d 3e 76 e5 2b 3e 06 bf 01 be f9 b0 92 3d
       0.15358375 0.16786751 -0.12670526 0.07162661
0002c0 3d 0b 05 3e fd 04 a5 be 26 c5 92 bd 67 1c 97 be
       0.12992568 -0.32230368 -0.07166509 -0.29513857
0002d0 b6 a8 83 3e 6b 50 fc bd a9 6c 83 3e c5 e6 29 3d
       0.25714654 -0.12320026 0.2566884 0.041479845
0002e0 01 bb 9e be ee 76 9c bd 75 92 04 3d 37 e6 43 be
       -0.31002048 -0.076398715 0.032366235 -0.19130789
0002f0 1c 7d 7c be 27 9c 27 3e 97 35 78 bd 5d c4 62 be
       -0.246571 0.16368161 -0.060597982 -0.22145219
000300 c9 a4 9c 3e f6 a0 52 bd 9c 96 06 3d 65 e9 70 bd
       0.3059447 -0.051423036 0.032858476 -0.058816332
000310 5f 10 72 bd 50 1d 2c 3e fc c0 51 3e 09 ba 57 3e
       -0.059097644 0.16808057 0.20483774 0.2106706
000320 9b b4 e0 bd 5a 9e 86 be 01 06 9d 3e da bb 86 3e
       -0.10971948 -0.26292688 0.30668643 0.26315194
000330 42 fc 8e 3d 93 43 8a 3e 32 74 2e bd 23 c3 3c be
       0.06981708 0.2700468 -0.04259128 -0.18433814
000340 91 0a 97 3b 33 5b 70 3e 03 6e c1 3a ae ab 9c 3c
       0.004609414 0.2347229 0.0014757517 0.019124832
000350 f8 fe 77 be dd 59 8c 3d 51 05 91 be 43 47 9d bd
       -0.24218357 0.068530776 -0.2832437 -0.07679608
000360 a9 7f 4b be 46 6c 77 3e 4c 0b 9e be 10 18 9e be
       -0.19872917 0.24162397 -0.30867994 -0.30877733
000370 d7 04 cd 3c 4f 5e 2b be 2f a3 1a bd 41 52 3a 3e
       0.025026722 -0.16735195 -0.03775328 0.1819544
000380 37 96 39 3e b4 5d 8b 3e 86 eb 85 b9 bb 0c d6 bd
       0.18123709 0.27219927 -0.00025543215 -0.10451647
000390 41 ae f3 bd e1 08 9e bd 4c 40 1d bd e9 30 1b 3e
       -0.11898471 -0.07716537 -0.038391396 0.15155376
0003a0 0e 6a 00 3d e2 80 27 3d 40 2a 02 be 60 a1 7b 3e
       0.03135114 0.040894397 -0.1271143 0.24573278
0003b0 3f e1 d2 bd f8 5c 85 3d 7a 09 6d be c2 78 a2 3d
       -0.102968685 0.06511873 -0.23148146 0.07933189
0003c0 a3 80 85 3e 85 60 52 be 75 75 f3 3d 2a 98 84 3d
       0.26074705 -0.20544632 0.118876375 0.064743355
0003d0 fc 26 e2 3d 5e fd 60 bd 5c d0 3a 3d c1 cf c5 3c
       0.11042592 -0.05492913 0.045608863 0.024146916
0003e0 f9 93 90 bd 66 db f9 bc 9d 41 74 bd ad 5c 85 3e
       -0.070594735 -0.030500125 -0.059632886 0.26047269
0003f0 aa b2 97 be 5d 0f 97 3b b0 56 18 3d 9e fd 80 be
       -0.29628497 0.0046099857 0.037192047 -0.25193495

lstm.bias_ih_l0 f4 [40]
000000 45 ce 7e be db f0 0b 3e 2d b3 24 bd 96 f5 e0 bd
       -0.24883373 0.13666098 -0.040209938 -0.10984342
000010 b8 bd a7 3d c0 ad 49 bc ea 90 6b 3e 82 54 8b bd
       0.08190483 -0.012309492 0.23004499 -0.06803228
000020 33 82 5d 3e b0 a8 13 3e 48 c6 86 bc c2 e6 33 bd
       0.21631698 0.14419818 -0.01645197 -0.04392124
000030 d2 e2 af bd 16 69 53 be 98 c9 80 3e 7e 4c 16 3e
       -0.085881844 -0.20645556 0.25153804 0.14677617
000040 96 47 ef bd a9 e2 40 3e 87 ef 0d 3e bf 67 ce bd
       -0.11683576 0.18836464 0.13860904 -0.10078382
000050 92 af 1e 3c 01 0b 0c 3e 45 14 4f 3e 6e 9f 76 be
       0.009685414 0.13676073 0.20222576 -0.24084255
000060 f5 2e a2 be a5 b8 95 bd 06 ce b5 bd 62 a2 2c bd
       -0.3167645 -0.07310609 -0.088771865 -0.042147048
000070 f4 b6 1d be 23 37 85 bd 18 8d 5f bd ea 8f 89 be
       -0.15401822 -0.06504657 -0.054577917 -0.2686761
000080 10 60 45 ba d7 e0 19 be b2 9d 86 3b 6a 99 85 be
       -0.0007529268 -0.15027176 0.004108154 -0.26093608
000090 df 0c 6c be 03 a3 d6 bd b8 a7 5d be d6 1e 97 3d
       -0.23051785 -0.10480311 -0.21646011 0.07378928

lstm.bias_hh_l0 f4 [40]
000000 14 e2 75 be a3 5b 87 bd 85 f6 d5 3c ae 59 ef bd
       -0.24012023 -0.06609275 0.026118526 -0.11687027
000010 cd 6b 49 be f7 8e cb bd 1e 51 3c bd 27 97 43 be
       -0.19670029 -0.09939378 -0.045975797 -0.19100629
000020 12 9b 26 3e e4 c8 58 3e db f6 83 3d 54 ed 94 3e
       0.16270092 0.21170384 0.06443568 0.29087317
000030 78 0c 03 3e 82 0b ad 3d eb 02 20 be f3 56 dc 3d
       0.12797725 0.084494606 -0.15626113 0.10758772
000040 bb 62 72 bd a6 69 4e be a2 db e9 bd ff 68 5e 3e
       -0.059176188 -0.20157489 -0.11418845 0.2171974
000050 01 64 1f be c4 19 9d bc 47 da ba bd f9 ac d0 3c
       -0.15565492 -0.019177325 -0.09123664 0.025473105
000060 1d bf 01 be 5b ef 79 be 3e cb 5d 3e 6b 15 3d be
       -0.1267056 -0.24407713 0.21659562 -0.18465202
000070 6b 10 4a 3e 1e 94 3f be 34 6e 6c be cc cc bc bd
       0.19732825 -0.18708846 -0.23088914 -0.092187494
000080 74 76 c4 bd 28 b7 0c be a5 a3 c2 bd d7 ab 6a be
       -0.09592906 -0.13741744 -0.09503869 -0.22917114
000090 65 c9 b1 bb 3f 6a 15 3e 9a 75 c3 3d 2b 6d 8a 3e
       -0.0054256194 0.14591311 0.09543915 0.27036414

lstm.weight_ih_l1 f4 [40, 10]
000000 64 de 8b be ef 72 cb bd 61 3c 21 be df 31 0b be
       -0.27318108 -0.09934031 -0.15745689 -0.13593243
000010 f8 f7 ee 3d dc dd d3 3c 4d 32 23 be 13 3e 6e be
       0.1166839 0.025862627 -0.15937157 -0.23265867
000020 2c 86 9f 3e 45 fa 20 be 92 1f 88 3e e0 61 9d bd
       0.31157053 -0.1572047 0.26586586 -0.07684684
000030 e2 d2 f9 bd f6 a8 45 be b6 74 a1 be 59 db 1e be
       -0.12198426 -0.19302735 -0.31534356 -0.15513362
000040 ea 55 36 3b 27 fd 7b 3d 57 de ed bd 0d 34 80 bb
       0.0027822205 0.06152072 -0.116146736 -0.003912455
000050 9f c7 37 3e 04 52 1e be 0f d3 83 be 5d a0 1b 3e
       0.17947243 -0.15460974 -0.25746962 0.15197892
000060 fa 1f 98 3e 63 cd 62 3e 0b a5 46 be 56 e4 85 be
       0.29711896 0.22148661 -0.19398896 -0.2615077
000070 59 a9 2b be ab 2b f2 3d 2a da 8a be 55 24 a4 3e
       -0.1676382 0.11824735 -0.2711957 0.3205897
000080 34 36 61 3d a9 13 83 3e 77 97 93 be 71 0d 56 3e
       0.054983333 0.25600937 -0.28826496 0.20903565
000090 97 b0 06 3d e8 43 6f 3e 9b 89 74 be 42 f4 9f 3d
       0.032883253 0.23365748 -0.23880617 0.0781026
0000a0 d4 a6 a1 3e 1e cc 8e bd c2 96 f4 bd 37 07 92 be
       0.31572592 -0.06972526 -0.11942817 -0.2852113
0000b0 1c 8e 07 3e c6 b2 88 be 4c ba 1a 3c a2 1a cc 3d
       0.13237804 -0.26698893 0.009443831 0.09966017
0000c0 d1 c5 99 3e 86 a6 9b be 9d 8e 8c be 3f 0a 4c 3e
       0.30033734 -0.30400485 -0.27452555 0.19925784
0000d0 64 d0 24 bd 1e 56 86 3e a6 59 33 be 5e 94 0e bd
       -0.0402378 0.26237577 -0.17514667 -0.034809463
0000e0 bb a2 83 3e 98 1f 71 be 1f 4d 87 3e cd 78 2d 3e
       0.2571009 -0.23547208 0.26426026 0.16940613
0000f0 f0 e4 91 be ce 75 41 be 4a 8a 88 be 63 93 86 3c
       -0.28494978 -0.18892595 -0.26668006 0.016427701
000100 62 c6 9e be 9a 25 ff 38 ac 73 76 3e 72 ad 92 be
       -0.3101073 0.000121663514 0.24067563 -0.28647953
000110 63 72 8f 3e 39 e4 af 3d 8e 80 06 3d ea bf 2d 3e
       0.28016958 0.08588452 0.032837443 0.1696774
000120 a5 9a 4c be c6 21 ba bd d0 3b 9c be c3 65 a2 be
       -0.19980867 -0.09088473 -0.30514383 -0.31718263
000130 69 d5 18 3e 66 c9 71 be 63 65 8d 3e 98 72 81 be
       0.1492516 -0.23611984 0.27616414 -0.2528274
000140 66 cc 21 be 2a 83 ab 3d 10 c3 69 3e da 9f f8 bd
       -0.15800628 0.08374627 0.22828317 -0.12139864
000150 20 82 73 be 05 54 4c 3e d6 14 bb bd 62 9c 6b 3e
       -0.23780107 0.19953926 -0.091348335 0.23008874
000160 b7 4c 89 be 3c 78 4a 3e 5d ce 97 3e 04 89 18 be
       -0.2681634 0.19772428 0.2964963 -0.14896017
000170 09 6e 81 be d5 55 88 3b d6 a0 77 be 4a 8f 86 be
       -0.25279263 0.0041606226 -0.24182448 -0.26281196
000180 a5 ca 69 3e 01 ff 7d be a9 e6 a6 3d 42 01 05 be
       0.22831209 -0.24804308 0.08149464 -0.12988761
000190 6c fb 13 be 7e 79 c5 bc 6d 55 cc bd 9a c1 39 bc
       -0.14451379 -0.024105784 -0.09977231 -0.011337662
0001a0 22 f0 b5 bd 6d 66 82 be 72 52 c8 bc 20 e3 8c be
       -0.08883692 -0.2546877 -0.024453375 -0.27517033
0001b0 33 ee 33 bc 67 15 4c bc 8a 8c 6e be 55 4f 8d be
       -0.010982084 -0.012456275 -0.23295799 -0.27599588
0001c0 18 89 85 3e c5 b6 0f 3e 73 44 93 3e da 5b 09 3e
       0.26081157 0.14034565 0.2876316 0.13413945
0001d0 9b 77 75 bd 1a 9b 9a 3e db 00 7e be 18 0d 6e bd
       -0.059928518 0.30196458 -0.24805014 -0.058117956
0001e0 70 9a c1 bd 51 2c 96 be 9e 05 de 3d 9c d4 b0 3d
       -0.09453285 -0.29330686 0.10840915 0.08634302
0001f0 9b af 68 bb d0 e5 d1 3d 30 f1 57 be 16 eb 83 3e
       -0.003550506 0.102489114 -0.210881 0.25765294
000200 3b 85 87 be 8d 6d 67 3e cc e8 40 be 10 58 0d 3b
       -0.26468834 0.22600384 -0.18838805 0.0021567382
000210 f9 b3 8a bd c9 91 03 3e 47 68 1d be 87 f3 9a 3d
       -0.06772608 0.12848581 -0.1537181 0.075659804
000220 aa c0 57 be 8f bf 36 3e 28 8d 02 be 69 66 49 be
       -0.2106959 0.17846511 -0.1274916 -0.19667973
000230 e2 85 70 3e c8 09 a5 bd 56 47 56 3e dd 14 c2 bd
       0.23488572 -0.08058506 0.2092565 -0.094766356
000240 84 58 95 3e 51 35 3e 3e 90 cf 93 3e b6 be 4b 3e
       0.29169095 0.18575026 0.28869295 0.19896969
000250 dc 81 84 be 5a 71 6c 3e c1 08 8a be ab fd e5 bd
       -0.25880325 0.23090115 -0.26959804 -0.11230024
000260 d8 53 b3 bb 3b 14 85 3e fb a0 d2 bc 2c ca 89 3e
       -0.0054726414 0.25991997 -0.025711527 0.26912057
000270 c7 50 5e be c0 e6 61 be b1 37 8e 3d 92 5e 47 3e
       -0.21710502 -0.2206068 0.06944216 0.1946967
000280 84 63 c2 bd 86 c7 03 bd 64 c6 71 3e 83 d0 96 be
       -0.09491637 -0.032172702 0.23610836 -0.29455957
000290 3d 60 94 3e 47 09 41 be 1b 18 98 3e f5 76 52 bd
       0.28979674 -0.18851195 0.2970589 -0.051382978
0002a0 10 11 18 3e 58 f3 cf 3d bf c9 53 3e 5c 10 4e be
       0.14850259 0.10153836 0.20682429 -0.20123428
0002b0 b1 22 4c be b2 e1 4f be 20 5d 93 be 85 2a 7f 3d
       -0.19935109 -0.2030094 -0.28781986 0.06229641
0002c0 ed 2a e2 bd 44 06 1c be 69 f1 6b 3d 9e fc 3c be
       -0.11043344 -0.15236765 0.057603274 -0.18455741
0002d0 62 58 7a be 95 13 68 3e 65 08 80 3d 68 14 64 3d
       -0.24447778 0.2266372 0.06251601 0.055683523
0002e0 f3 6a 8f 3d 1b 82 85 3e 53 2d 0a be 22 72 75 3e
       0.07002821 0.26075825 -0.13493852 0.2396932
0002f0 24 ab 78 3e 88 d2 01 3e ca f3 5b be 45 fb 4a bd
       0.24284035 0.12677968 -0.21479717 -0.049556036
000300 34 ab 04 3e 76 3b 6e 3e 58 9c 9b be 62 0a 80 3e
       0.12955934 0.2326487 -0.30392718 0.2500792
000310 97 a6 46 3d ae 6c d6 3c 06 d8 e8 3d c6 af 81 3e
       0.048498716 0.02617487 0.11369328 0.25329417
000320 21 d5 9a 3e a2 e9 91 3e 13 97 8b be bc 9a 93 be
       0.3024073 0.2849856 -0.27263698 -0.2882899
000330 af ec 22 3c 52 18 81 be f3 c0 4d 3e 2e e4 0f 3e
       0.009944125 -0.25213867 0.20093136 0.14051887
000340 49 16 89 3e a0 be 46 bd 50 61 28 be 75 dc 90 3d
       0.26774815 -0.048521638 -0.16443372 0.07073299
000350 2b cf f8 3d e0 f7 96 3d 7e 1e 4a 3e a7 3b 99 be
       0.12148889 0.07371497 0.19738194 -0.29928324
000360 2d 44 25 be e2 b3 b6 bd a8 1d 93 3e 17 e1 96 bc
       -0.16139288 -0.08921029 0.28733563 -0.018417878
000370 a2 8b 21 bb a7 39 f0 bd b8 7f d3 bb cc 67 aa 3d
       -0.0024649878 -0.11729746 -0.0064544342 0.08320579
000380 53 2a 32 be 55 24 90 be 90 e2 92 be 50 4f 81 3e
       -0.17398958 -0.2815272 -0.28688478 0.25255823
000390 27 8b 72 3e df ab c4 bd 65 00 9e 3c 00 c7 df 3d
       0.23685895 -0.09603094 0.019287298 0.10926628
0003a0 a9 56 dc bc 6d 3d 28 3e f2 13 84 be 47 f9 32 be
       -0.026896792 0.16429682 -0.25796467 -0.17477904
0003b0 39 eb b0 3d c7 01 c9 3d 99 7f 98 3d f7 89 09 be
       0.08638615 0.09814792 0.07446212 -0.13431536
0003c0 a7 96 04 3e 54 d5 0a 3e be a0 01 be bb da 66 be
       0.12948094 0.1355794 -0.12658975 -0.22544377
0003d0 4f ce f2 3c 0c 4d fb 3d ea 91 97 3d f2 28 77 3d
       0.029639391 0.12270555 0.07400878 0.060341783
0003e0 ae cc 86 be d8 3b ee bd 90 2c 0a 3e 7f da 19 be
       -0.26328033 -0.11632508 0.13493562 -0.15024756
0003f0 87 cf 02 bd 90 9b 92 3b 95 cf 9c bd 97 c1 0b be
       -0.031936195 0.004474111 -0.07656781 -0.13648067

lstm.weight_hh_l1 f4 [40, 10]
000000 f5 60 0c be 7c f1 9f bd 82 b1 23 3d 1b 7e b0 bd
       -0.13708861 -0.07809731 0.039964207 -0.08617803
000010 96 9d 3f 3e 81 21 80 be 13 b7 28 be 72 75 2a 3e
       0.18712458 -0.2502556 -0.16476087 0.16646364
000020 58 22 a6 3d 40 29 6c 3e d3 55 b8 3c b6 6d 87 3e
       0.08112019 0.2306261 0.022501862 0.2645089
000030 8a ed 38 3e 4d 6e 96 3e 85 ef 70 bd ff 59 96 3d
       0.18059364 0.29381028 -0.058822174 0.07341384
000040 98 64 80 3d 10 26 c9 bd d1 a7 c3 3d ab 85 92 be
       0.06269187 -0.09821713 0.09553493 -0.28617606
000050 98 81 00 3e e6 cb 9e 3e e7 82 3e be e1 4f 9c be
       0.12549436 0.31014937 -0.18604623 -0.30529693
000060 6a 4a 23 3e ce 17 83 3e f5 e6 62 be 02 17 65 3e
       0.15946355 0.256041 -0.22158416 0.22372058
000070 3a 44 b8 3d 0d e9 d3 3c 1e 68 35 3e 26 32 21 3e
       0.08997388 0.025867963 0.17715499 0.15741786
000080 db ff 49 3e 54 3e 61 be 5c 3b 8a bd 4a a9 6b 3e
       0.19726507 -0.21996433 -0.06749603 0.23013797
000090 b9 1a 01 3e c1 82 99 bd e3 e0 17 bd 6b 6f 03 3e
       0.1260785 -0.074956425 -0.037079703 0.12835471
0000a0 51 c5 15 3e f3 57 91 be f9 27 cb bb e5 25 93 3e
       0.14626051 -0.28387412 -0.0061998335 0.2873985
0000b0 85 08 39 be 9c 18 40 be f0 41 f0 3d c1 e1 32 3e
       -0.18069656 -0.18759388 0.117313266 0.17468931
0000c0 9d c4 07 be ec 32 d4 bd 9b d7 42 3e 9e ec a8 bd
       -0.13258596 -0.10361275 0.1902756 -0.08248256
0000d0 40 df 8e be 22 0b 5b 3e 37 9e 41 bd 58 9d 92 bc
       -0.279047 0.21390966 -0.047270026 -0.017897293
0000e0 43 01 46 3d f2 54 87 3e 91 02 b0 bd 82 0b 9e 3e
       0.048341047 0.26431996 -0.085942395 0.30868155
0000f0 e2 da 46 3e e4 4b 5b bd 79 80 f4 bd 64 dc 83 3e
       0.19419435 -0.05353917 -0.11938567 0.25754082
000100 ac 3c 46 3e a4 94 f9 bd 22 d1 6d bc 25 84 8c be
       0.19359082 -0.12186554 -0.014515193 -0.27444568
000110 e2 77 9b be af c4 4e 3e c8 c8 a1 3e 06 c2 84 be
       -0.303649 0.20192216 0.31598496 -0.25929278
000120 75 4e 8d 3e 84 54 30 3e 4b 4f 92 3e 15 7f 92 3d
       0.2759892 0.1721974 0.2857612 0.07153145
000130 c8 ad 8e bc 80 e0 0d 3d bf 50 a1 3e 8a b1 c8 3d
       -0.01741685 0.034637928 0.31506917 0.09799488
000140 a4 f1 2b be 2f 53 77 bd 0b 9d 53 3e a8 1b 49 be
       -0.16791397 -0.060382064 0.20665376 -0.19639456
000150 83 da 1c be 9d fd 84 be bc 5a a4 3b 5d ce 9c be
       -0.1531773 -0.25974742 0.005015699 -0.30626193
000160 ed 1c 2d 3e 27 bc 64 3e e1 bf 14 be 4e 14 3c be
       0.16905566 0.223374 -0.14526321 -0.1836712
000170 b7 00 38 3e 66 4a 80 be 68 60 d5 3d 38 7e 98 3e
       0.17969023 -0.25056762 0.10418779 0.29783797
000180 0e 63 e6 3c e8 5c 87 3c 49 83 ed bd 17 9b 91 3e
       0.028123405 0.016523793 -0.11597306 0.28438637
000190 d0 b6 1c 3c 58 9f 62 be e9 58 e6 bd 1d 62 76 3e
       0.00956507 -0.22131097 -0.11247427 0.24060865
0001a0 f4 f6 af bd 10 21 2d 3d c6 4b a2 3e 6b 3f 9d bd
       -0.085920244 0.04226786 0.31698436 -0.07678112
0001b0 33 ad e4 bc 4e 0f 73 bd c1 83 e4 3c 3e 5e 8f 3e
       -0.02791462 -0.059340768 0.027894856 0.2800159
0001c0 e0 93 cb bd 68 91 df bd 0e cf 82 be 24 7f 0f 3e
       -0.09940314 -0.10916406 -0.25548595 0.14013344
0001d0 8b c4 86 be 88 ba a9 3d 4f bf 79 bd 1d 9e 1c be
       -0.26321825 0.08287531 -0.06097346 -0.1529469
0001e0 b3 8b 9f 3e 50 c0 b2 bd b3 da 8d be b0 d4 77 3e
       0.3116127 -0.08728087 -0.27705917 0.24202228
0001f0 70 1c 92 be 1c 15 54 3e d7 78 83 3e 17 44 12 be
       -0.2853732 0.20711178 0.2567813 -0.14283787
000200 34 3d a1 3e 68 61 de bc 0e a1 4b 3e aa 02 8e be
       0.31492007 -0.027146056 0.19885656 -0.27736408
000210 74 d4 d3 bc ff b4 ab bd e0 47 1c 3e da d6 94 be
       -0.025858141 -0.08384132 0.15261793 -0.2907017
000220 5e c5 42 3e 05 da 57 be 25 c5 af bd 03 0e 72 3e
       0.19020602 -0.21079262 -0.08582524 0.23638158
000230 83 69 24 3d 03 2a c8 bc 86 8a 7a 3e ea d1 00 3e
       0.040139686 -0.024434095 0.24466905 0.12580076
000240 e5 5f 20 3d f4 f0 8a bd 47 9a d4 bd 56 6c 71 be
       0.039153952 -0.067842394 -0.103809886 -0.23576483
000250 c9 49 5f 3e d1 df 5c 3e 7c 28 60 be 52 aa 0a be
       0.2180549 0.21569754 -0.21890444 -0.13541535
000260 d5 c7 d9 3d ad c6 0f 3b 83 d0 b2 3d 4e c4 85 3e
       0.10633818 0.0021938488 0.08731177 0.2612633
000270 bf f3 85 be 58 33 1e bd 13 66 84 be 1f 60 36 3e
       -0.26162526 -0.038623184 -0.25859126 0.17810105
000280 e1 5c 48 be 4b 4e 9b 3e 80 c7 2d 3e 7f 00 04 3d
       -0.1956668 0.3033317 0.16970634 0.032227036
000290 b5 63 80 3e 3a d4 a2 bd 5c ff 4a be 38 4e 90 3e
       0.2507607 -0.07950635 -0.19823974 0.28184676
0002a0 71 d2 84 bc a7 f3 4e 3e 56 2b 29 3e 29 22 b7 3d
       -0.016213628 0.20210133 0.16520438 0.089420624
0002b0 25 0b 01 3d b9 c9 fe bd 87 1f 33 bd ed fa a2 bd
       0.03150477 -0.12440819 -0.04373124 -0.079580165
0002c0 4e c8 65 3c 10 51 3c 3d 35 12 9e 3c d7 4d 70 be
       0.014024807 0.045975745 0.019295791 -0.23467194
0002d0 fc b9 8c be a5 85 45 3e f0 34 1d be 78 39 f6 bd
       -0.27485645 0.19289263 -0.15352225 -0.1202268
0002e0 14 d8 18 3e 9b 10 a1 3e 7b ca 5d be 65 15 49 3e
       0.14926177 0.3145798 -0.21659271 0.19637068
0002f0 72 6e c5 3c fd 2e 5d be eb 90 86 be 8e ab 97 be
       0.024100516 -0.21599956 -0.2628244 -0.29623073
000300 15 65 70 3e 49 fa da bd fc 7a 15 be 12 1c e1 3c
       0.2347606 -0.10692269 -0.14597696 0.027479205
000310 70 07 95 bc 71 5e 95 3e b2 0c 98 3e 4e 8e 5a 3e
       -0.018192023 0.29173616 0.29697186 0.21343347
000320 b4 ff 1f 3e b3 61 aa bd b6 aa 3a be dc 14 06 be
       0.15624887 -0.08319416 -0.18229184 -0.13093895
000330 e0 54 4d be 92 2a d1 bd d2 61 0a 3e c2 8f 08 be
       -0.20051908 -0.10213198 0.13513878 -0.13336089
000340 8f 79 88 be e9 6d 7d 3e c1 78 26 bd 57 21 4b 3e
       -0.26655242 0.24748959 -0.040642504 0.19836937
000350 2b 25 c6 3c f4 5a 31 3e 5c ba e4 3d 6a 87 a3 3d
       0.024187645 0.17319852 0.11168358 0.079848126
000360 35 8b 4b 3e df 38 a0 be 2b 04 87 bb fd f6 95 be
       0.19877322 -0.3129339 -0.00412037 -0.2929
000370 37 cf 6f be b9 96 64 bd 42 2b fb 3d 07 68 6e 3e
       -0.2341889 -0.055807803 0.1226411 0.23281871
000380 44 60 11 3e d8 e1 7b 3d 02 07 7c be 67 ab 20 be
       0.14196879 0.06149468 -0.24612048 -0.15690385
000390 3c 1b 8a be aa c7 85 bc a4 e1 c2 bd b8 3a cd 3d
       -0.26973903 -0.016330559 -0.09515694 0.10020965
0003a0 73 a4 ce 3d 22 f5 03 3e de f9 84 3e 50 ce 02 be
       0.1008996 0.1288648 0.25971884 -0.12774014
0003b0 a9 de e4 bd 2f b1 bb 3c 84 51 a3 3e 52 97 40 3e
       -0.111752816 0.022911636 0.3189813 0.18807724
0003c0 5a 4d 84 3e cc c4 a0 be dd 49 27 3e 4f 5c e8 bd
       0.25840265 -0.31400144 0.1633677 -0.113457315
0003d0 7f 6a 4b 3e 8e 6e 19 3e 2e 15 89 be f1 81 aa 3d
       0.19864844 0.1498358 -0.2677397 0.083255656
0003e0 e4 47 c8 bd fd 3e 25 3e ad d8 0b 3e 17 e3 3d bd
       -0.09779337 0.1613731 0.13656874 -0.046359148
0003f0 52 4d 9a 3e 30 4a 8f be 89 ad 26 be 5e 63 10 3e
       0.30137116 -0.27986288 -0.16277136 0.14100406

lstm.bias_ih_l1 f4 [40]
000000 62 02 5f 3e c0 1f 86 be dd 28 98 3e 0e d4 7a 3e
       0.21778253 -0.26196098 0.29718676 0.24494955
000010 78 f6 88 be 35 57 9e 3e 59 28 1e 3e 55 e2 2c 3e
       -0.2675054 0.3092591 0.15445079 0.16883214
000020 7e ef ff bc f5 10 10 be 1d f8 f3 3d 4c 69 ea bc
       -0.031242128 -0.14068969 0.11912558 -0.028614663
000030 e0 ad 28 be e2 1e 31 bd 69 fb 4d bd 83 15 ca bb
       -0.16472578 -0.043242343 -0.05028859 -0.006167115
000040 ea 20 a0 3e eb c5 60 be 4f 19 56 be d6 02 14 3d
       0.3127511 -0.219505 -0.20908092 0.036135517
000050 8f 86 87 3e ba aa a0 3e b8 61 e9 bc cd 46 98 3d
       0.26469848 0.31380254 -0.028488979 0.07435379
000060 98 ea 4a bd ef fc 8f bd 64 61 65 3e c2 6a 39 3d
       -0.049540132 -0.07030665 0.22400433 0.045267828
000070 6f 85 73 3e 7d fc 98 3e d2 d0 70 3d d3 24 c3 bd
       0.2378137 0.29880133 0.058792897 -0.09528508
000080 9f 69 7b be 3d 77 b1 bd 8f a6 32 be 0c 54 8e be
       -0.2455201 -0.08665321 -0.1744635 -0.27798498
000090 12 f5 4c be 47 04 95 be 74 77 8a 3e 28 2e 20 3e
       -0.20015362 -0.29104826 0.2704426 0.15642607

lstm.bias_hh_l1 f4 [40]
000000 72 9e 63 be 7a e3 3a 3e bb 37 cd bd 1d 19 03 be
       -0.22228411 0.18250838 -0.10020395 -0.12802549
000010 ea 96 4b bc f3 9e 7f 3e a0 ea 6d be 2a b6 63 3d
       -0.012426117 0.24962978 -0.23234034 0.055593647
000020 99 de 0e be 63 e7 1f bd 29 ad 28 be e7 02 35 3e
       -0.13952102 -0.039039027 -0.16472305 0.17676888
000030 1e 73 9d 3e 70 e3 d7 bd 47 72 28 3e 80 4e 2f 3d
       0.3075189 -0.10541427 0.16449843 0.042799473
000040 3c 67 9a 3e 97 bb fb 3d 47 54 2e be c0 86 88 3d
       0.30156887 0.12291639 -0.17024337 0.066663265
000050 22 27 52 be ba 7d 36 be 9b 25 cb bd e9 bc cf bd
       -0.2052274 -0.17821398 -0.09919282 -0.10143454
000060 f2 50 3a be ea be 70 be 00 74 96 be 36 56 7b bd
       -0.1819494 -0.23510328 -0.29385376 -0.061361514
000070 8a ba 96 3e 3a 14 5b 3d b6 d7 7b be 68 d0 42 be
       0.29439193 0.053486086 -0.24594006 -0.19024813
000080 9d e3 d6 3d 38 82 fd bd 9f ef a2 3c 76 03 44 be
       0.104926325 -0.12378353 0.01988965 -0.19141945
000090 3a d2 78 bd ec 4f 3b be 69 34 23 3e 3b 02 51 be
       -0.060747363 -0.18292207 0.15937962 -0.20411007

fc.weight f4 [1, 400]
000000 c5 f6 e1 bc ab 5f 19 bd a4 64 03 bd 7e a1 47 bd
       -0.02758349 -0.03744475 -0.0320784 -0.048737995
000010 28 c4 f2 3c 5a 6c 15 bc 43 22 8f 3b 07 6f 17 3a
       0.02963455 -0.009120071 0.004368098 0.0005776737
000020 15 4d ad 3c 4b 29 67 bd 0f 4e 8a 3c cb 5b 51 bd
       0.02115492 -0.056435864 0.016882924 -0.05111293
000030 96 e7 73 3c 5f de e3 bb 06 87 e5 bc 1d 70 62 3d
       0.014886757 -0.006953999 -0.028018486 0.0552827
000040 c6 94 0c bc 41 e1 df 3c 1b 2a 4f bd 46 2d 85 bc
       -0.008580392 0.02732909 -0.050577264 -0.01625694
000050 66 a6 62 bc 07 27 54 bd 9a 2e 1c b9 53 dc f4 bc
       -0.013833618 -0.051795032 -0.0001489468 -0.029890215
000060 d3 cc 81 bc a4 24 c1 3b 2c 33 31 bc 34 19 2d bb
       -0.015844738 0.0058942605 -0.010815423 -0.0026412727
000070 f3 af 23 3c 34 a8 27 bd 39 76 16 3c 9f 45 6b bc
       0.00999068 -0.040931895 0.00918346 -0.014359861
000080 17 06 82 bc 12 a1 43 bd ca 99 51 3d a3 dd 1c bd
       -0.015872044 -0.04776103 0.051172055 -0.038297307
000090 d5 95 f9 3c 4d 0b 46 bc ff 07 25 bc 81 1d 35 bd
       0.030466953 -0.012087655 -0.010072707 -0.04421759
0000a0 7c 1b 0c 3c 72 5a e1 3a 4c 5c 02 bd df 11 0b 3d
       0.008551475 0.0017193092 -0.031826302 0.03395259
0000b0 cd 1c e0 3c 25 e0 00 3d 7f 42 5d 3d 7e 1b cf 3c
       0.027357483 0.03146376 0.054018494 0.025281664
0000c0 b5 2c c8 bc c2 73 e3 3c db 60 8f bc 2c 6c 42 bc
       -0.02443538 0.027765159 -0.017502239 -0.0118666105
0000d0 65 34 0e 3d 21 f8 0d 3d 1d 5e 67 3c ca 6f 01 bd
       0.034717936 0.034660462 0.014121559 -0.03160075
0000e0 94 ff a3 bc 16 c1 54 3d 26 19 d2 bc b0 e7 e1 bb
       -0.02001933 0.051941954 -0.025646757 -0.0068940744
0000f0 e1 b5 7e 3c 34 56 57 bd e2 25 47 3d 6b fc 1d bd
       0.015546293 -0.052572444 0.048620112 -0.038570803
000100 2c 31 53 3d 12 98 87 bb 82 dc 0c 3d 9b d4 90 3b
       0.051560566 -0.0041380012 0.03438998 0.004419876
000110 40 12 c6 bc 98 ea 3a 3c 4a 46 c1 3c e1 16 8d bc
       -0.024178624 0.011408471 0.023593087 -0.017222824
000120 0b 95 31 bd 47 7b b0 bc 88 bf 45 3c 70 ce 33 3d
       -0.04335503 -0.021543158 0.01206959 0.043898046
000130 e3 a7 21 bd 9b 5b ac 3c 75 e7 93 bb 66 11 5e 3c
       -0.03946675 0.021039775 -0.004513676 0.013553953
000140 3a 01 8e bb 12 2d 42 bd 1d 45 58 3d 45 45 b6 3c
       -0.0043336423 -0.047406264 0.052800287 0.022249827
000150 d4 39 1b bd 76 15 d6 bc 56 10 c5 bc 73 ff 1e 3d
       -0.037896946 -0.02613328 -0.024055641 0.038817834
000160 ee 97 58 bd 60 dc cf bc 3b 25 17 3c 17 cc 28 bd
       -0.052879266 -0.025373638 0.009225185 -0.04121026
000170 14 b1 39 3d 0b 88 1f bd 86 37 f2 bc ae be c1 3c
       0.04533489 -0.0389481 -0.029567491 0.023650493
000180 09 00 a5 3a 1b ca 8a bc e9 32 fe 3c 55 67 2f 3b
       0.0012588511 -0.016942075 0.031030135 0.0026764472
000190 0e 75 7d bc 80 11 d2 bc 7f b3 1d 3d 8a 59 0a bd
       -0.015469803 -0.02564311 0.03850126 -0.033776797
0001a0 8b 5f fa 3c 23 f6 50 bb 72 51 5f 3c f6 04 b8 3b
       0.030563137 -0.003188499 0.013630258 0.0056158258
0001b0 82 b6 13 3d e7 54 c7 bc 35 63 09 3c fc e8 b2 bc
       0.036062725 -0.024332477 0.008385469 -0.021839611
0001c0 14 0b 46 b9 c6 ee e7 3c 2a 8e 16 3d 06 05 31 bc
       -0.00018886878 0.028312098 0.036756672 -0.01080442
0001d0 d2 9a b2 3b 6f a2 b4 3c ab 7f 71 3b 82 e2 d8 3c
       0.005450585 0.02205011 0.0036849778 0.026475195
0001e0 26 c8 c2 3c cb 16 25 3c 47 35 82 bb 15 33 4c bd
       0.023777079 0.010076235 -0.0039736363 -0.049853403
0001f0 a4 c3 24 bc 2b a6 24 3c 0f 9d 33 bd f5 99 47 3d
       -0.01005641 0.010049383 -0.043850955 0.04873081
000200 da 14 b2 3c 67 c1 b9 bc ab 3d 49 3b be 17 fb 3b
       0.021738458 -0.02267523 0.0030706923 0.0076627424
000210 e5 03 5d 3d cc 6c dc 3c b3 49 ff bc 99 00 57 3d
       0.053958792 0.026907347 -0.031163072 0.052490804
000220 22 d5 4c 3d 39 c4 2e 3c 3c cd 5b bd 39 37 18 3c
       0.050007947 0.0106669 -0.053662524 0.00929051
000230 c7 14 8a 3c 97 f2 17 3d 36 2d bd bc e7 f2 f8 bc
       0.01685561 0.037096586 -0.023092847 -0.030389262
000240 c0 29 83 bc ec 60 4a bc 96 68 32 3d a9 30 35 bc
       -0.016011119 -0.01235221 0.043556772 -0.011058965
000250 4d fd 14 3d 48 d8 8f bc 36 56 a1 3c 6e 2d 13 3d
       0.03637438 -0.017559186 0.019694429 0.035931997
000260 3b d4 ea bc 64 51 a0 bc 20 f8 ab 3c 20 3f 3a 3c
       -0.028665652 -0.01957006 0.020992339 0.011367589
000270 18 33 d8 3c 1a 6c 24 3d e2 ee ca bc 20 7c 7e bc
       0.02639155 0.040142156 -0.024772111 -0.015532523
000280 17 e6 12 bd 49 dd 53 bc ed c6 08 3d f9 6f f8 3c
       -0.035863962 -0.012931176 0.033392835 0.03032683
000290 24 ec 1e 3d 0c d0 26 bb 0f 41 63 3c ab 6a a2 3a
       0.03879942 -0.0025453595 0.013870492 0.0012391409
0002a0 35 c6 0f bc 63 e6 9b 3c 30 f8 1c 3d 4a 2d 03 3d
       -0.008775284 0.019030755 0.038322628 0.032025613
0002b0 d7 19 cd 3c 35 bf cc bb 97 34 c9 3b 33 ba e4 bb
       0.025036735 -0.0062483796 0.0061403024 -0.0069802045
0002c0 64 33 29 bd 95 b0 bf bc 4f 09 f8 bc 13 36 46 bd
       -0.041308776 -0.02339963 -0.030277876 -0.048391413
0002d0 56 ed 9d bb 69 a7 83 3c ff 03 6e 3c fa 1f f7 ba
       -0.0048195524 0.016071038 0.01452732 -0.0018854134
0002e0 6b 54 86 3c b2 66 70 3c 3a 5d 10 3c ea a2 18 bd
       0.016397675 0.014672922 0.008811289 -0.037264742
0002f0 b8 29 37 bc 59 55 24 bd 54 89 f9 3c 8c ef 0f 3d
       -0.01117938 -0.040120456 0.030460991 0.03514056
000300 12 57 b3 bc c7 cf d8 bb 43 af 8b bc cb 5f 1d bd
       -0.021892104 -0.006616566 -0.017051345 -0.038421433
000310 32 aa 6e 3b e5 36 4f 3d da 66 04 3d 49 4d 1c 3d
       0.0036417362 0.05058946 0.03232465 0.038159642
000320 28 c5 70 bd 2a d9 06 3d fd 42 9b 3b 4e 1b 5e bd
       -0.058781773 0.032921948 0.0047382102 -0.05422526
000330 c6 01 16 bc c8 33 2e 3d 11 c6 5a 3d 09 ab 02 3c
       -0.009155696 0.04252985 0.053411547 0.007975348
000340 97 f0 b3 3c b7 d5 81 bb a0 61 c5 3c ee e9 85 ba
       0.021965308 -0.0039622444 0.024094403 -0.0010216811
000350 7f 76 be bc 2a f9 51 bd cf 63 1f 3d 8f 2a bf 3c
       -0.023249863 -0.051263012 0.038913544 0.023335723
000360 2f 79 9c 3b 75 a6 df bc 17 9b 54 3c df 97 83 bc
       0.0047751884 -0.027301053 0.012976429 -0.016063629
000370 62 67 09 3d 6a d6 4b bd 89 a3 cb bc d5 ee c9 bc
       0.03354586 -0.049765028 -0.024858253 -0.024650017
000380 2e 3d b3 3c ae 58 26 bc 3f e1 f6 3c 9d a4 f6 3b
       0.021879759 -0.010152979 0.030136703 0.0075269477
000390 a7 47 15 3d 65 ba e6 bc d6 2b 23 bc a5 3f 29 bd
       0.036445286 -0.028165052 -0.009959182 -0.04132046
0003a0 05 72 18 bd f6 07 e0 bc e9 e3 ba 3b 44 2f f9 bb
       -0.037218112 -0.027347546 0.0057034385 -0.0076045115
0003b0 72 b4 33 bd 9a 40 62 3d 7d cb a7 bc fa ce 88 bc
       -0.043873258 0.05523739 -0.020482773 -0.016700257
0003c0 b9 89 02 bd 03 44 09 bd 32 34 9f 3c 52 a2 53 bc
       -0.031869624 -0.033512127 0.019434068 -0.012917118
0003d0 6b c7 0b bd 59 30 2b 3d 21 18 ae 3c 1d c5 14 bc
       -0.034125727 0.041794155 0.02125174 -0.009080199
0003e0 b9 0e 67 bb 19 60 56 bc 12 f3 2d b9 53 fa 04 bd
       -0.0035256578 -0.013084435 -0.00016589116 -0.03246529
0003f0 14 51 75 3d bd 5c c6 3c 2b a7 ee 3c 65 ed 00 ba
       0.059891775 0.024214143 0.029132446 -0.0004918187

exp_avg f4 [40, 29]
000000 80 b7 76 b5 10 35 7e 36 b5 55 78 b5 e7 bf 1c 37
       -9.190917e-07 3.7879836e-06 -9.251192e-07 9.343005e-06
000010 4c 70 d9 b6 d6 e9 71 b8 70 78 b2 b6 9a f2 42 38
       -6.480177e-06 -5.7676654e-05 -5.318834e-06 4.6479145e-05
000020 6e 90 a2 37 c2 2c 2f b8 d0 6e 77 b5 80 8b b9 37
       1.937916e-05 -4.1764935e-05 -9.2175924e-07 2.2118678e-05
000030 68 8d c4 37 58 7c 95 b7 a4 dd 16 b8 96 89 e8 36
       2.3430868e-05 -1.7820086e-05 -3.5969206e-05 6.930156e-06
000040 91 8c 50 38 3b 57 8a b6 35 4c 08 b7 c3 8c 9f b5
       4.9721977e-05 -4.1228755e-06 -8.123975e-06 -1.188739e-06
000050 81 98 83 36 28 96 4a 37 55 fb b1 b7 7e c2 2b 37
       3.921858e-06 1.2075099e-05 -2.121708e-05 1.0237678e-05
000060 d2 57 44 36 58 c4 56 38 9c f3 8f 37 7c 0b 30 b8
       2.9257394e-06 5.1204435e-05 1.7160368e-05 -4.1972366e-05
000070 cc 4e 97 b7 82 fc 2a b5 c3 c0 34 36 2b d9 73 b4
       -1.8037295e-05 -6.369738e-07 2.6934292e-06 -2.2710144e-07
000080 b0 c9 3b 36 30 33 b2 b4 d4 2d 87 35 bc 5b a7 b5
       2.798257e-06 -3.3192327e-07 1.0071622e-06 -1.2469168e-06
000090 fe 75 58 35 95 f9 fe 35 ee e3 db 35 a0 63 07 35
       8.063797e-07 1.8997113e-06 1.6383108e-06 5.043639e-07
0000a0 b9 89 1c b5 52 6b 73 35 4c c7 22 36 f8 6f 75 b5
       -5.831494e-07 9.0680726e-07 2.4255887e-06 -9.143255e-07
0000b0 34 c3 ba 34 26 fe 22 35 d7 b9 f0 33 bd 09 01 35
       3.478723e-07 6.071954e-07 1.1209675e-07 4.8070416e-07
0000c0 e2 bd 2e 36 66 5a e7 35 ba 0b cf 33 42 48 97 b4
       2.6038547e-06 1.7237151e-06 9.641322e-08 -2.8178516e-07
0000d0 42 f4 a3 35 bb 7b dc 33 c0 bf 30 36 c6 61 90 b6
       1.2215535e-06 1.0267055e-07 2.6337657e-06 -4.3029168e-06
0000e0 ec 57 76 b6 ba 7c ea 35 a4 85 97 b5 bd f3 78 36
       -3.6708034e-06 1.7470659e-06 -1.1289271e-06 3.7096754e-06
0000f0 6f 5f 39 35 75 34 ce 35 64 31 40 36 22 5e 3e 36
       6.9056745e-07 1.5363463e-06 2.8638979e-06 2.8366999e-06
000100 4e a2 23 35 9c 88 8d 34 5f 4f 39 35 00 79 22 36
       6.0958416e-07 2.6362693e-07 6.903337e-07 2.4210312e-06
000110 8a 3e af 35 0e 0c b3 34 de 8e b6 34 a8 f1 5e 36
       1.3056717e-06 3.335012e-07 3.400409e-07 3.322124e-06
000120 b1 e4 af b4 3e b0 8f 35 76 f3 b3 34 a9 ca 44 35
       -3.2762685e-07 1.0705623e-06 3.351849e-07 7.33106e-07
000130 27 0a 7a 35 09 bf 26 35 db 9f 7d 35 df b3 54 34
       9.314703e-07 6.211781e-07 9.4482465e-07 1.9809475e-07
000140 90 7b 03 35 79 7f 2f b3 8f 40 41 35 03 15 41 b5
       4.898111e-07 -4.08613e-08 7.199205e-07 -7.192868e-07
000150 d4 de 1d 34 a4 f5 fa b5 8c a4 16 36 3a d7 94 b6
       1.4702829e-07 -1.8697942e-06 2.244752e-06 -4.4357994e-06
000160 a2 ed 91 37 c0 f8 70 33 38 ae 00 37 fe 1d 24 37
       1.7396003e-05 5.610559e-08 7.669958e-06 9.782145e-06
000170 21 17 99 37 6a 09 e6 36 6b cd c6 b6 15 00 e8 b5
       1.8249792e-05 6.85563e-06 -5.9247736e-06 -1.7285371e-06
000180 c7 f8 9e 37 1b 65 95 36 b6 e7 82 35 c9 69 e8 b6
       1.8950914e-05 4.4523163e-06 9.753192e-07 -6.926454e-06
000190 2c 9b 77 36 7e 5e a6 37 94 03 b3 35 17 70 f8 b6
       3.689619e-06 1.9832743e-05 1.3337581e-06 -7.404025e-06
0001a0 94 e5 fb 33 2f d7 7a 36 54 1c 3b b5 2e a4 9e 32
       1.1729858e-07 3.7378156e-06 -6.970415e-07 1.8468281e-08
0001b0 69 25 10 b6 78 93 14 37 42 7e 25 b6 18 62 7c b5
       -2.1479448e-06 8.855823e-06 -2.4660408e-06 -9.402006e-07
0001c0 ac fd 01 b7 af ff b6 b6 ff d6 76 37 38 c3 1e 37
       -7.748062e-06 -5.453788e-06 1.47128e-05 9.462987e-06
0001d0 61 83 83 36 74 11 81 b7 8b 24 b3 b4 00 38 ee b1
       3.9193988e-06 -1.5386126e-05 -3.3367937e-07 -6.933078e-09
0001e0 28 cf 83 b7 4e df 35 b8 16 e9 df b6 3c 98 c2 37
       -1.5712882e-05 -4.336173e-05 -6.6730527e-06 2.3197492e-05
0001f0 42 85 3a 37 11 ec f3 b7 82 93 e7 b6 94 a4 7f 36
       1.111749e-05 -2.9077784e-05 -6.9015086e-06 3.8093758e-06
000200 51 fe 89 37 2d 11 33 b7 c8 2c ef b7 8c 8e 06 b6
       1.6450098e-05 -1.06732305e-05 -2.8511873e-05 -2.005053e-06
000210 29 a9 d5 37 1d ea a2 b6 b5 22 c4 b6 bf fb 26 35
       2.547035e-05 -4.8552306e-06 -5.8452956e-06 6.220616e-07
000220 8f 22 af 35 8e cc 91 36 d3 31 5f b7 65 61 19 37
       1.3048574e-06 4.34515e-06 -1.3303436e-05 9.142187e-06
000230 4b 79 46 35 e1 17 da 37 bc f4 dd 36 64 c2 01 b8
       7.393725e-07 2.5998745e-05 6.614804e-06 -3.0937037e-05
000240 ba 27 20 b7 00 00 45 35 92 a6 31 b6 5e 6f 3f b4
       -9.545993e-06 7.338822e-07 -2.6472012e-06 -1.7828776e-07
000250 46 46 0e b6 ce 5c 3d b5 df 06 94 b5 12 8d 22 b5
       -2.1200553e-06 -7.0543035e-07 -1.1028859e-06 -6.055499e-07
000260 ec ef 4f b5 34 d6 b7 b4 8e 3d dd 34 d1 e1 81 35
       -7.746264e-07 -3.424226e-07 4.1209245e-07 9.67697e-07
000270 b8 1e 59 b6 92 2e 82 b5 f0 03 34 b6 92 20 f5 35
       -3.23534e-06 -9.699309e-07 -2.6824382e-06 1.8263402e-06
000280 e4 db 10 36 d6 82 8a b6 fc 95 7d b5 bd 86 84 b4
       2.1585665e-06 -4.127952e-06 -9.44681e-07 -2.468495e-07
000290 3e 96 58 35 33 8f d0 35 32 86 4c b6 dd 3a 24 35
       8.06849e-07 1.5538884e-06 -3.047648e-06 6.118042e-07
0002a0 7d 5a 8b 35 ab 7b 3a 35 00 f0 2e b3 9c 68 97 b6
       1.0382643e-06 6.947036e-07 -4.073081e-08 -4.512329e-06
0002b0 eb 7f 0c b5 fd 87 ef 35 ee 97 1e b4 66 46 0d 35
       -5.234021e-07 1.7846465e-06 -1.4770168e-07 5.2629036e-07
0002c0 d0 78 ce 33 1c 5a dd b4 3f e1 8a 35 c1 5d 64 36
       9.614598e-08 -4.123002e-07 1.0347356e-06 3.402922e-06
0002d0 a6 dc 64 33 f3 7b ef b5 cf db 8c b5 00 4f 21 36
       5.3286065e-08 -1.7842962e-06 -1.0494786e-06 2.4036854e-06
0002e0 36 1d 83 34 f5 80 c6 b5 50 b3 12 b5 95 11 44 34
       2.4421905e-07 -1.4789681e-06 -5.465017e-07 1.8260319e-07
0002f0 a2 4d 39 36 d8 d0 7d 34 5d a6 2b b6 d0 5f 4e 34
       2.7612336e-06 2.3638438e-07 -2.5577822e-06 1.9220101e-07
000300 ac 8f 35 35 14 f5 df b2 ed 00 29 35 39 fa 2f b5
       6.7636824e-07 -2.6072065e-08 6.2958753e-07 -6.55567e-07
000310 bc bf 04 36 a7 97 01 b5 20 67 14 35 55 af ab b6
       1.9781137e-06 -4.827693e-07 5.5284363e-07 -5.1166085e-06
000320 54 70 41 34 06 46 48 36 5d c2 9b b4 f8 b3 c9 b5
       1.801539e-07 2.9843081e-06 -2.9012418e-07 -1.5028045e-06
000330 d7 1e c7 36 54 cd a2 b3 f3 ef be 36 a8 75 34 34
       5.9342524e-06 -7.581062e-08 5.690375e-06 1.680661e-07
000340 16 c5 3a 36 f7 b5 3a 35 9d e0 6a b4 c9 62 2e 36
       2.783088e-06 6.9555193e-07 -2.1874662e-07 2.598552e-06
000350 08 e2 cf 35 a2 f9 80 35 25 fe 4a 36 a8 da ad 34
       1.5488486e-06 9.609396e-07 3.0248277e-06 3.2382854e-07
000360 4a a2 2f 33 7c 50 e3 35 c2 6e 85 34 57 09 82 36
       4.0892964e-08 1.6936242e-06 2.4853767e-07 3.875389e-06
000370 ca a0 44 34 d7 ee 8e b4 08 95 76 32 16 f5 1d 32
       1.8312417e-07 -2.662334e-07 1.435297e-08 9.194329e-09
000380 2e ac c6 34 7a 01 5a 36 93 61 73 b5 cd c2 c5 b3
       3.700565e-07 3.248539e-06 -9.0666543e-07 -9.2089614e-08
000390 98 0e 9f 35 c6 68 c9 b5 59 6c 85 36 f0 ac c2 b4
       1.185067e-06 -1.500616e-06 3.976322e-06 -3.6261144e-07
0003a0 cc b6 c1 b4 f5 0d bc 35 e3 da ba b2 09 72 02 35
       -3.6082054e-07 1.4011154e-06 -2.1752788e-08 4.8594717e-07
0003b0 24 d3 6f 35 10 be bb b5 3d 2b c2 35 ec 53 f6 35
       8.934169e-07 -1.3987901e-06 1.446671e-06 1.8352853e-06
0003c0 14 3d 07 b5 40 2a 57 b5 b8 33 83 35 6d 93 d7 35
       -5.03803e-07 -8.0155223e-07 9.775313e-07 1.6061655e-06
0003d0 24 3e d8 b4 88 28 a4 34 2e 44 ac b5 f0 20 6e 35
       -4.0278348e-07 3.057687e-07 -1.2834842e-06 8.870984e-07
0003e0 17 4c c5 35 47 b1 bf 34 aa 42 2b b4 b5 51 a7 33
       1.4699789e-06 3.570551e-07 -1.5949868e-07 7.791406e-08
0003f0 60 92 27 33 2b 2f 24 36 84 41 3b b5 2a 1d 2d b5
       3.9015845e-08 2.446536e-06 -6.9758266e-07 -6.448996e-07
