timeSerise/logs/lightning_logs/version_8/checkpoints/epoch=199-step=3000.ckpt (torch, 46491 bytes, 27 tensors)

lstm.weight_ih_l0 f4 [40, 29]
000000 d7 d8 3c be 23 54 6e be 6b bb 2a bd b1 f6 43 3d
       -0.18442093 -0.23274283 -0.041682642 0.047842685
000010 26 a8 1f 3d 90 41 c3 3d 8d 5a 34 be e6 63 9b be
       0.03897872 0.095339894 -0.17612667 -0.30349654
000020 24 89 81 bd 76 27 05 be 3e b1 2f bd 06 52 96 be
       -0.063249856 -0.13003334 -0.04289364 -0.29359454
000030 e8 8c 6f be c4 e3 69 3e 8b 32 d0 bd 55 26 89 bd
       -0.23393595 0.22840792 -0.1016589 -0.066967644
000040 3a e0 85 3d 31 f8 77 3d aa f3 5e 3e ee 1d 08 bd
       0.065369084 0.06053943 0.21772638 -0.03323167
000050 62 8f ca bd 10 bf 58 be fc c0 6d bb aa 25 98 3e
       -0.09890629 -0.21166635 -0.0036278358 0.29716235
000060 b2 3c 5e be 27 18 e6 3c e3 bd 8e be 47 09 63 3e
       -0.21702841 0.028087689 -0.27879247 0.22171508
000070 79 f6 d3 bd 2f fe 9c bd 5e a9 a0 3e 17 53 88 be
       -0.10349745 -0.07665669 0.31379217 -0.26625893
000080 48 d3 a6 3e 26 84 f2 3d ad 2a 4f bd 68 1e 69 be
       0.3258307 0.118416116 -0.05057781 -0.22765505
000090 83 14 a5 bd 69 79 e5 3d 01 50 a6 bd 4b a9 30 be
       -0.08060553 0.11204798 -0.08120728 -0.1725208
0000a0 52 62 3c 3d 2a 2a d0 3d 32 8d 5e 3c 9b 8d 52 3e
       0.045992203 0.10164292 0.013583468 0.2056183
0000b0 c9 23 79 be 15 c1 3f be 1f cc 2e be 4d e3 98 3e
       -0.24330057 -0.18725999 -0.17070054 0.29860917
0000c0 cd c8 17 bd ab ac 87 3e 72 36 a1 3e 93 00 a7 3d
       -0.037056733 0.26498923 0.3148685 0.081544064
0000d0 85 dc 3e bb 8e f7 e4 3d 63 44 1a be c9 d7 fc 3d
       -0.002912314 0.1118003 -0.1506515 0.12345845
0000e0 30 3a 0c 3c 46 d6 3b be 4a 90 62 be 41 ff b9 bd
       0.008558795 -0.18343458 -0.22125354 -0.09081889
0000f0 b9 b8 09 be 7a 27 ec bd b2 5f 2f be bc f1 56 be
       -0.13449372 -0.11530967 -0.17126349 -0.20990652
000100 25 11 1b bd 98 ad 99 3e eb 93 12 be 01 ac c6 3e
       -0.037858147 0.30015254 -0.14314239 0.38803104
000110 cc 9c d8 bb 53 fc 82 be ea 58 8f 3e 98 a2 7c 3e
       -0.0066104885 -0.25583133 0.27997524 0.246714
000120 ed 1c 34 3e 03 35 65 3b 14 18 8f 3e b6 b0 c3 bd
       0.1758916 0.0034974224 0.27948058 -0.09555189
000130 3e 34 af bb 8c e2 4d be 89 06 b4 be 9b 95 2b be
       -0.005346804 -0.20105952 -0.35161236 -0.16756289
000140 d4 fe 98 3e b3 4f 36 be 2a 46 8f be 3d ec 77 bc
       0.29881918 -0.1780384 -0.27983218 -0.015132007
000150 5a ff b2 3e c5 f2 5f be 2a 93 84 bd df 55 4d be
       0.34960443 -0.21869953 -0.06473382 -0.20052288
000160 0a 15 7c be 05 d9 b4 3e 8f 54 d5 3d a0 e8 e3 bd
       -0.24617401 0.35321823 0.10416519 -0.11128354
000170 8f 6e 13 3e 68 56 1e 3e dc 13 45 bd 6f ae 8a 3e
       0.14397644 0.15462649 -0.048114643 0.27086207
000180 2f d0 fd 3d a7 45 81 3e 92 58 98 3e d3 89 c1 bd
       0.123932235 0.25248453 0.29755074 -0.09450116
000190 9b 58 5e 3e db 05 3f be 01 a8 e2 bd d6 73 c5 bd
       0.21713488 -0.18654577 -0.110672005 -0.096412346
0001a0 d6 0f 0d 3e e8 36 87 3d 9c bb 02 3c 5e d4 c3 3d
       0.13775572 0.066022694 0.0079793 0.0956199
0001b0 12 33 1d 3e c7 32 52 bb 23 14 cf bd fa 1c 83 be
       0.15351513 -0.0032073723 -0.10111263 -0.25608045
0001c0 2e ee 3b be 16 2c 56 be 10 ab d8 3d b0 44 54 bd
       -0.18352577 -0.20915255 0.105795026 -0.051823318
0001d0 d1 7a 87 bd e9 00 9c 3e 26 83 e1 bc 5b ef 95 be
       -0.06615222 0.30469444 -0.027528357 -0.29284176
0001e0 23 e7 28 bd 5d 47 c8 bd e4 4e 60 be bb e9 a7 3e
       -0.041236054 -0.097792365 -0.21905094 0.3279551
0001f0 81 64 98 3e f4 13 96 be 22 2e d6 bd 0e 6f af bd
       0.29764178 -0.29312098 -0.10458018 -0.08566104
000200 57 21 49 bd 46 4d 59 be 0f 09 59 3d f4 81 d0 3d
       -0.04910406 -0.21220884 0.052987155 0.101810366
000210 d2 40 79 bd b8 af 0b be d4 70 98 be 82 48 44 be
       -0.060852833 -0.1364125 -0.2977358 -0.19168285
000220 2c 12 a7 3b 35 b1 8b 3e f9 60 56 be c6 18 9c 3e
       0.005098602 0.27283636 -0.2093543 0.3048765
000230 5b da 3f 3e 0c ae 97 3e c8 37 70 3d da d8 fc bd
       0.1873564 0.29624975 0.058646947 -0.12346049
000240 20 80 43 bd 91 7f 81 bd 76 9f 06 3e 5c 6e be 3d
       -0.04772961 -0.063231595 0.13146767 0.09298393
000250 a7 89 1b bd 83 93 94 be 68 1c 72 be 8f be 94 be
       -0.037973072 -0.29018793 -0.23643649 -0.29051635
000260 7d 0a 1b 3e 02 fc 08 be 08 14 95 be 92 96 8f 3e
       0.1514072 -0.13377383 -0.29116845 0.28044564
000270 57 68 9d be 2f 99 85 be 09 a5 14 3d a7 b2 dd bd
       -0.30743667 -0.26093432 0.036290202 -0.10825091
000280 76 e8 ed bd 33 33 57 be 1c f8 49 3e e6 f3 47 bc
       -0.11616604 -0.21015625 0.19723552 -0.012204146
000290 48 19 a4 bd e1 eb 87 3e 8a a6 14 be 6d d2 ac bc
       -0.080126345 0.2654715 -0.14516655 -0.021096433
0002a0 a8 7f b3 3d 6c 2d 41 3e c0 96 87 3e 9a c0 82 3b
       0.08764583 0.18864983 0.264822 0.003990245
0002b0 af 5b 0b be 4b 70 13 3c 0d 26 34 bd 2a a2 0f 3e
       -0.13609193 0.008998941 -0.0439816 0.14026704
0002c0 be 94 35 be 6a 09 cd 3d 32 df 99 3e d0 53 03 3e
       -0.17732522 0.10011561 0.30053097 0.1282494
0002d0 c6 0a a1 3e b8 a0 8d 3d 2a b5 71 3e 71 8f 92 3d
       0.31453532 0.0691542 0.23604265 0.071562655
0002e0 6b 34 81 bc 81 36 9b 3d 7e 9c 2c 3c d5 3c c6 3d
       -0.015772065 0.07578755 0.0105353575 0.096795715
0002f0 89 e8 57 be 8a f9 73 be 2a 8b ad bd ef 0f 21 bd
       -0.21084799 -0.2382566 -0.08473809 -0.039321836
000300 37 5e bd be f2 0a 0e 3e 08 f6 a2 3a 5e b1 37 3e
       -0.36985943 0.13871363 0.0012432942 0.17938754
000310 b9 5f cd bd b2 ca 3f be b4 f5 71 3e 15 cc 90 be
       -0.10028023 -0.18729666 0.23628885 -0.28280702
000320 16 0e f6 3d f8 c2 b3 3e 8e 54 84 3e a3 2a 35 bc
       0.120144054 0.35109687 0.2584576 -0.011057529
000330 72 db 88 be 9a 5a 05 3e 59 ed 9c be f2 59 a7 3e
       -0.26729923 0.13022843 -0.30649832 0.3268581
000340 05 da 90 3e 69 e0 d8 bd e1 5c 8a 3e 19 a4 0c be
       0.28291336 -0.10589678 0.27023986 -0.13734473
000350 c7 4e 91 be 84 a9 06 3e 4e 48 dd 3d 6d a8 34 3e
       -0.28380415 0.13150603 0.10804807 0.17642374
000360 e6 b1 5c be d3 f3 bd bb 9b cc b5 3d e7 e4 96 3c
       -0.21552238 -0.0057968884 0.08876916 0.018419696
000370 e6 1a d0 3d c2 24 a5 3c 2b 53 e8 3c 7f 29 af be
       0.101613805 0.020159129 0.02835997 -0.34211347
000380 fa 0a 45 be cd 07 06 3e e9 53 64 3e 63 0a 4f bd
       -0.19242468 0.13088913 0.22297634 -0.050547015
000390 16 42 89 be fc 7e dd 3d 47 08 53 be 3a fb aa 3d
       -0.26808232 0.10815236 -0.20608626 0.08348699
0003a0 53 76 57 be 0c 46 90 3e 00 e0 6f bc d8 f2 8d 3e
       -0.21041231 0.28178442 -0.014640808 0.27724338
0003b0 a7 5a 67 bd ce 4b 18 bd 63 b2 a5 be 4a 06 7c bd
       -0.056482937 -0.037181668 -0.3236266 -0.061529435
0003c0 08 2f f4 3d 8c 69 ac 3e a7 d6 5c 3e 6d a1 54 be
       0.11923033 0.33674276 0.21566258 -0.20764704
0003d0 5e bd 22 be 47 a7 4a 3e ae ed 4e be 92 de a3 be
       -0.1589255 0.19790374 -0.20207855 -0.32005745
0003e0 19 16 fd bd de 06 fd 3d a2 09 97 3e 28 8c 2b 3e
       -0.123577304 0.123548254 0.29499537 0.16752684
0003f0 e0 37 74 be da 39 b2 3e 5b 25 41 be ab c2 96 bd
       -0.2384944 0.34809762 -0.18861906 -0.07361349

lstm.weight_hh_l0 f4 [40, 10]
000000 18 80 48 be b0 b9 47 bd b2 f2 38 3e 2c e1 ad 3e
       -0.19580114 -0.04876107 0.18061331 0.33960855
000010 a8 5a 1a be 3e 05 4a 3c 29 e1 46 3d 09 37 2d 3e
       -0.15073645 0.012330351 0.048554573 0.16915525
000020 2e f9 9b 3e 9f d6 9d 3e f3 37 a2 3b a4 cf 60 3e
       0.30463547 0.30827805 0.0049505173 0.21954209
000030 ab 12 76 3d a1 8e 47 bd 30 e9 22 be d8 a2 1d 3e
       0.060076397 -0.048720006 -0.15909266 0.15394151
000040 d0 ee a8 3e 40 cc 46 3e 75 a7 ef bd 0e b5 fb bd
       0.329947 0.19413853 -0.11701862 -0.12290393
000050 92 66 09 bd 99 92 5a be b8 df 1c bd 6a b1 d4 3c
       -0.033545084 -0.21344985 -0.038299292 0.025963504
000060 68 7a 03 be c9 cd ad 3e 11 78 90 bd 02 6c 87 be
       -0.12839663 0.33946064 -0.07054151 -0.2644959
000070 8c ee 4d be 3b c6 1d 3e 59 24 ff 3d 12 8d b1 bd
       -0.2011053 0.1540765 0.12458105 -0.08669485
000080 40 ca 4a 3e fc e7 32 3d f1 58 5e 3e ca ce 5b 3e
       0.19803715 0.04367827 0.21713616 0.21465603
000090 ee d7 37 3d 73 16 ce 3d a5 36 81 be 33 f1 04 be
       0.04488366 0.100628756 -0.25237003 -0.12982635
0000a0 82 40 6e 3e 91 53 7f 3e 68 7a 46 bd b4 91 9b bc
       0.23266795 0.24934222 -0.04845658 -0.018990375
0000b0 05 05 46 3e a5 38 91 bd 5e 83 89 bd e4 72 9a 3e
       0.19337852 -0.07090882 -0.067145094 0.3016578
0000c0 28 22 7e be ab c6 4b be 15 12 53 be b1 3f c7 3d
       -0.24817717 -0.19900005 -0.20612366 0.09728945
0000d0 e3 bb 1a 3e be 98 55 be f7 c7 33 3e 28 ac a9 3d
       0.15110736 -0.20859048 0.1755675 0.08284789
0000e0 ca 10 72 3d 54 43 56 3d 71 67 99 bd 68 8b 07 3e
       0.059098043 0.052310303 -0.07490433 0.13236773
0000f0 cf fa 1e be 28 40 93 3e 3c 23 4a be 56 4a df bd
       -0.15525363 0.28759885 -0.19740003 -0.1090285
000100 a2 90 45 be e0 bc cf 3d f4 cb a9 be 8b 45 a6 be
       -0.19293454 0.10143447 -0.33163416 -0.32474932
000110 be 61 a0 bd fc 32 00 3e 9b 88 fc 3d 60 e2 7d be
       -0.07831143 0.12519449 0.12330743 -0.24793386
000120 9a 24 1f 3d ca d6 ce 3e 25 49 24 3e c5 e7 f2 bd
       0.038853265 0.40398246 0.16043527 -0.11860613
000130 82 8c 6e 3e c7 41 bd 3c b0 eb 65 bd c0 1f 48 3e
       0.23295787 0.023102654 -0.056132972 0.19543362
000140 05 ce f8 3d 31 41 a9 be 70 23 02 3e 0f 0c 37 3d
       0.1214867 -0.3305755 0.12708831 0.044689234
000150 45 8c 40 be 94 f8 31 3e ec ba 93 3e 23 80 82 3e
       -0.18803509 0.17379981 0.28853548 0.25488386
000160 0b 17 1a 3e bd 2a 04 bd fd b1 f4 bb 84 15 9c bd
       0.15047853 -0.03226732 -0.007467507 -0.07621291
000170 29 d8 3f 3e 92 9f f3 bc 54 8a 3c be 95 83 73 3c
       0.18734802 -0.029739175 -0.18412143 0.014862915
000180 06 40 93 3c 51 6a c8 3b 2f c0 6c be 7b 03 8c bd
       0.017974865 0.0061161895 -0.23120187 -0.06836601
000190 cf 6f 91 3e 19 ed 4c be 3e eb 11 be 27 90 c6 3e
       0.28405616 -0.2001232 -0.14249894 0.38781855
0001a0 87 45 45 3e 65 d1 26 be bf 39 51 be 15 6e 56 3e
       0.19264804 -0.16290815 -0.20432185 0.2094043
0001b0 5d 2c ad 3e 64 ae 79 be e0 22 99 3c 83 27 9a 3e
       0.3382291 -0.24382931 0.018693388 0.3010827
0001c0 ac d5 64 be 11 db 43 be 77 df 82 bd cd d9 a3 3d
       -0.22347134 -0.19126536 -0.06390279 0.080005266
0001d0 cf d4 70 3a e3 ea 98 be 59 70 14 3e 2b 6d 8a 3e
       0.00091869844 -0.29866704 0.14495982 0.27036414
0001e0 fa 70 58 be d6 ce 00 be 62 26 3d 3e 43 92 b0 3d
       -0.21136847 -0.12578902 0.18471673 0.08621647
0001f0 12 87 6d be 07 b3 e7 3d 1d 5a 89 3d 8a cc f8 3d
       -0.23196056 0.11313444 0.06706641 0.12148388
000200 ae 7f e2 3d 40 5e ee 3d 2a cd 38 bd a6 c2 1e 3e
       0.11059509 0.116390705 -0.045117535 0.1550394
000210 fe a5 3f bd ee 70 9b bc e4 51 97 3e 1c ff 93 bd
       -0.04678916 -0.018974748 0.29554665 -0.072263926
000220 11 50 02 bd 42 a1 9e be 44 7f 83 3d 89 e1 03 3e
       -0.03181464 -0.30982405 0.06420758 0.12879004
000230 be c2 e6 3d 67 ba ae bd ce b4 45 be 25 78 7e 3e
       0.11267613 -0.08531647 -0.19307253 0.24850519
000240 51 99 67 be 36 55 98 be 20 dd 16 bd 04 8c 42 be
       -0.2261708 -0.2975251 -0.036831975 -0.18998724
000250 79 2b 38 3e fe 8a 3c 3e 25 20 99 3e 60 c9 4d 3d
       0.17985334 0.18412396 0.29907337 0.050240874
000260 ab a9 92 3e 7f a8 a8 3e a8 6c 2a bd 32 f5 03 3e
       0.2864507 0.32941052 -0.04160753 0.12886503
000270 65 aa 1f bd 65 88 68 3e e1 31 a3 3c ec 53 46 3e
       -0.03898086 0.2270828 0.019921245 0.19367951
000280 73 78 3f be a3 c6 53 3e 26 09 7e 3e 10 78 97 3e
       -0.18698291 0.20681243 0.24808177 0.29583788
000290 50 11 41 3e 58 09 87 bc 68 ee 35 be f9 ba 77 be
       0.1885426 -0.016483948 -0.17766726 -0.24192418
0002a0 95 69 91 bd 43 47 42 3d 14 53 67 3e 9d e7 b3 bd
       -0.07100216 0.04743124 0.22590286 -0.08784411
0002b0 36 d3 3d bd 04 b1 be 3e 67 20 09 3d ff 9a 26 be
       -0.046344005 0.37244427 0.033478167 -0.16270064
0002c0 b8 b9 75 3e 89 0d 81 3e b9 1f 86 3e a4 d4 c0 3e
       0.23996627 0.2520564 0.26196077 0.37662232
0002d0 b5 97 99 be ba 57 b1 be 5a 4c 0c 3d d3 05 e3 bd
       -0.29998556 -0.34637243 0.034252502 -0.11085095
0002e0 93 e3 00 be aa e9 08 3e 42 b8 d0 bc ce 4a f9 bc
       -0.12586813 0.13370386 -0.025478486 -0.030431177
0002f0 01 1d 50 3e 94 a4 93 3d 73 d7 c0 3d 4c a4 5f 3e
       0.20323564 0.07209125 0.09416094 0.21840018
000300 25 61 e0 bd d1 b3 89 3e 08 39 7d be 71 8a 00 3d
       -0.10956029 0.26895002 -0.24728787 0.031382028
000310 20 dc ae 3c 5d 61 64 3e b6 7c 56 3e b1 12 d1 bc
       0.021345198 0.22302766 0.20946011 -0.025521608
000320 19 f9 43 3e bc cc e3 3d d1 28 2f 3e 65 c5 03 be
       0.19137992 0.11123034 0.17105414 -0.12868269
000330 9a 9f a2 3e 1a 16 2f 3c e2 db 2e 3e d5 8f 5b be
       0.3176239 0.010686422 0.17076066 -0.21441586
000340 be 55 78 be 25 f3 8a 3d 31 89 10 3d 5c 2a 47 3d
       -0.24251458 0.067846574 0.035287086 0.04862438
000350 0a d7 c0 bd f8 2f b3 3d f0 7e 0b be a2 df ff 3d
       -0.094160154 0.08749384 -0.13622642 0.124938264
000360 8b e8 7d be 15 bc 51 3e 50 77 8b 3e bb 94 e1 bd
       -0.2479574 0.20481904 0.27239466 -0.11014696
000370 be 0f 9a 3e 14 9f ce 3d af df c6 3e 98 e8 9a 3e
       0.30090135 0.100889355 0.38842532 0.3025558
000380 81 35 50 3e cc 20 08 be 66 2a 04 3d 01 14 aa 3e
       0.2033291 -0.13293761 0.032266997 0.33218387
000390 72 73 65 be 66 d0 95 3e 62 98 24 be fc 97 5e be
       -0.2240732 0.29260558 -0.16073754 -0.21737665
0003a0 15 0d 67 3e 21 b0 36 3e 3a 3c a6 3e bd 66 a4 be
       0.22563584 0.17840625 0.32467824 -0.32109633
0003b0 f7 35 38 3d 60 08 89 be 77 6e f0 bb 16 e4 c3 3d
       0.04497334 -0.26764202 -0.007337387 0.09564988
0003c0 a7 c9 0c bd b8 30 27 3c 39 79 59 be 55 90 66 3d
       -0.034372 0.010204487 -0.21237649 0.05628999
0003d0 79 af 4e be 23 7d f1 bc 73 73 60 3d 22 1e 3d 3e
       -0.20184125 -0.029478615 0.0547976 0.18468526
0003e0 60 b3 d7 bd f7 91 81 3d 1f 87 05 bd 5e fc 51 be
       -0.1053226 0.06326669 -0.032599565 -0.20506427
0003f0 9c 00 1a bd 30 51 2d be 53 be 96 3e ca 39 a1 3d
       -0.037598237 -0.16925502 0.2944208 0.078723505

lstm.bias_ih_l0 f4 [40]
000000 92 01 96 be af e3 a1 3e f0 85 88 be 5b 26 fa 3d
       -0.29298073 0.3161902 -0.26664686 0.12214347
000010 44 1c ed bd 21 72 5d 3e 4c 54 67 3e 45 28 65 3c
       -0.11577657 0.21625568 0.2259075 0.013986652
000020 55 61 02 3d a3 e9 12 be 82 8c 8c bd 83 25 3a be
       0.031831104 -0.14346938 -0.06862737 -0.18178372
000030 99 4a 2b be 9b b8 a5 bb 30 2a 97 3e 14 a2 ea 3c
       -0.16727675 -0.005057407 0.29524374 0.028641738
000040 97 18 18 3e 4e 7d cb 3d b1 c5 19 3d bf db 9b be
       0.1485313 0.09936009 0.03754205 -0.3044109
000050 b2 49 0c 3e e6 89 8b bd de e0 10 be 6e d3 0f 3e
       0.13699988 -0.068134114 -0.1414828 0.14045498
000060 b4 e2 20 3e 9d 15 b4 3d d2 4a 6a be cf 36 13 be
       0.1571148 0.08793185 -0.22880104 -0.14376377
000070 8c 83 6b 3e 54 fb 91 3e 76 c1 3b 3e da 47 24 bd
       0.229994 0.2851206 0.18335518 -0.040107585
000080 73 8b 03 be a7 06 23 be d7 fa 7b be 16 ed e2 3d
       -0.12846164 -0.15920506 -0.24607407 0.11080377
000090 a5 5a 51 3e fc 1b 25 be 4c 7c 1b 3d 23 00 2c 3d
       0.20444734 -0.16123956 0.037960336 0.041992318

lstm.bias_hh_l0 f4 [40]
000000 cb 09 af bd 34 72 dc 3c 3a b8 7f 3e 0f dc 1b bd
       -0.0854679 0.026909925 0.2497262 -0.03805166
000010 9b 1f 1a 3e ec 42 01 3e f4 f5 9e be 60 fe 67 be
       0.15051119 0.12623185 -0.31047022 -0.2265563
000020 ea 9d 9d 3d d5 b5 83 3e 0a 8d 97 be 07 6b 74 be
       0.07696135 0.25724664 -0.29599792 -0.23868953
000030 fa 19 2b 3d 48 7d 23 3e 24 a0 63 be df 27 30 3e
       0.04177282 0.1596576 -0.22229058 0.1720271
000040 e4 2f 90 bd 8f 07 c8 3d 4d 19 83 3e e1 d4 9a 3e
       -0.070403844 0.09767067 0.2560524 0.3024054
000050 ca 2e 38 3d c9 89 0c bd 2a 8e 7c be 30 64 2a be
       0.044966497 -0.03431109 -0.24663606 -0.16639781
000060 90 e5 58 be e1 0c a7 3e 32 03 8f 3e 20 0d 77 bd
       -0.21181321 0.32627013 0.27932125 -0.06031525
000070 78 ae 7a bc 02 0a 02 3e 8a 86 17 3e b7 4b 1c 3e
       -0.015300386 0.1269913 0.14797416 0.15263258
000080 f1 96 94 3d 3e 64 59 bd ee bb 2a be 47 ac 61 3d
       0.07255352 -0.053074114 -0.16673252 0.055095937
000090 20 aa 77 3d 55 ee a0 bd 72 f6 cf 3d 09 1d 2e be
       0.06046498 -0.07857958 0.101544276 -0.17003264

lstm.weight_ih_l1 f4 [40, 10]
000000 8b 69 a7 bd 28 ea 58 3e d8 2c f6 bd 29 85 59 bd
       -0.081744276 0.21183074 -0.12020272 -0.053105507
000010 27 15 92 3e c0 6a 71 3e 3f e4 92 3e 5f e2 9b bc
       0.28531763 0.23575878 0.28689763 -0.01902884
000020 3f 20 14 be b0 58 e8 3d d8 ac 5d be 3c 46 59 3e
       -0.14465426 0.11345041 -0.21647966 0.21218199
000030 c5 d2 35 3e 9a 58 3a bd 12 c0 cc bd 6d 92 9e bd
       0.17756183 -0.045494653 -0.09997572 -0.07742772
000040 26 a7 6a be 91 1e 92 be 4a 1c d7 3d 2b d4 a8 3e
       -0.22915325 -0.28538945 0.105034426 0.3297437
000050 2c 04 11 3e 8b 95 94 bd 5b 9b d5 bb 43 6f 68 3e
       0.14161748 -0.072550856 -0.006518764 0.22698693
000060 ec a4 54 3e a5 69 62 bd fd dd 40 ba 85 5e 07 be
       0.20766038 -0.05527653 -0.00073572976 -0.1321965
000070 6e 92 eb 3d e5 c8 7f 3e ed bb 0e 3d 18 23 b3 3d
       0.115025386 0.24978979 0.03484719 0.08746928
000080 c9 b4 0f bd 5e b8 6d be 0c 9a f0 bc a6 bc 3e 3e
       -0.03508452 -0.23214862 -0.02937033 0.18626651
000090 88 ce 20 bd 22 0a 35 3e 45 23 5f 3e 2d 7e e8 bd
       -0.039259464 0.17679647 0.21790798 -0.11352191
0000a0 2d 84 28 3d 8b c3 53 be 6c 4b 43 3e 90 14 78 3d
       0.041141678 -0.20680062 0.1907174 0.060566485
0000b0 c9 1e 53 3e 3f 3f 20 be e9 c7 43 3e a4 60 ae bd
       0.20617212 -0.15649126 0.19119228 -0.085145265
0000c0 8b b2 58 be a7 f3 d7 bd 9f 16 29 be e6 e1 88 be
       -0.21161859 -0.1054452 -0.16512536 -0.26734847
0000d0 01 ed 64 3d 90 53 56 3e 04 ed c3 bc 98 9c 93 be
       0.055890087 0.20930314 -0.023916729 -0.2883041
0000e0 6a b6 0d be 4e 2e 84 be 1a 2a 94 bd 82 7d 52 be
       -0.13839117 -0.25816578 -0.07234593 -0.2055569
0000f0 03 22 d2 bd a0 d6 4f 3d 91 ae 05 3e 60 b7 af 3c
       -0.102603935 0.05074179 0.13054873 0.021449745
000100 70 5d de bc 77 d2 8f be 6a 56 1b 3e ec 43 a3 3c
       -0.027144164 -0.2809026 0.15169683 0.019929849
000110 1c b5 c7 bd 1b 4d 9f 3c e7 cd 0c 3e b6 d4 a1 3e
       -0.09751341 0.019445946 0.1375042 0.31607598
000120 d9 30 0b 3e 8b 1c 6f be 68 66 92 be 2f d1 0d 3d
       0.13592853 -0.23350732 -0.28593755 0.03462332
000130 35 b1 5e 3e 99 f4 27 3e 1a a7 af 3d 0f 26 6b 3e
       0.21747287 0.164019 0.08576794 0.22963737
000140 6b 5c 08 3e c0 1d 94 3e 73 c8 8d be 9f 79 48 be
       0.13316505 0.28928947 -0.27691993 -0.19577645
000150 3d d5 b1 3d 00 92 9c bd c7 c9 7e 3e 16 7b be bd
       0.0868325 -0.07645035 0.2488166 -0.093008205
000160 79 35 c7 3d 08 30 a3 3d a7 7a 66 be 0a 17 8f be
       0.09726996 0.079681456 -0.22507726 -0.27947265
000170 55 82 94 3e 74 6c e1 3d 56 3c 73 3d 95 b8 e9 bd
       0.29005685 0.11007014 0.059383713 -0.11412159
000180 b6 67 f2 3b e4 84 51 3e 11 06 ce 3d 9b df 57 bd
       0.007397617 0.2046085 0.10059751 -0.05270348
000190 3c 28 a1 be 98 94 28 bb ca 41 43 3e a5 bd b0 3e
       -0.3147601 -0.0025723334 0.19068065 0.34519687
0001a0 26 05 a4 bd 0c ac 6b 3d 18 6b f7 bd 00 dc 11 3e
       -0.080087945 0.057537124 -0.120809734 0.1424408
0001b0 fa 83 97 bd 3b bb 06 be 62 3e 1f 3e 0b 07 85 bd
       -0.073982194 -0.1315736 0.15551141 -0.06495484
0001c0 bd 18 a9 3e c1 b9 b8 bd 35 fb 5d be 8f 61 3d be
       0.33026686 -0.09019805 -0.21677859 -0.18494247
0001d0 4d f5 60 be c7 ae 90 3b a2 3a 9a 3e df a1 4f 3e
       -0.21968575 0.0044153663 0.30122858 0.20276593
0001e0 b9 c7 7b bd c0 c3 1f 3e 16 e0 c5 3d ef 29 ac 3d
       -0.061469767 0.15602016 0.096618816 0.08406436
0001f0 95 be 6a bd db 1a 78 3d d5 1b 3b 3e b1 8a 14 be
       -0.05731066 0.060572486 0.18272336 -0.14506032
000200 5c 53 d7 3d 2f 6b 58 be 3e 65 1a be ba 9e e0 bd
       0.105139464 -0.21134637 -0.15077683 -0.10967775
000210 6e c0 68 3e a7 15 0f be 7a 89 36 be e8 ee 60 be
       0.22729656 -0.13973103 -0.1782588 -0.21966136
000220 35 4a 79 be 19 74 18 3e 55 e5 2a be 8a d2 9b 3e
       -0.24344714 0.14888038 -0.16689046 0.30434066
000230 1f b2 8c 3e dc 51 a6 3c 36 3d 23 3d 57 c5 c9 3e
       0.27479646 0.020302705 0.039853297 0.3940837
000240 14 7e aa 3e 93 b6 84 3d 1e 55 60 be 41 b4 20 bd
       0.33299315 0.06480136 -0.2190747 -0.039234404
000250 a5 6e 8c be b3 d1 88 3e 39 63 1b bd ce 48 8d be
       -0.27428165 0.26722488 -0.037936423 -0.27594608
000260 45 a5 18 3e 16 9c a3 3d eb 54 71 be 74 3b a8 bd
       0.14906795 0.079887554 -0.2356755 -0.08214465
000270 37 73 9d 3e d2 1d 8c be 57 99 47 bd 2e 18 44 bd
       0.30751964 -0.273665 -0.04873022 -0.047874622
000280 1a b7 04 bd bf e6 35 3e e9 a8 86 bc d6 53 82 be
       -0.03240118 0.17763804 -0.016437965 -0.25454587
000290 0f 68 c0 3d a8 66 85 3e 72 c7 b1 bc 5c d1 02 bc
       0.093948476 0.26054883 -0.021701548 -0.0079844855
0002a0 d9 f7 ae be e0 6e 25 bd dd 8a 54 be 65 a4 67 be
       -0.34173468 -0.04038894 -0.20756097 -0.22621305
0002b0 71 64 1f 3e e3 bd 6d 3e 9d de 1e 3d 10 92 d1 3a
       0.15565659 0.23216967 0.03878652 0.0015988965
0002c0 a1 2e 66 3e 72 75 a0 be 2e 71 32 be 4d 31 50 3e
       0.22478725 -0.31339604 -0.17425987 0.20331307
0002d0 c2 c1 92 3e b5 a7 64 be de 71 85 be 92 e8 11 bd
       0.2866345 -0.223296 -0.26063436 -0.035622187
0002e0 b1 63 97 3d 5b 3d 18 be fb c5 9a be 4d 68 8f be
       0.073920615 -0.14867155 -0.30229172 -0.28009263
0002f0 05 8a 3e 3e 50 ad 8b be 44 72 83 bd 0d 53 71 bc
       0.18607338 -0.27280664 -0.06418279 -0.0147292735
000300 02 ee 0d be e1 b5 36 be 33 07 30 3d e1 16 98 be
       -0.13860324 -0.17842819 0.042975616 -0.29704955
000310 43 40 e0 ba 4a 5d a9 3e 0d b4 93 3e 14 ff 00 be
       -0.0017108995 0.33078986 0.28848305 -0.12597305
000320 c9 10 09 be f5 79 1c be f4 b0 88 3e 0f 9b 84 be
       -0.1338531 -0.15280898 0.26697505 -0.2589955
000330 4f 45 0c be 2c 08 db 3d 91 ce 02 3c 7d 87 c7 bd
       -0.13698314 0.10694918 0.00798382 -0.09742639
000340 84 c8 99 be 3b 0f d2 bd 68 c9 17 3e 0b de 57 be
       -0.30035794 -0.10256811 0.14822924 -0.21080796
000350 fb d6 44 3e 6f b4 1f be 09 84 88 be 26 98 37 3c
       0.19222634 -0.15596174 -0.26663235 0.011205709
000360 a4 9a 43 be 94 69 89 3e 9c 41 95 be 60 86 95 be
       -0.1910196 0.26838362 -0.29151618 -0.29204082
000370 d3 5c 2a bd f2 98 1e be f6 06 31 be 6b 26 04 be
       -0.04159243 -0.15488032 -0.17287812 -0.1290528
000380 23 76 a5 3d 58 e9 70 be 68 f3 4e 3d 59 f5 2e bd
       0.080791734 -0.23526514 0.0505251 -0.04271445
000390 a7 7b 5a 3d f4 87 68 3c 89 86 3f 3e 6e 55 ea 3d
       0.05334058 0.01419257 0.18703665 0.11442076
0003a0 bf de 88 3e a5 89 da bd 94 53 c0 3d e0 b2 4c be
       0.26732442 -0.10670785 0.09390941 -0.1999011
0003b0 4f c7 47 3c 9a 02 4e 3e 0d 68 1d be db f2 22 3e
       0.012193515 0.2011818 -0.15371723 0.15912955
0003c0 ae 62 47 be 4d 8a 1b be 7d 7e c7 bd a4 84 1a be
       -0.19471237 -0.15189476 -0.097409226 -0.15089661
0003d0 f7 d8 60 bc 38 48 95 be 50 51 41 be 79 69 8b bc
       -0.013723603 -0.2915666 -0.18878675 -0.017018067
0003e0 9e 81 6a 3e 47 c8 ae 3e 26 95 18 3e 49 3b a6 3c
       0.22901008 0.34137174 0.14900646 0.020291941
0003f0 43 77 81 3e 74 89 bb 3d b0 ac 80 3d 96 6f 86 bd
       0.25286302 0.091570765 0.062829375 -0.06564252

lstm.weight_hh_l1 f4 [40, 10]
000000 20 46 27 3e d3 3e b1 bd 6f f2 0a be fb e4 06 3d
       0.16335344 -0.08654561 -0.13569044 0.032933217
000010 cd 97 67 bc 51 30 a3 3e 2c 9b f9 3d 15 49 9b be
       -0.014135313 0.318728 0.121878 -0.30329195
000020 ce 29 8f bc bc 3b 23 3e 52 74 41 be d5 05 0a bd
       -0.017475989 0.15940756 -0.18892029 -0.033696968
000030 c9 66 28 3e 6c 5e 49 be 18 78 d4 3d 45 09 99 3e
       0.1644546 -0.19664925 0.103744686 0.29889885
000040 8a 67 86 3e cd c4 6d 3e bc 29 15 be d0 6d 82 3e
       0.2625087 0.23219605 -0.14566702 0.25474405
000050 ae 5a ff 3d 1a a1 43 be 80 c0 7e 3e 5a 7c 28 bc
       0.12468468 -0.19104424 0.2487812 -0.010283554
000060 f4 cb 1c be d1 3b 9a 3e 94 3d ad bd 1e e6 ae 3c
       -0.15312177 0.3012376 -0.08459011 0.021349963
000070 f6 b8 5e be 1a 8c 8e be 60 66 28 bd 49 e0 21 3e
       -0.21750244 -0.27841264 -0.041113257 0.15808214
000080 40 01 fe bc 70 41 01 be 60 0d a1 3e 9b af ad 3c
       -0.031006455 -0.12622619 0.31455517 0.0212019
000090 1c 4c 30 3e 75 ee fb 3d e8 a5 35 3e 0f 0d 9a be
       0.17216533 0.123013414 0.1773907 -0.30088088
0000a0 9b fc 26 3e 09 2f 6e bd 2d df 42 3e 22 ca f8 bd
       0.16307299 -0.058150325 0.19030447 -0.12147929
0000b0 87 5a 52 be ec 9f ab 3e b7 c0 99 bd 65 17 5a be
       -0.20542346 0.33520448 -0.075074606 -0.21297987
0000c0 92 e0 8c bd 4d 3a 75 3e 35 39 12 3e 93 3b ae 3d
       -0.06878771 0.23948021 0.14279635 0.08507457
0000d0 35 50 0f be a9 a7 c6 bd 46 a6 9b 3e 86 73 36 3d
       -0.1399544 -0.096999474 0.30400294 0.044543765
0000e0 ce ed 77 3e df c4 f2 3b 13 bd 2e 3c 3d 9e 01 bd
       0.24211809 0.007408723 0.010665196 -0.03164505
0000f0 3c f3 0b 3d e8 0a 43 bd a1 09 a7 be 1f 34 97 bd
       0.034167513 -0.047617823 -0.32624534 -0.07382988
000100 3a b3 ae bc f6 91 5c be 5e 77 bd bd 71 44 49 3e
       -0.021325696 -0.21540055 -0.09251283 0.19655015
000110 eb 94 1d 3d c7 bb 02 3d 63 3a 90 3e 3d 2c e2 3d
       0.038472097 0.03191736 0.28169546 0.11043594
000120 77 f0 0d 3d be b9 c9 3c ce f2 8a 3e 4d ab 95 3e
       0.034653153 0.024624702 0.2713837 0.29232255
000130 e5 2a fc 3d 42 35 82 3d ec 91 93 3e d5 1f 88 3d
       0.12312869 0.06357814 0.28822267 0.066466965
000140 07 2d 7f 3e 0c d6 c5 3d d3 81 2a 3e be 30 05 be
       0.2491952 0.09659967 0.16651087 -0.13006875
000150 2f 64 e2 3d e6 26 8e be d5 81 94 3e 29 51 83 bd
       0.11054265 -0.27764052 0.29005304 -0.064119644
000160 3f d0 44 bd 86 3c 6f 3d 5d 38 cc bd 30 86 af 3d
       -0.04805016 0.05840733 -0.09971688 0.08570516
000170 6e 42 a6 3d d5 00 28 3e 7a 2b f1 bc 7b b2 01 3e
       0.08118139 0.16406567 -0.029439677 0.12665741
000180 e0 23 85 bc 71 7b 79 3e 7b 5a 8a be 3b cf fb 3d
       -0.016252458 0.24363495 -0.27022156 0.122953855
000190 57 3b 50 bb 23 43 6e be 90 13 a3 be 11 73 54 bd
       -0.003177365 -0.23267798 -0.31850863 -0.05186755
0001a0 11 f9 8e be fe 4a e7 bc 4f d2 8d 3d 0e 72 68 be
       -0.27924398 -0.028234001 0.06924879 -0.22699758
0001b0 e4 e4 41 bd f5 46 3e 3e a2 db 14 3e 70 4a 5d 3d
       -0.047337428 0.18581755 0.14536908 0.054026067
0001c0 b2 6a 74 3e 83 b4 45 3e f1 57 7c 3d 96 eb 37 3e
       0.23868826 0.19307141 0.061607305 0.17960963
0001d0 00 b2 f3 3d 13 5b 99 bd a3 bb 81 bd 17 0a a9 bc
       0.11899185 -0.07488074 -0.06334617 -0.020634694
0001e0 9f c0 28 bd cf e3 49 be c6 93 f6 3b 4e 5b 46 be
       -0.041199323 -0.19715808 0.00752494 -0.19370767
0001f0 f9 3e fd 3d f1 62 54 be 3a 01 64 be cf 6e 77 be
       0.12365527 -0.20740868 -0.22266093 -0.24163364
000200 9c ad 19 be 62 37 5d 3d a0 ab 34 be a9 8f 76 be
       -0.15007633 0.054007895 -0.17643595 -0.2407824
000210 51 ec a2 be 0a 48 73 3e d4 5a 81 bd 89 c7 c5 3d
       -0.3182092 0.2375795 -0.06316152 0.09657199
000220 da 04 a5 be da ae 80 be 3e 5e 92 be e7 14 e3 3c
       -0.32230264 -0.251334 -0.28587526 0.027719928
000230 e9 47 41 be 59 4e 74 3d 76 80 e2 bc df 51 99 3e
       -0.18875088 0.05964503 -0.027649146 0.29945275
000240 69 1d 4e be 03 69 11 3e 2d f1 35 be 69 a0 e0 bd
       -0.20128407 0.14200215 -0.17767783 -0.10968096
000250 2f 92 5b 3e 2b ce 88 be b6 1c 7b 3e 7a 87 40 be
       0.21442483 -0.26719794 0.24522671 -0.1880168
000260 b9 eb a6 be ed 6e a8 bc 83 13 bb bd 18 10 ae 3e
       -0.32601717 -0.020560706 -0.09134581 0.33996654
000270 a6 c3 18 be ca 98 eb bd b4 64 ac bd 5e 45 fc 3d
       -0.14918384 -0.115037516 -0.08417645 0.12317918
000280 32 11 ff bd dd 92 8e be 25 b9 56 be a8 6c 96 3e
       -0.124544516 -0.27846423 -0.20969065 0.29379773
000290 62 a0 89 be d5 96 50 be 2f 61 2e be 5d b4 8f 3d
       -0.26880175 -0.20370038 -0.1702926 0.070168234
0002a0 be d2 0d be 73 82 29 3e 76 df 83 3d b6 3e 6a 3d
       -0.13849923 0.16553669 0.06439106 0.057188712
0002b0 d5 11 8d bd 37 2e 9f be 44 c8 30 3e 46 fa de bd
       -0.06888167 -0.31089947 0.17263895 -0.108875796
0002c0 79 04 9c be 03 cb 0f 3e fe 97 0a 3c 3b ed dc 3d
       -0.30472162 0.14042287 0.008459089 0.107874356
0002d0 9c f0 82 3e 6b fa 5b be 7e cd 7f 3d a6 72 4e be
       0.25574195 -0.21482246 0.062451832 -0.20160922
0002e0 0d 97 7b 3e 24 15 3d be c5 e5 56 3e 4f bc 91 3e
       0.2456934 -0.18465096 0.20986088 0.2846398
0002f0 23 9f 15 3e 52 45 4d be f8 9c a5 3e 5b d8 bb 3d
       0.14611487 -0.20045975 0.3234632 0.09172126
000300 5d 9d 00 3e 85 f5 10 be a1 53 5d 3e eb 26 61 be
       0.1256003 -0.14156158 0.21613933 -0.21987502
000310 9e 12 b3 3d 9f 21 77 3e 8a 78 1a 3e 39 00 70 3e
       0.08743785 0.24133919 0.15085045 0.23437585
000320 52 71 85 3e be 9e 14 bd 18 5a 8a 3d 41 12 ff 3d
       0.2606302 -0.0362842 0.06755465 0.124546535
000330 3b 2a 44 be 3a 6f 8f 3e 40 1e 31 be 68 96 a0 be
       -0.19156735 0.28014547 -0.17296696 -0.3136475
000340 43 1a 09 bd 8f 2f 6f be b4 f2 98 be bb ca 80 3d
       -0.03347231 -0.23357986 -0.29872668 0.06288668
000350 83 c1 0e 3d d7 e7 92 3d 89 78 4b 3d 97 7b 8b be
       0.034852516 0.07173126 0.0496755 -0.2724273
000360 44 4c 2e be 05 0d d7 bd cf 84 8d be 96 eb 2f bc
       -0.1702128 -0.1050053 -0.27640387 -0.01073732
000370 53 df 13 3e c9 ac ed bc 4d 25 79 3e 3d 9a 1a 3e
       0.1444066 -0.029013054 0.24330635 0.150979
000380 82 8f cb 3c 4e 7c 56 3e 9c 7f 80 be 9a 97 8e 3e
       0.024848703 0.20945856 -0.25097358 0.27850038
000390 9c 33 a7 be b4 bd 83 bd 5c c6 94 3e 7a dc d1 bc
       -0.32656562 -0.064326674 0.29057586 -0.025617827
0003a0 c5 a9 80 3d 64 cb 3e 3e 38 cd eb b9 ab 12 40 3e
       0.06282381 0.18632275 -0.00044975593 0.18757121
0003b0 af 44 36 be 51 27 05 be 0c b2 45 bd d4 48 d4 3d
       -0.17799638 -0.1300328 -0.0482655 0.10365453
0003c0 85 4d 81 be 46 74 72 3e 77 bf 95 bd d5 a7 7c 3b
       -0.25254455 0.23677167 -0.0731191 0.0038552184
0003d0 26 83 09 3e 86 6e 32 3e 08 3d 6f be 82 54 b2 bd
       0.13428935 0.17424974 -0.23363125 -0.08707525
0003e0 2c d0 76 be a1 a7 89 3c f9 6a 82 bd 58 3c 99 be
       -0.24102849 0.016803565 -0.0636806 -0.2992885
0003f0 70 d1 ec 3d 0e b8 82 be 00 1d 9a 3e 69 43 92 bd
       0.115633845 -0.25531048 0.3010025 -0.07141764

lstm.bias_ih_l1 f4 [40]
000000 fb 7f 70 be 7d 54 de bd 37 4d 3e 3e 85 03 0e 3e
       -0.2348632 -0.108559586 0.18584143 0.1386853
000010 30 5a 9b be 49 4c 82 3d 8b fc b5 bd 4d 7d 19 3e
       -0.30342245 0.063622065 -0.088860594 0.14989205
000020 92 27 e5 3d 56 f7 48 bc 0f c0 fe bd d0 53 81 be
       0.11189188 -0.012266001 -0.12438976 -0.25259256
000030 20 7f 53 3e 2b d9 60 bd 51 b8 34 3e 0d da 35 3e
       0.20653963 -0.054894608 0.17648436 0.17758961
000040 19 09 83 be 77 cd 17 bd 78 ae 01 3e 7b eb 58 be
       -0.25592878 -0.03706118 0.12664211 -0.21183579
000050 4d f4 99 3e 15 43 48 3d 7e 20 88 3c dd be 8c be
       0.300692 0.0488921 0.016617056 -0.27489367
000060 2c 21 9e 3e 6f 32 15 be 45 c7 3a 3d e0 59 80 be
       0.30884683 -0.1457002 0.045600194 -0.2506857
000070 eb 17 bc bc 49 91 4f 3c 2b 32 13 be a9 d6 46 bd
       -0.022960624 0.012668916 -0.14374606 -0.04854456
000080 02 d8 40 3e 8d 2c c7 bd 1f 82 fd 3d c8 04 ba bc
       0.188324 -0.09725294 0.12378334 -0.022707358
000090 79 d0 ed bc 0f d8 cf bc ea a7 62 3e e5 65 66 be
       -0.029030072 -0.02537158 0.22134367 -0.22499807

lstm.bias_hh_l1 f4 [40]
000000 22 5e e5 bd d5 a4 8f bd ce 79 95 3e c1 d4 00 3e
       -0.11199595 -0.07013861 0.29194492 0.12581159
000010 38 60 8d 3e 9d 81 90 3d f0 39 30 be d1 1b 8d be
       0.27612472 0.07055972 -0.17209601 -0.27560285
000020 e1 f2 5f 3c 05 db 68 3e e6 4c 79 be 90 5d 22 3d
       0.013668747 0.227398 -0.2434574 0.03964001
000030 bb 3a 52 bd 72 36 80 be d7 0a 28 bd d1 aa 4b be
       -0.05132554 -0.25041538 -0.041025963 -0.1988938
000040 bb c9 41 be e0 e8 0c be 4c 2a 9c bd 8a 67 d2 3d
       -0.1892461 -0.1376071 -0.07625255 0.10273655
000050 d6 39 9b 3d 83 95 87 3e 35 6b 7f be 48 76 16 be
       0.07579391 0.26481256 -0.2494324 -0.14693558
000060 d2 fc 76 3e 7c 77 73 3e 44 c1 86 be ea a2 20 be
       0.24119881 0.23776048 -0.26319325 -0.15687147
000070 b5 7e f8 3d ff 42 7c be 80 04 eb 3d 02 b0 01 be
       0.121335424 -0.24634932 0.11475468 -0.12664798
000080 ea fa 99 3e a1 c7 98 bd 1e 69 33 3d c0 01 d2 3d
       0.30074245 -0.07459951 0.04380142 0.1025424
000090 b3 b2 92 be 13 56 9b be f3 0b ce bd 3d 9e 7c 3e
       -0.28651962 -0.30339107 -0.10060873 0.24669738

fc.weight f4 [1, 200]
000000 85 74 82 bd f3 db f2 3c 54 43 0c 3d c8 13 87 bc
       -0.063698806 0.029645896 0.034243897 -0.016488925
000010 09 0d a0 3d 30 4f 8c bc ab 32 76 3c 67 50 e7 3c
       0.07814986 -0.017127603 0.015026729 0.028236581
000020 5b 4b 0b 3d 6e 86 40 3d 18 d6 70 bd 0d 22 c9 bc
       0.03400741 0.047003202 -0.058797926 -0.02455237
000030 e3 00 27 3d 75 e1 6b 3d 28 b9 5d 3d 47 92 84 ba
       0.04077233 0.05758806 0.054131657 -0.0010114395
000040 88 e9 25 3d 13 53 60 bb 1e e6 9b 3d cb 55 1a bd
       0.040505916 -0.0034229204 0.07612251 -0.037679475
000050 4f 02 d1 bc 40 98 8f bd ea 65 b4 bc ef 9b 1b bd
       -0.025513796 -0.07011461 -0.022021253 -0.037990507
000060 c1 c7 6a bd 32 0e 86 3c 17 44 ea 3c 50 ab 5e 3d
       -0.057319406 0.01636419 0.02859692 0.054362595
000070 92 09 22 bc 89 ca 98 bc 36 50 8d 3d ab 53 f2 bc
       -0.009889977 -0.018651264 0.06900065 -0.029580912
000080 a8 50 14 3d 2d 04 45 3c 04 17 a8 3d e3 af 46 3d
       0.036209732 0.012024921 0.08207515 0.048507582
000090 12 b5 6a 3d a3 c5 f4 bc 73 8c 9d 3c 30 3e 8b 3a
       0.05730159 -0.029879397 0.01923201 0.0010623392
0000a0 b9 6c 9c 3b bc 32 9a 3c 4a ed 1b bd 6c 1d dd 3c
       0.004773703 0.01882302 -0.038068093 0.026991569
0000b0 26 d8 2e bc 31 8c 4f 3d e9 2e 7f 3d 23 af 95 bd
       -0.010671651 0.050670806 0.062300596 -0.07308795
0000c0 03 35 0c 3d 90 81 b1 bb 10 2c 68 3d 3f 9e a5 bb
       0.034230243 -0.0054170564 0.056682646 -0.005054265
0000d0 95 f6 ee 3c 87 50 66 bc e0 26 96 3c 4b 38 e6 3c
       0.029170314 -0.014057285 0.018329084 0.028103014
0000e0 c4 2a be bc 8b 83 16 bc cb 20 d2 bc 0e 48 09 bd
       -0.023213752 -0.009186636 -0.025650403 -0.033515982
0000f0 15 f3 a9 bc 58 9e 54 3d 76 71 85 bd 7f 5f 80 3c
       -0.020745793 0.05190882 -0.065157816 0.015670536
000100 46 3c 7d 3d c1 b7 4c 3d 82 12 b5 bb 26 2e f1 bc
       0.06182506 0.04997993 -0.005525888 -0.02944095
000110 84 94 58 bd 34 c7 a1 bd 3c c5 97 3d 40 c3 b4 3c
       -0.05287601 -0.07899323 0.07410666 0.022065759
000120 92 a8 46 bd 21 38 2c bd 03 73 34 bd f4 60 12 bd
       -0.048500605 -0.042045716 -0.044054996 -0.035736993
000130 bd dc 41 bc 0d 31 b5 bc d1 c8 08 3d b1 16 63 bc
       -0.011832413 -0.022118116 0.03339464 -0.0138603905
000140 97 01 bb 3c 39 af b5 bc 47 11 69 bd 59 d7 68 bd
       0.022827907 -0.02217828 -0.056901243 -0.056845997
000150 03 d0 2e bd 82 14 14 bd a2 0a 23 bd 40 31 a0 bd
       -0.042678844 -0.03615237 -0.039805062 -0.07821894
000160 f0 37 e3 3c 75 b4 32 3d 74 4c 56 bd 83 0b 0b 3c
       0.027736634 0.04362913 -0.052319005 0.008486631
000170 0c fb a7 3b 02 d2 da bb 3b 0f dd 3c 14 30 c8 3c
       0.0051263627 -0.006677867 0.026984802 0.024436988
000180 99 52 43 bd 9b 43 8f bd 27 88 73 3c f9 87 41 3c
       -0.047686193 -0.069953166 0.014864004 0.011812204
000190 fd 19 50 bd ff c1 ab bc d9 c4 c8 bc 61 15 28 3c
       -0.050806034 -0.020966528 -0.024507927 0.010259003
0001a0 aa c1 9f 3d 19 fd 62 3d ae 3f 44 bd 6a 71 3d 3d
       0.0780061 0.055417154 -0.047912292 0.04625074
0001b0 17 80 e6 bb 81 0d 80 3d d5 f9 1b 3d df 12 43 3c
       -0.0070343125 0.06252576 0.038080055 0.011906355
0001c0 83 97 49 bd 42 0c 75 bb 51 7a d3 3c c6 76 5d bc
       -0.04921676 -0.003739134 0.025815161 -0.013517087
0001d0 3c ff b0 bd f1 2c 51 3d 7e c3 3f 3c 6b 4b 69 3d
       -0.08642432 0.05106825 0.011704324 0.05695669
0001e0 3a f7 26 3d f4 88 84 bc a9 54 12 3d 66 07 8a 3c
       0.040763117 -0.016178586 0.03572527 0.016849231
0001f0 8b eb a3 3c 00 76 22 3d 90 aa 8c bd c5 b1 8b 3c
       0.020009777 0.039663315 -0.0686847 0.01705254
000200 72 65 94 3d 7c 92 5b 3d 4d 4e 62 3d 67 81 a1 bd
       0.07245912 0.053606495 0.055250455 -0.0788601
000210 58 91 44 bd 1c 8d 97 bb 98 04 e3 ba 9b 56 bb b6
       -0.047990173 -0.004624976 -0.0017320095 -5.5831165e-06
000220 93 86 b1 3c 26 8d 0f bd b7 29 73 bd 41 b0 82 bc
       0.021670615 -0.03504672 -0.059365954 -0.015953185
000230 a3 4c ee bb ea 3e 2f bd cf bb 10 bd f5 9e 94 bd
       -0.0072723194 -0.04278461 -0.03533536 -0.07256881
000240 cc 47 5f bd 4d 94 76 3d 56 40 a1 bd 4b 17 99 bd
       -0.05451183 0.060200024 -0.07873599 -0.07475146
000250 84 74 a3 3d 74 20 00 bd a0 cf 02 3d ef ce a0 bd
       0.07981208 -0.03128095 0.031936288 -0.078519695
000260 d9 fd 74 bd e3 6b 75 39 85 c8 cc 3c db 57 d0 3c
       -0.0598124 0.00023405212 0.024997959 0.025432518
000270 88 a2 ca bc c6 f9 ee bc 5f c4 0b 3d 47 81 98 3d
       -0.024735704 -0.029171836 0.03412282 0.07446533
000280 1f 56 6a bd 26 1d 96 bc be 02 44 3d c6 3f a2 bd
       -0.057211038 -0.018324446 0.047854178 -0.0792232
000290 9f e2 43 bc f8 d7 8f 3c f7 d2 ac bc 98 1f a1 bc
       -0.011955886 0.017559037 -0.02109669 -0.019668385
0002a0 dd b4 12 3d 8d ac 4b 3d d7 af 01 bd 57 46 8f bd
       0.035817016 0.049725104 -0.031661835 -0.06995838
0002b0 20 2c 9b 3a 82 b6 32 bd 5a 22 ad 3c fc b0 9a 3d
       0.0011838712 -0.043631084 0.021134544 0.07553288
0002c0 7a 22 84 bd 70 cb 3f 3d 35 20 8b 3d 11 37 bd 3d
       -0.064518884 0.046824872 0.067932524 0.09239019
0002d0 f2 bc 27 3d d1 52 4a bd 33 77 13 bd 5a da ad 3c
       0.040951677 -0.049395386 -0.03600235 0.021222282
0002e0 ff 38 8a 3d 80 7a 97 3d 57 db ba bb 78 57 02 3d
       0.067491524 0.07396412 -0.005702417 0.031821698
0002f0 86 84 93 3d 88 1d cd bc 80 1a 1f bc 71 d4 c2 bc
       0.07203011 -0.025038496 -0.009710908 -0.02378294
000300 34 c7 74 bd c5 b8 0d 3d d2 bd 77 3d 78 07 9c 3d
       -0.059760287 0.034600038 0.06048376 0.07618612
000310 4d b9 64 3c 3f 72 2f 3d f1 d7 e2 3c 1c 13 67 3d
       0.013960195 0.042833563 0.02769086 0.05641471

exp_avg f4 [40, 29]
000000 1c 67 0d 36 40 56 33 38 96 0c a0 35 f8 a7 62 36
       2.1070655e-06 4.2757252e-05 1.1924592e-06 3.3774395e-06
000010 24 2c 2a 38 21 bc f5 37 0e 90 5d 37 06 9a 5f 36
       4.0572268e-05 2.929388e-05 1.3206167e-05 3.3319243e-06
000020 16 a2 fc b5 53 9e 02 37 1a 1b 11 38 ad 06 47 36
       -1.8822636e-06 7.785467e-06 3.4595934e-05 2.9657197e-06
000030 cb 8e bb b5 4f ea 33 37 ce de 39 38 47 52 24 b7
       -1.3974144e-06 1.0723786e-05 4.431494e-05 -9.794318e-06
000040 a1 c5 ad b5 15 a5 92 36 2a bd 3c b6 ed bf a8 b6
       -1.2947022e-06 4.370357e-06 -2.812429e-06 -5.0291333e-06
000050 91 3d 05 37 24 0e bf 35 90 9a b7 b6 a4 ee a9 b4
       7.941752e-06 1.4234724e-06 -5.4718184e-06 -3.1652337e-07
000060 f5 71 05 b6 90 45 83 36 54 e1 69 36 7b 9e 84 35
       -1.9884876e-06 3.9122024e-06 3.4850864e-06 9.88089e-07
000070 8d 10 1d 38 57 de f4 b6 23 cb c0 b7 f7 b2 f8 35
       3.744713e-05 -7.2976504e-06 -2.2982776e-05 1.8529526e-06
000080 c8 ae e9 b6 7d a8 6d b7 08 c9 9b b7 9d 1f cb b6
       -6.9642883e-06 -1.416553e-05 -1.8571052e-05 -6.0535517e-06
000090 71 74 3b 36 4d 4d 3c 35 39 94 62 b5 85 32 bc b7
       2.793295e-06 7.0147945e-07 -8.4407253e-07 -2.2434871e-05
0000a0 b9 85 ad 34 b8 11 f5 35 68 56 01 36 33 de 8c b7
       3.2321057e-07 1.8259079e-06 1.9272793e-06 -1.679277e-05
0000b0 9d d2 2f b7 12 73 8d 36 81 e8 f5 35 f7 08 eb 34
       -1.047985e-05 4.2155234e-06 1.832159e-06 4.3778684e-07
0000c0 9f 9a 3d 34 1f 9b c9 35 7f 11 51 b5 53 dc a2 35
       1.7658247e-07 1.5020813e-06 -7.788403e-07 1.2134063e-06
0000d0 b8 da 04 36 03 7e 9e b5 26 67 0f 36 07 34 da b5
       1.9796844e-06 -1.1808592e-06 2.13687e-06 -1.6257408e-06
0000e0 94 96 3c b7 92 b6 82 b7 52 1f f1 b6 45 dd aa b7
       -1.1240732e-05 -1.5582224e-05 -7.186006e-06 -2.0368616e-05
0000f0 b5 38 8f b6 ba eb 72 b8 10 96 0b 38 a7 8a 56 b8
       -4.2683337e-06 -5.7916834e-05 3.327994e-05 -5.1150706e-05
000100 bc 66 16 37 a9 b3 38 37 c7 72 db 36 69 c9 27 b8
       8.964616e-06 1.1009085e-05 6.5400704e-06 -4.000348e-05
000110 5a db 8b 37 a4 ac 0d 35 df 15 f6 b5 92 c1 f8 b7
       1.6672235e-05 5.277782e-07 -1.8334794e-06 -2.9654042e-05
000120 34 9b e6 b7 e4 3e b7 37 dc e4 32 37 f9 d9 99 b7
       -2.7490409e-05 2.1844586e-05 1.0662912e-05 -1.8340523e-05
000130 8a 39 12 b7 f3 97 83 b7 8d 6b e9 37 d9 a5 f6 b6
       -8.715675e-06 -1.5687174e-05 2.7825847e-05 -7.3506785e-06
000140 c2 36 e9 36 92 90 00 36 1c 1a 03 36 93 97 fd 34
       6.9503158e-06 1.9157637e-06 1.9535719e-06 4.7235207e-07
000150 c1 61 b3 b7 f3 c0 5d 38 3b 5c 3d b8 c6 8e 13 38
       -2.1383983e-05 5.2870204e-05 -4.5147008e-05 3.51805e-05
000160 57 09 57 b8 22 20 00 b7 70 5b 26 39 c2 1f 64 b9
       -5.1268693e-05 -7.636876e-06 0.00015865057 -0.00021755605
000170 8e e8 8a 38 c3 88 03 b9 9f e7 8d 37 6e 66 8b b7
       6.6236695e-05 -0.00012544081 1.6916367e-05 -1.6617789e-05
000180 fb 3b 78 39 d8 1f 86 b9 f8 d2 b5 b8 73 a3 44 38
       0.00023673468 -0.00025582197 -8.6700486e-05 4.6882265e-05
000190 74 61 03 38 ec 49 99 38 a1 d6 17 b9 4f 58 9b b7
       3.1323594e-05 7.3093775e-05 -0.00014480438 -1.8518562e-05
0001a0 e6 32 06 b7 f4 fc 81 37 01 9c fd 36 94 ce 5f b8
       -7.998873e-06 1.5495789e-05 7.558149e-06 -5.3359734e-05
0001b0 df 3c 2c b5 2b 53 44 36 55 35 37 b7 1b df 0a 36
       -6.416357e-07 2.9254686e-06 -1.0920067e-05 2.0693467e-06
0001c0 c6 a8 3c 38 3d c0 1f 38 3e 8d a0 37 36 c6 f3 b8
       4.4979875e-05 3.808759e-05 1.9139257e-05 -0.000116240626
0001d0 08 bf 06 36 05 61 4e 38 fa 53 c3 35 80 18 b1 34
       2.007875e-06 4.9204584e-05 1.4553073e-06 3.2986645e-07
0001e0 68 19 53 38 aa 83 6d 38 ed 46 e8 37 ab 05 fc b7
       5.032998e-05 5.6627825e-05 2.7689583e-05 -3.004338e-05
0001f0 ad 8a 72 b6 5d 3b b9 b7 b7 ed 91 38 62 f7 89 37
       -3.614153e-06 -2.2081362e-05 6.9584166e-05 1.644687e-05
000200 52 f7 5e b7 30 5c 0e 35 fa ae 51 38 98 06 48 37
       -1.3289815e-05 5.303327e-07 4.9992443e-05 1.1922464e-05
000210 c0 b9 45 b7 a2 86 0a 37 2d a7 94 37 89 3a 8f b6
       -1.1785363e-05 8.256788e-06 1.7720822e-05 -4.2685465e-06
000220 de e3 1d b7 b7 9f 86 36 26 e6 ce b7 e9 dd b4 36
       -9.410984e-06 4.0121045e-06 -2.4664285e-05 5.3902518e-06
000230 33 0d 1d b7 3b 74 59 36 e8 dc 49 37 00 40 6c 31
       -9.361002e-06 3.2403175e-06 1.2031967e-05 3.43789e-09
000240 30 1b 48 38 3b be c4 b7 5a b6 73 b8 14 42 4e b7
       4.7709036e-05 -2.3453604e-05 -5.8105543e-05 -1.2293942e-05
000250 09 3e e2 b7 da 27 36 b8 94 de 6e b8 83 84 05 b7
       -2.6970187e-05 -4.3429296e-05 -5.6950914e-05 -7.9582705e-06
000260 2c da 3c b7 e0 7a c1 36 6a 68 70 b7 7c 22 5a b8
       -1.125647e-05 5.7661528e-06 -1.43294255e-05 -5.2007366e-05
000270 36 57 6f b5 dd ce 54 b6 fd 9f b0 b7 09 00 27 b8
       -8.9161347e-07 -3.1710872e-06 -2.1055335e-05 -3.9815935e-05
000280 b3 0a 3f b6 85 31 e0 b6 16 ae 90 b7 89 cf 5a b7
       -2.8467446e-06 -6.681485e-06 -1.7247203e-05 -1.3042133e-05
000290 f1 c4 4f 36 99 a2 f5 b6 e6 9c 84 b6 44 8b 26 b5
       3.0960039e-06 -7.320498e-06 -3.952172e-06 -6.2042477e-07
0002a0 f4 fe 0f b6 c1 19 ca 36 48 bc e6 b5 04 bd e3 35
       -2.1457063e-06 6.0230673e-06 -1.7191132e-06 1.6967829e-06
0002b0 dc f7 08 b5 8f 5d 11 b8 99 b0 88 37 12 04 54 38
       -5.102463e-07 -3.4657827e-05 1.6294698e-05 5.054853e-05
0002c0 ea 90 90 36 51 b3 87 38 42 42 25 b7 f9 30 93 38
       4.3084046e-06 6.470702e-05 -9.850193e-06 7.018628e-05
0002d0 60 75 20 36 0a fa fb b6 da 4f 2b b7 4d 88 83 38
       2.391018e-06 -7.5094913e-06 -1.0210986e-05 6.271955e-05
0002e0 25 42 54 37 9b dc f0 35 e4 23 bb b7 f6 39 35 37
       1.2651585e-05 1.7945598e-06 -2.230885e-05 1.0801936e-05
0002f0 79 eb 9d 38 c8 16 75 b7 2e 93 8b b7 ec d5 d0 37
       7.5302036e-05 -1.4608442e-05 -1.6638627e-05 2.4895147e-05
000300 81 64 1e 37 f4 68 81 b6 83 5f c6 37 d5 c8 2a 37
       9.440934e-06 -3.8567177e-06 2.3647915e-05 1.01795495e-05
000310 07 98 be b5 4e fc f7 b6 2a 9a 58 b7 fc 9c 7b b7
       -1.4200349e-06 -7.3905458e-06 -1.2910497e-05 -1.4997317e-05
000320 d9 cf 85 37 e7 7a 28 37 d0 11 ab 35 d6 a8 2b 38
       1.5951622e-05 1.0042196e-05 1.2745677e-06 4.0926818e-05
000330 ea a4 1b 39 84 79 b8 36 5f be 0c 39 9e 52 a5 37
       0.00014843387 5.4977736e-06 0.00013422359 1.9708004e-05
000340 9b d7 55 39 1a 82 cc b7 89 a2 0a b8 42 40 f9 36
       0.00020393582 -2.4379278e-05 -3.3053137e-05 7.428259e-06
000350 d0 99 2a 39 a9 f6 f7 37 42 23 01 b8 38 e4 fc b6
       0.00016269763 2.9559555e-05 -3.0788833e-05 -7.5367534e-06
000360 5c 09 f3 b6 d8 c1 77 39 5c 57 46 b8 0b 58 e9 b7
       -7.243054e-06 0.00023627968 -4.728824e-05 -2.7816763e-05
000370 e5 0c 06 38 22 a8 ab 37 fb 63 42 b7 ed 00 3d 37
       3.19601e-05 2.0463081e-05 -1.158658e-05 1.1265493e-05
000380 6d 15 2e 35 ac 24 42 37 33 0d 44 b6 5c 26 37 36
       6.485123e-07 1.1571839e-05 -2.921396e-06 2.7291453e-06
000390 b7 12 83 b6 5e b1 0a b6 56 d2 6d 38 c8 e2 23 38
       -3.906283e-06 -2.0666844e-06 5.6701094e-05 3.9073435e-05
0003a0 c2 31 c1 37 b3 79 b2 38 14 e3 93 35 f2 86 b8 37
       2.3030563e-05 8.51037e-05 1.1018442e-06 2.1997348e-05
0003b0 8a a7 86 38 32 df 85 38 74 bb c6 37 8c 74 6d 36
       6.4208245e-05 6.3835076e-05 2.3690729e-05 3.5383591e-06
0003c0 f1 06 a3 b6 24 97 da 37 d6 e7 4d 38 a0 c5 56 b6
       -4.8585866e-06 2.6058005e-05 4.9091723e-05 -3.2003518e-06
0003d0 ef 2d 6f 37 94 3e 8a b6 d1 6b 82 38 02 f1 e7 37
       1.4256205e-05 -4.1200055e-06 6.2189654e-05 2.7649574e-05
0003e0 83 8e 02 35 6d 87 4b 37 0d 1b 13 b6 6b be cf b6
       4.8636156e-07 1.2131274e-05 -2.1920453e-06 -6.1912483e-06
0003f0 95 b8 fa b5 da b1 f9 b5 40 26 5a b7 68 84 16 b7
       -1.8680172e-06 -1.8603707e-06 -1.3002718e-05 -8.971525e-06
